data/models/nov12_24_undersample/fold4_epoch_models/epoch_0_model.pt (torch, 775567 bytes, 9 tensors)

layers1d.0.weight f4 [128, 1280]
00000000: f2c1 1ebd c886 c033 fc38 83bb 017d 98bb
00000010: ebe7 533b 228b cc3c 8164 fcba 12fc 21bc
00000020: 92de 18bd c1ed e33c cfff 7ebc f32a b63a
00000030: 9751 3e3b bb35 82bc f3a1 0e3b 5a9e af3b
00000040: 74d3 2abc 50dc 0abd 8fda 62bc aadb f23b
00000050: 71db 84bc e2b8 583c 9046 983c 49e4 8c3c
00000060: 6594 a8bc 154b 25bc ab35 783b dc4b e6bc
00000070: 02dd fd3c d830 f93a 1165 bebc 3701 ffbc
00000080: 5512 3ebc 950d a13b 20a7 4fbc 108e e03c
00000090: 749f 34bc d425 cbbb 9620 ba3c 6eeb ac3c
000000a0: e1f8 e23a dcf6 ba3c d1f5 c0bb 2961 ad3c
000000b0: d72f 0dbc 48e1 07bd fc2a 0d3d f745 ae3b
000000c0: 1b80 023b 9806 883c c68a d93b 5a0a 1c3c
000000d0: 492a 4bbc 4eb1 593a 6a81 c3bc 7cb8 ac3c
000000e0: c103 74bc 4043 153d 644f c93c 080a 61bb
000000f0: c9d1 1b3c 8341 b9bc ac0b 3f3c d674 923c
00000100: 56c5 45bc 016d 683c b1c2 c6bc 3de9 013d
00000110: cf09 efbc 5aff 5a3c bf16 f83b d707 a3bc
00000120: 30a8 62bc d8cf 61bc 30ae 62bc ea85 45bc
00000130: c4d9 dd3b e569 bcbc ef7e 30bb edd0 f1bc
00000140: 9873 18bd bc28 e33b a800 07bc 5c9e 7ebc
00000150: 95ce 6a3c aa1a d0bc abb8 aabc 53af 72bc
00000160: aff1 bcbc 4034 71bc 72ca 9ebc 1f5a f5ba
00000170: 14ce b83c 2339 f63c e575 bf3c 6d80 a23c
00000180: c1a0 d13c 04f4 a03c fee5 14bc f82a 13bc
00000190: d976 603c 84df 263b c6bb 0e3d ae9a b43c
000001a0: c9b5 d23a 8c8c a93b 413d 97bb 37c7 39bb
000001b0: 2616 c0bb b0f7 da3b 09a6 d13c 8704 2ebc
000001c0: dc57 eabc 692c 393c aebb fdbb 09a6 bfbc
000001d0: 3f73 773c ae10 c8bc edb7 82bc 7ae1 91bc
000001e0: be35 bb3c f729 53bc 59d1 fcba 5e36 e13b
000001f0: ff3b e8bb 77e5 df3b 8294 95bb edda f9bb
00000200: 5644 43bb f2a2 bebc c2c3 0e3b 1038 c8bc
00000210: 2dd9 973c 95b5 2fbc 4cad 8cbc 17b0 02bd
00000220: c2a4 8c3b 1639 89bc c211 97bc df55 533c
00000230: 069e 5ebc 0b86 b0bb dd32 95ba 8962 11bc
00000240: 6c51 46bb 3e71 26bc 45a8 fbbb 9f93 913b
00000250: 4792 053d d77c a0bb c5a4 10bb 0c49 223c
00000260: 1592 d63c 1690 98bb c273 3f3b 618e a33c
00000270: 6513 2cbc 9dc7 b1bc 735e 953b f959 b23c
00000280: dcfb 913c bd14 e4bc 7464 6dbc b390 23bb
00000290: f94f e7bb 5281 b1bc ac37 c03c a793 81bc
000002a0: b16a 1d3c 3531 573c fc23 093d 922b 88bc
000002b0: 7f3c 50bc 738f bc3c c1bd b53c 4326 e53c
000002c0: 7ad6 13bd b666 ab3c d038 f2bc d26b 443c
000002d0: 59f6 81bb 7de3 02bd 762c c7bc 50b5 263d
000002e0: add1 81bc 51fa be3b 7243 a73c aa9d 62bc
000002f0: 93ea 0ebd e3cb 343d 9ea3 90bc bc71 efbb
00000300: 90dc 543d 5f63 9bbc dfab 09bd 6198 143d
00000310: 7e24 3cba 0dba 70bd 11b3 083c caf2 663c
00000320: e1e0 0cbd 287d 9bbc 00fc 38bc b3c3 5f3c
00000330: f642 a4bc f6e1 f73c ad13 f03b f706 1b3c
00000340: f9b7 083d 2821 723c b0a0 a8bb 0e69 dfbc
00000350: 6cd2 6b3c 473d 0f3c 40af bf3c c475 6d3b
00000360: 6db6 423d b929 bc3c 59b1 c53c eb06 e83c
00000370: 7548 403c eeca 14bc 8ca4 10bc e358 713c
00000380: bf33 80bb 0596 e03c 7c75 e93c 722f 083a
00000390: 8e51 ffb9 bf1e 843b 3680 a5ba 3d07 413c
000003a0: 902a a0bc d743 b93c c74d a8bc 602a 55bb
000003b0: 8fe5 9cbc ad2e 7c3c 4328 babc d712 9cbc
000003c0: c316 d43a 4469 003c 9656 05bb 00a6 dd3b
000003d0: 19a7 23bc 954f bcbc 72bf cd3b 69a1 04bc
000003e0: fc6c 1abd c555 c73c 6fff bf3c 47c8 debb
000003f0: 6b6a bcbb 8a4c 783c 03da 87bc 981e 033d
-0.03875918 8.965213e-08 -0.004004596 -0.0046535735 0.0032334279 0.024968687 -0.0019256027 -0.009886758
-0.037321635 0.02782333 -0.015563919 0.0013898298 0.002904033 -0.015894761 0.002176401 0.005359453
-0.010426391 -0.033901513 -0.013846054 0.00741144 -0.016217919 0.013227673 0.018588334 0.017198699
-0.020578573 -0.010088702 0.0037873785 -0.028112344 0.030989174 0.0019011749 -0.023241552 -0.031128509
-0.01160105 0.004914949 -0.012674123 0.02741149 -0.011024345 -0.006199578 0.022720616 0.021108355
0.0017316603 0.02282279 -0.0058886786 0.021164494 -0.008617363 -0.03317383 0.03446482 0.005318399
0.0019912783 0.016604707 0.0066388575 0.009523952 -0.012400218 0.00083043135 -0.02386542 0.021084063
-0.014893473 0.036441088 0.02457399 -0.0034338254 0.009510466 -0.022614246 0.011660498 0.017877977
-0.012070974 0.014186145 -0.024262758 0.031716574 -0.029179482 0.013366545 0.007571071 -0.0199012
-0.013834044 -0.013782464 -0.013835475 -0.012055853 0.0067703445 -0.022999713 -0.0026931127 -0.029518569
-0.037219614 0.006932346 -0.008239903 -0.0155406855 0.01433148 -0.02540334 -0.02084001 -0.014812308
-0.023064462 -0.01472193 -0.019383643 -0.0018718875 0.022559203 0.030056542 0.023371646 0.019836629
0.025589349 0.019647606 -0.009088038 -0.0089824125 0.0137002105 0.0025462816 0.034847043 0.022046413
0.0016075905 0.005174225 -0.0046154563 -0.00283475 -0.0058620153 0.0066823587 0.025591867 -0.010621197
-0.028606348 0.011302092 -0.0077433204 -0.023394601 0.01510316 -0.024422016 -0.015956843 -0.01780771
0.022852775 -0.012888423 -0.0019288465 0.006872936 -0.00708723 0.0068327743 -0.0045648227 -0.007624975
-0.002979537 -0.023271058 0.0021784161 -0.024440795 0.018536175 -0.010724445 -0.017172478 -0.031906214
0.0042921016 -0.016750854 -0.018441085 0.012898891 -0.01358748 -0.005387073 -0.0011382956 -0.00887359
-0.0030260934 -0.010158835 -0.0076799714 0.0044426466 0.032610204 -0.0048976946 -0.0022070867 0.009905111
0.026192704 -0.0046558483 0.0029213284 0.019965352 -0.010502671 -0.021701628 0.0045583784 0.021771418
0.017820291 -0.02784192 -0.014489282 -0.0024958074 -0.007059094 -0.02166811 0.023464046 -0.015817476
0.009607957 0.01313429 0.033481583 -0.016622338 -0.012709736 0.02301762 0.022185208 0.027972346
-0.036093213 0.020923 -0.029568106 0.011988597 -0.0039661345 -0.03195523 -0.024313193 0.040700257
-0.015847052 0.00582818 0.020417903 -0.013831535 -0.034891676 0.044139754 -0.017656144 -0.0073072594
0.051968157 -0.018968282 -0.033611175 0.036278132 -0.00071770686 -0.05877118 0.008343474 0.014095971
-0.03439415 -0.018980578 -0.01129055 0.013657498 -0.02005146 0.030259114 0.0073265643 0.00946211
0.033378575 0.014778413 -0.0051461086 -0.027271774 0.01439343 0.008742637 0.023398995 0.0036233524
0.047537256 0.022969114 0.024132418 0.028323611 0.011736025 -0.009081585 -0.0088282935 0.014730665
-0.0039124186 0.027415285 0.028498404 0.0005195058 -0.00048698153 0.0040319855 -0.0012626711 0.011781511
-0.019551545 0.022615356 -0.0205449 -0.0032526478 -0.01915243 0.015391988 -0.022724276 -0.019051952
0.00161811 0.007837597 -0.0020345799 0.0067641735 -0.00998857 -0.022987166 0.0062789256 -0.008095124
-0.03770159 0.02433289 0.02343723 -0.0067987773 -0.0057499907 0.015154967 -0.016583448 0.0320116

layers1d.0.bias f4 [128]
00000000: d3df 12bd 9d7a cbbc 0446 cb3b ad19 2b3c
00000010: bc85 c6bb 582b 7bbb 436c a3bc a635 d4bc
00000020: 74fe 0c3c 2a7a 28bc 3b8c 21bc a4a2 033c
00000030: 6f7f 343c 498b 40bc 5d40 c0ba 3d93 903c
00000040: 8070 f4bc 3da9 7f3b 660b c43b 1f3a 12bd
00000050: aa1c 0dbd 5d1b 6bbc 5fa2 4dbc 9c0c 91bc
00000060: fab1 673c 574b 723c ed3d 003c 68b1 c5bb
00000070: 97a5 e6bb ca57 953c 2a0b 10bd 5d1c 38bc
00000080: 5cf1 43bc aaf6 a03c 5518 85bb 58cf dfbb
00000090: 3af7 1bbd e32e 8d3c 8302 8ebc 3dd9 88bc
000000a0: 308c 063c f139 54bc 86b7 bfbc 2ab8 bd3c
000000b0: f202 23bd c00e 75bb 6e6b 1fbc 3564 8dbc
000000c0: 6acc 203b fbc5 cabc 6bdb 553c d5bc 32bc
000000d0: 7117 283c 1138 00bd caa9 c0bc f95a cdbc
000000e0: 12be a33b 27cf f7bc 98bb c0ba c6c1 9d3c
000000f0: d6c7 9bbc 6604 ac3c 7367 313a e9c7 a1bc
00000100: a9c5 c3bc 7125 423c 733d c7bb d4e9 16bc
00000110: b6aa ddbc 81f6 0b38 5c73 c8bc 9e94 25bc
00000120: aa5e e2bc 7790 95bc be94 39bc 31df 33bc
00000130: 2a9e b2bc 398d 1bbc a616 853a 5916 90bb
00000140: 8bdd 59ba d3a9 29bb f34d 1abb dcde b6bc
00000150: 519e 4a3b f068 843c 469f 293a 22f0 50bc
00000160: 6cd3 4c3b d2f2 e8bb 9ed8 bbbc 33df d6bc
00000170: 5758 c83b 143a ea3b c76a 02bd 5a63 4b3b
00000180: 8d93 febc 56d8 05bd 53c0 b8bc 1a52 333b
00000190: 66ae 0bbd bd6f 90bc 1240 a93c 90ba a7bc
000001a0: 436d b03c ad60 73bc ac4a 033c 63ae b7ba
000001b0: 66c5 323c 5473 a93a ecaa fe3a be73 d13b
000001c0: 854b 8d3b 19aa ebbc 8f39 9d3c a55c 3dbc
000001d0: 1502 cf3b 7b09 b93c 8771 30bc 6b46 75bc
000001e0: 35d5 6fbc c5d0 c6bc 395d 133c f154 62bb
000001f0: 1b53 9dbc 2dd4 8b3c 5045 87bc 2b59 4dbc
-0.035857987 -0.02483874 0.006203415 0.010443133 -0.006058423 -0.0038325395 -0.019949084 -0.025904488
0.008605588 -0.010283032 -0.009860094 0.008034382 0.011016711 -0.011751958 -0.0014667619 0.017648334
-0.0298388 0.0039010786 0.005982804 -0.03569996 -0.034451164 -0.014349786 -0.012550919 -0.017706208
0.014141554 0.01478847 0.007827264 -0.0060331114 -0.007038783 0.018230338 -0.035166897 -0.011237231
-0.0119594 0.019648869 -0.0040617385 -0.006830137 -0.03807757 0.017234271 -0.017335182 -0.01670515
0.008212134 -0.012953267 -0.02340294 0.023159105 -0.03979773 -0.0037392825 -0.009730203 -0.017259696
0.0024535903 -0.024752608 0.013052802 -0.010909279 0.010259495 -0.03130347 -0.023518462 -0.025067793
0.0049970234 -0.030250145 -0.0014704345 0.019257437 -0.019016188 0.020998191 0.00067674293 -0.019748645
-0.023897963 0.011849747 -0.0060803234 -0.009211022 -0.02705894 3.3369757e-05 -0.02446907 -0.010106234
-0.02763303 -0.018257363 -0.011326967 -0.010978506 -0.021803934 -0.009494119 0.0010153844 -0.0043971953
-0.00083109055 -0.0025888577 -0.0023544997 -0.022323065 0.0030917118 0.01616332 0.0006470572 -0.012752565
0.0031253947 -0.0071090246 -0.02293044 -0.026229477 0.0061140466 0.0071480367 -0.031840112 0.003103456
-0.031076217 -0.032677017 -0.022552645 0.0027362169 -0.034101866 -0.017631406 0.020660434 -0.020474702
0.021536475 -0.014854592 0.008013409 -0.0014013763 0.010911321 0.0012928047 0.0019429601 0.0063919714
0.004311981 -0.028767632 0.019192485 -0.011557733 0.006317387 0.022587528 -0.0107692545 -0.014970402
-0.014638235 -0.024269471 0.008994394 -0.0034535492 -0.019204667 0.017068947 -0.016512543 -0.012533466

layers1d.3.weight f4 [128, 128]
00000000: a04e a6bd 502e 37bd d027 e83c 2eb3 203c
00000010: 57bd fbbc 9b9b 8e3b 8dfc 92bd 1baa b33b
00000020: 8d9f 69bd 77e2 4f3d 05d9 9c3b 671a 43bd
00000030: 637a a0bd 00fb 2abd b41b f1bc 15f2 86bd
00000040: 723c 94bd a2c8 f5ba 0eb2 35bd 6d36 b3bb
00000050: 0edc fe3c af6d c93d bc2d 9c3d c093 fbbc
00000060: afe0 60bd 8fad cebd bad3 6f3d a62a 80bc
00000070: 11b6 993d a2ca 893d 2e84 52bd 9f93 c9bd
00000080: 9f9e a23c cc2a b7bd 6c7f 743d f73a 85bd
00000090: d761 b73d 586f 5d3d e5a2 14bd 88f6 483c
000000a0: 73f3 05bd 03fb aa3c 4b76 a93c 855b 123d
000000b0: d932 8f3d e282 80bd cc0d a43b aa24 32bd
000000c0: ef70 b6bd 9f36 483d 41bc 15bd ab42 2abd
000000d0: fa9a c7bc 8030 6abd c2f3 ad3c 84ad 813d
000000e0: cc48 d53b bf65 99ba 43f3 b73c f617 a3bd
000000f0: cc77 2abd 09cd 363d 5cc3 1abd 7342 1ebb
00000100: 535c f1bc 9c70 583d cac8 cf3d f7b4 023e
00000110: 31e1 10bd 2a0c d23c cc36 7dbc f5d8 95bd
00000120: 92fd 523c 25e7 93bd 64f1 d9bc 1c00 8dbc
00000130: c483 803d 7cca fcbc d026 cf3d becf 3a3d
00000140: 655b 6abd 4577 333d a5e0 5e3d 792b 03bb
00000150: 94e6 d9bc 527e 8bbd 99f0 5cbd 88f1 adbd
00000160: 1e89 9dbd c103 46bd 7c74 b3bd f2ad a0bc
00000170: 75e7 42bd dcb4 27bc ea36 a6bc a34e 8fbd
00000180: 9c05 253d 4b3c 19bd 7941 bcbb f10b a13d
00000190: afed 59ba f4e7 5cbd 5f49 b53d a9b8 573d
000001a0: 5f5c 67bd 4f3c a9bb fd91 a4bd 36a5 2b3d
000001b0: cfb4 f3bc 48de 77bd 9d6b 34bc e7c5 173d
000001c0: 33af 3cbd 7a31 abbc e70d 803d 2bc9 64bd
000001d0: 5b5e 08bc b710 80bb ec31 d03b 5f0c 713d
000001e0: 953b e4bd 7236 873d 9afe 17bc 4d88 b2bd
000001f0: 2e7f a03d 0f8e e1bc 19c8 9bbd 695b 0bbd
00000200: 385c af3d b950 47bd f579 8e3d 07c8 b4bd
00000210: 9080 bdbc 44d6 993d d811 8a3d b607 d2bd
00000220: da69 073d b023 00bd becd acba cd4c 0abd
00000230: 3b37 f3bc 3db1 403d 3db5 26bc 596f 43bd
00000240: 57a2 6d3c 3ff7 2bbd 39d6 dbbc 1f1c 5e3c
00000250: c9e3 4a3c ddfb 4a3c 11d6 3e3d c96b f13c
00000260: a4d9 0abd 8ff3 8dbd 1ad9 98bd ff23 b83d
00000270: f840 babd 13ae d23c 701d 563d 7f62 8c3d
00000280: bd77 173d 328a 013d d3b9 86bd 2e17 53bd
00000290: 1e67 e8bd 455d c13c fe5c d1bc 01ba 24bd
000002a0: 65e3 3bbd 434a cabd bfad a6bc 7908 c23b
000002b0: e502 503d 94b2 0fbd a2b7 2abc 66b2 9b3d
000002c0: 4c83 3fbb 22ad 373d 6029 b4bd bfcc aa3d
000002d0: 8b48 0ebd a8c4 ca3d 9210 89bd ca54 cf3b
000002e0: f4bf 7f3b 337f 42bd 06f5 16bd c802 fbbc
000002f0: 7df9 bbbd 7ac5 2b3d 027a ba3d e514 0a3b
00000300: 130b 073d c49c 6d3c a413 0a3b 83a5 3dbc
00000310: fb2d 8ebd ddc6 debc a871 483c 83d5 70bd
00000320: 5301 543b 1ba4 57bd 4f10 823d f92c c43c
00000330: a2a2 5a3d 56dd b4bd 5bb6 ac3c 8705 adbd
00000340: 5513 60bd 7010 dbbc 4354 f3ba b7fe 8dbd
00000350: 3b2f 553b be02 b73c b9c8 cb3d 070f 973d
00000360: ae7c f73c c79c 6b3d da9d 46bd 85f9 413c
00000370: b120 ca3d ac25 b0bd b264 c7bd b846 aabd
00000380: 0762 123d 661f a93d 2e02 453d 222c 17bd
00000390: 5a1b 1dbd 3200 233d 4cc2 47bd 1552 90bc
000003a0: 3fc7 1cbc b011 a0bd 59a7 cc3d 57f5 173d
000003b0: c10f 353d 80b6 65bd 2d26 bc3d a3cf d13d
000003c0: 2389 353d ff5e 8d3d c07b 833d 473e b2bd
000003d0: 20a5 abbd e4c7 bf3c df8a 15bd 3779 6ebd
000003e0: 7632 4abd e746 963d 590b 6dbd 501f cebd
000003f0: 9509 153d fbc4 2b3c 9b75 d13c d6ae d7bb
-0.08120465 -0.0447219 0.028339297 0.009808345 -0.030729933 0.0043520457 -0.071770765 0.0054829246
-0.057036925 0.050753083 0.004786613 -0.0476326 -0.078358434 -0.04174328 -0.029432155 -0.06589142
-0.072380915 -0.001875181 -0.04435926 -0.0054691345 0.03111079 0.098353736 0.07625911 -0.030710101
-0.054901775 -0.100916974 0.058551528 -0.015645336 0.075054295 0.06728102 -0.051395588 -0.098426096
0.019851027 -0.0894371 0.05969183 -0.06505387 0.08954208 0.054061264 -0.03628816 0.012265809
-0.032702874 0.020871645 0.02068629 0.03573181 0.0699212 -0.06274964 0.0050065275 -0.043491997
-0.08908259 0.048880216 -0.036556486 -0.041567486 -0.02436589 -0.05717516 0.021234397 0.063319236
0.006508922 -0.0011703296 0.022454863 -0.079635546 -0.041618153 0.04462913 -0.037783965 -0.0024148494
-0.029462969 0.052841768 0.10145719 0.12764345 -0.03537101 0.025640566 -0.015454959 -0.07316772
0.012877839 -0.07221822 -0.026604362 -0.017211966 0.06275132 -0.03085827 0.10114825 0.045608275
-0.057216067 0.043814916 0.054413456 -0.0020014925 -0.026599206 -0.06811203 -0.05394039 -0.08493334
-0.07692169 -0.048343424 -0.08762452 -0.019614194 -0.047584016 -0.010235991 -0.020289857 -0.06997421
0.040288553 -0.037411015 -0.0057451096 0.07863606 -0.00083133107 -0.053932145 0.08851885 0.05266634
-0.056484576 -0.00516466 -0.080356576 0.041905604 -0.029749302 -0.06051472 -0.011011985 0.03705397
-0.04606552 -0.020897616 0.06252652 -0.05585591 -0.008323277 -0.0039082426 0.0063536074 0.05884969
-0.11144177 0.066021815 -0.00927701 -0.087174036 0.078367576 -0.02753356 -0.07606525 -0.034022722
0.08562511 -0.048660967 0.06956855 -0.08827215 -0.023132592 0.07511571 0.06741685 -0.10255377
0.033059932 -0.031284034 -0.0013183875 -0.03376465 -0.029689422 0.047044028 -0.0101750465 -0.04771361
0.014504037 -0.04198384 -0.026835548 0.013556509 0.01238341 0.01238915 0.04659087 0.029470341
-0.033898965 -0.06931221 -0.07463284 0.08991241 -0.09094423 0.02571777 0.052274168 0.06854724
0.036979426 0.031625934 -0.06578412 -0.051535778 -0.11347793 0.023604045 -0.025557037 -0.04021645
-0.045871157 -0.098774455 -0.02034652 0.00592142 0.05078401 -0.035082415 -0.010419758 0.07602386
-0.0029222546 0.044842847 -0.08796954 0.083398335 -0.03473715 0.099007905 -0.06692614 0.0063272463
0.0039024325 -0.047484588 -0.036854766 -0.030640975 -0.091784455 0.041936375 0.091053024 0.0021069583
0.032969546 0.014502708 0.0021068836 -0.011575106 -0.06942364 -0.027194435 0.012234129 -0.05879737
0.0032349422 -0.052646738 0.06350767 0.023947226 0.053377755 -0.08831279 0.021083048 -0.0844832
-0.054705936 -0.026741236 -0.0018564541 -0.069333486 0.0032529372 0.022340175 0.09950394 0.07375913
0.03021082 0.05752256 -0.048490383 0.011839275 0.09869517 -0.08600935 -0.09736003 -0.0831427
0.035738017 0.08257942 0.04809778 -0.036907323 -0.038356163 0.03979511 -0.04876928 -0.017617265
-0.009568988 -0.078158736 0.099928565 0.03709921 0.044204477 -0.05608225 0.09186969 0.10244682
0.044320237 0.06902885 0.06420088 -0.08703285 -0.083811045 0.023410745 -0.03650939 -0.05822107
-0.04936453 0.07337742 -0.05787215 -0.10064566 0.03638609 0.0104839755 0.025568774 -0.0065821214

layers1d.3.bias f4 [128]
00000000: 172f 503d 9279 3f3d d842 043d 157c 7e3d
00000010: ee9d a13c 31e7 353d 730b 11bd 6089 cfbb
00000020: 5289 18bd facf 5dbd 0694 e73c 2e24 3dbd
00000030: 5574 1f3d 5aeb 08bc e14e d0bc 62ca 4c3d
00000040: 9ccb d9bc d1e1 2fbd cb4d 94bc d4e2 1bbd
00000050: 7a38 9dbd 1d58 0bbd 6be8 18bc 04d0 f83c
00000060: c8c0 2f3d a425 5bbd d8f7 4a3d 9151 093d
00000070: bb50 24bc d892 5a3d 6d56 62bd 524a 2f3d
00000080: 6258 953d 11f2 293d c7bc 12bb 1ad1 453d
00000090: bf13 393d a8f4 ad3d 599e 503d 46d7 2fbd
000000a0: 9030 2e3d cbf0 ad3d cafc d8bc 6d62 543c
000000b0: a31f 223d e7fb 9b3d 4d72 1fbd 452f c53c
000000c0: e6cd 79bd 3a99 3dbd 1e11 8b3b 4ebb 98bb
000000d0: d33c aebd 7ef3 873d a6f8 fa3c 84be c53c
000000e0: 2490 cabc f7b3 573c e178 9fbc e91d 513d
000000f0: 2d42 393d 88b9 0b3d 83a4 2d3d c9be 0dbd
00000100: 3ddd 823d 0e96 09bd 0316 2dbd bb46 cf3c
00000110: c130 2c3b 2d4e a53c 1295 8bbd feb8 60bd
00000120: b825 d1bc 2e9d b9bc 3a44 cf3c b3b3 42bd
00000130: 44d9 22bc 4f85 a2bc 1be1 3fbd e39b 663d
00000140: 90f9 753d 6798 ba3b ed4b 21bc 9b86 123c
00000150: 8ab6 e4bb c08e 56bd 2bb8 5abd 8b9b b2bb
00000160: dfd0 5dbd 6b16 28bd 33bb 20bd e3c9 593d
00000170: 8b99 1c3d 4c38 3cba 2e8e dc3c f2bc 89bd
00000180: 3259 603d 3cf0 3fbc 7c96 f83c f307 913d
00000190: 9d8c 2f3d b2f2 0bbd a8aa 873b 337f 4ebd
000001a0: b194 1abd 033f ff3c 29f2 0fbd 128a 313d
000001b0: 02aa 96bd c326 413d 3f67 a33d 9d33 1b3c
000001c0: 8af9 963d 2ab1 b73d 963e 913d 7d64 053d
000001d0: df39 4c3d fcee 7bbd 7bb4 fe3b 1a16 88bd
000001e0: 5b1f 7f3d 3ec8 8bbc a0e4 f3bc 1799 553d
000001f0: 97e7 1dbd c8fe a93c 63f8 c83c b211 35bd
0.05082616 0.046746798 0.03229031 0.062130053 0.019728627 0.044409934 -0.03541131 -0.006333515
-0.037240334 -0.05415342 0.028268825 -0.04617708 0.038929302 -0.008356893 -0.025428237 0.049997695
-0.026586346 -0.042939965 -0.0181035 -0.038058117 -0.07676788 -0.03401958 -0.0093327565 0.030372627
0.04290846 -0.053502694 0.04955277 0.033525053 -0.010029013 0.053362697 -0.055258203 0.042795487
0.07292248 0.04149062 -0.0022390352 0.048295118 0.045184847 0.0849393 0.050932262 -0.04292991
0.04252678 0.08493193 -0.026487727 0.01296292 0.039580952 0.07616406 -0.038927365 0.024070391
-0.060987376 -0.046288706 0.004243984 -0.0046610003 -0.08507695 0.06638239 0.030636143 0.024138696
-0.024726935 0.013165466 -0.01946682 0.051053915 0.045229126 0.034112483 0.04239322 -0.034605775
0.06389854 -0.03359037 -0.04225732 0.025302282 0.0026274177 0.020178879 -0.06815542 -0.054863922
-0.025530681 -0.022657957 0.025301088 -0.047534656 -0.0099394955 -0.019838957 -0.046845537 0.05630101
0.060052454 0.0056944373 -0.009844762 0.008943225 -0.006979768 -0.05238223 -0.053398293 -0.005450671
-0.054154273 -0.041037004 -0.039241027 0.05317105 0.038232367 -0.000718002 0.026923265 -0.067254916
0.054772563 -0.011714991 0.030345194 0.07081594 0.04285871 -0.034167 0.004140217 -0.050414275
-0.03773946 0.031157976 -0.03514305 0.043344565 -0.07356645 0.047156107 0.07978677 0.009472755
0.073718145 0.08969338 0.070920154 0.032566536 0.049859878 -0.06150721 0.00777298 -0.066448405
0.062285762 -0.017063256 -0.029772103 0.05214795 -0.03855094 0.020751372 0.024532503 -0.04420633

combined.0.weight f4 [64, 128]
00000000: 6f0d b83b 21e6 603d 545a a73c a388 d7bd
00000010: ed36 b3bd 0bb0 8f3d ac99 8ebc f467 d53b
00000020: b60e 46bc 0862 98bc 60eb 1a3d 9089 afbd
00000030: 639d 1fbd fdcd 8f3c 132c 6a3d 3b1c f0bc
00000040: 4cf8 d3bc 3682 b23d eddb 753c ddae 96bd
00000050: e00f 923d cba6 563d 6816 a43d fa1f 193d
00000060: d203 91bd 80fc a53d 0f49 a0bd 8f9c aabd
00000070: 47ad 96bd 0801 0ebc d3fd 5c3c 872b d23d
00000080: f495 d73c 593d 463d 0d73 acbd 2a90 253d
00000090: 0504 823d 9528 8d3d 92d9 1abd a61f ef3b
000000a0: eaaf b83c 3071 5f3d 0fb6 983b 7964 bd3d
000000b0: 3c9b 8a3d 0a09 99bd 17d4 b2bc c270 bfbd
000000c0: c47d 3f3d e424 d8bd 2451 47bd 44e7 8a3d
000000d0: 69ce 85ba bb8c a8bc f879 81bd 9b96 653b
000000e0: 4d7c 2dbd 886c 963c 7e14 c43c b80d 9ebd
000000f0: 0ae4 5abd f401 c3bd 2f70 9fba f9ff 393d
00000100: 70a8 07bd 34a1 c4bc b8d0 863d a80c b43d
00000110: b857 053d 7878 223d c56b f33c 3954 ca3d
00000120: c1f7 8a3c a385 14bd 5f7e 13bd 58d4 bbbd
00000130: 171e b4bd 174d 10bd 15e0 6d3c a06c 5ebd
00000140: ca18 8dbd 527b 863c 1164 823d bb9e 933d
00000150: 444a 8cbc d158 35bc ce8f 79bd ec82 29bd
00000160: 2e4c bbbc 29ac 9e3d 18bd f6bc cee5 b7bb
00000170: 7265 1f3d 9bf0 9d3d b96f a93d eca3 8d3d
00000180: 57ac b7bb 911a 043b 65b1 5d3d 328c e2bc
00000190: 3ae3 84bd 12fe 663d 223b 5c3c 38a3 51bd
000001a0: 8b26 a63d 2189 d6bd 32de 46bd 482f 183d
000001b0: 11e4 a03d 5bd9 a93d 522c 1d3d f935 9abd
000001c0: 8cc2 703c 35f8 a0bd 92f1 b43d 9326 113d
000001d0: a7d5 9fbd 0775 133d 026b 033c 2257 06bd
000001e0: b96d 19bd d53d 01b9 d659 273c 2213 c53c
000001f0: e2a1 a4bc 3a47 69bd 8978 2b3d 6cfc 363d
00000200: 2794 3fbc 7c23 36bd 1c6c 9cbd 8ba7 b33c
00000210: 585f ccbd 702d 71bd 5da1 7bb8 e4f8 b83c
00000220: 57ac 30bd eb18 81bd 0959 a3bc 61de 183b
00000230: ae54 e53d 5ffb 8cbd 6679 1abd 4d14 b93c
00000240: 4dd5 3bbd f3e6 18bd ad77 8d3c d21b a0bd
00000250: 2245 aebd 3cbd 6b3d 1a35 aabb 8316 c9bb
00000260: 4da7 62bd 3d25 8b3d d27f a53c e2d8 b73c
00000270: ca6b 083d bf70 73bc ebc2 25bd 3377 c5bc
00000280: 11e7 e4bc bab2 18bc c0e5 31bd e1d1 8ebd
00000290: d13d 013d dc9c 3fbd 6ada 843c 06eb 0a3c
000002a0: 539c 8b3d 6e2d a43d 7a53 6d3d cbee 9f3d
000002b0: 28b1 7bbd 8a62 2c3b fa42 d33d e6f9 4a3d
000002c0: 361a 23bd 138a a5bc 27b2 e03d 4bd2 9dbd
000002d0: 7946 9c3d 0bc4 593d 3ea6 01bd 7bc2 74bd
000002e0: aa61 d33c 0ed9 f9bb fa2e bfbd 152d 8c3c
000002f0: ca9d 29bc 594e aa3c 650b e639 3bff 213c
00000300: 44ec 053c f43d d4bd 82ff 08bd 8c10 46bb
00000310: dd34 93bd 730e 403b 61ed 873c 0bd5 353d
00000320: 8307 52bc 9845 af3c 27bf 573d ebd6 7e3c
00000330: c106 233d 67fd 46bd 47a1 bc3c b944 923c
00000340: b4dc 6d3d 34a2 863d 61f8 45bb fd3c 2ebd
00000350: 92b9 7dbd 0dd0 b6bd b737 a43c e984 fb3c
00000360: 98f1 5e3d a1bb 1fbd ca49 3ebd 3d57 3ebc
00000370: 6fa2 7dbd 9677 46bd 8b8e 88bd 15fd aa3b
00000380: d58f 7f3d 9a3f 453d c988 1c3d a819 e7bc
00000390: c811 4e3d e8c6 2d3d 37e4 99bc 02e4 4d3d
000003a0: 51d2 76bd 0f4c a03b 10c0 e1bb 55b0 3f3d
000003b0: 54fa cc3c 69d3 463d 1354 b9bd 4c80 b73d
000003c0: 75d9 c3bd 5513 953c 78f0 9c3c 1ea2 843c
000003d0: 30a9 0ebd 83fe 023b f59c 2a3d 4ab9 7e3b
000003e0: 3acb f1bc 1d8c a4bd c3c5 1bbd e4fa a1bd
000003f0: cc30 793d 056a acbd ef62 9c3d 80a2 993d
0.005616836 0.054906968 0.020428814 -0.10524108 -0.08750711 0.070159994 -0.01740726 0.0065126363
-0.012088468 -0.018601432 0.037822127 -0.0857116 -0.038968455 0.017554278 0.05717094 -0.029310336
-0.025875233 0.08716242 0.015006048 -0.07357571 0.07131934 0.05240516 0.08012086 0.03738401
-0.07080807 0.08104801 -0.07826435 -0.083306424 -0.07357269 -0.008667238 0.013488251 0.102622084
0.02631662 0.04839835 -0.08420382 0.04042069 0.06348423 0.06892506 -0.037805147 0.007297474
0.02254482 0.054551303 0.004660375 0.09247679 0.0676789 -0.07472427 -0.021829648 -0.09347679
0.0467508 -0.10553911 -0.048661366 0.06782392 -0.001020861 -0.020574918 -0.06322092 0.0035032395
-0.04235487 0.018362299 0.023935553 -0.077174604 -0.05344013 -0.09521857 -0.0012164171 0.04541013
-0.03311962 -0.024002649 0.06582779 0.087914765 0.03255436 0.03966567 0.029714474 0.098793454
0.016963841 -0.03626026 -0.03600919 -0.09171361 -0.08794802 -0.03522977 0.014518757 -0.05430281
-0.06889494 0.016416226 0.063667424 0.0720801 -0.017125256 -0.011068539 -0.06092816 -0.041384622
-0.022863474 0.07747681 -0.030119464 -0.0056121117 0.038915105 0.077119075 0.082732625 0.06916031
-0.0056052613 0.0020157436 0.054124255 -0.027654741 -0.064886525 0.056394644 0.013441833 -0.05118105
0.0811282 -0.10475374 -0.048551746 0.037154466 0.07856 0.082934104 0.038372345 -0.07529826
0.014694821 -0.07859842 0.088351384 0.035437178 -0.07804423 0.036000278 0.008021118 -0.03279794
-0.037458155 -0.00012325433 0.01021429 0.024056975 -0.020096723 -0.056952693 0.041863 0.044674322
-0.011693037 -0.044467434 -0.07637808 0.021930477 -0.09979123 -0.058881223 -5.9993345e-05 0.022579618
-0.043133106 -0.06303581 -0.019939916 0.0023325908 0.11197792 -0.06883883 -0.03771343 0.022592688
-0.045857716 -0.037329625 0.01726898 -0.07817806 -0.0850928 0.057553515 -0.0051943185 -0.006136717
-0.05533533 0.06794212 0.020202551 0.022442285 0.03330592 -0.014858424 -0.04046909 -0.02410469
-0.027942212 -0.0093199555 -0.043431997 -0.06973625 0.031553093 -0.046780452 0.01621743 0.0084788855
0.06816926 0.080164775 0.057940938 0.07809218 -0.061448246 0.002630385 0.10315509 0.049554728
-0.03981992 -0.02020744 0.1097148 -0.07706126 0.07630629 0.053165477 -0.03165268 -0.059755784
0.025803406 -0.007624752 -0.09335132 0.01711134 -0.010352561 0.020789312 0.00043877508 0.009887512
0.008174006 -0.10363379 -0.033446796 -0.0030222265 -0.07187817 0.0029305487 0.016592683 0.044392627
-0.012819174 0.02139549 0.05267253 0.01555417 0.039801363 -0.048581507 0.023026122 0.017855035
0.058071807 0.065739065 -0.003020786 -0.04253863 -0.06194455 -0.08926401 0.020046098 0.030703025
0.05442962 -0.038997296 -0.04645709 -0.011617479 -0.061922487 -0.04845389 -0.06667813 0.005218158
0.06239303 0.04815636 0.038216386 -0.028210476 0.050309926 0.04242602 -0.01878558 0.050266273
-0.060259167 0.0048918794 -0.0068893507 0.046799023 0.02502171 0.04854146 -0.09049239 0.089600176
-0.09562961 0.018197695 0.019157633 0.016190585 -0.03482932 0.0019988127 0.041653592 0.0038867765
-0.029515851 -0.08034537 -0.038030397 -0.07909182 0.060837552 -0.08418659 0.076360576 0.075016975

combined.0.bias f4 [64]
00000000: e52c 07bd f9c3 503d 50a4 453d 6d25 61bc
00000010: 7d4a 933b d76d 47bd 6ffe aa3c 8826 6abd
00000020: 44d5 ec3c 571d 093d 27de 1a3d 4710 8a3c
00000030: 542e 303d 30b7 703a 6393 c1bc 4117 3bbd
00000040: f588 2bbc 0877 283d 4e83 36bc 3660 c03c
00000050: e927 143b b920 133d d63f cfb9 1d23 6d3c
00000060: 6529 33bd c699 8dbd 7f96 c33c 59f6 fe3c
00000070: 2ecd 16bc ac1f c3bc 2016 f5bc e6a0 a53d
00000080: 0bfc 593d b86e 70bd 6627 3b3d a57b 0abc
00000090: b4f7 973c a1f6 92bc 68e6 f8b9 1595 993c
000000a0: 08d5 433d 2287 8d3d 8847 fb3c e733 943d
000000b0: 0fcb 2f3d 1b55 89bc 85b9 09bd 268d 633d
000000c0: 680f 993c 2150 2c3b b147 d7bc 46a0 e83b
000000d0: 894c 953d ffd4 743d 63bc 883d af88 563d
000000e0: 3568 71bd eba4 063d 201a 58bd 8482 033d
000000f0: 2350 5fbd 2d34 22bd 2680 a33c 6bba 863d
-0.0330018 0.050968144 0.048252404 -0.013741833 0.0044949637 -0.048688736 0.020873277 -0.057165653
0.028910287 0.033475246 0.037809517 0.016853465 0.043012932 0.00091825705 -0.02362985 -0.045676474
-0.010469665 0.041129142 -0.011139704 0.023483377 0.0022606796 0.03591988 -0.00039529678 0.014473704
-0.04374065 -0.069140956 0.023875473 0.031123327 -0.009204192 -0.023818813 -0.029917777 0.080873296
0.053218883 -0.05869934 0.04569187 -0.008452331 0.018550731 -0.017939867 -0.00047473912 0.018747846
0.047810584 0.0691054 0.030673757 0.07236462 0.04291826 -0.016764214 -0.03362419 0.05555453
0.018684104 0.0026292878 -0.026279302 0.007099184 0.072899885 0.05977344 0.06676557 0.052376445
-0.05893727 0.03287212 -0.05275929 0.03210689 -0.054519784 -0.03960054 0.019958567 0.06578525

combined.3.weight f4 [64, 64]
00000000: f2af 023e ba08 a13d 2a1e 97bb 1e3d 34bd
00000010: 93a8 0ebe 9a18 86bc ed5e 72bd 2763 53bd
00000020: a7f2 563c f1b8 b7bd d27d adbc 6c7c c63d
00000030: 2127 8e3d c0db f3bc c0c1 7cbd 660e 2ebd
00000040: ef92 f43d 2995 913c 5cba 6d39 db0a 7bbc
00000050: bab6 17bd 8008 f1bd 88cf f9bc d9a3 a63d
00000060: 3566 7a3c ace3 ae3c 3299 ccbb 7f2c f6bd
00000070: 9632 98bd 32a1 dcbc 6035 923d 550c af3b
00000080: 0350 083c 8591 89bc f866 c43c 5685 033d
00000090: 6314 9c3d d646 23bd aab1 af3d b608 34bd
000000a0: ac14 5abd f96f 6dbd 101b 8bbd 1c17 e8bc
000000b0: 741b c2bd 6545 233d 8a69 97bd d521 86bc
000000c0: 18a5 173e 8630 2abd bdaa 503c d6ca b1bd
000000d0: b132 09bd eba9 c9bd b648 4d3d bd05 02bd
000000e0: 55e0 8abd 55de 753d 0dbc 3e3d 903e dcbd
000000f0: 92fb 2bbd 9b3e aabc 1a6f 49bd e477 a13d
00000100: b16b d3bc f586 b03d 7c86 313d 82f9 4b3d
00000110: ffb9 d33d f183 f83d a151 153d 9c2d 2d3d
00000120: dc53 7e3d b267 0f3e 31bf 7b3c 004b ffbd
00000130: 65d6 8f3d b124 4cbd 4081 19bd 7a74 0a3e
00000140: 8d9f 31bb 8109 ee3c f71e 643d 5b25 173d
00000150: 9896 c93c 81c2 a93b cd93 95bd c9d3 e4bd
00000160: e8ed 5bbd ba7f cc3c 3de6 dabd 1547 f23d
00000170: b43b e43c 87b3 c53c a38f 563d b4b9 e3bc
00000180: 25fe 4cbd c74d 933c 6ef5 643c 185a 8ebd
00000190: 5bc8 943d 388c aabc 197d 043d 3afb 71bc
000001a0: dd30 08be e630 11bd 9f69 1cbc cdce 283d
000001b0: 6571 03bd 64fc ed3d 01e2 103e 54dd c3bd
000001c0: 1300 9fbb 50d6 713d a0db 543d 8c50 a53d
000001d0: a28b 0cbe 9dbb 933d b3dd 513d e76b a43d
000001e0: fe76 1cb9 0873 0abd 2312 c5ba 6fb8 ed3c
000001f0: 8e5a 05be ad24 243d 1ffa d6bc 82e0 f23c
00000200: bfdd da3d 796e 76bd 5c17 76bd a66f 87bd
00000210: ab8d 0d3d 0011 903b fae3 8e3d 058d e9bd
00000220: 10ed 77bd 56a5 1dbe 8893 85bc f1ac c13d
00000230: 11f4 ec3d 01de 8d3c dbc3 d43c faa5 e0bd
00000240: d2d9 df3d 202c 7dbd 4d15 1ebe 90ba 3cbd
00000250: 7322 853d 8417 463d 39e1 da3c a45f d0bd
00000260: df29 8bbd 7c80 633d f5d6 b83c 589f 963c
00000270: 42c3 e03d 6cfd 943d 8ef7 6c3d 6288 84bd
00000280: 26fe 9bbd e6ed e33d 0f6d 613d 2e4a f9bd
00000290: c68e e7bd 1780 413d 2e9e 873d 3b5c fc3d
000002a0: 09fa d53c a60b a7bd 8ae4 71bd 8c93 ef3d
000002b0: 3da3 863d c2c4 46bd b23c bebd da02 bd3d
000002c0: 4123 c63c 0037 48bd 4503 70bd 233e 07be
000002d0: 8a74 b4bb f0be b33d 057d e6bc 0c16 2ebd
000002e0: 1be5 00be c2e2 af3d 4214 98bc db8b a3bd
000002f0: 90d5 0f3d 8cbd 32bc 9f59 603d 0003 6bbd
00000300: e3ee e63d 226c a73d cf44 47bd c387 c03b
00000310: 79f8 63bd 2a64 113d 9128 023e 9724 cbb9
00000320: 347c fbbc 6717 f8bd b9b3 aabd 1f8a fb3d
00000330: 7634 5cbd a8b4 83bc bc0e 1f3d e263 d03d
00000340: c595 e43d 7d1f 433d 0835 1bbe e5a9 61bd
00000350: da0f 9e3d 1880 1d3d 5783 bebd d2cf 95bd
00000360: dc81 a53c f00c e0bd 9cc6 3f3d 884f 6a3d
00000370: 464b de3d 5a28 bcbd 1b10 c7bc 0cb3 3a3d
00000380: 87ac 903d 1e6b 13bd b16b 98bd 7b82 b53c
00000390: 98ee dabd 789c 823c fcb0 cc3d 0680 1a3a
000003a0: 1097 a53d 531c 86ba f2b2 00be 7595 81bd
000003b0: fe87 f5bd 938e 48bd 7215 87bd 0461 033e
000003c0: 69ee e13d af38 dcbd 1a65 4f3d f8f4 b0bd
000003d0: 67be a1bc 65c9 b1bc b12c 893d 59fb 81bd
000003e0: ee69 bfbb 64cb 29bc b2f1 b7bd c3c0 143c
000003f0: c37c d33a 8b17 a03d ea6f d7bd 8ae5 8a3d
0.1276243 0.078629926 -0.00461175 -0.0440036 -0.13931493 -0.016369153 -0.05917256 -0.05160823
0.013119376 -0.08970822 -0.02117816 0.096917 0.06941057 -0.02976787 -0.061708212 -0.0424942
0.11942088 0.01777132 0.00022671506 -0.015322412 -0.037039496 -0.11769199 -0.030494466 0.0813672
0.015283157 0.021348797 -0.0062438482 -0.12020206 -0.074315235 -0.026932333 0.07139087 0.0053420463
0.0083198575 -0.016793022 0.02397488 0.03210958 0.07621076 -0.039862476 0.085788086 -0.04395362
-0.05324237 -0.057968114 -0.06792271 -0.028331332 -0.094778925 0.0398611 -0.07393177 -0.016373554
0.14809072 -0.04155018 0.01273602 -0.08681266 -0.03349561 -0.098468624 0.05011817 -0.031743754
-0.06781069 0.060026485 0.046566058 -0.1075412 -0.041987963 -0.020781806 -0.04917822 0.078841954
-0.025808187 0.08619491 0.043341145 0.049798496 0.1033821 0.12134541 0.0364548 0.042279825
0.062091693 0.140044 0.015365408 -0.12465477 0.070233144 -0.04983968 -0.037476778 0.13520995
-0.0027103156 0.029057266 0.055693593 0.03690086 0.024607942 0.0051806574 -0.073035814 -0.11173207
-0.053693682 0.024963249 -0.10688446 0.11829964 0.0278605 0.024133457 0.052383076 -0.027798511
-0.05004706 0.017981423 0.013974531 -0.06950778 0.07264777 -0.020818815 0.032345865 -0.01476937
-0.1329989 -0.035447024 -0.009546666 0.041212846 -0.032090563 0.11620405 0.14148714 -0.09563699
-0.004852304 0.059042275 0.051967263 0.08072004 -0.1372514 0.07213519 0.05123682 0.08028393
-0.00014921647 -0.03380111 -0.0015035312 0.029018609 -0.13022825 0.04007404 -0.026242314 0.02964807
0.10686826 -0.06016395 -0.06008087 -0.06613092 0.034558933 0.004396558 0.06977077 -0.114038505
-0.060528815 -0.15395102 -0.0163057 0.09456814 0.115699895 0.017317774 0.025972297 -0.109691575
0.10930218 -0.06180966 -0.15437813 -0.046076357 0.06500711 0.04836227 0.026718723 -0.10174492
-0.06795096 0.055542454 0.022563437 0.018386528 0.109747425 0.07274899 0.057853274 -0.064713255
-0.07616834 0.1112936 0.055035647 -0.12172352 -0.11306529 0.047241297 0.06621967 0.12322279
0.026120203 -0.08156519 -0.059055842 0.11698064 0.06574104 -0.048527487 -0.092889205 0.092290595
0.024186732 -0.048880577 -0.058596868 -0.13207297 -0.0055070566 0.08776653 -0.028135786 -0.042501494
-0.12587397 0.085881725 -0.018564347 -0.0798566 0.03511578 -0.010909449 0.05477297 -0.057375908
0.11276033 0.081749216 -0.048649605 0.005875559 -0.055656884 0.035495915 0.12710787 -0.0003874644
-0.030698873 -0.12113839 -0.083350606 0.12282204 -0.05376097 -0.016077355 0.03883241 0.10175301
0.11161379 0.04763745 -0.15156949 -0.055093665 0.07717867 0.038452238 -0.09302395 -0.07315029
0.020203523 -0.10939968 0.046820268 0.057204753 0.10854201 -0.09187384 -0.024299672 0.04558091
0.07064157 -0.035990827 -0.074424155 0.022156944 -0.106900394 0.01594375 0.099946946 0.0005893711
0.080854535 -0.001023183 -0.12568262 -0.06327335 -0.11988829 -0.048964094 -0.06595887 0.12829977
0.11031801 -0.10752999 0.050633527 -0.08640474 -0.019744111 -0.021702478 0.06697977 -0.06346769
-0.005841485 -0.0103634335 -0.089816466 0.009079161 0.0016135204 0.078169905 -0.10519393 0.06782062

combined.3.bias f4 [64]
00000000: 33ae 723d 3111 22bd 6886 8e3d 76a9 aabd
00000010: 4258 3f3c ff38 973c 0731 adbc e096 19be
00000020: 68ab bf3d 5b9f 62bc 6c5c 63bd 07ca 14be
00000030: b892 95bd 3f77 b2bd e376 523d 6179 34bd
00000040: 55df 62bd 3c09 6cbd ecd0 643d ec10 4e3d
00000050: e25e 1fbe 3cde cfbc 69b4 333a c0c5 b13d
00000060: 2102 e03c ddaf db3d 90cd 4abd f72c 7fbb
00000070: cc4d ea3d deb9 8fbc 8214 1b3d 236b 073c
00000080: a52f 2abd 6ffc e23d 9873 14bd d6d1 e33c
00000090: 7170 ab3d e05a 70bc 140c b73d fe13 40bd
000000a0: 603f 613c d72f ff3c b2e0 063d 283b c63d
000000b0: c651 903d a83e 93bd e6f8 30bd a109 623d
000000c0: b156 423d 74d3 aa3c f7a4 bdbd dca0 bb3c
000000d0: 8eac 873d 59ef 8f3d de58 e4bc 1874 b1bc
000000e0: adf1 e43d beeb 853d 3fd4 713d 5372 b8bc
000000f0: defd 053d a4e6 00bb f981 ce3d 7ecc 23bd
0.05924816 -0.039567176 0.0695923 -0.08333103 0.011678757 0.018459795 -0.021141542 -0.1499896
0.09358865 -0.013831939 -0.055508062 -0.14530192 -0.07303375 -0.08714151 0.05138291 -0.04406107
-0.055388767 -0.057625994 0.055863306 0.050309107 -0.15563539 -0.025374524 0.00068551913 0.08680296
0.027344765 0.10726903 -0.049512446 -0.0038936713 0.1144062 -0.017544683 0.037861355 0.0082652895
-0.041549344 0.11083304 -0.03624305 0.027810019 0.08371056 -0.014670104 0.089378506 -0.046894066
0.01374802 0.031150742 0.03292913 0.09679252 0.07046847 -0.07189685 -0.043206118 0.055184964
0.047445957 0.020852782 -0.0925998 0.022903852 0.06624709 0.07028074 -0.027874406 -0.021661803
0.111789085 0.06539105 0.059040304 -0.022515452 0.03271281 -0.0019668723 0.10083384 -0.03998994

combined.6.weight f4 [1, 64]
00000000: 3463 68bd b9aa 2e3d ecee bcbd cae8 13bd
00000010: 659c c93d 74c3 cbbd 4d70 bc3c fc60 63bc
00000020: 989b c53d 53e8 2e3d c64a 16bd 0c4f 87bd
00000030: cd1c 84bd 6fd5 34bd 5d89 b3bd 4dbe b63d
00000040: 7f21 883d c5a8 08bd b88b 913d dd74 bcbd
00000050: 0556 edbc df47 323d 5151 afbd e44c d03d
00000060: b778 443d 7f43 a5bd 2b3b 19bd 7c1b 6c3d
00000070: 26d9 953d 67ad c9bd 7342 733d e549 0dbe
00000080: b34c 8a3d e6f6 f13c db77 10bd 92cf 9fbd
00000090: 239a 2a3d 90ea 973d 48a5 bdbd 5670 d73d
000000a0: 869d 413d c4a6 a5bd 3e5b 58bd 37fa 8c3d
000000b0: e7f1 9f3d 5f0e 79bc 1c31 9bbd 605e 4bbd
000000c0: 3e62 d6bd 04a0 343d f09a b03c 6638 2d3d
000000d0: 4f71 673d 696c 963d 94a2 e43d 0f01 7e3d
000000e0: 56a0 173d 0f6c d93d e8f5 773d 4a31 50bd
000000f0: ed13 873d f640 463d 0dc9 95bd bfe7 ad3d
-0.056735232 0.042643283 -0.09225258 -0.036110677 0.09844283 -0.09949389 0.023002768 -0.013878103
0.09648818 0.04270203 -0.036692403 -0.06606874 -0.06450806 -0.04414886 -0.08766434 0.08923016
0.06647014 -0.033364076 0.07106727 -0.092019774 -0.028971681 0.043525573 -0.08560432 0.10170916
0.047966685 -0.080695145 -0.037409943 0.0576434 0.073168084 -0.09847527 0.059389543 -0.1379772
0.067529105 0.029536676 -0.035270553 -0.07803263 0.041650902 0.07417786 -0.092600405 0.10519473
0.047269367 -0.08088449 -0.05282139 0.06883662 0.07809811 -0.01520118 -0.07577726 -0.04965055
-0.10467957 0.044097915 0.021558255 0.042290114 0.056504544 0.07344896 0.11163822 0.06201273
0.037018143 0.10616314 0.06053725 -0.050828256 0.065955974 0.048401795 -0.07313738 0.08491468
