data/models/nov12_24_undersample/fold4_epoch_models/epoch_2_model.pt (torch, 775567 bytes, 9 tensors)

layers1d.0.weight f4 [128, 1280]
000000 b0 5f 87 bd ed 27 63 3a 59 61 c5 bc 40 31 22 3c
       -0.06610048 0.0008665312 -0.02409427 0.009899437
000010 9f 77 ef bb 3e 8b f3 3a b3 3d 4c 3c f9 9c a7 bc
       -0.007307961 0.0018580926 0.012465882 -0.020460593
000020 53 04 01 bd 93 39 3b 3d 67 93 04 3b 3c c4 de bc
       -0.031498265 0.045709204 0.002022946 -0.027193181
000030 0d ba 8b bc 38 0c d1 bb 7a be 91 bc 57 64 ee bb
       -0.01705649 -0.0063796304 -0.017791022 -0.007275145
000040 bb 6a a1 bb d1 45 32 bc 0b 4c af bc bc 5a 61 bc
       -0.0049260533 -0.010880903 -0.021398565 -0.013754543
000050 6c 21 95 bd 53 f8 9c 3c 51 80 7e 3d 50 51 4a bc
       -0.07281765 0.019161379 0.06213409 -0.012348488
000060 55 c4 3c bd 97 3a 5e 3b 30 b0 29 bb 5f 3f 54 bd
       -0.046085674 0.0033909434 -0.002589237 -0.051818248
000070 16 81 da 3c 3e 97 b2 3c 01 f0 0c bd 9f a8 1e bd
       0.026672881 0.021800634 -0.034408573 -0.03873503
000080 b2 22 d8 bc 14 90 0b bd 24 0f b2 bc 48 44 bc 3c
       -0.026383732 -0.03407295 -0.021735735 0.022981778
000090 24 1c ae 3c fa 53 ed 3b a5 82 3e 3d d0 b8 bd bc
       0.021253653 0.007242677 0.04651131 -0.023159415
0000a0 c9 3e 4c bb a5 b5 b7 3c 07 9e 60 bb c2 52 e1 bb
       -0.0031165353 0.022425482 -0.003427388 -0.0068763206
0000b0 49 86 ff 3a 9c 0f 46 bd 25 30 4a 3d 69 e8 7a bc
       0.0019494976 -0.04835473 0.04936232 -0.0153142
0000c0 d1 8f 18 bc 65 ec 01 3d 12 84 f6 3b e7 32 db 3b
       -0.009311632 0.031719584 0.007523068 0.0066894176
0000d0 4f 05 e8 bc cc f9 e8 3b 84 42 72 3b a0 75 01 3c
       -0.028322844 0.0071098562 0.0036965916 0.007901579
0000e0 43 19 dd 3b 8a 97 8d 3d 78 29 2f 3d f2 3b 31 3d
       0.006747396 0.069136694 0.042764157 0.04327006
0000f0 a2 62 af 3c 0a 1b a4 bc 93 2b f2 3c b8 f2 a9 3c
       0.021409336 -0.020032424 0.029561793 0.02074562
000100 84 2d f1 3b 52 b1 53 3d 32 fb b3 bb d9 65 13 3d
       0.007360162 0.051682778 -0.0054925913 0.0359858
000110 92 22 c1 bb 1b 1f 12 3d c7 06 70 bc 87 d3 b0 3c
       -0.0058940137 0.035674196 -0.014650053 0.02158524
000120 97 6f 9e 3c 5b 06 da bc 12 ad 38 bd 78 db 13 3d
       0.01934032 -0.026614359 -0.045086928 0.036097974
000130 df ea 4b 3d c6 70 bc bc 9c c1 b1 3c 60 35 52 bd
       0.049784537 -0.023002993 0.021698765 -0.051320434
000140 1b a1 69 bd 1c b1 96 bc d0 25 c7 bc 90 c8 ed bb
       -0.057038408 -0.018395 -0.024310023 -0.007256575
000150 6d 0e d9 3c 1f 26 82 bd 9f ef d9 bc e7 9d fd 3a
       0.026496137 -0.06354927 -0.026603518 0.0019349427
000160 ad 96 05 bd 3e ab b5 bb a3 1d 17 3c 19 64 ac bc
       -0.0326144 -0.0055440953 0.009223375 -0.021043824
000170 a9 e3 f9 bb 3d c6 12 3d 7e 48 ed 3b 81 6d 14 3d
       -0.007626016 0.035833586 0.0072413078 0.036237244
000180 08 46 19 3d c9 20 28 3d 3f ff dd bb 03 a3 e4 3c
       0.037420303 0.04104689 -0.0067748125 0.027909761
000190 7b 18 8d 3c 1c 8a af 3c 8d 7b 2c 3d f1 9c 51 3b
       0.017223587 0.02142816 0.042110015 0.0031984414
0001a0 85 eb e7 bb 18 7c dc bb 7c cc c2 bc f7 b5 c7 3b
       -0.0070776367 -0.0067286603 -0.023779146 0.00609469
0001b0 88 5f e8 bc 9e 3a 25 3c b6 ef 0d 3c d4 14 0f bd
       -0.028365865 0.010084776 0.008663109 -0.034931973
0001c0 96 1e f2 bc b9 c7 65 3d 76 52 e3 bc 11 13 df bc
       -0.0295556 0.056098673 -0.027749281 -0.027230771
0001d0 2b 70 f2 3b 44 a0 38 bd 5a f2 4c bd 0c f9 81 bc
       0.0073986254 -0.045074716 -0.050035812 -0.015865825
0001e0 04 64 bf bb 89 54 04 bd dd c3 ef ba 59 b1 22 bc
       -0.00584078 -0.03230718 -0.0018292625 -0.009929978
0001f0 1c b7 c6 bc 77 c2 45 3d 16 4f 13 bb d7 d0 31 3b
       -0.024257235 0.04828116 -0.0022477559 0.0027132535
000200 80 3a a1 bc ce bb a1 bc 09 46 79 3b 2e 7e 96 bc
       -0.019681215 -0.019742873 0.003803613 -0.018370714
000210 16 e2 27 3d 68 2a 5d bd 0c 2a de bc b5 7d 4d bd
       0.040987097 -0.05399552 -0.027119659 -0.05016871
000220 8f f8 1e bc 5b 1a 69 bc 79 f1 02 bd 97 68 6b 3d
       -0.009702816 -0.014227475 -0.031968568 0.05747279
000230 80 07 58 3c d0 b7 bf bc 64 41 58 bc 60 9b 9c bc
       0.013185382 -0.023403078 -0.013199184 -0.019117057
000240 47 dd 09 3c b1 2b c5 bb f9 21 1a bd 8f be 97 3c
       0.008414573 -0.0060171713 -0.037630055 0.018523483
000250 a0 4f 19 3d 7c cb e3 3c 61 90 d5 3c 0d c8 21 3c
       0.037429452 0.02780699 0.026069822 0.009874356
000260 9f 2e 05 3d 32 71 aa 3c 20 9f 07 3d b7 3c 99 3c
       0.032515164 0.020805929 0.033110738 0.018705709
000270 62 d5 8e 3b d3 c2 87 bc 8b 8b 44 bc b9 90 02 3d
       0.0043589333 -0.016572392 -0.01199616 0.0318763
000280 7b 27 ab 3b 90 63 3e bc 09 bc 85 bc 40 a0 82 3c
       0.0052232123 -0.011620417 -0.016325014 0.015945554
000290 59 79 cc 3a 56 f1 a7 bc 3a 18 de 3c d9 30 16 39
       0.0015600129 -0.02050082 0.027111162 0.00014323312
0002a0 16 f5 6e bb ef e2 af 3c 24 e9 9b 3c d1 92 20 bd
       -0.0036462 0.021470515 0.019032069 -0.039202515
0002b0 89 85 2f bc 4e 77 81 3c 8d 8c 11 3c da 89 2d 3d
       -0.01071299 0.01580396 0.008883608 0.042367794
0002c0 b8 05 5a bd 52 3f 34 3d dc 6b c6 bc a4 40 8d 3c
       -0.05322811 0.0440057 -0.024221353 0.017242737
0002d0 8d b0 2a 3c 09 db 11 bd c9 30 aa bc ae ba 0b 3d
       0.01041807 -0.03560928 -0.020775216 0.03411358
0002e0 c5 b5 c1 ba 9c 4a ca 3c 88 86 a0 3c 74 23 2e bd
       -0.0014778903 0.02469378 0.0195954 -0.04251428
0002f0 89 70 d0 bb 08 4e 7b 3d 16 04 c8 3b 30 fb 3f bc
       -0.0063610715 0.061353713 0.0061040027 -0.011717603
000300 38 fa 6f 3d 1f 54 d6 bc 2d 8f 6e bc 92 df 4a 3d
       0.058588237 -0.026163159 -0.014560503 0.04952962
000310 c0 c7 bd bc 81 0c 9c bd b0 d9 5b bc 0b 7e b1 3c
       -0.023166537 -0.076195724 -0.0134186 0.021666547
000320 5a dd 15 bd 1b f3 d5 bc eb cc 30 bc 4b 20 91 3c
       -0.03658805 -0.026116898 -0.010791044 0.017715594
000330 96 40 21 bd 0d 9b 41 3c df de d7 ba b6 d2 a9 bb
       -0.039368235 0.011816752 -0.0016469619 -0.0051825894
000340 7c 5e 2a 3d 7a e5 d9 3b 12 fd d6 bc c4 2a 22 bd
       0.041594014 0.00664967 -0.02624372 -0.039591566
000350 99 41 13 bc 81 b1 9f 3c b2 0e 2f 3b f8 a4 da 3b
       -0.008987808 0.01949382 0.002671164 0.006672498
000360 a3 50 56 3d 16 5a 46 3d 70 6f 47 3d 71 c6 f5 3c
       0.052322995 0.048425756 0.04869026 0.03000185
000370 b0 20 88 3c ed 43 93 bc da 45 63 3b 79 88 12 3c
       0.01661715 -0.017976725 0.0034679086 0.00894367
000380 cb 18 c9 3b 57 10 55 3d 3a e5 6c 3c d8 0f 0c 3d
       0.0061369888 0.052017536 0.014458949 0.034194797
000390 bb 36 bb bb c1 29 b1 bc b7 d9 cc bb dd 62 fb 3b
       -0.0057133115 -0.021626355 -0.0062515396 0.0076716975
0003a0 8f 62 bf bc b1 b1 d5 3c e9 5b 10 3b ca 6f 85 bc
       -0.023362426 0.026085706 0.002202744 -0.016288657
0003b0 7a 44 26 bd f4 45 a7 bc 86 02 66 bd 6f 61 00 bd
       -0.040592648 -0.020419098 -0.05615475 -0.03134292
0003c0 c8 17 29 bc 66 06 47 bc cf 01 2b bc ea e7 a1 3c
       -0.010320611 -0.012147522 -0.010437443 0.019763906
0003d0 dc 35 2e bd 6b 86 88 bc d4 4d f1 3c 69 41 c9 3c
       -0.042531833 -0.016665658 0.029456057 0.024567323
0003e0 a2 70 bd bc fe b2 40 3d 3b e2 9f 3c a2 6a 39 bc
       -0.023124997 0.0470457 0.019517055 -0.011316927
0003f0 11 2a 03 3c 11 6c f8 39 85 ed 34 bd f7 85 3a ba
       0.008005635 0.00047382762 -0.04417183 -0.0007115299

layers1d.0.bias f4 [128]
000000 8e 14 15 bd c3 57 03 bd 26 c6 60 3b b5 c1 7b 3b
       -0.036396556 -0.032066118 0.0034297793 0.003841502
000010 e5 7d 82 bc 18 d5 06 bc 10 70 cb bc 91 c0 0d bd
       -0.015929172 -0.008229516 -0.024833709 -0.034607474
000020 f7 7f 8f 3b c1 b7 0d bc 13 36 9d bc 95 72 7c 3a
       0.0043792683 -0.008649767 -0.019190824 0.0009630111
000030 1c 9d 1f 3b 29 3f 25 bc e7 55 da bc 05 78 b8 3b
       0.002435512 -0.010085859 -0.02665229 0.005629542
000040 75 f9 b9 bc cd 98 e4 ba 4a 0a 3b 3b 14 bf 39 bd
       -0.022701958 -0.0017440558 0.0028540068 -0.045348242
000050 7e a3 22 bd 51 67 bc bc 80 a3 8e bc de f5 b1 bc
       -0.0397067 -0.022998484 -0.017411947 -0.021723684
000060 4a 3f 8e b9 22 7b d0 3b 56 91 ad bb 12 31 4f bc
       -0.00027131505 0.006362335 -0.0052968664 -0.012645977
000070 6f 00 80 bc 9c f7 21 3c 7a b3 21 bd 5f 23 a3 bc
       -0.015625207 0.009885695 -0.039477803 -0.019914327
000080 94 6e c7 bc 57 96 7a 3c c7 ea 2c bc cf 69 22 bc
       -0.02434472 0.015294633 -0.010554022 -0.009912922
000090 7e f0 40 bd 55 67 c7 3a f4 d8 cf bc 4c 2f b3 bc
       -0.04710435 0.001521329 -0.025372006 -0.021873139
0000a0 80 42 0e 3b 50 7e c8 bc de 30 05 bd 8a 68 60 3c
       0.0021707118 -0.024474293 -0.032517307 0.013696799
0000b0 d3 44 46 bd d4 47 04 bc 7a d6 86 bc e4 c5 b1 bc
       -0.04840548 -0.008073766 -0.016459692 -0.021700807
0000c0 85 6d 77 bb 03 92 d4 bc 1d 2b d4 3b 67 9b 82 bc
       -0.0037754488 -0.02594853 0.006474866 -0.015943242
0000d0 0c 07 8d 3b 74 af d9 bc bd 4c da bc 00 10 fd bc
       0.0043038186 -0.02657292 -0.02664792 -0.030891418
0000e0 3e ff 8f ba 38 07 0c bd 54 57 62 bc f0 60 65 3c
       -0.0010986102 -0.03418657 -0.013814766 0.0140001625
0000f0 c7 06 fc bc 89 d8 37 3c ed 2c d7 bb 78 9a cb bc
       -0.03076495 0.01122106 -0.006566635 -0.02485393
000100 fe e5 02 bd 97 1c c1 bb 32 a4 8e bc c7 69 94 bc
       -0.03195762 -0.0058933008 -0.017412279 -0.018116845
000110 7a 5f 18 bd e4 04 4a bc 61 be 06 bd 5d d3 a9 bc
       -0.03720043 -0.012330268 -0.032896403 -0.020730669
000120 b4 a6 05 bd ec 4d b7 bc c9 12 0e bd 76 87 c6 bc
       -0.032629684 -0.022376023 -0.034685884 -0.024234515
000130 ef 21 f7 bc 08 9c 59 bc 12 f3 b8 bb cf 30 77 bc
       -0.030167548 -0.01328183 -0.0056442106 -0.0150873205
000140 3b b1 0e bc 7b 8f 86 bc 98 cf 14 bc a2 88 fb bc
       -0.008709247 -0.016425839 -0.009082697 -0.0307048
000150 20 fc ce bb 57 36 10 3c af 76 89 bb 83 9d 5a bc
       -0.0063166767 0.008802018 -0.0041950564 -0.013343218
000160 cf 0c d5 ba 61 3f 79 bc 6f 01 cf bc 9b 33 07 bd
       -0.0016254428 -0.015212865 -0.025269238 -0.0330082
000170 74 38 2e bb 94 72 d8 ba d3 d5 40 bd 4d 64 45 bc
       -0.0026583942 -0.0016513639 -0.04707892 -0.012047839
000180 40 ef 40 bd f9 8a 11 bd 15 61 f7 bc 45 f5 9f bb
       -0.047103167 -0.035532925 -0.03019766 -0.0048815333
000190 9a e2 0f bd 3b 3d e9 bc 2a 4f ed 3b a1 4f fd bc
       -0.035128213 -0.02847158 0.007242103 -0.03092176
0001a0 db 30 69 3c df f3 92 bc 5e c3 01 3c 4b 71 f3 bb
       0.014232839 -0.017938552 0.007920114 -0.007429277
0001b0 3c c6 05 3b 6c b5 aa bb 64 39 09 ba a1 58 45 39
       0.0020412346 -0.0052096155 -0.0005234687 0.00018820401
0001c0 7d 32 09 38 86 58 07 bd f5 76 f7 3b 46 91 62 bc
       3.2710366e-05 -0.033043407 0.0075520226 -0.013828581
0001d0 65 26 bf bb a8 89 77 3c f3 3b 82 bc 7a 7a ac bc
       -0.0058334344 0.015108503 -0.015897727 -0.021054495
0001e0 df 61 a9 bc 2f 2a 39 bd 78 95 e3 bb 52 a9 19 bc
       -0.020676551 -0.045206245 -0.0069453083 -0.009378748
0001f0 ec 4c f2 bc da 6a 99 3b 2a 4e e4 bc cf a9 5e bc
       -0.029577695 0.004681927 -0.027869303 -0.01359029

layers1d.3.weight f4 [128, 128]
000000 1b 8d 66 bd f3 dc 2c bd c6 15 a7 39 66 92 9e 3c
       -0.056286912 -0.0422029 0.00031868945 0.019356918
000010 21 af 0f bd c3 99 a6 3c 0a 6a 59 bd 1c 2e 6b 3c
       -0.035079125 0.020336991 -0.053079642 0.014354255
000020 5a 96 42 bd 46 6d 95 3d 0b 3d 18 bd 98 78 41 bd
       -0.047506668 0.07296233 -0.03716759 -0.047234148
000030 89 a8 f0 bd be ea 60 bd b5 d0 29 bd 51 21 80 bd
       -0.117508955 -0.054911368 -0.041458804 -0.062563546
000040 b6 d8 9d bd 84 75 33 3c a4 0a 62 bd 59 68 33 3d
       -0.0770735 0.010953311 -0.05518593 0.043800686
000050 d4 f3 2d bc 92 e7 b8 3d 5d 06 a6 3d ad 04 14 bd
       -0.010617215 0.090285435 0.081066824 -0.03613727
000060 11 40 86 bd bb b2 db bd d9 6e 50 3d 5e a5 1c bd
       -0.065551884 -0.107274495 0.050886963 -0.038243644
000070 ed 69 a6 3d e8 fa 82 3d a0 9a 82 bd 24 ba d6 bd
       0.081256725 0.06395513 -0.06377149 -0.10484722
000080 0c f0 00 3c f3 93 f1 bd 02 6a 59 3d 88 0b 53 bd
       0.007869732 -0.11795797 0.053079613 -0.05152467
000090 39 5d db 3d 9b 39 c4 3d 56 73 0d 3c 11 e9 b5 3b
       0.1071114 0.095813 0.008633455 0.0055514653
0000a0 1b 8c c0 bc f1 b5 97 3d 1d f9 73 3d 30 6e f7 3c
       -0.023504307 0.074077494 0.059563745 0.030203909
0000b0 e3 5d f1 3d 1e a1 97 bd a9 f1 25 bd 54 84 a0 bc
       0.117854856 -0.074037775 -0.04051367 -0.019594349
0000c0 00 25 7a bd 7b c2 1b 3d 99 fc 24 bd 49 eb 18 bd
       -0.061070442 0.038027268 -0.04027996 -0.03733376
0000d0 c8 c5 02 ba fc e8 ab bd 3a 39 14 3c 46 8c 8f 3c
       -0.0004988578 -0.083940476 0.009046847 0.017522942
0000e0 f5 a9 52 bc b1 c0 b4 bc 41 db db 3c e8 56 9b bd
       -0.012857904 -0.022064539 0.026837947 -0.075849354
0000f0 95 af 1c bd 95 d0 86 3c e1 81 a6 bd 57 73 82 bc
       -0.038253386 0.016456882 -0.08130241 -0.015924139
000100 ff bf c8 bb 5d d2 4e 3d 8f e4 ce 3d 23 ff 10 3e
       -0.0061264033 0.050493587 0.10102188 0.14159827
000110 d8 b6 fb bc 0c e5 7e 3d 0f e7 3a bd eb 1c 57 bd
       -0.030726835 0.062230155 -0.04563051 -0.052517813
000120 0e 59 5b bc 28 66 bc bd 10 27 03 bd 52 b8 69 39
       -0.0133879315 -0.09199172 -0.032019675 0.00022289276
000130 79 de a4 3d db c0 44 bd c9 7c bd 3d a4 c9 6b 3d
       0.08050246 -0.048035484 0.092523165 0.057565346
000140 9f c7 5e bd 75 31 48 3d da a3 ae 3d e8 18 9d bc
       -0.054389592 0.04887529 0.08527346 -0.019176915
000150 9e fe 16 bc 2d d5 65 bd f1 03 e2 bc 48 27 d8 bd
       -0.009215979 -0.056111503 -0.02758977 -0.10554367
000160 14 d3 da bd cf 71 9b bd d8 44 35 bd 4c 73 34 bd
       -0.10684791 -0.07590067 -0.044255108 -0.04405527
000170 6b e2 4e bd b7 c9 cd bc 44 a6 fd bb 1b 5b 8e bd
       -0.050508898 -0.0251206 -0.0077407677 -0.06950971
000180 18 7f fc 3c 79 1b 8a bd ac 49 43 3a 40 7a c6 3d
       0.030822322 -0.06743521 0.00074496376 0.09691286
000190 93 94 a2 3b ba b1 7d bd 96 ff b8 3d 38 03 a6 3d
       0.004961559 -0.06193707 0.09033124 0.08106083
0001a0 34 0a 84 bd 74 a2 97 ba 55 a6 ba bd 20 32 1b 3d
       -0.064472586 -0.00115688 -0.091137566 0.0378896
0001b0 7b 4f 9b 3c d0 72 61 bd 63 dc fb bc 4b 24 1b bc
       0.018958798 -0.055041134 -0.030744737 -0.009469102
0001c0 16 57 9a bd 59 44 e9 bc ff 42 a5 3d 35 92 c0 bd
       -0.075361416 -0.028474974 0.08069419 -0.09402887
0001d0 59 d8 57 3b ed 26 3e ba 0b f5 85 bc 23 5f 83 3d
       0.003293535 -0.0007253725 -0.016352197 0.0641463
0001e0 f1 c8 0a be 17 d5 08 3d 4a 7d bf 3b ef 3c 1b be
       -0.13553216 0.033406343 0.005843793 -0.15159963
0001f0 bb 64 bc 3d d3 99 80 bd 08 32 84 bd 25 ec 95 bd
       0.091989 -0.0627934 -0.06454855 -0.073204316
000200 c6 f0 ae 3d 78 8b d6 bd b9 e5 9d 3d 1d a0 0b be
       0.08542018 -0.1047582 0.07709832 -0.13635297
000210 52 51 4a bd 3e 4b 89 3d ca 79 a1 3d c0 77 e3 bd
       -0.04939396 0.067038044 0.078845575 -0.11106825
000220 44 db 8b 3d 22 1b 89 bd 9e 25 be 3b b3 f9 8c bd
       0.06828931 -0.06694628 0.005802824 -0.06883564
000230 fd ab ec bc ae 85 7b 3c b9 4b 30 bc df 93 a7 bd
       -0.028890604 0.015351696 -0.010760241 -0.08182501
000240 63 b1 a7 3c 44 f5 2f bd 01 60 b2 bd dd 19 40 3c
       0.020470327 -0.042958513 -0.087097175 0.011724916
000250 bb 68 e6 3c f0 58 a2 bc 3e 57 6b 3c 01 e6 fd 3c
       0.028126111 -0.0198178 0.014364062 0.030993463
000260 ee a7 78 bd e2 4b 99 bd 72 04 c5 bd a1 f0 dd 3d
       -0.060707025 -0.074851766 -0.096199885 0.10836912
000270 78 e1 eb bd 56 80 99 bb 18 66 a6 3d 46 23 5d 3d
       -0.11517614 -0.0046844883 0.081249416 0.053988717
000280 79 b8 46 3d bc 22 30 3d b1 58 b7 bd 0c d0 c2 bc
       0.04851577 0.043001875 -0.089524634 -0.023780845
000290 3f 85 f5 bd 30 eb 32 3d bc 55 a8 bd 5e fc 60 bc
       -0.11988305 0.043681324 -0.082194775 -0.013732044
0002a0 d0 4a 8d bd 51 30 93 bd c6 08 6f bd 5c b1 24 bc
       -0.06899035 -0.0718695 -0.058357976 -0.010052051
0002b0 fa a5 4b 3d a0 31 d2 bc 99 28 c4 bc 45 b0 87 3d
       0.049718834 -0.025658429 -0.02394514 0.066254176
0002c0 46 dc 83 bd 4e a4 99 3c 6d 89 06 be 9e 07 3e 3d
       -0.06438498 0.018755104 -0.13138361 0.046393983
0002d0 ed 0e 64 bd ef 82 8c 3d 73 3b 3b bd c4 36 a9 bc
       -0.055678297 0.06860911 -0.045710992 -0.020655997
0002e0 0a 15 d4 bb 80 85 6f bd d1 f5 9d bd a1 da 0c bd
       -0.0064722346 -0.058476925 -0.077129014 -0.03438819
0002f0 69 10 be bd a9 16 0a 3d 5c f5 e5 3d 61 6f f1 bc
       -0.09280474 0.033713017 0.11228439 -0.029472055
000300 be 81 5d 3c a3 4b 5c bd bf 28 31 bd 30 a8 91 bd
       0.0135197025 -0.05378307 -0.04325175 -0.07112157
000310 dc b1 48 bd 9c 6c 97 bd de 2f 81 3c 3f d8 62 bd
       -0.048997745 -0.073937625 0.015769895 -0.05538201
000320 db 35 4a 3b 6d 9d 7f bd 51 9c 90 3d 16 55 36 bd
       0.0030854854 -0.062405992 0.07061065 -0.044514738
000330 aa c8 61 3d ae fe f4 bd be 1c 72 bc 3c e5 c8 bd
       0.05512301 -0.11962639 -0.0147773605 -0.09809348
000340 b7 56 b8 bd 9b 3a 74 bd 1b a0 bb bc 77 f5 ea bd
       -0.090009145 -0.059626203 -0.022903493 -0.114726
000350 66 17 1c bd e4 b7 28 bd cc 2b 2e 3d a2 64 aa 3d
       -0.038108252 -0.041190997 0.042522237 0.083199754
000360 3c 40 b5 b9 24 ab 5c 3d a2 c3 61 bd 03 62 00 3c
       -0.0003457087 0.05387415 -0.05511821 0.007835868
000370 ca 73 bc 3d d7 a0 04 be 08 12 cd bd 89 a6 f0 bd
       0.092017725 -0.1295198 -0.10013205 -0.11750514
000380 69 9a 1b 3d 46 83 90 3d 80 91 cf 3c cb cd bb bd
       0.037989054 0.070562884 0.025337934 -0.09170111
000390 39 75 b5 bd d9 e7 11 bc 37 36 99 bd a4 ea 88 bd
       -0.08860249 -0.008905374 -0.07481044 -0.06685379
0003a0 88 d3 18 3d af 4b ba bd 93 c1 fd 3d f6 54 16 bd
       0.037311107 -0.09096467 0.12390437 -0.03670212
0003b0 c9 e6 71 bc 50 54 3c bd c8 dd d1 3d 7c 44 df 3d
       -0.014764496 -0.045978844 0.102473795 0.10901734
0003c0 eb ee 44 3d 0b 7f 9a 3d 70 c8 f4 3c 4a 59 c2 bd
       0.048079412 0.07543763 0.029880732 -0.09489687
0003d0 08 61 d6 bd 67 8e 9d 3c 00 f7 29 bd df 34 57 bd
       -0.10467726 0.019232942 -0.041495323 -0.052540656
0003e0 07 ae f9 ba d1 d8 b3 3d d9 23 8a bc 8c 22 a2 bd
       -0.0019049057 0.08781589 -0.016862797 -0.079167455
0003f0 3a dd 81 bc 6f 08 6c 3c 8a 2b ef 3c 5f 9f 53 3c
       -0.01585256 0.014406308 0.029195566 0.012916415

layers1d.3.bias f4 [128]
000000 75 32 ec 3c 5b e0 e4 3c e8 a7 67 3c 10 0c 59 3c
       0.028832654 0.027939012 0.014139153 0.013247505
000010 17 02 20 3c 71 d5 10 3d 45 b0 05 bd 7b 29 4c bc
       0.009766123 0.035359804 -0.032638807 -0.012461062
000020 e8 70 34 bd 91 6f 25 bd 89 c1 0b 3d 63 a5 f8 bc
       -0.04405299 -0.0403896 0.034120116 -0.0303523
000030 27 d7 d2 3c 11 68 8f bb 5e 5e b5 bc 38 45 2d 3d
       0.025737358 -0.0043764194 -0.022139724 0.04230234
000040 a5 d0 10 bc 7e 8c 29 bc 87 b0 db bc ae e8 cc bc
       -0.008838807 -0.010348437 -0.026817573 -0.025013294
000050 ac 0e a8 bd a3 23 ec bc ce d8 a8 3a d7 91 7b 3c
       -0.082059234 -0.028825587 0.0012881996 0.015354595
000060 08 f4 df 3c 8d 97 20 bd 5f c0 f5 3c f6 db 73 3c
       0.027338043 -0.03920703 0.029998956 0.014883986
000070 da 8c 8d bb dd e6 e3 3c 3a 77 55 bd 09 a7 4e 3d
       -0.0043197693 0.027820045 -0.052115656 0.050452266
000080 43 72 8a 3d bd 61 cf b9 25 7b 52 3c c4 90 10 3d
       0.06760075 -0.00039554937 0.012846743 0.03529431
000090 26 d2 94 3b e1 11 84 3d c5 b0 0d 3d 47 cf f3 bc
       0.004541653 0.06448723 0.03459241 -0.029761923
0000a0 35 16 55 3d 7b ac 90 3d dd 83 0d bd 58 80 4d 3c
       0.05202313 0.07064148 -0.034549583 0.012542807
0000b0 a0 b9 52 3c ee 6c 89 3d 60 2c cb bc df 97 cd 3b
       0.012861639 0.0671023 -0.024801433 0.006274208
0000c0 84 0a 3c bd 86 34 12 bd 40 ba cf bb 6e cc 7d 3b
       -0.045908466 -0.03569462 -0.0063393414 0.0038726586
0000d0 95 70 4e bd 8a c3 68 3d a1 5f 94 3c 29 90 16 3c
       -0.050400335 0.056827106 0.018112006 0.009189644
0000e0 0e 03 53 bc 81 2e 37 bc 71 29 f2 3a 70 58 04 3d
       -0.012879146 -0.011180521 0.0018475485 0.032310903
0000f0 b8 b1 34 3c f1 7f 6f 3c 5e 08 1a 3d fb df 7b bc
       0.0110287 0.014617906 0.037605636 -0.015373225
000100 5b 89 cf 3c ae 8f c9 bc 4b d7 03 bd f0 63 10 3c
       0.02533405 -0.024604645 -0.03218774 0.008812889
000110 c4 19 db 3b b2 bd b8 3c 2b bf 32 bd e7 bf 59 bd
       0.006686421 0.022551391 -0.043639343 -0.053161528
000120 23 25 d5 bc 22 59 32 bc 29 d2 28 3c d8 44 3a bd
       -0.026018685 -0.010885509 0.010304012 -0.04547581
000130 75 54 de bc 5d 09 03 b9 a2 34 33 bd c5 0d c9 3b
       -0.027139882 -0.00012496622 -0.043751366 0.0061356747
000140 c9 61 77 3d be ed 89 bb e0 7b 83 bc 57 69 98 39
       0.06039599 -0.0042092493 -0.01605028 0.00029070184
000150 38 0b 9a bb 6e e1 e9 bc 55 07 06 bd 59 96 2e bc
       -0.0047010444 -0.028549876 -0.032721836 -0.010655963
000160 17 6b 35 bd a9 58 c2 bc a1 99 1a bd b8 40 19 3d
       -0.044291582 -0.023723917 -0.03774417 0.037415236
000170 51 a5 b3 3c 5b c7 6e 3c f9 90 f9 3c 27 a7 70 bd
       0.021929415 0.014573897 0.030464636 -0.05875316
000180 80 ba d7 3b 4a 20 d9 bc 9f e9 90 3c dd 05 72 3d
       0.006583512 -0.026504654 0.017689524 0.059087623
000190 29 25 39 3c ae e6 1d bd fd 7c 96 bc 18 2d d5 bc
       0.011300364 -0.03855007 -0.018370146 -0.026022479
0001a0 95 04 d6 bc d5 31 dd 3c 5e 19 1a bd f2 10 4b 3c
       -0.026125232 0.0270013 -0.03762185 0.012394177
0001b0 4d 27 a0 bd 9a 77 1b 3d d3 81 87 3d 83 37 4f bb
       -0.07819996 0.037955858 0.06616559 -0.003161878
0001c0 14 5d 43 3d a1 4e 62 3d 8a a3 d4 3c ae 02 86 3c
       0.047696188 0.055250768 0.025956888 0.0163587
0001d0 7b 13 1f 3d fa 9f 66 bd d7 63 ad bc 24 58 db bc
       0.038836937 -0.05630491 -0.021165771 -0.026775427
0001e0 d4 b9 50 3d 89 0e 25 bd 20 f3 23 bc 3f 4c a0 3c
       0.05095847 -0.040297065 -0.010006696 0.019567607
0001f0 c0 ac 2b bd 2c 54 f8 3b 98 dd 1c 3d 1b b3 50 bd
       -0.041912794 0.0075783934 0.038297266 -0.05095206

combined.0.weight f4 [64, 128]
000000 bb e2 29 bd 2c 6d 91 3d 9a 34 75 bc 9f 64 b4 bd
       -0.041475993 0.07100901 -0.0149661545 -0.088082545
000010 b0 9b 00 be f8 19 4e 3d 67 cf d6 bc 51 21 dd 3c
       -0.1255939 0.050317734 -0.026221944 0.026993426
000020 cb 5c 1b bc 23 ed 3b 3c 1a 32 5a 3d fb d8 ad bd
       -0.009482573 0.011470112 0.053270437 -0.08488651
000030 6e 85 2b bd 73 cc c0 ba 67 d7 e8 3c ca af 27 bd
       -0.041875295 -0.0014709368 0.028423024 -0.04093913
000040 73 16 11 bd 85 68 ba 3d aa 40 70 bc c9 8a 99 bd
       -0.0354218 0.09101967 -0.014663855 -0.07497174
000050 83 68 88 3d 73 a2 82 3d 7d 6b 82 3d e4 e7 54 3d
       0.06660559 0.06378641 0.06368158 0.05197896
000060 c2 3d 93 bd 7e 57 cd 3d 32 72 cc bd 8d a6 e5 bd
       -0.07189514 0.100264534 -0.099827185 -0.11213408
000070 2d d1 8b bd 1a 1b 32 bb b8 85 17 3d c0 dc fb 3d
       -0.068270065 -0.0027176798 0.03699276 0.12297964
000080 39 30 ce 3c f6 a6 0f 3d 63 46 aa bd 7f 40 43 3c
       0.025169479 0.035071336 -0.083142065 0.011917233
000090 95 4e 08 3d a1 b0 99 3d b6 fa 1b bd 77 9b da bc
       0.033278067 0.075043924 -0.038080893 -0.02668546
0000a0 fc 63 5d 3c 0e 74 89 3d e5 98 30 3d 89 64 bd 3d
       0.013512608 0.06711589 0.04311456 0.09247691
0000b0 4e 39 b3 3d 5f 6b 73 bc dd d1 cd 3b b6 f2 f9 bd
       0.087511644 -0.014857142 0.006281121 -0.122044966
0000c0 9c 79 1b 3d 60 8f db bd c4 8b bc bc 41 ba 52 3d
       0.037957773 -0.10720706 -0.023015864 0.051447157
0000d0 4d ad 6a bc e2 bf 9e 3c 58 ec 9a bd 64 aa c2 bc
       -0.014323545 0.019378606 -0.0756461 -0.02376289
0000e0 28 96 36 bd 6f f7 af 3c fe e5 11 bc 8f 79 8a bd
       -0.044576794 0.02148029 -0.008904932 -0.06761467
0000f0 d2 4b 50 bd 8e b8 db bd 51 1e b2 3c 96 26 79 3d
       -0.050853558 -0.107285604 0.021742972 0.060827814
000100 b6 4b 5f bd 76 3c 27 bd a2 2b 7f 3d 1b 93 98 3d
       -0.054515563 -0.040829144 0.06229747 0.07449933
000110 d9 cb 69 3d 99 b7 53 3d ad b2 7c 3c 6d f1 d5 3d
       0.05707917 0.051688764 0.015423459 0.10446439
000120 25 c6 08 bd 44 a2 f7 bc 6f de 13 3c f1 80 e5 bd
       -0.03339209 -0.030228741 0.0090252 -0.11206234
000130 6e 16 fe bd fb f0 38 bd e6 5f 4a bc 3e 63 81 bd
       -0.12406622 -0.045151692 -0.0123519655 -0.06317757
000140 24 de 22 bd 81 6d 95 bc b4 f0 2a 3d 54 6a 94 3d
       -0.03976263 -0.018240692 0.04173346 0.07246843
000150 0b 29 3a bd 04 2f 04 bc ce 1c f2 bc 70 ac 55 bd
       -0.045449298 -0.00806785 -0.02955475 -0.052166402
000160 5e 7e 1a 3d 32 53 9c 3d a3 3b 1a bd f2 59 23 ba
       0.03771817 0.07633056 -0.03765453 -0.00062313594
000170 fb 8d 5c 3d e4 f4 95 3d a3 d3 ce 3d b2 54 4e 3d
       0.05384634 0.073221 0.1009896 0.05037374
000180 63 41 d7 bc f6 c9 c2 3c fe b6 ff 3c f9 77 0c bd
       -0.026276296 0.023777943 0.031215187 -0.034294102
000190 24 7a 21 bd 1c 3a 7e 3d 00 48 e1 3c fc d2 2c bd
       -0.039423123 0.062067136 0.027500153 -0.042193398
0001a0 c8 54 a0 3d b6 2a fa bd 58 c5 1b bd b7 2b 08 3d
       0.07828671 -0.12215178 -0.03803 0.033244815
0001b0 1e b8 91 3d cc fb 9b 3d 10 02 80 3d 29 df 6e bd
       0.07115196 0.07616386 0.062503934 -0.05831829
0001c0 89 42 88 3b d1 23 92 bd 24 c4 de 3d 17 f0 36 3d
       0.0041583222 -0.07135738 0.108772546 0.04466256
0001d0 6d 60 c6 bd 4e 3c 82 3d 37 f8 12 3d 8b d9 84 3b
       -0.096863605 0.063591585 0.035881247 0.0040542535
0001e0 4a 59 5c bd 50 12 09 bd 10 e0 9f bb 12 9f e3 3c
       -0.05379609 -0.03346473 -0.0048790053 0.027785812
0001f0 d7 f9 8b bb 14 41 4d bd c1 ab 1a 3d f6 37 bb 3c
       -0.0042717266 -0.05011089 0.037761454 0.022853833
000200 1b 6b 0a bd b5 e9 7a bc 7f ed bc bd 16 cb 70 3c
       -0.03379355 -0.015314509 -0.09224986 0.014696857
000210 6c c1 ad bd 96 1c a3 bd 7a 06 6e bd 8b 82 23 bb
       -0.08484158 -0.07964437 -0.058111645 -0.0024949636
000220 dc 60 85 bd cc 77 96 bd 27 78 c3 bc 26 9c f3 39
       -0.06512615 -0.07347068 -0.023861004 0.0004646491
000230 e1 3f 12 3e d6 1c eb bd e9 28 68 bd 0a 03 3a bc
       0.1428218 -0.114801094 -0.05667964 -0.011353264
000240 25 bd ae bc 46 e6 23 bd 2f 2a d0 3c 2c 5b d2 bd
       -0.021330426 -0.040014528 0.02541074 -0.10271296
000250 0c b5 c5 bd cc 68 9b 3d bb ea 8b 3c 57 36 c7 3c
       -0.096536726 0.07588348 0.017079702 0.024317903
000260 71 64 63 bd 5b 3a ae 3d a3 d5 6c bc a6 eb be bb
       -0.05551571 0.08507224 -0.014455232 -0.0058264313
000270 0d 33 0a ba d3 77 dd bc 79 f1 e3 3c 0f f6 10 bc
       -0.00052718894 -0.027034676 0.027825104 -0.008847727
000280 4c 95 9c bc f4 ab 8c bc 49 9c 37 bd e9 66 a4 bd
       -0.019114159 -0.017171837 -0.04482678 -0.08027441
000290 48 cf 26 3d 21 90 15 bd fc dc 95 bc 9a 48 46 bc
       0.040725023 -0.036514405 -0.01829385 -0.0121022705
0002a0 39 33 2e 3d ce 7e 9f 3d 7f 8d a7 3d 85 b0 ae 3d
       0.04252932 0.07787858 0.08181285 0.08529762
0002b0 c8 20 62 bd 39 d1 97 3c 1d 98 fc 3d 2e ad a4 bc
       -0.055207044 0.018532382 0.12333701 -0.02010211
0002c0 62 14 eb bc ca 88 28 bd 7c e9 f0 3d 46 00 cc bd
       -0.028696243 -0.041146077 0.117632836 -0.0996099
0002d0 a1 36 3d 3d f4 b8 4f 3d 1a a9 ca bc a6 f7 93 bd
       0.046194676 0.050713494 -0.024738837 -0.072249696
0002e0 52 d8 4e bc 50 ca 81 bc f5 5c 03 be 0b 52 85 bc
       -0.012624817 -0.01584354 -0.12828429 -0.016274473
0002f0 11 85 e1 bc 3c 3a 24 bc 03 c7 07 3c 16 54 6c 3d
       -0.027529271 -0.01002365 0.008287194 0.057697378
000300 40 69 97 bc 06 00 0b be 69 6f 82 bd 64 ad 07 3c
       -0.018482804 -0.13574228 -0.06368906 0.008281086
000310 cc 85 93 bd 39 8f 35 3c 5c b8 ee bc 6a f9 8d 3d
       -0.07203254 0.01108151 -0.029140644 0.069323376
000320 7f b8 14 bd bc 8a 5f 3d 7d ee 8f 3d 0e e7 fe bc
       -0.03630876 0.054575667 0.0702791 -0.031116035
000330 cd df 6b 3d 10 17 7d bd 5b b3 11 3c 85 49 a8 ba
       0.05758648 -0.061789572 0.008892859 -0.0012839293
000340 00 2f 34 3d dd ef a9 3c 82 29 9e bc df e4 e5 bc
       0.043990135 0.020744259 -0.019306902 -0.028063236
000350 65 fa b7 bd 53 92 6a bd e9 f3 c3 3c 6e f8 d8 3a
       -0.08983306 -0.057268452 0.023920016 0.001655353
000360 6b ef b4 3d 43 f5 05 bc 36 bb 27 bd 36 d4 1b bc
       0.08834728 -0.008176151 -0.040950023 -0.009511044
000370 66 58 92 bd 85 c0 e3 bc 7e d9 06 bd 8e 52 f9 b9
       -0.07145767 -0.027801761 -0.03292226 -0.0004755449
000380 63 a8 64 3d de b4 87 3d 6b 94 3a 3d 88 a7 72 bd
       0.05582465 0.066262946 0.0455517 -0.0592418
000390 28 45 a7 3d e3 fd a9 3c 83 af c7 bc fb 2d 68 3d
       0.081674874 0.020750945 -0.024375683 0.056684475
0003a0 1f f8 4d bd 51 06 89 bc 98 28 89 bc 11 bc b9 3c
       -0.050285455 -0.016726645 -0.01674299 0.022672685
0003b0 23 ad fc 3c 39 f2 a5 3d 25 ea d1 bd 2f 8e cb 3d
       0.030844277 0.08102841 -0.10249738 0.09939229
0003c0 85 ea d7 bd 4f 04 f8 3c 01 66 03 3d ec 17 e9 3c
       -0.10542778 0.030275492 0.0320797 0.02845379
0003d0 ce 99 26 bd ef 3f f9 bc 71 cb f9 3c 9f 65 2b 3c
       -0.040674023 -0.030425994 0.030492516 0.01046124
0003e0 66 49 4c bd 74 a3 b7 bd c4 17 97 bd 08 17 a3 bd
       -0.049874686 -0.08966723 -0.0737758 -0.07963377
0003f0 4e cc 86 3d b0 28 d1 bd 2c 14 9c 3c 0c 09 17 3d
       0.06581937 -0.10212839 0.019052587 0.036873862

combined.0.bias f4 [64]
000000 d9 fb b1 bb f5 5f 23 3d 89 13 46 3d 8a 81 b4 bb
       -0.005431634 0.039886434 0.048358474 -0.0055086063
000010 56 9f 7f ba 8e 0f e2 bc 03 9a ba 3c 72 1d 84 bd
       -0.0009751221 -0.027595308 0.022778517 -0.06450929
000020 cf 28 f5 3c 50 15 20 3d 40 d0 d1 3c 48 70 28 3d
       0.029926686 0.039082825 0.025611997 0.041122705
000030 08 e3 1b 3d 17 90 33 3c 18 fc 22 bc 5b 3d 00 bd
       0.03805831 0.010959647 -0.009947799 -0.031308513
000040 74 42 84 bc 46 24 cf 3c ca b4 e2 bc 68 03 31 3c
       -0.016144969 0.025285851 -0.027674098 0.010804035
000050 4f 25 59 3c b5 5b e3 3c 66 3b e6 3a 42 3c 90 3b
       0.013253524 0.02775369 0.001756531 0.0044017145
000060 10 72 b3 bc 1c b4 c9 bc 7f 87 96 3c fe 10 0f 3d
       -0.021904975 -0.024622016 0.018375156 0.034928314
000070 75 11 f4 3c 60 92 8f bc 43 35 c9 bc 7e ef a5 3d
       0.02979348 -0.017525852 -0.02456153 0.0810232
000080 3c 17 57 3d 0c 5b 0f bd d5 58 7e 3d 1f d3 8a bc
       0.052512392 -0.03499894 0.062096436 -0.016946374
000090 be 45 85 3c 82 ea aa bc 6b 15 2a 3b ed 6a f6 3c
       0.016268607 -0.020863775 0.0025952708 0.030080283
0000a0 5e 6a 55 3d 28 65 96 3d 59 19 f3 3c c3 8e 58 3d
       0.052103393 0.07343513 0.029675173 0.052870523
0000b0 c1 ce 12 3d a7 04 8b bc f2 2a 29 bd 69 c8 19 3d
       0.035841707 -0.016969992 -0.04130072 0.03754464
0000c0 83 12 7d 3c e3 48 ac bb 9d 83 d2 bb 78 4f 59 bc
       0.015446308 -0.005257712 -0.006424381 -0.013263576
0000d0 6c 65 c1 3d 28 a1 63 3d 13 41 a8 3d 84 b4 33 3d
       0.09443173 0.055573612 0.08215537 0.043873325
0000e0 da f2 4f bd db a6 fd 3c 46 7f 16 bd 29 3d 1b 3d
       -0.05076871 0.030963352 -0.03674247 0.037900124
0000f0 50 a6 80 bc 53 f7 e3 bc f9 77 07 3c 01 c5 58 3d
       -0.015704304 -0.027827894 0.00826835 0.052922253

combined.3.weight f4 [64, 64]
000000 88 96 09 3e 61 03 9d 3d e5 17 80 bc e9 9a 38 bd
       0.1343633 0.0766666 -0.015636394 -0.04506961
000010 e5 5e 2f be 87 57 51 bd 35 2b 20 bd 6c 84 8b bd
       -0.17126043 -0.051108863 -0.039103705 -0.06812367
000020 fc dc 63 bb 84 01 a2 bd ab 6a 6b bd 5a 9b c8 3d
       -0.0034769168 -0.07910445 -0.057474773 0.09795256
000030 3e 06 77 3d 37 6e 44 3c 40 6b ce bd 42 a3 a7 bd
       0.060308687 0.011989168 -0.1007905 -0.08185436
000040 bb 3d db 3d 01 33 98 bb 5d 2a 1e bd b3 0d 1e bd
       0.107051335 -0.004644752 -0.03861462 -0.038587283
000050 b5 46 8d bc c7 c1 09 be ec 77 14 bd 97 d2 9e 3d
       -0.01724563 -0.13452826 -0.03624718 0.077550106
000060 aa 78 2c bd af ee 1c bb fb 26 78 3c 7d ab 06 be
       -0.04210726 -0.0023945977 0.015146012 -0.13151355
000070 e8 87 89 bd f2 fb bb bc b8 f0 29 3d da 19 c8 3c
       -0.06715375 -0.022947285 0.041489333 0.02442639
000080 3c 5e 07 bb 1f 6e 00 bd 99 26 06 3d fc e7 87 bb
       -0.0020655533 -0.03135502 0.032751653 -0.0041475277
000090 68 98 b9 3d cd d2 7b bd 26 f6 a0 3d 5d 34 2b bd
       0.09062272 -0.061480332 0.07859449 -0.041797984
0000a0 86 f7 12 bd 20 8d 0f bd dd 9c 87 bd b0 85 85 bc
       -0.035880588 -0.035046697 -0.06621716 -0.016299099
0000b0 e9 79 df bd 5a f4 3b 39 c3 f0 9d bd b4 f8 6e 3b
       -0.109119244 0.00017924738 -0.07711937 0.0036464157
0000c0 28 58 0b 3e 6a be c9 bc d1 df 3e bb 83 98 98 bd
       0.13607848 -0.02462693 -0.0029125104 -0.07450964
0000d0 fe 96 12 bd c3 f3 0b be e6 bb 31 3d e0 b7 28 bd
       -0.03578853 -0.13667206 0.043392085 -0.041190982
0000e0 82 d2 d5 bd 8a 2d 74 3d 35 4e a4 3d 5c de cd bd
       -0.10440542 0.059613742 0.08022729 -0.10052177
0000f0 d4 16 80 bd ba 0a 67 bd af 4e 37 bd 23 8d 8c 3d
       -0.06254354 -0.056406714 -0.044752773 0.06862857
000100 81 0e 94 bd 2b 3f 1c 3d 21 7d f4 3c 68 b2 57 3d
       -0.07229329 0.03814618 0.029844822 0.052660376
000110 fd 9a d8 3d 98 4d dc 3d 78 59 81 3a d8 ef 0d 3d
       0.10576437 0.10756987 0.0009868583 0.03465256
000120 6f 76 81 3d 75 20 2d 3e d7 e2 bf 3c c1 77 29 be
       0.063214175 0.16906913 0.023423595 -0.16549589
000130 28 6b 12 3d c7 90 04 bd bd 47 c1 bc f4 de 07 3e
       0.035746723 -0.032364633 -0.023593778 0.13268644
000140 da b6 94 bc 73 4b c5 3c 3a ee 98 3d f1 cf 46 3d
       -0.018153597 0.024083829 0.07467313 0.048538152
000150 78 4c 0d bb 8e 6c 8e 3c 6d f3 5f bd fe 05 75 bd
       -0.0021560472 0.017385747 -0.05467551 -0.059820168
000160 11 cf 00 bd 7e 9e 7f 3d e5 9f 10 be 49 25 ed 3d
       -0.031447474 0.06240701 -0.14123495 0.11579377
000170 22 32 22 bd b5 ed e6 bc 40 b3 a3 3c 13 c9 71 bd
       -0.03959859 -0.02818952 0.019982934 -0.05902965
000180 b8 8a 3e bd 7d af 27 3c 77 ba 62 bc e3 55 68 bd
       -0.04651901 0.010234711 -0.013838402 -0.056722533
000190 19 6f fa 3b 2a 43 5b bb ab 1f cf bb cb e1 6d bd
       0.0076426384 -0.003345678 -0.006320914 -0.05807666
0001a0 f9 b6 1a be c8 ec 6b bd ec 0d e3 bc a4 da 8c 3c
       -0.15108861 -0.05759886 -0.0277166 0.0171941
0001b0 6e 54 ac bb 02 a8 03 3e 52 03 14 3e d2 c4 05 be
       -0.0052590882 0.12857059 0.14454392 -0.13063362
0001c0 19 5f 2b bd 6b 57 4b 3d b1 e0 61 3d af 7e cb 3d
       -0.04183874 0.049643915 0.055145923 0.09936272
0001d0 d8 a5 3c be bb cf 97 3d 41 b0 d0 ba fd 63 9b 3d
       -0.1842264 0.07412668 -0.0015921668 0.075874306
0001e0 f4 7f 1f 3c bc 08 a9 bd 15 1c 0e bd 93 b3 37 3d
       0.009735096 -0.08253619 -0.03469475 0.04484899
0001f0 87 89 30 be 76 c8 6d 3d 0c 14 48 bd 35 0e 6b 3c
       -0.17239963 0.058052503 -0.048847243 0.014346649
000200 e6 be b9 3d 5a ba 8e bd 0b a8 c2 bd c0 8a 87 bd
       0.09069614 -0.069691375 -0.09504708 -0.06618261
000210 30 bd fa 3b c4 ba 89 bb 14 55 17 3d 84 04 f0 bd
       0.0076519474 -0.0042031724 0.03694637 -0.11719611
000220 70 b3 83 bd f3 4d 1b be 4b 0d 26 bd ec da 70 3d
       -0.06430709 -0.15166454 -0.04054002 0.05880253
000230 8a 6e ce 3d 3d a8 96 3d 5f 7d b4 bb 75 59 ee bd
       0.100796774 0.07356308 -0.0055081095 -0.11638156
000240 b9 14 a3 3d 65 bf b2 bd 3f 41 39 be b1 33 45 bd
       0.07962937 -0.08727912 -0.18091296 -0.048145
000250 67 4c 80 3d fb 07 59 3d eb 10 84 3a 6b 5e 01 be
       0.062645726 0.052986126 0.0010075843 -0.12633674
000260 e5 c5 cf bd fd 21 d9 3c 21 1c 51 ba 0c 8e dd 3b
       -0.10145167 0.026505465 -0.0007976909 0.006761318
000270 86 90 ca 3d 98 ae 60 3d 5d 9a 3a 3d 9c cf 6e bd
       0.09890847 0.054854006 0.04555737 -0.05830346
000280 43 04 a4 bd 21 f4 a0 3d c0 41 72 3d f0 01 1f be
       -0.08008625 0.07859064 0.059144735 -0.15528083
000290 66 b8 05 be 90 24 b4 3c 49 74 02 3d 2a df a1 3d
       -0.13058624 0.02199009 0.03184918 0.07903893
0002a0 11 c6 51 ba d1 ae b2 bd 32 e4 c7 bd 58 98 a9 3d
       -0.00080022315 -0.0872475 -0.09760322 0.082810104
0002b0 0b 59 1e 3d 61 cf 92 bd ac 3d c4 bd 44 be ae 3d
       0.038659137 -0.07168461 -0.095820755 0.08532384
0002c0 69 df 9f bc 39 94 b1 bd 3a 43 dd bd d8 34 15 be
       -0.01951571 -0.08670849 -0.10803838 -0.1457094
0002d0 32 0d b1 bc 0b 68 92 3d 67 31 49 bd 25 cb bb bd
       -0.021612737 0.07148751 -0.04911938 -0.09169606
0002e0 df 82 0d be e2 d2 96 3d 97 0a f1 bc 89 fa a7 bd
       -0.13819455 0.073644415 -0.029423995 -0.08202083
0002f0 52 6a d2 3c 45 39 35 bd 75 c6 cd 3c 8a f5 a7 bd
       0.025685463 -0.04424407 0.025119046 -0.0820113
000300 ec 85 e9 3d 16 16 eb 3d 3e 8a ab bd 22 05 a8 bc
       0.11402497 0.11478822 -0.08375977 -0.02051026
000310 4b 29 3a bd 1c 7a 47 bb fc b0 1d 3e 00 a0 c0 bc
       -0.045449536 -0.0030437773 0.15399545 -0.023513794
000320 12 78 50 bd 22 29 07 be 90 2b df bd 37 09 1b 3e
       -0.050895758 -0.13199285 -0.10896981 0.15140234
000330 f1 b8 b1 bc b2 91 ab 3c 8e 41 3a 3c af 9f 8a 3d
       -0.021694632 0.020943496 0.0113681685 0.067687385
000340 4b 19 13 3e ba 88 f9 3c 23 8d 2d be 9e 8b 85 bd
       0.14365117 0.030460704 -0.1694837 -0.065207705
000350 36 96 fc 3d 8d b0 b6 3c c3 07 fc bd 0b ef 88 bd
       0.12333338 0.022300983 -0.12306168 -0.06686219
000360 a2 88 2e bc 5f 45 b6 bd c1 aa c3 3d 67 cf b6 3b
       -0.010652693 -0.0889995 0.09554053 0.0055789235
000370 22 52 2b 3e 1e 35 93 bd b7 3a b5 3b 2b 0c ae 3d
       0.1673055 -0.07187866 0.005530681 0.084984146
000380 ad 60 74 3d 39 c7 8b bc c8 d9 10 bd 66 35 0f bb
       0.05966251 -0.01706277 -0.035363942 -0.0021851896
000390 88 27 ad bd 67 f3 a7 bc d1 b3 f8 3d b0 fc 06 bc
       -0.084548056 -0.020501805 0.12143672 -0.008238956
0003a0 a5 8e 00 3e e1 b8 08 3d 70 bf cf bd e8 f2 b2 bc
       0.12554415 0.03337944 -0.10143936 -0.021844342
0003b0 b1 05 12 be 7f e0 f3 bd 7c 61 aa bd e8 d6 33 3e
       -0.14259984 -0.119080536 -0.08319375 0.17562449
0003c0 c5 ce 13 3e bb e8 eb bd b0 9a 52 3d d5 34 dd bd
       0.14434345 -0.11518999 0.051417053 -0.108010925
0003d0 2f 8b 8d 3c 1a 58 ed bc e4 77 c1 3d cb e3 a8 bd
       0.017278282 -0.028972674 0.094466954 -0.08246573
0003e0 df ff 04 bd 83 f1 3e 3d 6d 0e 6c bd fb 9f a5 bb
       -0.03247058 0.046617042 -0.057630945 -0.0050544715
0003f0 aa ef f2 3c 24 e0 45 3d ac 46 97 bd 44 f4 dd 3d
       0.029655296 0.04830946 -0.073865265 0.108376056

combined.3.bias f4 [64]
000000 1a a2 b8 3d ce ea 79 3c 49 e5 9d 3d d0 c7 1f 3c
       0.090152934 0.015253736 0.07709748 0.009752229
000010 49 56 1c 3d 67 a9 20 3d 3a 46 85 3d 3c ad 6b be
       0.038168225 0.039224055 0.06507535 -0.23015302
000020 57 07 c8 3d 0e 7b 5d 3d 5a db 3d bb 41 4c 49 be
       0.09767025 0.054072432 -0.0028969855 -0.19657995
000030 b5 23 da bc c3 b0 39 bd b4 43 9d 3d ba ff d9 3b
       -0.026628355 -0.04533459 0.07678929 0.0066527994
000040 91 05 7f 3c 2d f7 5e 3c 61 8d 9c 3d 28 a6 96 3d
       0.015565292 0.013608736 0.076441534 0.073559105
000050 9e 21 4a be 9e 95 04 3d 0f 7e 30 3d 72 fa c0 3d
       -0.19739386 0.03236925 0.04308897 0.09422769
000060 70 5e 63 3d ed 06 e4 3d c1 4b 2f 3c cc 6f 89 3c
       0.055509984 0.111341335 0.0106992135 0.016776942
000070 95 18 da 3d a5 bb 5e 3c 2e fc 8c 3d db 32 c5 3c
       0.1064922 0.013594543 0.06884037 0.024072101
000080 12 29 f0 3c dd 2f fd 3d aa 29 3a 3d 7a 1f 5f 3d
       0.029316459 0.12362645 0.04544989 0.054473378
000090 06 58 e9 3d fd 32 e4 3c d1 ba bb 3d 0f 62 4f b9
       0.11393742 0.027856344 0.09166492 -0.00019777588
0000a0 50 8a 50 3d e7 56 6c 3d 7b 23 8f 3d 8e 93 d1 3d
       0.050913155 0.057700064 0.06989189 0.10233222
0000b0 80 7a 9d 3d 01 a7 a2 ba 47 d1 28 bc 38 27 b9 3d
       0.07689381 -0.001240939 -0.010303802 0.090406835
0000c0 2f 97 9f 3d ef 4d 95 3d 0a 3e 91 bb c1 3f 4e 3d
       0.07792508 0.07290255 -0.0044324445 0.05035377
0000d0 8c 8d bf 3d 87 94 bd 3d 10 37 70 3c 7c 27 d8 3c
       0.0935317 0.09256845 0.014661565 0.026386015
0000e0 91 cb 14 3e d8 66 b8 3d 3b 88 8d 3d 61 3a 8e 3c
       0.1453078 0.09003991 0.069107495 0.017361822
0000f0 7e ee 8f 3d 22 64 7c 3d 63 fd d8 3d d8 4e c8 3b
       0.07027911 0.06161893 0.10595205 0.0061129145

combined.6.weight f4 [1, 64]
000000 85 bf 7d bd bc d7 21 3d 34 86 93 bd 92 af 7e bd
       -0.061950225 0.03951238 -0.072033316 -0.062179156
000010 54 f5 ae 3d 20 64 9a bd 53 3e 41 3d 7b 06 25 bd
       0.085428864 -0.075386286 0.047178578 -0.040289383
000020 19 97 ae 3d d0 ac 58 3d a7 41 15 bd f9 74 60 bd
       0.08524913 0.05289918 -0.036439564 -0.054799054
000030 e9 f0 5f bd f4 d7 f6 bc 31 5f 87 bd 00 a6 9d 3d
       -0.05467311 -0.030132271 -0.06609953 0.076976776
000040 cc cd 7e 3d 52 7b 48 bd fb 62 84 3d d0 6c 98 bd
       0.062207982 -0.048945732 0.064641915 -0.07442629
000050 76 a3 5c bc de 23 48 3d 41 ef c1 bd 56 83 c2 3d
       -0.0134667065 0.04886233 -0.09469462 0.094977066
000060 82 af 2c 3d 5e 97 97 bd d7 c8 04 bd b1 75 35 3d
       0.042159565 -0.07401918 -0.0324181 0.044301692
000070 47 05 80 3d 9c d0 a3 bd c8 ca 4c 3d 7a e0 e0 bd
       0.062510066 -0.079987735 0.049998075 -0.109803155
000080 ef 93 6f 3d 98 8c cc 3c 38 6a 62 bd 75 67 93 bd
       0.05849069 0.024969384 -0.05527708 -0.07197467
000090 85 d3 3d 3d ea 2c b1 3d 94 9d 9c bd 3b d6 dd 3d
       0.0463443 0.08651145 -0.07647243 0.10831877
0000a0 f6 c1 3e 3d 5a e0 8a bd 87 b6 60 bd e3 9c 7b 3d
       0.046571694 -0.06781073 -0.05486157 0.061428916
0000b0 79 d0 4d 3d d5 39 32 bd 22 cd 88 bd f6 71 4b bd
       0.050247643 -0.043512184 -0.06679751 -0.04966923
0000c0 66 e9 bc bd 18 43 06 3d 22 d9 5a 3d 71 77 09 3d
       -0.09224205 0.03277883 0.05342973 0.033561174
0000d0 a8 62 14 3d 0c 54 98 3d 59 d0 c4 3d 54 83 ad 3d
       0.0362269 0.07437906 0.09610052 0.084723145
0000e0 f5 ea 22 3d 3a 05 c5 3d 84 ec 55 3d 76 5a 55 bd
       0.039774854 0.096201375 0.052227512 -0.052088223
0000f0 bd 31 76 3d 40 88 42 3d 8b 6d 8b bd 61 76 a4 3d
       0.060106028 0.04749322 -0.06808003 0.080303915
