data/models/nov12_24_undersample/fold4_epoch_models/epoch_6_model.pt (torch, 775567 bytes, 9 tensors)

layers1d.0.weight f4 [128, 1280]
00000000: f424 b0bd c281 293c 6a2d d8bc 0dae 17bd
00000010: eabc c23c cc5a 96bc 8f9a b7bb 0e10 2e3c
00000020: 838d 8bbd e796 b43c aaa5 bdbb 7588 67bd
00000030: 8f69 5abc b4cc 7e3c 67a0 d7bb dde1 1c3d
00000040: fd39 a1bc 057b 003c fbf4 5dbd 1848 30bd
00000050: 044c 99bd d4f8 8d3c 3111 68bc af03 8339
00000060: 2118 ddbb 0a4f 2abc b413 96bc cac6 9bbd
00000070: 4a31 dbbc 170c 3e3b c415 8abc 8db7 14bd
00000080: 9939 b6bc 1e14 8dbc f505 62bc bb0a 0e3d
00000090: aa80 28bd 6700 ad3b 74bd c53c 2320 1a3d
000000a0: 5387 d53b 4f53 8ebc 810d 80bc 61fb 34bc
000000b0: 156e 2bbd e394 5cbd 7f16 893c 5826 a03a
000000c0: 1fd4 53bd ba9a 873c d3f0 abbb be3c 303d
000000d0: dea8 f1bc 00d2 9d3b f548 2dbd 3dd3 a439
000000e0: 108c 803c 6d3a db3d a179 373d d964 f23b
000000f0: 8d63 e63b 8c13 873c 75be cbb9 4149 0d3c
00000100: 76ef e33b b339 8b3d cb42 25bd d101 683d
00000110: 3cdb febc d7ce 73bc 695c da3c bb7a dcbc
00000120: 061e 8f3d 95f2 b6bc 0bf2 90bd d96a 6e3d
00000130: 0b5c ae3d a506 89bc 6bf7 583d 9a2a cbbb
00000140: 6a47 9cbd f338 23bc a111 b139 23ec c9bc
00000150: f0e8 b73b 9f1b 69bd aea3 853c 8bfa 3a3d
00000160: 3e9d c6bc 9b96 bd3a ffa0 d43c 7645 98bc
00000170: 56b2 42bc 6a16 1a3d 48a7 c13c 1fb7 f73c
00000180: 076a 123d 5336 473d d3db 91bd 987b 133d
00000190: b000 99bc 74b9 7a3d 4c99 4e3d b2b6 173c
000001a0: 4b79 35bc a290 42bd 67bb afbd 17ad bc3c
000001b0: ee5a a4bd 1823 313d f59b 3a3d 8511 dabc
000001c0: 6527 053d f700 a93d d3b9 bcbd d0cb 47bd
000001d0: 3122 aebc 7cd0 0f3b 2aec 8cbd bcd0 d8bc
000001e0: db19 7c3c 36cc 03bd 971a 1d3c f654 69bc
000001f0: 1389 b43a 9892 d13c 3494 743c d688 d9bc
00000200: 2704 d4bc dfa9 63bc bb5c 67bc e4d0 09bd
00000210: 7492 893d 546c a3bd d921 c1bc 6e3b 71bd
00000220: 2638 e2bc 801d 99bc fac9 6cbd 9c50 743d
00000230: e7b2 533c 54a0 063c 64b8 8a3c 3c8d dcbc
00000240: 1a12 8bb9 8b93 02bd 0e17 54bd 3d58 1a3d
00000250: 044d 9b3d 2db4 213d a8ad c3bb 075c a0bc
00000260: 6970 173d 7e8d fa3c 9692 953c fcb0 63bc
00000270: 153c 303c a2ea b3bc 72a4 573d 7528 cbba
00000280: 603a 953c faf5 30bc 003c 2b3c df4e 223d
00000290: 0957 5abb 1278 85bc a255 043c 1c92 c1bb
000002a0: 8574 d23c 6400 a63d d086 13bc 1c41 e5bc
000002b0: 491a 18bd e157 993c e02f df3c 2c52 39bb
000002c0: 5bc0 07bb 2efb f83c bae9 c1bc f146 8c3c
000002d0: d15a a13c 658e 46bc 99dd b2bd 3e24 013d
000002e0: e616 0abd 0bd0 7ebc 9c4d 1c3d 92bd 10bb
000002f0: dc0f 17bd 5380 9f3d 1a43 4c3d af40 03bd
00000300: 5046 b83d dd54 87bd b38d 15bb 9cdd e23c
00000310: 4cde 77bd 150a 1bbe db86 683d 1d9c 3e3c
00000320: a94e 063b f974 85bc 865d 913c 38f8 003d
00000330: c8b4 93bd 558a e53b dc97 80bc 3be8 edbc
00000340: d073 bf3c 0956 0e3a 8766 87bc 0a67 743c
00000350: 81b9 f1bc 4411 573b b955 ae3c ecea 7c3b
00000360: b7d6 9e3d ebb0 a13d cb43 713d c725 6a3d
00000370: 392b 41bc b388 893c 94d2 683d 4a9c 71bc
00000380: d190 2b3d fe64 5c3d 0eee e1bc c248 f13c
00000390: 1f2c e83b 0699 fabb 4ca8 abbd d781 c1bc
000003a0: ed2e f9bc 416a c03c c089 8c3b 91a5 94bc
000003b0: 2bf3 a2bd 564a 5cbd c60f a2bd d432 9ebc
000003c0: 23be ad39 a558 1fbd 1469 923d 0bb7 c53c
000003d0: e431 86bd d165 11bd 7a51 ad3d f0e2 ec3c
000003e0: 4da0 4fbd b5c3 013d 8f63 d13b bb32 083b
000003f0: 1ff7 323d a4ec 2b3d 7b09 e2bc ff05 0dbd
-0.08600798 0.010345878 -0.026388843 -0.037031222 0.023771722 -0.018353842 -0.0056031416 0.010623945
-0.068141006 0.022044612 -0.005787571 -0.05652662 -0.013330831 0.015551735 -0.0065804007 0.038301338
-0.019680971 0.00784183 -0.05418871 -0.043037504 -0.07485202 0.017330565 -0.014164255 0.00024989012
-0.006747261 -0.010394821 -0.018319942 -0.076062754 -0.026756901 0.0028998905 -0.016856082 -0.03630786
-0.022244262 -0.017221507 -0.013795366 0.034678202 -0.04113833 0.005279589 0.02413819 0.037628304
0.006516376 -0.017373709 -0.01563144 -0.0110462615 -0.04185303 -0.053852927 0.01673436 0.0012218459
-0.051715966 0.016553272 -0.0052472143 0.04302668 -0.029499467 0.0048162937 -0.042305905 0.00031437902
0.015691787 0.10704503 0.04479373 0.007397276 0.0070309103 0.016488813 -0.0003886108 0.008623422
0.006956036 0.06798115 -0.040346902 0.056642357 -0.031110398 -0.014880857 0.026655393 -0.026913991
0.069881484 -0.022332469 -0.07077416 0.058207367 0.085136496 -0.016726801 0.05297033 -0.006200147
-0.07630809 -0.009962308 0.00033773205 -0.024648732 0.005612485 -0.056911107 0.0163134 0.045649093
-0.0242449 0.001446444 0.025955675 -0.018587809 -0.011883339 0.037619032 0.023639336 0.030238686
0.035745647 0.048635792 -0.07122006 0.03600654 -0.018677086 0.061212018 0.050439164 0.009259867
-0.011076282 -0.047501214 -0.08580666 0.023031754 -0.08025156 0.04324636 0.04555889 -0.026619682
0.032508273 0.08252137 -0.09215131 -0.048778355 -0.021256538 0.0021944335 -0.06880982 -0.02646672
0.015387024 -0.032177173 0.009588859 -0.014241448 0.0013773761 0.025582597 0.0149279125 -0.026554506
-0.025880886 -0.013895481 -0.01412123 -0.03364648 0.06717387 -0.07979646 -0.02357571 -0.058894567
-0.027614664 -0.018690825 -0.057809807 0.059647188 0.012921072 0.008216936 0.016933627 -0.026922815
-0.00026525633 -0.03187899 -0.0517798 0.037681807 0.07583049 0.03947847 -0.005971629 -0.019575132
0.036972437 0.030585047 0.018258374 -0.013897177 0.010756512 -0.021962468 0.05264706 -0.0015499728
0.018216312 -0.010800833 0.010451317 0.039626 -0.0033316037 -0.016292606 0.008077057 -0.00590731
0.025690326 0.08105543 -0.00900431 -0.027985148 -0.037134442 0.018718662 0.027244508 -0.0028277738
-0.0020714018 0.03039321 -0.02367102 0.017123671 0.019696625 -0.01211891 -0.08733673 0.031528704
-0.033713244 -0.015552531 0.03815995 -0.002208565 -0.03688036 0.07788148 0.04986868 -0.03204411
0.08997786 -0.06607983 -0.0022820055 0.027693562 -0.060514733 -0.15140565 0.056769233 0.0116339
0.0020493662 -0.016291128 0.01774479 0.03148672 -0.07212216 0.007005016 -0.015697412 -0.0290414
0.023370653 0.00054296904 -0.016528381 0.014917145 -0.0295074 0.0032816688 0.02128111 0.0038592173
0.07755797 0.078950725 0.058902543 0.057164934 -0.01179009 0.016788816 0.056841448 -0.014746735
0.041886155 0.05380725 -0.027579334 0.029453639 0.007085338 -0.0076476363 -0.083817095 -0.023621483
-0.030417884 0.023488166 0.004288882 -0.018145354 -0.07956537 -0.05378183 -0.07913165 -0.019311346
0.00033138794 -0.038902897 0.07148948 0.024135133 -0.06552485 -0.03549749 0.08462806 0.028916806
-0.050689984 0.03168078 0.006390042 0.002078219 0.043692704 0.041973725 -0.027592411 -0.034429546

layers1d.0.bias f4 [128]
00000000: 9fd7 44bd d20a 22bd f5b3 80bc 666a 17bc
00000010: 0982 98bc 6d33 9ebc 24af 01bd 167b 54bd
00000020: 493c f0ba 3e92 abbc f156 bcbc 0eb8 48bc
00000030: 959b b5bb 3fd2 a2bc f417 18bc 68ec 34bc
00000040: e608 d9bc 6d9d 1b3b cbd6 34bc 2944 3cbd
00000050: f035 49bd 3c31 0bbd 1a62 bdbc 6636 cdbc
00000060: 2c14 1f3c 7088 acbb 3067 d4bc 7b44 c5bc
00000070: 40f5 d2bc 3cec 8fb8 77dc 65bd 7910 e7bc
00000080: 8612 d9bc dcea c23b 92be a7bc 172f 8bbc
00000090: 16d1 7ebd b5c7 01bc e812 0abd 6069 f5bc
000000a0: 22eb d4bb 7a40 13bd f989 36bd 3b3a b4bb
000000b0: d679 86bd cacb 90bc ab5f b0bc 168d ecbc
000000c0: 31f9 5cbc 6139 3ebd 713c 6ebc 252a 45bc
000000d0: de88 8fbc 601d 14bd ce58 2bbd 2d06 31bd
000000e0: b9b1 7fbc ceea 13bd 44d0 f7bc e0b4 973b
000000f0: 4545 02bd e1a1 833b bdbd adbc fa73 32bd
00000100: e1cf 4ebd 67a6 91bc baf6 f1bc 2373 fbbc
00000110: 0c4e 5cbd a8cd d7bc 2697 26bd 90b0 04bd
00000120: 9071 4ebd 655d 13bd c16f 1ebd 2386 fabc
00000130: d0d5 22bd 8e23 a6bc 68d2 9fbc 8e26 c1bc
00000140: b63b 94bc 3ff9 1dbd 38ea e3bc ead7 3dbd
00000150: d412 b6bc fa7b d9bb d7bd 2bbc 9c7c aebc
00000160: 0d0d 6cbc ba8b f4bc 0532 1ebd c0ea 44bd
00000170: 6820 67bc fe65 b7bc 7107 52bd 8633 d6bc
00000180: 40ef 40bd 46ab 2dbd 021a 1dbd 7327 4fbc
00000190: 28f6 3abd 4343 1abd 1d81 94bb 97b5 24bd
000001a0: 4a71 113c d852 08bd 4be8 8ebb 9b8e b4bc
000001b0: 5664 1cbc f155 72bc f7fd 3dbc c4c3 a6bb
000001c0: 76a1 4cbc 657c 25bd 3d3e c2bb e85a 86bb
000001d0: b182 d3bc 0144 fd3b e7b7 b3bc 6055 1bbd
000001e0: 6b53 ecbc 9ca8 50bd effd 54bc ea5f 4ebc
000001f0: f253 48bd 263b 04bb f2e2 14bd c3a6 b5bc
-0.048057195 -0.0395611 -0.01571081 -0.009241676 -0.018616693 -0.019311631 -0.031661168 -0.051875196
-0.0018328513 -0.020943757 -0.022990676 -0.012250913 -0.0055422285 -0.019875644 -0.009283055 -0.011042692
-0.0264935 0.0023744956 -0.011037539 -0.04596344 -0.049123704 -0.0339825 -0.023118068 -0.025050353
0.009709399 -0.005265288 -0.02592811 -0.024080506 -0.02575171 -6.8627734e-05 -0.056118455 -0.028206097
-0.02649809 0.0059484076 -0.020476613 -0.016990228 -0.06221112 -0.007921149 -0.033709437 -0.029957473
-0.0064977566 -0.03595016 -0.044565175 -0.0055001057 -0.06566207 -0.0176753 -0.021529993 -0.028875869
-0.013487146 -0.04644144 -0.014540778 -0.012033974 -0.017521318 -0.036160827 -0.041832738 -0.04321878
-0.015606337 -0.0361126 -0.030250676 0.0046297163 -0.03180434 0.0040171 -0.021208638 -0.043567635
-0.050491218 -0.017779542 -0.029536594 -0.03069455 -0.05378537 -0.026343182 -0.04067149 -0.032394946
-0.05040127 -0.03597774 -0.038680796 -0.03058154 -0.03975469 -0.020280626 -0.01950951 -0.023577955
-0.018094879 -0.038567778 -0.027821645 -0.04634849 -0.022225775 -0.0066370936 -0.010482273 -0.021299653
-0.014407408 -0.029851783 -0.03862192 -0.048075438 -0.014106847 -0.0223875 -0.051276628 -0.026147615
-0.047103167 -0.042399667 -0.03835488 -0.012643683 -0.04564491 -0.037661802 -0.004531993 -0.04021224
0.008877108 -0.03328213 -0.0043611876 -0.022040656 -0.009545406 -0.014790998 -0.0115961945 -0.005089255
-0.012489667 -0.040401835 -0.0059278295 -0.0041001923 -0.025819154 0.007729054 -0.021938277 -0.037923217
-0.02884837 -0.05094205 -0.012999996 -0.01259611 -0.04890818 -0.0020176857 -0.036349244 -0.022174245

layers1d.3.weight f4 [128, 128]
00000000: 8d17 46bd 0259 5fbd 26bd f2bc 18a2 103d
00000010: 857d d8bc a1fc 1dbd e59b 1dbd 695a 4c3d
00000020: 6f27 6bbd 892d 913d a933 4cbd 8a37 67bd
00000030: b6aa edbd e17c 91bd 9171 0ebd d487 c6bc
00000040: e3dc 9dbd 7fbb 91bc 7f20 50bd 0310 cf3d
00000050: 5ca5 babb e98e 913d add8 a43d 8451 5dbc
00000060: e1b5 44bd 1ba2 b9bd f095 1b3d 5360 cbbc
00000070: 0a2c 853d 329a 3e3d 2c4e bdbd a881 e4bd
00000080: 7875 5a3c eac4 bbbd 35ef 3e3d b094 07bd
00000090: 96b7 d33d 0485 1c3e c5c5 553d 388f 1bbd
000000a0: eade 16bd 6d45 eb3d 7bc2 a23d 9176 c7bc
000000b0: 043f 083e e267 d1bd b818 33bd c836 fc3b
000000c0: 7277 07bc cdfe 323d 42c1 a9bc f332 63bd
000000d0: a43f 833c ceb0 a9bd 4d7f d7bc a178 efbc
000000e0: 3bdf fdbc 9cd6 b2bd 3f62 2a3d 0413 13bd
000000f0: 1526 c1bc e0ec 86bc 9c1e 80bd cd3b c4bb
00000100: 3e0f 963d 07fd b93d 6d26 fc3d 819f 123e
00000110: 10da d53a 8d76 993d 9630 32bd 5fcf babd
00000120: 559e cabc f77a 08be 9870 0dbd f23e babb
00000130: 2ebe b53d 7cd4 85bd fb87 723d 20ba 843d
00000140: 5236 61bd 6d71 3c3d 140b ba3d 7aa7 39bd
00000150: 9b13 d8bc 99e8 95bd b986 0abc 321f 03be
00000160: 4ae2 72bd 0aa8 81bd a28a 30bd 310c 91bd
00000170: 570d 9fbd a058 80bd d5c9 803c 7ecb eabd
00000180: 187f fc3c ace6 a8bd e460 87bc cf4c 263d
00000190: f022 293d 56c2 a8bd 5e04 d23d 5d6d 073e
000001a0: 93c3 b7bd 28f2 49bd 6006 d3bd e1b1 873d
000001b0: ebaa a93d cfa2 95bc a155 93bd 7860 16bd
000001c0: b052 a1bd 6e6f 3dbd 0154 aa3d de80 0cbe
000001d0: 7474 8c3c 1ccc ddbc 7ae2 5fbc efcb fb3c
000001e0: 8306 33be d5d4 7f3d e680 d8bc b661 26be
000001f0: 4c0e bb3d 73c5 9fbd 281c 00bd 3a5a 6abd
00000200: 66ff 8a3d 4f37 18be c2bd c63d d72e 24be
00000210: c8fd 99bd 3560 0c3d 23e7 dd3d 13cf b8bd
00000220: 7ccc b13d 17f5 99bd f1cd 443d 8d4a 0abe
00000230: 0971 d33b 9b64 323d 9c4f dc3c 55ce 85bd
00000240: e090 313d 26cf 3fbb b786 e8bd b93a 33bc
00000250: 259b 4a3d 0999 9ebd 43fc ec39 064a c13c
00000260: d27a d8bd 8f79 8abd 50f3 86bd e5bf 0a3e
00000270: 13f8 1dbe 182e 76bb 1965 e83d f101 aa3d
00000280: 4d84 b33d 8dfb 883d 5f1e 86bd ad2d a83d
00000290: 619d 52bd 4100 a73c d178 82bd e39c cb3c
000002a0: e8c2 cbbd 85b1 a6bd ddff 91bd 7bd0 7abd
000002b0: de02 3a3c 3f92 a53c ce89 7bbc 2b61 453c
000002c0: 4425 bcbd d266 6fbd 7c94 25be 9217 8dba
000002d0: 3c35 dcbd 34bc fa3d f27b 20bd 10a0 22b9
000002e0: c894 b1ba 7293 67bd 8906 03be f606 debb
000002f0: fa63 febd da1c 783d 0244 f43d dc4d 8dbd
00000300: b1bd c9bc 503b 1dbd f104 a1bd c730 bfbd
00000310: ce40 b0bd faba ddbd ee15 4e3d a8b6 96bc
00000320: 895f 5d3d 17c1 1cbd c591 c93d 4c74 a5bd
00000330: d9a0 853d 8561 d8bd 1a16 83bd cf29 8dbd
00000340: 3b61 28bd 5168 a6bd 0146 65bd 43d7 0bbe
00000350: bd23 aabd 7f61 e5bd 8c35 2c3c 1d0c f03d
00000360: 1d8a 60bd 57a2 f83d b321 a3bd f78a 473d
00000370: 90cb d83d b924 29be 743e f8bd 52ec 23be
00000380: 699a 1b3d e9cf 773d ba48 96bc 5992 ecbd
00000390: b8d1 e4bd dde3 88ba 9217 08be a98e c9bd
000003a0: a51a b93b 6354 fbbd 1f76 c93d c1a3 7dbd
000003b0: b551 45bd 6d75 0ebc 4458 193e bd6c b23d
000003c0: 7933 793d 7a86 df3d 56f7 793c 25bf f0bd
000003d0: 8339 aebd 90d3 c63c 031c a8bd 4be0 a8bd
000003e0: 191b 903c 9d7a af3d c0f7 133c e71e 8abd
000003f0: c77e 4fbd 75b5 113c 7ba7 663c fb77 c23c
-0.048362304 -0.054528244 -0.029631209 0.035310835 -0.02642704 -0.038571004 -0.03847875 0.04989091
-0.057410654 0.07088763 -0.049853954 -0.05644945 -0.11604826 -0.07103897 -0.034776274 -0.02423469
-0.077081464 -0.0177896 -0.05081224 0.10110476 -0.005695982 0.07107336 0.0804914 -0.013508204
-0.048025016 -0.09064122 0.03798479 -0.024826204 0.065025404 0.04653377 -0.09243426 -0.111575425
0.013333671 -0.09168418 0.046614844 -0.033100784 0.103377506 0.15285116 0.05219056 -0.03797838
-0.03683368 0.11487851 0.079472505 -0.024348529 0.13305289 -0.10224892 -0.043724746 0.00769696
-0.008268224 0.04370003 -0.020722035 -0.05546851 0.016021557 -0.08285676 -0.026305819 -0.029232325
-0.030990234 -0.0873234 0.0415976 -0.035906807 -0.02357773 -0.016470373 -0.06255838 -0.005988574
0.07327126 0.09081464 0.12312017 0.14318658 0.0016315598 0.07493315 -0.043503366 -0.09121584
-0.024733702 -0.13328157 -0.034531206 -0.005683773 0.088741645 -0.06534669 0.059211712 0.06480813
-0.054983445 0.04600661 0.09084144 -0.045325734 -0.026376536 -0.07319755 -0.008454972 -0.12804869
-0.059297837 -0.06330879 -0.04310096 -0.070824035 -0.07766216 -0.06266904 0.015721241 -0.11464594
0.030822322 -0.08247122 -0.016525693 0.040600594 0.041293085 -0.08240192 0.10254739 0.13225313
-0.0897285 -0.049303204 -0.1030395 0.066257246 0.08284553 -0.01826611 -0.07194067 -0.036713094
-0.078770995 -0.046248846 0.08316804 -0.13721034 0.017145373 -0.027074866 -0.013664836 0.030736892
-0.17482953 0.06245883 -0.026428651 -0.16248211 0.09133586 -0.07801332 -0.031276852 -0.057214953
0.06786995 -0.14864849 0.09704162 -0.16033493 -0.07519108 0.034271438 0.108351015 -0.09023871
0.086815804 -0.0751745 0.048047964 -0.13505001 0.006452684 0.043552976 0.02689343 -0.06533495
0.043351054 -0.0029267757 -0.1135382 -0.010939294 0.049464364 -0.07744033 0.00045201377 0.023594867
-0.10570301 -0.06761467 -0.06589377 0.13549764 -0.15426664 -0.0037564095 0.11347408 0.083011515
0.08765469 0.066886045 -0.065487616 0.08211837 -0.05141962 0.020385863 -0.063707 0.024855083
-0.09949285 -0.08139328 -0.0712888 -0.06123398 0.011353223 0.020211337 -0.015352679 0.012047092
-0.09186795 -0.058447666 -0.16169924 -0.0010764471 -0.10752341 0.12242928 -0.039180703 -0.00015509152
-0.0013548369 -0.0565371 -0.12795462 -0.006775732 -0.12421413 0.06057439 0.11927034 -0.06899616
-0.024626585 -0.038386643 -0.078622706 -0.093354754 -0.086061105 -0.108266786 0.050313883 -0.018397644
0.054046188 -0.038270082 0.098422565 -0.080788225 0.0652482 -0.105654754 -0.064007 -0.0689274
-0.04110835 -0.081253655 -0.055974964 -0.13656335 -0.08307598 -0.112002365 0.010510813 0.117210604
-0.054819215 0.12140339 -0.07965412 0.04871651 0.105857015 -0.16517915 -0.12121287 -0.16008118
0.037989054 0.060501013 -0.018345226 -0.11551351 -0.11172813 -0.0010443885 -0.13290241 -0.098416634
0.005648928 -0.12271955 0.09836983 -0.061923746 -0.048173625 -0.008694989 0.14975077 0.087121464
0.060840104 0.10914321 0.015256723 -0.11755208 -0.08507063 0.024270803 -0.08208468 -0.082459055
0.017591046 0.085683085 0.009031236 -0.067441754 -0.050658014 0.00889336 0.014078016 0.023738852

layers1d.3.bias f4 [128]
00000000: 6ce6 273d c653 b33c 00ff a83c 94cd 7f3c
00000010: 31a4 ceba 8668 363d c8b9 e9bc 77d3 7bbc
00000020: 806a 8bbc 5108 0ebd 09bc 093d 9a3e c6bc
00000030: 6924 8a3c 0475 15bc e622 cd3c ccf1 b53c
00000040: 2967 633c 3d6d 05bc 0052 dfbc 4048 fbbc
00000050: d937 89bd dfe5 ccbb 92f0 dd3b d8e9 733c
00000060: 2fa0 da3c 8883 a7bc 0f66 d13c b319 bf3b
00000070: d48b c2ba d79c a13c eeb5 5bbd d623 7f3b
00000080: f884 6b3d d4b6 27bc aaee 873c 63fa e63b
00000090: 0c3b 903a 9022 b93c 5669 d4bb e75f 5cbc
000000a0: e773 093d ee51 943d a63a bebc 3284 9e3b
000000b0: 574c 5fbc 763a 633d 3490 73bc 5665 443a
000000c0: 2f5e 03bd f9da 44bb 9628 d93b 9d25 b03c
000000d0: 43e1 4cbd aea9 e73c bc8d 463c 048c 373c
000000e0: bdb8 a5b9 18db 94bb d6a1 b0bb b03a e53b
000000f0: 0ec5 00bc c17b 143c 121a 5e3c 7a66 083c
00000100: 6689 59bc 8b59 02bd 672e 4fbc b8d0 0d3c
00000110: e5f9 423c a1b0 073d d24b 1abd 6624 ebbb
00000120: 6b30 1bbc 9a38 0b3b 157f 573b 6df3 acbc
00000130: d475 e2bc 9974 4cbc 888b afbc 98ad 0e3c
00000140: 29c7 5f3d 690a 8dbc db5f 85bc da5c 2a3c
00000150: c626 8fbb 1f4d a4bc 8d0b 0cbd ec44 6ebc
00000160: 5c34 3abd 2bb2 76bc bff7 8bbb b2d5 2d3c
00000170: 9305 d73b c43a 803c f811 b63c e2c6 65bd
00000180: d16b 70bb 9159 91bb 61d5 433c e2c2 413d
00000190: 6a65 883c 7e0b 9fbb 6e97 46bd 464b 0cbd
000001a0: c2c9 0bbc f341 403d 49f7 f4bc eb4d b93c
000001b0: 5188 acbd 5a5f e03c 1daa 493d 143f d43a
000001c0: af1a e23c b323 9a3c acd1 ba3c 98ee 943c
000001d0: 13e3 b13c 3f25 2fbd 49e2 b4bc 302a c6bb
000001e0: 2f68 3d3d 55b7 89bc 6874 b5bc 5ee6 7b3b
000001f0: b658 06bd de6c c13c cbc7 fe3c 09d0 bfbc
0.04099123 0.021890532 0.020629406 0.0156129785 -0.0015765486 0.044533275 -0.02853097 -0.015370241
-0.017018557 -0.0346759 0.03362659 -0.024199773 0.016863065 -0.009122137 0.025041055 0.022210024
0.013879576 -0.00814372 -0.02726078 -0.0306741 -0.06700105 -0.0062529887 0.006773063 0.014887296
0.02668771 -0.020448461 0.02556136 0.005831921 -0.0014842697 0.019728107 -0.0536403 0.0038931272
0.057499856 -0.010236461 0.016593296 0.0070488914 0.0011003925 0.022599488 -0.0064822836 -0.013450599
0.0335578 0.07242189 -0.023221325 0.0048375363 -0.013629041 0.055475675 -0.014865924 0.0007491907
-0.032072242 -0.0030037744 0.0066271527 0.02150231 -0.050019514 0.028279152 0.012118753 0.011202816
-0.00031608893 -0.0045427196 -0.005390386 0.0069955215 -0.0078594815 0.009062708 0.01355602 0.008325214
-0.013277387 -0.031823676 -0.0126453405 0.008655719 0.0119004 0.03312743 -0.037669964 -0.00717597
-0.009471993 0.0021243454 0.0032882143 -0.021112168 -0.027644075 -0.012478971 -0.021428838 0.00870838
0.054633293 -0.017216878 -0.016281059 0.010398114 -0.004368636 -0.020056305 -0.034190703 -0.014542799
-0.04546009 -0.015057127 -0.004271477 0.010610031 0.006561944 0.015653022 0.022225365 -0.056097873
-0.0036685357 -0.004435726 0.011952729 0.047304995 0.01664992 -0.004853665 -0.04848426 -0.034251474
-0.0085319895 0.046937894 -0.029903071 0.022620162 -0.08424438 0.027389217 0.0492345 0.0016193115
0.027600614 0.01881585 0.022805057 0.018180177 0.021714723 -0.04276013 -0.022080557 -0.0060475096
0.046241935 -0.016811052 -0.022150233 0.003843687 -0.032799445 0.023611482 0.031101128 -0.023414629

combined.0.weight f4 [64, 128]
00000000: eb83 fcbd c897 a33d bb31 2bbd 7af6 f3bd
00000010: e85c 42be fa22 c8bc c0c9 48bd 5328 0f3d
00000020: ad46 60bd 772c 093d a12a 673d d0a8 66bd
00000030: c117 8d3c 72ed cebc 8dcf 613c 413b 9dbd
00000040: c5a1 21bd 81d7 9e3d a8e1 d2bd 0d79 98bd
00000050: 0ef5 4f3d 77f1 7f3d 2b21 643d 7041 0b3d
00000060: eabc dbbd 389d 063e 73c4 efbd 01ac 39be
00000070: 1e24 b0bd af4e 953d 786c 4d3d a206 ea3d
00000080: 1f5a 6abc ba01 fe3c 05fe 2cbd 6be0 25bc
00000090: a34c f8bb b5eb d23d 7a47 58bd e307 7b3c
000000a0: 9a47 343d edd9 463d a3ca 933d e442 d33d
000000b0: caa0 cd3d 1f4a 403c 0fff 963b 3070 1fbe
000000c0: 7f12 2d3c 3d40 1bbe c09d f5bb 0860 b1bc
000000d0: 4bdb 31bd 3a23 b53b 34f8 d2bd 6c92 bebd
000000e0: ef5f 96bd 6765 8dbc e0e9 f53a c8cb 8bbd
000000f0: b6da c1bd 276e 19be a951 0a3c dc7c d43c
00000100: 9e04 b7bd 110e a7bd 815b 063c 4d0c 023e
00000110: 1149 743d 20a6 fa3c 350f 33b7 b804 e33d
00000120: 8c83 e8bc 9117 29ba 9c37 b5ba be85 2dbe
00000130: d7f6 17be 56b8 abbd 2f71 1ebd 9c0f 8ebd
00000140: e91a 33bd 752c 99bc 05dd fe3c 9ade 5f3d
00000150: d86b 39bd e9af 93bc 225b 8a3c f83e c9bd
00000160: 7beb 883d ff0b 433d a9ec 8bbd fd60 90bd
00000170: be7e 80bc 2466 693d dbb3 553d 3c4c afbc
00000180: 1246 cbbd b96b 763d 32a2 523d b07f c8bc
00000190: 670b 26bd ede7 033d 5919 c9bc 0fa1 8dbd
000001a0: aeb6 a83d bd05 c4bd 4117 54bc e9ee 0f3d
000001b0: e620 983d 2449 a73d ded2 273d af78 eebc
000001c0: d6af 7ebd ad59 6abd fd02 e83d cae7 533d
000001d0: 35a2 eebd 0b20 d03c e5e6 d33c 3f13 573c
000001e0: f1bf 09be 47ce 9dbd c365 40bd 83d3 8fbc
000001f0: 8464 3c3c 9876 c0bd 03be bfbc 039e 8a3c
00000200: 1109 4ebd dac6 7a3c ab53 babd 50a1 993b
00000210: 5562 ffbd 0b1c dbbd e7f3 c9bd fe48 20bb
00000220: 8eab 77bd a223 a9bd 5302 50bd ac92 20bd
00000230: 0d84 1c3e 0a0a f9bd 9138 d2bd 1772 2b3c
00000240: d0c4 223b 9b41 89bd 1f56 3abc f55a a1bd
00000250: a9a0 f1bd d5b2 cf3d 4886 10bb 2dd7 653d
00000260: d1a3 e4bc 49a1 db3d 6fcc 13bc 70f1 f3bc
00000270: 0474 da3c 3d08 663d d8f9 c13d 4269 873b
00000280: 44dc 1ebc 1b19 10bc 2709 95bc 4f29 b5bd
00000290: d91d 203d 27c7 bbba 50a4 443d 79a2 94bc
000002a0: 65b8 513c 6ea6 883d 64e8 033e 72ec e03c
000002b0: 25d2 75bb 4539 333d 82f3 f33d 83ef d4bc
000002c0: 5e24 44bd d59e 1ebd 4469 c93d 65df a9bd
000002d0: 12d0 1c3d 3a3a 543d b56f 0ebd e306 e9bd
000002e0: 4ca6 41bd 4e03 2abd 16db efbd c630 18bd
000002f0: a3dd debc ed43 89bc f62c 2eba 9564 a93c
00000300: 3ca9 04bd 1c86 c7bd fe9b 99bc c964 e93c
00000310: d36e 8cbc c60b 9e3c 6a2f 14bd eec3 6d3d
00000320: 9168 ecbc 774c 0f3d 2178 723d 00f6 e2bc
00000330: a82d a13d af6f 37bd 05ab 7a3c 4afb bebc
00000340: 1597 a13c 68d4 9f3b 161c 09bd 10b4 06bd
00000350: b091 f1bd 6d9a 5bbd d86b 8f3c 942e 333c
00000360: 7029 e33d 41d9 20bc d6d3 30bd b30e eabc
00000370: 5462 74bd 2794 c4bc 3b50 81bd f9f7 9abc
00000380: f6c6 8a3d 1e5a a33d d2f3 423d c411 f3bc
00000390: e07d ce3d efb0 943b 676e 8bbd 6b9d 123d
000003a0: c710 45bd abe4 7bbc e441 d13c 5ddf 8b3c
000003b0: b5e5 093b 8ec2 ac3d 5037 a0bd a8cf d83d
000003c0: a6f9 dcbd 1157 913d 53e0 3f3d f565 9c3c
000003d0: 38c2 60bd bfd4 71bd 5ea6 1a3b 6d39 05bc
000003e0: 0593 0abb 2f8f babd 2fd9 78bd c33d a9bd
000003f0: e941 333d 4753 10be 00fd 09bb 8b26 eebc
-0.12329849 0.07987934 -0.041795474 -0.11912246 -0.18980753 -0.02443074 -0.04902053 0.034950566
-0.0547549 0.03348967 0.05643714 -0.056313336 0.01722324 -0.025259707 0.013782394 -0.076773174
-0.039460916 0.07755948 -0.10296947 -0.074449636 0.05077081 0.06248614 0.055695694 0.033997953
-0.10729392 0.13145912 -0.117073916 -0.1813202 -0.08600639 0.07290398 0.050152272 0.11427046
-0.014303713 0.031006683 -0.04223444 -0.010124306 -0.007577495 0.10298864 -0.05280254 0.015321705
0.044013597 0.048547674 0.07216384 0.10315493 0.10040434 0.011736422 0.004608042 -0.1557014
0.010563492 -0.15161224 -0.007495612 -0.021652237 -0.043422025 0.005527881 -0.10301247 -0.093052715
-0.07342517 -0.017260266 0.0018761717 -0.068259776 -0.09465544 -0.14983426 0.008442321 0.025938444
-0.089364275 -0.0815698 0.008200527 0.12700005 0.059639994 0.030596793 -1.0672772e-05 0.110848844
-0.028383039 -0.000645035 -0.0013825777 -0.1694555 -0.14840256 -0.08384769 -0.03868216 -0.06936571
-0.043726835 -0.018697957 0.03111125 0.05465565 -0.045268863 -0.018028216 0.016889159 -0.098264635
0.06685539 0.047618862 -0.06832249 -0.07049749 -0.015685435 0.056982175 0.052173477 -0.021398656
-0.09925474 0.060161326 0.051424213 -0.024474949 -0.040538218 0.032203604 -0.02454822 -0.06915485
0.082379684 -0.09571407 -0.012944997 0.03513995 0.0742815 0.08168247 0.040972583 -0.02911028
-0.06217941 -0.057214428 0.11328695 0.051734723 -0.11652032 0.025405904 0.025866935 0.013127147
-0.13452126 -0.0770536 -0.046972048 -0.017556911 0.011498574 -0.0939762 -0.023406034 0.016921049
-0.050301615 0.015306199 -0.0909799 0.0046884194 -0.12469927 -0.10698708 -0.09860974 -0.002445757
-0.06046634 -0.082587495 -0.050783467 -0.039202377 0.15284748 -0.12160118 -0.102646954 0.010464213
0.0024836548 -0.067019664 -0.011373072 -0.07878677 -0.117982216 0.101415314 -0.0022052694 0.05611341
-0.027910145 0.10724122 -0.009020909 -0.029778212 0.026666649 0.0561602 0.09471482 0.0041324208
-0.00969607 -0.008795048 -0.01819284 -0.088457696 0.039090965 -0.001432632 0.048008263 -0.01814388
0.012800311 0.06672369 0.12881619 0.027456496 -0.003750929 0.04375579 0.1191168 -0.025993114
-0.047886245 -0.038725693 0.09834531 -0.08294562 0.03828437 0.05181334 -0.0347745 -0.11378267
-0.047277734 -0.041507058 -0.11711709 -0.03715589 -0.027205294 -0.016756022 -0.0006644273 0.020677844
-0.032387957 -0.09742376 -0.01875114 0.02849044 -0.017142689 0.019292723 -0.03617803 0.05804818
-0.028858455 0.034985032 0.059196595 -0.027705193 0.07870036 -0.044784244 0.015299563 -0.023313183
0.019725362 0.0048776157 -0.03347405 -0.032886565 -0.11795366 -0.05361407 0.017507479 0.010936398
0.11091888 -0.009817422 -0.043170772 -0.028571462 -0.059664086 -0.023996426 -0.06314131 -0.01891707
0.0677623 0.07976173 0.047595806 -0.029671557 0.100826025 0.0045376937 -0.06808167 0.035794657
-0.048111703 -0.015374343 0.025544114 0.017074281 0.0021041457 0.08435546 -0.0782305 0.10586482
-0.10789804 0.07096685 0.04684479 0.019091586 -0.05487272 -0.05904078 0.0023597698 -0.008131367
-0.002114476 -0.09109341 -0.060753997 -0.08263733 0.04376403 -0.14094268 -0.002105534 -0.029071113

combined.0.bias f4 [64]
00000000: 60d3 24bc ea18 583d 2df5 f33c cb72 fbba
00000010: 3b0c 83bc a4d1 50bd 49d6 9b3c 5749 5bbd
00000020: 5c69 523c 8b6d 863c bd76 f43b ff3a df3c
00000030: 3126 043d c4f9 1ebb ab92 b9bc 4e9a 01bd
00000040: f878 24bb d58d b73c df4c 49bc b385 8f3b
00000050: d99a f33b 59bf 483c e492 4fbc edb2 9ebc
00000060: 5264 08bd 594b adbb ef4f c23b 7d9a 283c
00000070: 93f9 6a3b 03a9 013c 957e 75ba 1f1c 693d
00000080: 1c47 ff3c 0373 b2bc 5a62 293d 1b87 3abc
00000090: 8738 8a3b 9524 a5bc 21ee 1e3d aa1d 443c
000000a0: 880f 113d 87fc 5a3d 66ed eb3c 453e 243c
000000b0: b514 8e3b 24b0 1dbd 0851 05bd 56a8 003d
000000c0: ee27 f13c f664 593c 8ef1 67bc ff05 04bd
000000d0: 353f 813d 924b 213d b402 6f3d 0b72 2dbb
000000e0: a51f 3ebd 0f03 513d c23c 83b9 1b0d 173c
000000f0: dca2 05bc 48b3 16bd 3d6f 6b3c 00fb 583d
-0.010060161 0.052758135 0.029779995 -0.0019183991 -0.015997043 -0.05098118 0.019023078 -0.05353674
0.012842502 0.016409656 0.007460444 0.027249811 0.032262985 -0.0024257759 -0.022652945 -0.031641297
-0.0025096517 0.022406498 -0.012286394 0.004379952 0.0074342308 0.012252652 -0.012669299 -0.019372428
-0.033298798 -0.005288523 0.005929939 0.010290739 0.0035854324 0.007913831 -0.00093648705 0.056911584
0.031161837 -0.021783357 0.04135356 -0.011384751 0.0042181644 -0.020159045 0.038801316 0.011969963
0.035415202 0.053463485 0.028799724 0.010024612 0.0043359646 -0.03849806 -0.03254798 0.031410538
0.029437985 0.0132687 -0.014156712 -0.03223228 0.06310884 0.03937871 0.058352187 -0.002646568
-0.046416897 0.051028308 -0.00025031535 0.009219433 -0.0081565045 -0.03679207 0.014369783 0.052973747

combined.3.weight f4 [64, 64]
00000000: 6bd8 fa3d 33e5 a13d bd80 00bd 9eb0 59bc
00000010: 5fad 1ebe b707 fabc e57b febc 49cc 12be
00000020: b91e 893c 548f 91bd 271c 1dbd 7b52 a03d
00000030: 2ef7 823d 9fe1 013d 7d18 94bd 97f5 06be
00000040: d01c fb3d 3ed6 e8bc a56c 88bd c7c3 26bd
00000050: 427b 313c 5f3f 0cbe 6c32 28bd 2d7b ba3d
00000060: de59 71bd 354c 4fbb b0d0 d03c 63c5 e3bd
00000070: 66ac 3dbd bf59 bebc 1691 8c3d fa72 ff3c
00000080: e9cb 973b 5846 f9bc 5cdb 413d 9ab3 2abd
00000090: cfe3 b63d a935 d1bd 8921 813d 3d65 22bd
000000a0: 28d0 95bc 406d 85bc bd8b 3dbd 81f6 55bc
000000b0: e8ed 98bd 0fda 58bd ec60 b8bd 7389 493c
000000c0: 8dd0 ed3d 51a1 3bbd f6c0 79bc e53a bbbd
000000d0: 8d7b e1bc 4930 18be 5d9d db3c 98a6 19bd
000000e0: 8106 00be 211a 733d fd8f 7c3d 7272 8bbd
000000f0: 9827 cebc 467c a5bd 90ff 2fbd c38a 563d
00000100: 897a e6bd 7852 433c 04f8 553d d1e1 5d3d
00000110: 6884 a23d 2bf2 db3d af76 aebc 548b 163d
00000120: 0103 af3d ed38 293e 0060 463d 378c 2cbe
00000130: 2c8c 053c 4bfd d7bd c2f3 c8bc fadd fc3d
00000140: ce6f 60bd da24 fb3c ac5d bf3d 5874 d93c
00000150: 98bf 63bd e8a8 d3ba c936 48bd 87f7 00bd
00000160: 0cda afbc 69d2 3c3d 2551 38be f312 ff3d
00000170: 2cb0 71bd d8bc b1bd f00b 3cbd e67c 27bd
00000180: a0ad b3bb 5523 21bd bb93 c5bc a37f 34bd
00000190: 586d 5dbd 73a9 6e3c d10e febc 8c71 d2bd
000001a0: d5a2 3bbe 9003 5bbd 62cd 09bd a097 07bd
000001b0: 0bdd 173d 0392 f83d ebec f63d 6ed8 1fbe
000001c0: 93ac adbd c470 653d 59d4 3a3d 512f c93d
000001d0: d41e ddbd 16d3 893d 705a 4bbc b0ac 6b3d
000001e0: e06c 82bb 275e e0bd e99f b9bd 3f59 223d
000001f0: 50ea 5bbe e616 993d 3e60 cebd 8e9e 4c3c
00000200: b6f5 d83d be84 5fbd fbc1 09be dd5c 99bd
00000210: 0e25 3fbd ed6e 1cbd d781 1f3d b959 44be
00000220: 798a ebbd b952 1cbe b7c2 9dbd bf0e 7a3d
00000230: 495c ae3d 004c d23d a5b5 5dbd bf89 1abe
00000240: 17a3 b03d 7540 ffbd cfb2 62be 7c5a 93bd
00000250: 2c5a 8e3d d25a 98bc 4937 35bd 7580 76bd
00000260: d612 27be 098f 4dbc 70bf 563c 2fc6 48bc
00000270: fe68 e23d ea3c e93d b3a5 263d e3f3 fbbc
00000280: 4d04 cfbd 6e17 e83d 376a 603d cef6 68be
00000290: 87a2 c0bd 5e30 3dbd e75a 3e3d 3c69 ae3d
000002a0: 1d6d 203d 84a2 82bd 46d7 2abd 467b b43d
000002b0: 958e cd3c 8570 eebd b690 e6bd c5b5 cf3d
000002c0: 6346 4c3c d270 2ebe 0553 19be ef2a 59be
000002d0: f28b 70bb fe79 a13c 6f95 12bd 06bd d0bd
000002e0: 8384 5ebe 93f5 803d e286 1c3b a30b c2bd
000002f0: 5597 f63c b884 d1bd 2d9d 2c3d f80b 54bd
00000300: 0ddf 9f3d 8f33 e03d 63ed 10be 91af 44bd
00000310: 83a9 fdbd 68d6 54bd 84a6 143e eca9 81bd
00000320: 15c8 9dbd b288 19be 6fe7 e6bd 38a3 143e
00000330: b183 12bd df48 043d b2a3 d2bc ba18 623d
00000340: 2e4d dd3d 4703 70bc 429e 73be 5b09 bfbd
00000350: 9cdc ef3d 9cff 8abd 8a21 46be 6e8e 4bbd
00000360: 735d 09bd 105b 00be b82f b13d ac35 c0bc
00000370: 558b 163e 70c2 78bd e12a 01b9 7250 8c3d
00000380: 3f61 4d3d a6e1 08bd d887 3bbc d70d 7abd
00000390: bd56 a1bd 398f 25bd 4868 003e 4772 32bb
000003a0: 5ffa f93d 132e dc3c 8bba 8bbd 1be4 1fbc
000003b0: 2104 27be 7e66 02be 2557 fcbd 13c4 383e
000003c0: ed9e 1b3e 2724 46be d245 933c 6652 14be
000003d0: e4f9 a23c b8fc 9fbd 9513 c43d 36ab 63bd
000003e0: 8146 d73b bff1 693d a57b 76bd 6feb c23a
000003f0: a44b 0d3d 2e5a c53c 296b 5abd e5b2 9b3d
0.1224831 0.079050444 -0.031372774 -0.013286738 -0.15495823 -0.030521257 -0.031064937 -0.14335741
0.016738283 -0.07107416 -0.038356926 0.07828232 0.06394802 0.03170931 -0.07231233 -0.13179623
0.12261355 -0.028422471 -0.06661347 -0.04071405 0.01083261 -0.13696049 -0.04106371 0.09105525
-0.058923595 -0.0031631116 0.025490135 -0.11121633 -0.04630699 -0.023236154 0.068636104 0.031182755
0.0046324623 -0.03042905 0.047328338 -0.041675188 0.0893017 -0.10215313 0.063052244 -0.03964733
-0.018287733 -0.016287446 -0.046275843 -0.013059259 -0.07467252 -0.052942332 -0.090028614 0.012300837
0.116120435 -0.04580814 -0.015243759 -0.091420926 -0.027524734 -0.1486217 0.026808435 -0.03751239
-0.12502481 0.05935109 0.061660755 -0.06808938 -0.025165364 -0.08080344 -0.042968333 0.052378427
-0.112538405 0.011921518 0.05223848 0.054170433 0.07935411 0.10739549 -0.021296827 0.036753967
0.08545495 0.16525622 0.048431396 -0.16850363 0.008151095 -0.10546359 -0.024530295 0.12347026
-0.054794125 0.03065722 0.09344038 0.026544735 -0.05560264 -0.001614836 -0.048880372 -0.03148606
-0.021466278 0.0460991 -0.17999704 0.12454786 -0.0590059 -0.08678597 -0.045909822 -0.040890597
-0.005483344 -0.039340336 -0.024118295 -0.044067036 -0.054059356 0.014566767 -0.031012924 -0.102755636
-0.18323834 -0.053470194 -0.033643134 -0.033103585 0.037076037 0.121372245 0.12056907 -0.15609905
-0.084801815 0.056015745 0.045612667 0.09823478 -0.107968956 0.067297146 -0.012411699 0.057537735
-0.003980264 -0.10955458 -0.090637036 0.039635893 -0.21476102 0.07475071 -0.100769505 0.012488974
0.10593741 -0.054569952 -0.13452904 -0.074884154 -0.046666197 -0.038191725 0.038942184 -0.19174851
-0.11501021 -0.15265931 -0.077031545 0.06104922 0.08513696 0.10268402 -0.054128308 -0.15091608
0.08624857 -0.12463466 -0.22138523 -0.07194993 0.06950793 -0.018597994 -0.044242177 -0.0601811
-0.16315779 -0.012546309 0.013107166 -0.012254282 0.11055182 0.113885716 0.040685367 -0.030755943
-0.10108242 0.11332594 0.054788794 -0.22750399 -0.09406 -0.046188705 0.04647341 0.085161656
0.03916656 -0.06378654 -0.041709207 0.08812575 0.025092402 -0.11642555 -0.1125807 0.10142092
0.012467953 -0.17035225 -0.14973076 -0.21207784 -0.0036704508 0.01971149 -0.035787042 -0.10192303
-0.21730237 0.062968396 0.0023884107 -0.09474876 0.030101458 -0.10230392 0.042142082 -0.051769227
0.078062154 0.10947334 -0.14153056 -0.048018996 -0.123858474 -0.051962286 0.14516646 -0.06331238
-0.07704178 -0.14993551 -0.11274611 0.14515388 -0.035770122 0.032296058 -0.025712822 0.055199362
0.108057365 -0.014649219 -0.2379084 -0.09327956 0.11712 -0.06787035 -0.19348732 -0.04969638
-0.033536386 -0.12534738 0.0865168 -0.023463093 0.14701588 -0.060732305 -0.00012318372 0.06851281
0.05014157 -0.03341832 -0.011445962 -0.061048355 -0.07877872 -0.04041979 0.1253978 -0.002722876
0.122059576 0.026877439 -0.068226896 -0.009758974 -0.16310169 -0.1273441 -0.12321309 0.18043546
0.15197344 -0.19349729 0.017977629 -0.14484558 0.019894548 -0.07811874 0.095740475 -0.0555832
0.006569684 0.057115313 -0.06017651 0.001487119 0.034495965 0.024090853 -0.053324852 0.07602481

combined.3.bias f4 [64]
00000000: 45a8 de3d 36fd c23d 160e 9a3d 79e4 6e3d
00000010: d573 b33d 54b4 b83d 54d5 ce3d 9ca3 b5be
00000020: 2fbb b53d 669c c53d 943d 563d b5db 9cbe
00000030: 7d6d 8d3d 8041 433d 9f4b e33d 2fab 943d
00000040: c5ed 913d 63eb 853d 93cd d43d 6b81 b73d
00000050: 36db a5be 6135 b93d ae9d 923d 039d cb3d
00000060: 3e7b bd3d 7cde f53d 9c66 ae3d de20 973d
00000070: 3f3e 0c3e 0385 993d 4509 df3d 7cd0 923d
00000080: a94e 943d 5e82 1d3e e3d5 c33d 586e b33d
00000090: 9b0d 103e bffe a63d b381 de3d d04e 3b3d
000000a0: 0f82 c43d 395c 9e3d 8d0b e33d d0b5 e73d
000000b0: 1bc5 e33d 6841 963d cad5 6e3d 5176 ed3d
000000c0: 879f ca3d 0134 073e f28a 743d 95d3 cb3d
000000d0: 7160 fd3d f133 f03d 450c 893d ecca 923d
000000e0: 7fa8 2a3e 1b71 b13d 8bbf e73d 14b8 8b3d
000000f0: 0739 b33d 3708 d73d dbf7 de3d cb79 423d
0.108719386 0.095209524 0.07522218 0.058323357 0.087623276 0.0901877 0.10099283 -0.35476387
0.08873593 0.09648971 0.05230482 -0.30636373 0.06905649 0.047669888 0.11098408 0.07259213
0.07125429 0.06539037 0.10390773 0.089602314 -0.32393807 0.09043384 0.07158981 0.09942057
0.09252022 0.12005326 0.08515665 0.07379316 0.1369562 0.07496073 0.1089044 0.071686715
0.07241566 0.15381762 0.0956228 0.08761281 0.1406769 0.08154058 0.10864582 0.04572946
0.09595119 0.07732434 0.110861875 0.11313975 0.11121579 0.07336694 0.058309354 0.11594833
0.09893709 0.13203432 0.05970282 0.099524654 0.1237191 0.11728657 0.06691793 0.071676105
0.16665839 0.08664151 0.11315831 0.068222195 0.087511115 0.10499614 0.108871184 0.047479432

combined.6.weight f4 [1, 64]
00000000: 7675 4cbd d4f2 293d 3d59 79bd ff4a 3ebd
00000010: 5d1f 9f3d d178 92bd f363 2f3d 8576 1cbe
00000020: ff0a aa3d 087a 403d e998 e4bc 5f09 fdbd
00000030: dc3b 3cbd 63e0 2dbd 3b44 6cbd ea72 973d
00000040: 9183 5f3d b0f9 3fbd 92d1 633d 8a2c 8ebd
00000050: af67 86bd a962 ea3c 9d06 8abd 8c40 833d
00000060: 05bd 573d 06aa 8dbd 199c 27bd b2d1 653d
00000070: b41e 7e3d 3943 84bd 1c06 5b3d 348e aabd
00000080: f954 2b3d d572 f63c d470 50bd 0a40 6fbd
00000090: 0fae 1f3d 7914 9a3d 63fe 85bd f82c 953d
000000a0: c18b 503d 1c34 7dbd ccae 4dbd 2521 503d
000000b0: b092 2f3d 7752 06bd e328 79bd d7b8 52bd
000000c0: 90a8 b9bd 98d5 1b3d a0a2 833d 6f5e 4b3d
000000d0: 6864 103d b615 943d 4803 923d cb38 b93d
000000e0: b793 fe3c 3ee3 903d 2b0b 373d 01f0 50bd
000000f0: b258 613d e95a 263d 9a80 4fbd 286b 823d
-0.049916707 0.041491345 -0.06087612 -0.04645824 0.07769654 -0.0715195 0.04281993 -0.15279587
0.083028786 0.046991378 -0.027904944 -0.12355303 -0.045955524 -0.04245032 -0.057682257 0.07394965
0.05456883 -0.04686898 0.055619784 -0.06942089 -0.06562745 0.028611498 -0.06739543 0.06408796
0.052670497 -0.06917195 -0.04092035 0.056108184 0.062041 -0.06458134 0.053472623 -0.08327904
0.041829083 0.030084053 -0.05088885 -0.05841068 0.038984355 0.07523436 -0.06542661 0.07283968
0.05091453 -0.061817273 -0.050215527 0.05081286 0.0428645 -0.03279349 -0.06083001 -0.05144581
-0.09065354 0.038045496 0.06427503 0.049650606 0.035252005 0.072307035 0.07129532 0.090440355
0.031076295 0.07074593 0.044688385 -0.051010136 0.055016227 0.040614042 -0.050659753 0.06368095
