data/models/nov12_24_undersample/fold4_epoch_models/epoch_4_model.pt (torch, 775567 bytes, 9 tensors)

layers1d.0.weight f4 [128, 1280]
000000 30 4d 9f bd 7f 5d 6d 3c 36 5f 4b bd 62 88 c5 bc
       -0.07778394 0.014487623 -0.049651347 -0.024112884
000010 a5 05 59 3c 66 a3 45 3b 04 5d 12 3b 3a 91 a1 bb
       0.013245975 0.0030157208 0.0022333274 -0.0049306424
000020 5f ce 31 bd fc ab 28 3d ca 0a 95 3b 43 a1 2b bd
       -0.0434097 0.041179642 0.0045484053 -0.041901838
000030 32 02 01 bd c6 0b 9f 3b b6 a0 05 bc bf 6f c7 3c
       -0.031496234 0.0048536984 -0.008155992 0.024345277
000040 3b 00 40 bc b9 85 10 3b 4e 4e 3a bd 7d 01 c5 bc
       -0.011718805 0.0022052361 -0.045484833 -0.024048561
000050 dc b6 8f bd 1a 24 8e 3c 92 03 c8 3c 31 6c be bb
       -0.070172995 0.017351199 0.024415765 -0.0058112373
000060 a9 7b b9 bc e2 a5 50 bc 5f a7 26 3b 00 32 8d bd
       -0.022641974 -0.012734862 0.002542935 -0.06894302
000070 ef a6 82 bc 57 85 b5 3c 8c 50 fd bc dd ae aa bc
       -0.01594874 0.022158308 -0.030922197 -0.020835334
000080 a8 9b 81 bc d4 8f f3 bb 06 0c e2 bc cc 5a 8f 3c
       -0.015821293 -0.007432917 -0.027593624 0.01749935
000090 12 37 2e bc da 83 8d 3b b9 2b 0f 3d 1f 16 bc 3c
       -0.010633247 0.0043186964 0.034953807 0.022959767
0000a0 f7 97 ae 3b 17 e2 a6 3c f6 b8 87 bc b7 ab f8 bb
       0.005328174 0.02037148 -0.016567688 -0.0075888294
0000b0 f0 03 e7 3a bd 57 29 bd 86 c3 37 3d 2b 1f c1 bb
       0.0017625075 -0.04134344 0.0448642 -0.005893608
0000c0 ef ed c3 bc de e6 8a 3c d3 2f 7f bb f8 c9 8c 3c
       -0.023917167 0.01695579 -0.0038938418 0.01718615
0000d0 86 d0 d2 bc 54 62 f5 bc d9 5b bf ba 76 25 06 3c
       -0.025734197 -0.029954113 -0.0014599516 0.008187642
0000e0 58 5a 12 bb 3b c7 b8 3d dd 2e 59 3d fe 41 85 3c
       -0.002233168 0.09022375 0.053023208 0.01626682
0000f0 70 ff df b9 03 11 96 bc e0 fd 23 3c 05 03 ae 3c
       -0.0004272419 -0.018318659 0.010009259 0.021241674
000100 2c ac d6 3c f8 51 88 3d 7d 76 ff bc c9 29 42 3d
       0.026205145 0.06656259 -0.03118443 0.04740313
000110 15 cf a7 bc a8 84 6b 3c 6a 5f a5 3c c2 e7 05 3b
       -0.020484487 0.014374889 0.020187099 0.0020432328
000120 e3 37 08 3d d1 1c 83 bc 9f 75 8a bd 9c 3a 81 3d
       0.033256423 -0.016004952 -0.06760716 0.06310007
000130 e6 77 31 3d e2 d9 18 bd a6 57 6d 3d 96 33 c8 bc
       0.043327235 -0.037317164 0.057944916 -0.02443866
000140 71 51 af bd 8c 32 ab bc dd d9 c4 bc 56 a9 0f bc
       -0.085604556 -0.020898126 -0.024029667 -0.0087684
000150 91 c2 21 3c ef b1 86 bd 32 3d c9 3a 31 6f 11 3d
       0.009873048 -0.06576907 0.0015353321 0.03550643
000160 83 7e d8 bb 3a 04 0c bb 7b 1c 95 3c 5e 9d 52 bd
       -0.0066068782 -0.0021364824 0.018202057 -0.05141961
000170 db 7d 88 bc be 74 28 3d b3 15 f1 3c 27 b4 13 3d
       -0.016661575 0.04112696 0.029429292 0.03606048
000180 ad b9 ba 3c 9a 00 5c 3c 5f 86 04 bd d9 80 09 3d
       0.022793615 0.013427878 -0.03235471 0.033570144
000190 42 58 dc 3b 5e 6e 1d 3d 4f 89 1d 3d 6c 23 08 3b
       0.0067243883 0.038435332 0.038461026 0.0020773066
0001a0 45 4f 84 bc 0e 2c c0 bc 65 43 97 bd 65 60 02 3d
       -0.01615108 -0.023458507 -0.07385901 0.03183021
0001b0 ea 5b b9 bc 45 fe c6 3c a3 30 a8 3c 01 f2 ec bc
       -0.022626836 0.024291167 0.020531004 -0.02892399
0001c0 23 a0 df bb 1d 33 76 3d 05 9f 85 bd fe 78 21 bd
       -0.0068245097 0.06010734 -0.06524471 -0.039422028
0001d0 40 14 8e ba d0 7e 9b bc bb 4b a7 bd d6 fb 19 bd
       -0.0010839775 -0.018981367 -0.08168741 -0.037593685
0001e0 fe 20 39 3c df 27 a5 bc bd e2 9c 3a 9c f2 e4 bc
       0.01129937 -0.020160614 0.0011969429 -0.027947716
0001f0 45 68 04 bc 2a d0 2a 3d 4c b7 6e bb dc f7 2d bc
       -0.0080815 0.041702427 -0.0036425171 -0.010618176
000200 c8 94 9e bb 82 44 7f bc ef 31 05 bd ec 75 ba bb
       -0.0048395135 -0.015580298 -0.032518324 -0.005690327
000210 bb 6c 50 3d 76 36 8c bd 94 24 5c bd 6c 51 47 bd
       0.050884943 -0.06846325 -0.05374582 -0.048661634
000220 d8 e5 35 bc fe 82 e0 bc fd 02 3a bd 8b 3f 80 3d
       -0.011102162 -0.027406212 -0.045413006 0.0626212
000230 d8 11 fa ba 7f b7 09 bc 9e 6f 55 3c d5 4d 79 bc
       -0.0019078804 -0.008405565 0.0130271 -0.0152163105
000240 b9 24 c0 bc ff 0e db bc 93 2c 62 bd 1d 92 09 3d
       -0.02345501 -0.02674055 -0.05521829 0.03358661
000250 26 c1 83 3d 12 b3 ee 3c 32 a8 cb bb ce ef 1c bc
       0.064333245 0.029138122 -0.006215119 -0.009578658
000260 81 56 bf 3c bf 4e a8 3c 98 fc 0e 3b 89 8c 10 3b
       0.023356678 0.020545362 0.0021818038 0.0022056422
000270 93 e7 23 3c 0e 30 6d bc 08 f0 4e 3c 38 11 55 3c
       0.010003942 -0.014476789 0.01263047 0.013004594
000280 36 3b ca 3b ad 65 18 3c d7 3e 35 bb 50 74 19 3d
       0.0061716093 0.009301585 -0.0027655864 0.03746444
000290 88 5e e1 3b 04 71 bc bc 46 ee 6c 3c 23 58 7f ba
       0.006877724 -0.023003109 0.014461106 -0.00097406114
0002a0 3b 56 cf 3c 99 27 33 3d 7f f8 30 3c e9 30 58 bd
       0.025309673 0.043738935 0.010801434 -0.05278102
0002b0 e4 78 08 bd f3 33 c0 3b 2f 60 45 3c 82 52 e4 3c
       -0.033318415 0.005865568 0.012046858 0.027871374
0002c0 b9 ec 16 bd cb 7a 60 3c c5 a6 ec bc 7f 6a b7 3b
       -0.03684685 0.013701151 -0.028888116 0.005597412
0002d0 0a b5 c2 3b 27 da fc ba c1 50 9d bd 26 93 b3 3c
       0.0059419917 -0.0019291089 -0.07681418 0.021920752
0002e0 73 d1 4f 3b cb b3 8b 3b c4 f3 d2 3c 1f 02 03 bd
       0.0031710535 0.0042633764 0.025751002 -0.031984445
0002f0 90 fa fe bc d3 b0 aa 3d 0a 3e 2c 3d fb 41 2e bc
       -0.031125337 0.08334508 0.042051353 -0.010635848
000300 c9 d4 84 3d 45 d8 57 bd 92 73 fe bc 95 28 39 3d
       0.06485898 -0.052696485 -0.031060968 0.045204718
000310 42 19 30 bd 9c 45 f4 bd d9 2b d8 3c 5b 4b 03 3d
       -0.042992838 -0.119273394 0.026388096 0.032054286
000320 02 b6 08 3a 5c 26 bc bc ca 8b 41 3c f9 ad 64 3c
       0.00052151096 -0.02296751 0.0118131135 0.013957494
000330 60 0c 3e bd 40 14 85 3c ba d4 02 bd 4c 14 14 bd
       -0.04639852 0.016245008 -0.031941153 -0.03615217
000340 7b ec 3e 3d 43 28 03 bc 15 0f 19 bd 13 9b 8b bc
       0.046612244 -0.008005205 -0.0373679 -0.017041719
000350 b5 75 80 bc 0f 14 48 3c 95 61 f5 3b 77 37 9e bc
       -0.015681127 0.012211814 0.0074884393 -0.019313557
000360 0d 6a 7d 3d 85 c6 68 3d 5c 31 5f 3d f9 38 0c 3d
       0.061868716 0.056829948 0.054490432 0.03423402
000370 74 8b d5 bb 72 90 7f 3c 68 84 f1 3c 17 f2 ce ba
       -0.0065168682 0.015598403 0.029482082 -0.0015788701
000380 83 97 9b 3b 1e de fc 3c a1 78 68 38 27 8e c6 3c
       0.004748286 0.030867632 5.5425455e-05 0.024237705
000390 d4 a3 1d bb bb 67 66 bc 50 45 5e bd 6c d7 c3 3c
       -0.0024053948 -0.014062817 -0.05426532 0.023906432
0003a0 2b 7c 31 bd 6f c9 b8 3b 64 f6 ae bb 47 35 26 bd
       -0.043331306 0.005639247 -0.0053394306 -0.040578153
0003b0 38 b7 ad bd cb ee 46 bc 55 cb 8c bd d0 00 e5 bc
       -0.08482212 -0.012141894 -0.0687472 -0.027954489
0003c0 a2 ce fb 3b d1 82 95 bc e7 8d 9a 3c a8 51 e9 3c
       0.0076845447 -0.018250855 0.018866492 0.02848132
0003d0 3c 04 62 bd 8d ce 47 bb 47 90 77 3d 59 b8 13 3d
       -0.05517982 -0.0030488104 0.060440328 0.03606448
0003e0 30 d4 d6 bc 8d 26 66 3c b7 16 22 3d 6e 3a 15 bb
       -0.026224226 0.014047277 0.039572444 -0.0022770423
0003f0 be 94 c1 3c 9e f5 1a 3d e0 14 02 bd 4c 8d c1 bc
       0.023630496 0.037831895 -0.03175819 -0.023626946

layers1d.0.bias f4 [128]
000000 42 92 44 bd 51 ba 10 bd a6 3c 42 bc ca b6 a6 bb
       -0.047991045 -0.035333935 -0.01185528 -0.005087708
000010 d6 2d 39 bc bb c1 8b bc 0d 4d fb bc 6c dd 1f bd
       -0.011302432 -0.017060151 -0.03067639 -0.039029524
000020 b1 a2 a8 3a 53 7c b1 bc e7 56 91 bc d5 e7 2c ba
       0.0012865869 -0.021665728 -0.017741634 -0.0006595825
000030 f0 a4 91 b9 dc 43 a0 bc b7 44 85 bc 03 64 97 3b
       -0.00027779443 -0.019563608 -0.016268117 0.0046200766
000040 ed 8d b6 bc 02 5f 24 bc 0a 0e 97 bb 37 ae 3c bd
       -0.022284472 -0.010032417 -0.004609828 -0.04606458
000050 11 69 2a bd 3b 52 dd bc 8f 48 a4 bc 60 de cf bc
       -0.041604105 -0.02701675 -0.02005413 -0.025374591
000060 83 de 07 3c b5 2c a8 3a 7c 5d 66 bc 7a ed a5 bc
       0.008292797 0.0012830707 -0.014060374 -0.02025484
000070 70 85 aa bc d9 fa bc 3b 9f 08 59 bd 7c 76 de bc
       -0.020815581 0.005767208 -0.052986737 -0.027156107
000080 17 53 cd bc 57 8b db 3b 82 ea 76 bc 5d 3f 41 bc
       -0.025064034 0.00669996 -0.015070559 -0.011794892
000090 33 9d 5d bd f1 9f 10 bb 92 0c f6 bc d2 be fb bc
       -0.054104995 -0.0022067989 -0.03003529 -0.030730639
0000a0 fe f4 a9 ba f9 65 09 bd a2 9a 21 bd b5 04 a3 3a
       -0.001296669 -0.033544514 -0.03945411 0.0012437316
0000b0 a6 24 63 bd f4 62 5c bc 22 77 86 bc fd 66 bd bc
       -0.055454873 -0.013451327 -0.016414229 -0.023120398
0000c0 c7 68 29 bc 7f f7 11 bd a1 43 f3 bb 36 00 41 bc
       -0.010339922 -0.03563642 -0.0074238335 -0.011779835
0000d0 3e c6 d9 bb 58 61 e0 bc 30 70 06 bd dd 4c 18 bd
       -0.0066459468 -0.027390167 -0.032821834 -0.037182678
0000e0 fb 06 16 bc e9 78 0d bd bb 70 b2 bc 04 dc 05 3c
       -0.009156938 -0.034539137 -0.02178227 0.008170132
0000f0 f9 fa f0 bc 0b 96 db 3b 2a d3 97 bc de c1 0f bd
       -0.029416548 0.006701236 -0.018533308 -0.035096996
000100 05 da 28 bd ef ac 65 bc 43 ff c1 bc 2e 99 b9 bc
       -0.041223545 -0.014018281 -0.023681289 -0.02265605
000110 95 5f 39 bd 7f 7e a8 bc 70 db 0a bd 4e ec dc bc
       -0.04525717 -0.02056813 -0.03390068 -0.026968148
000120 af 28 31 bd 57 50 17 bd e8 c9 0b bd 70 58 e7 bc
       -0.04325169 -0.036941852 -0.0341281 -0.028240412
000130 d0 3b 8f bc c6 79 94 bc be 3b 66 bc 7e 6a db bc
       -0.017484576 -0.018124472 -0.01405233 -0.026784178
000140 33 f1 90 bc e2 7d f9 bc fe 89 b9 bc ec 2c 30 bd
       -0.017693138 -0.030455533 -0.022648808 -0.04301159
000150 d2 ed 1b bc ac 97 be 3a f5 b8 d2 ba 39 0a 8e bc
       -0.00951715 0.0014541051 -0.001607685 -0.017338859
000160 36 b1 14 bc a2 ee 89 bc bc 88 0e bd 3b ab 16 bd
       -0.0090754535 -0.016837422 -0.03479837 -0.03678439
000170 4d 95 2b bc 69 0c 61 bc 93 d3 37 bd 0f 19 a3 bc
       -0.010472608 -0.013735869 -0.044879507 -0.01990941
000180 40 ef 40 bd 4b 07 3f bd 20 92 0a bd 64 6a 2d bc
       -0.047103167 -0.046637814 -0.033830762 -0.0105844475
000190 d0 25 1f bd d1 b9 f6 bc 57 a2 c9 3b 01 97 01 bd
       -0.03885442 -0.030117901 0.0061533856 -0.03163815
0001a0 40 a4 1f 3c f0 40 35 bd 94 4c 80 3b 85 11 6d bc
       0.00974375 -0.044251382 0.003915379 -0.014469509
0001b0 3c f3 e2 bb 39 f1 b2 bb d0 59 8b bb aa b8 98 bb
       -0.0069259685 -0.005460885 -0.00425265 -0.0046606855
0001c0 1c 87 e6 bb 64 d5 13 bd 25 48 7d 3a be 18 7d bc
       -0.0070351493 -0.036092177 0.00096619345 -0.0154477935
0001d0 f8 8d 68 bc 04 48 0f 3c 79 3e 8a bc 92 93 ff bc
       -0.014194004 0.008745197 -0.016875492 -0.031198297
0001e0 bd 26 d1 bc 6c ae 1b bd 3d d8 07 bc f2 d7 72 bc
       -0.025531167 -0.03800814 -0.008291301 -0.014821993
0001f0 6f ca 26 bd 31 a2 16 3b 8e 91 f1 bc 27 0a a1 bc
       -0.0407204 0.0022984857 -0.029488351 -0.019658161

layers1d.3.weight f4 [128, 128]
000000 80 66 88 bd 75 9c 7d bd 2b 0e ad b9 f0 fe 24 3d
       -0.06660175 -0.061916787 -0.00033007687 0.04028219
000010 ec bc d6 bc 7d cd cf bb ca e8 03 bd 61 d4 20 3d
       -0.026213132 -0.006341635 -0.032204427 0.03926504
000020 de 45 17 bd a6 dd b9 3d 52 1b ea bc e3 96 17 bd
       -0.036931865 0.09075479 -0.02857748 -0.03700913
000030 f0 66 05 be 6e ac 99 bd 12 be 4e bc 03 be 21 bd
       -0.13027549 -0.075035915 -0.0126185585 -0.03948785
000040 6c ed b0 bd 3b 19 71 3c 34 e3 8e bd d2 0b 7e 3d
       -0.08639035 0.014715488 -0.06976929 0.06202299
000050 c6 9a ae 3a a8 ee 96 3d 9f 4e 9d 3d c0 a1 8f bb
       0.0013321273 0.07369739 0.076810114 -0.004383296
000060 02 2b 78 bd f8 8d ad bd e0 d7 45 3d 26 59 ef bc
       -0.06058789 -0.08474344 0.048301578 -0.029217314
000070 84 0b 64 3d 92 0c 84 3d a2 d1 9c bd a2 cd ef bd
       0.055675045 0.0644771 -0.07657172 -0.11709143
000080 e2 ba 8b bc d5 ec e4 bd 72 1d 28 3d 2d f8 f9 bc
       -0.017056886 -0.111779846 0.041043706 -0.030513847
000090 28 9e e3 3d 76 00 0f 3e ce a8 2c 3d c9 f4 37 bb
       0.1111415 0.1396502 0.042153172 -0.0028069487
0000a0 df 85 a1 bb a2 60 d4 3d f7 b5 71 3d 8d a8 f9 3b
       -0.0049292888 0.10369994 0.059011426 0.00761897
0000b0 a4 32 f8 3d 63 b3 c5 bd 16 ef 54 bd 94 87 3f 3b
       0.12119034 -0.09653356 -0.051985823 0.0029225098
0000c0 53 4a 61 bd 4a 55 27 3d be c1 95 bc 2b 61 a7 bd
       -0.05500252 0.040852822 -0.01828086 -0.0817283
0000d0 06 17 3b 3c 3a 5e 99 bd 32 bd 93 bc cb 9d ec bb
       0.011419063 -0.074886754 -0.018034551 -0.007220959
0000e0 5f cc 07 bd 77 9a 84 bd ec 85 17 3d 9d 8d 9a bd
       -0.033153888 -0.06474774 0.036992952 -0.07546542
0000f0 a2 a9 59 bd 9b db 83 3c e4 c7 a3 bd 0f 67 99 bc
       -0.05314029 0.016095927 -0.079971105 -0.0187259
000100 98 ad 2a 3d a6 c5 84 3d 41 cf e0 3d fb f4 0c 3e
       0.04166946 0.06483011 0.109770305 0.13765328
000110 48 b7 94 bc b4 8d 73 3d 6e 3b 20 bd 9d f8 53 bd
       -0.018153802 0.05946131 -0.039119177 -0.051750768
000120 f3 3f c1 3b e1 a8 e7 bd 98 70 0d bd cb 25 0a 3c
       0.005897516 -0.11311508 -0.034531206 0.008431862
000130 26 54 ca 3d 73 7c 3d bd 90 02 6e 3d e6 cf 73 3d
       0.09879331 -0.046261262 0.058107913 0.05952444
000140 9d 69 51 bd d6 31 24 3d 63 b0 d8 3d ff af 27 bd
       -0.05112611 0.04008659 0.10580518 -0.040939327
000150 31 b3 bd bc 5a b9 33 bd 5a f1 ca bc 15 c7 e8 bd
       -0.023156734 -0.043877937 -0.024773289 -0.11366097
000160 ca 0c b7 bd 93 96 89 bd 39 17 71 bd ac 8c 8a bd
       -0.08937986 -0.06718173 -0.058860037 -0.06765112
000170 7a db 8a bd 5e 14 14 bd d3 4f bc 3b 14 2e d5 bd
       -0.06780143 -0.036152236 0.0057468205 -0.10409179
000180 18 7f fc 3c 13 f2 8e bd 1c 26 05 3b 15 df 84 3d
       0.030822322 -0.06979766 0.0020316904 0.06487862
000190 d2 aa f3 3c 62 ee 5c bd e5 35 a2 3d 68 bb d4 3d
       0.02974454 -0.053938277 0.07920436 0.103873074
0001a0 f9 96 e6 bd 45 07 88 bc db 57 de bd c5 32 01 3d
       -0.112592645 -0.016605029 -0.10856601 0.03154256
0001b0 0b e1 50 3d a2 4e c7 bc a7 54 2a bd 33 5f 94 ba
       0.050995868 -0.024329487 -0.041584637 -0.0011319875
0001c0 88 82 c2 bd f3 70 c8 bc 47 54 b4 3d 87 d7 05 be
       -0.09497553 -0.02446792 0.08805137 -0.13070498
0001d0 f2 30 86 3c 03 1e 07 bd 7a fa 7a bc da c9 63 3d
       0.01638076 -0.032987606 -0.015318507 0.055612423
0001e0 39 d8 44 be f0 b0 01 3d 62 c3 3c 3b b9 62 28 be
       -0.19223107 0.03166288 0.002880298 -0.1644391
0001f0 cb bb a2 3d d6 17 c0 bd de 5b 51 bd f1 fb 7f bd
       0.07945975 -0.09379546 -0.051113002 -0.06249613
000200 0a 96 a2 3d 43 23 03 be d3 59 9d 3d 9d b6 14 be
       0.07938774 -0.1280642 0.07683148 -0.14522786
000210 ee 47 18 bd 50 d1 03 3d fb 46 ea 3d de 52 08 be
       -0.037177972 0.032182038 0.1143932 -0.13312861
000220 b3 a0 80 3d 9d 52 b5 bd 60 8d 23 3d 9b 28 c5 bd
       0.06280651 -0.08853648 0.039929748 -0.096268855
000230 00 48 3c 3c bd 31 9d 3c 84 fe c5 bb 2c 9e 59 bd
       0.0114917755 0.019188756 -0.0060423035 -0.05312936
000240 bc 5e f0 3c 55 6c ba bc 23 6f ab bd 08 c9 e9 b9
       0.029342048 -0.022756735 -0.08370807 -0.00044591003
000250 2c cb 3e 3d cf 51 2e bd fa 37 9a 3b 5a eb b8 3c
       0.04658048 -0.042558488 0.00470638 0.022573162
000260 ee 4f bb bd b8 d2 8b bd 5f f8 93 bd 84 2a 09 3e
       -0.09146105 -0.06827301 -0.072251074 0.13395125
000270 ef 96 e8 bd ff b8 f1 3b 49 4b e8 3d fd 4e 8a 3d
       -0.11356913 0.0073767896 0.113424845 0.06753347
000280 a4 b8 94 3d 88 3d 92 3d dd 1e 9e bd c5 01 fd 3c
       0.0726178 0.071406424 -0.077207305 0.030884633
000290 91 31 da bd 35 cd a4 3c e9 5c 8e bd 46 68 35 3c
       -0.10653985 0.020117382 -0.06951315 0.011072224
0002a0 a0 4a ce bd b4 9b dd bd 91 36 9d bd 81 2b c6 bc
       -0.10072827 -0.10820714 -0.07676423 -0.024190666
0002b0 c1 3c 96 3c 6a 86 72 bb 2d ae 66 bc 5d ed 23 3d
       0.018339517 -0.0037006387 -0.014079613 0.04002129
0002c0 0b ef c6 bd 59 02 d8 bc 32 56 f7 bd ee cc b0 3c
       -0.097135626 -0.026368307 -0.12076987 0.021582093
0002d0 7d 65 b0 bd 21 22 b3 3d 50 79 1a bd 31 3a b6 bb
       -0.08613107 0.08746744 -0.03771335 -0.005561136
0002e0 c6 83 e0 3c dc fe 83 bd 69 ce d0 bd 7a 5f 9f 3a
       0.027406584 -0.06445095 -0.101956196 0.0012159192
0002f0 02 35 ce bd 81 a7 77 3d 8f 27 c0 3d fe 15 67 bd
       -0.10068704 0.06046248 0.09382545 -0.056417458
000300 6f af e9 b9 f9 e7 72 bd ce 45 3b bd be 73 ac bd
       -0.0004457193 -0.059303258 -0.045720868 -0.084205136
000310 e7 2d b7 bd 06 c8 c5 bd 35 73 16 3d 98 3c 4c bd
       -0.08944302 -0.09657292 0.036730964 -0.049862474
000320 c9 3d 1e 3d c0 df 50 bd ed b0 9d 3d 44 e6 aa bd
       0.03863314 -0.050994635 0.076997615 -0.08344701
000330 67 5b 69 3d f6 2f 04 be 7a ce 46 bd be 39 7b bd
       0.056971934 -0.1290892 -0.048536755 -0.061334364
000340 d6 c9 91 bd ee 18 75 bd ba f7 3c bd 95 64 08 be
       -0.07118575 -0.059838228 -0.046134688 -0.13319619
000350 fb 83 b0 bd f2 be 7f bd fa bd 04 3d 27 ed d7 3d
       -0.08618923 -0.06243796 0.03240774 0.1054328
000360 45 5e 21 bd fd 4f 99 3d 41 c6 89 bd 75 5a ac 3c
       -0.039396543 0.0748596 -0.06727267 0.021039227
000370 34 4c de 3d ed 96 23 be ca 29 eb bd f3 fe fc bd
       0.10854378 -0.15975542 -0.1148258 -0.12353315
000380 69 9a 1b 3d e9 5a 65 3d 83 bf ad 39 81 d9 c4 bd
       0.037989054 0.0559949 0.0003313982 -0.09611798
000390 14 54 b1 bd c6 c6 a3 3c 92 8b db bd f1 2a a8 bd
       -0.08658615 0.019992243 -0.1071998 -0.082113154
0003a0 11 5b f8 3b 11 6c b4 bd 82 37 d8 3d 13 9a 5b bd
       0.0075792153 -0.088096745 0.10557462 -0.053613734
0003b0 1c 63 42 bd 20 1b 82 bd b0 ba f3 3d a4 4b cd 3d
       -0.0474578 -0.0635283 0.11900842 0.10024193
0003c0 aa 5f 1f 3d cb be c9 3d f4 09 1d 3d 01 e4 e2 bd
       0.03890959 0.09850844 0.03833957 -0.110786445
0003d0 0d 7c f7 bd 75 02 17 bc 58 24 81 bd 06 cc 96 bd
       -0.12084208 -0.009216894 -0.0630576 -0.07363133
0003e0 51 cc 4f b9 3f 7b aa 3d 41 c9 8a bb f4 0b 73 bd
       -0.00019817172 0.083242886 -0.004235417 -0.05933757
0003f0 77 29 cc bc 4f 5e 7a 3c 7c 47 eb 3c 83 d0 1f 3d
       -0.024922116 0.015281274 0.02872061 0.03901721

layers1d.3.bias f4 [128]
000000 72 d4 01 3d 5c 2a d3 3c d7 b5 c5 3c 7c 2a ba 3c
       0.031696744 0.025777034 0.02413456 0.022725336
000010 43 7d 8a 3c 75 0d 2f 3d ac 09 04 bd b1 72 8e bb
       0.016905433 0.042737443 -0.032235786 -0.0043471684
000020 d8 50 1f bd 09 69 12 bc 90 92 1c 3d 62 4f 05 bd
       -0.038895458 -0.008936175 0.03822571 -0.03254641
000030 dc 40 75 3c 04 cd 47 bb bc 01 02 3c b6 ff 40 3d
       0.014969077 -0.003048719 0.007934984 0.047118865
000040 a5 d1 97 bb e7 75 25 3c b2 3b 07 bd 57 a9 e0 bc
       -0.004633146 0.010098911 -0.033015914 -0.027424498
000050 2b ee 9d bd c3 f2 0e bc 96 a9 4c bb b2 84 e5 3c
       -0.077114426 -0.008724871 -0.003122901 0.028017376
000060 ed c8 1a 3d 1b fa 3c bd 76 0f 0e 3d 1a 6e 5a 3c
       0.037789274 -0.046136957 0.034682713 0.013331914
000070 6f 3e 31 bc a7 0e 41 3c d4 0e 93 bd e4 78 74 3c
       -0.010818108 0.011783279 -0.071805626 0.014921401
000080 d3 cf 83 3d 4e e2 41 bc 8d 21 8d ba 72 88 8f 3c
       0.06436124 -0.01183374 -0.0010767445 0.017521117
000090 8e 97 b4 3b 6d 72 aa 3c 36 ba a8 3b 35 34 04 bd
       0.005511231 0.020806516 0.005149151 -0.03227635
0000a0 af dd 60 3d 84 65 8b 3d 46 f3 05 bd f5 e0 97 3c
       0.054898914 0.06806472 -0.032702707 0.018539885
0000b0 7a c1 5f 39 66 eb 60 3d eb 64 29 bd e1 af 1e 3c
       0.00021339013 0.054911993 -0.04135601 0.0096854875
0000c0 5a d4 28 bd a1 af af bc 44 0d f9 3b f5 f7 80 bb
       -0.04121814 -0.021446051 0.0076004583 -0.003935809
0000d0 98 c5 6a bd ce 18 ea 3c 56 3d 70 3c 6a e2 0e bb
       -0.057317346 0.02857628 0.014663061 -0.0021802434
0000e0 d1 40 5c bc ee a3 4a bc 9f ed c7 bc 1b bd 0f 3d
       -0.013443188 -0.012368185 -0.024405299 0.035092454
0000f0 a5 e1 bd 3b 9e 8f bf 3b e7 35 19 3d 68 2f 64 3b
       0.005794721 0.005845978 0.03740492 0.0034818295
000100 60 21 ae bb 67 06 c6 bc 9d d2 aa bc 1f 3b 03 3c
       -0.005314037 -0.024172975 -0.020852381 0.008009701
000110 5b 1c b5 bc e5 f8 e5 3c 3c 49 4c bd fc 85 da bc
       -0.022108248 0.028072784 -0.04987453 -0.026675217
000120 6f 46 41 bc 6b 2b d7 bb 5c c1 b7 3b bc 58 1e bd
       -0.011796578 -0.006566455 0.005607767 -0.038658842
000130 62 19 2c bd a1 92 84 bc 05 b1 05 bd 94 42 0b 3d
       -0.042016394 -0.0161832 -0.032639522 0.03399904
000140 95 59 23 3d b2 57 50 3c 82 2b cf bc 2f bf 1b 3c
       0.039880354 0.012716221 -0.0252893 0.009506031
000150 c1 da a6 bc 99 93 22 bb d1 40 14 bd c6 e0 cc bc
       -0.020367982 -0.0024807213 -0.036194626 -0.025009524
000160 5c 23 2f bd fc 9d 85 bc b5 24 6a bc c7 03 46 3c
       -0.04275833 -0.016310684 -0.014290978 0.0120858615
000170 76 c5 91 3b d6 0d bd 3c 5a b4 43 3c bc 07 50 bd
       0.004448588 0.023077887 0.011944855 -0.050788626
000180 a1 41 00 3c f6 95 b7 bc d5 7c 22 3c 6f 85 57 3d
       0.007828147 -0.022410374 0.009917458 0.052617487
000190 af 76 80 3c 0e 43 26 bd 3b cf 83 bd 31 07 31 bd
       0.015681593 -0.040591292 -0.064360105 -0.04321975
0001a0 6e 4d 98 bc 95 4a 06 3d 30 2b c9 bc a8 4b c7 3c
       -0.018591609 0.03278597 -0.024556726 0.024328068
0001b0 f4 74 b8 bd a5 38 9e 3c aa 9b 71 3d 3d 2d be ba
       -0.09006682 0.01931412 0.058986343 -0.0014509332
0001c0 62 bc 59 3d 48 42 40 3d a5 5a 74 3c 01 2d 83 3c
       0.05315817 0.04693821 0.014914189 0.01601267
0001d0 d2 77 ba 3c f3 f2 5e bd ef 9d b5 bc 6b 5b fb bc
       0.022762213 -0.054430913 -0.022170035 -0.03068324
0001e0 8a 39 23 3d 1e 6e 12 bd 48 7c 51 bc 79 8d c8 bc
       0.039849795 -0.035749547 -0.012785979 -0.024481522
0001f0 a7 58 f6 bc a3 fa 8e 3c 4a 99 12 3d 06 a8 0c bd
       -0.03007157 0.017453497 0.03579072 -0.034339927

combined.0.weight f4 [64, 128]
000000 52 df 9e bd b2 b2 92 3d 50 23 1a bd 77 bf e1 bd
       -0.07757439 0.0716299 -0.037631333 -0.11022847
000010 5d 9d 11 be b8 82 05 3c 40 39 f3 bc 6a b4 db 3c
       -0.14220186 0.008148842 -0.029690385 0.026819427
000020 29 ba 82 bc 7c 93 9f 3c 4d 6a 36 3d 51 0f b8 bd
       -0.015957909 0.019479506 0.04453497 -0.089872964
000030 03 70 a0 ba 5c 17 8a bc 2c 7a 1a 3d bf 0b 65 bd
       -0.0012240413 -0.016856842 0.03771417 -0.055919405
000040 57 d5 16 bd f2 e2 91 3d c9 83 88 bd 5e 79 ad bd
       -0.03682455 0.071233645 -0.06665761 -0.084704146
000050 0d a2 a6 3c a3 d0 6d 3d eb 9c 8d 3d c1 08 ff 3c
       0.020340944 0.0580603 0.06914695 0.031132104
000060 3a ad 8c bd fe ca be 3d a9 24 08 be 61 d8 0d be
       -0.06868978 0.093160614 -0.13295235 -0.13852073
000070 10 7f 9b bd 10 0f 50 3d 6b 98 3a 3d b5 3f d9 3d
       -0.075925946 0.050795615 0.045555513 0.10607854
000080 61 a7 d4 3b 74 76 11 3d 16 ca 85 bd ae 4f 4e bc
       0.0064896797 0.035513356 -0.065326855 -0.012592239
000090 12 16 5f 3c 8c cb 90 3d 12 58 63 bd 2d 10 84 bc
       0.013616102 0.070700735 -0.055503912 -0.016120994
0000a0 9e 00 af 3c f5 44 83 3d 22 51 1e 3d 5d 11 cd 3d
       0.021362599 0.06409637 0.038651593 0.100130774
0000b0 73 99 da 3d e8 e2 e2 bb e2 44 39 bb 9d 36 11 be
       0.10673799 -0.006924022 -0.0028269817 -0.1418099
0000c0 f6 4f e4 3c 70 8c 16 be 7b 51 a8 bc f1 8c 47 3b
       0.02787016 -0.1470201 -0.020546665 0.0030448998
0000d0 60 0c 2e bd 2a f1 36 3d 0d ac ba bd ed 31 59 bd
       -0.04249227 0.044663586 -0.09114847 -0.05302613
0000e0 ec a0 6d bd ed 6a f6 3b 10 2b a8 bc 76 7d 81 bd
       -0.058014795 0.0075200708 -0.020528346 -0.06322758
0000f0 be 9e 70 bd 0c f7 09 be b7 a7 4d 3c f9 fc 59 3d
       -0.05874514 -0.13473147 0.012552193 0.05321977
000100 30 2e 90 bd b3 13 7d bd d5 78 47 3d c4 a3 c9 3d
       -0.070400596 -0.061786365 0.04869922 0.09845689
000110 f9 01 43 3d 69 8e 42 3d 82 76 10 3d 2a a1 bd 3d
       0.047609303 0.047499094 0.035269268 0.09259255
000120 94 ce 6d bd 1d 62 0a bd 20 79 e9 3b 28 52 07 be
       -0.058058336 -0.033784974 0.007125035 -0.13214934
000130 c4 85 13 be 10 91 87 bd 6e 07 ce bc 89 a9 84 bd
       -0.14406496 -0.06619465 -0.025150027 -0.06477649
000140 9a f9 72 bd 15 70 5a bd c5 06 13 3d 49 8c 8b 3d
       -0.05932007 -0.053329546 0.035895128 0.06813867
000150 09 b4 52 bd fc 43 40 bc ec ee 2d bc 2c 01 b6 bd
       -0.051441226 -0.011734959 -0.010616045 -0.08886942
000160 87 3a 21 3d 10 ae 80 3d 9e ed 96 bd ae 82 ad bc
       0.039362457 0.062832 -0.07369541 -0.021180477
000170 61 be 03 3d 12 07 8f 3d e4 5d ad 3d 69 40 0a 3d
       0.03216398 0.069837704 0.08465174 0.033752833
000180 5e 07 90 bd b7 1b 3b 3d 1a b3 2f 3d 76 68 25 bb
       -0.07032655 0.045680728 0.042895414 -0.0025239266
000190 58 02 41 bd 86 7d d9 3c 08 35 29 3d cb 41 4d bd
       -0.047121376 0.026549112 0.04131034 -0.050111573
0001a0 28 26 c2 3d 37 13 bd bd e7 b7 00 bd b1 fb 23 3d
       0.09479934 -0.092321806 -0.031425383 0.040034954
0001b0 cd 11 80 3d 90 79 bf 3d c8 5f 64 3d cc 64 52 bd
       0.06253395 0.09349358 0.055755407 -0.05136566
0001c0 6c 95 fb bc 45 59 77 bd e8 b5 e4 3d a3 4e 10 3d
       -0.030710898 -0.06038787 0.11167508 0.035231244
0001d0 87 77 c0 bd b8 89 95 3d 69 e0 f7 3b ee 87 7f 3b
       -0.09397798 0.073016584 0.0075645936 0.0038990933
0001e0 1a a0 ad bd 95 e4 34 bd 14 17 25 bd 65 64 6c 3a
       -0.084778026 -0.044163305 -0.040305212 0.00090176455
0001f0 b4 f9 00 bc de fb 73 bd 7e d5 26 3c 7e 3f 00 3c
       -0.007872034 -0.05956637 0.010182736 0.007827638
000200 35 b5 2c bd 1e ff a7 3b a4 4f 96 bd 79 4a 1d 3c
       -0.042165 0.005126848 -0.07339409 0.009600275
000210 98 8b d3 bd 22 cc e8 bd 3c 41 9c bd 7f 21 7b 3b
       -0.1032936 -0.1136706 -0.0762963 0.0038319526
000220 06 21 92 bd 62 93 a7 bd 96 ab da bc 5c cd aa bc
       -0.07135205 -0.08182408 -0.026693147 -0.020849876
000230 07 cf 2a 3e fc b2 d1 bd 61 e3 a1 bd d4 d7 df bb
       0.16680537 -0.10239217 -0.07904697 -0.0068311486
000240 7c 2b 0c bc 44 fd 67 bd 32 ce 84 3c b5 7b b0 bd
       -0.008555289 -0.056638017 0.016211603 -0.08617345
000250 5a f7 c0 bd c3 39 aa 3d aa c9 8f 3c 11 3b 2e 3d
       -0.094221786 0.083117984 0.017552216 0.0425368
000260 5c 00 4a bd bb f9 a6 3d 30 30 1c bb d2 99 e6 bc
       -0.04931675 0.08153101 -0.0023832433 -0.02814952
000270 ae 09 c1 3c 36 9b 82 3c 13 e4 94 3d 02 b2 a8 bb
       0.023564186 0.015943151 0.07270064 -0.0051481733
000280 c3 0b d6 3b d7 4e 52 bb 15 75 60 bd eb 99 ae bd
       0.006532164 -0.003209045 -0.054799158 -0.08525451
000290 31 02 a4 3c 65 5d ed bc f5 29 84 3c 46 e7 77 bc
       0.020020576 -0.028975198 0.016133288 -0.0151308235
0002a0 96 89 a4 3c 9c ee b8 3d 72 91 f0 3d 76 63 64 3d
       0.020085137 0.09029886 0.117464915 0.055758916
0002b0 3a a0 25 bc af d6 f4 3c f6 80 ee 3d fb 85 c1 3a
       -0.010109002 0.029887525 0.11645691 0.0014764661
0002c0 fd ee 95 bc 29 01 b1 bc 6d 30 e7 3d eb da 81 bd
       -0.018302435 -0.021606999 0.11288533 -0.063405834
0002d0 b8 9e 71 3d 22 0a 79 3d a3 b4 3a bd 2c e3 b2 bd
       0.058989257 0.06080068 -0.045582425 -0.08734736
0002e0 dd 0c 8a bc 90 4d f6 bc d2 ce ec bd e4 e2 49 bd
       -0.016851837 -0.030066282 -0.11562885 -0.049288645
0002f0 46 39 83 bc 20 fa 3b 3c 14 46 67 bc 11 6e 84 3d
       -0.016018521 0.011473209 -0.014115829 0.06466306
000300 01 0c 8e bc 51 10 ec bd c5 c8 44 bd 6f 7c eb 3c
       -0.017339708 -0.115265496 -0.04804303 0.028745858
000310 b3 93 1d bd 1a 4f a8 3c 3b 67 e3 bc d4 43 8b 3d
       -0.038470935 0.020545531 -0.027759185 0.068000466
000320 49 75 81 bd 37 55 4c 3d 41 90 ae 3d cf f2 f4 bc
       -0.063211985 0.049885955 0.08523608 -0.029900936
000330 77 3a c5 3d c2 58 e8 bc 25 17 8b 3c 0c a8 9c 3a
       0.09630292 -0.028362636 0.01697881 0.0011951937
000340 1a ef 0d 3d c8 bd fb 3c 8c 25 3f bd ba 20 9f bc
       0.034651853 0.030730143 -0.046666667 -0.019424785
000350 6f 0d c3 bd 1c de 4e bd 87 10 33 3d e5 b0 aa 3c
       -0.09524047 -0.05050479 0.043716934 0.020836303
000360 46 ae c6 3d 0e f7 b3 ba 8d f5 42 bd e3 08 9e bc
       0.09701209 -0.0013730244 -0.047597457 -0.019291347
000370 1f 41 7e bd 4c 10 a9 bc 56 6d 47 bd e3 d3 0d 3d
       -0.062073823 -0.020637654 -0.048688255 0.0346259
000380 2d 13 9d 3d 0d 24 b0 3d 82 23 3b 3d 40 13 14 bd
       0.07669673 0.08600626 0.04568816 -0.03615117
000390 85 4e b4 3d 4d b1 ff 3c 1b c8 24 bd 22 1b 75 3d
       0.08804039 0.031212473 -0.040229898 0.05984033
0003a0 57 df 34 bd 9c 45 d7 bc 6a 6c 1a 3c f6 84 61 3c
       -0.044158306 -0.02627831 0.009425262 0.0137646105
0003b0 58 48 87 3c f4 00 91 3d 94 f0 bc bd 6c 48 c9 3d
       0.016513988 0.0708026 -0.09225574 0.098282665
0003c0 ce e2 f0 bd de c6 35 3d 86 68 5e 3d d8 2a 05 3c
       -0.117620096 0.044379108 0.0542989 0.0081278905
0003d0 76 88 60 bd c5 4a 4d bd 75 c6 9b 3b 46 79 6a 3c
       -0.05481764 -0.050120134 0.0047538825 0.01431114
0003e0 34 f5 4c bc 80 27 b7 bd 65 fa 38 bd bf 60 98 bd
       -0.012509633 -0.08943081 -0.04516067 -0.07440328
0003f0 46 36 23 3d 4f 66 02 be 43 6b 64 3c 35 75 55 3b
       0.03984668 -0.1273434 0.013941589 0.0032571082

combined.0.bias f4 [64]
000000 23 8b 94 bb 59 18 3f 3d a6 24 98 3c 86 07 39 ba
       -0.004533188 0.04665408 0.018572163 -0.0007058311
000010 24 2a 95 bc 77 26 28 bd 68 60 5c bc 18 18 a2 bd
       -0.01820857 -0.041052308 -0.013450719 -0.07914752
000020 b5 0d d4 3c 8b 53 0f 3d 95 35 8a 3c e3 47 2d 3d
       0.025885442 0.034991782 0.016871253 0.042304885
000030 60 1e f0 3c 58 5d 3b 3c e7 a7 d0 bc ff fa 0f bd
       0.029311359 0.011435829 -0.025470687 -0.035151478
000040 44 2b 1d bc ee 83 14 3d b8 aa f8 bc 71 ad 47 3c
       -0.009592835 0.03625863 -0.030354843 0.012187348
000050 c3 78 84 3c 6a d3 0c 3d 36 ac b1 bb 20 a5 a9 bc
       0.016170865 0.034381308 -0.0054221405 -0.02070862
000060 b2 30 00 bd 2b 1a d2 bc 96 43 b9 3c 4b 27 8f 3c
       -0.03129644 -0.025647243 0.022615235 0.017474791
000070 e4 72 ec 3b 2a 24 32 bb e3 95 fa bc d7 4b 82 3d
       0.0072158445 -0.00271822 -0.03058905 0.063621216
000080 40 84 68 3d 87 4b b1 bc 9b a0 57 3d 8a 53 90 bc
       0.05676675 -0.02164246 0.0526434 -0.01761796
000090 b3 e2 e0 39 a8 19 8c bc ce 55 87 3c 80 ff 03 3c
       0.00042893513 -0.017102078 0.016520407 0.008056521
0000a0 7e ba 2a 3d 74 14 55 3d e3 6b e7 3c d7 ad 28 3d
       0.04168176 0.05202146 0.028249687 0.04118141
0000b0 ca f3 a0 3c 90 62 1e bd 56 fb f6 bc 28 f3 05 3d
       0.019647498 -0.038668215 -0.030149143 0.032702595
0000c0 28 a4 9f 3b 9b 71 4a 3c 36 44 aa bb 3f 22 c8 bc
       0.004871864 0.012356187 -0.0051961197 -0.024430392
0000d0 ad ef 93 3d 9c a7 21 3d 2f 9d 94 3d 01 88 c0 3c
       0.07223449 0.039466485 0.07256543 0.023502352
0000e0 6e c9 62 bd 60 d0 04 3d 3c d8 55 bc ae e2 1a 3d
       -0.05536788 0.032425284 -0.013052043 0.037813835
0000f0 1f 09 a6 bc f7 55 11 bd 41 ad 97 3c 5d 93 5f 3d
       -0.020268021 -0.035482373 0.018515231 0.054583896

combined.3.weight f4 [64, 64]
000000 99 15 f3 3d 85 56 a2 3d 41 bd 99 bc ee 1f b2 bc
       0.11869354 0.079266585 -0.018767001 -0.02174374
000010 f5 e5 21 be 6c 79 1d bd 54 35 b9 bc 19 86 a8 bd
       -0.15810378 -0.038445875 -0.022608437 -0.08228702
000020 fe 73 f5 3c 0a 57 92 bd d6 5c 39 bd 3b 88 be 3d
       0.029962536 -0.07145508 -0.04525455 0.09303328
000030 71 79 99 3d f8 c5 aa 3c 6e 17 5d bd 2b cf ee bd
       0.07493866 0.020846352 -0.053977422 -0.11660608
000040 4e 29 de 3d f5 2e 98 bc 39 a0 93 bd cd e9 1d bd
       0.10847722 -0.018577078 -0.072082944 -0.038553048
000050 93 01 7b bc 14 3f 11 be e7 a4 eb bc 65 e5 a8 3d
       -0.0153202 -0.14184219 -0.028765155 0.082468785
000060 ba 62 3c bd 85 76 c6 bc f3 f5 84 3c 3f 3b d1 bd
       -0.04599259 -0.024226436 0.016230559 -0.102163784
000070 4e a7 52 bd 15 4e 94 bc b1 13 83 3d a7 fe 1a 3d
       -0.051429085 -0.018103639 0.0640024 0.03784051
000080 6d 9c 13 bc 83 14 9d bc a4 d0 58 3d a5 8e 15 bd
       -0.009009463 -0.01917482 0.05293335 -0.03651299
000090 d2 f1 d6 3d 99 23 87 bd 5d a2 99 3d 3b 9c 18 bd
       0.10495342 -0.065985866 0.075016715 -0.037258368
0000a0 71 b3 12 bd c4 53 a9 bc 21 de 7d bd 2b 13 53 bc
       -0.03581566 -0.020669825 -0.061979417 -0.012882988
0000b0 d7 7c 92 bd 1f c4 c7 bc b6 63 9c bd ff 62 96 3b
       -0.071527176 -0.02438551 -0.07636206 0.004589438
0000c0 d8 8b 00 3e 96 06 05 bd 31 6b 2d 3b 4b 33 8d bd
       0.12553346 -0.032476984 0.0026461596 -0.06894549
0000d0 5e a4 0a bd 02 01 f6 bd 0f 7b e4 3c 7b 5a 2b bd
       -0.03384816 -0.12011911 0.02789071 -0.041834336
0000e0 9d c9 f1 bd 69 92 88 3d f1 3b 8a 3d bd 42 8b bd
       -0.11806033 0.066685505 0.06749714 -0.06799839
0000f0 8d 39 4b bd 66 32 87 bd b2 67 05 bd c7 8f 50 3d
       -0.04961543 -0.066014096 -0.032569595 0.050918367
000100 64 07 b0 bd 9d ca 0e 3d d1 07 2d 3d 33 96 41 3d
       -0.0859516 0.034861196 0.042243782 0.04726238
000110 e0 35 9f 3d c2 66 c1 3d 54 66 a6 bc 46 ed fc 3c
       0.07773948 0.094434276 -0.020312466 0.03087486
000120 43 d9 a4 3d df dc 2f 3e 79 2d 3e 3d 90 ac 37 be
       0.08049252 0.171741 0.046430085 -0.17936921
000130 b7 3e 85 3a f5 3f b7 bd ef 9d f5 bc 86 67 08 3e
       0.0010165785 -0.08947746 -0.029982535 0.13320741
000140 6e ca 0b bd 14 38 e5 3c 29 bd 8d 3d ea 4e 5a 3d
       -0.0341286 0.027980842 0.06920845 0.053297915
000150 e4 8b 8e bc 16 5a 3c bb 7b 4a 4a bd 88 74 26 bd
       -0.01740069 -0.002874022 -0.049387436 -0.040638477
000160 7b 9a a1 bc dd df 3d 3d ca 1e 26 be b0 61 fa 3d
       -0.019726982 0.04635607 -0.16222683 0.12225664
000170 93 a0 59 bd 72 2f 81 bd e0 b6 12 bc b7 96 34 bd
       -0.05313165 -0.063078776 -0.008954734 -0.044089045
000180 3e 0b 33 bd 66 7a da bc e1 f2 1d bc f5 71 f0 bc
       -0.043711893 -0.026669692 -0.009640426 -0.029351214
000190 10 8c 40 bc 89 48 3b bb b8 b9 a3 bc b0 e1 89 bd
       -0.0117521435 -0.002857717 -0.019986019 -0.067324996
0001a0 19 f6 43 be 0e 9e 83 bd 24 e1 35 bd 54 ed bc bb
       -0.19136848 -0.06426631 -0.044404164 -0.0057655964
0001b0 56 49 a0 3c 29 89 0f 3e 85 55 07 3e 13 ab 12 be
       0.01956622 0.14017166 0.13216217 -0.14323072
0001c0 95 52 51 bd 23 60 60 3d ff 05 3b 3d fb 3e c3 3d
       -0.051104147 0.054779183 0.045660015 0.09533497
0001d0 60 e9 15 be c3 b7 ab 3d 3e ae ec bb 3f 50 92 3d
       -0.14639807 0.08384659 -0.0072229197 0.07144212
0001e0 cb d7 2a 3c d9 b0 d8 bd f1 d8 7a bd 32 8b 2d 3d
       0.010427426 -0.10580606 -0.061242048 0.042369075
0001f0 9e 97 47 be 89 fe 85 3d 10 f3 93 bd b4 b9 2d 3c
       -0.19491431 0.06542689 -0.07224095 0.010603357
000200 f6 d5 cb 3d 99 81 8c bd a5 23 da bd 15 f9 81 bd
       0.09952919 -0.06860656 -0.1065133 -0.06346337
000210 46 a8 51 bc 03 02 3d bd b4 92 51 3d d4 5d fc bd
       -0.012796467 -0.046144497 0.051165298 -0.12322584
000220 b7 4a 90 bd 52 87 2c be 94 de 83 bd 5f 05 92 3d
       -0.07045501 -0.16848496 -0.06438938 0.07129931
000230 a2 87 d9 3d fe 8c d5 3d ea 67 8a bc 32 c7 e2 bd
       0.10621573 0.10427283 -0.016895253 -0.1107315
000240 3c 1a ad 3d f5 b1 b9 bd 1a 87 36 be c1 91 59 bd
       0.084522694 -0.09067146 -0.17824975 -0.053117517
000250 78 bc 61 3d d1 3c 40 3c 90 3c 0b bd 99 5a bd bd
       0.05511138 0.01173325 -0.033993304 -0.09245796
000260 f4 0c 03 be 46 fa c1 3c a9 9e 70 3b ed 26 28 3b
       -0.1279791 0.02367891 0.0036715663 0.0025657967
000270 c8 62 d2 3d 2a fe bc 3d 26 c6 4e 3d c2 db 28 bd
       0.10272747 0.092281654 0.050481938 -0.041225202
000280 a3 09 ef bd f2 86 b7 3d a5 c8 78 3d 93 2e 3d be
       -0.1167176 0.08961286 0.060738225 -0.18474798
000290 db 8c d3 bd df c3 56 3b 82 14 07 3d 16 16 aa 3d
       -0.103296004 0.0032770557 0.032978542 0.08304994
0002a0 e7 0d 29 3c c6 27 96 bd ce be 83 bd 94 68 c3 3d
       0.010318256 -0.07331805 -0.064328775 0.09541431
0002b0 83 21 f2 3c 3e 03 b9 bd 17 53 b1 bd 5c 2c b6 3d
       0.029556995 -0.090338215 -0.08658426 0.0889518
0002c0 36 80 d1 bb 50 db f2 bd 62 14 f0 bd 5d fa 43 be
       -0.0063934578 -0.11858237 -0.11722638 -0.19138475
0002d0 30 5b 9e bb d4 07 43 3d 46 06 34 bd a2 1a b8 bd
       -0.0048326477 0.047614887 -0.043951295 -0.08989455
0002e0 ac 79 28 be cb 95 93 3d 88 28 59 3b bc 4c aa bd
       -0.16452664 0.07206305 0.003313573 -0.08315417
0002f0 95 0b 90 3c e7 51 a8 bd 9b a4 60 3d e6 d2 90 bd
       0.017583648 -0.08218747 0.05484448 -0.07071476
000300 af ac 99 3d 5d f9 d0 3d 99 8f c5 bd a0 6e 8d bd
       0.0750364 0.10203812 -0.0964653 -0.06905866
000310 49 0e 88 bd e2 61 3b bd c8 9c 15 3e 59 f6 18 bd
       -0.0664335 -0.045747645 0.14610589 -0.03734431
000320 ca 03 8a bd ff 10 1f be 32 61 ef bd d5 65 18 3e
       -0.06739004 -0.15533827 -0.116884604 0.14882596
000330 d6 5f ce bc 71 7d 9e 3c ee de be bc 18 c6 90 3d
       -0.025192183 0.019346924 -0.02329966 0.070690334
000340 a6 a7 04 3e 8b 1c 89 bc e1 49 57 be a2 23 e9 bd
       0.12954578 -0.016737243 -0.21024276 -0.113837495
000350 06 b8 cc 3d de 7a 54 bd 42 a9 15 be 41 93 97 bd
       0.09996037 -0.051874988 -0.14615348 -0.07401133
000360 5c d9 13 bd 44 de b8 bd 89 c4 88 3d 51 ab 00 3b
       -0.036095962 -0.09026769 0.06678111 0.0019633363
000370 3c fb 1b 3e ed 55 85 bd cc ad d0 39 a2 a1 af 3d
       0.15232557 -0.0651053 0.0003980234 0.08575751
000380 87 61 19 3d 7e 09 03 bd f4 6e e5 bc bb 17 2e bd
       0.037446525 -0.031991474 -0.028007008 -0.0425031
000390 7b 6e c7 bd d4 ea 00 bd b0 f5 d6 3d ec ac 82 bc
       -0.09737869 -0.03147395 0.1049608 -0.015951596
0003a0 54 02 00 3e 90 42 18 3d 7a b4 a7 bd 4b b2 69 bb
       0.12500888 0.037172854 -0.0818872 -0.003565925
0003b0 68 5e 30 be ab fb 04 be f9 d2 f4 bd b8 56 29 3e
       -0.17223513 -0.12986629 -0.11954302 0.16536987
0003c0 ad 67 09 3e 96 06 17 be 29 ff 05 3d ff 0f 0a be
       0.13418455 -0.14748606 0.032714043 -0.13482665
0003d0 fd 47 3e 3c 7a 25 43 bd 8e 99 bb 3d 70 eb 9a bd
       0.011613843 -0.047643162 0.091601476 -0.075644374
0003e0 d5 6e ee ba 8c 90 4a 3d ad 23 83 bd 2d 31 a6 3b
       -0.001819099 0.049454257 -0.06403289 0.00507178
0003f0 dc 93 90 3c da ca 28 3d 93 ae 8d bd 52 18 9d 3d
       0.01764863 0.04120908 -0.06918063 0.07670654

combined.3.bias f4 [64]
000000 ae 28 ec 3d 16 62 84 3d d1 c5 a8 3d 51 11 f3 3c
       0.115311965 0.06464021 0.082408555 0.029671343
000010 b2 53 48 3d cf 9c 8b 3d 4e ba 8f 3d e3 4b 99 be
       0.048907943 0.06817018 0.07017957 -0.2994071
000020 5e b8 ba 3d ee 37 9f 3d a3 1c e3 3c 9e 5f 84 be
       0.091171965 0.077743396 0.027723616 -0.258542
000030 a9 ca b9 3c 1a 26 65 ba 5d fb ca 3d 03 76 3f 3d
       0.022679644 -0.00087413343 0.09911225 0.046743404
000040 30 f7 54 3d 32 a0 af 3c 56 d9 da 3d 40 0c b7 3d
       0.05199355 0.021438692 0.10685985 0.089378834
000050 a8 8d 81 be b9 95 50 3d 4c f5 6e 3d c1 36 d9 3d
       -0.25303388 0.050924037 0.058339402 0.106061466
000060 19 26 96 3d ef 93 f3 3d eb d0 54 3d 6a df 4d 3d
       0.07331485 0.118934505 0.051957052 0.050261892
000070 d1 ba 0b 3e 64 fa 5e 3d d4 db c6 3d 9a 82 5f 3d
       0.13645484 0.05443801 0.09709898 0.05456791
000080 3f b4 5e 3d e0 43 10 3e 1c 41 8f 3d 60 f6 97 3d
       0.054371115 0.14088392 0.069948405 0.07420039
000090 4f 37 f2 3d bd 4d 59 3d 0c cc d6 3d 2d 8e 89 3c
       0.118269555 0.053052653 0.104881376 0.016791428
0000a0 25 c0 b6 3d 7f 36 65 3d 71 93 c1 3d a9 f2 f9 3d
       0.089233674 0.055960175 0.0945195 0.12204487
0000b0 4d 17 c4 3d 35 04 2c 3d 9c 5e 1c 3d 30 21 eb 3d
       0.09574757 0.0419962 0.038176164 0.114809394
0000c0 cc 3a 8e 3d 30 de e1 3d 65 ac 0a 3d 46 ed a0 3d
       0.06944808 0.11028707 0.033855814 0.07857756
0000d0 7f 93 01 3e 58 47 ad 3d 39 2f 2d 3d d8 bf 5a 3d
       0.12653922 0.08460873 0.042281363 0.053405613
0000e0 7d 8d 1a 3e d8 b0 99 3d 0b d0 bd 3d 0f 33 27 3d
       0.15093036 0.075044334 0.09268197 0.040820178
0000f0 77 f0 af 3d b0 06 b0 3d 38 dc f6 3d 3b 12 87 3c
       0.08590787 0.085950255 0.12053722 0.016488185

combined.6.weight f4 [1, 64]
000000 ac f9 7e bd c5 2a 25 3d b0 b2 8e bd bc da 26 bd
       -0.062249824 0.04032399 -0.06967676 -0.040735945
000010 c7 2d 8f 3d 46 f9 99 bd 5d 0c 28 3d 50 bb e2 bd
       0.06991153 -0.07518248 0.041027416 -0.11070883
000020 9e 7f a8 3d cd 7e 4e 3d c0 73 10 bd 12 22 b4 bd
       0.08227466 0.050413895 -0.035266638 -0.08795561
000030 df 2f 38 bd 2e ce e6 bc f3 e2 85 bd 12 a3 af 3d
       -0.04496753 -0.028174486 -0.06537428 0.08576025
000040 06 9c 86 3d 16 01 37 bd 28 29 91 3d d5 99 94 bd
       0.06572728 -0.04467877 0.07087928 -0.07255904
000050 99 10 2d bd d1 d8 1e 3d 80 59 98 bd 6c a5 b4 3d
       -0.042252157 0.03878099 -0.07438946 0.08820614
000060 59 99 27 3d 60 12 8d bd a8 1f 4b bd a6 8c 3a 3d
       0.040917728 -0.068882704 -0.049590737 0.04554429
000070 8a 29 98 3d 4b c2 8c bd 3a 85 3c 3d df 38 cf bd
       0.07429798 -0.06872996 0.046025492 -0.10118269
000080 78 75 4b 3d 3d af db 3c 17 79 47 bd 79 4f 87 bd
       0.049672574 0.026816959 -0.048699465 -0.06606955
000090 6e a5 e7 3c c5 0c a7 3d db 06 9d bd 0d 2d bd 3d
       0.028277125 0.081567325 -0.07667323 0.092371084
0000a0 37 e7 49 3d 1e d6 66 bd dd b4 80 bd 50 0a 69 3d
       0.04929277 -0.05635654 -0.06284497 0.0568946
0000b0 c9 5c 3d 3d 16 e8 28 bd 8c 36 83 bd ae 80 43 bd
       0.046231065 -0.04123696 -0.06406888 -0.04773014
0000c0 1c 94 b2 bd 8d 90 03 3d b0 de a3 3d c9 5d 38 3d
       -0.08719656 0.032120276 0.08001459 0.045011315
0000d0 50 5e 15 3d d2 be 64 3d d5 fa b0 3d 24 7e c5 3d
       0.036466897 0.055846043 0.086415924 0.096432
0000e0 11 c6 06 3d 7b aa 95 3d 7b a6 4c 3d 16 bf 49 bd
       0.032903735 0.07307907 0.049963456 -0.0492545
0000f0 b0 2c 67 3d e3 08 0d 3d 98 12 7a bd 0e 3c a6 3d
       0.0564391 0.034432303 -0.06105289 0.08116923
