data/models/nov12_24_undersample/fold4_epoch_models/epoch_13_model.pt (torch, 775579 bytes, 9 tensors)

layers1d.0.weight f4 [128, 1280]
000000 5d 16 f5 bd 9a 15 00 3d 55 de 15 bc 85 68 bc bd
       -0.11967156 0.0312706 -0.009147246 -0.09199623
000010 bb 9f 53 3d f4 ad 5e bb 1f cc 21 3c ff 5f f8 bc
       0.051666003 -0.0033978196 0.009875326 -0.030319212
000020 37 7f 40 bd 39 f0 d2 bc 91 df 0f bd 87 fa 9d bd
       -0.04699632 -0.025749313 -0.03512532 -0.077138
000030 f4 82 5d 3d 4c f8 00 3e c6 fa 5b 3d 5b 59 e1 3d
       0.054079965 0.12594718 0.053705953 0.11003371
000040 8a d8 28 bd ee 42 dc bc f6 45 a3 bc 6d a3 bc bd
       -0.041222133 -0.026887383 -0.01993082 -0.092108585
000050 f1 dc be bd 5d 07 60 bb c1 fb 5b bd cd 48 6a 3d
       -0.09319485 -0.0034184076 -0.053706888 0.057198334
000060 12 a7 02 3c 3b 51 e0 bc b7 45 10 bd 6e 45 e1 bd
       0.007974403 -0.027382484 -0.035222735 -0.10999571
000070 85 94 45 bd bc e3 56 ba 2a a7 11 3d 80 42 3a bd
       -0.048237342 -0.0008197387 0.03555981 -0.045473576
000080 6d 31 94 bb 18 d7 80 3b 45 fa fd bc 00 e4 36 3d
       -0.0045224936 0.003931891 -0.031003127 0.04465103
000090 0f dd 91 bd 3c 27 87 bd 8c ca 87 bc c3 1f db 3d
       -0.07122242 -0.0659928 -0.016576074 0.106994174
0000a0 e4 17 cf 3b dd 2a b5 bd a7 6a 35 bd fd c3 19 bd
       0.0063199867 -0.08846066 -0.044291165 -0.037540425
0000b0 19 44 3e bd 6e 3d a8 bd 02 46 35 3c f5 2f 42 3c
       -0.04645166 -0.08214842 0.011064054 0.011852254
0000c0 91 d9 e5 bd 41 cc 2d bc 29 07 90 bd cc 84 90 3d
       -0.11223138 -0.01060778 -0.07032616 0.07056579
0000d0 67 9f fc bc e6 b6 18 bd df b6 d6 3b 0f b4 55 bc
       -0.030837728 -0.0372838 0.0065525617 -0.013043418
0000e0 16 62 21 3d 05 06 a7 3d ab 5c 80 3d 75 66 4d bd
       0.039400183 0.08155445 0.06267675 -0.05014654
0000f0 95 9d e7 3c 1f af 4c 3d fc 7e 26 bd 82 01 f9 3c
       0.028273383 0.049971696 -0.040648445 0.030396227
000100 7e 7f d5 bc d9 ad d3 3d f6 95 06 bd c8 29 49 3d
       -0.02606177 0.10335893 -0.032857858 0.04911211
000110 30 42 cf bd 9d cb 7c bd 17 e2 cd bb 89 d2 73 bd
       -0.10120046 -0.06171762 -0.0062830555 -0.059526954
000120 69 f0 e4 3d fe dd e3 bb 52 1f 9b bd 63 0b 18 3e
       0.11178667 -0.0069539538 -0.07574333 0.14848094
000130 37 de b1 3d c7 b1 7b bd fb d0 8b 3d 15 e7 8c bd
       0.08684962 -0.06144884 0.06826969 -0.06880013
000140 73 b9 00 be a7 f8 08 bd 75 68 b2 bc 8d 2f cf bc
       -0.12570743 -0.03344026 -0.021778325 -0.025291229
000150 73 cb 92 3d 4b 14 13 bd b2 50 57 3d 17 ab c5 3d
       0.07167711 -0.035908025 0.05256719 0.096517734
000160 e5 77 f6 bb 18 4b c9 bb 01 6c 22 3d 6d fc 97 3c
       -0.0075216168 -0.006142985 0.03965378 0.018552983
000170 af a0 80 3b 68 7c 18 3d 88 37 47 3d 8e 91 74 bc
       0.003925405 0.037228018 0.048636943 -0.014927281
000180 28 13 b5 3d 59 45 37 3d de 16 8f bd d7 d0 8a 3d
       0.088415444 0.04474387 -0.069867834 0.06778114
000190 a0 e8 75 bd 3e c9 15 3d f0 40 65 3d c7 10 9a 3c
       -0.0600363 0.036568873 0.055970132 0.018806828
0001a0 ee 8e 33 bc 2c 60 b5 bd b7 67 9e bd 87 dd d8 bb
       -0.01095937 -0.08856234 -0.07734626 -0.006618205
0001b0 ae 2f 8f bd 78 56 12 3d 5a 27 e4 3d 01 1c 2f 3d
       -0.06991516 0.035726994 0.11140318 0.042751316
0001c0 e0 0f 86 3c a2 15 c9 3d 20 4d 07 be bb f8 48 bd
       0.016364992 0.09818579 -0.13213015 -0.049065333
0001d0 c5 fa 02 bd 44 66 f5 38 57 08 7a bd 37 ae 5b bd
       -0.031977434 0.00011701559 -0.06104311 -0.05363294
0001e0 0e d1 4f 3d 46 78 c5 bd 68 b8 01 bd 82 b0 8d bc
       0.05073648 -0.09642081 -0.031670004 -0.01729608
0001f0 d3 88 27 3d 4b f5 89 3c 2c 8d a0 bc 32 55 98 bd
       0.04090197 0.016840598 -0.019598566 -0.07438125
000200 4b 33 eb bc a4 d4 86 bc 87 56 93 bd 78 47 b0 bd
       -0.028710982 -0.016458817 -0.07194238 -0.086073816
000210 8c a5 a8 3c 12 09 c0 bd f6 e1 7b bc 33 57 bb bd
       0.020586751 -0.0937673 -0.0153736975 -0.09147491
000220 90 cd 05 bd 74 ef a6 bb 76 08 b7 bd 09 a2 5e 3d
       -0.032666743 -0.005094463 -0.08937161 0.054353748
000230 09 ff 07 3b 83 b9 27 bd 39 e3 e1 3b f5 0f 10 bc
       0.0020751378 -0.040948402 0.006893542 -0.008792867
000240 18 ac 0e 3d 3f d2 65 bd 52 58 0a be d6 7d a8 3c
       0.03483209 -0.05610871 -0.13510254 0.020567816
000250 f0 01 fd 3d 16 46 41 3d 04 8a 8b bd 70 3f 66 bc
       0.12353885 0.04718598 -0.06813434 -0.014053211
000260 ba cf 4f 3d da 2b 87 3d 56 c5 6b bd b0 81 02 bd
       0.050735213 0.06600161 -0.05756124 -0.03186196
000270 d0 cf d3 bc 52 65 b0 bc cf f9 d8 3d ca 32 e9 3b
       -0.025855929 -0.021532688 0.10594522 0.00711665
000280 78 ae ec bc 22 af ed bc c3 69 17 bb fb ba 02 3d
       -0.028891787 -0.029014174 -0.002310381 0.0319166
000290 9a a4 80 bb a2 e5 94 bc 09 d1 97 bc ae 10 a8 ba
       -0.003925872 -0.018175904 -0.018532293 -0.0012822354
0002a0 be 08 6e 3b e1 52 08 3e 1f 89 a1 3c f5 28 0c bc
       0.0036321129 0.13312866 0.019718705 -0.008554687
0002b0 1d 8d de bd 31 28 ba 3d 1d 1d 31 3d 9e ef 3e 3c
       -0.10866759 0.09089697 0.043240655 0.011653809
0002c0 40 0a 89 3c ab db 67 3d ea 82 ae 3b c9 96 85 3d
       0.01672852 0.056605976 0.0053256648 0.065229006
0002d0 dd 47 84 3c 0e c9 27 3c 3a b5 cf bd a6 6d ac 3c
       0.016147548 0.010240806 -0.10141988 0.021048378
0002e0 55 11 88 bd c0 c9 2c bd 51 bb 38 3d e3 cd d2 bc
       -0.06643931 -0.04218459 0.045100514 -0.02573294
0002f0 9c 32 84 bd b5 0b b6 3d e8 b5 97 3d 7c 9b 6b 3b
       -0.064549655 0.08888952 0.07407743 0.003595083
000300 a8 72 03 3e ea 54 8c bd 96 03 69 b9 93 b6 b5 3c
       0.12836707 -0.068521336 -0.00022221947 0.022181785
000310 8d 10 37 bd 06 39 4e be 07 6f c5 3d df b4 22 3c
       -0.04469352 -0.2013894 0.096403174 0.009930818
000320 f1 37 36 3d 01 0f 45 bd 0a 0f fa 3c 29 61 52 3d
       0.044486944 -0.048110012 0.03052475 0.05136219
000330 7b 2e a2 bd d7 50 19 bc 3c 69 11 bc 33 d9 35 bd
       -0.07919022 -0.009357653 -0.0088751875 -0.04439659
000340 64 2e d3 bc 75 05 40 bb 6e ba 81 bd 01 6d 5a 3d
       -0.025778957 -0.0029300128 -0.06334387 0.05332661
000350 c2 6f 75 bd 27 b8 18 bd 21 93 53 3d 9f dc 34 3d
       -0.059921034 -0.037284996 0.051653985 0.044155713
000360 1f 9f 99 3d 6b b1 cf 3c c5 3e e3 3c 21 67 b3 3d
       0.07501053 0.025353154 0.027739892 0.08759905
000370 5c 95 b1 3c db b8 b2 3c 00 9f a7 3d 16 7d 07 bc
       0.021677665 0.021816662 0.08184624 -0.008269569
000380 84 f2 3d 3d 1c c0 76 3d 1e bb c7 3c bb 40 37 3d
       0.04637386 0.060241804 0.024381217 0.044739466
000390 10 a5 83 3c ca 97 d9 bc 87 2e e6 bd bf 57 23 bd
       0.016069919 -0.026561636 -0.11239343 -0.039878603
0003a0 75 40 b4 bc 83 bc d5 39 1d bf b2 3c 04 ae 48 bd
       -0.022003392 0.00040766978 0.021819646 -0.04899408
0003b0 57 70 0d be 92 6d f9 bd 39 13 b4 bd b3 60 4b bc
       -0.13812385 -0.12179102 -0.08792729 -0.012413192
0003c0 c0 8f 88 3c d8 e3 85 bd 1c 2c 23 3e 12 74 de 3b
       0.016670108 -0.06537598 0.15934795 0.006788739
0003d0 a6 dc 64 bd 48 1c cc bc 9e 30 16 3e 03 a7 b4 3c
       -0.05587449 -0.02491583 0.14666983 0.022052294
0003e0 ae 0f 8f bd 85 91 7f 3c 2c f5 bb 3c be 87 73 3c
       -0.069854125 0.015598659 0.022944055 0.014863906
0003f0 09 b3 b0 3c 99 7a 13 3a 73 56 0e bd 5f 33 c3 bd
       0.021569746 0.00056258735 -0.034750413 -0.09531283

layers1d.0.bias f4 [128]
000000 d4 92 86 bd fc 7b 68 bd 1e 5a 03 bd 9f eb db bc
       -0.06570974 -0.056758866 -0.032068364 -0.026845751
000010 74 4d 04 bd f1 af fe bc cb 8f 37 bd 9f e5 8f bd
       -0.032300428 -0.031089755 -0.044814866 -0.070262186
000020 e9 0f a8 bc a6 ea 09 bd 96 4e 2a bd cf 2a 98 bc
       -0.020515399 -0.033671044 -0.04157885 -0.0185751
000030 9f 59 7c bc 54 5a 93 bc d1 20 dc bc ba 53 06 bd
       -0.015402227 -0.017987408 -0.026871117 -0.03279469
000040 8b d4 f7 bc b0 0d 2a bc 85 be b6 bc b1 74 80 bd
       -0.030252716 -0.01037924 -0.022307644 -0.06272257
000050 aa b6 74 bd cb f1 43 bd 6b be 1d bd cc 12 1c bd
       -0.059744515 -0.047838014 -0.038511675 -0.038103864
000060 6d 99 53 ba bd c1 93 bc ad c9 2a bd 58 39 22 bd
       -0.00080718735 -0.018036718 -0.04169624 -0.03960547
000070 7e 39 4a bd ad fd 25 bc 77 46 97 bd d9 61 26 bd
       -0.049371235 -0.010131282 -0.07386487 -0.04062066
000080 0f fa 24 bd d3 aa 10 bc 41 a0 3f bd b5 d5 d7 bc
       -0.040277537 -0.00882979 -0.04678369 -0.02634702
000090 6e 07 af bd 06 13 a6 bc 4c e7 55 bd e0 0a 3f bd
       -0.08546339 -0.020272743 -0.052222535 -0.04664123
0000a0 00 03 8c bc 87 52 83 bd 15 14 7d bd a5 30 b2 bc
       -0.017091274 -0.06412225 -0.06178673 -0.021751711
0000b0 7a cc b9 bd 00 67 d0 bc ad 38 f0 bc 8e 73 42 bd
       -0.09072204 -0.02543974 -0.0293239 -0.047473483
0000c0 dd f3 96 bc 78 56 6e bd b9 7d 0d bd 9a 50 c5 bc
       -0.01842683 -0.05818793 -0.034543727 -0.024086285
0000d0 60 3b 2c bd 46 7b 3a bd 81 80 45 bd 33 e9 55 bd
       -0.042048812 -0.04552772 -0.048218254 -0.05222435
0000e0 22 27 01 bd 7c 9b 38 bd d4 c6 85 bd d4 66 82 ba
       -0.03153146 -0.045070156 -0.06532064 -0.0009948858
0000f0 a5 b6 4b bd 81 e8 d6 bb 04 ca 0b bd da 47 6b bd
       -0.04973473 -0.0065584783 -0.034128204 -0.05744157
000100 09 83 87 bd 69 76 09 bd a5 6f 59 bd 18 d1 5b bd
       -0.0661679 -0.03356019 -0.05308499 -0.053666204
000110 4f 17 8d bd 02 98 54 bd 58 aa 5c bd 33 95 30 bd
       -0.068892114 -0.05190278 -0.05387339 -0.043111037
000120 9a c9 89 bd e6 23 11 bd c1 6f 1e bd e2 48 36 bd
       -0.067279056 -0.035434626 -0.038680796 -0.0445031
000130 89 68 44 bd 2b 22 12 bd 03 90 41 bd 9c 89 4b bd
       -0.047951255 -0.035677116 -0.04725648 -0.04969178
000140 bb 0f e8 bc 14 4c 7f bd b6 79 5f bd 12 a5 5d bd
       -0.028327813 -0.062328413 -0.054559432 -0.0541125
000150 b9 1f 27 bd b0 c2 d8 bc 85 33 f8 bc 37 c8 01 bd
       -0.040801737 -0.026460022 -0.030298004 -0.03168508
000160 29 c0 bd bc aa 7f 55 bd 00 b8 69 bd e7 11 77 bd
       -0.023162918 -0.052123703 -0.05706024 -0.060319807
000170 d8 52 d6 bc c3 a2 2d bd 63 d8 91 bd db ea 29 bd
       -0.02616255 -0.04239155 -0.071213506 -0.04148374
000180 40 ef 40 bd f8 9f 7a bd b1 02 50 bd 7e f6 f6 bc
       -0.047103167 -0.061187714 -0.050783817 -0.030146834
000190 e4 30 66 bd 63 cc 1c bd 64 0c 89 bc 99 56 84 bd
       -0.05619897 -0.038280856 -0.016729541 -0.0646183
0001a0 57 53 5c bc 85 26 34 bd 5d 67 46 bc cd a2 21 bd
       -0.013447604 -0.043982048 -0.012109605 -0.0394619
0001b0 17 ec dd bc f3 8c 02 bd 3d b3 a6 bc 65 54 93 bc
       -0.027090115 -0.0318727 -0.02034914 -0.017984578
0001c0 0e 33 87 bc ff 1b 55 bd 4f 2c a6 bc 2c a2 ef bb
       -0.016503837 -0.052028652 -0.0202848 -0.0073130336
0001d0 a4 d3 34 bd ef 3e f2 39 7d d3 d9 bc 39 2f 5a bd
       -0.04414715 0.00046204726 -0.026590103 -0.05326769
0001e0 90 70 26 bd 69 d6 13 bd ba 27 a6 bc c8 b4 e9 bc
       -0.04063469 -0.03609315 -0.020282615 -0.028528586
0001f0 71 8e 92 bd e5 9b 92 bc 46 2d 43 bd ec 9e 13 bd
       -0.07156075 -0.017896602 -0.047650598 -0.03604023

layers1d.3.weight f4 [128, 128]
000000 c8 16 85 3d 0d 1a f1 ba da d4 51 bd 39 65 ad 3d
       0.06498486 -0.0018394605 -0.05122838 0.08466572
000010 e1 22 05 3d 6b ac 1f bd d2 ae b0 bd 1e 98 aa 3d
       0.032503966 -0.03898279 -0.08627094 0.08329795
000020 e4 39 ea bd 8a 19 a3 3d f1 c9 bc bd cd 02 83 3c
       -0.11436823 0.079638556 -0.09218205 0.015992546
000030 63 c1 07 be 7e eb a0 bd 14 cd db bd dd 3a 73 3c
       -0.13257365 -0.078574166 -0.10732475 0.014845577
000040 2b 2e 00 bd ef 74 6c bd b3 52 1c bb 41 10 0a 3e
       -0.03129403 -0.057728704 -0.0023853004 0.13482763
000050 67 e7 18 bc 24 f8 4a 3d 2e c9 e8 3d 1f a5 9e bd
       -0.009332514 0.04955305 0.11366497 -0.07746338
000060 f2 30 94 bd fa 49 fd bd 9e 74 cb 3c b7 bc da bc
       -0.07235898 -0.123676255 0.02483588 -0.026701314
000070 d5 7f a1 3d 16 6c 20 3d 87 d8 2a be cd 7a f7 bd
       0.0788571 0.03916558 -0.16684161 -0.12083969
000080 6d a5 35 bd 04 d5 db bd c8 72 8a 3d 7a 3c 3e bd
       -0.044347215 -0.10733989 0.06760174 -0.046444394
000090 c0 9c 0f 3e 3e 06 4e 3e d7 82 67 3d 51 2d 84 bd
       0.14024639 0.20119569 0.056521263 -0.06453956
0000a0 45 4e fb bc 5d f0 c5 3d be 3e bf 3d 5f 3c c2 3c
       -0.03067697 0.09664986 0.09338139 0.023710428
0000b0 0f 52 50 3e e9 e4 26 be 27 c3 8c bd e4 b0 bb 3d
       0.20343803 -0.1629826 -0.0687316 0.091645986
0000c0 3e da 8d 3d 09 6a a9 b9 cd 39 5a 3c 56 56 df bc
       0.06926392 -0.00032313194 0.013319445 -0.027262848
0000d0 46 12 5b 3d 1f 3c 01 be 16 4f 8d bd 83 fa 85 bd
       0.053484224 -0.1262059 -0.0689985 -0.06541922
0000e0 ce c0 b6 bd b9 b5 be bd ac bd 8b 3d 67 7f 78 bd
       -0.08923493 -0.093120046 0.068232864 -0.060668375
0000f0 d7 fc 6b bd 5d 40 1e bd 2b 0d 90 bd 21 25 f5 3c
       -0.057614174 -0.0386356 -0.070337616 0.029924931
000100 c8 ff a7 3d 66 16 7c 3d 51 ed cc 3d 06 29 14 3e
       0.08203083 0.0615448 0.10006202 0.14468774
000110 50 49 2d bc df 25 cf 3d ab 3c 6a bd a1 20 a0 bd
       -0.010576561 0.10114645 -0.057186764 -0.078187235
000120 d4 6f b0 bd 00 50 15 be 98 70 0d bd 0b 3e d6 bb
       -0.086150795 -0.14581299 -0.034531206 -0.006538158
000130 1d 7b 8d 3d 6f 17 5a bd 2f b4 6a 3d 13 e8 14 3e
       0.069082476 -0.053245004 0.057300743 0.14541654
000140 c5 e9 5d bd 61 6a be 3d 08 d2 a9 3d 53 78 63 bc
       -0.054178018 0.09297634 0.082920134 -0.013883668
000150 bf eb cc 3a 84 d4 39 bd 53 3d 3b 3d fe cf 1b be
       0.0015634223 -0.045368686 0.04571278 -0.15216061
000160 0f 43 a0 bd 2d bb 9c bd 97 90 7d bd f1 ac df bd
       -0.078252904 -0.076528884 -0.06190547 -0.10921658
000170 64 d0 09 be ce 32 de 3c 68 6d 04 3d 35 a8 f9 bd
       -0.13458401 0.027123835 0.0323309 -0.12190286
000180 18 7f fc 3c 78 2b f7 bd 7e 77 8a bc 3b 3d ba 3c
       0.030822322 -0.12068838 -0.016902681 0.022734275
000190 51 cc 45 bb 1e 40 c2 bd 3d 4a 8e 3d 7e f9 00 3e
       -0.0030181597 -0.09484886 0.069477536 0.12595174
0001a0 2c db f6 bd 5f 4c 64 3d c6 af 23 be 54 d9 2d 3d
       -0.120535225 0.055736896 -0.15985021 0.04244359
0001b0 5a c2 0a 3e 91 90 10 3d ef 55 db bd 11 6c fe 38
       0.13550702 0.03529412 -0.1070975 0.00012131793
0001c0 6f 67 b5 bd e8 e8 56 bd 0b c4 ab 3d 42 06 0a be
       -0.08857619 -0.05246821 0.083870016 -0.1347895
0001d0 5a d9 b2 3d 25 a1 98 bd cc 49 0e bd 34 07 30 3d
       0.08732863 -0.07452611 -0.034738347 0.04297562
0001e0 5f f7 29 be b2 71 8c bb 72 12 a0 bd 4e 84 24 be
       -0.16598271 -0.0042860145 -0.07816018 -0.16066095
0001f0 ea 5e 09 3e b2 c3 e8 bd 5e bd 85 bd a7 03 d1 bd
       0.13415113 -0.11365451 -0.065302595 -0.10205775
000200 b5 8a 69 3d bb 6b 2a be 92 ac 93 3d b6 97 3a be
       0.057017047 -0.16642658 0.072106495 -0.18221936
000210 8f fe 1a be d4 f2 30 3d 3c 30 1b 3e 25 df dc bd
       -0.15136169 0.04320033 0.15155119 -0.10784749
000220 83 47 e0 3d 99 62 f0 bd 89 d5 81 3d 95 5b 2c be
       0.1095114 -0.11737556 0.06339557 -0.16831811
000230 a8 bb 49 3d 16 44 57 3c 65 a8 b0 3d b9 7b 44 bd
       0.04925123 0.013138792 0.08625869 -0.047969554
000240 a1 4d 9c 3d 19 56 4c 3d 3a b7 fb bd 98 fa e2 bc
       0.07631994 0.049886797 -0.12290807 -0.027707383
000250 91 4e b1 3d 73 4f 0f be 7f 3a be bb ac d7 f9 3b
       0.086575635 -0.13995151 -0.005805313 0.007624587
000260 d2 ec dc bd 46 7a 32 bd b5 c9 f8 bd 1c ea 0c 3e
       -0.107873574 -0.04357364 -0.121478476 0.1376118
000270 5d 7a 3b be 7e bd 9c bc 4a 0e 18 3e 2d cd e4 3d
       -0.18308397 -0.019133326 0.14849201 0.11171947
000280 26 10 93 3d 93 b6 68 3d 0e 9f 05 be 09 bb b4 3d
       0.071808144 0.05681474 -0.13048956 0.088247366
000290 05 71 f9 bd 0a 0c af 3b c7 86 a3 bd 8d fb 3d 3d
       -0.1217976 0.0053420113 -0.07984691 0.046382476
0002a0 c2 6f 1a be 0e 30 f0 bc 2a 89 fb bd f7 3d bc bd
       -0.15081695 -0.02931979 -0.12282021 -0.09191506
0002b0 46 d4 5d bd c4 a8 4b 3d bf 05 83 3c f0 6c ea bc
       -0.054157518 0.049721494 0.01599395 -0.028616399
0002c0 26 82 d4 bd f0 b5 cf bd 37 b1 c0 bd 3f 13 17 bd
       -0.10376386 -0.10142124 -0.09408801 -0.03688359
0002d0 a4 99 dd bd f3 f2 04 3e 0a f1 7d bd 53 0b 89 bb
       -0.1082032 0.12983303 -0.06199745 -0.004182258
0002e0 ee 22 66 3c 9b 6c 59 bd ed a4 37 be 11 29 51 bc
       0.014046414 -0.05308209 -0.17934008 -0.012766139
0002f0 bf 2e 24 be 06 25 84 3d a4 28 0d 3e 0a 9a 0b be
       -0.16033457 0.06452374 0.13785034 -0.1363298
000300 fd 7d c3 bd 2e ea dd bd a3 5b a6 bd 03 e6 27 be
       -0.09545515 -0.10835682 -0.08122947 -0.16396336
000310 9c 3b 74 bd 26 f2 1b be 8c 5b a8 3d b8 0f 0e 3d
       -0.05962716 -0.15229091 0.08220586 0.03468296
000320 2f cc f3 3d 4b 79 e9 bd c5 91 c9 3d 95 5e 01 be
       0.11904179 -0.11400088 0.098422565 -0.12633736
000330 a8 50 af 3d 86 a9 c0 bd 6e 0d a6 bd 33 cd d1 bd
       0.08560306 -0.09407334 -0.0810803 -0.10244217
000340 20 69 02 3d 44 d0 02 be 48 59 f1 bd 6f 36 05 be
       0.031838536 -0.1277476 -0.11784607 -0.13009046
000350 93 5d d3 bd 1a 94 16 be 01 2a 44 bc 8f 5f d9 3d
       -0.10320582 -0.14704934 -0.011972905 0.106139295
000360 9e 3d 99 bd d0 e4 45 3e 6c fa 02 be 7b a8 81 3d
       -0.07482456 0.19325566 -0.12790841 0.06330963
000370 87 f0 f0 3d 80 72 06 be cc e7 0c be 8e c7 58 be
       0.11764627 -0.13129616 -0.13760298 -0.21169874
000380 69 9a 1b 3d 43 59 1d 3d 3f b9 24 bd 98 16 ee bd
       0.037989054 0.038415205 -0.040215727 -0.11625403
000390 62 04 14 be e0 0a 0a 3d 4a 21 2a be d1 62 11 be
       -0.14454797 0.033701777 -0.16614261 -0.14197852
0003a0 0e 92 85 bc 2e 41 f5 bd 70 98 46 3d 71 69 d0 bd
       -0.016304996 -0.11975323 0.04848522 -0.10176361
0003b0 47 79 a7 bd 4b cf d2 bd ed ec 25 3e f0 0e 87 3d
       -0.08177429 -0.10293444 0.16203661 0.06594646
0003c0 d1 a5 27 3d 19 49 dc 3d 46 09 93 bd 48 58 1e be
       0.04092962 0.1075613 -0.07179503 -0.15463364
0003d0 5e 53 37 bd 6f e0 cd 3c 3b 33 ca bd 1a d6 25 be
       -0.04475724 0.025131432 -0.09873053 -0.16194955
0003e0 6d 00 5d 3c 95 ca b2 3d 53 84 9d 3c 10 d2 56 bb
       0.013488871 0.08730046 0.019228136 -0.0032779016
0003f0 39 87 e3 bc 22 1e 3c 3d a4 8b 0b bd 78 d8 72 3d
       -0.02777444 0.045927174 -0.03406872 0.059288472

layers1d.3.bias f4 [128]
000000 aa 45 91 3c 25 3e 60 3b a9 74 0b 3d 4d 0b 0f 3d
       0.017733414 0.0034216729 0.034046803 0.034922887
000010 fa 2c 73 3c d7 5d fb 3c e2 ae e3 bc 53 6c d3 3c
       0.014842266 0.030684395 -0.027793352 0.025808489
000020 b9 66 00 bd 77 98 ba bb 25 c9 49 3d 3a 46 bb bc
       -0.031347964 -0.0056944448 0.049264092 -0.022860635
000030 10 e1 9d 3c 48 25 db 3a f3 6c 18 3d 36 06 d5 3b
       0.019272357 0.0016719485 0.037213277 0.0065009845
000040 95 6c 00 3d c7 43 79 3c 50 54 7d 3c 42 1a 14 bd
       0.031353552 0.015213913 0.015461996 -0.036157854
000050 4e 9c c8 bc 8a a5 5f 3c 75 e0 60 3c df 37 fa 3a
       -0.024488594 0.013650307 0.01372539 0.0019090137
000060 22 3c f1 3c 69 be 91 bc f1 64 88 3c a5 9f 3b bc
       0.029447619 -0.01779099 0.016649695 -0.011451636
000070 36 f3 83 3c 9a 51 0d bc 59 a4 21 bd dc 9f 04 3c
       0.016107183 -0.008625412 -0.039463375 0.008094754
000080 f8 2d 95 3d 36 f9 e5 3b 72 fc 01 3d f2 43 8d 3b
       0.072841585 0.0070182336 0.03173489 0.004311078
000090 54 24 67 3c 41 e5 98 3c 9f 70 36 bc 18 a2 3d ba
       0.014107782 0.018664004 -0.011135249 -0.00072339317
0000a0 94 c6 30 3d 3f f1 86 3d 24 07 86 bc b4 7f 07 bc
       0.04315813 0.06588983 -0.016360827 -0.008270193
0000b0 2b 86 2a bc 8b 92 8e 3d fc a9 a8 3c 2a 71 cc 3c
       -0.010407965 0.069615446 0.020588867 0.024956305
0000c0 13 52 8c bc 0a f4 8d ba 09 07 01 3d b1 f7 44 3c
       -0.01712898 -0.0010830176 0.03150085 0.012021945
0000d0 8d 11 fe bc c9 b4 0f 3d 46 9f 92 3b 9f 62 bd 3b
       -0.031014228 0.03508452 0.0044745533 0.005779579
0000e0 20 eb 17 bd d9 7b 6b 39 7d dd 82 3c 73 65 a4 3c
       -0.037089467 0.00022457483 0.015974754 0.020067906
0000f0 b0 2c 3e bc 2e 2c 68 3c 7f e4 fd 3c 25 f9 09 3c
       -0.011607334 0.0141706895 0.030992744 0.008421217
000100 9b 11 a0 ba 17 89 b4 bc a1 da d8 bc 8a 70 2b 3c
       -0.0012212278 -0.022038026 -0.026471438 0.010463843
000110 b9 4c 29 bc 92 b0 2e 3d 05 f2 f5 bc 39 33 45 3c
       -0.0103332335 0.04264886 -0.03002263 0.012036138
000120 6f e7 09 3d 65 8f dd 3b 33 c4 26 3c d3 65 fe bc
       0.033667978 0.0067614787 0.0101786135 -0.031054413
000130 a4 05 b9 bc 46 3e 9a ba 66 50 b3 bb 48 c5 87 bb
       -0.022585697 -0.0011767827 -0.0054722307 -0.004143391
000140 0b 2c dc 3c b2 a0 93 3b f5 52 4b bc 9f 1a be 3c
       0.02687647 0.0045052404 -0.012409915 0.023206053
000150 0f 65 10 3b 0a 34 1d 3c 74 b1 19 bd 29 e7 c0 bb
       0.0022032892 0.009594927 -0.037522748 -0.0058869314
000160 4a 3b a7 bc 62 bb 52 3c f8 20 2f 3c 78 d6 96 3c
       -0.020414013 0.012862058 0.010689013 0.018412814
000170 43 e0 b0 3b 80 33 c3 3c 80 48 f5 3c 9d e1 71 bc
       0.005397828 0.023828268 0.029941797 -0.014763263
000180 2c f6 75 3a ea 81 35 3b b3 c2 f8 3b c1 26 0f 3d
       0.0009382691 0.0027695843 0.0075915693 0.034949068
000190 6a 7f 07 3d d6 c3 76 bc bc 9a 2a bd 2a 0f 55 3c
       0.033080496 -0.015061339 -0.041651472 0.013004104
0001a0 de ba 35 bc bc 20 fb 3c 2d fb b0 bc e8 17 27 3d
       -0.011091916 0.030655257 -0.021604145 0.040794283
0001b0 57 9f bb bd b7 54 d0 3c 49 2d 4b 3d b6 2a 59 3b
       -0.09161251 0.02543102 0.049603734 0.003313703
0001c0 64 cb 90 ba 49 77 36 3c ca 2e b4 3c 36 94 45 3c
       -0.0011046943 0.011136838 0.021994967 0.012059262
0001d0 26 03 d5 ba 22 6f d4 bb 20 fb 94 bc 30 4a 66 3c
       -0.0016251549 -0.0064829746 -0.018186152 0.014055774
0001e0 64 ec 01 3d 8a 09 a0 bc 44 fd 95 ba 89 a4 58 3c
       0.03171958 -0.019535799 -0.0011443277 0.013222822
0001f0 b2 59 87 bc 96 74 1f bc 80 b8 10 3d 93 bc 58 bc
       -0.016522262 -0.009732386 0.035332203 -0.013228553

combined.0.weight f4 [64, 128]
000000 91 7b fc bd 17 1d c2 3d 78 cf 36 bd 6f 74 1a be
       -0.12328256 0.09478205 -0.04463145 -0.15083478
000010 a5 f2 3f be 93 d6 46 3c b3 3b da bd 51 1e a0 3c
       -0.18744905 0.012136119 -0.10655918 0.019545706
000020 3e 55 17 bb bc 29 3b 3d 23 b1 a7 3d 1b 97 af bd
       -0.002309158 0.045694098 0.08188083 -0.08573743
000030 8f fd ed 3c 8a 31 fa bc 9f 33 ba 3d 29 2c cb bd
       0.02905157 -0.0305412 0.09091877 -0.09920532
000040 d5 d2 0b bd 75 cc d5 3c ab 4f d4 bd 20 72 9d bd
       -0.034136612 0.02609847 -0.10366758 -0.07687783
000050 dc 3a 5b bd 8b ee 3e 3d 51 18 0d 3d 3d dd 67 3b
       -0.05352293 0.04661421 0.034447018 0.003537967
000060 9d 44 b2 bd 0c 36 e8 3d a2 1a c3 bd 9f 38 20 be
       -0.08704493 0.113384336 -0.09526564 -0.15646599
000070 8c e6 98 bd c1 3e c9 3d 00 1b 79 3d b9 e2 e2 3d
       -0.07465848 0.098264225 0.060816765 0.110784
000080 2d 61 3a bd 99 ac 84 3c 56 7e 76 bc b8 60 c3 bc
       -0.04550283 0.016195582 -0.015044769 -0.02384983
000090 85 a5 2b bc 34 2b f5 3d a1 20 b4 bd 7c d1 d8 bb
       -0.010476475 0.11971131 -0.08795286 -0.0066167694
0000a0 7f 87 9f 3c 0c e6 18 3d 30 54 8b 3d 3f 5b 87 3d
       0.01947379 0.037328765 0.06803167 0.06609201
0000b0 aa fa e5 3d 11 44 ff bb 30 8c e7 bb ec d3 b5 bd
       0.11229451 -0.0077900966 -0.007066272 -0.088783115
0000c0 e0 70 e8 3b 56 5a 16 be f2 ac db bb c8 18 9e bd
       0.007093534 -0.14682898 -0.0067039663 -0.077195704
0000d0 f8 7b c8 bd a8 9a a0 3d 8c 9b 86 bc 66 fd e6 bd
       -0.0978927 0.07841998 -0.016431592 -0.11278801
0000e0 81 3d bb bd 8e ff 23 bd 8c e8 1f bd 5f ab 92 bd
       -0.0914259 -0.040038638 -0.039040133 -0.07161593
0000f0 6f 0b d6 bd 51 89 af bd fe 9e f2 3b 98 0e f0 3c
       -0.104513995 -0.08571113 0.0074042073 0.029303834
000100 9d 0c d0 bc d6 6d 01 be ef d0 7e 3a 91 7a 0a 3e
       -0.02539664 -0.12639555 0.00097204646 0.13523318
000110 33 3d 40 3d 4b fb c3 3c 7e cd 0f bd 84 84 a8 3d
       0.046933364 0.023923537 -0.035108082 0.082284
000120 7b d6 df bc 34 61 ae 3b 5a f2 aa 3c 03 15 78 be
       -0.027323952 0.005321646 0.020867515 -0.24226765
000130 5d 8e a2 bd 1c 2a fc bd 38 b3 4b bd 57 90 c4 bd
       -0.0793731 -0.12312719 -0.049731463 -0.09597843
000140 23 cf e3 bc b1 42 cb bd 26 fe fa bc fa f7 a7 3c
       -0.027808731 -0.0992483 -0.030638766 0.020503987
000150 8a a5 26 bd 20 6d eb 3c e1 8c 0a 3d 0e bb 19 be
       -0.040685214 0.028738558 0.03382576 -0.15012762
000160 0a 4c 1a 3d d6 c7 24 3d 7b 2a 05 be 17 c3 b1 bd
       0.037670173 0.04022964 -0.13004486 -0.086797886
000170 3b 1d a9 bc c7 49 6b 3d 5a 2f 91 3d c4 d8 9b bc
       -0.020643821 0.057443406 0.0708911 -0.01902426
000180 34 d8 1d be ea 75 16 3d e3 15 37 3d 2a cd 93 bc
       -0.15414506 0.036733545 0.044698607 -0.018042166
000190 9d 5c f9 bc 10 12 0c 3d 21 ed 83 bd 67 22 8f bd
       -0.03043967 0.034196913 -0.06441713 -0.069889836
0001a0 2a c6 c6 3d 43 48 8f bd f8 22 9e bc ee f0 df 3d
       0.097057655 -0.06996205 -0.019303784 0.109346256
0001b0 0e 69 8f 3d ec 47 c3 3d 0b c4 d3 3d 32 a1 61 bd
       0.070024595 0.095352024 0.103401266 -0.05508537
0001c0 56 4f cd bd 04 42 ac bc 74 7f e9 3d 36 97 8c 3d
       -0.10024898 -0.021027572 0.11401263 0.06864779
0001d0 42 28 9c bd 90 40 35 3d 74 e9 d3 bc ad 85 d5 3c
       -0.07624866 0.044251025 -0.025868155 0.026064718
0001e0 1c 04 c2 bd 3f 0c 74 bd 90 f7 ca bc 7f 34 20 bd
       -0.0947344 -0.05958199 -0.02477625 -0.039112564
0001f0 2f 3c 1c bd 4e a0 b8 bd ff 0d 35 3c de 49 3c 3c
       -0.038143333 -0.09014951 0.0110507 0.011492221
000200 e5 93 a8 bc af a9 8f 3d f5 30 48 bd 89 f2 79 bb
       -0.020578334 0.070147865 -0.048874814 -0.0038138947
000210 75 06 a5 bd 6c da 93 bd 59 62 d8 bd 9a f5 9c 3c
       -0.08057872 -0.07219395 -0.10565633 0.01916008
000220 c5 22 83 bd 61 4b f3 bc c1 f1 48 bc df e5 24 bd
       -0.06403116 -0.02969903 -0.01226467 -0.040258285
000230 ff 2a 14 3e 7b fa b2 bd b4 77 cb bc d1 f9 a2 3c
       0.14469527 -0.087391816 -0.024837352 0.019894512
000240 44 20 53 3d 0c 29 a8 bd ed ac 32 3d 80 bb b5 bd
       0.051544443 -0.08210954 0.043621946 -0.088736534
000250 f4 23 2c be 33 1b 04 3e 4f 07 40 3c 1d bc e2 3d
       -0.1681059 0.12901 0.0117204925 0.11071036
000260 d7 0b 6b bd 60 15 e8 3d f4 24 53 bc 77 f2 1a bd
       -0.05738434 0.11332202 -0.012887228 -0.03782889
000270 f7 e7 45 3d 92 a2 b4 3d e2 35 0c 3e c8 0f 2c 3c
       0.048316922 0.0882007 0.1369243 0.010501809
000280 bc 51 fb bb ba 59 22 bd 3f 80 44 bb ea a8 4e bc
       -0.0076696556 -0.03963635 -0.0029983667 -0.012613514
000290 00 4f a0 ba 9f 0c 45 3d e1 48 be 3c a7 94 f5 3b
       -0.0012230575 0.04810774 0.02322811 0.0074945274
0002a0 85 e1 8c 3c 9f 0f 6c 3d c4 85 2b 3e c4 9a a0 3d
       0.01719738 0.057632085 0.16750246 0.07842019
0002b0 94 b7 08 3c 7a 65 ad 3c 0d d4 0b 3e 01 b4 19 bd
       0.00834455 0.021166552 0.1365511 -0.03752518
0002c0 8d f8 ee ba a3 2f d8 bc 43 ab 79 3d f9 42 df bd
       -0.0018232033 -0.026389902 0.060954344 -0.10901446
0002d0 05 b3 9e bc 3e f6 fd 3d 38 1a 7e bc 87 eb 59 bd
       -0.019372473 0.124004826 -0.015509181 -0.053203132
0002e0 a7 b7 a1 bd 63 5c a0 bd 3e 2d 1b be bc 99 99 bd
       -0.07896357 -0.07830121 -0.15153977 -0.07500026
0002f0 0a 4c 3c bd 15 b8 8b 3b a7 8e f6 bc 28 f5 11 3d
       -0.045970954 0.0042638876 -0.030097319 0.03563419
000300 a1 00 32 bd aa 47 92 bd 06 db a3 bc d8 d2 25 3d
       -0.04345763 -0.07142575 -0.0200019 0.04048428
000310 68 d4 32 3d ff 46 0c 3d d7 24 ec bc 6b 84 75 3d
       0.043659598 0.034247395 -0.02882616 0.059940737
000320 c4 f9 0d 3b 51 4a 0f bb ab 55 b9 3d ac 6d c8 3b
       0.0021663764 -0.0021864364 0.09049543 0.0061165895
000330 dd 09 99 3d a2 2e 81 bc d4 be 4c 3c f6 f2 b7 bb
       0.074725844 -0.015769307 0.012496669 -0.00561368
000340 b1 df 3b 3d 8e 89 be 3b 94 bb a7 bd 1d 0f 03 bd
       0.045867626 0.0058147376 -0.081900746 -0.031996835
000350 96 15 2e bd c8 c7 ab bc 30 6d 12 3d f5 c1 f7 bc
       -0.042501055 -0.020969287 0.03574866 -0.030243853
000360 b7 66 0b 3e 2b ed 2c 3d 14 00 c8 bc e0 6a a1 bd
       0.13613401 0.04221837 -0.0244141 -0.07881713
000370 d0 cd 46 bd af 71 5e bd 8b c1 0d bd 03 f0 7e bc
       -0.04853612 -0.054307636 -0.034608405 -0.015560153
000380 31 30 0e 3c 60 a2 b8 3d 27 84 55 3d a0 22 aa 3c
       0.008678482 0.090153456 0.052127983 0.020768464
000390 08 1c d9 3d 98 09 9b bc b5 8b 63 bd 5b c4 99 3d
       0.1060105 -0.018925473 -0.055553157 0.07508155
0003a0 31 b1 4c bb 80 e8 fd 39 93 37 87 3d 0d 32 8c 3c
       -0.0031233544 0.00048429146 0.06602397 0.01711371
0003b0 5d 47 c6 3b 6f 81 b2 3d de fa d3 bc 1b 0c f5 3d
       0.0060509876 0.08716094 -0.025876459 0.119651996
0003c0 64 30 6b bd 39 fc 7a 3d b7 88 07 3e a5 e9 3d 3d
       -0.057419196 0.061275695 0.13235746 0.0463654
0003d0 ec 96 68 bd 11 25 81 bd 53 32 53 bb c0 0a 95 3c
       -0.056784555 -0.06305898 -0.003222604 0.018193603
0003e0 7b 24 03 3d ff 5b ac bd 5d 15 74 bd 6f af 97 bc
       0.032017212 -0.08415984 -0.059590686 -0.01851627
0003f0 9e 3a 82 3c f4 bb 9a bd c6 89 66 bc 41 1e 78 bc
       0.015897091 -0.075553805 -0.014070934 -0.015143932

combined.0.bias f4 [64]
000000 07 d7 a7 3c b0 ef 9f 3d 4c 93 88 3c cb 7f 7f 3c
       0.020488275 0.07809389 0.0166718 0.015594433
000010 b7 11 30 bc 8e 8d 05 bd 3b 97 cb 3c 3d f2 3a bd
       -0.010746411 -0.0326057 0.024852386 -0.045641173
000020 14 ff 77 3b e8 10 c3 3c 56 7e ef 39 54 5d fb 3c
       0.0037841247 0.023811772 0.0004567976 0.03068415
000030 20 09 3d 3d 35 a1 72 3c 75 65 f8 bb 98 20 ae bc
       0.04615128 0.014808943 -0.007580454 -0.021255776
000040 30 1c 6d 3c 68 d2 ba 3c fb 16 96 bc 20 5c 3e 3c
       0.014472052 0.022805408 -0.018321505 0.011618644
000050 d9 b4 a3 3c a8 2f af 39 36 43 b8 bb 2b d2 ff bc
       0.019983696 0.00033414108 -0.0056232465 -0.031228146
000060 44 f2 03 bc 19 e3 1c bc 8d e0 cc 3c 23 50 a1 3c
       -0.008053366 -0.009575629 0.025009418 0.019691532
000070 33 1d 8e 3c ae 41 c7 3c 0f df c3 bb 4b 84 5d 3d
       0.017347908 0.02432331 -0.0059775184 0.054081243
000080 72 dc 6e 3d 93 22 10 3c 4f 54 e6 3c 84 f5 14 bd
       0.0583157 0.008797306 0.028116373 -0.036366954
000090 36 7f 69 3b dc ba 3c bb 39 ce 46 3c 92 4c e9 3c
       0.0035628802 -0.00287979 0.012134128 0.028478894
0000a0 39 93 84 3d 78 d8 91 3d 66 1f 17 3d d5 86 8e 3c
       0.06473393 0.07121366 0.03689518 0.017398277
0000b0 f5 33 c9 3b 02 09 ed bc f6 91 05 bd 58 4f dc 3c
       0.006140227 -0.02893496 -0.032609902 0.026893303
0000c0 2d 40 ae 3c 88 d8 91 bc 40 ca be 3b 0a 29 85 bc
       0.021270836 -0.017803445 0.00582245 -0.01625492
0000d0 ef 64 a3 3d a6 fc a3 3c 45 6d 89 3d 6d af 07 3d
       0.07978236 0.020017933 0.06710295 0.033126283
0000e0 c3 b9 0b bd 15 17 36 3d 94 b6 c2 3c aa 87 05 3d
       -0.034112703 0.044455606 0.0237687 0.032600082
0000f0 95 e0 bd 3a 26 85 56 bc 1a 65 45 3d c2 d2 17 3d
       0.0014486486 -0.0130932685 0.04819212 0.03706623

combined.3.weight f4 [64, 64]
000000 2e 8e fd 3d 0f a6 87 3d 6c 35 61 bd df 2b 08 bd
       0.12380634 0.0662347 -0.054982588 -0.033244964
000010 75 ed f6 bd 06 89 7f bd 6b b4 dd bc b0 bf 43 be
       -0.1205701 -0.062386535 -0.027063569 -0.19116092
000020 42 20 93 3c f0 fe 89 bd c1 07 86 bd 0e 40 5f 3d
       0.017959718 -0.067380786 -0.06544448 0.054504447
000030 e2 1b 8b 3d 81 fd 60 3d 22 ac eb bd 91 55 58 be
       0.067924276 0.05492926 -0.11507441 -0.21126391
000040 4a c7 06 3e 7a 31 08 bd 9e 00 8a bd 51 30 bf bd
       0.1316196 -0.03325031 -0.06738399 -0.093353875
000050 30 bf d4 3c ca 6d 27 be 04 ce a8 bd b2 38 a0 3d
       0.025970072 -0.16350475 -0.08242419 0.07823314
000060 55 ca da bd 86 2f b2 bc de 81 15 3d c5 3a 04 be
       -0.10683123 -0.021751177 0.036500804 -0.12913044
000070 40 00 57 bc 73 4c 69 bc b1 5f d0 3d d4 f9 1e 3d
       -0.013122618 -0.014239418 0.10174502 0.038812473
000080 2b 8d 32 bd 6d 58 62 bc ca 64 63 3c 42 1d cd bd
       -0.04359166 -0.013815028 0.01387901 -0.10015346
000090 65 b2 82 3d 79 0d b5 bd 54 1e 1b 3d 3d d7 2c bd
       0.06381682 -0.0884046 0.03787072 -0.042197455
0000a0 a2 ab e6 3b bf 65 51 bb 02 ec d5 bc 92 8f 1b 3d
       0.007039503 -0.0031951515 -0.026113514 0.037978716
0000b0 0d 1c 1d be 05 74 8c bd 07 19 0c be 6e 55 29 3d
       -0.15342732 -0.068580665 -0.13681422 0.041341238
0000c0 d4 7c b2 3d b5 18 b0 bd 43 c9 65 bd f6 82 c3 bd
       0.08715215 -0.085984625 -0.05610014 -0.09546463
0000d0 27 82 84 bc 36 18 c7 bd 72 57 42 3d 26 9e 55 bd
       -0.016175343 -0.09721415 0.047446676 -0.052152775
0000e0 46 5f f2 bd fb 20 b0 3d 39 bc 97 3d d8 83 aa bd
       -0.11834578 0.086000405 0.074089475 -0.083259284
0000f0 59 92 47 3c 97 03 a0 bd 95 54 e7 3c 3b ce 10 3d
       0.012180888 -0.07813185 0.028238574 0.035352927
000100 ab 66 15 be e3 98 17 3d c9 2c 8c 3d 22 d3 83 3d
       -0.14589946 0.03701104 0.068444796 0.06436755
000110 44 04 92 3d 12 e2 c9 3d af 9c 2a be 7a d2 91 3c
       0.0712972 0.098575726 -0.16661333 0.017800558
000120 2b ad b6 3d ee 41 ec 3d 88 88 18 3d ef d4 fd bd
       0.08919748 0.115360126 0.03723958 -0.123941295
000130 97 a8 9e bd 58 84 40 be 24 67 8c 3c 9c d8 b8 3d
       -0.07747 -0.18800485 0.017139025 0.0902569
000140 46 40 48 be 2b 0a 1b 3d a0 6a 8c 3d 23 a5 57 bb
       -0.19555768 0.037851494 0.068562746 -0.0032904826
000150 54 ca 00 be 3a e6 03 3d 4a e3 5e bd 1a d6 8a bc
       -0.12577182 0.032201983 -0.05441598 -0.016947795
000160 da 1a bd bc b9 9b 33 3c bf b7 52 be 44 fe a5 3d
       -0.023084093 0.01096242 -0.20577906 0.08105138
000170 dc 75 ea bd af a4 50 be a8 da 16 be 24 f2 84 bd
       -0.11448261 -0.20375322 -0.14731848 -0.06491497
000180 5e 83 0b bd db a7 ec bd 66 22 f7 bd 31 44 ab bc
       -0.03406083 -0.115554534 -0.12067108 -0.02090654
000190 b7 00 05 be 38 ba 4e 3c 10 e6 0e bd ea d8 47 be
       -0.12988554 0.01261764 -0.034887373 -0.1951634
0001a0 b2 c1 58 be e8 b6 a0 bd 74 c8 ea bd d2 bd 1d be
       -0.21167639 -0.078473866 -0.11464015 -0.15404442
0001b0 09 4e e5 3c 8e 43 05 3e 17 f6 f8 3d fe 76 8f be
       0.027991312 0.13014051 0.12156313 -0.2802047
0001c0 b3 81 3b be 8e 51 1f 3d da bd 8e 3c ef 87 35 3d
       -0.18311195 0.038896136 0.017424513 0.04431909
0001d0 9d 9b 81 bd 52 3f 5f 3d ba 12 0c bd 17 1c 1f 3d
       -0.06328509 0.054503746 -0.034197547 0.038845148
0001e0 57 b2 df ba cc 48 05 be 22 ff 6f be fd f5 75 3c
       -0.0017066699 -0.13016051 -0.23437169 0.015012261
0001f0 ae 15 83 be 5f 73 1e 3d 40 0e 66 be fa 47 d8 bd
       -0.25602478 0.038684245 -0.22466373 -0.105606034
000200 cb b9 73 3d d6 f6 81 bd 2a a5 29 be 6c 83 80 bd
       0.059503358 -0.06345908 -0.16566911 -0.06275067
000210 8a d7 32 be 4f ce 08 be 76 18 8f 3d a3 d6 63 be
       -0.17465034 -0.1335995 0.069870874 -0.22249846
000220 25 6b 17 be 29 bb 48 be bb 32 bd bd 33 73 10 3d
       -0.14786966 -0.19602646 -0.09238192 0.035266113
000230 00 39 9e 3d 3b 08 c9 3d 26 53 10 be 67 90 28 be
       0.07725716 0.09816023 -0.14094219 -0.16461335
000240 b7 b0 8c 3d 40 15 24 be 64 81 7c be 03 de 3f be
       0.06869643 -0.16023731 -0.24658734 -0.18737034
000250 cf f9 8a 3d 05 7b fa bd 17 f8 91 bd 13 76 70 bd
       0.067859285 -0.12230495 -0.071273975 -0.058706354
000260 31 46 53 be ff ca a9 bc 54 f1 08 3b c7 95 11 3c
       -0.20632245 -0.020726679 0.0020895796 0.008885807
000270 68 f8 2a 3e 4d 1b ba 3d 33 8f 4a 3d 24 b0 69 bd
       0.16696322 0.090872385 0.04945297 -0.057052746
000280 6a 60 3f be cf c9 fa 3d c2 a2 5a 3d f7 eb ad be
       -0.18689123 0.12245523 0.053377874 -0.3396909
000290 67 d6 a2 bd 62 63 c0 bd 90 de 04 3d 10 90 cc 3d
       -0.0795105 -0.09393956 0.032438815 0.09988415
0002a0 d0 35 06 3d 6c ac 8a bc 4c a9 07 bd 7a 02 07 3e
       0.032766163 -0.01692792 -0.03312044 0.13184538
0002b0 86 72 cc bc 00 4b 7f be 6a 7f 54 be 3e 35 90 3d
       -0.024956953 -0.24930954 -0.2075173 0.07041405
0002c0 80 b2 30 3d 3e d4 40 be 29 c0 4d be e5 e1 8f be
       0.04313898 -0.18830964 -0.20092835 -0.2810203
0002d0 d5 5e eb bc bf ef 25 bd 70 cf 48 bc 76 e0 23 be
       -0.028731743 -0.040511843 -0.012256488 -0.16003594
0002e0 fb d6 98 be f0 e6 07 3d 64 3d d5 bb 31 4c 1a be
       -0.29851517 0.033179224 -0.0065075625 -0.15068127
0002f0 54 82 85 3d 19 7c 36 be 44 28 ea 3c 3a 5b 2b bd
       0.06518999 -0.17820777 0.028583653 -0.041835047
000300 60 a8 29 3d 57 4b 8b 3d f0 7a ff bd d2 01 16 bd
       0.04142034 0.06801479 -0.1247462 -0.03662283
000310 04 01 da bd 48 47 c8 bd 2e 21 06 3e fd e7 d4 bd
       -0.10644725 -0.09779221 0.13098595 -0.10395811
000320 b6 53 d9 bd 54 ae fb bd 37 bf 28 be 42 3a 1b 3e
       -0.1061167 -0.1228911 -0.16479193 0.15158942
000330 35 8d 1f bd 4d 24 43 3d 21 f4 77 bd 55 6c 97 3c
       -0.038953025 0.04764204 -0.060535554 0.018484274
000340 2f 43 a5 3d 2c de eb 3c 70 a4 a1 be b9 44 0d be
       0.08069455 0.028792463 -0.31570768 -0.13795747
000350 a7 a6 f1 3d a8 9a ab bd 9a b4 76 be ee a9 94 bd
       0.117993645 -0.08379108 -0.24092332 -0.07258974
000360 5d 4d 82 bd bc 68 36 be 47 54 b2 3c eb 51 84 bd
       -0.06362412 -0.1781339 0.021768702 -0.06460937
000370 0d 67 08 3e 64 0f 83 bd 94 73 e2 bc 12 df 2c 3d
       0.13320561 -0.0639942 -0.027643003 0.042204924
000380 cd 72 2e bd eb 37 95 bc f1 34 9b bb 3a 81 ce bd
       -0.04258995 -0.01821514 -0.0047365357 -0.10083242
000390 13 90 91 bd 6d 0b 5e bd 83 2a f4 3d c0 c0 4f 3c
       -0.07107558 -0.054210115 0.11922171 0.0126802325
0003a0 95 19 f7 3d 23 53 10 3d 58 63 88 bd 32 51 a2 bc
       0.12065426 0.035235535 -0.06659573 -0.019814108
0003b0 75 89 42 be 08 32 0e be d4 65 3c be 01 f7 2c 3e
       -0.18997748 -0.13886273 -0.1839822 0.168911
0003c0 31 81 29 3e 8c f3 52 be 92 0b f5 bc 37 f3 2b be
       0.16553189 -0.20600718 -0.029912744 -0.16791998
0003d0 f0 07 00 3d c4 04 c0 bd 98 bb b8 3d f7 80 0b bb
       0.03125757 -0.09375909 0.09020156 -0.0021286586
0003e0 35 1a fd 3a 3f db 08 3d 20 eb 45 bd 53 9d 37 bc
       0.0019310178 0.033412214 -0.048319936 -0.011206943
0003f0 38 9a 20 3d 9a 91 a0 3c ff 65 b2 bd 28 fa 67 3d
       0.039209574 0.019600678 -0.087108605 0.056635052

combined.3.bias f4 [64]
000000 06 00 0d 3e c3 e6 13 3e e0 75 da 3d 4c b9 eb 3d
       0.1376954 0.14443497 0.10667014 0.11509952
000010 76 7c e5 3d 00 54 db 3d 15 43 17 3e 9b 86 db be
       0.1120538 0.10709381 0.14771684 -0.42876133
000020 72 b6 ed 3d f8 69 0c 3e 27 52 fa 3d c4 67 d8 be
       0.11607064 0.13712299 0.122227006 -0.42266667
000030 93 58 0c 3e ea 3e a9 3d ed 55 0f 3e ad 32 e1 3d
       0.13705663 0.08263953 0.13997622 0.10995994
000040 e3 97 05 3e 35 23 de 3d a8 2f f8 3d f0 a3 d4 3d
       0.13046221 0.10846559 0.12118465 0.10382831
000050 7c 8a da be 8e 3d 20 3e 07 26 c8 3d 16 94 fd 3d
       -0.4268378 0.15648481 0.09772878 0.12381761
000060 b5 94 13 3e 12 f6 ec 3d 90 47 10 3e 63 5d 04 3e
       0.14412196 0.11570372 0.14089799 0.12926249
000070 d1 80 13 3e 5c bb a2 3d 62 9f 14 3e 78 ed c5 3d
       0.14404608 0.07945892 0.14513925 0.09664434
000080 5a 7e 13 3e 88 59 5e 3e 0f 78 0b 3e 66 cd c7 3d
       0.14403668 0.21713841 0.13620017 0.097559735
000090 55 3f 2f 3e 7f f9 00 3e 98 34 fd 3d 0d a5 b1 3d
       0.17114003 0.12595175 0.12363547 0.08674059
0000a0 76 df 0f 3e a0 1f cd 3d 08 56 0c 3e a6 a7 04 3e
       0.14050087 0.100157976 0.13704693 0.12954578
0000b0 a2 41 09 3e ac 96 12 3e db 03 d7 3d ac 2c 0c 3e
       0.13403943 0.1431529 0.10498782 0.13688916
0000c0 6f e4 eb 3d ff e2 2a 3e 69 a2 0b 3e d7 fe 24 3e
       0.115181796 0.16688155 0.13636173 0.16112839
0000d0 7b 0d 26 3e 39 8b 15 3e 79 11 fd 3d 23 28 c7 3d
       0.1621608 0.1460389 0.12356848 0.09724452
0000e0 e5 06 3b 3e e4 f5 ee 3d 0b c3 27 3e e0 58 f2 3d
       0.18264349 0.11667994 0.16382997 0.11833358
0000f0 f1 50 0f 3e c4 64 1f 3e 1a 80 00 3e 3c 82 f1 3d
       0.1399572 0.15565783 0.12548867 0.11792418

combined.6.weight f4 [1, 64]
000000 b7 00 43 bd 54 77 15 3d d7 97 77 bd 5d 71 2b bd
       -0.047608104 0.036490753 -0.06044754 -0.04185616
000010 35 7f 81 3d 9c bd 2b bd 24 24 17 3d c8 40 45 be
       0.06323091 -0.041928872 0.0368997 -0.19262993
000020 54 ee 9d 3d d5 0f 3a 3d 50 55 0c bd 97 b5 2a be
       0.07711473 0.045425255 -0.034261048 -0.16670834
000030 9d 9a 2b bd f6 9e 0e bd 10 99 49 bd 9e 41 79 3d
       -0.041895498 -0.034819566 -0.049218237 0.060853593
000040 f9 99 34 3d 7e 98 26 bd f9 ab 58 3d 51 a0 4e bd
       0.044092152 -0.04067277 0.05289838 -0.05044586
000050 45 38 07 be a7 22 1d 3d af 33 71 bd 7d 07 5c 3d
       -0.13205059 0.038363125 -0.05888718 0.05371808
000060 d8 e7 3e 3d 29 67 93 bd 2a 44 17 bd f1 3b 82 3d
       0.046607822 -0.071974106 -0.03693024 0.06359089
000070 85 0a 30 3d da 9d 4f bd 3e 36 2b 3d 97 ff 8a bd
       0.042978782 -0.05068765 0.041799776 -0.06787031
000080 82 c1 1d 3d a4 5b 30 3d 92 34 0f bd 03 ba 4e bd
       0.03851462 0.043056145 -0.034962244 -0.050470363
000090 57 10 17 3d e8 a4 75 3d 14 75 58 bd b5 bb 69 3d
       0.036880817 0.05997172 -0.05284603 0.057063777
0000a0 42 8b 20 3d 97 32 40 bd d4 bb 3c bd cc 03 44 3d
       0.039195307 -0.046923246 -0.046077564 0.047855183
0000b0 37 12 4e 3d 83 9e 3c bd 49 48 78 bd 33 a4 4b bd
       0.05031034 -0.046049606 -0.06061581 -0.04971714
0000c0 65 ca 69 bd e8 82 f8 3c 79 f2 3e 3d 39 e4 37 3d
       -0.057077784 0.030335858 0.04661796 0.044895384
0000d0 9c e1 22 3d c0 6e 3d 3d 0a 66 80 3d 79 b8 6a 3d
       0.03976594 0.046248198 0.062694624 0.057304833
0000e0 9e 7d 13 3d 98 77 76 3d e3 84 47 3d c8 4b 2f bd
       0.03600847 0.060172647 0.048710715 -0.04279688
0000f0 3d fc 4f 3d 4e b1 13 3d e0 35 47 bd 04 e6 31 3d
       0.050777663 0.036057763 -0.048635364 0.04343225
