data/models/nov12_24_undersample/fold4_epoch_models/epoch_1_model.pt (torch, 775567 bytes, 9 tensors)

layers1d.0.weight f4 [128, 1280]
000000 6a d8 55 bd 87 c7 9e ba 6f e8 ec bb 94 d1 bb 3b
       -0.05220834 -0.0012113907 -0.0072298567 0.005731771
000010 a7 21 7a 3c a6 4f c6 3c 0d 1c 2a bb 4c 0c 92 bb
       0.015266812 0.024207901 -0.002595666 -0.0044570323
000020 7d d9 da bc 92 7a 9b 3c 88 19 89 bc e5 cf 48 bb
       -0.026715035 0.018979345 -0.016735807 -0.0030641493
000030 2e be 89 bc 7b 5f 8a bc 93 02 8c bb 63 66 9a bb
       -0.016814318 -0.016891232 -0.004272768 -0.0047119125
000040 78 35 0e ba 83 7f cb bc 79 e0 b5 bb b9 72 30 3c
       -0.00054248376 -0.024841076 -0.005550441 0.0107695395
000050 d3 d2 2b bd a5 d6 48 3c 9f 9f 0c 3d 55 70 b7 3b
       -0.041949105 0.0122582065 0.034331914 0.005598108
000060 ca 2f cb bc dc 6a b5 bb 49 3a dd b9 54 db c6 bc
       -0.024803061 -0.0055364203 -0.0004219583 -0.024274506
000070 4a d8 d6 3c c8 5a 88 3c ba 8a 8c bc ce 42 90 bc
       0.026226182 0.01664485 -0.017155994 -0.01760998
000080 9e 37 c1 bc f0 eb 18 bc 71 cf 27 bc 0d 25 8f 3c
       -0.02358609 -0.009333596 -0.010242329 0.017473722
000090 74 41 16 3c 0c 6b 30 bc 59 7c e5 3c 40 e5 44 bb
       0.009170879 -0.010767709 0.028013395 -0.003004387
0000a0 6a 39 87 ba 8c 82 ea 3c 4e 51 40 bc ac e2 ff bb
       -0.0010316793 0.028626703 -0.011738135 -0.007809004
0000b0 4e 67 88 bb 4b d4 da bc 03 56 24 3d f7 4a d2 3b
       -0.0041627055 -0.026712557 0.04012109 0.006417628
0000c0 10 44 05 bb 75 af cf 3c 82 dc 67 3c 84 2f a0 3c
       -0.0020334758 0.02535222 0.014151694 0.019553907
0000d0 b2 79 f4 bc 70 92 58 3b 95 e6 70 bc 80 98 2c 3c
       -0.029843185 0.0033046268 -0.014703413 0.010534406
0000e0 8b 68 59 bc f8 2d 53 3d 03 93 e3 3c 71 7d 91 ba
       -0.013269554 0.05155751 0.027780062 -0.0011100007
0000f0 c0 fd a5 3c 16 9c d4 bc 9b f6 a2 3c 49 f7 88 3c
       0.020262599 -0.025953334 0.019892981 0.016719477
000100 44 14 38 3b f3 35 d8 3c 05 7d 91 bc 44 ca d8 3c
       0.002808825 0.026392912 -0.01775981 0.026463635
000110 4c 06 0f bd 92 d2 19 3c 21 f4 50 3c 96 bd 40 b9
       -0.034918115 0.009388583 0.012753517 -0.00018381173
000120 b6 fa a8 bc 26 51 6a bb 54 2e b6 bc 86 7f c7 3b
       -0.02062736 -0.0035753935 -0.022238888 0.0060882
000130 c3 bd 8e 3c 3a be 02 bd fc c1 b6 3b 76 34 2a bd
       0.01742447 -0.031919695 0.005577324 -0.041553937
000140 61 d9 15 bd a5 e6 d1 bb 7b 21 f7 bb 22 33 34 bc
       -0.03658426 -0.006405669 -0.007541833 -0.010998519
000150 bc ed 98 3c 51 3e d7 bc de 80 c8 bc ef c2 c7 bc
       0.018668048 -0.026274832 -0.024475511 -0.024384944
000160 10 f5 cd bc ee 4b 5f bc 2a 78 87 bc dc 16 ca bc
       -0.025141269 -0.013628943 -0.01653679 -0.024669103
000170 c2 f7 9c 3c 09 07 15 3d 55 e5 8d 3c 04 b8 fd 3c
       0.019161109 0.036383662 0.017321268 0.030971535
000180 0c e1 d7 3c 1a 09 bb 3c 98 cd 34 bc 1b fb 29 3c
       0.026352428 0.022831488 -0.0110353455 0.01037481
000190 21 ed 97 3c 9b e2 1a 3c d2 9a 20 3d 5e d1 b7 3c
       0.018545689 0.009453441 0.03921015 0.022438701
0001a0 60 4b d2 3b 17 56 33 3c ad 62 a3 bb 63 db 74 bb
       0.006417677 0.010945818 -0.0049861283 -0.003736221
0001b0 06 d0 af bc de b5 bb 3b 0c fb d1 3c 23 86 be bc
       -0.021461498 0.0057284674 0.025632404 -0.02325732
0001c0 11 68 b9 bc 8c 06 dc 3c 97 dd 1c bb 4d 2e ce bc
       -0.02263263 0.02685859 -0.0023935789 -0.025168562
0001d0 f7 aa b7 3c 17 55 06 bd 98 05 86 bc 30 48 db bc
       0.02242039 -0.03279599 -0.01636009 -0.02676782
0001e0 b5 0b 64 3c 31 d5 91 bc 12 03 e8 3b 2b 8f 91 3b
       0.013918807 -0.017801853 0.007080444 0.004442116
0001f0 65 fc 04 bc cc e9 a3 3c bf f4 78 ba d2 be 06 bc
       -0.008116816 0.020008944 -0.0009496919 -0.008224206
000200 9f e5 3f bb 6f d8 f2 bc 2e 15 0b 3c 96 0c e9 bc
       -0.0029281152 -0.02964422 0.008488936 -0.028448384
000210 fb 1e 0f 3d 81 21 65 bc 81 fc 53 bc a6 03 15 bd
       0.034941655 -0.013985039 -0.01293862 -0.036380433
000220 fe db 36 bc 06 26 89 bc a7 26 bf bc d9 e6 b7 3c
       -0.011160849 -0.016741764 -0.02333386 0.022448944
000230 fc fb 23 bc 0d c6 f2 bb 6b a2 97 bb 76 43 14 bc
       -0.010008808 -0.0074088634 -0.004627516 -0.009049287
000240 49 7b 9e bc 88 9b b7 bc 80 46 b5 bc 8d 06 a4 3b
       -0.019345896 -0.02241303 -0.022128344 0.0050056637
000250 66 67 18 3d 41 e9 eb 3b 70 3d 4d bc 27 3c 52 3c
       0.037207983 0.007199437 -0.012526855 0.012831724
000260 f9 0f c6 3c eb 91 cb 3b 33 00 26 3c 30 ce de 3c
       0.024177538 0.006212463 0.010131883 0.027197927
000270 ff ae af bc c1 db bf bc c5 cb 88 3b 59 ad ca 3c
       -0.02144575 -0.023420217 0.004174682 0.024740862
000280 ea 04 5a 3c 33 f1 1b bd b1 1e 9c bc 6b 20 a7 bb
       0.013306836 -0.038071822 -0.019057604 -0.0051003
000290 dc 01 16 bc 6c 5f be bc c4 13 74 3c f4 80 5d bc
       -0.009155717 -0.02323886 0.014897291 -0.013519514
0002a0 9f 09 de 3b 9d df d6 3c 2d b9 13 3d 09 58 41 bc
       0.0067760493 0.026229674 0.03606527 -0.011800774
0002b0 26 e7 5f bc 0f 98 ee 3c 7b 65 f1 3c 96 46 f4 3c
       -0.01366595 0.029125242 0.029467335 0.029818814
0002c0 17 81 25 bd c8 58 0e 3d 87 f5 2b bd aa d3 85 3c
       -0.040406313 0.034752637 -0.0419822 0.01633628
0002d0 92 c5 5e 3b 83 78 1d bd 9b 8c b5 bc b8 23 02 3d
       0.0033992273 -0.038445007 -0.022161772 0.031772345
0002e0 11 cd c5 ba 59 95 9b 3c f8 b3 82 3c 53 39 f0 bc
       -0.0015091022 0.018992113 0.015954956 -0.02932421
0002f0 25 18 b5 bc ac 9b 68 3d 89 4c 5f bc 49 f1 92 bc
       -0.02210624 0.056789085 -0.013629087 -0.01793732
000300 28 0c 40 3d f8 14 34 bc b2 36 06 bd bb b7 27 3d
       0.046886593 -0.010991327 -0.032767005 0.040946703
000310 ff 32 26 bc 31 1b 8a bd a7 5d 73 3b 22 a7 d5 3c
       -0.010143994 -0.067434676 0.0037134679 0.026080672
000320 1a 3f f5 bc 25 60 d6 bc 67 ea 2e 39 83 dc 39 3c
       -0.029937316 -0.026168892 0.00016681255 0.011344078
000330 e0 0f 86 bc db 06 c2 3c 53 4e fa 3b fa 40 2e 3c
       -0.016364992 0.02368491 0.0076387315 0.010635609
000340 3d 42 2e 3d f6 b0 8e 3c 8b 8f 58 bc c5 56 04 bd
       0.04254364 0.017418366 -0.013217817 -0.032309312
000350 38 c6 43 3b 48 73 6c bb 6c ee c0 3c 4a 25 f5 3a
       0.0029872786 -0.0036079455 0.023551188 0.001870313
000360 c9 f4 32 3d 85 72 11 3d 0f 40 d2 3c 04 82 12 3d
       0.043690477 0.035509605 0.025665311 0.035768524
000370 31 a5 95 3c 11 ee 43 bc cf e2 ae bc b4 b0 92 3c
       0.018267246 -0.011958615 -0.021348385 0.017906524
000380 4f 00 cd bb 25 30 35 3d 97 e9 bf 3c 14 00 ca 3b
       -0.0062561403 0.044235367 0.023426814 0.00616456
000390 ce 8a 6c 3c b7 60 a2 bb 82 a7 54 bc aa 2a 55 3c
       0.0144373905 -0.004955377 -0.01297939 0.01301066
0003a0 39 a2 90 bc 22 2a d7 3c ed 86 dc bc 9f 72 2c bc
       -0.017655479 0.026265208 -0.026919806 -0.010525375
0003b0 60 d7 f7 bc 6a 72 05 3c 7a 0c b5 bc 9b 35 ac bc
       -0.030254066 0.008144954 -0.022100676 -0.021021655
0003c0 64 f9 d4 3b b6 2e 37 3c c0 24 31 bc 25 db 40 bb
       0.0064994562 0.01118057 -0.010811985 -0.0029427495
0003d0 eb 72 b5 bc 6f 87 a0 bc 94 ef 0d 3b e7 d4 b3 bb
       -0.022149524 -0.01959583 0.0021657692 -0.0054880264
0003e0 c6 ff d9 bc 64 af 07 3d e7 36 ee 3c 09 70 be bb
       -0.02661122 0.03312625 0.029078914 -0.0058116955
0003f0 ee 68 3e 3b 24 12 6c 3b 7f b3 02 bd e7 e7 84 3c
       0.0029054242 0.0036021555 -0.031909462 0.01622386

layers1d.0.bias f4 [128]
000000 20 41 54 bd 93 3a ed bc 25 46 3d ba e8 cd c8 3b
       -0.05181992 -0.028958594 -0.000722023 0.0061280616
000010 7a bd 68 bc f2 60 8f bb cc 67 b7 bc 14 9c 07 bd
       -0.014205331 -0.0043755705 -0.022388361 -0.033107832
000020 8b 57 1e 3c 11 af 3c bc ef 3b 75 bc 25 81 12 3c
       0.009664427 -0.011516348 -0.014967903 0.008941923
000030 ae 19 15 3c 0d 5b 2e bc 2e 31 43 bc ab ec ca 3b
       0.009100361 -0.010641825 -0.011913581 0.006192764
000040 74 e5 d5 bc 9c e8 2b bc 3b 9c 42 3a 99 1a 1b bd
       -0.026110388 -0.01049247 0.0007423793 -0.037867162
000050 67 1d 13 bd a7 0e b7 bc 08 ff 64 bc 42 bf c1 bc
       -0.035916712 -0.022345854 -0.01397682 -0.02365077
000060 0f 97 f7 3b a5 a9 ed 3b 30 7e a2 3b 02 05 63 bc
       0.0075558494 0.007252889 0.0049588904 -0.013856174
000070 48 3a 3e bc 27 bb 3e 3c a1 9f 04 bd a6 5b 93 bc
       -0.011610575 0.0116413 -0.032378796 -0.017988037
000080 ce 42 93 bc ad 6d 2e 3c aa 64 df bb cd 3b 06 bc
       -0.01797619 0.010646266 -0.00681742 -0.008192969
000090 28 5c 17 bd 6b 3d 4b 3c 9e 55 b8 bc 38 af 89 bc
       -0.03695312 0.01240478 -0.022501763 -0.016807184
0000a0 7a 2c cf 3b 47 92 9e bc e3 21 fa bc 0b 6e 78 3c
       0.0063224407 -0.01935686 -0.030533737 0.015162955
0000b0 59 05 35 bd 2a 0c 82 bb 19 6d 82 bc ee 2f 91 bc
       -0.044194553 -0.003968735 -0.015921162 -0.01772305
0000c0 63 df 82 bb a6 49 c1 bc 57 2f 06 3c b8 7d 1a bc
       -0.003993915 -0.023594689 0.008189998 -0.009429388
0000d0 23 a1 ba 3b c8 89 05 bd 85 3c b2 bc 73 3c 0b bd
       0.0056954785 -0.0326021 -0.021757374 -0.033993196
0000e0 62 e4 d9 3a ee 38 0a bd ca 9f f8 bb bc 6a 79 3c
       0.001662385 -0.0337457 -0.0075874077 0.015223201
0000f0 7f 32 c0 bc 33 e1 9c 3c 50 9f c6 bb ee 2b d4 bc
       -0.023461578 0.019150352 -0.006061472 -0.025899854
000100 8f b7 c1 bc e5 66 8f 3b 3c fa 56 bc e2 ae 45 bc
       -0.023647098 0.0043762797 -0.013121184 -0.012065621
000110 0e df f2 bc 4b 71 64 bc 61 26 d8 bc 46 ab 8f bc
       -0.029647376 -0.013943027 -0.026385488 -0.017537724
000120 a5 bb fd bc c6 1e c7 bc 72 e8 e6 bc 41 bc 92 bc
       -0.030973265 -0.024306666 -0.02818701 -0.017912032
000130 46 7d d1 bc 3e 4e 4b bc 6c b8 0c bb fe 1e c2 bb
       -0.02557243 -0.012408791 -0.0021472229 -0.0059241047
000140 81 67 35 bc bb 45 01 bc 56 4e 03 bc bb ba d6 bc
       -0.011072041 -0.00789016 -0.008014282 -0.026212087
000150 dc 26 81 ba d0 ff 78 3c ef 08 80 bb 59 07 68 bc
       -0.00098535 0.015197709 -0.003907315 -0.014161908
000160 c8 f1 23 3b e3 a5 60 bc 59 de ca bc 21 91 f0 bc
       0.002501594 -0.0137114255 -0.024764227 -0.029366078
000170 39 6f 44 39 58 cd 47 3b da e1 1a bd 64 87 9d bb
       0.0001873345 0.0030487385 -0.037813045 -0.0048073996
000180 57 89 28 bd 4c bb 13 bd 19 c7 bf bc df 89 d4 39
       -0.041146602 -0.036067292 -0.023410367 0.00040538513
000190 fb 92 0a bd f0 fb 97 bc aa 63 5a 3c f3 91 da bc
       -0.033831578 -0.01855275 0.013329426 -0.026680922
0001a0 ee 7f 85 3c 7f 8e 8d bc 3f e2 2a 3c 82 b4 f6 bb
       0.016296353 -0.017279861 0.010429918 -0.0075288424
0001b0 e4 53 eb 3b c0 3b 68 bc b3 f4 a4 39 11 09 41 3b
       0.0071816314 -0.014174402 0.00031462833 0.0029454867
0001c0 82 9f 3a 3b 69 55 00 bd 07 ab 96 3c 69 1d 3f bc
       0.0028476422 -0.031331453 0.018392099 -0.011664727
0001d0 a1 9d 9d 3b 65 60 a8 3c ca 2f 1f bc 03 6b 87 bc
       0.0048100506 0.020553777 -0.009715984 -0.01653052
0001e0 b0 c8 91 bc 01 6a 15 bd b8 47 a4 3b 88 28 dc bb
       -0.01779589 -0.036478046 0.0050134324 -0.006718699
0001f0 18 48 dc bc da f5 40 3c 8f 2b ab bc 73 4f 54 bc
       -0.026889846 0.011777366 -0.020894794 -0.012958395

layers1d.3.weight f4 [128, 128]
000000 fd a6 91 bd c8 2e 3e bd a6 ef 6c 3c dd e3 00 3c
       -0.071119286 -0.046431333 0.0144614335 0.007866827
000010 41 53 2b bd 40 27 d2 3b e9 4d 83 bd 84 a1 a0 3c
       -0.041827444 0.0064133704 -0.064113446 0.019608267
000020 1e 5b 28 bd b5 c6 7c 3d 3e a3 b0 bc 05 d9 1b bd
       -0.04110252 0.06171294 -0.021562215 -0.038048763
000030 a4 fc f2 bd c6 b7 3f bd 74 4c 2f bd 02 c6 6a bd
       -0.118645936 -0.04680612 -0.04279752 -0.05731774
000040 b0 04 af bd 74 a9 11 3c f2 fc 4e bd 99 54 88 3c
       -0.08545816 0.008890498 -0.050534196 0.016641902
000050 25 34 a1 3b c4 59 c5 3d 33 ee 9b 3d 78 80 09 bd
       0.004919546 0.09636262 0.07613792 -0.033569783
000060 cf d8 65 bd 8d e6 d3 bd 6f ae 42 3d 3f 75 0d bd
       -0.056114968 -0.103467084 0.047529634 -0.034535643
000070 05 01 c0 3d 46 24 89 3d ca 89 90 bd e8 2f ba bd
       0.093751945 0.06696372 -0.07057531 -0.09091169
000080 3c da 09 3c 7a 7a ac bd 49 bc 6a 3d 7d 9d 68 bd
       0.008413848 -0.08421798 0.05730847 -0.056790818
000090 d0 9c c5 3d 0a 55 9a 3d 7e 66 eb bb 24 d8 e0 3b
       0.0964905 0.07535751 -0.007183849 0.0068617035
0000a0 77 bd 00 bd 6e da 58 3d 70 11 67 3d 83 e2 14 3d
       -0.031430688 0.052942686 0.056413114 0.03634883
0000b0 d9 25 c6 3d 99 5d 82 bd 8c 5c 14 bd 5b 0b 33 bd
       0.096751876 -0.063655086 -0.036221072 -0.043712
0000c0 33 2a 99 bd 7a c9 00 3d 99 99 43 bd 7b 47 05 bd
       -0.07478752 0.031442143 -0.047753904 -0.032538872
0000d0 a3 b2 15 ba e4 2f 74 bd ef d4 8d 3c f7 d8 69 3d
       -0.0005710518 -0.059615985 0.017313449 0.05709168
0000e0 24 42 2b 3a 89 a8 62 bc 2d e5 aa 3c 28 a7 9e bd
       0.0006532988 -0.013834127 0.020861233 -0.07746726
0000f0 62 91 f2 bc 53 c8 6f 3c 98 04 54 bd 7d 06 0f bc
       -0.02961034 0.014635163 -0.051762193 -0.008729574
000100 9f 29 b9 bc b9 85 33 3d 76 f4 c3 3d 91 ef 0d 3e
       -0.022602854 0.0438287 0.095681116 0.13860919
000110 96 da 21 bd 9a 22 da 3c 09 d5 11 bd 2c 27 aa bd
       -0.0395151 0.026627827 -0.035603557 -0.08308253
000120 79 1e 21 3b 17 7a b6 bd 10 27 03 bd a8 0d 0a bd
       0.0024584814 -0.089100055 -0.032019675 -0.03370443
000130 5c 11 ad 3d 8d 60 55 bd 8f c8 c7 3d 3c bc 26 3d
       0.08450577 -0.05209403 0.097550504 0.040706858
000140 f4 79 4d bd da a2 19 3d 60 a9 9a 3d 0c 52 70 bc
       -0.05016513 0.037508823 0.07551837 -0.014667999
000150 3d d0 b0 bc bd 0a 89 bd d2 ab 3c bd fc e8 bc bd
       -0.02158367 -0.06691501 -0.046062298 -0.09224126
000160 bc d3 b5 bd fd a6 40 bd 64 84 91 bd bd 1f 87 bc
       -0.08878276 -0.047034252 -0.0710533 -0.016494626
000170 73 94 47 bd b9 ee 78 bc 31 94 40 bc 03 7e a5 bd
       -0.048725557 -0.015193635 -0.011754082 -0.080806755
000180 18 7f fc 3c cd c1 72 bd 55 ef f0 bb 50 15 b6 3d
       0.030822322 -0.059266854 -0.0073527494 0.08890784
000190 86 41 99 bb 05 f5 82 bd 14 57 c4 3d 9b 18 90 3d
       -0.0046770005 -0.0639439 0.09586921 0.07035943
0001a0 78 34 98 bd 37 2c a8 bc e6 05 b2 bd a5 bb 93 3c
       -0.074318826 -0.020528896 -0.08692531 0.018033812
0001b0 a0 fc 0e bc 20 d3 6d bd 72 57 64 bb 10 f9 a0 3c
       -0.008727223 -0.058062673 -0.003484216 0.019650012
0001c0 3c 4b 35 bd 95 97 b8 bc a9 2d 86 3d 35 18 9c bd
       -0.044261202 -0.022533217 0.06551678 -0.076218046
0001d0 cf 05 81 bb b9 41 57 bc 86 94 7f bc ad a1 64 3d
       -0.00393746 -0.013138228 -0.015599376 0.05581825
0001e0 1e 96 0d be 2b 46 0f 3d 16 3f 77 bb 6f df ff bd
       -0.13826796 0.034979027 -0.003772681 -0.124937885
0001f0 e1 bc 99 3d 08 78 28 bd df 1c af bd ab 28 43 bd
       0.07506729 -0.041130096 -0.085504286 -0.047646206
000200 6b df b1 3d 7b 39 b8 bd 93 25 94 3d 37 fe 03 be
       0.08685192 -0.089953385 0.07233729 -0.12889944
000210 28 e8 1f bd 22 ec 88 3d f4 aa 9a 3d 59 7b eb bd
       -0.03903976 0.06685664 0.07552138 -0.11498136
000220 59 4f 7d 3d bb 3c 39 bd 02 3f 5b bb b3 76 62 bd
       0.06184325 -0.045223933 -0.0033454304 -0.05528898
000230 06 36 a1 bc ff 9e e8 3c 6b 54 88 bc 38 7e 91 bd
       -0.01967908 0.028396128 -0.016641816 -0.071041524
000240 73 7f 6c 3c ba c5 39 bd b0 9f 9d bd 66 b2 a7 3b
       0.014434683 -0.045354582 -0.076964736 0.0051177023
000250 4c 61 d5 3c 42 0b a2 bc 69 33 1d 3d ca 16 c9 3c
       0.026047371 -0.019780759 0.038379107 0.024547
000260 41 11 88 bd cd 0a 53 bd 29 1f d5 bd d6 e3 e4 3d
       -0.06643916 -0.051523972 -0.10406334 0.11176269
000270 de 7d e8 bd 60 7c 45 3b 27 95 82 3d c2 a0 8c 3d
       -0.11352132 0.0030133948 0.06376105 0.068665996
000280 8c 46 3e 3d 38 77 03 3d e9 ce 8b bd 4b 27 00 bd
       0.046453997 0.032096118 -0.06826574 -0.031287473
000290 37 c7 f7 bd e9 aa 04 3d df 29 6e bd 24 b6 e3 bc
       -0.12098544 0.032389555 -0.0581454 -0.027796812
0002a0 2d 73 84 bd 67 82 a9 bd 89 54 4a bd cf 02 c2 bb
       -0.064672805 -0.082768254 -0.049397025 -0.005920745
0002b0 c6 97 32 3d f6 41 02 bd 9c 2b 07 bd b4 39 60 3d
       0.043601774 -0.031801187 -0.033000574 0.05474253
0002c0 4d 38 3b bd dc cc a1 3c e7 e8 c5 bd c1 a0 45 3d
       -0.04570799 0.019751005 -0.09663563 0.04824901
0002d0 8b 7e 42 bd 15 23 a8 3d 10 59 4d bd 80 3b 18 bc
       -0.047483962 0.08209816 -0.050133765 -0.00929153
0002e0 eb a3 e9 bb 1a ad 29 bd d6 89 7c bd c9 f1 c8 bb
       -0.0071301362 -0.04142485 -0.061654888 -0.0061323387
0002f0 15 ef b2 bd 6a c5 26 3d 4d c8 c3 3d 68 c1 bc bc
       -0.087370075 0.040715612 0.09559689 -0.023041442
000300 60 28 c6 3c 33 e4 a6 bc e5 36 92 bc 86 b0 31 bd
       0.024189174 -0.020372486 -0.017848441 -0.043381236
000310 8e 02 41 bd be 2e 28 bd 5b 9a 8e 3c 02 f3 68 bd
       -0.047121577 -0.0410602 0.017407587 -0.056872375
000320 d9 d6 20 bc 19 da 4d bd a5 68 8d 3d 28 fd 51 bb
       -0.009816849 -0.050256822 0.06904725 -0.0032041762
000330 10 58 5d 3d 5b 65 e0 bd c2 18 f7 bb 06 fb d6 bd
       0.05403906 -0.10956832 -0.007540793 -0.10497098
000340 a8 32 6e bd 06 44 11 bd 17 73 4a bc a6 63 b4 bd
       -0.05815378 -0.035465263 -0.012356541 -0.08808069
000350 0c 00 e0 bc 99 4f a5 bc 28 d7 3c 3d 48 a2 8e 3d
       -0.027343772 -0.020179557 0.046103626 0.069645464
000360 98 ba 88 3c c6 ab 80 3d 12 16 73 bd c7 40 3b 3c
       0.016690537 0.06282763 -0.05934722 0.011429018
000370 0a 24 ce 3d 2a 12 e8 bd 32 cc d8 bd 9e 47 dd bd
       0.10065468 -0.113315895 -0.10585822 -0.108046755
000380 69 9a 1b 3d 90 f7 9b 3d d6 da 08 3d 7e 72 97 bd
       0.037989054 0.07615578 0.033411823 -0.073948845
000390 5b 02 7e bd ee 77 ff 3c 80 7f 69 bd 31 31 2b bd
       -0.062013965 0.031185117 -0.05700636 -0.04179496
0003a0 34 ad 5c 3c ea ba d3 bd dd de f4 3d ec 45 20 bb
       0.013469029 -0.103383854 0.1195657 -0.002445574
0003b0 58 cd ae 3c 2c 0c 42 bd b9 e6 c1 3d 8e 1b cf 3d
       0.02133815 -0.04737489 0.09467835 0.101126775
0003c0 9f 63 2d 3d 79 12 a3 3d ea b6 59 3d a5 3b ad bd
       0.042331334 0.07962508 0.053152956 -0.08458642
0003d0 38 12 cd bd f9 76 c2 3c c1 8d 02 bd 40 79 89 bd
       -0.100132406 0.023738371 -0.03187347 -0.0671258
0003e0 8b 23 aa bc 52 b6 aa 3d 79 4f 00 bd 59 05 83 bd
       -0.020768901 0.08335556 -0.03132579 -0.06397504
0003f0 03 af 5f 3c 69 cf 4f 3c f7 d5 e7 3c 27 53 a6 3c
       0.013652566 0.012683728 0.028300269 0.020303322

layers1d.3.bias f4 [128]
000000 37 4d fd 3c 28 f4 19 3d 0d 29 f3 3c 50 21 49 3d
       0.030920608 0.03758636 0.02968266 0.049104035
000010 13 a4 12 3c 2e 2b 29 3d 67 1b 12 bd ef 87 14 bc
       0.008950251 0.041300945 -0.035670664 -0.009065612
000020 6d f7 07 bd 58 84 4c bd 38 e3 ca 3c 50 8a 22 bd
       -0.033194948 -0.0499309 0.02476655 -0.039682686
000030 7c bb 0e 3d 9f c7 50 bc 85 13 bb bc 99 66 0f 3d
       0.034846768 -0.012742906 -0.022836456 0.035009954
000040 04 25 d5 39 36 b2 79 bc ea f8 b1 bc 59 1a c4 bc
       0.00040654105 -0.015240243 -0.021725137 -0.023938345
000050 98 4d af bd 4d b8 01 bc f0 9e 16 3c 14 2d eb 3c
       -0.08559722 -0.007917476 0.009193167 0.028708018
000060 22 06 13 3d 80 2d 3e bd 04 ff dd 3c aa 42 97 3c
       0.03589452 -0.04643011 0.02709914 0.018464405
000070 06 2f ae b9 57 97 5a 3d 29 05 89 bd 25 08 7a 3d
       -0.000332229 0.053366985 -0.06690437 0.061042923
000080 51 f9 87 3d 7a 3d 06 3c 88 24 1f ba 91 41 43 3d
       0.0663935 0.008193368 -0.0006070812 0.04766995
000090 3d 00 41 3d 48 38 8c 3d 56 c1 15 3d 73 7e 09 bd
       0.047119368 0.06846672 0.036561333 -0.033567857
0000a0 b9 ca 2f 3d 7f 34 b3 3d 5e 9d 74 bc 0d 0a d5 3b
       0.04291794 0.08750247 -0.014930097 0.0065014423
0000b0 82 5b f8 3c 33 91 97 3d 8f ed 13 bd 8b 0d 9b 3c
       0.030317072 0.074007414 -0.036115225 0.018927356
0000c0 7b f8 76 bd 9b fe 26 bd 0e 90 e9 b9 fd fd 8c ba
       -0.060295563 -0.040770154 -0.00044548552 -0.0010756847
0000d0 6c 2c 7e bd ab e3 46 3d b1 22 ca 3c 28 a5 cb 3c
       -0.062054083 0.048556965 0.024674745 0.024859026
0000e0 c2 cd 85 bc 63 3d c9 3b 20 bb f9 ba 95 40 38 3d
       -0.016333465 0.006141351 -0.001905296 0.044983465
0000f0 88 05 df 3c cc 0f ae 3c f5 f2 28 3d 5a 0e dc bc
       0.027224317 0.021247767 0.041247327 -0.026862312
000100 5c 2c 12 3d 92 61 26 bd 48 b9 cb bc a7 cd 0c 3d
       0.035686836 -0.040620394 -0.024868622 0.034375813
000110 cc 5d 8b 3c 12 1b be 3c 79 e3 80 bd c6 a7 18 bd
       0.0170125 0.023206268 -0.06293387 -0.037269376
000120 54 b0 8b bc 0a b9 ab bc b7 fa 2f 3c aa 43 15 bd
       -0.017051853 -0.020962257 0.010740927 -0.036441483
000130 e7 06 be bc 62 76 01 3c 2f 18 51 bd 2c 63 e3 3c
       -0.02319665 0.00790176 -0.051048454 0.02775725
000140 4b df 7e 3d 3a 37 b2 3b 44 38 d7 bc fd 95 4d 3c
       0.062224668 0.0054387124 -0.026271947 0.012547967
000150 6e fa 60 ba 9d 90 4e bd 44 46 1e bd 6a 58 90 3a
       -0.0008582239 -0.050430883 -0.03864123 0.0011012678
000160 f6 9f 10 bd c2 1d 19 bd 58 50 28 bd cc c5 7e 3d
       -0.0353088 -0.037381895 -0.041092247 0.062200353
000170 09 37 08 3d f8 81 36 3c b8 7a fb 3c 18 e5 77 bd
       0.03325561 0.011139385 0.030698165 -0.060521215
000180 ad b3 01 3d ae e6 61 bc fc fa 00 3d 54 17 93 3d
       0.031665493 -0.0137879085 0.031489357 0.07182184
000190 12 c6 0f 3d 55 53 3a bd d3 49 52 3b 16 10 19 bd
       0.035101004 -0.045489628 0.003208746 -0.037368856
0001a0 d6 5a 09 bd 04 ae ab 3c a3 ae da bc 67 19 67 3c
       -0.033533894 0.020957 -0.026694601 0.0141051775
0001b0 85 bb a5 bd 69 0d 5b 3d cc 20 5d 3d 68 c5 45 3a
       -0.08092407 0.053479586 0.053986356 0.00075443694
0001c0 12 4e 71 3d a6 01 86 3d 10 3e 4e 3d ec b0 dd 3c
       0.058912344 0.06543283 0.050352156 0.027061902
0001d0 f5 5b 1d 3d 06 fd 70 bd 23 de b2 bc e4 f6 62 bd
       0.038417775 -0.058835052 -0.021834439 -0.055411234
0001e0 47 32 3a 3d 91 b4 0e bd 29 22 1a bd 57 b1 d3 3c
       0.045458104 -0.03484017 -0.037630234 0.025841398
0001f0 af f2 43 bd b2 3c a4 3c e5 ec 0c 3d b2 5f 1c bd
       -0.047838863 0.020048473 0.034405608 -0.0381772

combined.0.weight f4 [64, 128]
000000 6b c6 aa bc 04 82 81 3d d7 72 9a 3a 98 8e b8 bd
       -0.020846566 0.06323627 0.0011783493 -0.090115726
000010 6f fe dc bd d9 94 80 3d 46 f5 d5 bc b4 1d fa 3b
       -0.10790717 0.062783904 -0.026117932 0.0076329354
000020 7d 8e 53 bc a0 ec cc 3c 1e 0b 77 3d f8 86 bb bd
       -0.01291239 0.025015175 0.060313337 -0.091566026
000030 99 b5 dc bc 1c 77 1b 3c 57 51 62 3d 2f d7 02 bd
       -0.026942061 0.009488847 0.055253353 -0.031943496
000040 91 23 b5 bc 2a 43 c4 3d e1 cc 94 bb 2a 2b ba bd
       -0.022111686 0.09583123 -0.004541025 -0.09090264
000050 a6 4f 97 3d 54 51 82 3d ff 26 8f 3d 5e 69 85 3d
       0.073882386 0.06363168 0.0698986 0.06514238
000060 ee f4 8f bd c2 45 c1 3d 3a 48 b2 bd b3 8b cf bd
       -0.070291385 0.09437133 -0.087051824 -0.101340674
000070 d5 94 8c bd 1a 34 33 39 2b 9c a0 3c 4d c6 01 3e
       -0.06864325 0.0001709018 0.019605717 0.12673302
000080 2b e7 1f 3d 18 03 68 3d 53 53 a5 bd 46 e4 ad 3b
       0.03903882 0.056643575 -0.080725335 0.0053067533
000090 50 c4 95 3d a8 ed a2 3d 42 8a f7 bc 5b 80 04 3a
       0.07312834 0.079554856 -0.030217294 0.0005054527
0000a0 84 9a d9 3c 5c 10 77 3d 4d 4d b0 3c e0 2d db 3d
       0.026562937 0.060318336 0.021521235 0.10702109
0000b0 42 81 c1 3d c5 4e 11 bd 48 89 2d 3b 38 d5 ce bd
       0.09448482 -0.03547551 0.002647953 -0.10099262
0000c0 23 1c 5b 3d 74 93 d0 bd 0f a1 d4 bc 88 d2 8b 3d
       0.05349363 -0.101843745 -0.025955705 0.06827265
0000d0 39 7c 93 ba 46 f5 af 3a af 45 79 bd 95 85 2c bc
       -0.0011252231 0.0013424538 -0.06085747 -0.010529895
0000e0 f9 e5 52 bd 8a ca a4 3b 6e f1 87 bb ca f5 b1 bd
       -0.05148885 0.0050290274 -0.0041486537 -0.08689459
0000f0 62 6e 37 bd 83 ec cc bd 61 9b d9 3c 31 ae 7a 3d
       -0.044783004 -0.100060485 0.026563348 0.061201278
000100 46 99 47 bd b3 40 2a bd c9 71 a6 3d ff 7e c6 3d
       -0.048730157 -0.04156561 0.081271715 0.09692191
000110 cc 1d 54 3d 96 22 5d 3d 67 fa 00 3d 99 ab e3 3d
       0.05178623 0.05398806 0.031488802 0.11116714
000120 85 37 5f bc 91 07 e2 bc dc 7e 6c bc 9e 90 cc bd
       -0.013624077 -0.027591499 -0.0144345425 -0.09988521
000130 c3 4b e0 bd 60 37 04 bd 90 7b 8f 3b 1a be 5e bd
       -0.109519504 -0.032279372 0.0043787435 -0.054380514
000140 bc 3d 2c bd fc 5e 14 bc 94 57 55 3d 24 63 a6 3d
       -0.042051062 -0.009055849 0.052085474 0.08124378
000150 59 8b fb bc 91 cc aa ba 90 54 26 bd c9 d7 5f bd
       -0.030706095 -0.0013030936 -0.04060799 -0.054649148
000160 c6 a8 2d 3b 9e 4b a8 3d 03 eb 01 bd 03 eb 3d 3b
       0.0026498302 0.08217548 -0.031718265 0.002897919
000170 af 09 40 3d 02 34 b8 3d 6e d5 cf 3d 91 d9 19 3d
       0.046884235 0.08994295 0.1014813 0.037561003
000180 e3 5a c2 bc e2 8b 9f 3c 86 cb 28 3d 69 26 f0 bc
       -0.023724979 0.019475881 0.04120972 -0.02931519
000190 12 3a 3e bd ae de 76 3d 48 60 01 3d 8a b9 29 bd
       -0.0464421 0.060270958 0.03158596 -0.04143671
0001a0 b6 44 b3 3d ce af d1 bd f4 da 38 bd 34 d4 24 3d
       0.0875334 -0.1023861 -0.045130685 0.040241435
0001b0 c9 03 73 3d 38 2e c5 3d 04 35 4a 3d 94 f7 83 bd
       0.05932978 0.09627956 0.049366966 -0.06443706
0001c0 1e a0 79 3c 49 b6 9d bd e9 cf c2 3d 7e b8 59 3d
       0.015235929 -0.07700784 0.09512312 0.05315446
0001d0 d6 af 96 bd 01 3d 53 3d 34 f3 a9 3c 0a 26 d8 bc
       -0.07357757 0.05157185 0.020745851 -0.026385326
0001e0 b9 b8 34 bd cb e7 9a bc c4 24 15 3b 9c ff 33 3d
       -0.044121478 -0.018909356 0.002275751 0.04394494
0001f0 9a 17 b4 bc df 57 dd bc 32 2b f5 3c 48 c6 15 3d
       -0.02198391 -0.02701944 0.029927824 0.03656605
000200 c3 15 be bc 65 3f 17 bd fd a8 b2 bd 1a d3 90 3c
       -0.023203736 -0.036925692 -0.08723638 0.017678786
000210 d2 2a b8 bd d0 d1 a0 bd a7 99 c9 bc 61 77 ef 3a
       -0.08992542 -0.078525186 -0.0246094 0.0018269831
000220 fa 25 4c bd e3 99 81 bd d8 72 f2 bb aa f3 42 bb
       -0.049840905 -0.0632818 -0.0073989443 -0.0029747286
000230 ef 00 12 3e c1 eb cb bd fd cb 4b bd 24 30 4c 3c
       0.14258169 -0.09957076 -0.049755085 0.0124626495
000240 7a ae eb bc 2f f2 f6 bc f4 ee db 3c 9d eb ba bd
       -0.02876972 -0.030144779 0.02684734 -0.09126971
000250 5a 47 a5 bd 3f f3 8c 3d 92 aa 10 3c 97 e4 8e 3c
       -0.0807025 0.06882333 0.00882973 0.017442985
000260 a4 5e 4e bd 48 9c 9b 3d eb 83 3e 3c a2 73 02 bc
       -0.050383225 0.07598168 0.011628131 -0.007962139
000270 bd 2c 1e 3c cd 76 b0 bc 4a d2 6f bc 8f 6d a4 3a
       0.009654221 -0.021541024 -0.014637539 0.0012544858
000280 9a dc 44 bc bc 0a eb bc 88 a9 03 bd 53 af 87 bd
       -0.012015486 -0.028691642 -0.0321441 -0.06625237
000290 68 4b 22 3d f8 56 1e bd af 60 f1 b9 5a 5f 82 39
       0.039622694 -0.03865716 -0.00046039137 0.00024866575
0002a0 9f 34 8f 3d fb e2 c2 3d 98 5b 9c 3d 4f 01 a8 3d
       0.069924586 0.09515949 0.076346576 0.082033746
0002b0 48 e3 4d bd e3 ae 8e 3c 87 f6 f5 3d 60 a1 a8 3c
       -0.05026558 0.017417377 0.12009912 0.020584762
0002c0 a2 6c 35 bd 1b 98 c0 bc 1a ae f6 3d 29 e5 d2 bd
       -0.044293053 -0.02351003 0.12044926 -0.10297615
0002d0 72 03 84 3d e9 c1 82 3d fc 88 03 bd 91 ab 7b bd
       0.0644597 0.06384642 -0.03211306 -0.061442915
0002e0 97 50 c1 3c 87 8b ac bc 9f 5f d0 bd c8 ba be 3a
       0.023597999 -0.021062626 -0.10174488 0.0014551515
0002f0 53 0e 03 bc b4 fe 5c 3c 19 78 31 3c c7 24 34 3d
       -0.007999021 0.01348846 0.010831856 0.043980386
000300 6a ec bd 3a 01 a5 ec bd 0e 48 4e bd e1 dc 31 3c
       0.0014490013 -0.115549095 -0.050361685 0.010855884
000310 d4 fb 70 bd ab e3 bf 3c aa ac 3d bb 49 e5 96 3d
       -0.058833912 0.02342399 -0.0028942027 0.073679514
000320 91 62 c8 bc eb 06 51 3d e1 07 8f 3d a1 d9 62 bc
       -0.024461063 0.051031988 0.06983925 -0.013845832
000330 b6 a6 4a 3d 9e 97 0c bd ac 4e ce 3c 6d b8 2b 3c
       0.049475394 -0.03432428 0.025183998 0.010480982
000340 ab ae 5b 3d d5 3d 2d 3d f4 8a 19 bb 38 8d ce bc
       0.053633373 0.042295296 -0.002342877 -0.025213823
000350 1b f5 a8 bd 41 47 74 bd 65 89 5b 3c 64 56 1e 3b
       -0.08249875 -0.059638266 0.013399457 0.002416038
000360 7f 99 9a 3d 5f 14 80 bc 58 e0 33 bd 3c 93 8a bc
       0.07548808 -0.015634714 -0.043915123 -0.01691591
000370 2a 5c 87 bd c6 bf c5 bc 55 7e 23 bd 34 65 d1 bb
       -0.06609376 -0.024139296 -0.0399154 -0.006390238
000380 dc 6a 56 3d cb 39 93 3d af 30 32 3d c1 f1 2d bd
       0.052348003 0.071887575 0.04350346 -0.042466883
000390 90 29 a2 3d 64 73 15 3d b9 e6 80 bc 0c eb 76 3d
       0.07918084 0.036487 -0.015735017 0.060282752
0003a0 1e ba 34 bd 10 6b 52 3b d7 aa 40 bc 76 61 32 3d
       -0.044122808 0.0032107271 -0.011759481 0.043549977
0003b0 a9 e4 09 3d 61 3f 89 3d 6d 2a b1 bd 80 88 b9 3d
       0.033665333 0.06701542 -0.0865067 0.090592384
0003c0 62 36 ba bd c4 5b bd 3c f9 26 d4 3c 3c 5c fd 3c
       -0.09092404 0.023115046 0.02589749 0.03092777
0003d0 de e9 c9 bc 5a 56 a1 bc d6 7c 36 3d 9c f3 51 bb
       -0.02464765 -0.019694496 0.044552647 -0.0032036072
0003e0 3b 07 0b bd f7 4c bf bd ba 8f 6b bd 16 13 9c bd
       -0.033942442 -0.09340852 -0.057510115 -0.07620828
0003f0 5d 93 78 3d 2a 7d b8 bd 3f 20 5e 3d 6b de 79 3d
       0.06068741 -0.09008248 0.05422997 0.06100313

combined.0.bias f4 [64]
000000 4e 2e a0 bb 6e db 6e 3d 59 f3 62 3d c4 76 be 3a
       -0.0048883324 0.058314733 0.055407856 0.0014531245
000010 59 ea c4 bb 4e 1b 1d bd 79 20 b7 3c 9f ef 79 bd
       -0.0060093817 -0.038356118 0.022354351 -0.061019536
000020 80 35 1c 3d 15 45 2b 3d 83 35 8d 3c 4f 93 1b 3d
       0.03813696 0.04181393 0.01723743 0.03798228
000030 94 46 2b 3d f1 75 22 3c 7d a9 67 bc 31 3f 19 bd
       0.041815355 0.009915815 -0.01413953 -0.03741378
000040 f6 e2 3c bc 1a be dd 3c fc c8 9c bc 69 4f 98 3c
       -0.011528721 0.027068187 -0.019138806 0.018592553
000050 98 cf b6 3b 44 df a4 3c c9 19 f3 bb da c4 a2 3c
       0.0055789463 0.020125993 -0.0074188453 0.019869257
000060 f3 4a b6 bc 0c 38 3e bd 2d ae 04 3d 27 b6 11 3d
       -0.022252535 -0.04644017 0.03239267 0.035574105
000070 1c cd 46 3c 89 e6 8b bc 1a 06 f6 bc cd bb 9c 3d
       0.012133863 -0.017077701 -0.030032206 0.07653008
000080 46 a2 89 3d 47 88 14 bd 8b d5 53 3d 40 c2 ed ba
       0.06720404 -0.036262777 0.051717322 -0.0018139556
000090 09 e6 d7 3c 5f b7 98 bc ab 09 54 3c 08 59 cd 3c
       0.026354806 -0.018642126 0.012941758 0.025066867
0000a0 e7 58 69 3d 7b 7a a3 3d 2c 95 c4 3c 02 af 81 3d
       0.05696955 0.07982346 0.023996912 0.06332208
0000b0 ee 53 44 3d a8 8a ce bc dd ab ca bc b9 a5 46 3d
       0.047931604 -0.0252126 -0.024740154 0.04849789
0000c0 e6 fc 9c 3c f7 29 da 3b f0 8c 86 bb db a4 9f 3b
       0.01916356 0.0066578346 -0.0041061565 0.004871947
0000d0 96 46 b7 3d a2 05 8d 3d 19 76 9b 3d 58 ef 4e 3d
       0.0894901 0.0688584 0.07590885 0.050521225
0000e0 11 9a 5c bd 31 27 05 3d ea 25 14 bd 7b a4 33 3d
       -0.053857867 0.03250808 -0.03616897 0.043858033
0000f0 4e ce f2 bc d7 1c e8 bc cb 1d cd 3c 3b 06 58 3d
       -0.02963939 -0.028334064 0.02503862 0.052740317

combined.3.weight f4 [64, 64]
000000 7a 84 14 3e 54 30 ad 3d 95 fe 30 bc 34 db 42 bd
       0.14503661 0.084564835 -0.010802885 -0.04757233
000010 07 ab 19 be 74 73 1a bd 81 da 47 bd 36 45 75 bd
       -0.15006648 -0.03770776 -0.048792366 -0.059880458
000020 4e b0 8f 3b 43 c0 bf bd be 59 3d bd c2 a1 eb 3d
       0.004385031 -0.09362843 -0.046228163 0.11505462
000030 8e 19 83 3d aa 75 84 39 02 70 9b bd 7b a6 7b bd
       0.064013585 0.00025264669 -0.07589723 -0.061438065
000040 b6 17 de 3d a1 7c 3f 3c 44 30 29 bd e0 de 22 bd
       0.10844366 0.011687429 -0.041305795 -0.03976333
000050 73 c0 a3 bc d5 fa fd bd 71 43 f7 bc 99 79 b5 3d
       -0.019989228 -0.12401358 -0.030183526 0.088610835
000060 6d 15 8d bc 65 eb 15 3c 27 f5 27 3b cd 26 07 be
       -0.01722213 0.009150361 0.00256283 -0.13198395
000070 5b 8e 5c bd 6a 89 cd bc e6 69 5a 3d de 1d 20 3d
       -0.0538467 -0.025089938 0.05332365 0.039090984
000080 d4 62 90 bb 68 74 b7 bc ef 0f 1f 3d f9 1d b7 3b
       -0.0044063125 -0.022394374 0.038833555 0.00558829
000090 4a eb ac 3d b2 6a 4f bd 0b 7f 96 3d 3a 87 59 bd
       0.08443315 -0.050638862 0.0734845 -0.053107478
0000a0 db 7c f0 bc da 21 f3 bc 2f 51 7f bd e9 fc d3 bc
       -0.02935641 -0.029679228 -0.062333282 -0.025877433
0000b0 40 87 d5 bd bb 65 ad 3c 66 5a a1 bd e9 e9 f7 bb
       -0.104261875 0.021166673 -0.0787857 -0.007565726
0000c0 5a 62 05 3e 2d e6 14 bd 56 f6 b3 ba fd 40 a9 bd
       0.130258 -0.036352325 -0.001373003 -0.08264349
0000d0 2a bd e0 bc 20 ab 07 be 46 84 57 3d 12 b3 0d bd
       -0.02743395 -0.13248873 0.05261638 -0.034594603
0000e0 2a f5 c9 bd 90 6e 8b 3d ec fa a4 3d ad 46 df bd
       -0.098612145 0.068081975 0.08055672 -0.10902152
0000f0 96 bd 7d bd e9 b1 c9 bc 64 23 68 bd df 38 6e 3d
       -0.06194838 -0.024620967 -0.056674376 0.058159705
000100 b5 55 5a bd 36 92 45 3d ff 48 17 3d 63 fc 43 3d
       -0.053304393 0.04823514 0.03693485 0.047848117
000110 b6 ab b5 3d e3 06 e1 3d 2c d7 93 3c 80 90 04 3d
       0.08870642 0.10987642 0.018046938 0.03236437
000120 65 c1 7f 3d 09 13 1b 3e ba 41 d9 3c 51 c8 0f be
       0.062440295 0.1514398 0.026520599 -0.14041258
000130 ec 60 4d 3d 58 3b 6f bd 8e 73 f7 bc b0 58 07 3e
       0.05014126 -0.058406204 -0.030206468 0.13217425
000140 e2 4e de bb a5 75 b5 3c 8a 54 7e 3d 2e 0c 0d 3d
       -0.006784306 0.022150824 0.06209234 0.034435444
000150 69 27 ab 3c a0 62 4f 3b fd 3d 7d bd 8d b3 ae bd
       0.020892816 0.0031644478 -0.061826695 -0.0853034
000160 03 5e 4b bd 4f 62 3b 3d a5 7a 09 be 76 a7 e7 3d
       -0.049650203 0.04574805 -0.13425691 0.113112375
000170 2f 4f 8d bb 79 ac 23 3c d0 8f ed 3c 85 5e 58 bd
       -0.004312418 0.009989851 0.02899924 -0.052824516
000180 32 8b 55 bd 53 29 c5 3b c9 3c d5 3a 8f dd 9b bd
       -0.0521347 0.006016889 0.0016268726 -0.07610618
000190 02 60 04 3d 07 50 db bb c0 03 b5 3c 79 4f 14 bd
       0.032318123 -0.0066928896 0.022096515 -0.036208604
0001a0 0d 5e 17 be d9 90 53 bd c6 4a c1 bc 9a ed 09 3d
       -0.14781971 -0.05165181 -0.023595225 0.03367386
0001b0 97 d3 1c bc 4a e8 03 3e 54 2b 19 3e 54 d0 e1 bd
       -0.009571931 0.1288158 0.14957935 -0.110260636
0001c0 c6 e3 c0 bc 8d d3 4c 3d 6b 94 80 3d 06 76 c7 3d
       -0.02354611 0.050006438 0.062783085 0.09739308
0001d0 67 ff 28 be 8c 3c 8b 3d bf 70 9f 3c a1 52 99 3d
       -0.16503678 0.06798658 0.019462941 0.07486463
0001e0 e8 0d 85 bb 73 94 45 bd a8 15 dc bc 89 05 2e 3d
       -0.0040604956 -0.048237275 -0.026865795 0.042485747
0001f0 a8 e7 0c be ca 3f 3d 3d fb a1 09 bd 04 d2 dc 3c
       -0.13760245 0.046203412 -0.033601742 0.026955612
000200 80 7c b7 3d 1e 96 65 bd 9a 87 aa bd 96 9f a9 bd
       0.08959293 -0.056051366 -0.08326645 -0.08282392
000210 5c 85 fb 3c f7 5c 4a 3b 4f 74 61 3d 0f ae ee bd
       0.03070324 0.0030878165 0.05504256 -0.11654293
000220 c6 55 97 bd 28 c9 1e be 68 95 b6 bc a5 d3 b3 3d
       -0.07389407 -0.15506423 -0.02228804 0.08780602
000230 01 53 bb 3d 4a 24 34 3d c4 9f db 3b c8 cd da bd
       0.09146691 0.04397992 0.006702395 -0.10683781
000240 af ff a9 3d 30 88 a4 bd 28 31 27 be 49 ce 7d bd
       0.08300721 -0.08033788 -0.16327345 -0.061964307
000250 7a 77 6c 3d c9 4b 31 3d 4a 59 88 3c fe 52 e3 bd
       0.05773113 0.043285165 0.016644139 -0.11099814
000260 68 e2 d4 bd 75 41 77 3d cd 6a 3a bb 6d f1 8b bb
       -0.10394746 0.06036516 -0.0028445006 -0.0042707236
000270 99 5d da 3d e5 fb 51 3d a3 29 3d 3d 82 32 3c bd
       0.106623836 0.051265616 0.046182286 -0.045946606
000280 e5 01 90 bd dc 2e aa 3d c1 6e 4e 3d 94 f7 0d be
       -0.07031611 0.08309719 0.050398592 -0.13863975
000290 a1 d6 01 be 5a 9a 03 3d f8 bc 41 3d d8 63 bb 3d
       -0.1267953 0.032129623 0.047299355 0.09149903
0002a0 dc 10 e9 3c 40 c9 bf bd f1 31 af bd a2 9b ab 3d
       0.028450422 -0.09364557 -0.085544474 0.08379294
0002b0 f3 79 3d 3d b0 2e 3a bd 48 ed ec bd 2c 87 c3 3d
       0.046258878 -0.04545468 -0.11568695 0.09547266
0002c0 59 f9 ce bb 14 01 61 bd 86 04 a5 bd bf 04 03 be
       -0.0063163457 -0.05493267 -0.080575034 -0.12794779
0002d0 5d f4 82 bb 8a 90 81 3d 97 41 f2 bc fd 9f 8f bd
       -0.0039964155 0.06326397 -0.029572291 -0.07012937
0002e0 7b 8e 0d be 27 1c aa 3d b9 12 c7 bc f9 7f b4 bd
       -0.13823883 0.08306151 -0.02430092 -0.08813471
0002f0 bc 75 e4 3c ee 8f 9e bc 69 07 0e 3d 8c 50 98 bd
       0.027888171 -0.01935574 0.034675036 -0.07437238
000300 26 72 e4 3d cb 8a e1 3d 9a 73 94 bd cb 13 e6 bb
       0.111545846 0.11012801 -0.07248612 -0.0070214025
000310 2a 56 42 bd 23 1f ce bb 7f 35 f7 3d e6 49 89 bc
       -0.047445454 -0.006290333 0.120707504 -0.01675887
000320 8c e7 5e bd 63 ad 01 be 78 23 bc bd 34 55 0f 3e
       -0.05442004 -0.12663798 -0.091864526 0.13997346
000330 34 a2 76 bd c7 1b c6 bb c7 26 9c 3c b5 a9 9e 3d
       -0.060213283 -0.006045792 0.01906146 0.07747213
000340 c9 42 f1 3d f0 8b 27 3d 80 62 22 be ed ef 5c bd
       0.117803164 0.04090494 -0.15857887 -0.05393975
000350 eb 89 bb 3d 57 b2 aa 3c 73 14 c5 bd 5c d0 90 bd
       0.09157165 0.020836992 -0.09623041 -0.070709914
000360 47 25 cc bb 24 8f d0 bd 89 0f 88 3d 44 24 cb 3c
       -0.0062300297 -0.10183552 0.06643588 0.024797566
000370 63 79 14 3e f4 fc c8 bd cd 98 49 bc a2 c2 8b 3d
       0.1449943 -0.09813872 -0.012304497 0.06824233
000380 f4 26 8b 3d 1d d8 29 bd 32 02 83 bd 77 be ac 3c
       0.06794539 -0.041465867 -0.06396903 0.021086914
000390 0d c7 be bd 1f 91 53 bb 10 c7 ce 3d bc 05 80 bc
       -0.0931531 -0.0032282544 0.10096562 -0.015627734
0003a0 f7 44 ca 3d 30 f8 b8 3c 33 b1 ef bd 43 d5 5a bd
       0.09876435 0.022579283 -0.1170372 -0.05342604
0003b0 a9 85 fc bd 69 40 98 bd 29 eb 8e bd c4 f0 17 3e
       -0.12330181 -0.0743416 -0.06978447 0.14837939
0003c0 b5 43 fe 3d 50 70 e6 bd 47 1b 68 3d 0c 3e ee bd
       0.12415258 -0.11251891 0.05666664 -0.11632928
0003d0 c4 90 63 ba 44 17 1b bd 8c 02 a2 3d 47 9e af bd
       -0.00086809346 -0.037863985 0.07910642 -0.08575111
0003e0 5c ad 21 bd 17 78 6b 3c 42 d3 a6 bd 08 03 6e bc
       -0.03947197 0.014371893 -0.08145763 -0.01452709
0003f0 a4 1a 35 3c 27 c5 6c 3d 4a 97 d5 bd 07 19 9e 3d
       0.011053715 0.057805207 -0.10429247 0.07719617

combined.3.bias f4 [64]
000000 1e 85 b5 3d 4c 09 d8 bb 38 d7 8e 3d 01 dc 09 bd
       0.08863281 -0.006592905 0.069746435 -0.033657078
000010 d5 84 d0 3c 4b 23 ef 3c 31 39 43 3d 7b a2 44 be
       0.025453964 0.029191634 0.047661964 -0.19202606
000020 39 34 ba 3d 41 84 a0 3c 66 88 64 bc b4 96 21 be
       0.09091992 0.019594314 -0.013948536 -0.15780145
000030 1b 3a 51 bd 6e ff 84 bd 46 2a 83 3d 8b d5 ac bb
       -0.051080804 -0.06494032 0.064045474 -0.0052744797
000040 aa 3a 5c bc 2d ea 9a bc a9 bd 97 3d ad 7e 4b 3d
       -0.013441721 -0.018910492 0.07409222 0.049681354
000050 d6 73 49 be 82 6d 21 3c 00 35 00 3d 69 0e a1 3d
       -0.19673094 0.009852769 0.031300545 0.07864077
000060 a8 d9 40 3d 70 27 d2 3d 11 3a 1c bb e0 d3 fc 3b
       0.047082573 0.10261428 -0.0023838321 0.007715687
000070 47 a9 cf 3d 06 64 8a 3c aa bc 82 3d ea 81 10 3c
       0.10139709 0.016893398 0.06383641 0.008820036
000080 0c 7d 0b bc fb 07 f2 3d 66 b6 62 3c f4 4c 2b 3d
       -0.0085137 0.118179284 0.0138374325 0.041821435
000090 4f d7 b9 3d ea ed a4 3c 91 27 a3 3d 5b d4 6b bc
       0.0907427 0.020132978 0.07966531 -0.014393891
0000a0 a1 57 04 3d b5 2f 36 3d 69 6e 70 3d fb f4 ba 3d
       0.032310132 0.04447909 0.058699045 0.091287576
0000b0 ae 84 92 3d d4 c5 bc bc 44 6e 33 bc ef c7 80 3d
       0.07154213 -0.02304355 -0.010951582 0.06288134
0000c0 70 14 74 3d 92 d8 36 3d 8a d8 f8 bc 10 18 38 3d
       0.059589803 0.04464013 -0.030376691 0.044944823
0000d0 dd a9 ab 3d d8 b6 94 3d 83 58 69 bb 36 24 8d 3c
       0.08382008 0.07261437 -0.0035605736 0.01722918
0000e0 6a 4a 06 3e 5a c5 a2 3d 87 55 57 3d 9f 5e 9f 3b
       0.13114324 0.07947798 0.0525718 0.0048635746
0000f0 f0 68 41 3d b6 0d 17 3d 02 f8 c2 3d e2 56 b4 bc
       0.047219217 0.03687831 0.0951996 -0.022014085

combined.6.weight f4 [1, 64]
000000 98 c2 90 bd ee 9d 19 3d 65 bd 93 bd 21 30 24 bd
       -0.07068366 0.03750413 -0.072138585 -0.04008496
000010 1f 0a ae 3d fe 81 9e bd 0d 54 51 3d 8e 47 12 bd
       0.08498024 -0.07739638 0.051105548 -0.03571277
000020 2a d4 ba 3d 92 f9 2b 3d ff 38 40 bd de e2 7b bd
       0.09122498 0.041986056 -0.046929356 -0.061495654
000030 45 8b 5e bd bc 3e 28 bd ac ac ad bd 91 3a 9a 3d
       -0.054332037 -0.041075453 -0.084802 0.07530702
000040 54 55 5c 3d 02 87 44 bd 3b 97 94 3d 80 0c b4 bd
       0.053792313 -0.047980316 0.072554074 -0.08791447
000050 de e7 e9 bb 4d 04 3b 3d 69 66 c8 bd f5 07 c6 3d
       -0.0071382364 0.0456584 -0.09785158 0.096694864
000060 0c 16 39 3d ea 96 a4 bd 4a 7b 3c bd 15 96 67 3d
       0.04518704 -0.08036597 -0.046016015 0.056539614
000070 b6 c0 86 3d 9e a7 aa bd ed 64 6b 3d 39 df ee bd
       0.065797254 -0.08332752 0.057469297 -0.1166367
000080 e9 73 6f 3d f3 8d cb 3c 08 da 29 bd 80 25 9b bd
       0.05846015 0.02484796 -0.041467696 -0.07575512
000090 f9 aa 0b 3d d9 b4 c4 3d 98 c1 92 bd 97 fd e2 3d
       0.0340986 0.096048065 -0.07165831 0.11083525
0000a0 62 bf 29 3d f9 c3 8a bd 5e ae 6f bd cd bb 7b 3d
       0.041442282 -0.0677566 -0.0585159 0.061458398
0000b0 2f 12 6c 3d 0d 2e 20 bd 61 b4 9c bd e3 fe 13 bd
       0.05763453 -0.039106417 -0.07651592 -0.03613175
0000c0 12 8f b4 bd 75 2f 04 3d 18 b7 0e 3d 7a 42 24 3d
       -0.08816351 0.03227182 0.03484258 0.04010246
0000d0 51 54 18 3d 82 92 98 3d c1 0a c1 3d ff ef b4 3d
       0.037189785 0.07449819 0.09425879 0.08834838
0000e0 a1 00 3c 3d 5e 74 d7 3d 02 5a 4a 3d df ae 75 bd
       0.045899037 0.10520242 0.049402244 -0.059981223
0000f0 9f d2 63 3d 21 29 23 3d f3 95 84 bd e6 6f b1 3d
       0.055620786 0.039834145 -0.06473913 0.08663921
