data/models/nov12_24_undersample/fold4_epoch_models/epoch_12_model.pt (torch, 775579 bytes, 9 tensors)

layers1d.0.weight f4 [128, 1280]
00000000: cb8c f2bd ccfb 1e3d 6b24 34bc 17cb 93bd
00000010: f204 4d3d 27dd 51bc 9172 f73b 8df6 f0bc
00000020: 293a 1cbd e82b 6bbc c99e 0ebd bac1 aebd
00000030: 0cf2 293d a5a5 e93d 1e87 f23c 0de5 d83d
00000040: 777d 0fbd 5d4f 8ebc 9bd2 57bd 1ed1 d5bd
00000050: 5493 9fbd a54d de3b c501 51bd 3496 493d
00000060: 72fc fdba 2fce 03bc 4559 e7bc a615 03be
00000070: aff8 22bd 9452 c63b 5534 9a3c 549b 3fbd
00000080: 174e 093a bfd3 d1b8 c446 12bd 5846 2f3d
00000090: 8964 50bd f5fc 51bd 3784 f13b a9a9 d93d
000000a0: 745d 643c 0f77 b8bd dfff 27bd b950 10bd
000000b0: 8158 6cbd c0d3 89bd 837b 6c3c 2cc6 c13c
000000c0: b772 cbbd 3437 2c3c 6fa1 8abd 4f84 913d
000000d0: 6adc dbbc f675 0ebd 8b8f 92bb b3e3 08bc
000000e0: 1bf7 283d 9af4 833d 3a77 993d c9d3 fbbc
000000f0: b967 fa3c 2ed2 513d f1b7 afbc e4d7 0b3d
00000100: 7161 12bd 52d7 f83d a665 02bd 3af6 4f3d
00000110: fac2 b0bd ce4a 3ebd 335a d4b9 1233 50bd
00000120: abb7 df3d e330 8cbc b29f 9dbd 43ec 153e
00000130: a7c5 993d a6ff 59bd 1b8a 663d 8e5b 60bd
00000140: a0c5 e8bd 0bf2 cabc c213 c7bc 9465 09bd
00000150: 70ff 793d d0a4 3bbd d67b 863d 88e5 d03d
00000160: 5945 09bc 359a 05bc 2c46 2b3d 7efa 773b
00000170: fed0 4a3c 41ab 9e3c 4d02 1b3d 0b8b b8bb
00000180: e9c8 a13d ed91 1c3d 954f 90bd 1728 5c3d
00000190: f1b5 60bd 9651 183d 29bc 863d 94ba a63c
000001a0: 86e3 cbbb aea0 b7bd af8f 82bd 5e3b a7bc
000001b0: 2509 97bd 4e6e e23c 2bc2 a53d ab2d ba3c
000001c0: b46b 813b 0f07 b13d bf69 f9bd a87c 0ebd
000001d0: ac11 9fbc c99b b93a ea0e 83bd 4f12 83bd
000001e0: beac 263d 41e6 b6bd 16cc 64bc 344a 1fbc
000001f0: 8419 823d 7564 b43c 4b92 0dbc 61c3 a3bd
00000200: 20ef e7bc 1e4d febb 0ea4 a7bd 777f b5bd
00000210: 95d5 003d 39e9 d0bd cd60 33bc 086f a6bd
00000220: cb7f d1bc e4f5 d8ba b86e 87bd 8a5a 843d
00000230: 1c3f f13b 74d2 39bd 6ca7 12bb 8971 2dbc
00000240: 40d3 e13c 2c81 5bbd c064 f1bd ca93 ae3c
00000250: 5b18 f63d 9283 603d e187 87bd c939 49bc
00000260: 22a4 363d bb33 4b3d dbf4 65bd c682 e4bc
00000270: 8721 bfbc 2730 c7bc 062e db3d cfe9 7dbc
00000280: b2aa 1ebd a8eb c3bc 44e8 8a3c 7bab 323d
00000290: a0c2 463c 3a19 e6bc 2d61 9bbc 44ee c1bb
000002a0: f8bd 10bc ba53 ff3d 1893 f73c 2d41 d7bc
000002b0: e76a bebd b2fc 853d 3fe1 123d 115d a93c
000002c0: be2d c3bb 7213 353d 9f83 5dbb cd73 733d
000002d0: 979d f63c 6e3a 3e3c 27ee e9bd ef0f fe3c
000002e0: f166 70bd 29c0 5cbd 18b0 233d 3974 d9bc
000002f0: 6d8b 47bd 90dc 9b3d 985b 743d 1ea7 8cbb
00000300: 977a f13d b896 8fbd a618 12bc 860e f63b
00000310: 5486 5dbd b1a9 5ebe 931b b73d 0049 933c
00000320: 8f3a 343d d850 e0bc 5cf4 223d 3124 2c3d
00000330: 7875 b8bd 5564 9fbb dff4 89bc f05c 18bd
00000340: 3a90 f9bc fa9a a13b 0044 5ebd f654 283d
00000350: d8bd 6cbd 605f 80bc 7f72 2d3d ce7c d93c
00000360: 30bb 8f3d ab01 173d aae5 2b3d d07e bd3d
00000370: 6c65 973c f5a4 df3c 028c 973d 7f28 a03a
00000380: 778b 513d 861e 5e3d 86f8 553c bcdf 353d
00000390: 47ed cc3b a472 95bc 56d7 dfbd 22ce 71bc
000003a0: 09a2 47bc 3afc 4d3c 6bc4 bf3c 4dbd e9bc
000003b0: 5672 04be ca31 ebbd 0fc7 c3bd f43b d3bb
000003c0: 7d7f 4e3c ff73 96bd 4a91 1c3e 4610 9b3c
000003d0: 9d80 46bd a842 01bd 3dd2 0b3e 7f0b cd3c
000003e0: bc30 a2bd ee34 ec3c 666a a53c 5435 123c
000003f0: fdb6 413c 7767 123d 862a 11bd ab75 c2bd
-0.118432604 0.03881435 -0.010995011 -0.07216471 0.050053544 -0.0128090745 0.007551499 -0.02941444
-0.038141403 -0.01435373 -0.034819398 -0.08533044 0.0414906 0.11408547 0.029605445 0.10590563
-0.035031762 -0.017371828 -0.052691083 -0.104402766 -0.077917725 0.0067841583 -0.05102708 0.04921551
-0.0019377603 -0.0080447635 -0.02824081 -0.12801227 -0.039787944 0.0060523245 0.018823782 -0.04677899
0.00052377715 -0.000100053374 -0.03571202 0.042791694 -0.050877128 -0.05126663 0.0073704976 0.10628063
0.013938297 -0.090070836 -0.041015502 -0.035233233 -0.05770159 -0.06729841 0.014433744 0.023654066
-0.099339895 0.010511208 -0.06769072 0.07105314 -0.0268385 -0.034780465 -0.004472678 -0.008355069
0.041251283 0.064431384 0.07493444 -0.030740635 0.030567037 0.051225834 -0.021450015 0.034141436
-0.03573746 0.12150444 -0.03183522 0.05077193 -0.08630939 -0.046458058 -0.00040502995 -0.050829954
0.10923704 -0.017113155 -0.07696475 0.14640908 0.07508402 -0.05322232 0.05628405 -0.054774813
-0.11365819 -0.024773618 -0.024301413 -0.033544138 0.06103462 -0.045811474 0.065665886 0.102000296
-0.00837835 -0.008154442 0.041814968 0.0037838514 0.012378929 0.01936877 0.03784399 -0.0056318096
0.07899649 0.038225103 -0.07046429 0.05374917 -0.054861013 0.03718718 0.065788575 0.02035264
-0.0062221913 -0.08966194 -0.06375062 -0.02041405 -0.07374791 0.027640488 0.08093675 0.022726854
0.003949607 0.086439244 -0.121783726 -0.03478685 -0.019417606 0.0014160807 -0.06399329 -0.063999765
0.040692084 -0.08930636 -0.0139646735 -0.009722281 0.06352523 0.022020558 -0.008640836 -0.0799625
-0.028312266 -0.007760658 -0.08185588 -0.088622026 0.031453688 -0.10200734 -0.010948372 -0.08126646
-0.025573632 -0.0016552773 -0.06612915 0.064625815 0.0073622596 -0.04536672 -0.0022377623 -0.010586151
0.027566552 -0.053589985 -0.11786795 0.021310706 0.12016364 0.054812975 -0.06617714 -0.012281843
0.044590123 0.04960988 -0.056141715 -0.027894389 -0.023331417 -0.024314953 0.10702138 -0.015497639
-0.038737006 -0.02391608 0.016956456 0.043620568 0.012131363 -0.0280882 -0.018967235 -0.005918296
-0.008834355 0.124671414 0.030221507 -0.026276195 -0.09297734 0.065423384 0.035859343 0.02067426
-0.0059563806 0.044207998 -0.0033800376 0.059436608 0.030104442 0.01161061 -0.11422377 0.031013457
-0.058691923 -0.053894196 0.039962858 -0.026544677 -0.04871695 0.07610428 0.059657663 -0.004292383
0.1179096 -0.07011169 -0.008917009 0.0075090555 -0.054083183 -0.2174442 0.08940806 0.017979145
0.04400116 -0.0273823 0.03978382 0.042026702 -0.090067804 -0.0048642554 -0.016840396 -0.037198007
-0.03046428 0.0049318047 -0.05426407 0.04109665 -0.057798237 -0.015670478 0.04234552 0.02654877
0.07018125 0.036866825 0.04196707 0.09252703 0.018480979 0.027300337 0.07399751 0.00122191
0.051158395 0.05422833 0.013059741 0.044402823 0.0062538716 -0.018243141 -0.10929744 -0.014758619
-0.012184628 0.0125723425 0.02340909 -0.028532648 -0.1293424 -0.11484106 -0.09559452 -0.006446356
0.012603638 -0.07346343 0.15289798 0.018928658 -0.0484625 -0.03155771 0.13654418 0.025029896
-0.079194516 0.028833833 0.020192336 0.008923847 0.011823413 0.035743203 -0.035440944 -0.094951

layers1d.0.bias f4 [128]
00000000: 03ef 80bd 3e13 68bd 5b46 debc 14b1 b6bc
00000010: 9ac5 05bd aff1 dbbc c4be 25bd 90d2 8bbd
00000020: 841c b1bc f680 ecbc 5a6f 3cbd 24df 7dbc
00000030: 97d5 66bc fcc1 a1bc 160d bcbc 4804 b3bc
00000040: e457 e0bc 075d 09bb 01d5 a4bc a27c 82bd
00000050: e513 72bd 2730 43bd a9ee 2bbd 8438 13bd
00000060: 4fc3 4e3a b98d 52bc d1b4 33bd a8f3 2bbd
00000070: 5dad 34bd 5d64 03bc dfa9 8fbd c64b 29bd
00000080: c8d4 24bd f239 bbbb d7ed 2ebd 3a80 cdbc
00000090: afed acbd 0d82 aabc 7c20 57bd 2b57 38bd
000000a0: 9251 78bc ae03 78bd 9b03 7cbd b2e6 aebc
000000b0: cf04 b7bd 7c9f b9bc 8c56 01bd 7a51 2cbd
000000c0: 88f3 aebc f376 6ebd a5cb e1bc 5f9e eebc
000000d0: a50c 2dbd f8fb 3ebd a088 43bd 8de4 3cbd
000000e0: bafb dcbc 1f67 39bd 4516 7dbd 62cc 07bb
000000f0: be04 46bd 1a8f 95bb 2ac9 14bd 8a8e 66bd
00000100: acb7 87bd 31fb f4bc a9c1 4ebd 3edd 4bbd
00000110: c563 8bbd 880d 46bd 5468 59bd 4410 1ebd
00000120: 5eb5 8bbd 4d48 06bd c16f 1ebd afff 35bd
00000130: 70d2 2abd 6129 0dbd 790a 3bbd bb6a 37bd
00000140: 3bc8 f2bc 1c8a 67bd 8b12 45bd 279b 5bbd
00000150: 1ea0 26bd cb27 f4bc 9b4d bebc 3720 13bd
00000160: d465 babc 8ab2 49bd 72b3 58bd ccbc 76bd
00000170: 42c8 bebc 0814 31bd 0f42 87bd 8146 11bd
00000180: 40ef 40bd d2c9 74bd d6b3 4ebd 635a d4bc
00000190: b29a 58bd 7135 17bd 165b 96bc fe7c 78bd
000001a0: 78f5 21bc adac 32bd 5d42 32bc 62c6 1dbd
000001b0: 8079 b4bc a05e e0bc 8c64 a1bc 53e2 9abc
000001c0: ff17 87bc 0e42 53bd faf1 8ebc 5547 90bb
000001d0: 6b0b 26bd 0f38 e439 3253 d1bc 4ea0 57bd
000001e0: 3581 10bd 7c59 25bd c9d2 95bc 9c47 bbbc
000001f0: ab40 8abd f73e a7bc 60b0 2abd 658a 0cbd
-0.06295588 -0.056658976 -0.027133157 -0.022301234 -0.03265915 -0.026848642 -0.04046513 -0.06827271
-0.021620043 -0.028870087 -0.04600463 -0.015495095 -0.01408901 -0.01974582 -0.022955459 -0.021852627
-0.02738566 -0.002095999 -0.0201211 -0.06371428 -0.059101004 -0.047653344 -0.04197565 -0.03594257
0.00078873796 -0.012851172 -0.04387361 -0.041980416 -0.044110645 -0.008019534 -0.07014822 -0.04133203
-0.040241987 -0.0057136947 -0.04270729 -0.025085557 -0.08443772 -0.020813966 -0.052521214 -0.045005005
-0.015156167 -0.060550384 -0.061526876 -0.021350238 -0.08936464 -0.022659056 -0.03157668 -0.04206989
-0.02135636 -0.058218908 -0.027562926 -0.029128252 -0.042248387 -0.046627015 -0.047737718 -0.0461164
-0.026975501 -0.04526436 -0.061788816 -0.0020721187 -0.048344366 -0.004564178 -0.036324657 -0.05628828
-0.066268295 -0.029904934 -0.050477657 -0.04977154 -0.06806139 -0.04835275 -0.05307801 -0.03858973
-0.068217024 -0.032783795 -0.038680796 -0.044433292 -0.041704595 -0.03446329 -0.045664284 -0.04477952
-0.029636493 -0.056528196 -0.048113387 -0.05361476 -0.040680043 -0.029804131 -0.023230365 -0.035919394
-0.022753634 -0.049242534 -0.052905507 -0.060238644 -0.02328885 -0.043231994 -0.066043966 -0.03546763
-0.047103167 -0.059762783 -0.050464474 -0.025922006 -0.052881904 -0.0369162 -0.01835398 -0.060666077
-0.0098851845 -0.043621708 -0.01088008 -0.03851927 -0.022030592 -0.02738887 -0.019701265 -0.018906748
-0.016490934 -0.051576667 -0.017449368 -0.0044030347 -0.040538233 0.00043529316 -0.025552366 -0.052643113
-0.03527947 -0.040368542 -0.018288987 -0.022861294 -0.06750616 -0.020415766 -0.04167211 -0.03431167

layers1d.3.weight f4 [128, 128]
00000000: 212a 983d 07a5 99bc 2102 05bd 0510 a83d
00000010: a47f 223d fecb 5ebd f9b4 94bd 0fde ab3d
00000020: 2240 e8bd 4c43 9a3d 2782 c1bd 20e6 f9bb
00000030: 17fa 0bbe b731 b9bd d147 d0bd b40b 6e3c
00000040: 0196 16bd 1266 38bd b0b4 12bc 4d62 f83d
00000050: 5849 a9bb 3bfd 803d 8eee d33d 5df8 9abd
00000060: 793a 5bbd dae6 febd 856f 233d 4c28 70bc
00000070: b23f 963d fa49 813d 8797 21be 158d debd
00000080: a79d 53bd 8796 a9bd b7d8 583d 22ca e2bc
00000090: f14e 083e 9bd9 373e c77d 613d 56da aabd
000000a0: 4bf2 53bc 685d cd3d ac56 9e3d 8cee c63b
000000b0: b6dc 3e3e 2bd0 25be 8d9e 86bd 59b0 9a3d
000000c0: 76e2 a23d 157d 013c 4b55 253c bb78 19bd
000000d0: bc0a 993d a4c6 0fbe 816a 42bd edf0 69bd
000000e0: 24ba 9ebd f445 dcbd bcaa a03d 2859 50bd
000000f0: 6155 46bd 1ad2 1bbd 9e55 9ebd 9f61 fa3c
00000100: b0bc a13d b46a a33d febb c53d 5ab8 163e
00000110: 656e 773b a6ae e73d 537c 9abd 2acd 94bd
00000120: 7318 a0bd 637e 0dbe 9870 0dbd 7ed1 3fbc
00000130: d3cb 8e3d 9965 a3bd 0f8e b33d e485 ea3d
00000140: 4255 81bd 6512 c33d 663c a93d cfcc 64bc
00000150: a3a2 88bc 5973 29bd 21a7 6c3d c3c2 16be
00000160: b00e 9bbd 6585 87bd 21a8 49bd ba30 edbd
00000170: bc8d bbbd 1605 c83b b705 de3c 44ec 0abe
00000180: 187f fc3c f5ca f7bd 95ae 7cbb cc20 143d
00000190: ad8c 9e3a d3a7 b7bd 4c9a 903d 00bc e73d
000001a0: acb7 cdbd be8a 413d 35b3 24be edec 463d
000001b0: 03ec fc3d c1b7 cf3c cbd1 b5bd 92ab 303b
000001c0: 4937 dabd 9b26 26bd 260e a13d 6625 cfbd
000001d0: 486e 983d 2f9d 99bd 0ac4 4bbd ef7d 5a3d
000001e0: 47e6 4ebe d817 523c c5f5 adbd 122a 3cbe
000001f0: 1417 083e e43f 00be 9f18 55bd e21e d5bd
00000200: 07ad 923d e0b5 23be 6280 c23d abe5 3dbe
00000210: c815 fdbd 3906 9d3c 333f 063e 3ca7 d1bd
00000220: 4dcc e93d 5fd4 ebbd be5a 9d3d 67a6 2bbe
00000230: d0c5 433d 3311 c538 a7f5 a63d 213d 3ebd
00000240: dbd8 8c3d fcf9 253d 9cf8 01be c579 aebc
00000250: 68e2 923d 04ae 07be 8682 87bc 6d3c 9d3c
00000260: 6ef9 e4bd ad0b 57bd 62cc bfbd 0db8 233e
00000270: 0767 38be d307 94bc 3dac 1e3e a63d f13d
00000280: 7177 b33d 7f62 8e3d 1c20 efbd d4ce c43d
00000290: bd25 dfbd bcf0 ab3c 5efb a3bd 3801 7f3d
000002a0: 3caf 1ebe ec5c 56bd 6920 06be 1cfd aebd
000002b0: 6699 4ebd 1e69 cd3c 9e20 f33c 6505 91bc
000002c0: d1bc e0bd c610 b1bd bdfa c9bd 0aa5 2bbd
000002d0: b17a f0bd 61fc 133e b79f 6ebd ec64 eebb
000002e0: b3e8 ff3c 1821 75bd f8f1 1fbe 5902 8cbb
000002f0: b126 20be aed9 893d 6295 053e df3f 0bbe
00000300: 64c8 a6bd af5f b7bd 5647 93bd 0b0f 26be
00000310: 5390 93bd 301d 1cbe 58f9 9e3d c447 3f3d
00000320: d42f c43d 7399 a7bd c591 c93d 6da6 c3bd
00000330: 514d ba3d 1d5a 9cbd 040a 97bd c707 b5bd
00000340: e341 113d 6bcb e0bd 3d3d bebd d2a6 15be
00000350: 3bea fabd ec47 f1bd 440c 81bc 4660 f83d
00000360: de77 9abd 4fa7 323e 9f85 fdbd 3064 833d
00000370: 3a7e f13d 04f2 13be 9b97 08be d7cc 62be
00000380: 699a 1b3d 35ef 3c3d 35bf 10bd 5658 01be
00000390: 315f 12be 93b2 dd3c e964 3cbe cd11 11be
000003a0: 1861 54bc 9fd5 f1bd 3e2f 5c3d e553 cfbd
000003b0: bd39 d3bd a39d 9fbd 9fdb 0f3e 5f07 553d
000003c0: fe7b 223d d99f d83d 404c 64bd aea8 0abe
000003d0: dda8 0ebd 3b1b 013d ec5a c5bd ac8f 1fbe
000003e0: cfcf 303c 4908 a53d 1331 f93c 1bf5 8ebc
000003f0: b153 1ebd 4775 c03c b5cb e4bc 538f 363d
0.074299105 -0.018755449 -0.032472733 0.082061805 0.03967251 -0.05439376 -0.0726108 0.08391964
-0.11340357 0.07532367 -0.09448653 -0.00762631 -0.1366962 -0.090426855 -0.10169948 0.014529157
-0.03676415 -0.045019217 -0.008954212 0.121281244 -0.005166214 0.062983 0.10348235 -0.07566903
-0.05352256 -0.12446375 0.039901275 -0.014658045 0.07336368 0.06312938 -0.1578046 -0.10866753
-0.05166402 -0.08280664 0.05294105 -0.027684275 0.13311364 0.17954104 0.05505159 -0.083424255
-0.012936185 0.100275815 0.07731375 0.0060709175 0.18638882 -0.16192691 -0.0657321 0.07553167
0.0795335 0.007903357 0.010091136 -0.037468653 0.074727505 -0.14040619 -0.04746485 -0.05711453
-0.07750347 -0.1075553 0.07845065 -0.050866276 -0.048421267 -0.038042165 -0.07731174 0.030564127
0.078973174 0.079793364 0.09654997 0.14718762 0.003775501 0.113126084 -0.07543244 -0.072656944
-0.07817163 -0.13817744 -0.034531206 -0.011707662 0.0697247 -0.079783626 0.0876733 0.11451319
-0.0631509 0.09524993 0.08263473 -0.013964846 -0.016679114 -0.04136977 0.057776574 -0.14722733
-0.07571161 -0.0661724 -0.049232606 -0.115815595 -0.09157893 0.006104122 0.027102334 -0.1356669
0.030822322 -0.12099258 -0.0038556207 0.03616409 0.0012096368 -0.08967557 0.0706068 0.11315155
-0.10044798 0.047251455 -0.16083987 0.048565794 0.12349703 0.025356175 -0.088779055 0.0026957733
-0.10655076 -0.04056416 0.07864027 -0.10114555 0.074429095 -0.075006835 -0.049747504 0.053342756
-0.20205031 0.012823068 -0.084941424 -0.18375424 0.13290054 -0.12524372 -0.052025434 -0.10406281
0.071619086 -0.15987349 0.09497143 -0.18544643 -0.1235767 0.019168006 0.13110046 -0.102369756
0.114159204 -0.11515116 0.07683323 -0.16762696 0.04779607 9.3968956e-05 0.08152323 -0.046445016
0.068772994 0.040521607 -0.12692493 -0.021298299 0.0717209 -0.13249975 -0.01654173 0.019193852
-0.111803874 -0.05250137 -0.09365155 0.15988179 -0.18008052 -0.018070137 0.15495391 0.11779337
0.08763016 0.069523804 -0.11676046 0.09609762 -0.1089587 0.020988815 -0.08006929 0.06225702
-0.15496534 -0.05233471 -0.13098301 -0.085443705 -0.05043926 0.025074538 0.029678639 -0.017702768
-0.10973514 -0.086457774 -0.09862278 -0.04190544 -0.117421515 0.14451744 -0.058257785 -0.0072752144
0.03123889 -0.059846014 -0.15619648 -0.004272741 -0.1563976 0.06730972 0.13045266 -0.13598584
-0.0814369 -0.08953797 -0.071913406 -0.16216676 -0.07205262 -0.15245509 0.07762402 0.0466993
0.09579435 -0.08183565 0.098422565 -0.095532276 0.09096778 -0.07634375 -0.07374957 -0.08839374
0.035463225 -0.10976299 -0.09289024 -0.14614418 -0.12251707 -0.11781296 -0.015752919 0.12127738
-0.07542394 0.17446636 -0.12379002 0.064155936 0.11791654 -0.1444779 -0.13339083 -0.22148453
0.037989054 0.046126563 -0.0353386 -0.12631354 -0.14294125 0.02706269 -0.18397869 -0.14166947
-0.012962602 -0.11808323 0.05375599 -0.101234235 -0.10313747 -0.07793739 0.14048623 0.052008983
0.03966903 0.105773635 -0.05573678 -0.13540909 -0.03482901 0.03152011 -0.096364826 -0.1558215
0.010791733 0.08058221 0.030418908 -0.01745086 -0.038654033 0.023493422 -0.027929166 0.04457028

layers1d.3.bias f4 [128]
00000000: 76e8 cf3c 2212 283c 2c62 d83c 8caf bb3c
00000010: fbf0 bd3b cdb3 343d 3536 01bd 6cbf ab3c
00000020: 33cf bfbc 2df6 efbb 1ad3 413d c122 3ebb
00000030: c0ef 223c d970 d53b 0167 1a3d 098d 763c
00000040: 8b2a ab3c d5cf 6f3c a85f 893b 1315 96bc
00000050: 45ae 0cbd a544 a63b f404 db3c 8793 f93b
00000060: b11a f23c 4851 3cbc ca99 9b3c ffee 74bc
00000070: 8502 8c3c 7e5a acbb 0d27 31bd 0eeb 9d3c
00000080: 147d 6f3d 314b a03c 8ec6 d53c 4951 eb3c
00000090: 768a ffb9 e791 a73c a227 afbc 6fa8 d0bb
000000a0: 3bbc 223d 05e7 6b3d 9de1 8bbc 0d0c b4bb
000000b0: 1c9c cdbc 8541 0c3d 2334 403c e351 b43c
000000c0: 46dd dabc 2b53 d2bb 96c5 e73c dab4 913b
000000d0: e8a8 febc cabb fd3c 9685 403c 6c08 0f3c
000000e0: bf91 c7bc 08f9 8cbb f488 423c 7ef7 353c
000000f0: ea8e 163c d3ec c73c f68c 063d eb65 913c
00000100: 3a9b 503c 73c9 3bbb 71da c5bc 4128 f43a
00000110: 89a9 93bb 636f 1b3d 3f31 92ba 1cd1 583c
00000120: 5ca8 063d 72cc f73b 0f74 c8bb 4590 ddbc
00000130: 0ea6 fdbc e87e 18bc f450 82bc 5caf 933c
00000140: 4725 d03c 194e 363c d4e5 c2bc c3b2 b33c
00000150: 4b21 6b3c 0727 febb 5945 07bd b217 4cbc
00000160: d23d 53bc 896e 063c 8233 2abc 156a 333a
00000170: 243b 293c 29c3 26bc 5cd2 f93c c959 f5bc
00000180: 1eb5 6cbb 6e1e 4dbc 13d1 1fbb 4dc4 333d
00000190: 3539 073d 22ad 1cbc adb1 47bd f650 823c
000001a0: 762a bebc dd34 543d 49fd 88bc 1294 1d3d
000001b0: aa5e acbd eb2b ef3c ceb3 523d ce04 83bb
000001c0: 2e4f 1d3c 19da de3c b617 ee3c 120a be3c
000001d0: f081 a83c 14b7 49bc 9223 1abc a336 c73b
000001e0: e277 313d 2725 b4bc dcff 7dbc 8641 84bb
000001f0: e9f7 9cbc cfd3 c7bc 72e0 ab3c 14c0 74bc
0.0253794 0.010258229 0.026414 0.022910856 0.0057965494 0.044116784 -0.031545836 0.0209653
-0.02341423 -0.0073230476 0.047320463 -0.0029012414 0.009944856 0.0065136966 0.03769589 0.015048274
0.02089431 0.014636953 0.0041923113 -0.018320596 -0.034345884 0.005074101 0.02673576 0.0076164636
0.029553743 -0.011493988 0.01899423 -0.014949559 0.017091045 -0.005259811 -0.043250132 0.019277122
0.058468893 0.019567104 0.026095655 0.028725283 -0.00048740552 0.020455314 -0.021381203 -0.006367735
0.03973029 0.057593364 -0.017075354 -0.0054946006 -0.025098853 0.03424217 0.01173118 0.022011703
-0.02671684 -0.006418606 0.028292459 0.004446608 -0.0310864 0.030973334 0.011750599 0.008730035
-0.02436149 -0.004302148 0.0118734725 0.01110637 0.009189347 0.024404919 0.032849275 0.017748794
0.012732321 -0.0028654009 -0.024152013 0.0018627719 -0.004506294 0.037948024 -0.0011153592 0.013233449
0.032875404 0.0075622136 -0.006117351 -0.027046332 -0.03096297 -0.009307601 -0.015907742 0.018027954
0.0254084 0.011127018 -0.023791231 0.021935826 0.014351199 -0.0077561173 -0.03302512 -0.012456821
-0.012893157 0.008205065 -0.010388257 0.00068441156 0.010329042 -0.010178366 0.030495815 -0.02995004
-0.0036118696 -0.012519462 -0.0024386093 0.04388838 0.03301354 -0.009562762 -0.04875343 0.015907746
-0.023213606 0.051808227 -0.016722338 0.03847129 -0.08416493 0.029195746 0.051441006 -0.0039983755
0.009601397 0.027203606 0.02906404 0.023198161 0.020569772 -0.012311716 -0.009407895 0.0060795113
0.04332722 -0.021990372 -0.015502896 -0.0040361313 -0.019161182 -0.02439299 0.020981047 -0.014938373

combined.0.weight f4 [64, 128]
00000000: 772a 06be 8fc9 c13d 0fe3 08bd bc28 2abe
00000010: b5f4 3abe a0dc 3e3c 66f9 99bd 6ff5 733c
00000020: 63f4 80bc a10a 5b3d 2f61 9c3d 3ca6 8abd
00000030: d9cc ca3c 48f8 bfbc 0171 af3d 0af1 c7bd
00000040: ae9f c5bc 04e9 e63c 2a00 c3bd 6364 8bbd
00000050: 639e 4ebd 0d62 643d 052e e83c b018 383c
00000060: d762 f0bd bbdf 063e a5e0 e7bd e8fd 26be
00000070: 5275 5bbd e59c b43d 1ad0 a93d 86f0 fb3d
00000080: 98e4 3abd de47 c33c 0a4e 88bc 2739 19bd
00000090: d40b 5bbc a814 093e 0267 8cbd 58f6 123c
000000a0: 07eb f73c 8bed 473d 5599 8c3d 36fe 763d
000000b0: 163e d73d 0fbb e8bb f96d 44ba f78d c6bd
000000c0: 4299 9c3c 848e 12be 4a11 353c 5b9b 44bd
000000d0: 4ea2 95bd 7942 883d c602 81bc add7 dcbd
000000e0: 3e54 cbbd 8f0a f9bc 3dbe e4bc a87a a9bd
000000f0: b1c1 dcbd c6a4 c4bd 2422 cd3c c7c9 023d
00000100: 6066 a9bc e6b6 d5bd 33b3 863c 96c7 163e
00000110: 20f7 8c3d 10c5 1b3d f864 f9bc 3242 c23d
00000120: 3333 8fbc 4433 7a3c de85 263d 37d2 6ebe
00000130: 5a97 a3bd 84e2 cabd ad53 9ebc 4751 c1bd
00000140: 20ff 01bd 2f6f 9dbd 9d30 e8bc 8fe0 053d
00000150: a6d2 04bd fa7b c13c 5e98 323d e501 ecbd
00000160: 2e54 6c3d 744e 0b3d b44c f2bd 278a 91bd
00000170: a657 a4bb 67b4 713d 3e72 913d 7051 c73a
00000180: 2ba7 0fbe 167c 003d 0691 423d 4d83 fdbc
00000190: f2e0 12bd 55a0 2d3d d7ab 3bbd ca87 84bd
000001a0: d6f4 9a3d ac36 7abd c3a1 1ebd f061 ce3d
000001b0: 6417 673d 1069 c13d 4378 e43d d947 3cbd
000001c0: 334f 86bd 974e 60bc 815f f83d 1781 993d
000001d0: be48 ecbd d920 793d b40c 14ba 5001 493d
000001e0: 9c54 cdbd d147 a0bd db47 e8bb cc0d 89bc
000001f0: af75 61bb 15ca dbbd 0ea0 003c cbcf cb3c
00000200: 16cd 1cbc 52a1 a73d 92c2 74bd aecf cebb
00000210: fa95 bdbd 2431 aebd 01e8 bdbd b313 9d3c
00000220: 1405 3abd d9b8 edbc cc68 85bc 4be9 47bd
00000230: 1ed6 1f3e e715 afbd c765 12bd 0c4b 273b
00000240: 45ef 853d f6d7 64bd 5c26 3a3d eff9 93bd
00000250: 42bb 12be 2743 f43d ad1e b93c 8d36 d53d
00000260: 9fad 93bd 8a29 003e d867 83bc d7f5 18bd
00000270: 9934 513d 5bee ca3d df4d 153e abb6 f03c
00000280: 82bb 79bb d998 8bbd 512c 1dbc 2d64 2fbd
00000290: f1f7 553c fdd1 4e3d 8ff5 b93c adb6 903a
000002a0: a404 ba3c 0bee 783d 6503 2e3e 0303 b43d
000002b0: a253 343c 3c0f fe3c 831f 223e 0925 32bd
000002c0: 35a1 643c 53e2 f4bc 1dda d03d b82e e2bd
000002d0: d0a5 813a 717b fe3d b11f f0bc f8ba 7ebd
000002e0: 0d69 83bd dd75 abbd cae0 26be 5a18 abbd
000002f0: ee3c 2dbd 9f27 70bc 59ce d7bc 5e0c 1f3d
00000300: 4ae0 f1bc a538 aebd 342d 4f3b 6680 073d
00000310: 4b4e 173d c8b2 2a3d df8d 73bd bb0a 8a3d
00000320: de1f 59bc 119f a83c 1782 d33d fb87 b7bb
00000330: 11f6 a13d 1aa2 2cbd 2c41 0d3c 1f79 103b
00000340: 16c9 283d dce0 40bc e1ff 8abd 5100 25bd
00000350: f00d 40bd d778 8cbc 1fe0 d73c 7aa9 0dbd
00000360: a66a 023e dbb8 fc3c ebbe 41bc 4d3e 68bd
00000370: 45ca 40bd f135 acbc c200 0dbd 9e7b 94bc
00000380: 1626 133c 531d b73d a429 6c3d 70bc 4eba
00000390: 5c59 093e 2aed d0bc 0565 04bd cc3e 873d
000003a0: 1038 debc 18e0 8abc 8a28 873d a830 993b
000003b0: b6ce dbbb 1629 d23d f983 3fbd b110 df3d
000003c0: b51f 85bd 1f41 993d c9c2 143e c1d1 443d
000003d0: 3586 7abd 21d0 47bd 5316 e0bc 8bd3 d03c
000003e0: b94b af3b 4ea8 89bd b6a7 7ebd 4e67 b2bc
000003f0: 49c2 a53c a0d2 cdbd 8576 a7bc bfad 7eba
-0.13102137 0.094622724 -0.033419665 -0.16617101 -0.18257411 0.011649281 -0.07518272 0.014890059
-0.015741533 0.053476933 0.07635724 -0.06769988 0.024755882 -0.02343382 0.08566476 -0.097627714
-0.024123993 0.028187282 -0.09521516 -0.068062566 -0.050444018 0.05575757 0.028342256 0.011236355
-0.11737602 0.13171284 -0.113221444 -0.16307795 -0.053578682 0.08818988 0.08291645 0.123017356
-0.04562816 0.02383798 -0.016638774 -0.03740802 -0.013369519 0.13386786 -0.06855585 0.008969866
0.030263437 0.048810523 0.06865183 0.06030103 0.10509889 -0.0071023772 -0.0007493194 -0.096950464
0.019116048 -0.14312178 0.011051485 -0.04799972 -0.07306348 0.06653304 -0.015748393 -0.107833244
-0.09928177 -0.030400543 -0.027922744 -0.08275348 -0.10779131 -0.096017405 0.025040694 0.03193071
-0.020678699 -0.10435276 0.01644287 0.14724573 0.06883073 0.03802973 -0.030443653 0.09485282
-0.017480468 0.015271012 0.04065501 -0.23322378 -0.079878524 -0.09906486 -0.01932701 -0.094393305
-0.031737447 -0.07687222 -0.028343493 0.03268486 -0.032427453 0.023618687 0.04360234 -0.11523799
0.057697468 0.034010366 -0.11831036 -0.071064286 -0.0050153313 0.059009936 0.07101868 0.0015206765
-0.14028613 0.031368338 0.047501586 -0.030946398 -0.035859056 0.042389233 -0.045818176 -0.06471212
0.0756623 -0.061087295 -0.038728487 0.10077274 0.05641879 0.09443867 0.111557506 -0.045966957
-0.06558075 -0.013690612 0.12127591 0.07495325 -0.11537312 0.06082234 -0.0005647645 0.049073517
-0.100259036 -0.07826198 -0.007088644 -0.016730212 -0.003440242 -0.107319035 0.00785066 0.024879357
-0.009570381 0.08185066 -0.05975587 -0.0063113784 -0.092571214 -0.085054666 -0.09272767 0.019174432
-0.045415 -0.029018806 -0.016285323 -0.04880647 0.15609023 -0.085490994 -0.035741594 0.002552691
0.06539778 -0.05587002 0.04544674 -0.072254054 -0.14329246 0.11926871 0.022597635 0.10410795
-0.0721085 0.12515846 -0.016040727 -0.037343826 0.05107555 0.09908744 0.14580487 0.029383978
-0.0038106148 -0.06816263 -0.009593085 -0.042820144 0.013059602 0.05049323 0.0227001 0.001104077
0.022707291 0.06077389 0.16993482 0.08789637 0.011006268 0.031013124 0.15832333 -0.04349235
0.01395445 -0.029893076 0.10197852 -0.11044067 0.0009891335 0.12425888 -0.029311987 -0.062190026
-0.06416521 -0.0837209 -0.16296688 -0.08354254 -0.042294435 -0.014657884 -0.026343511 0.038830154
-0.029525895 -0.08506898 0.0031612637 0.033081435 0.0369399 0.041674405 -0.05946147 0.06740328
-0.013252227 0.020583661 0.10327547 -0.005600927 0.079082616 -0.04214678 0.008621495 0.002204485
0.041207395 -0.011772361 -0.06787086 -0.040283505 -0.04688829 -0.017147465 0.026351986 -0.034585454
0.12735996 0.030849865 -0.011825304 -0.05670004 -0.0470679 -0.021021815 -0.03442455 -0.018125352
0.008981248 0.0894114 0.0576569 -0.0007886356 0.13412994 -0.025503714 -0.032322902 0.066037744
-0.027126342 -0.01695256 0.06599529 0.0046749897 -0.0067079915 0.10261743 -0.04675672 0.108918555
-0.06500188 0.07483124 0.1452743 0.0480516 -0.061163146 -0.04878247 -0.027354395 0.025491497
0.005349603 -0.06721555 -0.06217166 -0.021777775 0.020234244 -0.10049939 -0.020442257 -0.0009715221

combined.0.bias f4 [64]
00000000: 764e ca3c 37e0 953d 7910 d03c 68e0 a13c
00000010: 0017 89bc ce17 02bd b9b1 b73c 0fee 4cbd
00000020: 2309 f638 c211 ac3c 2023 9dbb 4a9b 1f3d
00000030: ec9f 213d baba cb3c a497 fbbc 3014 babc
00000040: d00c a43c c04c 683c 48d7 39bc b96d 083c
00000050: a2cd ce3c 21b9 a73c 3686 bd3b 414d f1bc
00000060: 6b04 29bb 2b66 b1bc a09e 193d e9be 303c
00000070: 743d 7b3c 77eb c53c 3f84 f13a c222 333d
00000080: 1601 7e3d 0c02 ad3c dd81 0f3d d92d 02bd
00000090: 75a2 3e3c 5646 1cba 913f 0d3d c5a5 8d3c
000000a0: aa4d 833d 0c72 6c3d e239 103d b459 313c
000000b0: f85b 623c 28cb b0bc 0519 bbbc 81e2 a93c
000000c0: f3d0 5c3c 90a4 a2bb 1bcc a33c 19a0 a3bc
000000d0: 90fa a53d 1b1d 013d a703 953d c82e fe3c
000000e0: c162 c7bc 05d7 eb3c 42ce 123c 0d40 0f3d
000000f0: be1b f23b c6c0 8fbc 5f6f 533d a284 2c3d
0.024695616 0.07318156 0.02539848 0.019760326 -0.0167346 -0.031760983 0.022423612 -0.050031718
0.00011731896 0.021004561 -0.004795447 0.038966455 0.039459154 0.024869312 -0.030711956 -0.022714704
0.02002564 0.014178455 -0.011342831 0.008326941 0.025244538 0.020474019 0.0057838215 -0.029455783
-0.0025789987 -0.021655163 0.037504792 0.010787704 0.015334476 0.02416013 0.0018426253 0.04373432
0.062012754 0.02111914 0.035035957 -0.031782005 0.011635412 -0.00059614086 0.03448445 0.01729096
0.064112976 0.05772595 0.03521145 0.01082461 0.013815872 -0.021581247 -0.022839079 0.020737888
0.013477552 -0.004963465 0.019994786 -0.019973801 0.08104432 0.031521898 0.07276087 0.031028166
-0.024339082 0.028789053 0.0089603085 0.034973193 0.007388561 -0.017547976 0.051619884 0.042118676

combined.3.weight f4 [64, 64]
00000000: 4205 023e 382a 6b3d 5e57 43bd 6f6e c2bc
00000010: d8ff 03be 8884 7bbd 21d1 0abd ab1c 43be
00000020: b251 7a3c efd7 92bd e373 52bd 25d3 6f3d
00000030: 0138 3f3d 1a4a 2d3d 0828 eabd fb22 46be
00000040: 17e1 fd3d ca13 a1bc f6e0 80bd 81f6 abbd
00000050: fd12 9f3c e624 26be e41c 8ebd 9505 8e3d
00000060: b42d d4bd 19da f9bb b352 ef3c 4fb9 e3bd
00000070: d630 bbbc 5f19 be3a d7ce b83d 170d e73c
00000080: 9c26 12bd b22c 19bd 49e4 923c 8945 a5bd
00000090: c8dd 853d 333a 87bd 23ee aa3c a7f7 65bd
000000a0: a9de 59bc a91b 59bc 96d6 ecbc b5df c53c
000000b0: 3629 10be affb 96bd f20b 0abe 798a 163d
000000c0: babe b73d e294 8bbd 11cc 55bd 0e83 99bd
000000d0: 37ee 18bd abf8 c4bd e809 dd3c da2d 0fbd
000000e0: d03a e8bd 7492 b03d 6af1 a93d 2de4 b6bd
000000f0: 40ef 3d3b 8aaa abbd 51c7 df3c 254d 153d
00000100: f1af 06be ac26 0e3d 1d31 8f3d 1e67 773d
00000110: 932f a03d 63c2 bb3d 1124 15be 0e3a bc3c
00000120: 5e8f bd3d 5f22 fa3d eb3c e33c b356 08be
00000130: ab38 5fbd 5b53 38be c7c0 1d3c dd22 c73d
00000140: 4247 3abe 0fac ee3c f00d b63d 8574 51bc
00000150: 7e98 0fbe e9db 9a3c 68b8 57bd d41b 8cbc
00000160: 5ca2 17bd 46bd 6f3c f4a3 57be 2c0b 9e3d
00000170: f650 dabd 5af3 3bbe 58b4 0fbe 728c f2bc
00000180: 1bc2 32bd 3a6a e6bd 6137 f8bd ce0f a9bc
00000190: 3fc4 fdbd a20a 3f3c 4a18 10bd 9be0 1fbe
000001a0: a390 5bbe 0fea 70bd 74c7 b9bd 1eaa 0dbe
000001b0: 13f3 943c a771 e33d 1d7e fe3d beef 83be
000001c0: 4231 1dbe 6896 143d 3f8d 1e3c 30ff 723d
000001d0: da31 8dbd 9636 5d3d 069f 1fbc 55a6 233d
000001e0: c0da b4bb a663 edbd 2467 3cbe c67f 06bb
000001f0: d1f2 8cbe d5d5 093d 5ff3 56be 8f90 aebd
00000200: d711 983d 75e5 4fbd 54d5 30be 4c16 77bd
00000210: a630 17be c169 0dbe 93ff 6f3d 956e 5ebe
00000220: 0d86 18be c7c0 40be 0783 c2bd cead 1c3d
00000230: 439e 993d 4f71 c23d d368 05be 49ac 2abe
00000240: 67cd a83d 587f 19be a314 8bbe 6d82 48be
00000250: 3d20 8c3d 28e7 fcbd 3e7c b2bd c200 89bd
00000260: ebde 5fbe 6612 c1bb 3dc4 c73b 5275 47b8
00000270: 6ff6 203e c296 df3d 2463 273d f5cd 62bd
00000280: 3fe0 3fbe ea2f dc3d 55e6 873d b112 aabe
00000290: 895c 94bd e9d2 dabd f6b0 f73c 6ac1 ca3d
000002a0: fa7b 2c3d bdb4 d0bc 3240 f0bc 3c4a 143e
000002b0: d39d 1fbd acae 73be e168 51be 2503 8d3d
000002c0: 0ca8 083d a4e7 3dbe da80 4dbe fd97 99be
000002d0: e220 bfbc d125 24bd 32cb 48bc b9c7 2dbe
000002e0: 6d56 a0be 1d76 2c3d 033c ff3b 67a1 2abe
000002f0: 6fdc 873d e206 2ebe d143 293d d6ec 1bbd
00000300: a120 4d3d 60a0 833d dc63 08be b0cd 2dbd
00000310: 964a 00be fadc c1bd a99f 0d3e 54e4 babd
00000320: 5afc babd c4eb ffbd 6cae 11be 572b 1f3e
00000330: 1c8a 4bbd 6cd7 1f3d 5285 45bd 547d 063d
00000340: 504c b43d 920e b43c cfff 97be 1cb3 07be
00000350: 800a e53d ba5e c2bd 79be 87be b7ee 95bd
00000360: 8a8d 24bd 1ef7 3bbe bf4e 233c b1ca 88bd
00000370: bf02 053e ec68 46bd cedc fabc 5a85 103d
00000380: bffb 06bd f229 ffbc 6696 52bc 1d52 b3bd
00000390: 78ab a9bd e80b 81bd 282b db3d f423 04bc
000003a0: 8614 013e a16e b33c e5b4 83bd dc12 95bc
000003b0: 1d10 32be c041 18be 059f 44be fb34 303e
000003c0: 26ec 133e 0378 58be df80 8fbc fa2f 17be
000003d0: 194c 3f3c 4c0d d0bd c338 c73d 96b1 c7b9
000003e0: 33c6 d63b b2d7 ff3c f474 33bd d8b2 0cbc
000003f0: ef1a 043d bcb4 1c3d 2747 99bd 6cc4 4e3d
0.12697318 0.05741331 -0.04769074 -0.0237343 -0.12890565 -0.06140569 -0.033890847 -0.19053905
0.015278267 -0.07170092 -0.05138005 0.058550972 0.04668427 0.042306997 -0.114334166 -0.19349281
0.12396448 -0.019662756 -0.06292908 -0.08396626 0.019418234 -0.16225013 -0.06939104 0.069346584
-0.1036028 -0.007624876 0.029214239 -0.11119329 -0.022850435 0.0014503411 0.090238266 0.028204484
-0.035681352 -0.03739614 0.01793112 -0.080699034 0.06536442 -0.066028975 0.020865506 -0.056144383
-0.013297715 -0.013251224 -0.028910916 0.024154523 -0.1407822 -0.073722236 -0.1348112 0.03675315
0.08971925 -0.068155065 -0.052196566 -0.074957 -0.037336554 -0.09617742 0.026982263 -0.034955837
-0.113393426 0.08621684 0.08297999 -0.0893024 0.0028981715 -0.08382137 0.027316721 0.036450524
-0.13153054 0.03470485 0.069917895 0.060401075 0.07821574 0.09167936 -0.1456454 0.022976901
0.09255861 0.12213587 0.027739009 -0.13314323 -0.054497402 -0.18000548 0.009628481 0.097234465
-0.18191245 0.029134778 0.08889377 -0.012784128 -0.14023015 0.01890369 -0.052666098 -0.017103113
-0.037020072 0.014632529 -0.21058637 0.077169746 -0.10659973 -0.1835455 -0.1403364 -0.029607985
-0.043642145 -0.1125073 -0.12119938 -0.02063742 -0.123909466 0.01166025 -0.035179414 -0.15613024
-0.21441893 -0.058816966 -0.09071246 -0.13834426 0.018182313 0.11105662 0.12426398 -0.25768846
-0.15350822 0.03627625 0.00967723 0.059325397 -0.06894274 0.054007135 -0.009742504 0.03995355
-0.005519241 -0.11591272 -0.1839872 -0.0020522936 -0.27529004 0.03365119 -0.20991276 -0.08523666
0.07425278 -0.050755937 -0.17268878 -0.060324 -0.14764652 -0.13809873 0.058593344 -0.21721871
-0.14894886 -0.18823539 -0.09497648 0.03825169 0.07500889 0.09494268 -0.13028269 -0.16667284
0.082423024 -0.14989984 -0.27164182 -0.19581003 0.068420865 -0.12348777 -0.087151036 -0.06689598
-0.2186238 -0.005892086 0.0060963915 -4.755456e-05 0.15719007 0.10917427 0.040866032 -0.055372197
-0.18737887 0.107513264 0.06635729 -0.33217385 -0.07244212 -0.10684759 0.030235749 0.09900172
0.04211042 -0.025476808 -0.029327486 0.14481443 -0.038968872 -0.23797101 -0.20450164 0.068853654
0.033363387 -0.18545395 -0.20068684 -0.2999877 -0.02333111 -0.040075127 -0.012255477 -0.1697072
-0.31315938 0.04210483 0.0077891364 -0.16663133 0.06633841 -0.16994813 0.04132444 -0.03806766
0.050079945 0.064270735 -0.13319343 -0.042432487 -0.12528452 -0.09465976 0.13830437 -0.091255814
-0.091301635 -0.124961406 -0.14226693 0.15543877 -0.04969226 0.0390238 -0.048222847 0.032834366
0.08803618 0.021979604 -0.29687354 -0.13251919 0.11183643 -0.09490724 -0.26512507 -0.07320922
-0.040174045 -0.18355986 0.009967505 -0.06679285 0.12989329 -0.048439905 -0.030622866 0.035283424
-0.032954928 -0.03114793 -0.012853241 -0.08755896 -0.08284658 -0.06301099 0.10701591 -0.0080652125
0.12605485 0.021903338 -0.06430987 -0.01819747 -0.17388959 -0.14868832 -0.19201286 0.1720771
0.14445552 -0.21139531 -0.017517505 -0.14764395 0.011675858 -0.10158786 0.09727623 -0.0003808855
0.006554389 0.031230781 -0.043812707 -0.008587562 0.03225225 0.0382583 -0.07484274 0.05048029

combined.3.bias f4 [64]
00000000: c6da fd3d acc6 113e a426 d03d 65b5 e03d
00000010: 4983 cc3d 15b8 f53d 373d 0a3e 8178 d5be
00000020: 9179 db3d 0dc0 013e cc6a dd3d 17f4 d1be
00000030: 57ac f43d 8853 a33d 4b71 003e 6c2a cb3d
00000040: b2d7 f23d fb8a d23d 3e9e f93d 58f0 dc3d
00000050: 3d2d debe cc35 0b3e 810f c93d 1d00 093e
00000060: b068 033e acd3 d53d b1fd 0e3e ab93 e63d
00000070: 52d3 1c3e bc0c ab3d 98cb 093e 3aad b93d
00000080: ad12 153e 8930 4e3e d583 0a3e fed6 bd3d
00000090: d41a 1c3e 809c d03d a682 ec3d 8e2c 9d3d
000000a0: 049f 063e a1c9 cd3d a0e6 123e aa42 073e
000000b0: ca78 003e 6c82 073e fa41 d73d a20e 0e3e
000000c0: d61d ec3d 87bc 253e 862d 0b3e 4c9d 253e
000000d0: fb61 213e 9a6b 153e a91e e93d 65b0 bb3d
000000e0: 7c08 343e ccdb e03d b395 153e edeb f83d
000000f0: 6e0b 033e 6c97 1d3e 57ce fd3d 2fa2 e53d
0.12395243 0.14235944 0.1016362 0.10972098 0.09985978 0.119980015 0.13499914 -0.416935
0.10716546 0.12670918 0.108113855 -0.41006538 0.11946934 0.07974917 0.12543218 0.09920201
0.11857547 0.10280415 0.121883854 0.107880294 -0.4339389 0.1359474 0.0981741 0.1337895
0.12832904 0.10440764 0.13963963 0.11258634 0.15314987 0.08352038 0.13456571 0.090662435
0.14557905 0.20135702 0.13526852 0.09269522 0.15244609 0.101861 0.11548357 0.07674514
0.13146597 0.10048223 0.14345789 0.13209024 0.12546077 0.13233346 0.10510631 0.1387277
0.11529128 0.16185199 0.13591585 0.16173285 0.15760033 0.14591828 0.11382801 0.09164504
0.17581362 0.10979423 0.14607887 0.12154374 0.12797329 0.15389794 0.12392872 0.11212575

combined.6.weight f4 [1, 64]
00000000: 62e6 1cbd 53fa 123d 091a 80bd 07a9 1ebd
00000010: cbb6 6b3d 7797 57bd 584d 233d e637 49be
00000020: 143a a43d f352 353d d14f 0fbd 800c 2fbe
00000030: 4e0c 26bd d557 0dbd 63c9 4bbd 1891 4d3d
00000040: 828f 363d 398d 19bd eee7 6d3d 7a67 64bd
00000050: 6b04 ecbd 6d1f 043d e225 8fbd 8cac 803d
00000060: f776 333d e785 7bbd 90d3 07bd a977 633d
00000070: 275d 5a3d 58bf 55bd d27e 353d 9353 86bd
00000080: bf87 393d 2e46 0e3d 5295 28bd 9575 3bbd
00000090: 8413 1c3d 34e1 313d e630 5bbd dafe 6a3d
000000a0: 2fa4 123d a7ef 6abd 1e22 40bd edcf 563d
000000b0: 9a54 1f3d 4df0 28bd 7e04 7abd 21fc 5fbd
000000c0: ad97 74bd 1b62 0b3d bdf4 523d fb09 403d
000000d0: 4a80 443d 3ffc 4f3d fed9 623d c820 823d
000000e0: 4eb3 f53c 6c78 843d 072e 303d 5dd7 62bd
000000f0: 5af5 3f3d a497 143d 3e92 48bd 4202 6a3d
-0.038305648 0.03588326 -0.06254966 -0.038735416 0.05754737 -0.052634683 0.039868683 -0.1965023
0.0801889 0.04426856 -0.03498823 -0.17094612 -0.04053908 -0.03450759 -0.049752604 0.0501872
0.044570453 -0.037488196 0.058082514 -0.055762745 -0.1152428 0.032256532 -0.069896474 0.06282911
0.043814626 -0.061406996 -0.033160746 0.05553404 0.053311493 -0.052184433 0.0443104 -0.06558909
0.045295473 0.034734897 -0.041158028 -0.04576643 0.03810455 0.04342766 -0.05351343 0.05737195
0.03580111 -0.057357457 -0.046907537 0.052444387 0.03889904 -0.041244794 -0.06103944 -0.05468381
-0.05971496 0.034029108 0.051502932 0.046884518 0.04797391 0.05077767 0.055383675 0.06353909
0.029992726 0.06468281 0.043012645 -0.055381168 0.046864845 0.03627743 -0.048967592 0.05713106
