data/models/nov12_24_undersample/fold4_epoch_models/epoch_7_model.pt (torch, 775567 bytes, 9 tensors)

layers1d.0.weight f4 [128, 1280]
00000000: 245a afbd c69d 773c 9569 fdbc d24d 18bd
00000010: 2961 b43c c88b 55bc 8426 483c 92e7 9fbb
00000020: 96f4 4ebd f9ec 053d 3052 89bc 9e4b a8bd
00000030: 2993 86bb 513c f43c bd61 0b3c 8665 2f3d
00000040: aedc 1cbc ad16 613c 6789 7abd 8f92 43bd
00000050: acb7 89bd 59a7 353c 4746 cbbc 51cc 873c
00000060: e096 463c 6d30 eeba 80d6 b9bc 1e49 cfbd
00000070: 314e 11bd 42b7 0b3c 93da 48bc d70a e1bc
00000080: 37e4 42bc aa87 26bc ad3b 71bc 6705 f03c
00000090: a391 6ebd 3b83 773a d48c 063d 77b4 5a3d
000000a0: e5ec 853b 42d5 f3bc 9736 b0bc c40f 0c3c
000000b0: f4e5 37bd 4876 4abd 94e3 c63c 7bc2 043b
000000c0: d7ca 32bd e6b7 043c 2c6e d5bc 7578 413d
000000d0: 10c5 f2bb 272c 263c 751a 0cbd e0b9 443c
000000e0: 2494 d53c 34a3 d53d 45b6 633d f81a e63c
000000f0: 8b07 da3b 3398 cb3c 420f 993b 1431 153c
00000100: 8245 a63b 6e73 803d 4e07 13bd 1142 703d
00000110: b5ab 06bd c58d 8abc b703 643c bc8b bfbc
00000120: ef8f aa3d 4624 78bc c8bf 99bd c31e ce3d
00000130: cda0 9d3d f6e8 1ab9 14c8 6b3d 64d0 7bbb
00000140: 8ff7 a4bd b62a 68bc 687e 103b ae7e 52bd
00000150: 2baf 8b3c b15c 6ebd 0f3b 053d ba32 4c3d
00000160: db96 ccbc 6300 b33c a996 643c 3936 e73b
00000170: c019 d63b 1fe8 923c fc8b 8d3c 56e2 8c3b
00000180: 64e7 263d e87c 623d d916 9abd d4d4 ca3c
00000190: 3312 cbbc 339d 263d fe8c 423d 32f7 1a3c
000001a0: 8689 87bb 8dbf 6ebd b50a bdbd e24e 663c
000001b0: cbb3 b0bd fbed 413d 4533 873d d602 aebb
000001c0: ac67 823c e1ee cb3d 4440 c2bd 5199 22bd
000001d0: 4390 85bb 1f79 75b9 a193 87bd fb2b eabc
000001e0: 4fdf 343a 43a0 d1bc 0e5b b839 2e3d ebb6
000001f0: fa2c 01bb 34f8 af3c 1787 88bb 62a4 4dbd
00000200: ee19 d5bc 3cf9 fcbc 70ba 2dbd 5923 e1bc
00000210: 41d9 413d d722 c3bd 5d54 c5bc 25fc 73bd
00000220: 1f28 0ebd 5c93 b8bc 8571 85bd 0dd2 713d
00000230: a73c da38 d385 1b3b 3c04 3a3c 70f7 1fbd
00000240: 01a7 fdb9 cbc1 80bd 2f5a a7bd 396d 453d
00000250: 0385 bc3d 153b ec3c d725 a3bc 0a07 0abd
00000260: 0fa1 273d a388 dd3c 1b45 dabc 5499 b1bc
00000270: d2ea 623c 7572 51bc 5030 483d 2845 fabb
00000280: eac2 983c 00e9 b8bc 07a7 943c 3067 0b3d
00000290: c84d 8a3b 8786 54bd ddc6 963c 5017 bcbc
000002a0: e952 0e3c fd80 bc3d 4f5a dfbb cfc4 fcbc
000002b0: 7395 52bd e35f 4c3c f09c 3a3d 83ed 24bc
000002c0: 068b be3b 41ba c13c 0186 c3bc 45ca 0e3d
000002d0: a9ea 893c dea0 02bc 7606 cbbd 06aa b63c
000002e0: 0e8a 2dbd 59fe e3bc 3660 5f3d 8cf5 57bc
000002f0: 3997 2fbd f649 a03d 67f7 963d 1582 54bc
00000300: ae1d ca3d 0c8c 75bd 19d6 b03b 3443 033d
00000310: 634f 42bd 2397 1ebe e4b8 963d 9b6a 7d3c
00000320: a77d 4bbb e8b5 14bd 3cd4 893c af92 0b3d
00000330: 6cda a4bd 8ab2 853c bf06 8dbc 40e9 1abd
00000340: 03af bc3c 5de6 0e3c 6323 61bc 619f 913c
00000350: 118c d8bc 1f15 0dbc cc97 053d c0f4 8c3c
00000360: f24c bb3d 3ba7 7d3d d4b1 403d 9b44 8c3d
00000370: 416c 64bc 5f08 733c 1864 6e3d e228 d83b
00000380: d03b 313d 35ac 353d 734e 3bbc 20f5 f13c
00000390: 02d0 873b 0bd8 babc 791c a6bd 8307 80bc
000003a0: cd97 80bc 6e9a 683c a432 153c 9561 febc
000003b0: deb3 cabd 718a 82bd a14a a8bd 880e 2dbb
000003c0: 7100 213c f3d3 6fbd ca12 c03d a847 7e3c
000003d0: 51c6 24bd 06b7 44bd c9f6 d63d 2d20 ed3c
000003e0: 2e1d 4dbd b0ce f73c 966a 1dbb 20aa 9d3b
000003f0: 586a 6f3d 6105 7b3d 1a29 2ebd d21e 48bd
-0.08562115 0.0151133 -0.030934134 -0.03718359 0.022018986 -0.013033815 0.012216214 -0.0048799003
-0.050526224 0.032696698 -0.016762823 -0.08217548 -0.0041068983 0.029813917 0.008507189 0.04282143
-0.0095740985 0.0137383165 -0.061166193 -0.04774719 -0.06724486 0.011087262 -0.024813784 0.016576918
0.012120932 -0.0018172391 -0.02268529 -0.10121368 -0.03547496 0.008527579 -0.012259143 -0.02747099
-0.011895231 -0.010164181 -0.0147237005 0.029299451 -0.05824436 0.0009441857 0.032849148 0.05339476
0.004087078 -0.029764775 -0.021510405 0.008548681 -0.044897035 -0.049429208 0.02427844 0.002025752
-0.043650474 0.008100485 -0.02605351 0.047234017 -0.0074087456 0.010142363 -0.03420492 0.012007207
0.026071616 0.10431519 0.055593748 0.028089032 0.006653731 0.024852848 0.0046710083 0.009105939
0.005074204 0.062720165 -0.03589564 0.058656756 -0.032878596 -0.016913304 0.013916901 -0.02338206
0.083282344 -0.015145367 -0.075072825 0.10064461 0.07696686 -0.00014773369 0.057563856 -0.003842377
-0.080550306 -0.014170339 0.0022048 -0.051390342 0.0170513 -0.058193866 0.032527026 0.049853064
-0.024974277 0.02185077 0.013951936 0.0070560244 0.0065338314 0.01793295 0.017278664 0.0042994423
0.040748015 0.0552949 -0.07523889 0.024759687 -0.024788952 0.04067726 0.047497742 0.00945835
-0.004136267 -0.058288146 -0.09230558 0.014056893 -0.08628043 0.047346096 0.06601576 -0.0053103967
0.015918575 0.09957672 -0.09484914 -0.039696995 -0.004076035 -0.00023410142 -0.06619955 -0.028585425
0.00068997307 -0.025589114 0.00035163056 -7.010668e-06 -0.0019710646 0.021480657 -0.0041664946 -0.050205596
-0.02601334 -0.030880563 -0.04241413 -0.027482675 0.04732633 -0.095281295 -0.02408808 -0.059566636
-0.03470623 -0.022531204 -0.06515793 0.05903821 0.000104063474 0.0023730888 0.011353549 -0.039054334
-0.00048380348 -0.06286963 -0.08171498 0.048199866 0.092050575 0.028836766 -0.019915504 -0.03369812
0.04092508 0.027042693 -0.02664428 -0.021679558 0.013849931 -0.012783636 0.0488742 -0.0076376386
0.01864763 -0.02257204 0.018146051 0.034033954 0.004220698 -0.051886108 0.018405372 -0.022960335
0.0086867595 0.0920429 -0.0068161855 -0.030855564 -0.051412057 0.012474033 0.045559824 -0.010066393
0.0058149127 0.023648383 -0.023867609 0.034860868 0.016835527 -0.007972924 -0.09913342 0.02229787
-0.042367987 -0.027831243 0.054535113 -0.0131811015 -0.042868827 0.07826607 0.07371407 -0.012970467
0.09868942 -0.059948012 0.005396616 0.03204651 -0.04743899 -0.15487342 0.07359484 0.015467311
-0.0031050236 -0.03630629 0.016824834 0.034075435 -0.08049473 0.016320486 -0.01721513 -0.0378201
0.02303267 0.008721915 -0.013741347 0.017776193 -0.026433976 -0.008610993 0.032615468 0.01720655
0.091455355 0.06192706 0.04704459 0.06849023 -0.013941825 0.014833539 0.058200926 0.0065966705
0.043269932 0.044353683 -0.011432278 0.02953583 0.0041446695 -0.022808095 -0.081108995 -0.015628582
-0.015697384 0.014196975 0.009106312 -0.03105239 -0.09897588 -0.06374062 -0.08217359 -0.0026406366
0.009826765 -0.05855174 0.09378584 0.015520014 -0.04022819 -0.048026107 0.10496289 0.028946007
-0.050076656 0.030249923 -0.002401983 0.0048115402 0.058451027 0.061284427 -0.042519666 -0.048857518

layers1d.0.bias f4 [128]
00000000: 714d 4cbd 7520 3bbd c7b1 89bc b43c 3bbc
00000010: 820e a5bc c404 d1bc 2000 11bd b24b 67bd
00000020: de65 09bc 36d1 bebc 1a1b e4bc a25d 37bc
00000030: 72b3 00bc 7f95 92bc e130 6dbc 387a 63bc
00000040: 81a1 d5bc 23ab 07bc ee68 3abc 0f82 58bd
00000050: 1454 4abd 6c3d 05bd 334b ecbc 7d13 03bd
00000060: 4ab8 cd39 e698 71bb 4754 d4bc e210 e2bc
00000070: a313 01bd c509 3f3b 80d7 61bd e4ed fabc
00000080: ed2c 01bd 03f0 3e3a 2417 dfbc cb62 74bc
00000090: af0e 89bd e0cc 1bbc cf6d 2ebd 3de4 1abd
000000a0: c3e2 afbb eb25 28bd baca 4bbd d917 acbb
000000b0: 9eea 91bd 1d4c 9cbc d6bf 91bc 890e 05bd
000000c0: 2e82 33bc e253 39bd 0ddc 8ebc 41a1 90bc
000000d0: 8ad8 89bc fe82 1bbd 063b 26bd e340 2abd
000000e0: e906 85bc c067 22bd ea22 12bd c3d2 5b3b
000000f0: 1aa9 10bd 66a9 873b 6ed9 a7bc 8c73 33bd
00000100: 5300 4dbd 1def b6bc 0801 1bbd f0da 0abd
00000110: 296d 59bd 96ee 04bd 12e9 1fbd 9d54 05bd
00000120: bace 78bd 8bdb fbbc c16f 1ebd f6b7 16bd
00000130: a6ee f2bc 177c e0bc 1317 c3bc e07f 0fbd
00000140: f798 bbbc 75bc 25bd 0dea 0ebd 18d0 48bd
00000150: 7f51 e5bc fabe 23bc dd91 7dbc c0f2 d3bc
00000160: 3697 88bc 18b7 05bd 5a8a 2fbd 2a13 4dbd
00000170: 3451 8ebc 51a5 e4bc a83f 74bd 76c2 f7bc
00000180: 40ef 40bd 680a 4bbd e68c 39bd 5dce 99bc
00000190: cec5 3cbd 1f4f 16bd cfe9 e0bb 89be 44bd
000001a0: 6c3b cb3b a3b6 0bbd 3441 cdbb 51a8 d0bc
000001b0: 376d 2cbc 8c2f 97bc 1ecf 73bc 159d 3abc
000001c0: 0578 2bbc b53f 18bd a76a 6cbb c3c2 0dbc
000001d0: ec37 efbc 84a9 0e3c 5a16 87bc b284 18bd
000001e0: 0571 0fbd cc5a 18bd c8e7 40bc c374 5abc
000001f0: f6c6 5dbd 68aa dbbb 8fa2 18bd 4268 debc
-0.04987854 -0.04568525 -0.016808404 -0.011428047 -0.02014852 -0.025514968 -0.03540051 -0.056468673
-0.008386103 -0.023293119 -0.027844954 -0.011191757 -0.007855283 -0.01789355 -0.014476986 -0.01388412
-0.026077988 -0.008280548 -0.011377556 -0.05285841 -0.04939659 -0.03252928 -0.028844452 -0.032001007
0.00039237953 -0.0036864816 -0.025919093 -0.027595941 -0.031512868 0.002915011 -0.055137157 -0.030631013
-0.031536985 0.00072836893 -0.027232714 -0.014916132 -0.06692254 -0.009509295 -0.04258519 -0.03781532
-0.0053676083 -0.041051786 -0.049753882 -0.0052518663 -0.07124828 -0.019079262 -0.01779167 -0.032484565
-0.01095633 -0.045246013 -0.017438913 -0.017655017 -0.016826887 -0.03796672 -0.040583633 -0.041565787
-0.016238647 -0.039649725 -0.035677828 0.0033542372 -0.035317518 0.004140067 -0.02048942 -0.043811366
-0.050049137 -0.022330815 -0.03784278 -0.0339002 -0.05308262 -0.032454096 -0.039040633 -0.032551397
-0.060744025 -0.030744335 -0.038680796 -0.036796533 -0.029654812 -0.02740292 -0.023814714 -0.03503406
-0.022900088 -0.04046293 -0.034891177 -0.04902658 -0.027992962 -0.009994263 -0.015476671 -0.025872588
-0.016673665 -0.032645315 -0.04285655 -0.050067104 -0.017372705 -0.02791086 -0.05963102 -0.030244093
-0.047103167 -0.04957047 -0.045300387 -0.01877516 -0.04608708 -0.03669655 -0.0068638097 -0.04803327
0.006202152 -0.034109723 -0.0062638763 -0.025470885 -0.010524086 -0.01845529 -0.014880924 -0.01138999
-0.010465627 -0.03717013 -0.0036074312 -0.008652392 -0.02920147 0.008707408 -0.01649015 -0.037235923
-0.035019893 -0.037195966 -0.011774011 -0.013333502 -0.054144822 -0.0067036636 -0.037264403 -0.027149323

layers1d.3.weight f4 [128, 128]
00000000: 34d5 11bd 9bc0 59bd 74e7 97bc bd83 4d3d
00000010: 87b2 0bbb 8539 1abd f197 debc 27c2 3d3d
00000020: cc90 85bd bfde b83d 4df3 78bd 9be2 f3bc
00000030: c8e0 e2bd 917f abbd 4160 26bd a90d d1bc
00000040: 6bb2 b8bd 1023 56bc 6638 37bd 737c b13d
00000050: 2079 57bc 6088 8a3d a423 983d 004d bbbb
00000060: 6d2f 56bd 6c80 b3bd 5d40 3e3d 0f70 00bd
00000070: ce0e 933d 95d5 403d 533c c4bd 723d d8bd
00000080: e3ca 74bc 3d44 87bd 0d9c 873d 38dd 5abd
00000090: 3ea8 ff3d 6458 253e 7c39 9f3d dde9 25bd
000000a0: b684 edbc c5ba d43d b66b b23d aba2 babc
000000b0: 30c5 0b3e d585 01be 8aae 3abd 2ea8 143c
000000c0: dac8 5e3c d939 b93c eb93 8d3a 5d60 6cbd
000000d0: c7ee 7e3c 8893 b1bd a51b 48bd 1e9d 1ebd
000000e0: 1fa8 34bd 6c67 9fbd 70d8 093d b63d 57bd
000000f0: 7d23 bebc 68d6 fbbc b056 b8bd e2a3 fc3c
00000100: 85d2 8f3d b04c c53d a217 c93d 1182 103e
00000110: 7186 ffbb 85c1 d83d f7d4 4ebd 3ed0 b2bd
00000120: f6c5 00bd 97ce 08be 9870 0dbd 2537 0f3c
00000130: c50b ac3d 9e8d 86bd d2d0 253d 68b8 aa3d
00000140: dfe8 fcbc 95b1 513d aa59 a93d 33dc 1ebd
00000150: 6836 8bbc dc80 83bd 3683 bd3b d61d 09be
00000160: a41f 66bd 20fe 88bd a35c 40bd 12c3 99bd
00000170: 36ff d1bd 37e8 65bd 455e 573c a4c3 d7bd
00000180: 187f fc3c 82d4 a1bd 516c c0bc e2d9 943c
00000190: 3cec 313d 7f8d 9ebd 27d4 d93d a347 0b3e
000001a0: 63ea d7bd 9839 3dbd 7748 b1bd 1754 763d
000001b0: 6e08 c13d 735e 0ebc e559 42bd 49e6 27bb
000001c0: 1fd1 c1bd 5f3d 87bd c1c2 9b3d 6c15 05be
000001d0: be29 3d3c 06e9 1bbd 0f06 193b dde0 d93c
000001e0: ee67 38be f170 883d aa65 50bd 7dbf 2cbe
000001f0: a844 ca3d c4a8 bebd e6bd eebc 0b6a 75bd
00000200: 9f73 4e3d f6cf 25be 2f70 cf3d 63b0 30be
00000210: 9c21 afbd 55e9 973c e0e2 003e 7b4b d6bd
00000220: 8357 a73d 3fd5 84bd fa4d 313d 8403 24be
00000230: 1be0 233c 4c0c 193d 7eb0 463d d066 5ebd
00000240: 30af 483d 6b16 3f3c b363 17be 285b 83bc
00000250: 2846 1f3d dbe8 a0bd 3864 51bc b01e 353c
00000260: cc57 bfbd 8dda 87bd 87be b8bd d2d5 083e
00000270: f534 28be b48e 833a 7bb2 ee3d 8ad9 af3d
00000280: c050 d43d 62ff 7b3d bf8d 8abd a64f 9a3d
00000290: 84dc 87bd 892e 453c f5d5 91bd c9ea d33c
000002a0: 1427 e4bd 0609 b3bd a4ab b1bd 66b4 8fbd
000002b0: f6b0 953c 3d07 8d3c fe9d d3bb 7e2a 393c
000002c0: b7dc e9bd 7057 64bd 2795 0ebe 973e d9bb
000002d0: c2e9 b6bd 82eb 113e 51b4 54bd 9638 70bc
000002e0: 7068 e1bb 3626 95bd 65b8 eebd 35c4 d5bb
000002f0: 1a04 fdbd 573b 173d bfe6 083e 54c3 9ebd
00000300: 9463 18bd 59e7 62bd 35b4 5dbd cde2 eebd
00000310: 8d2b b7bd e613 dbbd 5187 6f3d 5665 70bc
00000320: f59b 7f3d 580a 87bd c591 c93d 9511 8dbd
00000330: 4ed4 b63d 9f91 d3bd ad0b 83bd bbf8 94bd
00000340: e198 c7bc ddce 8abd f294 84bd 8b7c 1cbe
00000350: f56e 92bd 840a c7bd a01e 033c 0b1c ff3d
00000360: ff32 8cbd be20 073e 53ce cdbd e0e2 663d
00000370: 6e63 c83d f32a 29be e82e 08be a3f5 2cbe
00000380: 699a 1b3d 2c83 3b3d ebed cebc eb1b e4bd
00000390: c631 fbbd 30e7 8bbc 2a02 30be ad6c febd
000003a0: 7d96 9a3c 736c e1bd c300 bc3d d93c a6bd
000003b0: 491f 70bd de3b 3dbc 9eb9 043e 8574 b73d
000003c0: e7d3 8a3d 9627 d23d d6cb 69ba bc2f 0dbe
000003d0: e06c 91bd bceb da3b 4d50 92bd c40b e7bd
000003e0: 3957 0d3d 58ee c33d 0bef 063d a093 92bd
000003f0: 913a 5dbd 1c47 093c cadd 283c ff57 bf3c
-0.035603717 -0.0531622 -0.018542983 0.050174464 -0.0021316127 -0.03765251 -0.02717206 0.046327736
-0.065217584 0.090268604 -0.060778905 -0.02977114 -0.1107803 -0.08373941 -0.04061914 -0.025519209
-0.090184055 -0.013069883 -0.04473152 0.08666315 -0.013151437 0.06764293 0.07428673 -0.005715966
-0.052291322 -0.08764729 0.0464481 -0.031356867 0.07180558 0.047078688 -0.095818184 -0.10558595
-0.01494095 -0.06604812 0.06621561 -0.053433627 0.124832615 0.16147 0.07774636 -0.040506233
-0.028993946 0.10387186 0.087119505 -0.022782644 0.1364944 -0.12648709 -0.04557661 0.0090733
0.013597691 0.022610592 0.0010801529 -0.057709087 0.015559859 -0.086707175 -0.04885449 -0.038724057
-0.044105645 -0.07783398 0.033653677 -0.052549087 -0.023210282 -0.030741885 -0.09000909 0.030839864
0.07022575 0.096337676 0.09818961 0.14112116 -0.007798009 0.10583786 -0.050496068 -0.08731125
-0.03143879 -0.13360058 -0.034531206 0.008741175 0.08400682 -0.0656998 0.04048235 0.08335954
-0.03087276 0.051194746 0.08269055 -0.038784217 -0.016993716 -0.06421062 0.005783464 -0.13390288
-0.05618252 -0.066890955 -0.046963345 -0.0750791 -0.10253756 -0.05612966 0.013145034 -0.10535362
0.030822322 -0.07901861 -0.02348915 0.0181703 0.04343818 -0.07741832 0.10636168 0.13601546
-0.105427526 -0.046197504 -0.086564 0.060138788 0.09425436 -0.008689511 -0.04744901 -0.0025619438
-0.09463715 -0.066035025 0.07605506 -0.12996453 0.011545597 -0.038064025 0.0023349558 0.026596481
-0.18008396 0.06662167 -0.050878204 -0.16869922 0.098763764 -0.09309533 -0.029143285 -0.059915584
0.050403234 -0.16192612 0.10128819 -0.17254786 -0.08551332 0.018543879 0.12586546 -0.104636155
0.081709884 -0.06485986 0.043287255 -0.16016966 0.010002161 0.037365243 0.04850816 -0.05429727
0.048995197 0.01166306 -0.14784126 -0.016034678 0.038885266 -0.07856914 -0.012780242 0.01105468
-0.09342918 -0.06633482 -0.09020715 0.13362816 -0.16426452 0.0010037036 0.11655136 0.08586414
0.10366964 0.06152285 -0.06765317 0.07534723 -0.06633857 0.012035021 -0.07120887 0.02586879
-0.11140266 -0.087419555 -0.08675316 -0.0701683 0.018272858 0.017215366 -0.006458043 0.011301635
-0.11419051 -0.05574745 -0.13924085 -0.0066297757 -0.089313045 0.14249995 -0.051929776 -0.014661929
-0.006878905 -0.07282679 -0.11656264 -0.006523634 -0.12354298 0.036921825 0.13369273 -0.077521
-0.03720434 -0.05539641 -0.054126937 -0.116643526 -0.089438535 -0.10697155 0.058478657 -0.014672598
0.06240459 -0.0659377 0.098422565 -0.06888119 0.08927213 -0.103305094 -0.06398711 -0.07274004
-0.02436489 -0.06777737 -0.064737216 -0.15281884 -0.071500696 -0.097188026 0.008002907 0.12456521
-0.06845664 0.13196084 -0.10049119 0.05636871 0.0978459 -0.1652029 -0.13299143 -0.16890578
0.037989054 0.045779392 -0.025259933 -0.111381374 -0.12265353 -0.017078012 -0.17188326 -0.12423072
0.018870587 -0.11007013 0.09179833 -0.081170745 -0.058623586 -0.011549918 0.12961432 0.08957771
0.067786984 0.10261457 -0.00089186186 -0.1378774 -0.071008444 0.0066809338 -0.071442224 -0.11281541
0.03450701 0.09566945 0.032942813 -0.071570635 -0.05401093 0.00837877 0.010306785 0.02335739

layers1d.3.bias f4 [128]
00000000: fe3c 113d 8930 863c 0ea6 be3c 420a 963b
00000010: 6463 903a 4487 3e3d 3e56 f7bc 8f92 643a
00000020: 5913 10bd 6fe6 6dbc eb9a 163d 4534 a5bc
00000030: 8c0d 223c 0fd2 17bc fc62 d33c 42cb 223c
00000040: f6ef ea3b 8f67 32bc 3b8a c5bc 8b39 08bd
00000050: 87bf 97bd 20ea 0fbc e086 143d b684 5a3b
00000060: 5b2b 173d dca4 07bd 3e12 9e3c 162c 31bc
00000070: 4030 b7bb f36b 3d3c 48c6 35bd 2060 be3c
00000080: eae6 873d 3bb8 09bc b426 853c e9a2 bc3c
00000090: 7ca1 f23b 6600 923c f522 39bc d9d9 8ebb
000000a0: 9473 113d e4b0 7f3d ec37 74bb 2564 bb3b
000000b0: 62f7 abbc 5ad3 483d c233 44bc 36b1 283b
000000c0: d12d 55bd 7854 14bc 6e0b e13c 6919 4f3c
000000d0: 1754 2abd 38da 4b3c 934d 323c e778 e83b
000000e0: 62d8 bf3a 1c1f 89bc e162 67bc 4572 7d3c
000000f0: 8129 16bc 2f30 a13c 7a8e 793c 6cd7 863b
00000100: 942f 4e3b 0958 bdbc a6f0 bcbc 747e a33b
00000110: c088 403c daab f13c 14aa fcbc bf00 ed3b
00000120: 52f5 9cbb c4f2 573c cd46 7f3b 174c c8bc
00000130: 3697 f1bc db4d 27bc 6120 9dbc 2e95 f13b
00000140: 78ea 303d 9e55 6cbc 3f83 84bc 7792 ef3b
00000150: 0ba5 53bc 2fd4 66bc 144b 05bd e312 83bc
00000160: 3ecc 27bd 9872 3bbc b11c c5bb 5dcc be3c
00000170: b6aa b93c f9b4 023c 1266 013d 4a77 81bd
00000180: 17d9 c7b9 7d81 aabc b1e1 9fbb 9766 213d
00000190: abf5 ef3c 1c1b 96bb 6a87 57bd 8d91 d5bc
000001a0: 6f6e 4bbb 9959 543d dc86 0fbd 6f89 563d
000001b0: c5ad c3bd 57aa 333d 020d 4f3d 6120 223c
000001c0: 52cb a73c 6da4 c33c 8b71 f13c c130 033c
000001d0: 50fd c03c 0048 0ebd a3f0 f0bc 1e90 49bc
000001e0: a820 183d 4496 56bc e653 67bc 2ca3 48bc
000001f0: f48d ddbc 91c6 9a3c f568 163d 644e a6bc
0.035458557 0.016380565 0.02327254 0.0045788595 0.0011015949 0.046515718 -0.03019249 0.00087193487
-0.0351747 -0.014520272 0.036768835 -0.020166526 0.009890925 -0.00926639 0.025804035 0.009936156
0.007169719 -0.010888948 -0.024113765 -0.033258002 -0.07409578 -0.008783847 0.03626144 0.0033343262
0.03690658 -0.033116207 0.019295808 -0.010813734 -0.0055904686 0.011561382 -0.04437855 0.023239195
0.0663584 -0.00840574 0.016253807 0.0230269 0.0074045043 0.017822456 -0.011299838 -0.0043594656
0.035510615 0.062424555 -0.0037264777 0.0057187253 -0.020991985 0.049029686 -0.011975231 0.0025740392
-0.052045647 -0.009053342 0.02747127 0.012640336 -0.0415841 0.012442164 0.010882753 0.007094491
0.0014636631 -0.016738467 -0.014122696 0.0154691385 -0.009165169 0.019676296 0.015231723 0.0041150358
0.0031461464 -0.023113267 -0.023063969 0.0049894396 0.011751354 0.02950089 -0.030842818 0.007232755
-0.0047899866 0.013180438 0.0038952113 -0.024450345 -0.029491048 -0.010211433 -0.019180479 0.00737252
0.043192357 -0.01442471 -0.016175864 0.007311161 -0.012917767 -0.014088674 -0.032542303 -0.016000217
-0.040966265 -0.0114408955 -0.006015383 0.023290807 0.02266441 0.007977718 0.031591482 -0.06321581
-0.00038117982 -0.020813698 -0.0048791994 0.039404478 0.029291948 -0.0045808684 -0.052619375 -0.02607038
-0.0031041165 0.05184326 -0.03504072 0.05237716 -0.09554628 0.04386362 0.050549515 0.009895415
0.020482693 0.023882115 0.029473087 0.008007229 0.023558289 -0.034736633 -0.02941162 -0.012302427
0.03714052 -0.01309735 -0.014119124 -0.012245934 -0.027045228 0.018893512 0.03672119 -0.020301051

combined.0.weight f4 [64, 128]
00000000: 68d7 0dbe cb5f c63d 0f9d 46bd 7b50 fdbd
00000010: ce03 4cbe 917d b8bb 6adf 93bd e02d 053d
00000020: f8ef 46bd dcf7 4b3d 765f 893d e018 48bd
00000030: 9e76 243c 2edf 0bbd e5e1 093c 589d aebd
00000040: 7977 2fbd 640c 8d3d 1c9b c3bd 6e90 90bd
00000050: 097a 1f3d fa15 723d 8e67 123d c522 983c
00000060: 799b 02be 7c2d e93d e463 04be 0e49 3bbe
00000070: 1488 e8bd f296 8e3d f8ed 1d3d 1a5b 0a3e
00000080: 551c 82bc 367c ba3c 94ff 35bd d791 39bd
00000090: 55ea 5abc 84ee b53d f538 82bd d3ca bdbb
000000a0: 8e49 3f3d 8728 363d 127f bb3d a3f4 d63d
000000b0: 2649 d83d b84a 59bc b13b 843b 34a3 20be
000000c0: 8c71 a63b 5159 11be 93a2 e2bc fe8a 87bc
000000d0: b572 6fbd d760 8c3c 2842 d3bd da01 fbbd
000000e0: 9b49 cebd 5d85 3fbb 416f 313b 7039 a5bd
000000f0: 47a5 f3bd 23f4 24be 307a ef3b 7e4c 433d
00000100: 20b0 a2bd b34a b6bd 9b9f 313c 23e1 053e
00000110: cf3d a73d 388b e23c 51a3 1bbc 7b1d d13d
00000120: af4b 3cbd 3a3f 4c3c d4ca 22bc 3a2d 3ebe
00000130: 889a 09be b323 b1bd 667d 4bbd 28fc babd
00000140: 5145 9dbc 11a7 a6bb 22fe 0e3d 6c6a 6d3d
00000150: bdde 38bd c519 06bc 08ea a53b 350b c6bd
00000160: 40c6 483d 5c37 323d cf95 bebd 0a90 93bd
00000170: 88e1 32bc d2e5 463d ebbf 863d 8a6f f2bc
00000180: 4fc0 b6bd 3ed5 3e3d e144 473d 2485 4cbd
00000190: 4b07 0abd db88 863b daa6 e3bc dc48 5cbd
000001a0: 7a2d b63d fa7b c1bd 84d9 05bc 9859 243d
000001b0: 0087 bd3d 1183 a53d c928 553d 1de4 c0bc
000001c0: 2d85 9abd f867 2abd dab7 f23d e92c 633d
000001d0: 0510 06be 05fc 303d 4428 d93c 812a cd3c
000001e0: 0a6a 0bbe 6afc 91bd ac28 0abd 44a1 afbc
000001f0: 6af1 9c3a 8363 adbd 1df1 d5bc 8095 bb3c
00000200: c269 c7bc 36b4 1e3d 16c6 78bd da87 493c
00000210: c48c efbd 395e c1bd 95b7 afbd ef54 e23b
00000220: 8af5 46bd e480 82bd 4a8b 13bd 71fe 0abd
00000230: 6475 153e fcf3 eabd 617e a4bd 1b4a 073d
00000240: a652 1cbc 540f 84bd 5619 5a3a 67c1 99bd
00000250: 6e77 d2bd 1aa4 bd3d 9903 c83c 2921 7c3d
00000260: 1697 c4bc 1889 e13d 88d8 823c 7e2c b4bc
00000270: 0b9b 7c3d b3cc 603d 5655 e53d 8d5c f83c
00000280: 005d 3b3c 5d93 1cbd ba34 783c 54da 8bbd
00000290: f071 2e3d 033f 6ebc d0af 803d 80ad 37ba
000002a0: 7474 cc3c 679c 8b3d 2c69 1a3e b18c 6b3d
000002b0: 9492 f93c 19e6 323d 6790 0f3e 89b1 46bc
000002c0: 3ff2 15bd b244 9ebc 8e4d c63d aa34 7fbd
000002d0: bd43 363d 9941 5d3d c544 7bbc 6f5f aebd
000002e0: 28a1 17bd 87bc 1ebd d54f 01be 1f42 3cbd
000002f0: 2e4e 15bc e938 da3a 86bb fd3b 5db2 f53c
00000300: 01d5 6dbc 65cb b0bd 684e abbc 725a 033d
00000310: a137 c0ba a89d 293c 0ff5 febc e802 8c3d
00000320: 25ff 46bc e7a4 053d 1d28 893d de24 f2bc
00000330: b328 da3d 7d04 5fbd 235f 093d c4fa 5abc
00000340: 4510 5e3c 9f67 fd3b e462 4abd 945c e3bc
00000350: b3a3 bfbd 0315 42bd ce76 353c 948e ff3b
00000360: ee28 f23d c354 01bb 6315 16bd 2166 23bd
00000370: c6cb 84bd dd34 8cbc 65ed 7abd e17f 83bc
00000380: c7a0 7b3d 6052 9b3d 1a21 1f3d c0fc babc
00000390: 5f75 fc3d 4db1 0f3c aefc ddbc 7a61 6d3d
000003a0: 288e debc 91f1 84bb 76ed 053d 511d ff3c
000003b0: 5ed0 fb3c 751f a63d dbf5 37bd 3d14 0e3e
000003c0: 3425 d5bd e7bd 8f3d af8b 843d a93c 8a3c
000003d0: 44c6 38bd 4502 3dbd f996 913c 41b3 c83b
000003e0: 6c68 bd3c c80a 93bd 5df8 86bd cf03 7dbd
000003f0: b4f9 6e3d b2cd f6bd 50ff 2ab9 6640 98bc
-0.13851702 0.0968624 -0.048489626 -0.12368866 -0.19923326 -0.005630203 -0.07220347 0.032514453
-0.048568696 0.049796924 0.06707661 -0.048851848 0.010038046 -0.034148388 0.008415674 -0.08526105
-0.042838547 0.06887129 -0.09551069 -0.07058798 0.03893474 0.05910299 0.03574329 0.018571267
-0.1275462 0.113856286 -0.1292873 -0.18289587 -0.1135408 0.06962384 0.038557023 0.13511315
-0.01588265 0.022764307 -0.04443319 -0.0453051 -0.013361533 0.08883384 -0.0635852 -0.005792001
0.046701007 0.044472244 0.09155096 0.104958795 0.10560827 -0.013262443 0.004035436 -0.15687257
0.005079454 -0.14194228 -0.027665412 -0.016545769 -0.058459003 0.01713602 -0.10315353 -0.122562125
-0.10072633 -0.0029223778 0.002707437 -0.08067596 -0.118967585 -0.16108756 0.007308267 0.04768037
-0.079437494 -0.089009665 0.010841276 0.13074164 0.08166086 0.027654275 -0.009499387 0.10210701
-0.045970615 0.012466246 -0.009936053 -0.1857194 -0.13437855 -0.08649387 -0.049680136 -0.09130126
-0.019198092 -0.005085834 0.03491033 0.05796282 -0.045134295 -0.008184855 0.005063299 -0.09670106
0.04901719 0.043509826 -0.093059175 -0.07205208 -0.010918029 0.048559017 0.06579574 -0.029594202
-0.08923399 0.046590082 0.048649672 -0.04993166 -0.03369836 0.00410567 -0.027789522 -0.05378042
0.08895393 -0.09447475 -0.008169536 0.040124506 0.09254265 0.080816396 0.05204085 -0.023546273
-0.075449325 -0.04160306 0.11851473 0.05546275 -0.13092048 0.043209095 0.026508458 0.025044682
-0.1361467 -0.07128222 -0.033730194 -0.021439202 0.0011973802 -0.08466246 -0.026115948 0.022898436
-0.024342421 0.03874608 -0.060735784 0.012300456 -0.11696771 -0.094418 -0.08579937 0.0069070975
-0.048574008 -0.0637224 -0.03602151 -0.03393406 0.14595562 -0.114723176 -0.08031917 0.033029657
-0.009541189 -0.06448236 0.00083198154 -0.07507592 -0.10276686 0.092598155 0.024415778 0.06155506
-0.023997825 0.11012477 0.01597239 -0.021993872 0.061671298 0.054882716 0.11197917 0.03031757
0.011435747 -0.038226474 0.01514929 -0.06828752 0.042589128 -0.01454139 0.062835336 -0.00070067495
0.024957873 0.06816941 0.15079182 0.05750722 0.030465402 0.04367647 0.14019929 -0.012127289
-0.036607977 -0.019319866 0.09682761 -0.062306084 0.044498194 0.054017637 -0.01533622 -0.08514296
-0.037018925 -0.038754012 -0.1262811 -0.045961495 -0.009112878 0.0016649041 0.007743302 0.029992277
-0.014516116 -0.086325444 -0.02091141 0.032068677 -0.0014665016 0.01035253 -0.031122712 0.06836492
-0.012145792 0.032627966 0.06697104 -0.029558595 0.10652294 -0.05444764 0.033537995 -0.013365451
0.013553684 0.0077333 -0.049410716 -0.027754106 -0.09357395 -0.04738332 0.0110756885 0.007798979
0.11824213 -0.001973436 -0.03664149 -0.03989232 -0.06484179 -0.01711505 -0.061261553 -0.016052188
0.061432626 0.07584071 0.038849927 -0.022825599 0.12327074 0.008770299 -0.027098026 0.05795429
-0.027167395 -0.0040571173 0.032697164 0.031141909 0.030739006 0.08111469 -0.0449122 0.13874908
-0.104074866 0.07018643 0.06471955 0.016874628 -0.045110956 -0.046144743 0.017772185 0.0061248844
0.023121081 -0.07179791 -0.0659034 -0.06177121 0.058343604 -0.12050952 -0.00016307575 -0.018585395

combined.0.bias f4 [64]
00000000: 152a c539 29f4 993d dc70 b23c 98e1 293c
00000010: 7ffb 4abc f277 49bd 1a80 843c 804c 64bd
00000020: c9b3 0a3c 463c 8b3c 3932 753c cb4a 143d
00000030: fd2f f23c a318 39ba 5d2e 0cbd c2df e9bc
00000040: 14b0 b23a 820d ce3c 4962 ddbc 2f20 1c39
00000050: 4c31 833c af62 a43b 05e3 d4ba 64a1 d7bc
00000060: 7791 f9bc ff3f f9bb e004 a73c 7e83 603c
00000070: 5203 5ab9 47c0 103c c1ed 40bc c7a5 6c3d
00000080: 310d 593c 2544 7cbc c6d3 453d 96d8 aabc
00000090: 6283 9d3b c652 e13a 4f40 da3c 4870 e23c
000000a0: 3c5c 243d 4d43 113d 57b4 7e3c 2c8d 273b
000000b0: ebf4 833c 504b 17bd e350 3fbd bee2 2f3d
000000c0: 3d88 943c 81df 8b3c a64f 47bb ca51 d0bc
000000d0: 2276 4e3d e046 de3c fc1b 5a3d 2f01 9c3c
000000e0: 7026 02bd e493 3d3d 36d5 2bbb e949 c93b
000000f0: d0e5 d7bb e1df 32bd 78a6 233d 92ce 273d
0.00037606122 0.07517273 0.021782331 0.010368727 -0.012389063 -0.049186654 0.016174365 -0.05573702
0.008465716 0.016996514 0.014965587 0.03620414 0.029563898 -0.0007060861 -0.034223903 -0.028549079
0.0013632798 0.025152925 -0.027024405 0.00014889309 0.016014718 0.005016647 -0.0016241973 -0.026322074
-0.03046487 -0.007606506 0.020388067 0.013703225 -0.00020791337 0.008834905 -0.011775435 0.057775285
0.013247774 -0.015397106 0.048297666 -0.02085523 0.004806922 0.0017190806 0.026641993 0.02764143
0.040127024 0.035464574 0.015545926 0.0025566323 0.016107997 -0.036937058 -0.046708 0.042940848
0.01813137 0.017074348 -0.0030412464 -0.025429625 0.05040563 0.027133405 0.053249344 0.019043533
-0.031774938 0.046283618 -0.0026219613 0.006142844 -0.006588675 -0.04367054 0.03995368 0.040968485

combined.3.weight f4 [64, 64]
00000000: efc6 003e 3a2b 893d 17d5 41bd bc97 d3bc
00000010: c509 26be afed 6bbd 70ba abbc 1c5f 20be
00000020: a023 8d3c 10cc 9abd 0fd3 fabc c585 ac3d
00000030: 627f 9f3d ff19 283d 479c 71bd 924f 0fbe
00000040: 35b1 fd3d f8c7 28bd 1bd9 4dbd f6ed 45bd
00000050: 16c2 b33c c744 13be 01b8 30bd 356a b23d
00000060: 1939 9bbd f7cf e33b a5d2 cb3c 0c38 dbbd
00000070: 0b2e 19bd 3bcf 71bc dbf4 993d 07c2 b73c
00000080: 5a8b 823c 5b00 07bc 5bc6 763d 6844 c4bc
00000090: f9fa d03d 4fe9 e4bd ca2f 713d d235 1cbd
000000a0: 24d0 f8bb 2170 8cbc f94b bcbc c6d8 e6ba
000000b0: 43b3 b2bd 7889 6cbd 04ca bbbd e4d1 aa3c
000000c0: 2b40 f13d 7328 f8bc 30f3 16bd eea7 a8bd
000000d0: f140 c5bc 50d1 14be abb9 0b3d 8f21 17bd
000000e0: c744 01be 190b 943d deb0 733d d578 a7bd
000000f0: ef9e a5bb d27e b3bd 34bd fabc 23db 2b3d
00000100: 9e57 17be 1d77 333c bcdc 5f3d a1b3 433d
00000110: e069 a63d ac58 ca3d 23ba 71bd 4fad b63c
00000120: a9a2 b93d 81be 273e a262 303d 3aac 20be
00000130: c040 3abc 9bda 00be 3915 c7bc b089 ee3d
00000140: 974d 9ebd ad8b 4a3d 1129 b93d b073 393c
00000150: 6d94 91bd c0c9 9f3b 2343 59bd 362c 1fbd
00000160: 424c 9dbc 9822 bf3c eaad 58be fc86 d03d
00000170: 449b 8bbd 6841 e6bd d8cf 8bbd 4ed3 87bd
00000180: fe9a 7abc bd91 6bbd 0594 68bd 691e 1abd
00000190: 2e67 86bd fd46 513c 8e84 e7bc 5453 fbbd
000001a0: 7b1e 45be 8c84 68bd b71d 23bd 3827 64bd
000001b0: 0e83 043d 79ca e73d 86f2 ed3d 7927 41be
000001c0: bed2 c2bd 9586 343d 33c4 303d 759f bb3d
000001d0: 7aa2 cabd c8b1 953d 1ed4 9fbc 8db8 753d
000001e0: d1c9 5ebc 231d dbbd 4a3d f2bd b3cd 3f3d
000001f0: e05a 5ebe fef9 7e3d 5b36 14be 5981 3bbc
00000200: 2ff5 bc3d c4ec 5abd 1fd4 12be eae7 b8bd
00000210: ffd2 82bd c1dd 95bd 0b55 e73c 3054 3ebe
00000220: 981e 02be 3e2d 27be 4687 83bd 2560 763d
00000230: ce07 a03d 8703 c23d f9c2 8cbd 666d 30be
00000240: fb9d 7d3d 13fb 02be 9085 68be 15a9 aabd
00000250: 6dc5 8a3d b036 19bd 783a 82bd 73a6 96bd
00000260: f823 2cbe 2b55 31bc c4a3 523c 8fc5 afbb
00000270: 15ff f13d ea00 ba3d e92f 103d 7fda 22bd
00000280: c072 03be c334 e23d 1d89 623d 5639 7dbe
00000290: c800 c0bd 1e5e 80bd ac50 2e3d 58ef a43d
000002a0: 3613 383d ab1f 8fbd 9f08 26bd 40c1 d63d
000002b0: a157 99bc 754c 10be f13b e3bd c68c ba3d
000002c0: 13e0 c13b 7957 34be 22a9 2cbe c91f 79be
000002d0: 0940 a83a 685c 413c ba32 e6bc 0f1b 10be
000002e0: 8ee7 79be 2301 803d e888 6bba 84d4 cbbd
000002f0: 3c7c ee3c b32e ebbd 500e 1b3d cdd8 6bbd
00000300: 2f62 a23d e493 ea3d 922c 0cbe 0fe4 4cbd
00000310: b312 ebbd 70a0 83bd 00b5 163e 0519 81bd
00000320: 114a babd 40cb 17be 4098 eabd fdeb 1f3e
00000330: ca4d 14bd f97b c83c e82d e4bc 220b 873d
00000340: 0271 d73d a35d a1bb 496a 6bbe 7e2f aabd
00000350: ebbb cc3d 3f39 8dbd 6c52 56be 7751 30bd
00000360: ebe9 d3bc 1b42 fcbd 878a 983d 0e58 5bbb
00000370: b4d4 133e 9694 5dbd d973 023c 17b6 5a3d
00000380: 9a78 5a3d bf05 1abd d029 97bc d152 28bd
00000390: 3282 87bd 219d 70bd c7c1 f13d a53c 033c
000003a0: 9442 ff3d c524 8d3c 5518 6abd 18bc e5bb
000003b0: 4769 2abe 59be e8bd 671d debd 29fd 353e
000003c0: 4fe7 173e 3ec5 4cbe 6603 cb39 73f3 15be
000003d0: 7943 953c 1723 9fbd c9ba cb3d 025e 41bd
000003e0: e9e6 c03c 7018 833d 4082 53bd 26b4 973c
000003f0: 554f 223d 6af6 6b3d d570 81bd a1b0 7b3d
0.12575887 0.06697698 -0.04732236 -0.025829189 -0.16214664 -0.05759972 -0.020962924 -0.15661281
0.017228901 -0.07558453 -0.030618219 0.08423952 0.07787968 0.041040417 -0.05898693 -0.13995197
0.12387315 -0.04120633 -0.050255876 -0.04832264 0.021943133 -0.14381705 -0.04314423 0.08711664
-0.0757925 0.0069522816 0.024880717 -0.107040495 -0.037397426 -0.01475888 0.075174056 0.022431387
0.015935589 -0.008239831 0.06024776 -0.0239584 0.10204119 -0.111773126 0.058883466 -0.038137265
-0.0075931717 -0.017143311 -0.022985445 -0.0017612211 -0.08725598 -0.057748288 -0.09169391 0.020852037
0.11779817 -0.030292725 -0.036853015 -0.08235155 -0.024078818 -0.14532971 0.034112614 -0.03689724
-0.12623893 0.07228679 0.059494846 -0.08177344 -0.0050543468 -0.087644234 -0.030607797 0.041957032
-0.14779517 0.010953692 0.054653868 0.04777873 0.08125663 0.09880194 -0.059015404 0.022299437
0.09064228 0.16381265 0.043062814 -0.15690699 -0.011367977 -0.12583391 -0.024302112 0.116473556
-0.07729643 0.04944961 0.09041036 0.011319086 -0.07108388 0.0048763454 -0.053042542 -0.038860522
-0.019201402 0.023331925 -0.21160093 0.10181996 -0.06816724 -0.11242944 -0.068267524 -0.066321
-0.015295742 -0.057512034 -0.056781787 -0.037626658 -0.06562649 0.012773273 -0.02826145 -0.12271753
-0.19249909 -0.05676703 -0.03982326 -0.055701464 0.032351546 0.113179155 0.11618523 -0.18862714
-0.09512852 0.04407366 0.04315586 0.091612734 -0.09894271 0.073093 -0.019510325 0.059990454
-0.0135979215 -0.10698917 -0.11828096 0.04682703 -0.21714354 0.06225013 -0.1447386 -0.011444413
0.092264526 -0.053448454 -0.1433873 -0.09028609 -0.063879006 -0.07317687 0.028238794 -0.18586802
-0.12706983 -0.16325852 -0.06422286 0.060150284 0.078139886 0.09473329 -0.068731256 -0.17229232
0.06191824 -0.1279109 -0.227072 -0.08333031 0.06775937 -0.03740567 -0.06358808 -0.073559664
-0.16810596 -0.010823528 0.012856428 -0.005364127 0.11816231 0.090822056 0.03520194 -0.039759155
-0.12836742 0.1104522 0.055306543 -0.24728903 -0.09375149 -0.062679514 0.042557403 0.08053464
0.044940196 -0.06988462 -0.040535565 0.10486078 -0.018718543 -0.14091666 -0.11095417 0.09108882
0.0059166043 -0.17611493 -0.16861394 -0.24328531 0.0012836467 0.0118018165 -0.02810036 -0.14072822
-0.24404737 0.06250217 -0.0008984939 -0.099526435 0.029111974 -0.114835165 0.037855446 -0.057579804
0.07928883 0.11453989 -0.13688877 -0.05002218 -0.11478176 -0.064270854 0.14717484 -0.063036
-0.09096158 -0.14823627 -0.11454821 0.15617366 -0.036206998 0.024473177 -0.027853921 0.0659392
0.105196014 -0.0049244924 -0.22989763 -0.0830984 0.0999678 -0.068956845 -0.20929879 -0.04304644
-0.025868377 -0.12317296 0.07448297 -0.0033469233 0.14436609 -0.05409678 0.007962191 0.05339631
0.05333767 -0.037603136 -0.018452555 -0.041094605 -0.0661663 -0.0587436 0.11804538 0.008010064
0.12463871 0.017229447 -0.05715211 -0.007010948 -0.16641723 -0.11364431 -0.10845452 0.17772354
0.14834331 -0.19997117 0.0003872171 -0.1464365 0.01822065 -0.07770365 0.09947736 -0.047208793
0.023547607 0.064011455 -0.051637888 0.018518519 0.03962644 0.057608046 -0.06320349 0.061447743

combined.3.bias f4 [64]
00000000: c146 e03d 8fd2 e43d 56e9 a83d b69f 993d
00000010: 8b10 a33d 6ea1 c83d e7a8 e83d 037e c1be
00000020: 05f1 af3d e122 e03d 8f99 843d 9b3e acbe
00000030: ce97 943d 1686 3e3d f763 f43d 56c1 8c3d
00000040: 7a4f be3d aba6 933d 1115 d73d 6910 c73d
00000050: c167 b2be d1ac e23d 8c5f ab3d 14b6 d83d
00000060: a336 c43d 42b0 d93d 67f1 c13d 41ba 9f3d
00000070: b370 093e 1333 9e3d 6b12 e13d c46d 8f3d
00000080: 4edb b53d 6ac7 233e 5b0b e53d d846 d13d
00000090: 6968 103e 10a7 d43d c2ab c43d ad2b 1c3d
000000a0: 4f75 dc3d 5642 a13d 43ba f53d a1ad f43d
000000b0: 02fb db3d 70c7 af3d e502 9f3d d985 063e
000000c0: 15f3 c33d d4bc 0f3e eaa2 873d 57f1 e33d
000000d0: e74d 0a3e 3939 e53d d65c 973d cdff 9c3d
000000e0: b5f8 273e 574e c63d 748a 033e e905 a83d
000000f0: 3db6 c33d fddd c63d 80ee e63d b81b 923d
0.10950995 0.11172973 0.0824763 0.075011656 0.0796214 0.09796415 0.113603406 -0.37791452
0.08590893 0.109441526 0.064746015 -0.33641514 0.07255517 0.046514593 0.11933129 0.068728134
0.09292503 0.07209524 0.10502065 0.09719927 -0.34844783 0.11068118 0.083678335 0.10581604
0.095807336 0.10629322 0.09469872 0.07799197 0.13421898 0.077245854 0.10989841 0.07003358
0.0887972 0.15994039 0.111838065 0.102185905 0.1410233 0.10383427 0.09603073 0.03812759
0.10764562 0.07873981 0.11998417 0.119471796 0.10741235 0.085829616 0.07764224 0.13136996
0.095678486 0.14036876 0.0662287 0.11130016 0.1350628 0.11192555 0.07390754 0.076659776
0.16403468 0.09682911 0.12845784 0.08204252 0.095562436 0.0971031 0.11275959 0.07134193

combined.6.weight f4 [1, 64]
00000000: e88d 4ebd d662 2f3d ebc1 6dbd 71be 37bd
00000010: 08f8 933d 3657 84bd 50ff 223d 5fb1 25be
00000020: dacd a73d 1988 5b3d 11a6 fcbc e7ed f9bd
00000030: 6e38 27bd b3bf 08bd 7f62 7ebd 67e3 8c3d
00000040: 5773 573d 21ee 56bd 962b 603d a62d 82bd
00000050: 73dc 9bbd af1b 223d d117 a3bd 3ced 6b3d
00000060: 5907 5d3d 65ed 72bd 1dcd 03bd 2ad1 863d
00000070: 0d11 5c3d bef7 62bd 67ce 643d 4601 a3bd
00000080: 947d 193d 0501 ee3c 8e6d 58bd 1b49 7cbd
00000090: 92ba 3c3d b638 b03d 90f3 6abd 3285 8d3d
000000a0: 1bc2 2b3d 9b38 76bd ef96 60bd 0b10 533d
000000b0: 8dcb 503d cbc2 3abd 940c 81bd ba72 59bd
000000c0: ad1c a4bd c386 033d 94d8 643d b6c3 403d
000000d0: 5f27 183d 025f 623d 6fe9 8b3d 0ba5 b23d
000000e0: 8ef7 d03c 0374 9d3d 49d8 623d 6c17 52bd
000000f0: 5cc2 663d abb3 1b3d a184 47bd 634b 883d
-0.0504283 0.042818867 -0.058046263 -0.044859353 0.072250426 -0.06461947 0.039794266 -0.16180943
0.0819356 0.05359659 -0.030840905 -0.122035794 -0.0408253 -0.033385944 -0.062105652 0.06879311
0.05260023 -0.05247319 0.054729067 -0.06356363 -0.07610407 0.039577182 -0.07963527 0.05759929
0.053962085 -0.05930843 -0.032178033 0.06582864 0.0537272 -0.055412047 0.055860903 -0.07959227
0.037473276 0.02905322 -0.052838854 -0.061593156 0.046076365 0.08604567 -0.057361186 0.069101706
0.04193316 -0.060112577 -0.05483144 0.05152897 0.05097537 -0.045595925 -0.06301227 -0.053087927
-0.08013282 0.03211094 0.055870607 0.047061644 0.037146922 0.055266388 0.06831633 0.08722886
0.025508668 0.07688143 0.055382047 -0.051291868 0.0563377 0.03801314 -0.04871047 0.06655004
