data/models/june18_24_unweighted/fold3_best_model.pt (torch, 775603 bytes, 9 tensors)

layers1d.0.weight f4 [128, 1280]
0	0x3d4061b7	0.046968188
1	0x3d88b96f	0.06675994
2	0x3d5b7951	0.053582493
3	0x3d85bc6b	0.065300785
4	0xbe26a7df	-0.16274975
5	0x3e4bc6df	0.19900082
6	0xbd235dff	-0.039884564
7	0xbe469022	-0.1939092
8	0x3d3c07f7	0.045906033
9	0x3d7beeb4	0.061506942
10	0x3bcf79f0	0.0063316748
11	0xbc934ac3	-0.017979985
12	0xbe04aaca	-0.12955776
13	0x3dbe2030	0.09283483
14	0x3dccc002	0.0999756
15	0xbc8a9b6a	-0.01691981
16	0x3d34f05d	0.04417454
17	0x3e0fca55	0.14042027
18	0x3d042057	0.032257404
19	0x3dd22778	0.10261434
20	0xbdaa24b8	-0.08307785
21	0x3e17a055	0.14807256
22	0x3b5614d1	0.0032666216
23	0x3d37797b	0.044793587
24	0xbc9dd339	-0.019265758
25	0x3db8e226	0.090275094
26	0x3d46220d	0.048372317
27	0x38c163aa	9.221521e-05
28	0xbd2fd2ff	-0.04292583
29	0x3d7dcc01	0.06196213
30	0xbe25f7fd	-0.16207881
31	0xbcc40818	-0.02392964
32	0x3cc69416	0.024240535
33	0xbd137cad	-0.036007572
34	0x3b67dac1	0.003537819
35	0x3e13650b	0.14394014
36	0x3c624cb6	0.013812235
37	0x3dd91af1	0.10600842
38	0xbe29ea51	-0.16593291
39	0xbdad5aa5	-0.08464555
40	0xbe2df52f	-0.16988061
41	0xbde75f6f	-0.112974994
42	0xbdcd7ff4	-0.10034171
43	0xbc89c84c	-0.016819142
44	0x3e4795bb	0.19490711
45	0xbd7ba523	-0.061436784
46	0x3d51022d	0.051027466
47	0x3e8623a2	0.2619906
48	0xbceb9526	-0.028757643
49	0xbc22dd8d	-0.009940517
50	0xbd0bc19c	-0.034120187
51	0xbdebcc18	-0.11513537
52	0xbcd2ff6e	-0.025756564
53	0xbcdb13d2	-0.02674285
54	0xbdb961e6	-0.09051876
55	0xbdab0c8b	-0.08352002
56	0xbd9a0e87	-0.07522302
57	0x3d7babac	0.061443016
58	0x3d6d07a7	0.057868626
59	0x3bda6df0	0.0066659376
60	0x3e87c930	0.2652068
61	0x3b59a92d	0.003321241
62	0x3a2cda97	0.0006593852
63	0x3dbdd477	0.0926904
64	0xbe036f41	-0.12835409
65	0xbd99adb0	-0.075038314
66	0x3d47d529	0.04878727
67	0xbdba72b7	-0.09103911
68	0xbe38b750	-0.18038678
69	0xbe52faa6	-0.20603427
70	0xbd237d3f	-0.039914366
71	0xbc5aa544	-0.013345066
72	0x3dacdbda	0.08440371
73	0x3c8c944d	0.01716056
74	0xbd8d3750	-0.06895316
75	0xbdb908f0	-0.09034908
76	0x3dabeb75	0.08394519
77	0xbde757a2	-0.112960115
78	0xbe2347e5	-0.15945394
79	0xbe864f70	-0.2623248
80	0x3e08d85c	0.13363785
81	0xbc771078	-0.01507961
82	0x3c9552cb	0.018227955
83	0xbe2b4f08	-0.16729367
84	0xbd9328c7	-0.07185512
85	0x3d8a91d9	0.067660995
86	0xbe29f26e	-0.16596386
87	0x3dc640b8	0.09680313
88	0xbd1b3009	-0.037887607
89	0xbd17f1e5	-0.037095923
90	0xbd08db79	-0.03341243
91	0x3d4304d7	0.047612038
92	0x3d790fc0	0.060806036
93	0xbd1c37d9	-0.038139198
94	0x3d1b30b1	0.037888233
95	0xbddaa3c7	-0.10675769
96	0xbdada1eb	-0.08478149
97	0x3de38a92	0.111104146
98	0xbe2a9eb1	-0.16662098
99	0x3dfc2697	0.12312048
100	0xbdba0436	-0.090828344
101	0x3d890925	0.06691197
102	0x3df14f0d	0.11782656
103	0x3dae316e	0.08505522
104	0xbdd43dbb	-0.10363337
105	0x3e231a60	0.1592803
106	0x3d9eff1c	0.07763502
107	0xbc1d82e1	-0.0096137235
108	0x3dbae437	0.0912556
109	0x3ce020d1	0.027359398
110	0x3d930bd6	0.07179992
111	0x3da704e5	0.081552304
112	0xbce08e38	-0.027411565
113	0xbd6594c5	-0.05605008
114	0x3c13f164	0.00902972
115	0x3d069e29	0.032865677
116	0x3e715b44	0.23569971
117	0x3dcd9e2b	0.10039934
118	0xbdb53ebb	-0.088498555
119	0xbcb52840	-0.02211392
120	0xbd8a68e9	-0.06758291
121	0x3e2f5a43	0.17124276
122	0xbde1e4fa	-0.11030002
123	0x3df51d1b	0.11968442
124	0x3d398fd6	0.04530319
125	0x3d94ad55	0.07259623
126	0x3cb4b0c1	0.02205694
127	0xbde801d2	-0.11328472
128	0x3e5d5292	0.2161353
129	0x3caad562	0.020853702
130	0xbd484089	-0.04888967
131	0x3d83daeb	0.0643824
132	0x3dc24812	0.094864026
133	0xbd226171	-0.03964371
134	0x3df40ce0	0.11916518
135	0xbc70cb76	-0.014696946
136	0xbdcea62e	-0.1009029
137	0xbdf77993	-0.12083735
138	0xbd6d61dc	-0.057954654
139	0xbdc4f15e	-0.0961635
140	0xbc42c70a	-0.011888275
141	0x3e22ad6c	0.15886468
142	0xbc9747d0	-0.01846686
143	0xbb839416	-0.004015456
144	0x3bac1903	0.005252005
145	0xbe001af6	-0.12510285
146	0xbd18bfa0	-0.037292123
147	0xbde38275	-0.11108867
148	0xbcfb00d0	-0.030640036
149	0x3d7d7233	0.061876487
150	0x3d097807	0.033561733
151	0xbd5e59e3	-0.05428494
152	0xbb7ce90a	-0.003859105
153	0xbea19dce	-0.31565708
154	0x3d98afd8	0.074554145
155	0x3bc2da47	0.005946431
156	0xbd5716b6	-0.052511893
157	0xbdedd889	-0.116135664
158	0x3e1ec01b	0.1550297
159	0x3d117d3d	0.035519827
160	0x3e094c24	0.13407952
161	0x3d5f76bc	0.054556593
162	0x3d1b4451	0.03790695
163	0xbde0fb58	-0.1098544
164	0xbccb1c85	-0.024793873
165	0x3c255bab	0.010092656
166	0x3d507130	0.050889194
167	0x3da48c30	0.08034551
168	0x3b32927e	0.002724796
169	0x3e1639b3	0.14670448
170	0x3e4d53ec	0.20051545
171	0xbcfb3d66	-0.030668925
172	0xbde28094	-0.110596806
173	0xbda369e9	-0.07979185
174	0xbdfe7e9a	-0.12426491
175	0xbdec357f	-0.11533641
176	0xbd8db0dd	-0.069184996
177	0xbca646ad	-0.020297373
178	0x3d6359e4	0.05550565
179	0xbde22df5	-0.11043922
180	0x3d879416	0.06620042
181	0xbdfafc18	-0.12255114
182	0xbc871cc5	-0.01649321
183	0x3e118070	0.14209151
184	0xbd656abb	-0.05600999
185	0xbc98f8b4	-0.018673278
186	0x3e53ce62	0.20684198
187	0x3c9c0c58	0.019048855
188	0x3d3f2db8	0.04667446
189	0x3d71b304	0.059008613
190	0xbdb48c3e	-0.088158116
191	0x3e03a388	0.12855351
192	0x3d097bde	0.033565395
193	0x3c076486	0.008263713
194	0xbd926744	-0.071486026
195	0xbcb0405a	-0.02151506
196	0xbe93f49a	-0.28897554
197	0xbd162251	-0.03665382
198	0x3b66f9cb	0.0035244103
199	0xbdbe664b	-0.092968546
200	0xbe0d0245	-0.13770397
201	0x3e525592	0.20540455
202	0xbd3ab7a6	-0.045585297
203	0xbcad0e25	-0.021124909
204	0x3d938020	0.07202172
205	0xbddd6772	-0.10810746
206	0xbd8f1519	-0.06986446
207	0x3db025e1	0.08600975
208	0x3c79bd53	0.015242892
209	0x3e10587e	0.14096257
210	0xbd818c25	-0.063255586
211	0x3da1ea45	0.079060115
212	0xbe35c5ea	-0.1775128
213	0xbe4ef5db	-0.20210974
214	0x3d8765ff	0.06611251
215	0xbd806fb3	-0.06271305
216	0xbe38bceb	-0.18040816
217	0x3db9e2b0	0.0907644
218	0xbd15cae8	-0.03657046
219	0x3e4ec73d	0.20193191
220	0xbc4bf93d	-0.01244956
221	0xbc693ff5	-0.01423644
222	0x3d91f6b7	0.07127135
223	0x3c9a6238	0.018845662
224	0xbc548e51	-0.012973384
225	0x3df81d58	0.12114972
226	0x3db357c8	0.08756977
227	0xbd4751f6	-0.04866215
228	0x3dd63cf0	0.10460842
229	0xbd9b8e49	-0.07595498
230	0xbcc78b9e	-0.024358567
231	0x3ac1642c	0.0014754585
232	0x3d0cca24	0.034372464
233	0xbd9e137b	-0.07718559
234	0xbd3d235a	-0.046176292
235	0xbdb63f93	-0.088988446
236	0xbd7e76f7	-0.062125172
237	0x3d709ee3	0.058745276
238	0x3c13d8de	0.009023873
239	0x3dfcdbc2	0.12346603
240	0x3d3273d5	0.043567497
241	0xbd7a498e	-0.061105303
242	0x3d570d88	0.05250314
243	0xbd0cee63	-0.03440703
244	0xbc7fa801	-0.01560402
245	0xbdfa76ce	-0.122296914
246	0xbd4deaec	-0.050272867
247	0x3b7ab5a5	0.0038255241
248	0xbd393dbf	-0.0452249
249	0x3e10710b	0.14105622
250	0x3c2a50cd	0.010395241
251	0x3d8bc9de	0.068256125
252	0x3de61dc2	0.112361446
253	0x3db641f8	0.08899301
254	0x3ce3a67c	0.027789347
255	0x3d0fabe9	0.035076056

layers1d.0.bias f4 [128]
0	0xbe0116c0	-0.12606335
1	0xbd9dd8f1	-0.07707394
2	0xbd57fcf5	-0.052731473
3	0xbd1d42ad	-0.038393665
4	0x3c061e8f	0.008185997
5	0xbc81ba80	-0.015836
6	0xbc9af8ce	-0.018917467
7	0xbcac0e46	-0.0210029
8	0xbdcfa05f	-0.1013801
9	0xbda393c5	-0.07987169
10	0xbe0e9b72	-0.13926485
11	0xbdb4ee14	-0.08834472
12	0xbdd4b239	-0.10385556
13	0xbc9a97b1	-0.01887116
14	0xbdf0f6ee	-0.11765848
15	0xbdd5d35f	-0.104407065
16	0xbd7de715	-0.061987955
17	0xbdf7c714	-0.12098518
18	0xbddbf9e0	-0.10741019
19	0xbdd364b4	-0.10321942
20	0xbdc08563	-0.094004415
21	0xbdaa2d42	-0.083094135
22	0xbe09e8ce	-0.13467714
23	0xbda11124	-0.078645974
24	0xbd70db08	-0.058802634
25	0xbe029e3c	-0.12755674
26	0xbda064c8	-0.078317225
27	0xbd2e60b9	-0.04257271
28	0xbe3a0e74	-0.18169576
29	0xbdb95b0c	-0.09050569
30	0xbd774a97	-0.06037387
31	0xbdb82369	-0.08991129
32	0xbdb14ab6	-0.08656828
33	0xbdad2684	-0.08454612
34	0xbde24a09	-0.11049277
35	0xbd30bbb5	-0.04314776
36	0xbd59ccc4	-0.053173795
37	0xbd53e583	-0.05173255
38	0xbe2b9ee7	-0.16759835
39	0xbe1a8c8b	-0.15092675
40	0xbd92cc53	-0.07167878
41	0xbe05037b	-0.12989609
42	0xbdca638b	-0.098822676
43	0xbe156b36	-0.14591679
44	0xbdab7538	-0.08371967
45	0xbe18e543	-0.14931206
46	0xbd7afd79	-0.061276887
47	0xbd8aed73	-0.06783571
48	0xbdfe7649	-0.12424905
49	0xbd8a7a1c	-0.06761572
50	0xbcb45a3c	-0.022015683
51	0xbe1708ca	-0.14749447
52	0xbdb30ae2	-0.0874231
53	0xbdde1bff	-0.108451836
54	0xbe27d15a	-0.16388455
55	0xbe026afe	-0.12736127
56	0xbd55f048	-0.052231103
57	0xbe06fdf2	-0.1318281
58	0xbdfae20e	-0.12250148
59	0x3cf7c829	0.030246811
60	0xbdc59f73	-0.09649553
61	0x3b3f6da5	0.002920964
62	0xbe155964	-0.14584881
63	0xbe00295a	-0.12515774
64	0xbdd618a2	-0.10453917
65	0xbdb47e1c	-0.08813116
66	0xbe1256e7	-0.14290963
67	0xbe107afe	-0.14109418
68	0xbe4afd11	-0.198231
69	0xbd79ce7e	-0.060987942
70	0xbe15c4ba	-0.14625826
71	0xbdd4680a	-0.103714064
72	0xbdcbd5ed	-0.099529125
73	0x3b9c9ebf	0.004779666
74	0xbd5f3eea	-0.05450336
75	0xbddae9a6	-0.10689096
76	0xbd8f46c0	-0.06995916
77	0xbde2a5ae	-0.11066757
78	0x3cbb4100	0.022858143
79	0xbd813391	-0.06308664
80	0xbdc63e11	-0.09679807
81	0xbd87b84a	-0.06626947
82	0xbdcb51b8	-0.09927696
83	0xbd3a6e3d	-0.045515288
84	0xbdf6cdef	-0.120509975
85	0xbe1a9d85	-0.15099151
86	0xbda34c39	-0.07973523
87	0xbd78daba	-0.06075547
88	0xbdc2828f	-0.09497558
89	0xbd95126c	-0.07278904
90	0xbd90a53f	-0.07062768
91	0xbdbfc927	-0.09364539
92	0xbe058720	-0.13039827
93	0xbde042f7	-0.109502725
94	0xbdf40703	-0.119154
95	0xbd91527a	-0.07095809
96	0xbd73d845	-0.059532423
97	0xbe08f897	-0.1337608
98	0xbe03f043	-0.12884621
99	0xbdcb5259	-0.09927816
100	0xbdf660b6	-0.12030165
101	0xbddbce62	-0.10732724
102	0xbe208237	-0.15674673
103	0xbd68ea80	-0.05686426
104	0xbe226d6b	-0.15862052
105	0xbdda9e87	-0.10674768
106	0xbd51638b	-0.051120322
107	0xbdcc8daa	-0.09987958
108	0xbe416fdc	-0.18890327
109	0xbcf41eb5	-0.029799799
110	0xbdf5f071	-0.12008751
111	0xbd934bad	-0.071921684
112	0xbdb7df7e	-0.089781746
113	0xbdf776c6	-0.12083201
114	0x3cf36a3b	0.02971374
115	0x3c4172c7	0.01180715
116	0xbdf6ec70	-0.120568156
117	0xbcbbb7d1	-0.022914799
118	0xbdc7075b	-0.097182
119	0xbe19187d	-0.14950748
120	0xbe1f27b7	-0.15542494
121	0xbe0d37dc	-0.1379084
122	0xbdbe5303	-0.09293177
123	0xbd83c522	-0.064340845
124	0xbd23ba99	-0.039972875
125	0xbe36986d	-0.17831583
126	0xbe07b379	-0.13252057
127	0xbde87094	-0.113495976

layers1d.3.weight f4 [128, 128]
0	0x3efbd509	0.4918597
1	0xbe0f4b36	-0.13993534
2	0x3c788323	0.015167984
3	0x3d477ec1	0.048704866
4	0xbe7e7726	-0.24850139
5	0xbec27aa9	-0.37984207
6	0xbb90b114	-0.0044156406
7	0xbe8d3761	-0.27581313
8	0x3dcbd882	0.09953405
9	0x3da791b2	0.08182086
10	0x3e333e86	0.1750432
11	0x3e18974e	0.14901468
12	0x3e0ef380	0.13960075
13	0xbe726aed	-0.23673601
14	0x3c0473b4	0.008084226
15	0x3ddbddb4	0.10735646
16	0xbe40c138	-0.18823707
17	0x3e83a736	0.2571351
18	0x3d93bbcb	0.07213553
19	0x3d7eeaf7	0.0622358
20	0x3d050ff6	0.032485925
21	0x3b9aa6b6	0.0047195805
22	0x3e1fd1e2	0.15607408
23	0x3cc02649	0.023455756
24	0x3d39c161	0.045350436
25	0x3e2218a7	0.15829717
26	0x3cb2cccb	0.021826169
27	0xbe880383	-0.2656518
28	0x3e181a8a	0.14853874
29	0xbd400956	-0.046883903
30	0x3dac57f3	0.084152125
31	0xbc1db280	-0.009625077
32	0x3e4609a2	0.19339612
33	0x3e06f371	0.13178803
34	0x3e447eda	0.19189015
35	0xbe036a18	-0.1283344
36	0xbddceea4	-0.107877046
37	0xbcf4417d	-0.029816383
38	0x3dbec61e	0.093151316
39	0x3ded6328	0.11591178
40	0xbde3a26e	-0.111149654
41	0x3e1212e4	0.14265019
42	0x3d2d2cd1	0.04227907
43	0x3ec45580	0.3834648
44	0x3d86b6f7	0.065778665
45	0x3e5273ab	0.20551936
46	0x3e266393	0.16248922
47	0xb9a83b77	-0.00032087762
48	0x3dd9cbd8	0.10634583
49	0x3d0bd646	0.034139894
50	0xbd98a5cd	-0.07453499
51	0x3d9043a5	0.07044152
52	0xbbcaf817	-0.0061941254
53	0x3e80a96a	0.25129253
54	0x3d7f64ec	0.062352106
55	0x3dd1460f	0.10218441
56	0xbccb7f18	-0.024840876
57	0x3e39d409	0.18147291
58	0x3dd0ba46	0.10191779
59	0xbeb251bd	-0.34827986
60	0x3dd2c305	0.10291103
61	0xbebda6f9	-0.37041453
62	0x3cdd14b4	0.026987411
63	0x3e30fbf3	0.17283611
64	0x3e43be35	0.19115527
65	0x3e0edd08	0.13951504
66	0x3edeac6b	0.4349092
67	0x3dbad1b7	0.09122031
68	0x3e92fd80	0.2870903
69	0x3dbeae2a	0.09310563
70	0x3e96ebd4	0.29476798
71	0x3da61215	0.081089176
72	0x3b4ed4cd	0.0031559945
73	0x3cd26703	0.025683885
74	0x3bd8f34c	0.0066208
75	0x3dac3cda	0.08410044
76	0xbd9cbd96	-0.07653348
77	0x3e1351b3	0.14386635
78	0xbebc91a1	-0.36829856
79	0x3bc72629	0.006077547
80	0x3e1e48ca	0.15457454
81	0x3aea73cc	0.0017887293
82	0x3d93a2d5	0.07208792
83	0x3d3b7a51	0.045770947
84	0x3df1a14f	0.11798345
85	0x3d5dc66e	0.054144315
86	0xbdbdad19	-0.092615314
87	0x3d6340ff	0.055481907
88	0x3e0b81ed	0.13623782
89	0x3dba2e28	0.09090835
90	0x3db3b5b2	0.0877489
91	0x3e1c9863	0.15292506
92	0x3d6a6231	0.05722255
93	0x3dd8255d	0.105540015
94	0x3e538b8b	0.206587
95	0x3d01097a	0.03150318
96	0xbbe7bd59	-0.0070721325
97	0x3e2467bf	0.16055201
98	0x3d56ef3c	0.052474245
99	0x3d237727	0.039908554
100	0x3dc7bfc8	0.09753376
101	0x3dd82665	0.10554198
102	0x3df59920	0.11992097
103	0xbe5e9bd6	-0.21739134
104	0x3df20afb	0.118185006
105	0x3e4e85da	0.20168248
106	0x3df34a11	0.118793614
107	0x3db16791	0.08662332
108	0x3e5ead2b	0.21745746
109	0xbc9d78e6	-0.019222688
110	0x3e037b70	0.12840056
111	0x3bf84bdc	0.0075774025
112	0x3e81b43b	0.25332817
113	0x3e6b837c	0.22999376
114	0xbe8fd728	-0.2809384
115	0xbefdca82	-0.49568564
116	0x3e2567ef	0.16152929
117	0xbeb14612	-0.34623772
118	0x3db24e9b	0.08706399
119	0x3e128deb	0.1431195
120	0x3d142b69	0.03617421
121	0x3e2a93fa	0.16658011
122	0xbacdfe39	-0.0015716023
123	0x3cc099d0	0.023510844
124	0x3d87552f	0.06608044
125	0x3e8729e8	0.2639916
126	0x3e255cff	0.16148756
127	0x3e00f18f	0.12592147
128	0x3f078f68	0.52953196
129	0xbe12ffb6	-0.14355358
130	0x3cb65f22	0.02226216
131	0xbd13b9ff	-0.03606605
132	0xbe73cb68	-0.23808062
133	0xbe7c333a	-0.24628916
134	0x3c458b0a	0.012057075
135	0xbe82a6f6	-0.25518006
136	0x3cf68a3a	0.030095208
137	0x3cad5caf	0.021162359
138	0x3c955aaf	0.018231718
139	0xbd05622c	-0.032564327
140	0x3e3198b4	0.17343408
141	0xbe2dcac5	-0.16971882
142	0x3d6cd803	0.057823192
143	0x3de57f40	0.11205912
144	0xbd5aaaab	-0.053385418
145	0x3e930555	0.28715006
146	0x3e0b3707	0.1359521
147	0x3c8946f3	0.016757464
148	0x3d813ae5	0.06310061
149	0x3caf4ba9	0.021398382
150	0x3e78db16	0.24302325
151	0xbd9117ab	-0.070845924
152	0x3bcbfefd	0.0062254653
153	0x3e1ccb0f	0.15311836
154	0x3e1e7bb0	0.1547687
155	0xbe2594cf	-0.16170047
156	0x3e32b49a	0.17451707
157	0xbd0dfc11	-0.034664217
158	0x3da3c75e	0.07997011
159	0x3c92fb46	0.017942082
160	0x3e3f44ca	0.18678585
161	0x3e01a41a	0.12660256
162	0x3e54adaa	0.20769373
163	0x3cd0488a	0.025425214
164	0x3d0b1572	0.033956
165	0x3d64e8a4	0.055885926
166	0x3e3a2b9d	0.181807
167	0x3d977a1b	0.07396337
168	0xbc96aa3e	-0.018391725
169	0x3e3c2bb4	0.18376046
170	0xbc17e37d	-0.009270546
171	0x3eb78375	0.3584248
172	0x3dd28baf	0.10280549
173	0x3e376461	0.17909385
174	0x3e4a7aa2	0.19773343
175	0x3c0a971c	0.008458879
176	0x3e2b4927	0.16727124
177	0x3cbc6c0d	0.023000741
178	0xbd571857	-0.052513447
179	0x3e412d0a	0.18864837
180	0x3ba9b2a8	0.005178768
181	0x3dd43157	0.10360973
182	0x3db76b64	0.0895603
183	0x3e3fa23b	0.1871423
184	0x3c6bddbc	0.014396127
185	0x3e86bf6f	0.26317927
186	0x3e4e07c8	0.20120156
187	0xbe97b4cd	-0.29630128
188	0x3dcaf6b1	0.09910334
189	0xbe687243	-0.22699837
190	0x3dfa02a2	0.122075334
191	0x3e058b38	0.13041389
192	0x3e98f7c1	0.2987652
193	0x3d9f7e4f	0.07787763
194	0x3f0cac96	0.54950845
195	0x3e4375dd	0.1908793
196	0x3e723292	0.23652104
197	0x3d22076c	0.03955786
198	0x3ecbe64a	0.39824134
199	0x3e3c83d6	0.18409666
200	0x3d944c05	0.07241062
201	0x3c399fd1	0.011329607
202	0x3d005959	0.03133521
203	0x3df00937	0.117205076
204	0xbd1c09f7	-0.03809544
205	0xbbb53841	-0.0055303876
206	0xbeac9538	-0.33707595
207	0x3d0eeeea	0.034895815
208	0x3d6d02c6	0.057863973
209	0x3c04ba18	0.008101009
210	0x3c9d2ac9	0.01918544
211	0x3d0498a8	0.032372147
212	0x3deba90b	0.11506852
213	0xbc8feb26	-0.017568182
214	0xbc18e951	-0.009332971
215	0x3d1620fd	0.036652554
216	0x3dcef7e0	0.10105872
217	0x3b6a38f6	0.0035739518
218	0x3d3d0e7a	0.046156384
219	0x3e3afef1	0.18261315
220	0x3d48aa94	0.0489908
221	0x3e29ac8a	0.16569725
222	0x3e15e8e5	0.14639623
223	0xbc8f866c	-0.017520152
224	0x3cb63fe4	0.022247262
225	0xbc923c21	-0.017850937
226	0x3d9bd966	0.07609825
227	0x3d691ec8	0.05691412
228	0x3d18e414	0.037326887
229	0x3e4c87ec	0.19973725
230	0x3d9cf060	0.076630354
231	0xbe2cb0de	-0.16864344
232	0x3e3b467e	0.1828861
233	0x3e4e62c1	0.20154859
234	0x3d7e55cb	0.062093537
235	0x3e1b0c92	0.15141514
236	0x3e717da4	0.23583084
237	0xbd400e25	-0.04688849
238	0x3e0f5759	0.13998164
239	0xbd1ec059	-0.038757656
240	0x3e93d648	0.2887442
241	0x3e919d08	0.28440118
242	0xbe83613b	-0.25660118
243	0xbe592dd6	-0.21208891
244	0x3e297010	0.16546655
245	0xbe8510b3	-0.25989303
246	0x3d5aaa11	0.053384844
247	0x3e529a05	0.20566566
248	0x3d3bd94e	0.045861535
249	0x3e312ac0	0.17301464
250	0x3da42c81	0.08016301
251	0x3d4f2fb3	0.0505826
252	0x3df79b59	0.12090177
253	0x3ea14ff1	0.31506303
254	0x3e4c936d	0.19978113
255	0x3d7a9a78	0.06118247

layers1d.3.bias f4 [128]
0	0xbe2c9977	-0.16855417
1	0xbe697fd2	-0.22802666
2	0xbdba6b51	-0.091025
3	0xbe0b88d3	-0.13626413
4	0xbc42d226	-0.011890924
5	0x3c5f5cf2	0.013633
6	0xbdb437be	-0.087996945
7	0xbdb66514	-0.08905998
8	0xbdd4afdb	-0.10385104
9	0xbd38e256	-0.045137726
10	0xbe4cabc5	-0.199874
11	0xbd407585	-0.046987075
12	0x3c4e5a6b	0.0125947995
13	0xbe82ee4c	-0.2557243
14	0xbe17a705	-0.14809807
15	0x3af2c861	0.0018522852
16	0xbe5deb3a	-0.21671763
17	0xbc836b71	-0.016042443
18	0xbe55388c	-0.20822352
19	0xbe072a56	-0.13199744
20	0xbe9e0816	-0.30865544
21	0xbde493ad	-0.111609794
22	0xbea0b790	-0.31390047
23	0xbc051a3d	-0.0081239315
24	0xbdbe5833	-0.092941664
25	0xbcd49b57	-0.025952978
26	0xbdaa5500	-0.08316994
27	0xbdd3f339	-0.103491254
28	0xbe3252fe	-0.17414472
29	0xbd9890a2	-0.074494615
30	0xbe53ca9a	-0.20682755
31	0xbbe587ab	-0.0070046983
32	0xbe59a04f	-0.21252559
33	0xbe254bce	-0.16142198
34	0xbd90fe0a	-0.07079704
35	0xbe0ef5c2	-0.13960937
36	0xbcd08f4c	-0.025458954
37	0xbda2082f	-0.07911717
38	0x3c34f18d	0.011043918
39	0xbe8c23b6	-0.27370995
40	0x3cc881b3	0.024475908
41	0xbe432c68	-0.19059908
42	0xbe82391f	-0.25434205
43	0xbdd6e244	-0.104923755
44	0x3d023186	0.03178551
45	0xbc24013a	-0.010010058
46	0xbc9cf0ce	-0.019157793
47	0xbe86599b	-0.2624024
48	0xbe2951af	-0.16535066
49	0xba10ed06	-0.00055284833
50	0xbd7b6cc8	-0.06138304
51	0xb9adff6d	-0.00033187438
52	0xbafe5ff6	-0.0019407261
53	0xbe561003	-0.20904545
54	0xbcb88389	-0.022523658
55	0xbd599d85	-0.053128738
56	0xbe0fa9d8	-0.14029634
57	0xbe436d4d	-0.19084664
58	0xbc90525f	-0.017617403
59	0xba942ee0	-0.0011305474
60	0xbac9aa02	-0.0015385749
61	0xbc9b40b0	-0.018951744
62	0x3ba75c17	0.0051074135
63	0xbdc3b483	-0.09555914
64	0xbbcb8911	-0.006211408
65	0xbe4b4e31	-0.19854046
66	0xbe46c33f	-0.19410418
67	0xbe687dd8	-0.22704256
68	0xbe671ccb	-0.22569577
69	0xbcbe4477	-0.023226006
70	0xbe4ebd8c	-0.20189494
71	0xbd8a7572	-0.06760682
72	0x3bdba2cc	0.0067027565
73	0x3bc2dee5	0.0059469813
74	0x3c088691	0.008332864
75	0xbcc9f40c	-0.024652503
76	0x3b74fc13	0.0037381693
77	0xbd29e548	-0.041478425
78	0x3bb4d191	0.0055181463
79	0xbe6a9f27	-0.22912274
80	0xbe6fb255	-0.23407872
81	0xbe497bc9	-0.19676127
82	0xbe7c0efa	-0.24615088
83	0xb9a2b6e1	-0.00031035303
84	0xbe5e1a97	-0.2168983
85	0xbc6192b6	-0.013767889
86	0xbe2d5a62	-0.1692901
87	0xbe1e8c4a	-0.15483204
88	0xbd4da163	-0.05020274
89	0xbdc51f8f	-0.0962516
90	0xbe2cbb38	-0.16868293
91	0xbdbc17e3	-0.091842435
92	0xbd97267a	-0.07380386
93	0xbcef713b	-0.029228797
94	0xbe816810	-0.25274706
95	0xbcce4532	-0.02517948
96	0xbe6fdfa4	-0.23425156
97	0xbe76ee7b	-0.2411441
98	0xbe7bd673	-0.24593525
99	0xbd8391e0	-0.06424308
100	0xbe4b2162	-0.19836953
101	0xbe031d89	-0.12804236
102	0xbd936773	-0.07197466
103	0x3bdce7c4	0.006741496
104	0xbd0c6aff	-0.034281727
105	0x3b683a81	0.0035435262
106	0x3c494d22	0.012286456
107	0xbe8175dd	-0.25285235
108	0xbd7e4e59	-0.062086437
109	0xbe0257f4	-0.12728864
110	0xbd0f9379	-0.03505275
111	0xbe13411b	-0.14380305
112	0xbd14715e	-0.036240928
113	0xbd86950b	-0.065713964
114	0x3bdd13f3	0.006746763
115	0xbc5cba3d	-0.013472137
116	0xbce06eea	-0.027396638
117	0x3cbcd15d	0.023049051
118	0xbe3a07c4	-0.18167025
119	0xbd46b934	-0.048516467
120	0xbe897576	-0.26847428
121	0xbe4a5a33	-0.19760971
122	0xbe98b788	-0.29827523
123	0x3cc69d4a	0.024244923
124	0xbe3c7e30	-0.18407512
125	0xbd17a7f5	-0.03702541
126	0xbe701d67	-0.23448716
127	0xbd26ecd4	-0.0407532

combined.0.weight f4 [64, 128]
0	0xbea0e4c6	-0.3142454
1	0xbea7ca8c	-0.32771719
2	0xbe3bf67d	-0.18355747
3	0xbe91d24a	-0.2848075
4	0xbd143e65	-0.036192317
5	0x3d0f8ffc	0.035049424
6	0xbd283c32	-0.04107303
7	0xbdaaaf45	-0.08334211
8	0xbdcb393f	-0.09923028
9	0x3c9baa35	0.01900206
10	0xbe911ccc	-0.28342283
11	0xbd496bae	-0.049174957
12	0xba974066	-0.0011539578
13	0xbdf02054	-0.11724916
14	0xbe2b7073	-0.16742115
15	0x3d00b68d	0.031424094
16	0xbef9db57	-0.48800156
17	0xbd78b1fb	-0.06071661
18	0xbe3cf414	-0.18452483
19	0xbe66742b	-0.22505252
20	0xbeb43bae	-0.35201782
21	0xbce2000e	-0.027587917
22	0xbe9b03b9	-0.30276278
23	0xbd511e92	-0.051054545
24	0xbe0c1c3b	-0.13682644
25	0xbc8c0a70	-0.01709482
26	0xbdc6fc04	-0.09716037
27	0xbe8393b7	-0.25698635
28	0xbe19b50b	-0.15010469
29	0x3ebb6086	0.3659708
30	0xbe8669ae	-0.26252502
31	0x3d10a485	0.035313148
32	0xbe2305ec	-0.15920228
33	0xbe8ab59a	-0.27091676
34	0x3c988a30	0.01862058
35	0xbe04cc5b	-0.1296858
36	0xbd658c2d	-0.056041885
37	0xbd9edb5b	-0.077566825
38	0xbd43b1ed	-0.047777105
39	0xbe832e2d	-0.25621167
40	0x3e1c111e	0.15240905
41	0xbd19f4a0	-0.03758681
42	0xbe31afb1	-0.17352177
43	0xbd5d3f0c	-0.054015204
44	0xbd1a4bc2	-0.037669905
45	0xbbc932d1	-0.006140091
46	0xbc80e1d3	-0.015732681
47	0xbeca2f66	-0.39489287
48	0xbeac5b91	-0.3366361
49	0x3a6c4393	0.0009012755
50	0xbd594723	-0.053046357
51	0x3e39a75d	0.1813025
52	0x3c9aab7f	0.018880604
53	0xbea5f24c	-0.3241142
54	0x3e861108	0.2618487
55	0x3d2b3024	0.041793957
56	0xbe2a0965	-0.16605146
57	0xbe806643	-0.2507802
58	0xbd576091	-0.052582327
59	0x3c866e57	0.016410036
60	0x3bc673ba	0.006056276
61	0x3e550f2a	0.20806566
62	0x3e5346cf	0.2063248
63	0xbe1c085e	-0.15237567
64	0xbc722252	-0.01477869
65	0xbea86d9f	-0.32896134
66	0xbe975ede	-0.29564565
67	0xbe9aee0f	-0.3025975
68	0xbeb03e03	-0.3442231
69	0xbde7d89b	-0.11320611
70	0xbe076263	-0.13221125
71	0xbe13318c	-0.1437437
72	0x3c527755	0.012845834
73	0x3de28d76	0.11062138
74	0x3d448050	0.04797393
75	0xbe17143a	-0.1475381
76	0x3c5056d8	0.012716018
77	0xbc1053af	-0.008809014
78	0x3e095296	0.1341041
79	0xbd26ec16	-0.040752493
80	0xbd3a2a59	-0.045450542
81	0xbe7f04ac	-0.24904126
82	0xbe0fc742	-0.14040855
83	0xbda7e49e	-0.08197902
84	0xbde44894	-0.11146656
85	0x3d60e94f	0.05491
86	0xbeca2398	-0.3948028
87	0xbe60f820	-0.21969652
88	0xbd7519cf	-0.059839066
89	0xbcfc3b9e	-0.030790146
90	0xbe444ad0	-0.19169164
91	0xbe3d7288	-0.18500721
92	0xbca2f0de	-0.019890245
93	0xbc0c1fed	-0.008552534
94	0xbe56e6f4	-0.20986539
95	0x3e1148e7	0.14187966
96	0xbed02bda	-0.40658456
97	0xbeb1610c	-0.34644353
98	0xbe898bb1	-0.2686439
99	0x3e8ace2b	0.2711042
100	0xbec0f071	-0.37683442
101	0xbe440c44	-0.19145304
102	0x3e0b16bd	0.13582893
103	0x3daa29ec	0.08308777
104	0x3e719d72	0.23595217
105	0x3e758e92	0.23980168
106	0x3dd4f2d6	0.1039788
107	0xbe821180	-0.25403976
108	0xbdd09122	-0.10183932
109	0xbc2c3a04	-0.010511879
110	0x3d89ea87	0.06734186
111	0xbded846a	-0.115975216
112	0xbb9df3c4	-0.004820319
113	0x3ec083de	0.37600607
114	0x3cc4c93e	0.024021741
115	0x3e8cc924	0.27497208
116	0x3e7f427b	0.24927704
117	0x3c93514e	0.017983105
118	0xbe0b1312	-0.13581493
119	0xbcb717d7	-0.022350235
120	0xbe09f5e6	-0.13472709
121	0xbe7b6a28	-0.24552214
122	0xbea12a31	-0.31477502
123	0x3ca160a6	0.019699406
124	0xbe87517c	-0.26429355
125	0x3ea1a81e	0.31573576
126	0xbebe5450	-0.371737
127	0x3d3c3f4d	0.045958806
128	0xbdc3fb4f	-0.09569418
129	0xbe05e7d2	-0.13076714
130	0xbcfd08d2	-0.030887995
131	0xbd36a4c3	-0.044590723
132	0xbc23aa58	-0.009989344
133	0xbca3175f	-0.019908605
134	0x3d0a7130	0.03379935
135	0xbd3cbade	-0.046076648
136	0xbc767013	-0.015041369
137	0x3c4ada0b	0.012381087
138	0xbd5075fc	-0.05089377
139	0xbc21137e	-0.009831307
140	0x3c543c07	0.012953765
141	0xbdc29c2f	-0.09502446
142	0xbccdfcb9	-0.025144922
143	0x3d46586a	0.048424162
144	0xbdbed721	-0.09318376
145	0xbd2e7447	-0.04259136
146	0xbd6f2813	-0.058387827
147	0xbddc9262	-0.10770108
148	0xbd1521c8	-0.03640917
149	0xbd289201	-0.041154865
150	0x3c9f0f42	0.019416455
151	0xbcb167b6	-0.021655899
152	0xbd03af74	-0.032149747
153	0xbc15217d	-0.0091022225
154	0xbce5175e	-0.027965244
155	0xbd3f093f	-0.046639677
156	0xbd620f6e	-0.055190496
157	0x3e153d7d	0.14574237
158	0xbd06efcd	-0.032943536
159	0x3c8bab00	0.017049313
160	0xbd9a6cf9	-0.07540316
161	0xbcf05025	-0.02933509
162	0xbcacd199	-0.021096038
163	0x386b60f3	5.6118657e-05
164	0x397dc163	0.00024200002
165	0xbd6e5ebe	-0.058195822
166	0xbc327534	-0.010892201
167	0xbd7c0839	-0.06153128
168	0x3bcce33f	0.006252676
169	0xbdbb927f	-0.09158801
170	0xbb5ed4c3	-0.0034001328
171	0xbc76c4d2	-0.015061574
172	0x3c90714a	0.017632145
173	0x3bd1b933	0.0064002513
174	0xbc0eefbe	-0.008724151
175	0xbd8b98f6	-0.06816284
176	0xbd9b1f2d	-0.07574306
177	0x3c70f6b2	0.014707254
178	0x3b280219	0.0025636016
179	0x3db9aee0	0.09066558
180	0xbc60234c	-0.01368029
181	0xbd3179f0	-0.04332918
182	0x3e0fbeb4	0.14037591
183	0xbaf58f37	-0.0018734698
184	0xbd3b1324	-0.04567255
185	0xbd6a68ec	-0.057228968
186	0x3b9b702d	0.004743597
187	0x3ca4d114	0.020119227
188	0x3bafeb99	0.0053686616
189	0x3e35eba1	0.17765667
190	0x3dbe75fc	0.092998475
191	0x3bc37e24	0.005965965
192	0x3cc32bcc	0.023824595
193	0xbd42fd8b	-0.04760508
194	0xbd8cba1e	-0.068714365
195	0xbe0a4fff	-0.13507079
196	0xbd8a00d2	-0.06738438
197	0xbd32afc8	-0.04362467
198	0x3c2b38f1	0.010450588
199	0xbcd695b9	-0.02619444
200	0x3b722438	0.0036947858
201	0x3da64a06	0.081195876
202	0xbc5e82f5	-0.013581027
203	0xbc53de5c	-0.012931433
204	0xbc078d8b	-0.008273493
205	0xbbf97d84	-0.0076138396
206	0x3cdbec34	0.026846029
207	0xbc973384	-0.018457182
208	0xbb6df47a	-0.003630905
209	0xbd4d0a05	-0.050058383
210	0xbd968143	-0.073488735
211	0x3bb565a6	0.005535799
212	0xbc89597b	-0.0167663
213	0x3ddc7c55	0.10765902
214	0xbce0ef89	-0.02745797
215	0xbd9e8cc9	-0.077416964
216	0xbcfdea82	-0.030995611
217	0x3d545072	0.05183453
218	0xbcc6d8f2	-0.02427337
219	0x3c8c449a	0.017122556
220	0x3bcd6d3d	0.0062691257
221	0xba19825e	-0.0005855913
222	0xbd191df0	-0.037382066
223	0x3e23e84f	0.16006587
224	0xbc711507	-0.014714486
225	0xbe167f9b	-0.14697115
226	0xbcd3be35	-0.025847534
227	0x3dc6e4c8	0.09711605
228	0xbdc60958	-0.09669751
229	0xbd2a2e0d	-0.041547824
230	0x3dcc4bab	0.0997537
231	0x3d61f0e8	0.055161387
232	0x3ddd2089	0.10797221
233	0xbb846522	-0.0040403763
234	0xbca5ef28	-0.02025564
235	0xbd5f2581	-0.054479126
236	0x3a9f931f	0.0012174583
237	0xbd3552ec	-0.044268534
238	0x3d03e27f	0.032198425
239	0xbcbdcb92	-0.023168359
240	0xbc8d644a	-0.017259736
241	0x3e79d8f1	0.24399163
242	0x3bcdaa4b	0.006276404
243	0x3e3297ec	0.17440766
244	0x3e67ba59	0.2262968
245	0xbcf31455	-0.029672781
246	0xbbf29240	-0.0074026883
247	0xbd0140ac	-0.031555817
248	0xbd735d1f	-0.05941498
249	0xbe1698ab	-0.14706676
250	0xbc8487d6	-0.016178053
251	0xbcf71d92	-0.030165467
252	0xbd4fa195	-0.050691206
253	0x3e41392d	0.18869467
254	0xbd0884ff	-0.03332996
255	0x3ab3e3d7	0.0013724518

combined.0.bias f4 [64]
0	0x3e80443a	0.25052053
1	0x3ee9f36f	0.45693538
2	0x3c90e014	0.017684974
3	0x3bd14a17	0.006387006
4	0x3c054938	0.0081351325
5	0x3bdd3b4b	0.006751453
6	0x3c31901e	0.010837583
7	0x3ae91f4e	0.0017785819
8	0x3bcb577b	0.006205497
9	0x3d78f042	0.060776003
10	0x3ba75f0d	0.0051077665
11	0xbb4b82bf	-0.0031053273
12	0x3cbc59fc	0.022992127
13	0x3c062e9f	0.008189826
14	0x3d5f68f5	0.054543454
15	0x3ea50430	0.32229757
16	0x3d26b199	0.040696714
17	0x3ed5b4fb	0.4173964
18	0x3b904312	0.0044025267
19	0x3e8f1c40	0.2795124
20	0x3eafe6d9	0.3435581
21	0x3ccbb5c3	0.024866944
22	0x3d647ec3	0.055784952
23	0x3d26980c	0.040672347
24	0x3d19ea49	0.037576947
25	0x3bd5289a	0.006505084
26	0x3c64f913	0.0139754
27	0x3cc1aab7	0.023640973
28	0x3bfc2162	0.007694409
29	0x3c8bd5f1	0.017069789
30	0x3aea3724	0.0017869216
31	0xbc8ddf1e	-0.017318305
32	0x3e02af54	0.12762195
33	0x3c1d961d	0.009618309
34	0x3bb5196e	0.005526713
35	0xbbecb556	-0.0072237654
36	0x3d6ae540	0.057347536
37	0x3e8544e2	0.26029116
38	0x3ca897bc	0.020580165
39	0xba77b149	-0.000944872
40	0x3d0db328	0.034594685
41	0x3baacf66	0.005212712
42	0x3d299149	0.04139832
43	0xbc7921e0	-0.01520583
44	0x3cb8f2e4	0.022576757
45	0x3b01b485	0.0019791436
46	0x3b9ad116	0.004724632
47	0x3cee7d37	0.029112441
48	0x3ed395d8	0.4132526
49	0xbc6a9626	-0.014318025
50	0x3cb5a257	0.022172136
51	0x3cf85df0	0.03031823
52	0x3c81a63a	0.015826333
53	0x3ec6dc18	0.38839793
54	0x3eb6b3db	0.35684094
55	0x3ed7f5ab	0.42179617
56	0x3cd8a922	0.026447836
57	0x3c5adc3e	0.013358174
58	0x386bafd1	5.6192108e-05
59	0xba264883	-0.00063432025
60	0x3d5caa32	0.05387325
61	0x3d8148ea	0.063127354
62	0x3c39c5e7	0.0113386875
63	0x3d6a6398	0.057223886

combined.3.weight f4 [64, 64]
0	0x3c3a685d	0.011377421
1	0xb80d4b94	-3.3687407e-05
2	0xbeb1f396	-0.34756154
3	0xbebc5ca2	-0.36789423
4	0xbee1ed55	-0.44126382
5	0xbeda96bf	-0.42693135
6	0xbe9ceb96	-0.30648488
7	0xbee1bddd	-0.44090167
8	0xbeaca267	-0.33717653
9	0xbd16c045	-0.036804456
10	0xbe808e4d	-0.25108567
11	0xbeb1fb67	-0.34762117
12	0xbe50a79b	-0.20376436
13	0xbeb2d611	-0.34928945
14	0xbcd60699	-0.026126193
15	0x3cbd4e92	0.023108754
16	0x3c862a70	0.016377658
17	0x3c97d148	0.01853241
18	0xbe69d23f	-0.22834109
19	0x3c3bce17	0.01146271
20	0xbc0a5408	-0.008442886
21	0xbeb9e4b3	-0.36307296
22	0xbd64882d	-0.05579393
23	0xbe3fe1eb	-0.18738525
24	0x3cdad648	0.026713505
25	0xbec7511e	-0.38929075
26	0xbecc82fc	-0.39943683
27	0xbdb7aafb	-0.08968159
28	0xbe1881c1	-0.14893247
29	0xbe51673d	-0.20449539
30	0xbf07d85a	-0.530645
31	0x3d06065c	0.03272091
32	0xbc4ff951	-0.012693719
33	0xbea6223d	-0.32447997
34	0xbe8fbe71	-0.28074983
35	0x3d372a36	0.04471799
36	0x3b8983ff	0.0041966434
37	0x3c493699	0.0122810835
38	0xbe01b429	-0.12666382
39	0xbee510ae	-0.44739288
40	0xbe0cc6ec	-0.13747758
41	0xbecfb870	-0.40570402
42	0xbd735e30	-0.059415996
43	0x3d238407	0.039920833
44	0xbd75bf6f	-0.05999702
45	0xbebb9888	-0.3663981
46	0xbee32de1	-0.4437094
47	0xbe1bcb05	-0.15214165
48	0xbb35b3bd	-0.002772554
49	0xbef18443	-0.4717122
50	0xbe6c2a46	-0.23063001
51	0xbe7cdbd5	-0.24693234
52	0xbeb0d42e	-0.3453688
53	0x3c1e53a2	0.009663494
54	0x3c65a7a8	0.014017023
55	0xbb534b70	-0.003224101
56	0xbcffa922	-0.031208578
57	0xbe266447	-0.1624919
58	0xbe26147b	-0.1621875
59	0xbe9b68f5	-0.30353513
60	0xbca47d6f	-0.020079343
61	0x3c67fcca	0.014159391
62	0xbeff4260	-0.49855328
63	0xbbc55c9f	-0.006023004
64	0xbb1ef7f6	-0.0024256683
65	0xbc54ce63	-0.01298866
66	0xbea5c10e	-0.32373852
67	0xbeed3ed1	-0.46336988
68	0xbee1c189	-0.44092968
69	0xbed6fdef	-0.4199061
70	0xbea61543	-0.32438096
71	0xbeb8d743	-0.36101732
72	0xbe3733df	-0.17890881
73	0xbd9e6223	-0.07733562
74	0xbe8f3005	-0.27966323
75	0xbeef9ae2	-0.46797854
76	0xbe8cda3d	-0.27510253
77	0xbe69202f	-0.22766183
78	0xbdefd47a	-0.117104486
79	0x3c3eca50	0.011644915
80	0xbd7ed091	-0.062210623
81	0xbc374f08	-0.011188276
82	0xbde85d00	-0.11345863
83	0xbbafc025	-0.0053634816
84	0x3c060fba	0.00818246
85	0xbe6b450b	-0.22975557
86	0xbb502267	-0.0031758787
87	0xbe22b1e9	-0.1588818
88	0xbd7946b0	-0.06085843
89	0xbf0ca942	-0.54945767
90	0xbeffa590	-0.49931002
91	0xbde3a6c4	-0.111157924
92	0xbe9dc5e1	-0.30815032
93	0xbe889478	-0.26675773
94	0xbf02be2d	-0.51071435
95	0x3c979697	0.018504424
96	0x3d393911	0.04522044
97	0xbe954f01	-0.29161838
98	0xbe5c2822	-0.21499684
99	0x3d95f5b4	0.07322255
100	0xbdc56f5e	-0.09640382
101	0x3c8d39c6	0.017239463
102	0xbe162000	-0.14660645
103	0xbefa1357	-0.4884288
104	0xbe1398d4	-0.14413768
105	0xbee9e2e4	-0.45680916
106	0xbdbb9ff6	-0.091613695
107	0x3cdaf6d7	0.02672903
108	0xbe3660e3	-0.17810397
109	0xbefed7d9	-0.49774054
110	0xbec06af5	-0.37581602
111	0xbdc71fde	-0.09722875
112	0xbc663a7e	-0.014052032
113	0xbef7f1d1	-0.4842668
114	0xbdd8f6be	-0.10593937
115	0xbe67d1bd	-0.22638603
116	0xbe8c212f	-0.27369067
117	0xba34e2d1	-0.00069002534
118	0x3c87184b	0.016491076
119	0xbb4f6685	-0.00316468
120	0xbdfdfaa9	-0.12401325
121	0xbe387d7d	-0.1801662
122	0xbe51fdeb	-0.20507018
123	0xbeb5ba4d	-0.354937
124	0x3da94b9e	0.08266376
125	0xbda0fc50	-0.07860625
126	0xbedf31e4	-0.4359275
127	0x3b889cc6	0.0041690795
128	0xbba2cdd3	-0.004968384
129	0x3c16731c	0.009182718
130	0xbee16997	-0.4402587
131	0xbe9206ac	-0.28520715
132	0xbf05556d	-0.52083474
133	0xbedcdce2	-0.4313727
134	0xbeba4d53	-0.3638712
135	0xbec3a806	-0.3821413
136	0xbe6094ad	-0.21931715
137	0xbcd9936b	-0.026559552
138	0xbec52d43	-0.38511094
139	0xbed17aa0	-0.40913868
140	0xbea566d4	-0.32305014
141	0xbec6f4cf	-0.3885865
142	0xbd8d6ab9	-0.06905121
143	0x3a2ad58f	0.0006516808
144	0xbdbbbe43	-0.09167149
145	0xbb91d3a7	-0.0044502798
146	0xbe167a0c	-0.14694995
147	0x3c1b5bc6	0.00948233
148	0xbb9560c7	-0.004558656
149	0xbe4acf91	-0.19805743
150	0xbd238305	-0.03991987
151	0xbe03a6c6	-0.12856588
152	0xbd9dd4dc	-0.07706615
153	0xbefe5020	-0.49670506
154	0xbedc2b51	-0.43001798
155	0xbe487151	-0.19574477
156	0xbec04455	-0.37552133
157	0xbe12922a	-0.1431357
158	0xbf0220d9	-0.5083137
159	0x3dacbbec	0.08434281
160	0xbcd595ac	-0.026072346
161	0xbe887660	-0.26652813
162	0xbebc5888	-0.36786294
163	0x3d05774d	0.032584477
164	0xbcccf892	-0.025020871
165	0xbb9eaaa6	-0.00484212
166	0xbe8bec07	-0.27328512
167	0xbee74de7	-0.45176622
168	0xbd6ba8c7	-0.057534005
169	0xbf0451c3	-0.5168726
170	0xbe2d3e63	-0.1691833
171	0x3d76856f	0.060185846
172	0xbe85b37b	-0.26113495
173	0xbeddf1b7	-0.43348476
174	0xbed94e02	-0.42442328
175	0xbdc4a6c8	-0.096021235
176	0x3c9f002b	0.01940926
177	0xbec3a1ca	-0.38209373
178	0xbe4505af	-0.1924045
179	0xbde0077f	-0.1093893
180	0xbea19045	-0.3155538
181	0xbadd6d49	-0.0016893531
182	0x3c51d966	0.0128081795
183	0xbbd18e59	-0.006395143
184	0xbd405622	-0.046957143
185	0xbe67690c	-0.22598666
186	0xbec2f717	-0.3807914
187	0xbed74d54	-0.42051184
188	0xbd9c754d	-0.07639561
189	0xbd6f8179	-0.058473084
190	0xbec3d8a0	-0.3825121
191	0xbd8a5c0e	-0.06755839
192	0xbf7af8c2	-0.98035824
193	0x3c31bd4d	0.0108483555
194	0x3c395c96	0.011313578
195	0x3c2de7ad	0.010614318
196	0x3c1085ec	0.008820992
197	0x3d20bca5	0.039242405
198	0x3b3c69ca	0.0028749579
199	0x3cbc2ba4	0.022970028
200	0x3c4bc8d5	0.012438019
201	0x3c796914	0.0152228065
202	0x3d30d46d	0.043171335
203	0x3be4c60e	0.006981618
204	0x3d007c64	0.03136863
205	0x3d5eab16	0.05436238
206	0xbc5e6d11	-0.013575808
207	0xbf1c55dc	-0.6106851
208	0x3cd16797	0.02556209
209	0xbc772e81	-0.015086771
210	0x3c75d249	0.015003749
211	0xbf7122f4	-0.9419396
212	0xbf2c388b	-0.6727378
213	0x3d02a1c7	0.031892564
214	0x3cde48c2	0.027134303
215	0x3cfebe4c	0.0310966
216	0xbc06d6f3	-0.008229959
217	0xbca3cf15	-0.019996205
218	0x3c1fcb3d	0.009753046
219	0xbbdb18e5	-0.0066863173
220	0x3c8497ec	0.016185723
221	0x39c614e1	0.0003778106
222	0x3d184baa	0.037181534
223	0xbb5ad2fe	-0.0033389921
224	0xbf9dd226	-1.2329757
225	0x3bc8022c	0.0061037745
226	0x3cf7ca07	0.030247701
227	0xbb5281ef	-0.0032120903
228	0x3b795448	0.003804462
229	0xbf7d0414	-0.9883435
230	0xbbac7607	-0.0052630934
231	0x3ce12d8c	0.027487539
232	0x3d41d2f6	0.04732033
233	0x3c8984f8	0.016787037
234	0x3c204cdb	0.009783949
235	0x3d27e5a7	0.040990498
236	0x3ab75f24	0.0013990146
237	0x3caef2a5	0.021355936
238	0x3ba7683d	0.0051088617
239	0x3c806eb3	0.015677786
240	0xbe25ce90	-0.16192079
241	0x3d529ffa	0.051422097
242	0xbc212390	-0.009835139
243	0x3cb90972	0.022587512
244	0x3d0150b1	0.031571094
245	0xbe7bc348	-0.24586213
246	0xbe901914	-0.28144133
247	0xbe2f2c1f	-0.17106675
248	0xb8f0c5a2	-0.00011480904
249	0x3d62fea6	0.055418633
250	0xbcfbebd7	-0.030752106
251	0x3cb1ccfb	0.021704188
252	0x3b83f595	0.0040270784
253	0xbc2643a7	-0.0101479655
254	0x3d233310	0.03984362
255	0x3cbe7d0b	0.023252985

combined.3.bias f4 [64]
0	0x3e9984f8	0.2998426
1	0x3e9f0495	0.31058183
2	0x3e95d0b8	0.29260802
3	0x3ef355ba	0.47526342
4	0x3ea42cee	0.3206553
5	0x3eb730fa	0.35779554
6	0x3eb0e746	0.34551448
7	0x3ef62d77	0.48081562
8	0x3ef56ff4	0.47936976
9	0x3ee88a5b	0.45418057
10	0x3e8a6bcc	0.27035367
11	0x3ee55160	0.44788647
12	0x3ea137df	0.3148794
13	0x3ea713de	0.32632345
14	0x3ebc71cc	0.3680557
15	0x3ea3a004	0.3195802
16	0x3ec199b4	0.3781258
17	0x3ef65206	0.48109454
18	0x3f056d64	0.5212004
19	0x3efcd2dc	0.49379623
20	0x3e9551ca	0.29163963
21	0x3efeb5d1	0.4974809
22	0x3f04956a	0.5179049
23	0x3f06bec2	0.52634823
24	0x3eeb9dda	0.4601887
25	0x3ef7aa24	0.48371994
26	0x3f0a9421	0.54132277
27	0x3ef8fa88	0.4862864
28	0x3ef095cf	0.46989295
29	0x3f031575	0.51204616
30	0x3f010515	0.5039838
31	0x3eae3f45	0.34032646
32	0x3edbf08c	0.4295696
33	0x3ee054f4	0.43814814
34	0x3e95adca	0.29234153
35	0x3eff23f5	0.4983212
36	0x3ee66ad1	0.4500337
37	0x3ee3cb23	0.4449092
38	0x3efb56e8	0.49089742
39	0x3f0527ed	0.52014047
40	0x3eeafa14	0.4589392
41	0x3ed734b0	0.42032385
42	0x3e984c4c	0.2974571
43	0x3ee76784	0.45196164
44	0x3ef68b6f	0.48153254
45	0x3f05fbc2	0.52337277
46	0x3eb573b4	0.35439837
47	0x3ea4cda1	0.32188132
48	0x3e7edb4a	0.2488834
49	0x3efbda0d	0.49189797
50	0x3eb70828	0.3574841
51	0x3e9821e1	0.29713348
52	0x3ef5d551	0.4801431
53	0x3eec514b	0.46155772
54	0x3ea8e6f0	0.3298869
55	0x3eff501e	0.49865812
56	0x3eba106b	0.3634065
57	0x3edbaa12	0.4290319
58	0x3eb00aee	0.3438334
59	0x3eb6f8f0	0.357368
60	0x3ee735c9	0.45158222
61	0x3ebce9dd	0.36897174
62	0x3e93bcc9	0.2885497
63	0x3eff77f9	0.4989622

combined.6.weight f4 [1, 64]
0	0xbe46e313	-0.1942256
1	0xbe3a87dd	-0.1821589
2	0xbe630be9	-0.22172512
3	0x3c973fa1	0.018462958
4	0xbe3a2e19	-0.18181647
5	0xbdd5b458	-0.104347885
6	0xbe0063e8	-0.12538111
7	0x3cd419bf	0.025891183
8	0x3d220eda	0.039564945
9	0x3c8f5630	0.017497152
10	0xbe83fad6	-0.2577731
11	0x3d4d065c	0.050054893
12	0xbe04cf2b	-0.12969653
13	0xbdf88948	-0.12135559
14	0xbdd603a5	-0.10449914
15	0xbe0892cc	-0.13337249
16	0xbde29381	-0.110632904
17	0x3c8d44f9	0.017244803
18	0x3ccc2040	0.024917722
19	0x3d08a164	0.03335704
20	0xbe1410c9	-0.14459528
21	0x3c9880d7	0.018616123
22	0x3d0ed36e	0.034869604
23	0x3c8bdb22	0.017072264
24	0x3c999234	0.018746473
25	0x3c90bd0d	0.017668271
26	0x3cbc262b	0.022967419
27	0x3c974925	0.018467495
28	0x3c24da33	0.010061788
29	0x3c80de98	0.015731141
30	0x3c6fc595	0.01463451
31	0xbe516d7e	-0.20451924
32	0x3c4881b9	0.01223796
33	0x3c874e46	0.016516816
34	0xbe85d79a	-0.26141053
35	0x3cc93010	0.02455905
36	0x3c526230	0.012840793
37	0x3c9b9cca	0.018995661
38	0x3d5ac67c	0.053411946
39	0x3d06b389	0.03288606
40	0x3c83937f	0.016061543
41	0x3d542cc9	0.051800523
42	0xbe32c295	-0.1745704
43	0x3c8b95ad	0.017039144
44	0x3cdbc33d	0.026826495
45	0x3c840b8c	0.016118787
46	0xbdf5234b	-0.11969622
47	0xbe1c3e39	-0.15258111
48	0xbec4eb4d	-0.3846077
49	0x3cb21f05	0.021743307
50	0xbdeeacb7	-0.116540365
51	0xbe77e12a	-0.24206987
52	0x3c9ddc47	0.019270075
53	0x3c885731	0.016643139
54	0xbdfa18a9	-0.12211735
55	0x3d07967e	0.033102505
56	0xbde42f70	-0.111418605
57	0x3d4679b9	0.048455928
58	0xbdf75dbc	-0.12078425
59	0xbe42a0b8	-0.19006622
60	0x3c8fe009	0.017562883
61	0xbde8a60d	-0.11359797
62	0xbe232692	-0.15932682
63	0x3ca10934	0.019657709
