data/models/june18_24_unweighted/fold4_best_model.pt (torch, 775603 bytes, 9 tensors)

layers1d.0.weight f4 [128, 1280]
00000000: d34c 233d 24e8 aabd 45d6 403c cdc9 c93d
00000010: bbee edbd a73f 2c3d 8422 053e 18b5 6fbe
00000020: 10a2 ffb9 f28d 023d 80af b83d 5e42 c9bc
00000030: 32ea 093e eb4d d93c f6a6 363d 0182 8fbc
00000040: 67b5 863d 27a4 223e a091 793d f654 883d
00000050: ab5a 38bd 0c23 493e a442 e43d 9ce9 92be
00000060: 16c0 11bd 64f5 b1bd 2c9d c93d 4df6 cc3c
00000070: 1887 783d d853 88bd bd4c 46bd bebe 103e
00000080: 9072 123e 4a7c 83bd 0856 953d b089 183d
00000090: 244e 1abe 64a5 52bd e760 0fbe fa28 673d
000000a0: 660d 93bd 3c58 0bbe 7e47 b2bd 85ef 28bc
000000b0: 5f48 d03d 81fc fc3d 8622 7dbc c8dd 243e
000000c0: fcd5 63bd 6acd 013c 13f4 acbd f4b4 873b
000000d0: ade2 ce3b 61b3 40bc 63b9 8b3c dfd9 953d
000000e0: 2f76 11bc ab8a 8e3d 24ef 6b3d 171d cf3d
000000f0: 7cc2 3e3d 7a34 7c3d 7a4c a3bd 7a48 903d
00000100: be7c b3bd 90f9 013c ee51 bd3c df5d 42bc
00000110: 909a d33d 4446 8c3d d72b 0b3e 70ec a0bd
00000120: 796b 883d 74f8 923d 4320 403d 8af2 3c3c
00000130: 9d58 753d e806 11bd b95c 1cbc 0b10 bc3c
00000140: adec 14bc 7124 08bc 060e 16bc 5dc3 08be
00000150: 7f05 ddbd 6ba6 02be a8b2 d5bc 9fdc 02bc
00000160: 1381 72bd a924 b7bd 5994 9b3d 32d5 06be
00000170: 8deb a03d 7cb6 11be c485 b8bc 8ca9 9c3d
00000180: 416e f93d 5e73 a2bc c0f9 97bd f917 80bb
00000190: ad57 b5bc 21bb 003e 0287 1cbd be94 4a3d
000001a0: e27c e8bd 846e cfbd 5847 b9bc 5d4c 9dbd
000001b0: ed3d fdbc 96b1 623d 8a0c c03c cc8c 28be
000001c0: 6e98 25be 8e59 803d b017 a4bd 2abd 04bd
000001d0: def4 acbb 72e2 3b3e 2ec2 9f3d 642f cfbd
000001e0: 53f3 bc3d 8fa1 40bd c16c e0bc fd45 d03b
000001f0: 110b 893d af76 babc e6ee 9dbd 83eb 4c3c
00000200: 956e d7bd 43aa 933d 10b4 acbc aefc 3abb
00000210: 9089 f6bc 5ae2 07bd 5f3b 6c3d 340b 713c
00000220: 28bc 683c 6793 40bd 6c0e cebd 52f7 afbd
00000230: ff44 113e 03ef 573d 8234 63bd abe4 04be
00000240: 471e 26bd 6b85 09bd 05f8 d7bd 1ebc 2cbe
00000250: 4e75 063d 90cf 1e3b fa33 5f3d 9d98 32bd
00000260: 7c7f 013a 606e 0e3e 4473 ebbb 8f24 c53c
00000270: a849 d33d 4754 3e3d f807 8a3d 0e9d 6a3d
00000280: b811 08bd 7d21 19bd 6c28 8b3d 8790 0cbe
00000290: 2d22 0d3c e542 ad3d bb38 bb3d 030c e83d
000002a0: c512 883d 52a5 42bb 8241 a0bc 5d44 1b3e
000002b0: 1177 8ebd fa6c 3ebd 92ce 12be 4bba a6bd
000002c0: c1e8 c93c 09ff 8e3c 292e b13c b679 0ebe
000002d0: d26e 5e3c 702f 63bd 2197 573c 5256 9d3d
000002e0: eaff 01bd 3a81 893d ab22 3a3e 5803 6abd
000002f0: e424 26be a85a d73d 306a db3c b438 13bd
00000300: f569 193d 65c5 4b3d 8137 9abc 921c ed3b
00000310: 5950 2b3d 2107 453c 3fcd 27bc 8137 2d3d
00000320: 18cc 103e f674 f73d e6cc 47bd 8bf0 33bd
00000330: e8cf 7e3d 7bac 51bd d845 83bd 8d63 b53c
00000340: 224a 1cbd 6649 d53c ac8b f6bd a793 c03d
00000350: a271 59bc c0b3 483d 4846 12be ac61 f03d
00000360: 1a0b 9e3d 3f56 13bc a7e5 afbd 5635 a83b
00000370: 78b1 1fbe 59ec 7b3d 8b21 e03c 23ad d63d
00000380: 0b2d a93d fb05 893c 1f98 48bc 1c9a 1dbe
00000390: 382b df3d c56d abbd 7ccc b33d d7ad 083e
000003a0: dcdc e8bb caad d8bd 5252 0d3d 039d d03d
000003b0: 8371 b8bc 4a32 0bbe da18 88bb 1aa5 c03d
000003c0: 80d2 83bd 3a00 03bc 6997 903d a297 0dbd
000003d0: f338 92bd 2af8 41bd 69cd c9bc b19c 5e3a
000003e0: 7fea d43b b3f8 16bd 02c4 5a3c 66be a2bd
000003f0: 7c1c 553d b855 f2bd d2ae 8dbc fb23 7a3d
0.039868187 -0.083450586 0.011769836 0.098529436 -0.116178 0.04205289 0.13001448 -0.23408926
-0.00048758136 0.03187365 0.09017849 -0.02456778 0.13468245 0.026526412 0.04459282 -0.017518045
0.065775685 0.15882932 0.060929894 0.0665683 -0.045008343 0.19642276 0.11145523 -0.28693855
-0.035583578 -0.08689383 0.09844431 0.02501979 0.06067571 -0.06656617 -0.048413027 0.14135262
0.14301515 -0.06420191 0.072918 0.037240684 -0.15068871 -0.05142726 -0.14001809 0.056435563
-0.0718029 -0.13607877 -0.08705042 -0.010311012 0.10170054 0.12352849 -0.015450126 0.16100228
-0.055623993 0.00792251 -0.08444991 0.0041414443 0.006313643 -0.011761517 0.017056173 0.07316946
-0.008878275 0.069600426 0.05760111 0.1011297 0.046572194 0.061573483 -0.07973571 0.07045074
-0.08764027 0.0079330355 0.023110356 -0.011863201 0.10332215 0.068493396 0.13590942 -0.07857597
0.06661124 0.07176295 0.046905767 0.011532435 0.05989896 -0.035406977 -0.009543591 0.022956869
-0.009089631 -0.00830947 -0.009158617 -0.13355775 -0.10792064 -0.12758796 -0.026086167 -0.0079871705
-0.059205126 -0.08942539 0.075966544 -0.13167265 0.07857428 -0.14229769 -0.022524722 0.07649526
0.121792324 -0.019830402 -0.07420683 -0.0039091078 -0.022136534 0.12571384 -0.03821469 0.049458258
-0.113519445 -0.10128501 -0.022617027 -0.07680581 -0.030913318 0.05534514 0.02344348 -0.1645996
-0.16171429 0.06267081 -0.080123305 -0.032406963 -0.005278214 0.18348101 0.07800709 -0.10116461
0.09226098 -0.047029074 -0.027395608 0.0063559995 0.06691564 -0.02276167 -0.07711582 0.012507322
-0.10519139 0.07210209 -0.021081954 -0.0028531956 -0.030094892 -0.03317485 0.05767381 0.014712144
0.014205016 -0.047015574 -0.100613445 -0.085920945 0.14186476 0.052718174 -0.055469997 -0.12977855
-0.04055622 -0.033574503 -0.10545353 -0.16868636 0.032826714 0.0024232604 0.054492928 -0.043602575
0.0004939956 0.13909292 -0.0071853716 0.024065284 0.10316783 0.046467092 0.06739801 0.057278685
-0.033220023 -0.037385453 0.06794819 -0.13727008 0.008614105 0.08460025 0.0914168 0.11330416
0.06644205 -0.002970059 -0.019562487 0.15162797 -0.06956304 -0.046490647 -0.14336613 -0.08141001
0.024647119 0.017455595 0.021628456 -0.13913617 0.013576226 -0.05546516 0.0131585905 0.0768248
-0.0317382 0.06714101 0.18177287 -0.057132095 -0.1622501 0.10515338 0.026784033 -0.03594275
0.037454564 0.049748797 -0.018825294 0.007236072 0.041824672 0.012025625 -0.010241806 0.04228926
0.14140356 0.120828554 -0.04877939 -0.04393057 0.062209994 -0.05118988 -0.06409806 0.022142196
-0.038156636 0.026035976 -0.12038359 0.094031624 -0.013271721 0.048999548 -0.14284623 0.117373794
0.07716961 -0.008992731 -0.085887246 0.0051333113 -0.15595043 0.061504696 0.027359745 0.10482242
0.082605444 0.016726485 -0.0122433 -0.1539082 0.10896915 -0.08370546 0.08779237 0.13347565
-0.0071064066 -0.10580023 0.034502335 0.101861976 -0.022515064 -0.13593403 -0.004153353 0.094064906
-0.06436634 -0.0079956595 0.07060129 -0.034568436 -0.071397685 -0.04735581 -0.02463408 0.0008491977
0.0064976807 -0.03685827 0.013352396 -0.07946472 0.052029118 -0.11832756 -0.017295275 0.06106947

layers1d.0.bias f4 [128]
00000000: c742 0ebe cfc3 e5bd 55ca 0ebe d093 dcbd
00000010: c1ca da3a 9c4b d7bd f9b7 1abd 9137 03be
00000020: 21ae 93bd 802c f3bd de0d e4bd 595c 62bd
00000030: 3b12 9ebb 31a1 25be 55b5 ef3c f837 bebd
00000040: 0e94 adbd 5f6c 1fbe 00d4 1dbe a1c0 e9bd
00000050: 87c1 9dbd d20f 56bd 67b8 b2bd a422 e7bd
00000060: 81f1 1bbe 3873 09be b8ec ebbd 67a4 b1bc
00000070: 2c6d f8bd 3d9f e1bd 4ff4 c2bd dec0 4cbd
00000080: eeaa 3fbd 316f b4bd 7744 1ebd 0220 d9bd
00000090: 097d debd 5676 1dbd 1c45 d4bd 7e8d 00be
000000a0: 656c f9bd 6a99 10be d80d 7fbd f792 05be
000000b0: fb5e 98bd 8233 1bbe e657 57bd 0a66 fcbd
000000c0: 4298 9abd b1c0 5fbd fea9 0fbe 55b6 09be
000000d0: 4f0f f1bd dcbc 1fbe 4410 94bd 8ca8 e9bd
000000e0: 7656 25bd 2d6c e6bd 5c18 04be 3916 f7bd
000000f0: 8f4e 2dbd c106 73bd dbb5 cfbd 2af6 e3bc
00000100: 7f8a 99bd 6bbc 35bd 2660 03be cdf0 b8bd
00000110: 5d64 10be cb05 52bd c7b8 86bd 92a4 ccbd
00000120: 14b2 263d 975e 54bd d3e1 04be 33c2 cebd
00000130: 3c1b 08be 0981 0a3c 4c13 01be db70 f9bd
00000140: 7ae5 02be 1eb6 60bd 599c 14be b75c ee3b
00000150: 9315 9ebd 23af b4bd 4570 8fbd 438e f6bd
00000160: 9473 2dbe ce79 bdbd 3531 cdbd a9b7 29be
00000170: 3679 8fbd 7b6a cf3b 1f83 2bbe 580b c2bd
00000180: 2a54 d5bd f628 babd ef38 02be 9798 2cbd
00000190: 3d49 bcbd 0ad3 a8bd 9baa 15be c4b9 02be
000001a0: 845d 08be 2a5a e03b f92e 16be 53d5 e3bd
000001b0: a714 f2bd 3e60 a5bd e590 4fbd 03fc 92bd
000001c0: c3ba 72bd 31ab 82bd 8b0e 96bd b390 f4bd
000001d0: 206f 0dbe ae25 cbbd eeb4 d0bd 6d12 04be
000001e0: 72f4 28be 7159 87bb b039 02be a7ea 30be
000001f0: ea77 c9bd 080c bbbd 626e 86bc 3709 e7bd
-0.13892661 -0.11218988 -0.13944371 -0.107703805 0.0016692505 -0.10512468 -0.037773106 -0.12814166
-0.07210947 -0.11873722 -0.111354575 -0.05526385 -0.0048239506 -0.16174771 0.02926127 -0.09288019
-0.08475505 -0.15568684 -0.15412903 -0.11413694 -0.07702928 -0.05226118 -0.08726578 -0.11285904
-0.15228845 -0.13422859 -0.1151976 -0.021684838 -0.12130198 -0.110167004 -0.095192544 -0.04998862
-0.04679387 -0.088102706 -0.038639512 -0.10601808 -0.10863692 -0.038442932 -0.10364744 -0.12553975
-0.12178878 -0.14121023 -0.06226906 -0.13044344 -0.07439991 -0.15156367 -0.05257406 -0.1232415
-0.07548572 -0.054627124 -0.1402969 -0.1344846 -0.11770498 -0.15599388 -0.07229665 -0.11409101
-0.04036566 -0.11251102 -0.12899917 -0.120647855 -0.042311247 -0.059332613 -0.10142108 -0.027827341
-0.07497119 -0.044369143 -0.12829646 -0.09030304 -0.14100786 -0.051275056 -0.06578212 -0.09992327
0.040697172 -0.05184802 -0.1297677 -0.10095634 -0.13291639 0.008453616 -0.12605017 -0.121797286
-0.12782851 -0.05486118 -0.14512767 0.007274236 -0.07718959 -0.08822467 -0.070038356 -0.12038853
-0.16938621 -0.09251748 -0.10019151 -0.16573967 -0.07005541 0.006329832 -0.16749237 -0.0947482
-0.10416444 -0.09089844 -0.12717031 -0.04213771 -0.091936566 -0.082433775 -0.14615862 -0.12766176
-0.13316923 0.006846686 -0.14666356 -0.11124673 -0.11820345 -0.08074997 -0.05067529 -0.07176974
-0.05926014 -0.063803084 -0.073269926 -0.11941662 -0.13811922 -0.09919296 -0.101907596 -0.12897654
-0.16499498 -0.0041305353 -0.12717319 -0.17277013 -0.09837325 -0.09133154 -0.016410057 -0.112810545

layers1d.3.weight f4 [128, 128]
00000000: 861b e9bc 2b57 423e 823b 653e 9814 19bc
00000010: 717b 05be 331e fd3d 68a4 85bc 27f5 893e
00000020: 1426 c13c cae1 223d 3758 2ebd 35bd 3f3c
00000030: 4699 99bc 56bb 973e 5a03 74bd 41c3 de3c
00000040: 8d18 393d cdc3 9abd 6e22 743e 8e26 623d
00000050: 6b3c 9cbc fc11 453d 7804 e33c 03de cebc
00000060: d5dd 87bd 3920 f83e 89e3 213e 0a61 b5bc
00000070: afaf a03d 6be4 53be 57b9 4e3e bd31 0ebe
00000080: 3282 c0bd 4db0 5dbd 40f2 993d 3b1d b33d
00000090: b5c2 953d e558 ef3c f61d bbbe 0b19 383e
000000a0: 390c dd3d 9234 783e 9067 6c3d 5a6c 3dbd
000000b0: b674 0ebc 62a4 3c3d 903b 633c d70b 723d
000000c0: da2a 363e a35b f53c 83d8 cb3d ff0a 383d
000000d0: e4ba 6c3c 1340 973d ce28 6dbd 2f45 343e
000000e0: e8a3 a53b ab3b 34be 15fd e53d 03a6 633d
000000f0: 1c9f 003d 5616 ddbb a5ee 563e d0db 53bd
00000100: 0af4 a53c cf10 d7bc e311 d7ba 0aa2 3c3e
00000110: dee0 0ebe 4954 a3bd f68a 5b3d a45e c0bc
00000120: 89fd f1bd 1317 2cbe 0299 ce3d 4fc8 043d
00000130: daff a43e 7fd2 9cbd eec0 dc3d bfc3 86bd
00000140: 792d 1b3e 5a89 3d3c 20fd 103e 699e 00be
00000150: 27f3 1abd fd70 9b3e aa23 cabc fc21 913e
00000160: efb2 a23d 48af 0bbd 4a69 84bd 2fdf 403e
00000170: d0ba f33d e7fe 88bd adc9 053f b46b 1ebd
00000180: 6cc1 8b3e f0df d73d f221 9f3d b2ce 973d
00000190: 81cb 7d3d 0503 edbc f944 b4bd 8c87 8e3d
000001a0: 7604 fdbc 6a00 52be 9e09 833e 4743 1b3e
000001b0: 7de1 cabc ed34 f63d 8a74 3abc 40e3 a5bd
000001c0: 7335 48bd aca6 30bc 5615 473c 80cf 973b
000001d0: 3287 303e 1347 9b39 35a1 623e c810 123e
000001e0: 9819 203e f33b 0abe 508f 9e3d 57df 443e
000001f0: b44d 45be 5780 93ba 2cdd aabd 32d7 683e
00000200: 26ea bc3d 31ff 073e bd6e 893d 36b7 1a3e
00000210: eb87 f3bc 315d 95bd 3b05 9ebc e314 593e
00000220: d429 15be 6466 2e3e 6a4a 323e 8927 363d
00000230: 97ab ffbb a554 533e 9fc7 2abc cb62 693d
00000240: 1971 513d f62c c33d 1c81 893d 090f 373c
00000250: 1113 87bc c99d 5e3d b0b1 b9bd 61d2 a73d
00000260: 8343 f63d 86e5 9c3e 782a 573e 8d16 0abd
00000270: 74d4 a73d 421e 70bc 7cd1 df3d 4a4d 413e
00000280: d750 edbd d711 14be 86cb a33d ae09 a23d
00000290: ae9b 60bd 835d 563d 8d5e 2ebe 61ed ad3d
000002a0: 974f 833d 1782 d43d 78dc 5ebd 39cd eebc
000002b0: 5213 203d 402d 163c bda5 9d3c bcfc a83d
000002c0: 9c88 273d 7d95 5b3d 0fae 163e 66fa 213e
000002d0: 3fd1 b2bd 3e46 6bbd bbdf 233c 0b26 293d
000002e0: 9fa4 0a3e 3a78 57bc 8d8c 92bc 29ec 2e3d
000002f0: a5e5 1d3e 253c 3c3d 0cd4 233e b444 00bd
00000300: 1d99 b03d fc90 01be 6998 f03d 8a15 213e
00000310: 43dd 2c3d 899e 91bd 7828 3ebd e117 283e
00000320: fef9 bbbc 402c d0bd ff6c a93d 4ad9 a3bc
00000330: 744d 433e de91 1f3c 5b87 973d aeee d33d
00000340: 7c2b 5a3e 8a75 10bd 0193 d03d cb4a dabb
00000350: 3afb 163e 9236 eb3d 15fb de3d d23d f23d
00000360: 4acf 323e 7c1e 513e 030a 573c 0289 95bd
00000370: a8e8 dfbc f22c 5cbd 6f64 7d3e 56a7 e83d
00000380: 8146 c53d a106 f23d e8e8 113e 06e7 8bbb
00000390: 5774 f93d 5047 d6bd ec20 303e 3475 23bd
000003a0: 9794 f8bd b23d c2bd 27aa e13e 3522 8c3d
000003b0: e6d1 293e c5f5 bd3d 36ed 463b 2692 2bbd
000003c0: cd8c 63be bc22 96bd 70fc 8c3d b778 3a3e
000003d0: 29fd 903d 427b ccbc dcc2 233e 2f3b 583e
000003e0: 2d7a 343e 37e3 1ebd 168d db3d 8f5e 7d3e
000003f0: 733b 39bd c818 713d d960 b3bd a467 783e
-0.028455507 0.18978564 0.22385982 -0.009343289 -0.1303537 0.12359276 -0.016313747 0.2694485
0.023577727 0.03976611 -0.042564597 0.011702825 -0.018749844 0.29635113 -0.05957351 0.027192714
0.04518943 -0.07556877 0.23841259 0.05521255 -0.019071778 0.048112854 0.027712092 -0.025252348
-0.06634108 0.48462084 0.15809454 -0.022140998 0.07846009 -0.20692603 0.20187889 -0.13886161
-0.09399833 -0.05412321 0.07516909 0.0874581 0.07312528 0.029217193 -0.36546296 0.17978303
0.10793347 0.24238804 0.057715952 -0.04624591 -0.008694818 0.046055205 0.013869181 0.059093323
0.17789784 0.029950922 0.09953406 0.04493236 0.014448855 0.07385268 -0.057900243 0.17604516
0.0050549395 -0.17600887 0.11229912 0.055578243 0.03140174 -0.0067470474 0.20989473 -0.0517233
0.020257968 -0.026253132 -0.0016408529 0.18421188 -0.13952968 -0.079750605 0.05359932 -0.023482628
-0.11815936 -0.16805677 0.10087778 0.03241759 0.3222645 -0.076573364 0.10778986 -0.06580304
0.15154065 0.011568392 0.1415906 -0.12560429 -0.037829544 0.3035964 -0.02467521 0.2834624
0.07944285 -0.034102708 -0.06465395 0.18835138 0.11900866 -0.06689244 0.5226086 -0.038676932
0.27296007 0.105407596 0.077701464 0.07412471 0.061961655 -0.028932104 -0.08802218 0.06959447
-0.030885916 -0.2050797 0.25593275 0.15162383 -0.024765724 0.120218135 -0.011380324 -0.08099985
-0.0488791 -0.010781925 0.012151083 0.00463289 0.17239073 0.00029616858 0.22131808 0.14264214
0.15634763 -0.13499431 0.077421784 0.19225822 -0.19267923 -0.0011253458 -0.083429664 0.2273834
0.09224348 0.13280942 0.06710575 0.15108952 -0.029727897 -0.072931655 -0.019289603 0.21199374
-0.14566737 0.17031246 0.17411199 0.044471297 -0.0078024375 0.20637758 -0.01042357 0.056978982
0.05113325 0.0953006 0.06714079 0.011173018 -0.016488584 0.054349694 -0.09067094 0.081944235
0.120245956 0.30643862 0.21012294 -0.033712912 0.08194819 -0.0146556515 0.10928628 0.1887714
-0.115876846 -0.1445993 0.079978034 0.079120025 -0.054835968 0.052335273 -0.17028256 0.08492542
0.06411665 0.10376375 -0.054409474 -0.029150592 0.039080925 0.009166062 0.01924407 0.0825133
0.040901765 0.05360936 0.14714836 0.15818176 -0.08731317 -0.057440035 0.010002072 0.041296046
0.1353936 -0.013151223 -0.017889285 0.04270569 0.15419634 0.045955796 0.15998858 -0.03131552
0.08622954 -0.12652963 0.1174782 0.15730873 0.0422032 -0.07110316 -0.046425313 0.16415359
-0.022946354 -0.1016469 0.082727425 -0.020001072 0.19072515 0.009739367 0.07398864 0.10348259
0.2130565 -0.035268344 0.10184289 -0.006661748 0.14744273 0.11485018 0.10887734 0.118281975
0.17461887 0.20421785 0.013124946 -0.07301523 -0.027332619 -0.0537538 0.24745344 0.11360042
0.09632588 0.118176706 0.14249003 -0.0042694835 0.12180393 -0.104628205 0.17200059 -0.039906695
-0.12137716 -0.09484424 0.44075128 0.06842462 0.16583976 0.092753924 0.003035379 -0.041887425
-0.2222168 -0.07330844 0.06884086 0.18210112 0.070795365 -0.024961118 0.15992302 0.21116327
0.17624731 -0.038790908 0.107202694 0.24743102 -0.04522271 0.058861524 -0.087587066 0.24258286

layers1d.3.bias f4 [128]
00000000: 158d 47be 475b 16be 8221 39bc 6ad1 81bb
00000010: 8303 8f3c 2399 1fbc 3bd0 7039 1212 98bd
00000020: 8ff9 5cbe 563f ef3b e541 863c 54a7 45be
00000030: 7e9c 77bc 2a49 03be aac9 333c 0840 653c
00000040: b77f 0bbe e28b 6bbd 1acc 4b3b f2b5 8dbc
00000050: c18e 99bc 92db 9cbc f3bc 39bd 7049 91bd
00000060: 6ae2 36bd 000f 86bd fff6 9fbe 6e8a fd3b
00000070: 777c 53bc de91 8ebc 63a2 ddbd 53a2 02bd
00000080: f066 d23c 6e41 66be 3c2e f1bc 577c 92bd
00000090: e5e0 81be 71e7 debd 5e31 68be 380e 46be
000000a0: 93f6 f9bd 4277 54bd 3b8f 83be 8b87 7bbd
000000b0: 3466 6abc 2c82 65be e5b1 0bbe e1b5 26bc
000000c0: e565 29be da30 c5bd cef6 eebc 427e b539
000000d0: 8205 78be 1a3d 27be 29e2 10be 9675 93be
000000e0: 9402 6bbe a415 2bbe f387 d13b 00d1 47be
000000f0: 06c8 ddbd 7e36 f5bd 7891 ddbc ec05 55be
00000100: 8569 a5bd db4e 11bc 9b50 3bbe df8b 92be
00000110: 08d3 84be 10f4 bebc f7b5 06be 1e82 79be
00000120: 579c 28bd bdbb 0cbe ca5c 5abd 0154 98bd
00000130: 4086 b6bc c70d 67bd e5e3 73bc 9283 a5bd
00000140: 09a5 19bc ea32 bcbd 5d76 c3bb 3bde 4cbd
00000150: 4784 853c 4a9b 30bd a12a 4cbe 2832 03be
00000160: c43e 24be 4223 56be ac89 73bc e3a9 3abe
00000170: 0b55 efbb 4ac1 4fbe 62b5 80be 0ccf 69bc
00000180: df30 b9bd 697d 82bd 0732 09be 60e6 333c
00000190: 991b baba ea14 53bd 756b 2bbe 6f70 06ba
000001a0: abcc 033d 82ef 88bc ed9f 57be 8d3e 25be
000001b0: 5c5f 8abc 3275 893c da98 21be c478 043c
000001c0: a7d5 eebb 126a ddbd 3c3c 99bd 4a45 66be
000001d0: 91a5 a23b 609b 32be e583 0abd 799d 103b
000001e0: df9c 4dbd ba64 1cbe 5ab9 cf3b f95f 09be
000001f0: 5ab1 b0bd 0c7f 3fbd 3988 22be a2d3 19be
-0.19487412 -0.14683257 -0.011299493 -0.0039617317 0.01745773 -0.0097411005 0.00022965755 -0.07425322
-0.21579574 0.0073012514 0.016388843 -0.19302112 -0.015112994 -0.12820879 0.010973373 0.013992317
-0.13622938 -0.05750645 0.0031096996 -0.017298672 -0.018744828 -0.019147668 -0.04534621 -0.07094085
-0.04464952 -0.0654583 -0.3124313 0.0077374494 -0.012908093 -0.01740354 -0.108219884 -0.031893086
0.02568385 -0.22485897 -0.029440992 -0.07152622 -0.25366893 -0.10883988 -0.22675082 -0.19341362
-0.122052334 -0.051871546 -0.25695214 -0.06140856 -0.014306594 -0.22412938 -0.1364208 -0.010175199
-0.16542776 -0.09628458 -0.02917042 0.0003461708 -0.24220851 -0.16331902 -0.14148773 -0.28800648
-0.22950202 -0.16707474 0.0063943802 -0.19513321 -0.10829167 -0.11973284 -0.027046904 -0.2080304
-0.08076767 -0.008868898 -0.18292467 -0.28622338 -0.25942254 -0.023309737 -0.13155352 -0.24366042
-0.041164722 -0.13743491 -0.053311147 -0.074378975 -0.022280812 -0.056409623 -0.014885877 -0.08081736
-0.009377726 -0.091893986 -0.0059650377 -0.050016623 0.016298426 -0.043116845 -0.19938137 -0.12812102
-0.16039568 -0.20911887 -0.0148643665 -0.18228869 -0.007303839 -0.20288578 -0.25138384 -0.014270555
-0.090425245 -0.06371576 -0.1339799 0.010980219 -0.0014198899 -0.051533617 -0.1674021 -0.0005128448
0.03217761 -0.016715769 -0.210571 -0.16137142 -0.016891174 0.016779516 -0.15780964 0.008085433
-0.007288653 -0.10811247 -0.07482192 -0.22487369 0.0049635847 -0.17442083 -0.03381719 0.0022066517
-0.050198432 -0.15272799 0.0063392343 -0.13415517 -0.08627577 -0.04675202 -0.15872277 -0.15022138

combined.0.weight f4 [64, 128]
00000000: dbf3 9ebc 3f65 313d 5e0b 91be 9122 853d
00000010: d892 323d 5507 353d a867 593d 31e4 713d
00000020: 9fa1 97bc 0034 a33c 9f77 843d 7dc8 8a3c
00000030: ee60 343d 4477 a43c 65d2 56be cc72 07bd
00000040: cabf dd3c e77d d53c 0b10 4cbe 84c4 103d
00000050: 1f30 c1bd 4579 39be 2f4f ae3c 4990 943b
00000060: 2602 51bb bbca 673d 5f91 7b3d cc0b f23c
00000070: 2065 e2bd a4d3 463d e3f4 09ba 6987 ae3d
00000080: 5627 0f3d 64a1 183e 1ce2 153d e069 953a
00000090: c134 b43c bd30 153d 0c72 773d d12e 1d3c
000000a0: deac ba3b e899 eebd d12d 963d afee 443d
000000b0: ca11 56bd a217 e43b a194 253d 9006 203d
000000c0: 0a20 0b3d ce0b 8a3c 2731 6d3d 7120 13be
000000d0: aca8 98bc ef63 d73c e96f 3c3d 36f9 683c
000000e0: 1b96 c93c 6e39 9abc 57b8 853d 25ec 8fbc
000000f0: a74c eb3c 935c de3c f24f a5bd ddf0 bb3c
00000100: d97b e13d affe 04be 13f1 c13c e2c6 49bd
00000110: 62a0 fc3b 1184 1ebe dcab 6d3d 9432 8abd
00000120: 5948 a1bb 4cb8 5a3d c9fc 60bd 91c5 a0bc
00000130: 5004 753d 8486 2a3c e18d 983d a878 873d
00000140: 1e9d 7dbe 2f79 ae3c a495 2c3c 5238 05bd
00000150: 969b 80bc b912 adbb 03ab aabc 7113 063d
00000160: d237 533d 5e63 8c3d cc7a e93d c140 c9bc
00000170: eb9a 873d 9327 633b 264d 793d 37e6 843c
00000180: 885f 493c 5476 6e3d 1488 b93d f814 043d
00000190: cb5a 4e3d b2a8 a23d ffd4 96bc 23a9 b83c
000001a0: 5305 0d3c c2f5 f3bd 2941 4e3b acb6 cb3c
000001b0: 2382 11be 3506 c43c 3d98 ab3d a190 d6bd
000001c0: 2b2f 2a3d 55be 273d b60b 0e3d 8e2c 743d
000001d0: b11b 6cbd 587f ab3d 5626 3b3d c202 7abe
000001e0: f008 a9bd bdfa fc3d e18f 6c3d 6fa6 463d
000001f0: b82b a73d d3df 0a3d 7a69 f63d 04f7 e03d
00000200: 5f4e 5c3d bf74 3f3d 2c8a a9be f7a8 423b
00000210: cd45 513d 1636 003d 9f84 a93d 3ddb 1a3d
00000220: 32d7 c33d c3e1 8dbd d157 073d 632f 833c
00000230: baea 863c 629c 183d 2186 70be 1e1e cf3c
00000240: d313 49bc 26db a2bc 5ad4 67be 9125 5d3c
00000250: fc77 b4be 9340 3dbd 8983 a43d b64a 8d3d
00000260: a9ec 033d 7c5a c73d 040e a53c 0d47 823d
00000270: 27d5 a4be 474f d83c a1da 14bc 55ae 3bbb
00000280: 992c 0d3d 18da 263d a481 e73d aa96 cb3d
00000290: b6eb ff3a c3cc e63d eda1 913c 20cf 133d
000002a0: 51af 9d3b 7629 e8bd 5fa9 8c3d 600c 22bc
000002b0: 170c 04be 74ce 11ba 6d8e 35bc 1573 963c
000002c0: 65b5 493d ba8f 513d cb2f 46bd 5545 9cbe
000002d0: b10e fcbc 3632 ce3d d70e c83c 58da e23c
000002e0: 0359 a13b d593 063e 52c2 61ba d422 35bc
000002f0: fcab fe3c 2fc5 cd3d 393d afbd b5e6 c3bc
00000300: 57a3 9d3c 844e e3bd 7797 fabc cf19 223d
00000310: 2830 f73c b603 0abe bf94 81ba b512 81bd
00000320: 761a 99bc c96a 283e 6f1d 5bbd c992 dd3c
00000330: 73e2 99ba 6876 b03d c91e bc3d 1709 983d
00000340: d034 9bbe ce54 9dbd 32cd 103c 188e fbbd
00000350: 04d2 b0be ec90 363d f717 013d 64fb 2d3c
00000360: 5e0c 5f3d ac2c 7e3d f5df d33c 6449 a73d
00000370: 5a4c ef3c 65c7 3d3d fc8f 803d 584d 293d
00000380: 66a3 b43d 1976 113d 6fa3 a13d 7f51 6b3d
00000390: 2758 66bb bdba 883d 3992 67bb d17d 003c
000003a0: e630 d73c cb57 79be ea3d 1f3d 7a9e b53c
000003b0: 1b7b aebe c026 81bc 4998 f13d 9a40 93be
000003c0: 3448 7d3c 9fe6 823d 563c 1f3d 465e 723d
000003d0: a0eb 78be e708 0a3c 3f73 913c b085 8cbe
000003e0: 2ddf d3bd dbeb 913d e171 723c 6f41 5b3d
000003f0: d963 d53d 9251 eb3d a2c9 3d3d 1684 563a
-0.019403389 0.043309446 -0.28328985 0.06500734 0.043597072 0.044196445 0.05307737 0.05905551
-0.018509684 0.019922256 0.064681284 0.016941303 0.04403775 0.020076402 -0.20978697 -0.033068463
0.027068991 0.026061011 -0.19927995 0.035343662 -0.094330065 -0.18112667 0.021277992 0.0045338017
-0.003189215 0.056589823 0.061417934 0.02954664 -0.11054444 0.04854168 -0.0005262626 0.08521921
0.034949623 0.14905316 0.036592588 0.0011399351 0.021997811 0.036423434 0.060411498 0.009593681
0.005696877 -0.11650449 0.073329575 0.04807919 -0.05226306 0.006960825 0.040424947 0.03906876
0.0339661 0.016851332 0.057908203 -0.14367844 -0.018635117 0.02629277 0.046005163 0.014219573
0.024607709 -0.018826213 0.06529301 -0.017568657 0.028723074 0.027143752 -0.08071889 0.022942001
0.1100995 -0.12987779 0.023674523 -0.049261935 0.007709549 -0.15480067 0.058025226 -0.06747928
-0.0049219546 0.053398415 -0.054928575 -0.019625457 0.059818566 0.010408048 0.07448936 0.0661481
-0.24766967 0.02129802 0.010533724 -0.032524414 -0.01569919 -0.005281773 -0.020833498 0.032733385
0.051566906 0.0685489 0.11400375 -0.02456701 0.06621345 0.003466104 0.06086459 0.016223056
0.012290843 0.058218315 0.09059158 0.03224656 0.050379556 0.07942332 -0.018412111 0.022541588
0.008607226 -0.11912109 0.0031471944 0.024867378 -0.142098 0.023928741 0.083786465 -0.104768045
0.04154889 0.040953 0.034679137 0.059612803 -0.057643596 0.08373898 0.045690857 -0.24415115
-0.08253658 0.12352512 0.0577544 0.048498567 0.081626356 0.03390486 0.12031837 0.109846145
0.053785678 0.046742197 -0.3311323 0.0029702762 0.051091958 0.03130158 0.082772486 0.03780674
0.095625296 -0.06927826 0.033042733 0.016013807 0.016469348 0.037258513 -0.23488666 0.025282916
-0.012272793 -0.019879889 -0.226396 0.013497726 -0.3524779 -0.04620416 0.08032901 0.068990156
0.03220812 0.097340554 0.020148285 0.06361208 -0.32193872 0.02640499 -0.009085328 -0.0028637846
0.03446636 0.040735334 0.11304024 0.09940846 0.0019525203 0.11269524 0.017777408 0.0360862
0.004812159 -0.11336033 0.068682425 -0.009890646 -0.12895237 -0.0005562075 -0.01108132 0.018365422
0.049245257 0.05116246 -0.048385423 -0.30521646 -0.030768724 0.10068171 0.024421139 0.027692005
0.004923941 0.13142331 -0.0008612025 -0.011055667 0.031087868 0.100473754 -0.08556599 -0.02391372
0.019242926 -0.1109896 -0.030589802 0.039575394 0.03017433 -0.13477978 -0.0009886249 -0.06302396
-0.018689375 0.16446985 -0.053494867 0.027047532 -0.0011740461 0.08616334 0.09185559 0.07423609
-0.3031373 -0.07682191 0.008837985 -0.122829616 -0.3453523 0.044571802 0.031516995 0.010619018
0.054455154 0.06205432 0.025863627 0.08168295 0.029211212 0.046332736 0.06277463 0.041333526
0.08820228 0.035513017 0.078925006 0.057450768 -0.0035147758 0.066762425 -0.0035334958 0.007842497
0.026268434 -0.24349897 0.038877405 0.022170294 -0.34078297 -0.015765548 0.11796624 -0.28760225
0.015459109 0.06391644 0.0388759 0.059171937 -0.24308634 0.008424974 0.017755149 -0.27445745
-0.10345302 0.07125064 0.014797659 0.0535292 0.10419435 0.11490168 0.04633487 0.00081831345

combined.0.bias f4 [64]
00000000: 6005 0d39 3473 613c b614 493b 7b68 003c
00000010: 1a5b 69bc d659 8f3c 36a7 cf3e 12b6 02b8
00000020: 760d 633d beda a83a 9497 e73b 10d2 af38
00000030: 6d03 4d3c d3f3 6bbb 048f 893d ff4f c23e
00000040: b648 b53e 54f9 c13b 0920 1cbb 981b 193c
00000050: e476 c53c 3bca 22bd 8a68 bc3c 9c04 b33e
00000060: bc05 c23e 0def a1bc 7f79 f73b a32f 7e3c
00000070: d9fc 713d f620 c83c bfea b33c 5990 813c
00000080: edff fa3c 3561 6c3d f8d5 1b3d db54 1c3a
00000090: 6771 e93c fa39 2f3c 419b 8e3c b521 c53e
000000a0: 138f b93b d990 993c 5b21 813b 441c 4f3d
000000b0: c9a1 8a3c 7dd2 9e3e e250 883c 28c6 013d
000000c0: 19f9 ec3b cfaf e03b eb1f 053d fec6 c63c
000000d0: bad7 693c b6b3 c33e d367 c53b 6bdd 253c
000000e0: c648 633c bbe0 c3bb 558f 303c 9aeb 273c
000000f0: 7b26 2e3d 401b d43a 3ab2 a03c b8bc 953e
0.0001344881 0.013760377 0.003068251 0.00783741 -0.014242912 0.017498892 0.4055726 -3.116398e-05
0.05543276 0.0012882573 0.00706763 8.3837775e-05 0.012513024 -0.0036003485 0.06716731 0.37951657
0.35407037 0.005919615 -0.0023822805 0.009344958 0.024104543 -0.039743643 0.022999067 0.34964454
0.37895 -0.019767309 0.0075523253 0.015514287 0.059079025 0.02442978 0.021962522 0.0158159
0.030639613 0.05770989 0.038045853 0.0005963572 0.028496457 0.010694975 0.017408015 0.3850228
0.0056628077 0.018745827 0.003940744 0.050564066 0.016922848 0.31019965 0.01664013 0.031683117
0.007231843 0.0068568955 0.032501142 0.024264809 0.014272625 0.38223046 0.0060243397 0.010123591
0.013872331 -0.0059777177 0.0107763605 0.010249043 0.042517167 0.0016182438 0.019616235 0.29245543

combined.3.weight f4 [64, 64]
00000000: 8bbc c63b c300 993c 4f2f 133d 5f50 173c
00000010: 1699 56bc 585e e73c f85b acbe 22ec a23c
00000020: 2f9e 323d 794b 76bb 0bd9 863c 3bd2 5939
00000030: f300 56bc 095a 023d 70bc 633c 6957 5cbe
00000040: 09e2 80bf 4932 cf3c f642 f63c 3715 e8ba
00000050: e382 c4bc fb34 1a3d 7ab2 95bc 9966 81bf
00000060: 7a91 afbe d5a0 d93c c94c 8e3c 9f73 443b
00000070: d09a 563c 27f9 4e3c d247 e73b f3a2 d03b
00000080: 559a 393d a12b 5cba 1d3f 823d fd0f 7a3c
00000090: ec48 bd3c 43f3 16bb d831 683c bbc0 f9be
000000a0: c0e2 dd3c ad43 003d 8112 193c 7310 3f3c
000000b0: 2e44 353c c173 4fbf 0d29 353d 717b 533c
000000c0: a9ae 89bc 5d6d 22bb b084 023d 9be6 a73c
000000d0: 8153 84bc 2e23 e9be 79d3 813a 5e01 6a3c
000000e0: 0a9f 1c3d 2bc0 86bc 4fb8 3b3d e11a 2f3c
000000f0: 9d94 e03c 0031 06bc 9cad 373c 4d41 82bf
00000100: daa8 f8bc 25e2 98bd 836d 7abd 0078 c7bc
00000110: a81c d23c 9ad3 76bb 38de 373c dbbf 6bbd
00000120: 463b 88bc 25f4 3abd 96a2 d4bd bb08 61bc
00000130: 6932 37be bab0 73bd ecce eebd 00e9 393c
00000140: 283c 0db9 377a f9bc 7e02 20bc 5bbb e0bd
00000150: d618 6bbc a3d0 6b3d 9050 b83a 7daa 073d
00000160: 7748 793c b7c9 fe3d 2ec3 3abe 7036 b8bd
00000170: 8f2d 5dbd a806 f6bb 6e64 98bd 725e b8bd
00000180: 86d4 b3bc 5f80 3ebd 32d1 0bbe 6a0f 75bd
00000190: 8d97 6ebd 972e 4f3b 50a4 f0bd e84e f83a
000001a0: e8d4 9ebd a0d2 34bd 6839 b3bd 15bf a8bd
000001b0: 6c10 51bd e352 e13c 739e 04bc 8691 22bd
000001c0: bf1f 81bd fdc4 83bc a0b6 e0bd d9eb c8bd
000001d0: 307b 3a3d 88af a73b 43b8 c4bb f219 ccbd
000001e0: 700f 15bd 6675 4bbd b140 f2bb 4a7e c03b
000001f0: 1656 763b 0959 00be 7f36 e13b bc03 ac3c
00000200: 2c68 843c d1b0 a83c 3e89 3c3c 114d 133c
00000210: fcf4 363c 325b b53c 5f36 8cbd ec9b e93c
00000220: 3942 b73c eabe 093d fb5d 023c bcd6 a23c
00000230: 1114 9aba 1dbe 9b3c 9083 823c 9f73 c2bd
00000240: 7425 09bf 8a89 533c 4e50 4d3d 4cd0 983b
00000250: be38 63bc 96d0 173c aabe 123c 85ed 1abf
00000260: aa3b 06be 78a1 393d bddf 823b fc9f be3c
00000270: 524b ebbb 340d 803a 6046 2d3b f610 5dbc
00000280: 83f6 493d fcb9 543c 4090 733d 45cf 4e3d
00000290: 3b7b 443c f5fe b03c c718 573d 4b12 5fbe
000002a0: b77e 5a3d dc0a 883c df29 423d c708 0a3c
000002b0: 1cf5 f53c e3fe 31bf ed4e 423d 05a9 e13c
000002c0: 9fc6 443d b48a 3f3d 9d1e fbbc 606d 20bc
000002d0: 79de dfba 58fe 30be 61cd 97bc 6106 583c
000002e0: 48f7 963c 7dfa 813d ef21 9eba a842 e4bb
000002f0: 0cf4 d5ba d6a9 b8bc 1f6d e83c b16d 3bbf
00000300: 7930 2ebe cc5e 7ebe da9a 40be 6c64 febd
00000310: f3a5 c6bd 5e13 a8bd ad0e a13b d29a 4cbd
00000320: a564 10bd 41c9 2fbe c49c 9dbd 2a59 c0bd
00000330: 2448 73be 0e7d efbd 9784 4c3d 0c14 853b
00000340: 4ecd b8ba 4a28 eabd e440 7fbe 2db6 c8bd
00000350: 7ec2 21be 7e50 713d 0437 d4bd 9d65 913b
00000360: ba2c d3bc 8dc3 ce3c e54a aebe 2123 33be
00000370: 1052 cebd 10a9 113d bd9c c0bd 7b2a 553d
00000380: 45f0 cdbd b92f e8bd 895e 1bbd 4e3c 493c
00000390: 8878 a83c 5ef1 3bbe 1272 1c3d e71d b73c
000003a0: e085 4bbe 1ecc 5e3c ee2a 29be 3b3c 3fbc
000003b0: 8fd7 88be c40a 663c 9711 d83c 90cf 40be
000003c0: f07f ffbd 58f1 32bd 5e2f eabc 141a 35bd
000003d0: ac1d 28be 879c f1bb 7e69 3dbe f7e5 a4be
000003e0: f6c0 17bd cf04 cebd c506 ccbc 84b8 ffbd
000003f0: dba4 9fbb e415 acbe 941c cebd 5cef a23b
0.0060649565 0.018677121 0.03593379 0.009235471 -0.013098022 0.028243229 -0.33663917 0.019887988
0.043607887 -0.0037581606 0.016460916 0.0002077305 -0.01306175 0.031824145 0.0138999075 -0.2151772
-1.006898 0.025292533 0.030061226 -0.0017706518 -0.023988193 0.037648182 -0.01827358 -1.0109435
-0.34290677 0.026565949 0.017370598 0.0029976142 0.013098434 0.012632645 0.007058122 0.0063670813
0.045313198 -0.0008398835 0.06359694 0.015262601 0.02310606 -0.002303318 0.01417204 -0.48779854
0.027085662 0.03131454 0.009342791 0.011661637 0.011063619 -0.81036 0.044228602 0.012907849
-0.016806917 -0.0024784424 0.031864822 0.020495703 -0.016153099 -0.45534652 0.0009904943 0.0142825525
0.03823761 -0.016449055 0.045830067 0.010687561 0.027414614 -0.008190393 0.011210825 -1.0176178
-0.030353952 -0.07465009 -0.061139595 -0.024349213 0.02564843 -0.0037662745 0.011222415 -0.057556015
-0.016629826 -0.04564299 -0.10382573 -0.013734992 -0.17890324 -0.05949471 -0.11660561 0.011347055
-0.00013469218 -0.030453784 -0.009766219 -0.10973235 -0.014349183 0.05757202 0.0014062095 0.033121575
0.015215031 0.12440818 -0.18238518 -0.08994758 -0.053998526 -0.0075081177 -0.074410304 -0.09002389
-0.021951925 -0.046509143 -0.1365402 -0.059829153 -0.05825 0.0031613463 -0.1175009 0.0018944414
-0.077554524 -0.04414618 -0.08751184 -0.08239571 -0.05104105 0.027505344 -0.008094418 -0.039689563
-0.06304883 -0.016085142 -0.10972333 -0.09810609 0.045527637 0.0051173605 -0.006003411 -0.09965886
-0.036391675 -0.049672507 -0.0073929657 0.00587443 0.0037587932 -0.12533964 0.0068729515 0.020997874
0.016162954 0.020592125 0.01150733 0.008990542 0.011166807 0.022138212 -0.06846308 0.028516732
0.022370445 0.033629335 0.007956977 0.019877784 -0.0011755248 0.019011552 0.015931875 -0.09494709
-0.53572774 0.01291121 0.050125413 0.004663503 -0.013868509 0.009266039 0.008956591 -0.60518676
-0.13108698 0.045320004 0.003993957 0.023269646 -0.0071806097 0.000976956 0.0026439652 -0.013492813
0.049307358 0.012983795 0.05946374 0.050490636 0.011992271 0.021605948 0.052513864 -0.21784322
0.0533435 0.01660674 0.047403213 0.008424944 0.030024104 -0.6952955 0.04743855 0.027546415
0.048040982 0.046763137 -0.030654246 -0.009791702 -0.0017079852 -0.17284524 -0.01853055 0.013185115
0.01842846 0.06346605 -0.0012064556 -0.006965954 -0.0016323342 -0.022541922 0.028372345 -0.7321425
-0.17010678 -0.2484085 -0.18809071 -0.12421498 -0.09699621 -0.08206819 0.0049150796 -0.049952336
-0.035252232 -0.17166616 -0.07695916 -0.09392007 -0.23757988 -0.11693774 0.049931135 0.0040612277
-0.0014099272 -0.11433466 -0.24927098 -0.09800372 -0.15796849 0.058914654 -0.10362056 0.004437162
-0.025778163 0.02523973 -0.34041515 -0.1749387 -0.10074246 0.03556162 -0.094048955 0.052042466
-0.100555934 -0.113372274 -0.037931953 0.012282444 0.020565286 -0.18353793 0.038194723 0.022353126
-0.19875288 0.01359847 -0.16520283 -0.011672075 -0.26726958 0.014040653 0.026375575 -0.18829179
-0.12475574 -0.043687195 -0.02858704 -0.044214323 -0.16417569 -0.007373396 -0.18497273 -0.322067
-0.037049256 -0.10059511 -0.024905572 -0.124863654 -0.004871947 -0.3361045 -0.100640446 0.0049723815

combined.3.bias f4 [64]
00000000: d0f8 f83e fee3 af3e 6eaa fa3e e574 bd3e
00000010: 7e49 933e 67a5 983e e271 ee3e 1dd5 003f
00000020: bc02 bf3e 2cd0 d83e 057f af3e 58e9 953e
00000030: 6895 033f e314 083f 263e f73e 7bcf bf3e
00000040: aece c53e 5204 e53e cc32 ba3e 60e4 f43e
00000050: 7964 ee3e e362 fb3e 2186 8a3e cb07 fc3e
00000060: 8671 eb3e 72dc c03e bb73 fb3e 1992 cf3e
00000070: 6780 e53e b894 8d3e 29d9 f13e 7e44 c23e
00000080: 9cb7 d43e ba31 f23e 9c35 b53e 0bf1 d93e
00000090: 9439 ad3e 4350 023f f308 ef3e ca77 ee3e
000000a0: 275d f43e 2a75 9f3e a759 e83e cfc1 9f3e
000000b0: 2d73 e53e 8e38 b33e 43c1 f33e 67bb 953e
000000c0: 852d e73e c725 023f 8b50 bb3e 906e 8b3e
000000d0: dd94 ee3e 6e8d 963e ce62 f03e d87a f33e
000000e0: 5735 e13e f9e5 bc3e 2a55 e43e 6965 b03e
000000f0: 07d7 033f 83c9 a23e de66 c23e cf59 003f
0.4862733 0.34353632 0.48958153 0.37003246 0.28767008 0.29813692 0.4657126 0.50325185
0.37306774 0.42346323 0.34276596 0.2927959 0.5139985 0.5315687 0.48289603 0.37462983
0.38634247 0.4472986 0.3636688 0.47830486 0.4656103 0.49098882 0.27055457 0.49224696
0.4598505 0.37668186 0.49111733 0.4054115 0.44824526 0.27652526 0.47235993 0.3794288
0.41546333 0.47303563 0.35392463 0.42566714 0.3383299 0.5090372 0.46686515 0.46575767
0.4772732 0.31144077 0.453809 0.31202552 0.44814435 0.35004085 0.47608384 0.2924454
0.45151916 0.50838894 0.36584887 0.2723279 0.4659795 0.29404777 0.46950382 0.4755466
0.43986008 0.36894205 0.44596225 0.3445237 0.5149998 0.31794366 0.37969106 0.5013704

combined.6.weight f4 [1, 64]
00000000: 4a0c 933c d9c2 f1bd b8dc 803c cdfb 03be
00000010: 1e43 7cbe 261a 56be 08a3 3e3c bae6 8f3c
00000020: ba76 26be 321f 043c f579 17be 253f 1abe
00000030: d1ef 983c 19d9 a33c c8d9 5b3c a431 f4bd
00000040: 62dc 6b3c 26fb 573c 0b88 01be 7e0c 743c
00000050: 928f 303c 267b ae3c 4ca0 c1be cec5 1a3c
00000060: 26c0 803c ec07 efbd acb4 493c b7f2 d1bd
00000070: 109a 2e3d 5adb aabe f70e 0a3d bbbf e5bd
00000080: 1fd2 0e3d b7d4 993c 7e14 0ebe f435 443c
00000090: 1d6e e6bd 50a2 683c 1e20 873c 148d 1a3d
000000a0: b709 0f3d a282 44be 5b06 643c b867 69be
000000b0: 7a6f f63b 1d36 02be 5e3e 2c3c fd84 21be
000000c0: 744c ff3c 462a 4d3c b390 e2bd 90ba 8cbe
000000d0: 469a 983c ab43 76be f777 4f3c 59ec 723c
000000e0: 1c3f 4e3c 9682 21be c085 373c 8d6f 17be
000000f0: dd2d c93c 81b6 4dbe 2d9c 3e3c 37d0 813c
0.017950196 -0.11804742 0.015730247 -0.12889023 -0.24634978 -0.20908412 0.011635549 0.017566074
-0.16256228 0.008064078 -0.14792617 -0.1506315 0.01866904 0.020000981 0.013418622 -0.11923531
0.014395805 0.013182437 -0.12649553 0.0148955565 0.010776417 0.021298956 -0.3781761 0.009446574
0.015716624 -0.11671433 0.012311142 -0.10251372 0.042627394 -0.33370477 0.033705678 -0.1121821
0.034868356 0.018778188 -0.13875005 0.011975754 -0.11251471 0.014198855 0.016494807 0.0377322
0.034921374 -0.19190457 0.013917531 -0.22793472 0.0075206133 -0.12715955 0.010512916 -0.15773387
0.031164385 0.012522286 -0.110627554 -0.27486086 0.01862825 -0.24049251 0.012662879 0.0148268575
0.012588289 -0.15772471 0.011201322 -0.14788647 0.024558002 -0.20089151 0.011633915 0.015846355
