data/models/nov12_24_undersample/fold3_epoch_models/epoch_2_model.pt (torch, 775567 bytes, 9 tensors)

layers1d.0.weight f4 [128, 1280]
0	0x3c24b5ed	0.01005314
1	0x3cc93b18	0.02456431
2	0x3b97cfce	0.0046329265
3	0xbc26b443	-0.010174814
4	0xbce0e6ee	-0.027453866
5	0xb9dbf54d	-0.00041953698
6	0x3cab75e9	0.020930247
7	0x3d4f2a29	0.050577316
8	0xbc9513c0	-0.018197894
9	0x3cab125f	0.020882783
10	0x3c7c7b5a	0.015410269
11	0x3d4cb1ac	0.04997413
12	0x3a92e5df	0.0011207423
13	0xbd20b179	-0.03923175
14	0xbd13a4ec	-0.036045954
15	0x3b3f9e0c	0.002923849
16	0x3d764bb9	0.06013081
17	0xbcca1528	-0.024668291
18	0xbbe5db70	-0.0070146844
19	0x3c0e1a89	0.008673319
20	0x3d4babd1	0.049724404
21	0xbb790feb	-0.0038003873
22	0xbc87b1c2	-0.016564254
23	0xbcb993e7	-0.022653533
24	0x3d185456	0.037189804
25	0x3bf89104	0.0075856466
26	0xbc72c0ec	-0.014816504
27	0xbb53a109	-0.003229203
28	0x3c414769	0.011796811
29	0x3d004cbb	0.031323176
30	0x3ce2f07d	0.027702564
31	0x3c7ed4f3	0.015553701
32	0x3bd5e2a5	0.0065272623
33	0xbd446932	-0.047951885
34	0x3ccc046e	0.024904456
35	0x3d8530bb	0.06503435
36	0x3d97330e	0.07382785
37	0xbd3ade11	-0.045621935
38	0x3ca0efe7	0.019645644
39	0x3cbad3f1	0.02280614
40	0xbd044162	-0.032288916
41	0x3d70cd24	0.058789387
42	0xbb48159a	-0.0030530454
43	0xbb223951	-0.0024753402
44	0xbcdb5ffa	-0.026779164
45	0xbcb76e3d	-0.022391433
46	0xbb9e46da	-0.0048302235
47	0x3d3d00eb	0.046143454
48	0x3ca27de4	0.01983542
49	0xbcdb4c82	-0.02676988
50	0x3d06a69d	0.03287374
51	0xbc851766	-0.016246509
52	0x3cd905bd	0.026491994
53	0x3d208604	0.039190307
54	0x3d4d15dc	0.050069675
55	0x3c01081b	0.007875468
56	0x3cb24f9f	0.021766482
57	0x3d8b04cb	0.067880236
58	0xbb618aa1	-0.0034414905
59	0x3c1c9351	0.009556607
60	0x3d2b5d79	0.04183719
61	0xbcb6a884	-0.022297151
62	0xbd37b462	-0.04484976
63	0xbbdf6e89	-0.0068185967
64	0x3c3404dc	0.010987487
65	0x3b79a94a	0.003809529
66	0x3c38b459	0.011273467
67	0xbd3fbf02	-0.04681302
68	0x3d266c9d	0.040630925
69	0xbc961adc	-0.018323354
70	0xbd3dfa38	-0.046381205
71	0x3c2db782	0.010602834
72	0x3b964fe8	0.0045871623
73	0x3c5e10c5	0.013553803
74	0xbc54e64f	-0.012994363
75	0x3c03a49d	0.008034852
76	0xbc850e2b	-0.016242107
77	0xbc2fa346	-0.01072008
78	0x3ca6dd2c	0.020369135
79	0xbc39303b	-0.011303003
80	0x3bd58fff	0.00651741
81	0xbca268c6	-0.01982535
82	0x3c696975	0.014246334
83	0x3bde4b88	0.0067839064
84	0xbce0e7e2	-0.02745432
85	0x3cf712ac	0.03016027
86	0x3baf8afe	0.0053571453
87	0xbccc62da	-0.02494948
88	0xbc866d3d	-0.01640951
89	0xbd4ba0b6	-0.049713813
90	0xbc3324b8	-0.010934047
91	0xbc5e0f2b	-0.013553421
92	0xbc1a2646	-0.009408539
93	0xbc7fe292	-0.015617983
94	0xbcd2ce20	-0.025733054
95	0x3cadbe15	0.021208802
96	0x3c7d386e	0.015455348
97	0x3d861406	0.06546788
98	0xbafa6610	-0.0019103903
99	0xbaba2211	-0.0014200826
100	0xbcb5741e	-0.022150096
101	0xbb3c9e61	-0.0028780925
102	0x3c041624	0.008061919
103	0x3cf12531	0.02943668
104	0x3bfa391c	0.0076362025
105	0x3d119711	0.03554446
106	0xbc85ea49	-0.016347067
107	0x3d36452e	0.04449957
108	0x3c2d5c60	0.010581106
109	0xbbfa8cbd	-0.007646172
110	0x3b371ea4	0.0027941847
111	0x3d3c8be8	0.046031862
112	0xbb1f7413	-0.002433066
113	0x3c7e6513	0.015527028
114	0xbc28e628	-0.01030878
115	0xbc1129e8	-0.008860089
116	0x3d19dbb8	0.037563056
117	0xbcaea22e	-0.021317568
118	0xbd2bab25	-0.041911263
119	0xbc2f2741	-0.010690511
120	0xbbd657fe	-0.006541251
121	0x3b6f9064	0.003655457
122	0xbba336ce	-0.0049808985
123	0xbcc92a5b	-0.02455633
124	0xbc1429b0	-0.009043142
125	0x3b7f5b16	0.0038964204
126	0x3d5d40f5	0.054017026
127	0x3cbf4923	0.023350304
128	0xbd1d7dee	-0.038450174
129	0xbc97c278	-0.018525347
130	0xbd26b50f	-0.040700015
131	0xbba1abdd	-0.004933818
132	0x3a69c59c	0.0008917691
133	0x3bddd122	0.0067693153
134	0x3c8ff2fa	0.017571915
135	0x3c4dd5f7	0.01256322
136	0xba15a685	-0.0005708712
137	0x3c84ce44	0.016211636
138	0x3c0c66c9	0.008569428
139	0x3cb3fe2f	0.02197179
140	0x3cf7f3b6	0.030267578
141	0x3c7b1cc2	0.015326681
142	0x3d774ab8	0.06037399
143	0x3d427ff5	0.04748531
144	0xbc9871b5	-0.018608907
145	0x3cb1d08d	0.02170589
146	0xbcf32c19	-0.029684113
147	0x3bba265e	0.0056808433
148	0xbcbc48bf	-0.022983907
149	0xbd6ac16d	-0.05731337
150	0x3c72fee2	0.014831277
151	0xbb7d9ae1	-0.0038697051
152	0x3bc6aa18	0.006062757
153	0x3c5a1b88	0.013312228
154	0xbd0a3b5f	-0.033748027
155	0xbc35aec0	-0.011089027
156	0x3c924de8	0.017859414
157	0x3c08f2c7	0.008358664
158	0xbc82ab96	-0.01595096
159	0x3c2becf3	0.010493505
160	0x3cc30c22	0.023809496
161	0xbcdecb34	-0.027196504
162	0xbc953696	-0.018214505
163	0x3d02015c	0.031739578
164	0x3d0bc8e3	0.034127127
165	0x3caebeb0	0.021331161
166	0xbc46a53f	-0.012124359
167	0x3cdf4d42	0.02725852
168	0x3ce7f5d4	0.028315462
169	0xbc958960	-0.018253982
170	0xbd22be19	-0.039732073
171	0xbcd367d8	-0.025806352
172	0x3cae0865	0.021244237
173	0xbc6cc0cc	-0.014450263
174	0xbb3010b8	-0.0026865434
175	0x3c0eef94	0.008724112
176	0x3ca642ba	0.02029549
177	0xbd2adc18	-0.041713804
178	0xbd109128	-0.03529468
179	0x3ca8b1fb	0.02059268
180	0xb8d51d21	-0.00010162057
181	0xbce16fff	-0.027519224
182	0xbd4e34fa	-0.05034349
183	0xbd2296ab	-0.03969447
184	0xbd84f0fc	-0.064912766
185	0xbc80763e	-0.015681382
186	0x3caf6d54	0.021414436
187	0xbd37c01b	-0.04486094
188	0xbd042100	-0.032258034
189	0xbcde0031	-0.0270997
190	0xbb95b0c5	-0.0045681917
191	0x3c1d76cd	0.009610844
192	0xbc0b4836	-0.008501103
193	0xbb97c176	-0.0046312166
194	0xbc2460f0	-0.010032877
195	0x3c7e867c	0.015534993
196	0xbc2b88ae	-0.010469599
197	0xbca32f15	-0.019919911
198	0x3d7f4beb	0.06232826
199	0x3cc3b2e6	0.023889016
200	0xbcbf0f14	-0.02332262
201	0xb96d20be	-0.00022614279
202	0xbd14536a	-0.036212362
203	0x3d2b3836	0.041801654
204	0xbc824c5d	-0.015905553
205	0x3d05dfce	0.03268414
206	0x3cda6924	0.026661463
207	0xbd5dbb06	-0.054133438
208	0xbc6d04cb	-0.014466475
209	0xbafe95ae	-0.001942327
210	0xbbb05621	-0.005381361
211	0x3b5487d9	0.0032429604
212	0xbd46b6de	-0.04851424
213	0xbb0bdc60	-0.002134107
214	0x3acf48bd	0.0015814524
215	0x3cfb62e1	0.030686798
216	0x3d33974d	0.043845464
217	0x3ce8e444	0.028429158
218	0xbd0f166c	-0.034933493
219	0xbcbebb9a	-0.023282815
220	0xbd3e9036	-0.04652425
221	0x3c8761b3	0.016526079
222	0x3c9fde1c	0.01951509
223	0xbcf011f9	-0.029305445
224	0x3c94f208	0.018181816
225	0xbc9d3ad1	-0.019193085
226	0x3c0f6b24	0.008753572
227	0xbd47d663	-0.04878844
228	0x3c25a195	0.010109325
229	0xbd851d06	-0.064996764
230	0x3c7da1f0	0.015480503
231	0xbd1d4fa3	-0.038406026
232	0xbc3530ae	-0.011058969
233	0x3c508901	0.012727977
234	0x3d57db72	0.052699514
235	0xbba56104	-0.0050469656
236	0xbc0d695b	-0.008631076
237	0xbd2985c7	-0.041387346
238	0x3c872b1c	0.016500048
239	0x3cf06a10	0.02934745
240	0x3d56c84c	0.05243711
241	0x3c0c992c	0.008581441
242	0x3d282d01	0.041058544
243	0x3d40e53d	0.04709362
244	0x3d3d40fa	0.046204545
245	0xbce6551d	-0.028116757
246	0xbd70aa99	-0.058756445
247	0xbd04bb32	-0.032405086
248	0xbd4d96ba	-0.050192572
249	0xbcd13caa	-0.025541622
250	0x3d1ddce6	0.038540743
251	0x3c575cbe	0.01314467
252	0xbc3a42e2	-0.011368485
253	0xbd1c6c7f	-0.038189407
254	0xbc04c180	-0.008102775
255	0x3cc95dcf	0.024580864

layers1d.0.bias f4 [128]
0	0xbcb87be0	-0.022520006
1	0x3c168faa	0.009189526
2	0xbd15f6e8	-0.03661242
3	0xbca3f879	-0.020015942
4	0xbb20b9a3	-0.002452471
5	0xbd06eda3	-0.03294147
6	0x385ad3f5	5.217265e-05
7	0xbd17b01d	-0.03703319
8	0xbce10661	-0.027468862
9	0x3b36d950	0.0027900524
10	0x3bbad86a	0.005702068
11	0xbd164f44	-0.036696687
12	0xbc96a6de	-0.018390115
13	0x3b8fd785	0.0043897056
14	0x3c42f306	0.011898762
15	0xbc0444e8	-0.008073069
16	0xbd131363	-0.03590716
17	0xbd01b488	-0.03166631
18	0x3c27e16b	0.010246615
19	0x3bb0bc00	0.005393505
20	0x3ba4cae4	0.0050290693
21	0xbd158357	-0.03650221
22	0x3b0bdba0	0.0021340623
23	0xbce79697	-0.028270049
24	0xbd106389	-0.035251174
25	0x3c733efc	0.01484656
26	0xbcf6d3ae	-0.030130234
27	0xbcc02ff9	-0.023460375
28	0xbcbe3b49	-0.023221629
29	0xbd1ecbf2	-0.038768716
30	0xbb8626ea	-0.0040939944
31	0xbce84ac8	-0.028355971
32	0xbc881e37	-0.01661597
33	0x3b5ff320	0.0034172013
34	0xbd13bbd2	-0.03606779
35	0xbd39680a	-0.045265235
36	0xbca4f36b	-0.020135602
37	0xbcf08a2f	-0.029362766
38	0xbcbb19a6	-0.022839379
39	0xbd52011a	-0.05127058
40	0xbc258283	-0.010101917
41	0xbc649070	-0.013950452
42	0xbc96cf2c	-0.018409334
43	0xbb10d354	-0.0022098618
44	0xbd2c1683	-0.042013656
45	0xbca0df5f	-0.019637762
46	0x3c35af85	0.01108921
47	0xbc2254b4	-0.00990789
48	0x3c2bebfc	0.010493275
49	0xbce49316	-0.027902167
50	0xbcf06cbc	-0.029348724
51	0xbc3f4fa9	-0.011676707
52	0xbd2e3496	-0.04253062
53	0xb9725c76	-0.00023113363
54	0xbcf6eaa2	-0.030141179
55	0xbd15bb78	-0.036555737
56	0xbca2ef45	-0.019889483
57	0xbc6a230f	-0.014290585
58	0x3c3a9fc2	0.011390628
59	0x3ca0244a	0.019548554
60	0xba16a01d	-0.00057459046
61	0x3c3f93aa	0.011692921
62	0xbce2d366	-0.027688693
63	0xbcde1c5d	-0.027113134
64	0xbcdf0e0c	-0.027228378
65	0x3c5217fd	0.012823102
66	0xbcda8009	-0.02667238
67	0xbc880139	-0.016602146
68	0xbcb145ed	-0.021639789
69	0xbbe6ee6e	-0.007047466
70	0xbc9a19e5	-0.018811176
71	0xbc959f8a	-0.01826455
72	0x3c81c771	0.015842171
73	0xbc9b1227	-0.018929554
74	0xbcb86491	-0.022508891
75	0xbd2e9eaa	-0.042631783
76	0xbbbe5384	-0.0058082957
77	0xbd135306	-0.03596785
78	0xbc9171c8	-0.01775445
79	0x3c74757e	0.01492059
80	0xbcfe89d6	-0.031071585
81	0x3bbb5676	0.005717094
82	0xbb180070	-0.002319362
83	0xbcb7a8c4	-0.02241934
84	0xbced521d	-0.028969819
85	0xbd533d7e	-0.051572315
86	0x3baa1af2	0.0051912004
87	0x3c8d9e63	0.017287439
88	0xbd12bab0	-0.03582257
89	0xbc8e3d36	-0.017363172
90	0xbd00f236	-0.03148099
91	0xbd102163	-0.03518809
92	0xbbf8d599	-0.007593822
93	0x3c01a695	0.007913251
94	0xbd18a6ba	-0.037268378
95	0xbcfcae41	-0.03084481
96	0xbd09d6df	-0.033652183
97	0xbcd7de34	-0.026351072
98	0xbd133e29	-0.035947952
99	0xbcb79122	-0.022408072
100	0xbc94ab3f	-0.018148063
101	0xbd2414f4	-0.040059045
102	0x3b942302	0.004520775
103	0xbd37e624	-0.044897214
104	0x3b595ee6	0.0033168136
105	0xbcc16ec7	-0.023612393
106	0xbce7c873	-0.028293824
107	0xbcdb8746	-0.026797902
108	0xbc7eac61	-0.015544028
109	0xbccf58dd	-0.025310928
110	0xbd263b98	-0.040584177
111	0xbc83885f	-0.016056238
112	0xbbd9127b	-0.0066245175
113	0xbd0d4014	-0.034484938
114	0xbd000f6f	-0.03126472
115	0xbcb59962	-0.022167865
116	0xbc4a5b77	-0.0123509085
117	0xbcb720e3	-0.022354549
118	0xbcca1436	-0.02466784
119	0xbc0ca177	-0.008583418
120	0x3c3c1606	0.01147986
121	0x3bbd7012	0.005781182
122	0xbd0ccdaf	-0.034375843
123	0x3c0e069d	0.008668569
124	0xbd11f680	-0.03563547
125	0x3b3ee364	0.0029127235
126	0x3b1dfe26	0.0024107783
127	0xbd3cc560	-0.04608667

layers1d.3.weight f4 [128, 128]
0	0xbdc41588	-0.09574419
1	0xbd9ebc63	-0.07750776
2	0x3d18abc3	0.03727318
3	0x3dba362d	0.090923645
4	0xbd274e5c	-0.040846214
5	0x3d29026f	0.041262086
6	0x38412728	4.6051253e-05
7	0x3dacfac3	0.084462665
8	0xbd4244c1	-0.04742885
9	0xbe06c8a0	-0.1316247
10	0x3ce29eed	0.027663672
11	0x3cfc93de	0.030832227
12	0x3db3987b	0.08769318
13	0x3b19ea66	0.002348566
14	0xbda457f5	-0.08024589
15	0xbc89caf9	-0.016820418
16	0xbd6c4574	-0.057683423
17	0x3bfc9900	0.0077086687
18	0x3b1f316a	0.0024290928
19	0xbd9a8708	-0.075452864
20	0x3d022c90	0.03178078
21	0x3de803e5	0.11328868
22	0xbbd60409	-0.0065312427
23	0x3c4925fa	0.012277121
24	0xbd998900	-0.07496834
25	0xbc8f01ba	-0.017456878
26	0x3d8cd8b6	0.06877272
27	0x3cc4182e	0.023937311
28	0xbd9f96ed	-0.07792459
29	0x3d004b0a	0.031321563
30	0x3de83f7f	0.11340236
31	0x3c6deafb	0.014521356
32	0xbd48b7a9	-0.049003277
33	0x3cd17ff8	0.025573716
34	0x3e038a90	0.12845826
35	0xba74771c	-0.000932561
36	0x3c0d1525	0.008610998
37	0xbdc4e18a	-0.09613331
38	0xbdf5dccc	-0.12005004
39	0xbd79b425	-0.060962815
40	0xbd85faf9	-0.0654201
41	0x3c319f26	0.010841167
42	0x3c26dcfe	0.010184525
43	0xbd1ac114	-0.03778179
44	0x3d8d856a	0.06910212
45	0x3c9601a2	0.018311325
46	0x3ca21779	0.019786583
47	0xbd02d801	-0.03194428
48	0x3db641f9	0.08899302
49	0xbc48caf7	-0.012255422
50	0x3c8ce106	0.017197143
51	0x3cbd412a	0.023102362
52	0xbd8dfd93	-0.06933131
53	0xbd21561c	-0.03938876
54	0xbcd7f692	-0.026362691
55	0xbd7ebb36	-0.062190257
56	0x3d078362	0.03308428
57	0xbd56be54	-0.052427605
58	0x3db2b57a	0.0872602
59	0xbd865f3d	-0.06561134
60	0x3a81e1d1	0.0009909217
61	0xbd5cce81	-0.053907875
62	0xbd2b8af9	-0.04188058
63	0xbd6a3146	-0.057175897
64	0xbc0b0d52	-0.0084870625
65	0x3c9f836b	0.019471845
66	0xbb902267	-0.0043986323
67	0xbcac230e	-0.02101281
68	0xbd1f56c7	-0.038901117
69	0x3d957582	0.072978035
70	0xbc8dca4f	-0.017308382
71	0xbd3ced5a	-0.046124794
72	0xbdb461cf	-0.08807718
73	0x3d9d61e5	0.076846875
74	0x3d5eb521	0.054371957
75	0xbdaf70f7	-0.08566468
76	0xbd672a0b	-0.05643658
77	0xbd9e2ba8	-0.077231705
78	0xbd1fe8af	-0.039040264
79	0x3b97910e	0.004625446
80	0xbc06a0e3	-0.008217069
81	0x3c3bb319	0.011456274
82	0x3d0a65ff	0.033788677
83	0xbda17e42	-0.0788541
84	0x3c0c7827	0.008573568
85	0x3c35ee2a	0.011104146
86	0x3dd648f6	0.10463135
87	0xbcaccf6d	-0.021095002
88	0xbd8b985c	-0.068161696
89	0xbd58bce1	-0.052914504
90	0x3e0081a3	0.12549452
91	0x3d06d0a2	0.03291381
92	0x3d0bf30b	0.03416733
93	0x3d494a88	0.049143344
94	0xbdbad492	-0.09122576
95	0xbdf5ac39	-0.119957395
96	0xbd28b0b7	-0.041184153
97	0x3cc2f054	0.023796238
98	0x3d774688	0.06037
99	0xbdd73f7c	-0.105101556
100	0xbb53c1c4	-0.0032311538
101	0xbd98af3c	-0.07455298
102	0x3d07f571	0.033193056
103	0x3bf2389f	0.0073920037
104	0x3a238e1e	0.00062391337
105	0x3d38adbc	0.04508756
106	0x3de92108	0.11383253
107	0x3dba6277	0.09100812
108	0x3e12d1ae	0.14337799
109	0x3c1bf7d3	0.009519535
110	0x3db099fc	0.0862312
111	0x3c106809	0.008813866
112	0x3de882c4	0.113530666
113	0xbd48ae22	-0.04899419
114	0xbdf86a90	-0.121297
115	0xbcb9c187	-0.022675289
116	0x3d286e96	0.041121088
117	0xbc7d359e	-0.015454678
118	0xbd2dea77	-0.04245993
119	0x3d544f99	0.051833723
120	0xbd411d13	-0.047146868
121	0xbe0876f6	-0.1332663
122	0x3da8009e	0.08203243
123	0xbcb0b4f8	-0.021570668
124	0xbd4fc2ce	-0.05072289
125	0x3c7e8a1f	0.01553586
126	0xbb080cb8	-0.0020759534
127	0x3cd089c1	0.025456311
128	0x3d334a0c	0.04377179
129	0xbdc18f41	-0.09451152
130	0x3d8d050a	0.06885727
131	0x3e06a3e3	0.13148455
132	0x3d0b165d	0.033956874
133	0xbdae4123	-0.085085176
134	0xbd3b6307	-0.045748737
135	0x3d8033bc	0.062598675
136	0x3cd5cb47	0.026097907
137	0xbd48ac9f	-0.04899275
138	0xbd2e7622	-0.04259313
139	0xbcb36646	-0.021899354
140	0x3b0e2b36	0.0021693236
141	0xbd36280e	-0.044471793
142	0x3d1a8b4c	0.0377305
143	0xbd96260c	-0.073314756
144	0xbba7eadf	-0.0051244344
145	0x3d7316b8	0.05934784
146	0xbd0ec1fd	-0.03485297
147	0xbdc8c08f	-0.09802353
148	0x3d401284	0.046892658
149	0x3da2df29	0.07952721
150	0x3dd63040	0.10458422
151	0xbd37db9f	-0.04488718
152	0x3d06b2c6	0.032885335
153	0xbdeefd73	-0.11669435
154	0xbcaa30c7	-0.020775212
155	0xbdb28295	-0.08716313
156	0xbd8fc469	-0.07019884
157	0x3d73318e	0.05937343
158	0x3caa6a8f	0.020802764
159	0xbd932e74	-0.071865946
160	0xbd9b31df	-0.075778715
161	0xbd100dd9	-0.035169456
162	0xbced9a69	-0.029004293
163	0x3bb23a93	0.0054391115
164	0xbc92829c	-0.017884545
165	0x3d5ef737	0.05443498
166	0xbd6cee30	-0.05784434
167	0xbd3bc4c2	-0.04584194
168	0x3c5109dd	0.012758699
169	0xbc5dc8d8	-0.013536654
170	0x3d59d52e	0.05318182
171	0xbd8eadc9	-0.06966741
172	0x3d6c29cb	0.057657044
173	0xbd7e542f	-0.062092002
174	0xbda584fb	-0.08082005
175	0xbde05330	-0.10953367
176	0x3d176bc6	0.036968015
177	0xbcf442d2	-0.029817019
178	0x3d811e15	0.06304566
179	0x3d6bc5d3	0.057561707
180	0x3d9173f6	0.07102196
181	0x3d85368d	0.06504545
182	0x3d8e1737	0.06938022
183	0xbd8dd024	-0.06924465
184	0x3d4b6f62	0.04966677
185	0x3b84f4ee	0.004057518
186	0x3bc7e869	0.0061007035
187	0xbd974eed	-0.07388101
188	0x3cfcd7b2	0.03086457
189	0x3cb4010e	0.02197316
190	0x3ca6f1b5	0.020378927
191	0x3dffc670	0.12489021
192	0xbcacbc79	-0.021085965
193	0xbdcb9243	-0.099400066
194	0x3c8f1d0d	0.017469907
195	0x3ce4d787	0.027934803
196	0xbdefe394	-0.11713329
197	0x3d1a4aff	0.037669178
198	0x3d13ec0f	0.036113795
199	0x3d6dca12	0.058054037
200	0xbc676c62	-0.014124962
201	0xb9d55236	-0.00040687778
202	0xbd8908bd	-0.0669112
203	0x3d49f9ba	0.049310423
204	0x3d504095	0.05084284
205	0xbbf49c61	-0.007464931
206	0xbcb2f5fb	-0.021845808
207	0x3d74312c	0.059617206
208	0xbd451557	-0.048116054
209	0xbd7afc3f	-0.061275717
210	0x3d849642	0.06473972
211	0xbd088842	-0.03333307
212	0xbd8e0808	-0.069351256
213	0x3b469bf3	0.0030305355
214	0x3ddd6e3c	0.10812041
215	0x3db59710	0.088667035
216	0xbcc30794	-0.023807324
217	0x3dda6b06	0.10664944
218	0x3d1b4126	0.037903927
219	0xbc719a26	-0.0147462245
220	0xbd892f9a	-0.066985324
221	0x3dbf46e7	0.093396954
222	0x3a5ee6a7	0.0008502998
223	0xbd29d716	-0.041464888
224	0xbdc2da5c	-0.09514305
225	0xbc0eac23	-0.008708033
226	0xbc8196ff	-0.01581907
227	0xbdc79bed	-0.09746537
228	0x3c067c8e	0.008208407
229	0x3b2caae5	0.0026346978
230	0xbd941c5e	-0.07231973
231	0x3d5112f8	0.05104348
232	0xbc8ee978	-0.017445311
233	0xbd247422	-0.040149815
234	0x3d8c710f	0.06857502
235	0x3db527e7	0.088455014
236	0xbb888f5e	-0.0041674813
237	0xbcd63675	-0.026149014
238	0x3d18ae08	0.037275344
239	0xbc72f1bc	-0.014828142
240	0xbc9f6a89	-0.01945998
241	0x3d12f1da	0.03587518
242	0xbdc7f5d3	-0.09763684
243	0xbda57c14	-0.08080307
244	0xbda9f4e3	-0.082986616
245	0xbd4bc287	-0.049746063
246	0x3d974f24	0.07388142
247	0xbdb84f77	-0.08999532
248	0x3ccfa490	0.025347024
249	0x3be8860d	0.007096058
250	0x3dea4786	0.11439423
251	0xbd8b0fad	-0.06790099
252	0xbe0ddc93	-0.13853674
253	0xbe0d502e	-0.13800117
254	0xbdc35c5e	-0.09539102
255	0xbdcf95b7	-0.10135978

layers1d.3.bias f4 [128]
0	0xbd24c92d	-0.04023092
1	0x3d31fa45	0.043451566
2	0xbc859f8d	-0.016311431
3	0x3b6b2ec4	0.0035886029
4	0xbbca38ca	-0.0061713206
5	0xbd79733d	-0.060900915
6	0x3ca910f8	0.020637974
7	0x3c5397c6	0.012914604
8	0x3d31a309	0.043368373
9	0x3c106e34	0.008815337
10	0x3d1505d0	0.036382496
11	0xbc1d8440	-0.00961405
12	0x3c57c750	0.013170078
13	0x3c33b7ee	0.010969145
14	0xbc984be7	-0.01859088
15	0xbd0b2955	-0.033974964
16	0x3be50007	0.0069885287
17	0xbc982a67	-0.018574907
18	0xbbbcd8ff	-0.0057631726
19	0xbcee1812	-0.029064212
20	0x3c9da721	0.019244732
21	0x3bb7188d	0.0055876435
22	0xbd825ec3	-0.063657306
23	0x3d188633	0.037237357
24	0x3c2cc30f	0.0105445525
25	0xbb51f302	-0.0032035713
26	0x3d239ff5	0.03994747
27	0xbbd5a9fb	-0.0065205074
28	0x3cca9485	0.024729023
29	0xbca04aae	-0.01956686
30	0x3d4d191a	0.050072767
31	0x3d07301e	0.033004873
32	0xbdc12069	-0.0943001
33	0x3932d182	0.0001705345
34	0xbd3ecf0c	-0.046584174
35	0x3cfd614e	0.030930188
36	0xbc6a3189	-0.014294037
37	0x3c4ba56d	0.012429577
38	0x3cd2300e	0.02565768
39	0x3cc8bc85	0.024503956
40	0x3d4836bc	0.048880324
41	0xbcef9dac	-0.029249988
42	0xbcf3a97b	-0.0297439
43	0xbcecd15b	-0.028908422
44	0x3cb004b9	0.021486627
45	0xba3a0394	-0.000709587
46	0xbd808ae3	-0.062764905
47	0xbc95e3af	-0.018297045
48	0xbd8f939e	-0.070105776
49	0x3d4f2abe	0.05057787
50	0xbcba85b8	-0.02276884
51	0xbbe9f048	-0.0071392395
52	0x3c35537f	0.01106727
53	0x3d43ce5f	0.047804233
54	0x3c0f8849	0.00876052
55	0x3d451ca1	0.048123006
56	0x36d29a84	6.2764757e-06
57	0xbceb207b	-0.028702011
58	0xbd4c449d	-0.049870122
59	0x3d3d3478	0.046192616
60	0xbd47d970	-0.04879135
61	0xbd45731a	-0.048205473
62	0xbd6ee33b	-0.058322173
63	0xbcfa2689	-0.030535953
64	0x3c44c75e	0.0120104235
65	0x3aa6c00b	0.0012722028
66	0x3d46baa0	0.048517823
67	0x3d432175	0.04763933
68	0xbbfa5449	-0.007639442
69	0x3c2ab000	0.010417938
70	0xbd0d51e1	-0.034501914
71	0xbd955c95	-0.07293049
72	0x3d5f71fc	0.054552063
73	0xbcdbc186	-0.026825678
74	0xbd4c7d96	-0.049924456
75	0xbcf8d316	-0.030374091
76	0xbd5d69d1	-0.054055993
77	0xbd847126	-0.06466894
78	0x3cde8328	0.02716215
79	0xbc2432c1	-0.010021866
80	0xbd335ff9	-0.0437927
81	0x38b58228	8.654996e-05
82	0x3c55bea0	0.013045937
83	0x3c244667	0.010026551
84	0x3d132bff	0.03593063
85	0x3bcd6eb7	0.0062693018
86	0x3c702c12	0.014658945
87	0xbd5d5c0f	-0.054042872
88	0xbba7a3a5	-0.0051159435
89	0xbd905293	-0.07047
90	0x3cdad4b6	0.026712757
91	0xbced4438	-0.028963193
92	0x3bc7b945	0.006095084
93	0xbd1b27fc	-0.03787993
94	0x3d0b64a8	0.03403154
95	0xbd026094	-0.031830385
96	0x3d1a56d2	0.037680455
97	0xbbe9a79a	-0.0071305754
98	0xbb973f3a	-0.0046156915
99	0x3d59d9bb	0.05318616
100	0xbd89487c	-0.067032784
101	0x3cdbca6c	0.02682992
102	0xbbf1cf93	-0.007379481
103	0xbd2f739a	-0.042834856
104	0x3c2f29de	0.010691134
105	0xbcb81263	-0.022469705
106	0x3d8c0d72	0.06838502
107	0x3d577fd4	0.05261214
108	0xbcf2a18a	-0.029618043
109	0x3cb5a0a8	0.022171333
110	0x3ce54db8	0.02799116
111	0x3cef0253	0.029175913
112	0x3d363561	0.0444845
113	0x3d6fca21	0.058542375
114	0x3d110c49	0.035412107
115	0xbd07e938	-0.0331814
116	0x3ca75fca	0.020431418
117	0x3c733efd	0.014846561
118	0xbd834737	-0.064100675
119	0x3ca2a6df	0.019854961
120	0xbc8d7cde	-0.017271455
121	0x3d02339e	0.031787507
122	0xbcde244e	-0.02711692
123	0x3b406704	0.0029358277
124	0x3d9582cc	0.07300338
125	0xbb83f142	-0.004026563
126	0xbb441a37	-0.0029922852
127	0x3d1482da	0.036257602

combined.0.weight f4 [64, 128]
0	0x3d8a80b3	0.06762829
1	0xbcaeb089	-0.021324413
2	0xbda52cbc	-0.08065173
3	0xbc57b5c8	-0.013165899
4	0x3c3a3260	0.011364549
5	0xbbc08b38	-0.005875971
6	0x3be77f04	0.007064702
7	0x3d5d2d50	0.05399829
8	0xbd5f79fe	-0.0545597
9	0x3d7ee1f4	0.062227204
10	0xbcd81daf	-0.026381342
11	0xbd8f645f	-0.07001566
12	0xbd33d06c	-0.04389994
13	0xbdbe4e7b	-0.09292313
14	0xbd39fe86	-0.045408748
15	0xbd83da37	-0.064381056
16	0x3d6aae7c	0.057295308
17	0xbd57ed77	-0.0527167
18	0xbd4af5b4	-0.049550727
19	0xbc28eed1	-0.0103108445
20	0xbd255c64	-0.040371314
21	0x3b255fae	0.0025234031
22	0x3cb9f3ef	0.022699324
23	0x3db0d9b6	0.08635275
24	0xbd94756e	-0.072489604
25	0x3df5d990	0.120043874
26	0x3d25d462	0.040485747
27	0xbbf648db	-0.0075160093
28	0x3cc875cd	0.024470234
29	0xbd3aafe4	-0.0455779
30	0x3c11b00f	0.008892073
31	0x3c8c0023	0.017089909
32	0x3d23d548	0.039998323
33	0x3d8bd890	0.068284154
34	0xbcd04f37	-0.025428398
35	0xbd55a9e6	-0.05216398
36	0x3dc5c3e9	0.096565075
37	0x3d4b35ca	0.049611844
38	0xbd755df9	-0.059904072
39	0xbdc61558	-0.0967204
40	0x3c514945	0.0127738165
41	0xbd7f68aa	-0.062355675
42	0xbd03a2d8	-0.03213772
43	0x3e027115	0.1273845
44	0x3bcf6b2a	0.0063299136
45	0x3d55dce6	0.05221262
46	0x3d487b9a	0.048946
47	0xbdc66a07	-0.09688192
48	0x3b3c8fcd	0.0028772235
49	0xbd3622c1	-0.044466738
50	0x3cb5452c	0.02212771
51	0x3d0e73e2	0.034778483
52	0xbd5d629f	-0.05404913
53	0x3ce4e458	0.027940914
54	0x3d140d5c	0.036145553
55	0xbd0977bd	-0.033561457
56	0xbdeae6a9	-0.11469776
57	0xbd0dd2f1	-0.034624998
58	0x3dad059a	0.08448334
59	0xbd3bef62	-0.04588259
60	0xbdc3c14c	-0.09558353
61	0x3d819d8d	0.063288786
62	0x3d23bdd7	0.039975967
63	0x3da0b426	0.078468606
64	0xbda19754	-0.07890192
65	0x3d419aef	0.047266897
66	0xbd6a0132	-0.057130046
67	0xbd748d42	-0.059705026
68	0xbda48850	-0.08033812
69	0xbb445245	-0.0029956263
70	0xbafb7a31	-0.0019186196
71	0xbcb37d74	-0.021910407
72	0xbc0a652a	-0.008446971
73	0xbc8cbb9b	-0.017179301
74	0xbb932550	-0.004490532
75	0x3dd0d5ef	0.101970546
76	0x3de470eb	0.1115435
77	0x3dc15e44	0.09441808
78	0xbd0c0dbf	-0.034192797
79	0xbd960663	-0.07325437
80	0xbc4d9fe2	-0.012550326
81	0x3db45ab9	0.088063665
82	0x3d82a189	0.06378467
83	0xbcecb0be	-0.028892871
84	0xbde6412e	-0.11242901
85	0xbd045280	-0.03230524
86	0xba7ebbf2	-0.0009717337
87	0xbcbb218b	-0.022843143
88	0x3b34bb1e	0.002757735
89	0x3d145fea	0.036224283
90	0x3d216fdf	0.03941333
91	0xbd39a8f2	-0.045327134
92	0xbd2519e4	-0.040307894
93	0xbd97fca1	-0.07421232
94	0x3bb5c197	0.0055467593
95	0xbcab9ebf	-0.02094972
96	0xbd20b1ad	-0.039231945
97	0x3da8cabb	0.08241793
98	0xbcec4cbd	-0.028845185
99	0xbd83e025	-0.064392366
100	0xbbca438f	-0.0061726044
101	0x3d8cc97e	0.06874369
102	0x3c4e14ee	0.012578232
103	0x3c2e0bb9	0.010622912
104	0x3d930253	0.07178178
105	0x3d526918	0.051369756
106	0x3d670a43	0.05640627
107	0x3d0c276f	0.034217294
108	0xbdeab483	-0.11460211
109	0xbda81fbe	-0.08209179
110	0xba48578e	-0.0007642441
111	0x3cc20d66	0.02368803
112	0xbd38b008	-0.04508975
113	0xbd1feb0f	-0.03904253
114	0xbd7ad92a	-0.06124226
115	0x3ddd6165	0.10809592
116	0xbd0dd3fd	-0.034625996
117	0x3cc1dbc9	0.023664372
118	0x3d3e54bb	0.046467524
119	0x3d3092c9	0.043108735
120	0xbcfc74ca	-0.030817408
121	0xbe050f69	-0.1299416
122	0xbcd0fb5b	-0.02551048
123	0xbcda4e70	-0.02664873
124	0xbca5c9ba	-0.020237792
125	0x3cb13a30	0.021634191
126	0xbabdaff0	-0.0014471989
127	0x3da0edad	0.07857833
128	0x3bba6c8e	0.0056892103
129	0xbd2f8878	-0.042854756
130	0x3d955ec1	0.072934635
131	0x3cc97bf7	0.024595244
132	0xbd20d696	-0.039267145
133	0xbd8d072a	-0.06886132
134	0xbe049b25	-0.12949808
135	0xbb101df4	-0.002199051
136	0x3d3fb198	0.046800226
137	0x3dafd280	0.085850716
138	0x3d850513	0.064951085
139	0xbcf4c4e8	-0.029879048
140	0x3c85281a	0.016254473
141	0x3c230f1d	0.009952334
142	0x3d30f0b0	0.043198287
143	0x3cef841a	0.029237796
144	0xbe037a02	-0.12839511
145	0x3dac4331	0.08411253
146	0xbd827179	-0.063692994
147	0x3d8b895b	0.06813308
148	0xbd207f5b	-0.039183956
149	0x3da336f8	0.07969469
150	0xbdc67665	-0.09690551
151	0xbdf6880a	-0.12037666
152	0x3d2318d8	0.039818615
153	0x3b9112f3	0.0044273078
154	0xbd384a93	-0.044992995
155	0x3d502ac5	0.05082204
156	0xbd0d1be3	-0.034450423
157	0xbd87c859	-0.0663001
158	0xbd976ae1	-0.073934324
159	0xbd3b8d35	-0.045788962
160	0xbcc2cf46	-0.023780476
161	0xbd7969e8	-0.060892016
162	0x3c364244	0.011124197
163	0x3d32b727	0.0436317
164	0xbc95a2cb	-0.018266102
165	0xbce82ffe	-0.028343197
166	0x3d531adf	0.0515393
167	0x3d878253	0.06616654
168	0x3c37cb45	0.011217897
169	0x3d9c3d96	0.07628934
170	0xbd49e08e	-0.049286418
171	0xbdbe2025	-0.09283475
172	0xbcfbedd3	-0.030753052
173	0xbd0ce71a	-0.034400083
174	0x3cdcd9d8	0.026959345
175	0x3d3e9d39	0.046536658
176	0xbc954d4e	-0.018225338
177	0x3d0ca4db	0.034336906
178	0xbd10a5c9	-0.035314355
179	0xbc83c03a	-0.016082872
180	0xbd9786cd	-0.07398758
181	0xbd807b16	-0.06273477
182	0xbd8a992a	-0.06767495
183	0xbd854b68	-0.06508523
184	0x3ca655be	0.020304557
185	0x3dc4e4be	0.096139416
186	0xbc0d8ce7	-0.008639551
187	0x3921203a	0.00015366162
188	0x3cebea73	0.028798318
189	0xbd58e2c8	-0.05295065
190	0x3d79fd83	0.061032783
191	0xbdb91c86	-0.090386435
192	0x3da9f03a	0.08297773
193	0x38a663f6	7.934116e-05
194	0x3db4327f	0.08798694
195	0xbd3b70be	-0.045761816
196	0xbd5b0f03	-0.053481113
197	0x3cff228c	0.031144403
198	0x3b8cdb54	0.004298607
199	0xbd3ae00a	-0.045623817
200	0x3d9dd8bd	0.07707355
201	0xbd8fe68e	-0.07026397
202	0x3d0f6a5b	0.035013538
203	0x3d4afff7	0.049560513
204	0x3d8affd8	0.067870796
205	0xbd4a497d	-0.04938649
206	0x3d29c3ca	0.041446485
207	0xbd3a50ea	-0.045487322
208	0x3d00e25e	0.03146588
209	0xbd9da697	-0.0769779
210	0xbd4991b5	-0.049211223
211	0xbc855fe5	-0.016281078
212	0xbd2ee841	-0.042701963
213	0xbdbc65a1	-0.09199072
214	0xbdb5ca11	-0.08876432
215	0x3dd8b25e	0.10580896
216	0xbbb37f76	-0.005477841
217	0xbc02223e	-0.007942734
218	0x3dc7ade9	0.097499676
219	0xbdb1938b	-0.0867072
220	0xbc94dd41	-0.018171908
221	0x3b3de770	0.0028977059
222	0x3db9ede3	0.090785764
223	0x3d2b052a	0.04175297
224	0x3c6c4116	0.014419815
225	0xbc57f12b	-0.0131800575
226	0xbb8f8697	-0.004380058
227	0xbd6f72ff	-0.05845928
228	0xbd5a2a84	-0.053263202
229	0xbcf334df	-0.029688297
230	0x3cd25759	0.025676416
231	0xbdba6773	-0.091017626
232	0xbd4d2782	-0.050086506
233	0x3d9f426f	0.07776343
234	0xbc98ddbc	-0.018660419
235	0x3c6768e7	0.014124132
236	0x3d0946bf	0.033514734
237	0x3d102db5	0.03519984
238	0xbaad6ff6	-0.001323222
239	0xbd7b75dd	-0.0613917
240	0xbd942be3	-0.07234933
241	0xbdb1c618	-0.086803615
242	0x3b748c97	0.0037315243
243	0x3cbe806e	0.0232546
244	0xbc041b3a	-0.008063132
245	0x3d9f4e34	0.07778588
246	0x3c9443e6	0.018098783
247	0xbd408567	-0.047002222
248	0x3d820925	0.063494004
249	0xbc5a2bc8	-0.013316102
250	0xbb7cba5d	-0.003856323
251	0x3ce9ec65	0.028555105
252	0x3d49f79f	0.049308416
253	0xbdc95718	-0.09831065
254	0x3dc734f6	0.09726898
255	0x3d5aa7b1	0.05338258

combined.0.bias f4 [64]
0	0xbc53c488	-0.012925275
1	0x3da085e0	0.07838035
2	0xbcff1eac	-0.031142555
3	0xbbc14cf2	-0.005899065
4	0x3d54d5be	0.051961653
5	0xbc237073	-0.00997554
6	0x3c0dffa0	0.008666903
7	0x3d3e73c2	0.046497114
8	0xbc93143a	-0.01795398
9	0xbd1c963e	-0.03822922
10	0xbb973b1c	-0.0046152007
11	0xbc4fc0f3	-0.01268028
12	0x3d2fa624	0.042883053
13	0xba0b2edc	-0.0005309412
14	0x3c06816e	0.008209569
15	0x3d96d686	0.07365136
16	0xbd3744f7	-0.044743504
17	0xbbb20107	-0.0054322514
18	0x3c2139f3	0.009840476
19	0xbcb5b179	-0.022179352
20	0xbc4a2d4d	-0.012339902
21	0xbd0c09b8	-0.034188956
22	0x3cedb62b	0.029017529
23	0xbd23d70c	-0.040000007
24	0x3d196c4b	0.03745679
25	0xbb10d5c1	-0.0022100064
26	0x3d80f400	0.06296539
27	0x3c99bb2a	0.018766005
28	0x3b839ba1	0.004016355
29	0x3d239a0f	0.039941844
30	0x3d4952bb	0.049151164
31	0x3cdf25ec	0.027239762
32	0xbc29f4bb	-0.01037329
33	0xbce08b16	-0.027410071
34	0x3a8ea7c1	0.0010883735
35	0xbbd8e428	-0.006618995
36	0x3d2c247c	0.04202698
37	0x3c5ec0ea	0.013595799
38	0x3d7fa837	0.06241628
39	0x3d3ac3bf	0.045596834
40	0xbd13bb28	-0.036067158
41	0x3d09bd99	0.03362808
42	0x3d505940	0.050866365
43	0x3c943f05	0.018096456
44	0x3d0cf785	0.03441574
45	0xbc797cd9	-0.01522752
46	0xbc836cf6	-0.016043168
47	0x3d85ffaf	0.065429084
48	0xbd5c8849	-0.05384091
49	0xbc3971c4	-0.011318628
50	0x3ce22242	0.027604226
51	0x3ba3a20e	0.0049936837
52	0x3bb74976	0.005593474
53	0x3ccb9ca0	0.024854958
54	0x3d029cb9	0.031887744
55	0x3d3a3787	0.04546311
56	0x3d0d2980	0.034463406
57	0xbc362aa1	-0.011118562
58	0xbcc38d51	-0.023871096
59	0xbbc3ba3b	-0.005973128
60	0x3d8e742f	0.06955754
61	0xbc82482a	-0.015903551
62	0x3cfda810	0.030963928
63	0x3cf1ebbf	0.029531358

combined.3.weight f4 [64, 64]
0	0x3d0c2495	0.034214575
1	0x3e289855	0.1646436
2	0xbd187de3	-0.03722943
3	0xbd595dad	-0.05306785
4	0x3dbc97f0	0.09208667
5	0xbd9c7b0f	-0.07640659
6	0x3dc75262	0.0973251
7	0x3cfdb08b	0.030967971
8	0xbd7fb9b0	-0.062432945
9	0xbda7e7c1	-0.081985004
10	0x3de8bfc9	0.11364705
11	0xbdafcdf2	-0.08584203
12	0x3c7faa4c	0.015604567
13	0x3d58cbb7	0.052928653
14	0xbde4bc01	-0.111686714
15	0x3d6b73f5	0.057483632
16	0x3ca0c055	0.019622961
17	0x3dc34036	0.09533732
18	0xbdc6e739	-0.09712071
19	0xbcc053fc	-0.023477547
20	0x3c28eb4d	0.010310006
21	0x3e12978f	0.14315628
22	0xbe187eb2	-0.1489208
23	0xbbd852d4	-0.0066016708
24	0x3c3ce1d8	0.011528455
25	0x3c655f47	0.013999767
26	0xbd810714	-0.06300178
27	0x3bece3a8	0.007229287
28	0xbd91d6d1	-0.07121051
29	0xbce12fbe	-0.027488586
30	0xbd41a834	-0.04727955
31	0xbdda5ef6	-0.106626436
32	0x3d79298b	0.060830634
33	0xbc18957f	-0.009312986
34	0xbd73bee4	-0.05950822
35	0x3da60b2e	0.08107601
36	0xbb0d3847	-0.0021548436
37	0xbc74ff0e	-0.014953388
38	0xbd861ae1	-0.065480955
39	0x3cf24613	0.02957443
40	0x3d88e88c	0.0668498
41	0xbe168655	-0.14699681
42	0xbd0ff43a	-0.035145022
43	0xbc1701d7	-0.009216747
44	0x3b24079d	0.0025028952
45	0x3d55fe3f	0.05224442
46	0xbd885251	-0.066563256
47	0x3d4f25c0	0.05057311
48	0xbdaad62e	-0.08341633
49	0xbd890fc8	-0.06692463
50	0xbe080399	-0.13282622
51	0xbd41bab7	-0.047297206
52	0x3dba9063	0.09109571
53	0x3d8ed509	0.06974227
54	0xbd4f93a3	-0.050677907
55	0xbdb1548b	-0.086587034
56	0x3dfe3d8c	0.12414083
57	0x3d769f75	0.060210664
58	0xbda393f6	-0.07987206
59	0xbdc292c5	-0.0950065
60	0xbe2108f9	-0.15726079
61	0xbd34c2f8	-0.04413125
62	0xbd7a82c5	-0.061159868
63	0xbdc9beb1	-0.098508246
64	0xbd8f6284	-0.07001212
65	0xbd82e623	-0.06391551
66	0x3d1e1041	0.03858972
67	0xbe1e173d	-0.15438552
68	0xbca1208e	-0.019668844
69	0xbe0df427	-0.13862668
70	0x3b598073	0.0033188134
71	0x3d656005	0.055999774
72	0xba041a4d	-0.00050393195
73	0x3d299a8b	0.04140715
74	0x3d2e3282	0.042528637
75	0xbe09b291	-0.13447024
76	0x3df74ef6	0.120756075
77	0x3d90b23c	0.070652455
78	0xbcc4d7c1	-0.02402866
79	0xbd8782da	-0.06616755
80	0xbe016124	-0.12634712
81	0x3e17e35c	0.14832824
82	0xbdc5efd8	-0.09664887
83	0x3b56c5f6	0.0032771803
84	0x3d00221d	0.031282533
85	0xbd7c7a4d	-0.061640073
86	0xbd3d7243	-0.046251547
87	0xbd2cedc9	-0.042218957
88	0x3d2dc2b8	0.042422026
89	0xbd571e31	-0.052519027
90	0xbe104e6c	-0.14092416
91	0xbd5a08a4	-0.053230897
92	0xbe2c99f9	-0.16855611
93	0xbd71e2a8	-0.059054047
94	0xbe47f11d	-0.19525571
95	0xbd037f9f	-0.03210413
96	0x3e041b76	0.129011
97	0xbd4956f4	-0.04915519
98	0xbd30a995	-0.043130476
99	0xbdc57825	-0.096420564
100	0xbe0830a0	-0.13299799
101	0xbe21a98e	-0.15787336
102	0xbce83aec	-0.028348409
103	0xbb4f2e69	-0.0031613356
104	0xbcce39f2	-0.025174115
105	0xbdca76e9	-0.098859616
106	0x3e0702ae	0.13184616
107	0x3e2003e0	0.15626478
108	0xbdc2922d	-0.09500537
109	0x3dab586a	0.08366473
110	0x3dcc81bf	0.099856846
111	0xbdae65dd	-0.08515523
112	0xbc14628b	-0.009056698
113	0xbd4cadcf	-0.049970444
114	0xbd2ca6e2	-0.04215134
115	0xbcff5b27	-0.031171395
116	0x3df4e586	0.119578406
117	0x3e0051ae	0.12531158
118	0xbbfa2f5d	-0.0076350407
119	0x3cff8b77	0.031194432
120	0xbdc7f836	-0.09764139
121	0xbe21d786	-0.15804872
122	0x3d1b3f23	0.03790201
123	0xbd332883	-0.043739807
124	0xbce9570d	-0.028483892
125	0xbcf346dc	-0.029696874
126	0xbe4045df	-0.18776654
127	0xbe0eb625	-0.1393667
128	0xbda80b85	-0.08205322
129	0xbc1484d6	-0.009064874
130	0xbdbe8eee	-0.093046054
131	0x3cb114ab	0.0216163
132	0x3d9fa098	0.07794303
133	0x3dd587c3	0.10426285
134	0xbe2dbb56	-0.16965994
135	0xbdd198ba	-0.102342084
136	0xbdef8119	-0.11694545
137	0xbda175fa	-0.0788383
138	0x3cc4d8f6	0.024029236
139	0x3d3e58d9	0.04647145
140	0xbdb8b4ba	-0.09018846
141	0x3d1d90a5	0.038468022
142	0xbbc95f9a	-0.00614543
143	0x3cc21769	0.023692803
144	0x39e53d2d	0.00043723863
145	0xbb0ac123	-0.0021172247
146	0xbd26d4b4	-0.040730193
147	0xbde260b8	-0.11053604
148	0xbc783ae3	-0.015150758
149	0xbc393028	-0.011302985
150	0xbd175b0a	-0.036952056
151	0x3b80ac3e	0.003926783
152	0xbdefdd90	-0.117121816
153	0x3d483149	0.048875127
154	0x3e0bbcf8	0.13646305
155	0x3e08f64f	0.1337521
156	0x3d5cb0f3	0.05387969
157	0xbc9a2895	-0.01881818
158	0x3d497d23	0.049191605
159	0x3c513839	0.012769752
160	0xbd800910	-0.062517285
161	0xbe27a012	-0.16369656
162	0xbd62590a	-0.055260696
163	0x3db9134a	0.09036882
164	0xbcfba6f2	-0.030719254
165	0x3d31ee17	0.04343995
166	0x3db1e7a0	0.08686757
167	0x3dbbdbf9	0.09172816
168	0xbc1484a0	-0.009064823
169	0x3d4eda57	0.050501194
170	0xbd316a30	-0.04331416
171	0xbdf827f1	-0.12116993
172	0xbd97c0b1	-0.074098
173	0xbdce1d1c	-0.10064146
174	0xbe246fb2	-0.16058233
175	0xbd1a151b	-0.037617784
176	0x3ca5a5df	0.020220695
177	0xbccd833c	-0.025086991
178	0xbcc198ea	-0.023632485
179	0xbe0f777e	-0.14010426
180	0xbe0f321c	-0.13983959
181	0x3c84afa5	0.016197035
182	0xbd63458f	-0.055486258
183	0xbd76442c	-0.060123608
184	0xbe0d63e1	-0.13807632
185	0x3d81a71b	0.06330701
186	0xbce32c13	-0.027730977
187	0x3d734de4	0.059400454
188	0xbdbb53ad	-0.09146819
189	0xbdaf6668	-0.08564454
190	0x3cc3e919	0.02391486
191	0x3dc8fdf6	0.09814064
192	0xbc8e8f5a	-0.01740234
193	0xbe15c33d	-0.14625259
194	0xbdead8f0	-0.11467159
195	0x3dbf1e41	0.09331942
196	0xbcecd23e	-0.028908845
197	0x3d3dc621	0.04633153
198	0xbd851596	-0.06498258
199	0xbcb62975	-0.022236565
200	0xbd7add36	-0.06124612
201	0x3cdde72f	0.027087776
202	0xbe197ec9	-0.14989771
203	0xbda94d92	-0.082667485
204	0xbdd6ca03	-0.104877494
205	0xbdaddba2	-0.08489157
206	0xbd14f45c	-0.03636585
207	0xbe3abbaa	-0.1823565
208	0x3de53511	0.11191762
209	0xbce55a7c	-0.027997248
210	0x3db31fd3	0.08746304
211	0xbe0aac08	-0.13542187
212	0x3bbe0b25	0.0057996684
213	0x3e03770d	0.12838383
214	0x3d6427ed	0.05570214
215	0x3d374a00	0.044748306
216	0xbe0abd75	-0.13548835
217	0xbda6f037	-0.08151286
218	0x3d895360	0.06705356
219	0xbd97da66	-0.07414703
220	0x3a23e89e	0.0006252619
221	0x3da63ddf	0.0811727
222	0x3d8acb40	0.06777048
223	0xbd88b7dd	-0.06675694
224	0xbbccbf0b	-0.00624836
225	0x3bbe9a47	0.005816731
226	0xbe415707	-0.18880855
227	0x3de6e0f9	0.11273379
228	0x3d40f611	0.047109667
229	0x3da3b3b9	0.07993264
230	0x3d6f71ef	0.058458265
231	0x3cf7395a	0.030178715
232	0x3c46e753	0.012140113
233	0xbdbee7b5	-0.09321538
234	0xbe225e4e	-0.15856287
235	0xbd9b8c45	-0.07595114
236	0x3b1e9ea8	0.0024203453
237	0xbd9f5ead	-0.0778173
238	0x3ce4fd27	0.027952744
239	0xbdeca0b8	-0.11554092
240	0xbde0d26c	-0.10977635
241	0x3d09111c	0.033463582
242	0x3d1e10b3	0.038590144
243	0xbde9a6cc	-0.11408767
244	0x3d90f797	0.07078474
245	0xbcfd00f7	-0.03088425
246	0xbd3d7f87	-0.046264198
247	0x3e0a4b50	0.13505292
248	0xbd775363	-0.06038226
249	0x3de1bf11	0.11022771
250	0xbd947a57	-0.07249897
251	0x3d7221c1	0.05911422
252	0x3dd20605	0.102550544
253	0xbdd63deb	-0.10461029
254	0xbd9a68b5	-0.075395025
255	0xbddd99c8	-0.10820347

combined.3.bias f4 [64]
0	0x3baa64c6	0.0052000014
1	0x3df07489	0.11740977
2	0x3dd3e19b	0.10345765
3	0x3d196975	0.037454087
4	0x3e0ded0e	0.1385996
5	0x3dc35c63	0.09539106
6	0xbcb4d138	-0.02207242
7	0x3cb36a37	0.021901233
8	0x3c56716b	0.013088564
9	0x3cfc5d03	0.03080607
10	0x3ce30ba3	0.02771551
11	0x3e03aca7	0.1285883
12	0xbc84b592	-0.01619986
13	0x3db50877	0.08839505
14	0x3c419c13	0.011816996
15	0x3d04b78b	0.032401603
16	0x3d4f9c44	0.050686136
17	0x3da3fcc1	0.08007193
18	0x3d5ca39f	0.05386698
19	0x3d7a13ca	0.06105403
20	0xbca89f47	-0.020583762
21	0x3d3fe123	0.046845566
22	0xbc47c503	-0.012192967
23	0x3e106791	0.14102007
24	0x3da5ac26	0.08089475
25	0x3d38fbc3	0.045161974
26	0x3d91fac3	0.07127907
27	0x3d9715d8	0.07377213
28	0x3c8a59ed	0.016888583
29	0x3d14c08f	0.03631645
30	0x3dfe8f9a	0.124297336
31	0x3d9d948c	0.07694349
32	0x3cd180aa	0.025574047
33	0x3d841f1d	0.06451247
34	0x3c981722	0.018565718
35	0x3cc2e9da	0.02379315
36	0x3d9da244	0.07696965
37	0x3cac2292	0.021012578
38	0x3c45f487	0.012082226
39	0x3ddbb70d	0.107282735
40	0x3db46f80	0.088103294
41	0x3dd2709f	0.10275387
42	0x3d90cd6e	0.070704326
43	0x3d9f5a47	0.07780891
44	0x3d75601a	0.059906103
45	0x3da6d26f	0.08145606
46	0x3d90bcf3	0.07067289
47	0x3dbd0a82	0.0923052
48	0x3d467ec7	0.048460748
49	0x3d4e35f5	0.050344426
50	0x3d84196f	0.064501636
51	0x3d212a15	0.039346773
52	0x3cdbc26d	0.026826108
53	0x3d3125f3	0.04324908
54	0x3c979dfb	0.018507948
55	0xbc6df9e2	-0.014524909
56	0x3d51080f	0.051033076
57	0x3c584fbc	0.013202604
58	0xbde59bf1	-0.11211384
59	0x3d78bfbf	0.06072974
60	0x3da6a163	0.08136251
61	0x3d37fdfa	0.044919945
62	0xbc711eaa	-0.014716784
63	0x3dbb6c06	0.09151463

combined.6.weight f4 [1, 64]
0	0x3db31902	0.08745004
1	0x3d198de5	0.037488837
2	0xbd893688	-0.06699854
3	0xbda7c04d	-0.08190975
4	0xbd0428ec	-0.03226559
5	0xbd25b63e	-0.040457003
6	0x3d2e2daa	0.042524017
7	0x3d9ec828	0.077530205
8	0x3d197b38	0.037471026
9	0xbd865d6b	-0.06560787
10	0xbd8b05fd	-0.067882515
11	0xbd5801cf	-0.0527361
12	0x3d702dce	0.058637433
13	0x3d296816	0.04135903
14	0x3d23e60e	0.04001432
15	0x3d3176fd	0.043326367
16	0x3d3f84ee	0.04675763
17	0x3d3187cb	0.043342393
18	0x3ddc0c1d	0.10744498
19	0xbdcf2b53	-0.10115685
20	0xbd8c240b	-0.06842812
21	0x3d3d6cd6	0.046246372
22	0x3da8a24f	0.08234083
23	0xbd21da6a	-0.039514937
24	0xbd898d71	-0.06716431
25	0x3dae5669	0.08512575
26	0x3d2564c9	0.04037932
27	0xbd6ff761	-0.05858553
28	0x3d81de07	0.063411765
29	0x3d8f373b	0.06992956
30	0xbd8851ef	-0.066562526
31	0xbd10630a	-0.0352507
32	0xbdb60818	-0.088882625
33	0x3d6a72db	0.05723844
34	0x3db549d0	0.08851969
35	0xbdaa27cd	-0.08308373
36	0xbd39abd6	-0.04532989
37	0x3d5192aa	0.05116526
38	0xbdadb655	-0.08482043
39	0x3d2afb4e	0.04174357
40	0xbd684852	-0.056709595
41	0xbd22fe2a	-0.03979317
42	0xbd6c94aa	-0.057758965
43	0xbd4ae676	-0.04953619
44	0x3d4cbfee	0.049987726
45	0xbd38a301	-0.045077328
46	0x3dbed832	0.0931858
47	0x3d805f21	0.062681444
48	0xbd60d79c	-0.05489312
49	0x3d72457d	0.0591483
50	0xbd8d1344	-0.0688844
51	0xbd37e0de	-0.044892184
52	0x3d4b7a51	0.049677197
53	0xbd7918b1	-0.060814563
54	0xbd1b6946	-0.037942193
55	0x3d9c1513	0.07621207
56	0xbdb8e50a	-0.09028061
57	0x3d4b10ce	0.049576573
58	0x3d91005c	0.07080147
59	0xbdae85e0	-0.085216284
60	0x3d231303	0.039813053
61	0xbdeff52a	-0.11716683
62	0x3db18e40	0.0866971
63	0xbd1b8350	-0.037967026
