data/models/nov12_24_undersample/fold3_epoch_models/epoch_0_model.pt (torch, 775567 bytes, 9 tensors)

layers1d.0.weight f4 [128, 1280]
00000000: 73f0 0a3d ecec 313a f98d 533c 4938 943c
00000010: c3fd 8e3b fb78 5dbb 7847 0f3c 65c7 763d
00000020: e80b dfbb cd47 953c 1534 e03c d683 213d
00000030: 164e 1b3c 0cf4 32bd 2f8c dbbc af33 4a3c
00000040: c856 263c 5497 6abc 0344 ea3c 941b 473b
00000050: 4830 103c fea0 d5bc a3d1 1f3c 305f f4bc
00000060: 3f5f 0c3d 9940 393c 45e4 97bc 6823 b5bc
00000070: ab96 073c 93ac 123d 7b95 db3c 5298 90ba
00000080: ecf2 a63c af62 e7bc da10 b83c 990a 533d
00000090: 2ed5 0c3d 253b 65bd fc0d d23b 6fd4 6c3c
000000a0: f1d2 33bc 9ce9 f83c 0f2a 1b3b 3fe1 123b
000000b0: 8e4e 84bc f6b9 54bb 5645 d93b 8a04 943c
000000c0: 5adc 7dbc ff62 86bc 8a95 013c 7ae5 953c
000000d0: 9115 5c3c 3730 bd3b 756e 043d 2702 983b
000000e0: 7ec9 093d 12f3 a43c b1e4 693c 169d 46bc
000000f0: c728 313d 58d9 fbbc 9abe d0bc 3a2d 35bd
00000100: 3f30 073c 0f0d 953c af05 d8bb 873d 36bc
00000110: ffde 1b3c 0a00 e2bb 7837 373c 4d3d b03c
00000120: 3e59 bbbc 5d99 103d 1da9 eebb 83f8 7dbc
00000130: ff3f 743a dbf3 b23b 3d07 22bc f16f bcbc
00000140: ae6d 843c f69a 13bc 8396 423c 94a8 443c
00000150: b038 cdbc 94af 9b3c 0dc2 163c ae9d fc3b
00000160: 633d b0bc bbc4 0cbd 80e0 fabc 2f3f c9bc
00000170: 2856 c7bc 28b0 fa3b a067 8bbb de91 d73b
00000180: 78a7 153d 711b 613c 7ce4 1a3c 8ac5 27ba
00000190: 0f0a 1dbd 1820 0ebc 48e5 79ba 0164 ed3c
000001a0: 9412 83bb fcac b23c 92b3 41ba 1bbf ee3c
000001b0: 7344 c33c 08e0 b73b f2c2 3e3c d60a 4a3d
000001c0: 34c0 5c3b bc4b 6d3c 6204 f4ba a870 38bc
000001d0: 3d01 9f3c d7ac 72bc 8c83 063c 07d6 11bd
000001e0: f698 853c 4228 733b f2ec aabc 13dd 36bd
000001f0: f313 9cbb 11d9 2e3c 12d5 213d 8523 a4ba
00000200: 9e43 acbb ce24 1fbc 6062 7cbc c73f 9c39
00000210: 83e2 b13c 831f fe3b a2e4 7dbc 963a bcb9
00000220: dc21 57ba 8a33 793b bce3 adbc bd5f e43c
00000230: 742d 113b 790a 123c 326c 363d 5583 a23c
00000240: 9d60 87bc f626 b5bc 9f98 2f3b 905a 55b9
00000250: c21d ea3c a785 3ebd 13de 783c f54a a8bb
00000260: 9d54 b0bb 71a1 873b b352 3dbd 7407 bbbc
00000270: 8c63 563c ead2 a93c 9e8d 45bb cabc f73c
00000280: e075 873c d1bd e3bc 8217 a539 769b 043c
00000290: 6cb6 db3b 6263 86ba 4a9b fb3a 3419 f23c
000002a0: a706 103c 0f97 44bc 5a62 68ba a291 46bb
000002b0: f558 8a3c c6ee 4bbc 6d55 8a3b df55 00bc
000002c0: 9867 e03c 2604 0bbb 1318 e0bc 39c7 e03c
000002d0: e3e8 bfbb 2611 b4bc 33f9 f93a 7f2a 58bb
000002e0: ebd2 8bbd d6ff 23bb 36cb 8639 b3d0 e4bc
000002f0: 7562 1abc 5391 babc 35a4 dfbc bf53 45bc
00000300: 24a5 103c 6533 6bbc 7e6d f63a 90cb 24bc
00000310: 3bb2 9f3b afe4 35bc 5887 1c3d e465 903c
00000320: 7d45 93bc 63b8 143c f3b9 7cbc db17 a33c
00000330: 6774 223c b931 063d 3159 4d3c a6d0 25bd
00000340: 4e94 a0bb fb99 93bc 7578 35bc 0ea2 993b
00000350: bc44 1abd ed86 493a 6891 033c 5a34 123d
00000360: 1af5 1b3b 68b2 0a3d b1c3 f6bc 0073 63bc
00000370: f723 7ebb 3eb6 063c 498f 8c3b 4c55 1abc
00000380: 9174 a23b e7d7 b1bc 87be 89bc e845 dabb
00000390: df03 89bb d6e3 82bd 620f 78bc 541f 08bd
000003a0: 4128 d1bc 0c9b bb3c de35 13ba ca39 dc3b
000003b0: 925e 7dbb 1801 31bd 36d6 893c 9f1d 0a3d
000003c0: 336b 163d 4362 7a3c b3f7 df3b 4cbe cb3c
000003d0: a861 533d 7067 98bc 7953 1cbd 5712 a6bc
000003e0: 7f9d ffbc 3afb 11bc 52b9 f03c 82c4 1b3c
000003f0: aecf f6bc 6a70 11bc f9ab 263b 3bcc aa3b
0.033920716 0.0006787318 0.012912267 0.018093245 0.004363747 -0.0033794034 0.008745067 0.06024875
-0.0068068393 0.018222714 0.027368585 0.03943237 0.009479066 -0.043689772 -0.026800243 0.012341424
0.010152526 -0.014318306 0.028596884 0.0030381428 0.008800574 -0.026077744 0.009754571 -0.029830545
0.03427052 0.011306905 -0.018541465 -0.02211161 0.008275668 0.03580911 0.026804676 -0.0011031723
0.020379506 -0.028245298 0.022468973 0.05152378 0.03438299 -0.055964608 0.0064103585 0.014454945
-0.010975585 0.030384831 0.0023676192 0.002241209 -0.016150739 -0.0032459474 0.00663058 0.01806857
-0.01549443 -0.016404627 0.007909188 0.0182979 0.013432876 0.00577357 0.032331903 0.0046389285
0.033639424 0.020135436 0.014275716 -0.012122413 0.04325178 -0.030743286 -0.02548151 -0.044232585
0.008251249 0.018194703 -0.0065924744 -0.011123068 0.009513616 -0.0068969773 0.011182658 0.021513605
-0.022869702 0.03530251 -0.0072833435 -0.015501144 0.00093173975 0.0054611987 -0.009889421 -0.023002597
0.01616558 -0.009009114 0.011876705 0.012003083 -0.025051445 0.01900462 0.009201539 0.0077092266
-0.021513646 -0.034367304 -0.030624628 -0.024566261 -0.024333075 0.007650394 -0.0042542964 0.006578668
0.036536664 0.013739453 0.009453889 -0.000639998 -0.03833967 -0.008674644 -0.0009532762 0.02897835
-0.0040000174 0.021811001 -0.0007389124 0.02914386 0.02383635 0.0056114234 0.011643158 0.04932674
0.0033683898 0.0144833885 -0.0018617029 -0.011257328 0.01940977 -0.014811716 0.008210074 -0.035604503
0.016308289 0.0037102853 -0.020864937 -0.044644427 -0.0047631203 0.01067187 0.03950984 -0.0012522793
-0.005257084 -0.009713365 -0.015404314 0.00029802156 0.021714455 0.0077552213 -0.015496405 -0.00035901804
-0.00082066446 0.0038025104 -0.021226756 0.027877683 0.0022152336 0.00891363 0.044536777 0.019838015
-0.016525561 -0.022113305 0.002679385 -0.00020347 0.028578643 -0.04651418 0.015189665 -0.0051358887
-0.0053811804 0.0041391184 -0.046221446 -0.022830702 0.013085257 0.020730454 -0.0030144225 0.030241389
0.0165357 -0.027800472 0.00031488767 0.008093705 0.006705096 -0.0010253007 0.001919606 0.029553033
0.008790649 -0.011998906 -0.0008864753 -0.0030299206 0.016888121 -0.012447065 0.0042216093 -0.007832973
0.027393147 -0.002121219 -0.02735523 0.027438747 -0.0058566197 -0.021980833 0.001907146 -0.0032984314
-0.06827339 -0.0025024316 0.00025709876 -0.027931547 -0.009422888 -0.022774374 -0.02729998 -0.012043892
0.008828435 -0.014355515 0.0018800942 -0.010058299 0.0048735416 -0.011101886 0.03821501 0.01762671
-0.01797747 0.009077164 -0.015425193 0.019908836 0.009915448 0.032762263 0.012533472 -0.040482186
-0.004900492 -0.01801776 -0.0110760825 0.004688508 -0.037663206 0.0007687647 0.008030273 0.035694458
0.0023797215 0.033861548 -0.03012261 -0.013882399 -0.003877876 0.008222161 0.004289542 -0.00941975
0.0049577435 -0.021709396 -0.016814483 -0.0066611655 -0.0041813697 -0.063911125 -0.015140386 -0.033233
-0.02553189 0.02290108 -0.0005615632 0.006720756 -0.0038661105 -0.043213934 0.016825777 0.033719655
0.036723327 0.0152822165 0.006834948 0.024871014 0.051606804 -0.01860401 -0.038165543 -0.020272417
-0.03120303 -0.008909995 0.029385243 0.0095073 -0.030128326 -0.008876899 0.0025432094 0.0052123345

layers1d.0.bias f4 [128]
00000000: d51d 4bbc d218 923c dd07 c3bc 6586 3abc
00000010: 4b62 5a3c acc2 11bd e29b 113c 0bef d7bc
00000020: cf25 93bc a9b9 5d3b 8d1a 413c ea6a 07bd
00000030: ca34 44bb f928 173c 398d 9c3c bf33 e7ba
00000040: d907 fbbc 776d d3bc 1c53 d13c 191a 893c
00000050: 9b53 193c 3855 a5bc d4fc 863c c142 b3bc
00000060: cadd d8bc ebcb 8c3c 73dd afbc 3830 91bc
00000070: bd38 86bc 0611 d3bc 422c e639 14f7 aabc
00000080: 34fe 67bb eb45 2c3c 0f88 e0bc b2de e6bc
00000090: 3c1c 75bc 3445 a9bc 029b 4dbc db8c 8dbc
000000a0: 527c 84bb d737 6bbb 3cb2 5dbc 9e06 f63b
000000b0: cff3 70bc 558a 4fbc df58 863c 2be5 043b
000000c0: 8dec 8b3c b03d 89bc 5091 b3bc 5359 643b
000000d0: 97d5 13bd c460 723b 662e b1bc bc6f ebbc
000000e0: b53e 5dbc 7127 02bb a6db 783c 9d9e a13c
000000f0: 38dd d93b 04a4 9e3c 5ba6 b8bc 85a6 a0bc
00000100: d630 b2bc cecd 843c ee0b a5bc d51b c8bb
00000110: 2ba3 2cbc 627a 833b b864 2dbc 7493 82bc
00000120: 49a5 693c fd69 b4bb 627c 9fbc c65a 1ebd
00000130: 02a5 edba 3018 cabc 2632 11bc c497 ce3c
00000140: c508 e7bc f80f 923c fb66 573a 4d5a 33bc
00000150: 39cf 79bc 1a5e 2bbd fa73 623c f780 d33c
00000160: 5fec 06bd 329d b4bb bbee c1bc 39dd e4bc
00000170: 90b7 29bb 0b73 f83b 2f87 e6bc 7d6c e6bc
00000180: 7db4 08bd eb55 ddbc 1498 fbbc 90b8 94bc
00000190: 4eb8 2fbc 3540 cebc 139d 3a3c fde3 2abd
000001a0: 8db0 823c 1e42 c8bc eaa0 b9bc 8c0a 8fbc
000001b0: 42ee 54bc 7f96 6cbc 821e f5bc e046 2bbc
000001c0: 5376 f1b9 a7ed dabc e2eb c6bc ce46 91bc
000001d0: dc2e 91bb 5330 94bc 5193 4fbc 1cd9 73bc
000001e0: 996f 8a3c af8b b63c a597 e1bc ba87 c83c
000001f0: 05b7 d7bc 86a3 053c ad1e 2a3c 2a3b 1cbd
-0.012397249 0.0178341 -0.02380746 -0.011384581 0.013329099 -0.035586044 0.008887263 -0.026359102
-0.017962364 0.0033832586 0.011786115 -0.033060946 -0.0029938691 0.009226077 0.019110309 -0.0017639323
-0.03064339 -0.025809033 0.025552325 0.016736077 0.009358312 -0.020182237 0.01647798 -0.021882417
-0.026472945 0.01718708 -0.0214679 -0.017723188 -0.016384477 -0.025764953 0.00043901993 -0.02086977
-0.003539932 0.010514717 -0.027408628 -0.028182361 -0.014960345 -0.020662881 -0.012549164 -0.01727908
-0.0040431404 -0.0035891437 -0.013531264 0.007508113 -0.014706566 -0.012667258 0.016399799 0.0020278196
0.01708057 -0.016753048 -0.021919876 0.003484328 -0.036092367 0.0036983946 -0.02162857 -0.028739803
-0.01350372 -0.0019859935 0.015189087 0.019728953 0.006648686 0.019365318 -0.022540262 -0.019610653
-0.021751802 0.016211417 -0.02014729 -0.0061068335 -0.010536949 0.004012392 -0.010583095 -0.015939452
0.014260598 -0.005505799 -0.01946849 -0.038660787 -0.0018130841 -0.024669737 -0.008862054 0.025218852
-0.028202424 0.01782988 0.00082169444 -0.010946822 -0.01524716 -0.04183779 0.013821596 0.025818331
-0.032940265 -0.005511903 -0.023673406 -0.027937518 -0.0025896765 0.0075820736 -0.028140632 -0.028127903
-0.033375252 -0.027018508 -0.030712165 -0.018154413 -0.010725094 -0.0251771 0.0113899885 -0.041721333
0.015953327 -0.02444559 -0.022659738 -0.017461084 -0.012996258 -0.014440178 -0.029921774 -0.01045391
-0.0004605526 -0.02672465 -0.0242824 -0.017733958 -0.004430635 -0.018089449 -0.0126694 -0.014883306
0.016898917 0.022283403 -0.02753813 0.024478782 -0.026332388 0.008156663 0.01038329 -0.03814236

layers1d.3.weight f4 [128, 128]
00000000: f8cc 81bd 5228 77bd 8a42 fd3a 1136 973d
00000010: 742e 92bc 5e78 273d ccdf cebb 17b4 9e3d
00000020: 5c53 64bd d780 dabd 6e57 053d 3292 5b3d
00000030: b7fe 843d 7b6b a03c 238f 8cbd 8dc0 d5bc
00000040: d375 53bd df5f 1b3c 1eea e3bc ff24 a8bd
00000050: cc70 ab3c 166b 9a3d c5da 113c c0d1 073c
00000060: bc0e 82bd 9736 bb3c a11a 2e3d 0a55 243d
00000070: 2e64 96bd d893 673c 5903 c73d 90e4 4c3d
00000080: 79d8 5ebd b799 993d fd96 c93d 1bb6 0abc
00000090: d8db a7bc 52dc 9cbd c832 b8bd e8dd 42bd
000000a0: 9d50 8abd 9ce6 cb3a 959a 13bc c86d 4cbd
000000b0: a5a0 893d 4df5 4a3d 4c4b 0e3d a713 84bd
000000c0: 7db5 a83d e68d 75bd fcdc afbc 496d bf3c
000000d0: 5c87 63bd 99c1 99bd 147b 0bbd 208e 18bd
000000e0: 674f e53c c8bc 79bd e254 8a3d 4d6f 9bba
000000f0: baf7 3fbc 0f66 44bd 8c65 59bd 4c89 5bbd
00000100: 7299 753c 730e 913c c1db 373c 992f 75bd
00000110: 20f6 843c 31fa 793d da9f 59bd a686 5abd
00000120: e597 a7bd dbed a53d 7447 8b3d d920 44bd
00000130: bcac c7bd f298 b8bd 6cd1 1ebd bd43 afbc
00000140: 7854 99bc d221 2d3c c612 fb3c a02d 81bd
00000150: 783d 233d 2fe3 013c 8102 943d c8ed afbc
00000160: 4035 aabc aa0d 97bd 13de ea3d c451 d23c
00000170: 2380 373d 1172 243d 5e15 b0bd d363 d8bd
00000180: 91b7 b03c 00d6 3c3d dfc4 9d3c fe2c d0bd
00000190: 84ad af3c 9a03 bdbd 7fac 713d 9f38 f23b
000001a0: 2d63 f5bc 21a5 9b3d afbf b43d dc41 153d
000001b0: d5e2 d13d d6d0 883c 9862 633d 2468 273c
000001c0: 0dd9 aa3d cdb0 20bd 7d43 93bd 8510 e9bc
000001d0: 90ed 123d 3a32 bbbc 9a2b 7ebd 261b a23d
000001e0: 5bc5 b0bd 56b5 aabd 133c 773d 9338 b5bb
000001f0: a785 d7bc 4674 873c 6479 1b3c 39b8 373d
00000200: bbfd b03c 1eb9 9abd b4c7 173d b746 c83d
00000210: 6059 f73c 796e 93bd 6b90 c13b 3641 a13d
00000220: 2bac 043d bfc5 5fbd 8532 60bd 47f1 7dbc
00000230: a3c3 12bd 0496 2ebd cbee 4a3d 43b1 9abd
00000240: e221 143c 1ef4 083d 33c7 83bd aa6d 7ebd
00000250: 77ce 4b3d eec5 713d 7675 b93d 0ad2 9bbc
00000260: 795d 753d 2b45 8cbd 1e32 a2bc 3261 b2bd
00000270: fa5b 68bd 9e47 373d 7c98 eebb d7a3 1dbd
00000280: 5eac 9abd 6815 05bd b177 d5bc 4243 453d
00000290: 398b 04bd b268 833d 1c2e 7ebd d334 37bd
000002a0: 380b 283d 7af4 8e3c 043a 353d 1eb1 76bd
000002b0: aa2f 7d3d 5445 b3bc 945c d0bd d827 b3bd
000002c0: 4ab5 df3c fcb3 b4bc 25d5 d33c 7484 f43c
000002d0: 5c64 963d 42a7 433d 5915 9f3d be02 5cbd
000002e0: f6f1 393d 78e9 35bc 491a 153d a290 09bd
000002f0: 8d05 113c 16bb 0e3d 3920 4e3d 36a7 093e
00000300: a31d 1cbc 2b28 73bd b256 2e3c 38a0 ab3c
00000310: 96cb b4bd ae66 55bc 4dcb 3c3d b9da 333d
00000320: 8732 283d 56d7 973a e94a 80bc 70ce 333d
00000330: 902f 743d dda6 953c df77 c6bb a2e2 8d3d
00000340: 0f5a 8dbd 38b1 48bd 4296 843d 1d5c 20bc
00000350: 4623 78bd 5ede a7ba 596c c33d c1ff a23d
00000360: 2533 93bc f37b d93d 8ba4 113d 56f5 38bd
00000370: ef53 15bd 4801 853d 269f a93c 504a bfbc
00000380: 6b79 b0bd 35f4 e33b 49f0 35bd 5beb 93bd
00000390: 7d0c 243d c0f1 f13c fc76 7cbd f812 513d
000003a0: ebbe 77bc b542 17bd 78d3 9b3d 6d30 023d
000003b0: 9539 51bd 34e1 28bd 6886 663d 6b0e 773c
000003c0: 54e5 0abd e8ea 7a3d 9ce8 bbbd e5ed acbc
000003d0: fcf7 a9bd 93f6 48bd e458 263d 72c7 a7bd
000003e0: 9492 5bbc c8af 633d 85e8 af3d 88e6 abbd
000003f0: 359f c5bd 4052 d3bd 743f abbd 33b7 a8bd
-0.06337923 -0.060341187 0.0019322198 0.07383359 -0.017844416 0.040886275 -0.0063132998 0.07749193
-0.05574356 -0.106691055 0.032554083 0.05360622 0.064938955 0.0195825 -0.06863239 -0.026092792
-0.051626038 0.009483307 -0.027821597 -0.082101814 0.02092781 0.07539956 0.008902256 0.008289754
-0.063504666 0.022853179 0.042505864 0.040120162 -0.073433265 0.01413437 0.097174354 0.05002266
-0.054405663 0.07500022 0.09843252 -0.008466269 -0.020490572 -0.0765921 -0.08994061 -0.047574908
-0.06753657 0.0015556398 -0.009009023 -0.049909383 0.06720094 0.049550343 0.034739777 -0.06449061
0.08237741 -0.059949778 -0.021467678 0.02336754 -0.05554901 -0.07507629 -0.034052923 -0.037244916
0.027991964 -0.06097105 0.06754471 -0.0011858732 -0.011716777 -0.047948893 -0.05307536 -0.053597733
0.0149901975 0.017707085 0.011221827 -0.059859846 0.016230643 0.061029617 -0.053130962 -0.053351067
-0.081832685 0.08102008 0.06800738 -0.04788289 -0.09749743 -0.09013547 -0.03877394 -0.021394605
-0.018717036 0.010567145 0.0306486 -0.063075304 0.039853543 0.0079277 0.0722704 -0.021475688
-0.020777345 -0.07375653 0.114681385 0.025673755 0.044799935 0.040147845 -0.085978255 -0.10565915
0.021571906 0.046102524 0.019258915 -0.101648316 0.021445043 -0.092292026 0.059002396 0.0073920037
-0.029954517 0.07599855 0.08825623 0.03643976 0.10248343 0.016701143 0.05551395 0.0102177
0.083421804 -0.03923111 -0.07190607 -0.02845026 0.03587109 -0.022851098 -0.0620533 0.079153344
-0.086313926 -0.08335368 0.060360026 -0.005530426 -0.026308848 0.016534936 0.009489391 0.044853423
0.021605363 -0.075548396 0.037055686 0.09779113 0.030193985 -0.07198805 0.0059071085 0.07873766
0.032390755 -0.054631945 -0.05473568 -0.0154994195 -0.035831105 -0.042623535 0.049544137 -0.07553341
0.009041281 0.033435933 -0.064344786 -0.062116303 0.049757447 0.05902665 0.09055607 -0.019021053
0.059903596 -0.0684913 -0.019799288 -0.08709945 -0.05672834 0.044746034 -0.007281361 -0.038486328
-0.07552408 -0.032491118 -0.02605805 0.048159845 -0.032359336 0.064164534 -0.062055692 -0.04472811
0.041026324 0.01745056 0.04424478 -0.060227506 0.061813034 -0.021883644 -0.10173908 -0.08747834
0.027308125 -0.02205848 0.025858471 0.029848315 0.07343361 0.04776693 0.077677436 -0.053713553
0.045396768 -0.011103027 0.03640202 -0.0335852 0.008851421 0.034846388 0.0503237 0.13442692
-0.00952855 -0.05936448 0.010640787 0.020950422 -0.088278934 -0.013024969 0.04609232 0.043909762
0.04106381 0.0011584561 -0.01566072 0.043898046 0.05961567 0.018268043 -0.00605677 0.069279924
-0.06901943 -0.048997134 0.06473972 -0.0097875865 -0.060580514 -0.001280736 0.0954215 0.079589374
-0.017968724 0.106193446 0.03555731 -0.045155846 -0.036457 0.06494385 0.02070577 -0.023350865
-0.08616909 0.006956602 -0.044418607 -0.07222625 0.040050972 0.02953422 -0.06163691 0.05104348
-0.015121202 -0.03692885 0.07608694 0.031784464 -0.051080305 -0.041230395 0.056280524 0.015079121
-0.03391011 0.06125918 -0.09175226 -0.02110953 -0.082992524 -0.049063276 0.040612116 -0.08192338
-0.013401646 0.05558756 0.085892715 -0.0839358 -0.09649507 -0.10318422 -0.08361712 -0.082380675

layers1d.3.bias f4 [128]
00000000: cf98 80bd 29cb 7b3d b3e1 fabb 2722 cb3c
00000010: c016 803c 9eeb 64bd a694 063d 1312 7f3d
00000020: c71b 5a3d f027 453b 86d5 9b3d 4a09 513c
00000030: a52c 183d 9583 4d3d 2cc1 17bd 71e9 39bd
00000040: c413 0f3b f53e 35bc b5f7 07ba aeef 14bd
00000050: 41b9 843c c004 7b3b 7439 73bd de75 413d
00000060: 815c 563c 741e 83bb ebf8 313d b6d2 a53b
00000070: 8a7e 403d 85cc c9bc 31ca 823d e675 463d
00000080: 1485 94bd dd1c ed3c b3b2 6ebd 64ec 4e3d
00000090: f403 d3bb a6d2 b53c 4c3c 073d 5f98 6d3d
000000a0: 04b8 7f3d 1d11 50bd 7f5c 87bd 5e81 81bd
000000b0: 1b8b 323d 9d17 053c b262 70bd cbb3 0ebd
000000c0: 9845 8fbd b579 713d 1dc6 c5bc 6f9d acbc
000000d0: 7c08 733c 6823 463d ddd5 d83c ff05 883d
000000e0: 5906 fcbb e466 55bd faa2 45bd 70bd 953d
000000f0: 2678 90bd aa9f 31bd 8dad 92bd 9523 38bd
00000100: 1153 063c 9996 7cbc e1ea 8b3d 05f9 8a3d
00000110: 457b 673c 2995 6e3c 3e48 11bd 30e1 89bd
00000120: 9486 723d fd01 0abd 5fc3 66bd 10d1 17bd
00000130: 866d 75bc fa47 85bd d02a 7f3d 650f 10bb
00000140: 2b16 9cbd 17ec 4d3c 3e71 9e3c 6c3c 873c
00000150: a9fc 2f3d f5ff 393c 974f 0c3d 4d7b 4abd
00000160: 787c 01bb 221d 82bd a3bf 303d 6181 2bbd
00000170: 0cc6 843c 2beb b6bc 185a 3c3d 964d 2abc
00000180: 2cb9 ee3c 74df 613c 61c7 7e3c 396e 733d
00000190: c67f 26bd 128b 803d 5cb3 a73c fe1e 12bd
000001a0: f212 9b3c 0172 bebc de4e 843d 57a7 893d
000001b0: 98d7 c9bc 9fa0 133d bf28 4f3d 086d 813d
000001c0: b2a4 5f3d 1571 803d 79a0 f73c 459c 2bbd
000001d0: ef65 763d f86b 533c 71a5 98bd 075f d43c
000001e0: f21b eebc f908 d53a 5445 ddbc 7b31 2a3d
000001f0: f5ce 9a3d d08c b4bc c672 b23b 6123 2f3d
-0.06279146 0.061473045 -0.0076563 0.024796559 0.015635848 -0.055888765 0.032856606 0.062273096
0.053249147 0.003008362 0.07609086 0.012758562 0.03715195 0.050174315 -0.037049457 -0.045388643
0.002183185 -0.011062373 -0.00051867525 -0.03636139 0.016201617 0.0038302392 -0.059380963 0.047231548
0.013083578 -0.004001433 0.043450277 0.005060519 0.046995677 -0.024633655 0.06386221 0.04845228
-0.07251945 0.028944427 -0.05827589 0.05051841 -0.0064396802 0.022195172 0.033016488 0.05800664
0.06243135 -0.05079757 -0.06609439 -0.06323503 0.043589693 0.008123306 -0.058687873 -0.034839433
-0.06995696 0.05895396 -0.02414232 -0.021071164 0.014833566 0.04837361 0.026469165 0.06641769
-0.0076911864 -0.052100077 -0.04825113 0.07311523 -0.070541665 -0.04336516 -0.071620084 -0.04495581
0.0081985155 -0.015416765 0.06831909 0.06785778 0.014128511 0.01456193 -0.035469286 -0.06732404
0.059210375 -0.033693302 -0.056338664 -0.037064612 -0.014979726 -0.06507869 0.06229669 -0.0021981832
-0.07621416 0.012568495 0.019341107 0.016508304 0.042965565 0.011352529 0.03425559 -0.049433995
-0.0019758027 -0.06353213 0.04315151 -0.041871432 0.016207717 -0.022328934 0.045984358 -0.0103944745
0.029141031 0.0137861855 0.015550465 0.05943129 -0.040649198 0.062765256 0.020471267 -0.035674088
0.018929932 -0.02324772 0.06460355 0.06721371 -0.024638936 0.036041852 0.050575968 0.06319624
0.054600425 0.06271569 0.030227887 -0.041897077 0.060155805 0.01290416 -0.074534304 0.025924219
-0.02906606 0.0016253284 -0.027010597 0.041551095 0.07559005 -0.0220398 0.005445811 0.04275835

combined.0.weight f4 [64, 128]
00000000: 443c 8e3d 88dc 5b3c b2c9 34bd 26e4 e6bc
00000010: 58fc da3b 42b0 08bd f6e8 053c 6a4e 633d
00000020: 77f2 3ebd 4ce3 643d a35f a13c 683e 46bd
00000030: ba70 1abc 77dd 98bd 88d9 5bbd f687 65bd
00000040: a886 203d 8c5b 0cbd fa28 9dbd 72af dbbc
00000050: 630e 83bb b345 e73c b95d 03ba 63a2 c13d
00000060: 577c 29bd 1875 9e3d 6e96 133d f9af 37bd
00000070: 385d 233d 8d8f 08bd 30a9 103d 3abb 99bb
00000080: ca18 e0bb 498f 9c3d 2dca c1bb 6858 55bd
00000090: 6369 b93d 9e68 d53c 9b05 74bd b495 93bd
000000a0: e39e 413d 145c bebc 9a07 ccbc 78cc bf3d
000000b0: 5355 003d 2726 693d 6570 273d 740d c2bd
000000c0: b45a 3a3c 0893 a1bc e7a7 f13c 079c 5c3d
000000d0: a0e3 eebc cf91 7c3d f6ad 1d3d 44e4 16bd
000000e0: 7a05 acbd 63d2 b73c 36b5 933d 64f1 e7bc
000000f0: c3aa abbd 7eea 923d 3c92 bf3a 762d a93d
00000100: f3ee 6abd e42b af3d cc97 57bc c954 03bd
00000110: f5a8 bbbd 2529 0f3d 2454 b33c 31a4 a5bd
00000120: c5d8 3c3c 3d59 08bd acb4 583c 07c4 c13d
00000130: 95cd ba3d a5c5 a73d 6e08 4abd 2af8 7dbd
00000140: 6f7c 86bc 04bc a53d acd2 273d 8cfe 1bbd
00000150: 9275 c9bd 2e3b bdbd 74e5 253b 1d6e 18bd
00000160: ed7d 7b3c 90a8 fd3c 8461 873d d93a 05bd
00000170: d13b dcbc 7da2 7ebd 04b2 343d 8086 96bc
00000180: 38a3 1f3c 39a3 813d 5663 d2bc d2f8 86bd
00000190: c83b 57bc b2c8 9c3d d247 d33c 9688 afba
000001a0: a05b 8b3d d56c 103d 209c 853d 83df 3c3c
000001b0: 095c acbd f685 b0bd 7484 aebc 6edd 29bb
000001c0: ef91 85bd 196c 6bbd 521a 8bbc 2082 cb3d
000001d0: 2299 41bd c4cb 503d 18a6 6d3c 6937 883c
000001e0: 619f abba ecfc aabd 9f08 44bd 5d57 ecbc
000001f0: 393a 6dbc 5af9 3f3d 6b4c f33c f5be 913d
00000200: e458 8dba fc08 07bd 385f d13d d39f 3b3d
00000210: 31bc 0fbd f6cf 88bd b227 cfbd 01b7 ac3a
00000220: 932f 2b3d c19f d63d 2176 8b3d 1440 35bd
00000230: e8a1 3a3d 85a3 733c 1855 1f3d f7af 263d
00000240: 142a cfbd eb1e 753d 8aac 7cbd 7ab6 4e3d
00000250: 0e63 54bd 1dc8 923d 600b f8bd 6c4a d5bd
00000260: faa1 613d 3816 223d cab8 87bd 2f79 6d3d
00000270: 0708 35bd ef9f 36bd e652 b1bd f770 99bd
00000280: 1a8d ab3a 8202 2abd fa17 943c 6995 523d
00000290: 51e0 63bc ba0c d3bc 30d2 803d 5abd 703d
000002a0: afc7 54bc fb7b b53d ab34 c0bc 121f e4bd
000002b0: 0e8c 67bd 2f4d d8bc c1ef 0c3d 67ca 513d
000002c0: 3342 1cbc e38e 743d a46d 24bd b62c e53b
000002d0: 5f50 8bbd 9953 56bd 0996 a4bd edde 97bd
000002e0: 5103 433c 0e5f a93d 9209 d73c 3922 4d3c
000002f0: 74b4 083d 9543 24bd 4856 b13d c19f 93bd
00000300: 746a de3d 2641 593c 2c0f bd3d bf9b 30bd
00000310: b9dc 4ebd 7ef2 143c dd39 573c 1a06 1dbd
00000320: 64b9 a03d eb0e 81bd 695c 0b3d 3852 6b3d
00000330: f5e8 9c3d cf3b 4abd f76b 6f3d 19e8 90bc
00000340: 74cf 453c 6880 25bd 89d0 9bbd 078e 77bc
00000350: 6536 2abd 4ed5 93bd 030d babd 88e6 e33d
00000360: 2ce1 65bd e06d b53b aa68 b43d 69a6 44bd
00000370: a3e1 c2bc e9e3 6d3c 9488 b43d bddc f13c
00000380: e7c7 50bc 535a 403c e64e 853c 1433 03bd
00000390: 6bfa 93bd 6b2c 60bd bc98 b93c 0065 cabd
000003a0: efca 18bd 1f2d 963d 104e f6bb a306 663c
000003b0: 021d 483d 558f 983c 1aad 21bb 9dfe f9bc
000003c0: 5ffa 88bd c49e a1bd 8da5 f8bb 9ef1 3a3d
000003d0: 58ee ca3c a281 883d f00b a83c 1d95 55bd
000003e0: 2cf1 363d fdef f2bc c69b 7dbc 3b13 c63c
000003f0: f87d 663d d0b8 95bd a4f3 cc3d 0961 1c3d
0.069450885 0.013419278 -0.044137664 -0.028184962 0.0066829138 -0.033371218 0.008173218 0.055494703
-0.04661795 0.05588083 0.019698923 -0.04839936 -0.00942629 -0.07464116 -0.05367425 -0.056037866
0.03919092 -0.034266993 -0.07673831 -0.026817057 -0.0039995178 0.028231477 -0.0005011219 0.09454801
-0.041378345 0.077371776 0.036032133 -0.044845555 0.039883822 -0.033340026 0.0353176 -0.0046915086
-0.0068388926 0.07644517 -0.005913994 -0.052086264 0.09053304 0.026050862 -0.05957566 -0.07206288
0.047270667 -0.023237266 -0.024905968 0.09365171 0.03133137 0.05692115 0.040878672 -0.09475222
0.011374164 -0.01972343 0.029499007 0.053859737 -0.029161274 0.06166249 0.03849598 -0.036838785
-0.08399482 0.022439187 0.072122976 -0.028313346 -0.083821796 0.07173632 0.0014615725 0.08260624
-0.057356786 0.08553293 -0.01315875 -0.03206328 -0.09163085 0.034951348 0.021890707 -0.08087958
0.011526291 -0.03328823 0.013226669 0.094612174 0.09121243 0.081919946 -0.049324445 -0.062004246
-0.016416756 0.08092502 0.040972397 -0.03808455 -0.09836878 -0.09239803 0.0025313767 -0.037214387
0.015349847 0.030964166 0.066103965 -0.032526825 -0.026883991 -0.06216668 0.04411508 -0.018374681
0.009743504 0.063299604 -0.025682133 -0.065904275 -0.013136812 0.07655467 0.025791083 -0.0013392146
0.068045855 0.03526004 0.06523919 0.011527899 -0.08415992 -0.08619301 -0.021303393 -0.0025919336
-0.06521975 -0.057476137 -0.016980324 0.09936929 -0.04726518 0.050975576 0.014504932 0.016627984
-0.0013093763 -0.08349022 -0.047859784 -0.028850252 -0.014479213 0.04686866 0.029699525 0.071165
-0.0010783938 -0.032967553 0.1022324 0.045806717 -0.035091583 -0.066802904 -0.10114993 0.0013177098
0.041793417 0.104796894 0.06809641 -0.044250563 0.045564562 0.014870529 0.03889951 0.040695157
-0.10115448 0.05984394 -0.061687984 0.050466992 -0.05185228 0.07167075 -0.121115446 -0.104145855
0.055086114 0.03957197 -0.066270426 0.057976898 -0.04419711 -0.04458612 -0.0865839 -0.074922495
0.0013088316 -0.041506298 0.01807784 0.05141202 -0.013908462 -0.025762904 0.0629009 0.05877433
-0.012987061 0.08861538 -0.023462614 -0.11138739 -0.05653005 -0.026403992 0.034408335 0.051218417
-0.0095372675 0.05970658 -0.040143624 0.0069938553 -0.06802439 -0.05232582 -0.080364294 -0.074155666
0.011902646 0.08270083 0.02624968 0.012520366 0.03337522 -0.040103514 0.08659035 -0.07208205
0.10860148 0.0132601615 0.092314094 -0.04311728 -0.050503466 0.009091018 0.013136354 -0.038335897
0.078478605 -0.063016735 0.034023676 0.057451457 0.076616205 -0.049373444 0.058452573 -0.017688798
0.012073386 -0.04040566 -0.07608134 -0.015109546 -0.04155578 -0.07218419 -0.09084513 0.11127955
-0.056122944 0.0055367798 0.088090256 -0.048010264 -0.023789233 0.01451967 0.08815113 0.029524202
-0.012742973 0.011740285 0.016272973 -0.032031134 -0.07225498 -0.05472986 0.022655837 -0.098825455
-0.037302908 0.07332825 -0.00751663 0.014039668 0.04885579 0.018623034 -0.0024669827 -0.030516917
-0.066883795 -0.0789161 -0.0075880946 0.04564058 0.024771854 0.066653505 0.020513505 -0.05214416
0.044663593 -0.029655451 -0.015479034 0.024179092 0.056272477 -0.07310641 0.10007408 0.038178477

combined.0.bias f4 [64]
00000000: 8d06 9abc 3dc7 9f3d 84aa 08bd d1e4 cf3b
00000010: 79bb 773d 118a 85bc 5561 3b3c 737a 4f3d
00000020: 9e36 26bd 7ed6 adbd 6200 e0bc fdb1 e1bc
00000030: 5633 2f3d a262 0a3c 6925 9f3c 9a1d 7f3d
00000040: 1e28 4fbd 8557 a03c b453 253c 6a3c 50bc
00000050: cdfd 9abc 3ccb 83bd 6957 333d 6369 17bd
00000060: c1f0 c3bb da98 f5bc 2153 983d d0d8 333b
00000070: 2f4d 0cbc 62f7 973d d8f4 0b3d 604e f13c
00000080: f7c6 09bc 8970 fbbc b84f 553c 57ec 0cbc
00000090: 9196 1d3d e128 d93c b53a 8f3d 25b7 0b3d
000000a0: 5221 8ebd c85f 2d3a c5b2 693d 1f76 4c3d
000000b0: 3055 5d3d 83bb 93bc 53e0 9dbc 44b0 563d
000000c0: 4e61 71bd 5188 46bd e174 1a3d cad5 0e3c
000000d0: 20b8 333b a4cc 363d 7de1 0f3d 7a9b 533d
000000e0: 5cda 933c 6b75 89bc dd26 49bd a6ed 8d3c
000000f0: 8798 523d 6709 01bd ebf0 0a3d eb80 0b3d
-0.018801952 0.078016736 -0.03336574 0.0063444157 0.060481522 -0.016301187 0.01143678 0.050653886
-0.04057943 -0.08488177 -0.027343933 -0.027550692 0.042773567 0.008446367 0.019427018 0.06228409
-0.050575368 0.019572983 0.010090757 -0.012709716 -0.01891985 -0.06435248 0.043784533 -0.03696574
-0.005979628 -0.029980112 0.074377306 0.0027442463 -0.008563324 0.074202314 0.034169048 0.029456317
-0.008409253 -0.03069331 0.013019495 -0.00860127 0.03847367 0.02650875 0.06993619 0.034110207
-0.06939949 0.0006613699 0.057055254 0.049917337 0.05403632 -0.018033748 -0.019272005 0.052414194
-0.058930688 -0.048469845 0.03770912 0.0087179635 0.002742298 0.044628754 0.03512715 0.051661946
0.018048458 -0.016779622 -0.04910933 0.017325234 0.051414993 -0.031503107 0.033921164 0.034058493

combined.3.weight f4 [64, 64]
00000000: 468b 963d f094 283e f482 45bd dbe1 7abc
00000010: 3efd 9c3d edc1 6abd 9586 d43d a590 ef3c
00000020: 9174 8bbd 7416 f1bd a4f7 d23d 81de 6ebd
00000030: 48ef 5c3c b964 643d be6f debd db44 8d3d
00000040: 19d5 5b3d 0adf ba3d 6aa1 9fbd ed45 3ebc
00000050: 7b7d f03a fee4 103e 6191 bdbd c0e9 933c
00000060: 8f16 443b 3580 b13d 6d7c 933c 6f09 893d
00000070: b423 ccbc d019 7abb 5e87 7f3c 316a cebd
00000080: c6fb 6a3d 1b1c f03a fdce 7abd 9f29 e13d
00000090: a840 f23c d751 9b3c a577 13bd 72d1 563d
000000a0: efb5 963d bb62 d3bd bb08 46bd 8ba1 30bc
000000b0: 95f1 b93b e722 363d 5f5b a5bd c40c 5b3d
000000c0: 3ba0 2bbd ef9b c0bd 8492 a9bd e5ea e1bc
000000d0: 283e c23d 27f9 3d3d 2f59 ab3c 0e72 94bd
000000e0: 457b f33d 9849 d53d 7d0c dfbd a391 7fbd
000000f0: b32f b8bd 0c5c f4bc 3a6d 8ebd 1bea dabd
00000100: cad9 75bd a7a6 23bd 6d8f fb3c 0c97 dbbd
00000110: 7478 6ebc a6ac f5bd 7d5d 43ba efa6 413d
00000120: 9ea8 cebc 8ad3 e93c eb35 423d a62f d2bd
00000130: 43d6 093e 25b0 a43d 9bb3 823c 5595 51bd
00000140: 3fa2 c8bd f13d 293e 3e30 6cbd 2a16 f0bb
00000150: 7896 cd3c 5a39 b1bd a8bf 21bd 79fd c5bc
00000160: 1c4e 7c3d 0246 c5bb 5acc e4bd a7d7 5a3a
00000170: 3e88 dcbd a082 9abc 4474 2ebe ddef bfbc
00000180: 93c2 fe3d cace 23bd a53c 45bd 33e0 acbd
00000190: 7a7e f9bd cacf 03be 15b4 52bc cdf4 203d
000001a0: bf80 98bc 1f61 86bd 45b1 183e deab 1c3e
000001b0: 1a81 aebd c106 d63d 0754 d53d 70ca 99bd
000001c0: 4e99 be3c 228e babd 73a1 09bd e92e 50bd
000001d0: 0485 d83d 6072 053e f7de 593c 30f9 8b3d
000001e0: c20c bdbd c040 d4bd b52e 1b3d ba4f b5bc
000001f0: eef4 84ba 9fae 00bc ca89 23be 5df3 fbbd
00000200: 28bf b0bd d93c 7fbc 3b1b c0bd cc93 0c3c
00000210: ec5d 943d fbc4 fd3d 6ca4 1abe 0c1e a4bd
00000220: 4b2d ecbd 3d08 aabd fce0 613d 1564 fb3c
00000230: abe5 b9bd af63 823d 0322 05bd 9828 3a3d
00000240: edc8 00bd ff61 153c 94d7 4bbd ad1f e3bd
00000250: bc4b 9b3c 17f8 58bc ab80 c9bc 5cc8 8e3c
00000260: 948b 9bbd 9b33 263d 07d1 f33d 194d f63d
00000270: 5e46 973d d205 20bd f852 633d 7a3e 573d
00000280: e1cf 7fbd 5b62 0cbe 43f9 86bd d765 953d
00000290: 70bc 90bb bbd2 5e3d c547 dc3d a758 bd3d
000002a0: aa84 2a3d ac48 1c3d 13b3 24bd 27ef 10be
000002b0: 05fd a6bd b396 9ebd 247e 07be 03e3 1cbd
000002c0: bdac 07bb a58e cf3b 34ac 18bd 5ea8 08be
000002d0: 5d0d febd fcae d63c ee18 a7bd 853d 87bd
000002e0: 3304 bdbd ae7b 1f3d 25b8 39bd 3f84 6f3d
000002f0: 2638 c2bd 8333 30bd e2b8 b63c 0f23 003e
00000300: a95c afbc 7646 f6bd cd9a 87bd a5d4 dc3d
00000310: 0091 143c 87b6 593d 4d17 93bd e54e 2b3d
00000320: 0850 223c 97c1 14bc 3f88 e2bd c1f0 aebd
00000330: 4859 aabd f6ab b0bd e1fb 52bd 6c6c ebbd
00000340: 75a4 a43d 9511 da3b ab5b 983d fb80 e3bd
00000350: 3723 193d 8ab0 113e 6eb0 6d3d 2cc9 2c3d
00000360: d4b4 a4bd 1299 b5bd d095 5b3d f96b a2bd
00000370: b06e 5abb a17a e13d a79c c03d 8ef2 bfbc
00000380: 4fb3 713c a639 403d 0458 1ebe 65a2 d73d
00000390: 9aab 863d 0058 833d 1abb 863d 5d4b 303d
000003a0: d93a 02bb 2834 c3bd 3262 04be 4d18 40bd
000003b0: 107b b3bb 164e 87bc 52af 813d 286e abbd
000003c0: a9a4 b9bd e4b4 ff3c b30f 383d d24c acbd
000003d0: 3d5a a83d 8145 b839 ec59 85bd 095f 1d3e
000003e0: 7a09 babb 4099 b43d 2f05 cabd e950 663d
000003f0: fcfa 023e 6c31 a8bd f29c aebd bcb3 c7bd
0.07350783 0.16463065 -0.04822059 -0.015312637 0.076654896 -0.05731385 0.10377232 0.029243777
-0.06809343 -0.11771861 0.1030114 -0.058317665 0.0134847835 0.05576012 -0.10861157 0.06897899
0.053670023 0.091245726 -0.07794459 -0.011613351 0.0018347943 0.14149854 -0.092562445 0.018055797
0.0029920673 0.08667032 0.018003667 0.066912524 -0.024919368 -0.0038162358 0.015596239 -0.10078848
0.057369016 0.0018318923 -0.061232556 0.10994267 0.029571846 0.018959923 -0.036002774 0.052445836
0.0735892 -0.10321566 -0.04834817 -0.010780702 0.005674551 0.04446688 -0.08074068 0.05347897
-0.041900855 -0.09404742 -0.08279899 -0.027577827 0.094845116 0.04638019 0.02091655 -0.07248317
0.11888746 0.104144275 -0.10891054 -0.06239475 -0.08993473 -0.029829048 -0.06954427 -0.10689183
-0.060022153 -0.039953854 0.03070804 -0.10722169 -0.014555085 -0.11995821 -0.00074525905 0.04727834
-0.025226887 0.028543252 0.0474147 -0.102629945 0.1346064 0.080414094 0.015954783 -0.051167805
-0.09796571 0.16527535 -0.057663195 -0.007326861 0.025096163 -0.08653517 -0.03948942 -0.024168717
0.06159793 -0.0060203085 -0.111717895 0.0008348175 -0.10768174 -0.018861115 -0.1703654 -0.023429805
0.12439456 -0.03999213 -0.04815354 -0.084412 -0.121823266 -0.12872234 -0.012860318 0.03929596
-0.018616078 -0.06561493 0.14911373 0.15299937 -0.08520718 0.10450507 0.104164176 -0.07509315
0.02326646 -0.09109141 -0.033601236 -0.050825987 0.10572246 0.13031912 0.013297788 0.06834638
-0.09230949 -0.103639126 0.03788634 -0.022132743 -0.0010143796 -0.007854133 -0.15970531 -0.12302277
-0.0863021 -0.015578472 -0.09380194 0.008580159 0.07244477 0.12391087 -0.15101784 -0.080135435
-0.115320764 -0.083023526 0.055146202 0.030687371 -0.09077009 0.063666694 -0.03250314 0.04544887
-0.031441618 0.009117602 -0.04976614 -0.11090026 0.018957011 -0.013242743 -0.024597486 0.017429523
-0.07594982 0.04057656 0.11905103 0.12026424 0.07386468 -0.03906805 0.055499047 0.052549817
-0.06245411 -0.13709395 -0.06590512 0.07294815 -0.0044169948 0.054400187 0.107558765 0.09245425
0.041630425 0.038155243 -0.04020984 -0.1415373 -0.081537284 -0.07743587 -0.13231713 -0.038302433
-0.0020702325 0.006334143 -0.0372736 -0.13345477 -0.124048926 0.026206486 -0.08159052 -0.06603531
-0.092293166 0.03893631 -0.04534163 0.05847573 -0.09483366 -0.043017875 0.022304956 0.12513374
-0.021406488 -0.12025158 -0.06621323 0.10782746 0.009067774 0.053152587 -0.07182179 0.041823287
0.009906776 -0.009079359 -0.11061143 -0.08542014 -0.0831781 -0.08626549 -0.05150974 -0.11495289
0.0803918 0.006654928 0.07439359 -0.111085854 0.0373871 0.142275 0.058029585 0.04218404
-0.08042303 -0.088670865 0.05360967 -0.079307504 -0.0033330135 0.11009718 0.09404879 -0.023431089
0.014752223 0.046929978 -0.15463263 0.10529021 0.06575699 0.06413269 0.065786555 0.043040622
-0.0019871502 -0.095314324 -0.12928084 -0.046898175 -0.0054773167 -0.016516726 0.06332268 -0.0837062
-0.090646096 0.031214185 0.044936847 -0.0841309 0.082203366 0.00035147 -0.06511292 0.15368284
-0.005677399 0.088182926 -0.0986427 0.056229506 0.12791055 -0.082125515 -0.08526029 -0.097510785

combined.3.bias f4 [64]
00000000: 16a0 68bd a843 fc3d 2216 ab3d f893 343c
00000010: 56c2 003e 8f28 943d 3def a4bd a461 9cbc
00000020: cf94 06bd f884 afbc fdb4 373c 0576 d63d
00000030: 923f 64bd 449c 8b3d 82ae d7bc 5aaf 43bd
00000040: 875e 2b3d 557f 4a3d e8e9 223d f73c 3e3d
00000050: fe00 d4bd adb3 8a3b c01d 3cbd e81c e73d
00000060: 70c8 833d bf8f 023a 4e88 4b3d 08a2 603d
00000070: c753 9dbc 305e ca3c a670 fb3d 824a cc3c
00000080: f294 11bc 5307 963d f0a5 58ba 1c48 56bd
00000090: a15a 183d b4da a5bd 2b28 33bd 85ad cf3d
000000a0: 591f 343d 97b4 9b3d dd3a d73c 07e1 883d
000000b0: 271b 133d 2178 883d 14ba 453d f67b a83d
000000c0: 811e 7d3b b9b4 d03c 4fc8 273d 6831 1ebc
000000d0: aa82 c83b 984c c1ba 5ffc 52bd 7ebe cabd
000000e0: d5bd 23bc eaba 8fbb 6248 01be aefb 303d
000000f0: 65ec 443d 0bcb 163c 72a2 c6bd 40d4 bf3d
-0.056793295 0.12317592 0.08353831 0.011021607 0.12574133 0.072342984 -0.080534436 -0.019089527
-0.03285676 -0.02142571 0.011212585 0.10471729 -0.055724688 0.06816915 -0.026328329 -0.04777465
0.041838195 0.04943784 0.03977385 0.04644486 -0.10351752 0.004232845 -0.04592681 0.1128481
0.06434715 0.0004980526 0.049690537 0.054842025 -0.019204987 0.024703115 0.12277345 0.024937872
-0.008885609 0.07325616 -0.00082644727 -0.052314863 0.037195805 -0.08098355 -0.04373948 0.10140518
0.043975208 0.07602804 0.026273185 0.066835456 0.035914566 0.06663538 0.04827316 0.08226769
0.0038622918 0.0254768 0.040962514 -0.009655334 0.006119092 -0.0014747558 -0.05151021 -0.09899615
-0.00999399 -0.0043862956 -0.12625268 0.04320877 0.048077006 0.009203683 -0.09698953 0.09366655

combined.6.weight f4 [1, 64]
00000000: 3296 e43d 700e 2e3d b937 87bd 99a6 b8bd
00000010: 064d e2bc d0d4 27bd b883 793d 67ad b43d
00000020: 2cb1 113d ab28 2cbd e7fd afbd 6067 42bd
00000030: 3d65 a13d 222b 1e3d 73d2 8f3d 47c3 fb3c
00000040: cdf4 713d e0f1 343d 35af cd3d 009f e4bd
00000050: 5264 6abd 4ea1 723d 145d d23d 6a35 25bd
00000060: c7ad 92bd f9a3 943d 4e7f 353d ebfe 7bbd
00000070: fabc 623d 5a13 913d cfa4 8dbd 7463 14bd
00000080: 7ac0 f7bc 2784 aa3d a41d d53d d133 67bd
00000090: 82f5 44bd b721 563d 9e9a d2bd 4f04 3f3d
000000a0: 8ba2 6dbd a9d6 fbbc b157 7dbd 9736 8cbd
000000b0: 3d47 653d 3e05 47bd c3f8 d53d c876 8f3d
000000c0: a13d 87bd c3fa 933d d6ae 94bd 3444 e3bc
000000d0: af5e a83d 1fa2 8dbd 746e 48bd 254f 683d
000000e0: 0c9f b5bd 76d9 913d 5f64 a63d 9c3d c1bd
000000f0: 725d 273d 208d e3bd 23a4 2e3d 9c3e 33bd
0.1116146 0.042494237 -0.06602425 -0.09016151 -0.027624618 -0.04097444 0.060916632 0.08822136
0.035569355 -0.04203097 -0.0859335 -0.047461867 0.07880638 0.038615353 0.07022562 0.030732764
0.05907135 0.044175982 0.10043184 -0.11163139 -0.05722458 0.059235863 0.102716595 -0.040334143
-0.07162052 0.07257838 0.04431086 -0.061522406 0.055356003 0.07083769 -0.069162 -0.03622766
-0.030243147 0.08325987 0.10406044 -0.0564459 -0.048085697 0.052278247 -0.10283397 0.04663497
-0.05801634 -0.030742006 -0.061851207 -0.0684635 0.05597614 -0.048588984 0.10447838 0.070050776
-0.06603552 0.072255634 -0.0725991 -0.027742483 0.082211845 -0.06915688 -0.04893346 0.056716103
-0.088682264 0.071215555 0.08124613 -0.09435579 0.0408606 -0.11110902 0.042637 -0.04376088
