data/models/nov12_24_undersample/fold3_epoch_models/epoch_11_model.pt (torch, 775579 bytes, 9 tensors)

layers1d.0.weight f4 [128, 1280]
0	0xbd39426e	-0.045229368
1	0x3d8bd343	0.06827404
2	0x3d9b2ce6	0.07576923
3	0x3d2c422c	0.042055294
4	0xbc8a1da6	-0.01685984
5	0xbd15d816	-0.03658303
6	0xbd0d7204	-0.034532562
7	0x3de483e7	0.11157971
8	0x3d4f67f8	0.05063626
9	0x3da2ad2a	0.07943185
10	0x3cb8f971	0.02257988
11	0x3da69151	0.08133186
12	0xbd324f1f	-0.043532487
13	0x3cc3084e	0.02380767
14	0x3dad27ff	0.08454894
15	0xbc6ab390	-0.014325038
16	0x3d5650f2	0.05232329
17	0xbd78b8c8	-0.060723096
18	0x3b3cfcc5	0.0028837186
19	0xbca0cad2	-0.019627962
20	0x3cbf8143	0.023377066
21	0x3d1b121f	0.03785908
22	0xbd2e9399	-0.04262123
23	0xba2c9acc	-0.0006584346
24	0x3d4a496d	0.04938643
25	0xbdd4e59c	-0.10395357
26	0x3c06e76b	0.008233885
27	0xbd1754cd	-0.036946107
28	0x3d39aeda	0.045332767
29	0x3ce5936f	0.028024403
30	0x3d3f7bb6	0.04674884
31	0x3d5bc202	0.053651817
32	0xbd3b0c94	-0.045666292
33	0xbd8116c4	-0.0630317
34	0xbb71a217	-0.0036870295
35	0x3db3c891	0.087784894
36	0x3d5e72b0	0.054308593
37	0xbcd2d531	-0.025736423
38	0x3d7442df	0.059634086
39	0x3d88129d	0.06644175
40	0xbc90c030	-0.017669767
41	0x3d3992c7	0.045305993
42	0xbbeb69be	-0.0071842363
43	0x3d1ebdf2	0.038755365
44	0xbd0a7c00	-0.033809662
45	0xbd3f36a7	-0.04668298
46	0xbcc6b58b	-0.024256488
47	0x3d95dee6	0.07317905
48	0xbd15fc6b	-0.036617678
49	0x3d047bf3	0.03234477
50	0xbbf85bd1	-0.0075793047
51	0x3c28c794	0.010301489
52	0x3dbd384f	0.09239256
53	0xbd1c449d	-0.038151372
54	0x3ca7897f	0.020451305
55	0x3c289370	0.010289058
56	0xbd5f5aaf	-0.054529842
57	0x3da71076	0.081574365
58	0xbd14e619	-0.03635225
59	0xbbb1b4cb	-0.0054231635
60	0x3d818517	0.06324213
61	0x3c8ccf64	0.017188735
62	0xbdbd5006	-0.09243779
63	0xbbfbf6ed	-0.007689348
64	0xbd2a2c24	-0.041546002
65	0xbd085e94	-0.03329332
66	0xbca57fd3	-0.020202553
67	0xbc7e11b3	-0.0155071495
68	0x3c828345	0.015931735
69	0xbcf200e9	-0.02954145
70	0xbd0beab3	-0.034159373
71	0xbd6e63d2	-0.058200665
72	0x3c9fc840	0.019504666
73	0xbd9a9527	-0.0754798
74	0xbdc06e0b	-0.09395989
75	0x3cd4f41d	0.025995309
76	0x3d489f51	0.04898006
77	0x3c4fe430	0.0126886815
78	0x3abc22ff	0.0014353691
79	0xbcb1253a	-0.021624196
80	0xbc90f297	-0.0176938
81	0x3d9cad70	0.07650268
82	0xbd4fe07c	-0.050751194
83	0x3d41178b	0.047141593
84	0xbd0695a3	-0.03285755
85	0x3d13c60d	0.036077548
86	0x3d00c707	0.031439807
87	0x3af28c9c	0.001850504
88	0x3c80fc62	0.015745346
89	0xbd9014ee	-0.07035242
90	0x3c0de6f0	0.008661017
91	0x3c967fa0	0.018371403
92	0xbd8e6f48	-0.06954819
93	0x3cec3d2a	0.028837759
94	0xbbd887eb	-0.0066079996
95	0x3d34cd77	0.04414126
96	0x3daba0a1	0.08380247
97	0x3d16c4c0	0.03680873
98	0xbd36bffc	-0.044616684
99	0xbd563b2c	-0.052302524
100	0xbd23a904	-0.039956108
101	0x3cc1720c	0.023613952
102	0xbd1b86a9	-0.03797022
103	0x3dd9db1d	0.10637496
104	0xbc5e6816	-0.013574621
105	0x3da112c7	0.078649096
106	0xbcb8101f	-0.022468625
107	0xbae05d78	-0.00171177
108	0xbd62df21	-0.055388574
109	0x3cbdc970	0.023167342
110	0xbc80351c	-0.015650325
111	0xbbf2c5f1	-0.0074088504
112	0xbb429c0c	-0.0029695062
113	0x3c813b0f	0.015775232
114	0x3bf717ab	0.0075406632
115	0x3c05ba5d	0.008162108
116	0x3c8fde61	0.017562093
117	0xbce56bdf	-0.028005539
118	0x3c880529	0.016604023
119	0xbd163000	-0.03666687
120	0xbb8dad01	-0.004323602
121	0x3dc0a21f	0.09405922
122	0xbbc0e0be	-0.0058861664
123	0xbcd7acff	-0.026327608
124	0x3d838f4d	0.06423817
125	0xbce848fc	-0.028355114
126	0x3cd402bd	0.025880212
127	0x3d02ca07	0.03193095
128	0xbcc451a4	-0.02396471
129	0xbd976eb8	-0.07394165
130	0xbdc4f36a	-0.0961674
131	0xbcc63b4d	-0.024198199
132	0x3c3fe5b8	0.011712484
133	0x3d4b2e2f	0.04960459
134	0xbcaa5d4e	-0.020796444
135	0x3d01834d	0.03161936
136	0x3cd8aeea	0.026450593
137	0xbc07bd23	-0.00828484
138	0xbb064ffb	-0.002049445
139	0x3d590622	0.052984364
140	0xbca246eb	-0.019809207
141	0x3ce93d95	0.028471747
142	0x3c998e84	0.018744715
143	0xbb82c6d4	-0.0039909873
144	0xbca7058d	-0.020388389
145	0x3cd16433	0.025560474
146	0xbdad5212	-0.08462919
147	0x3cc3a5cf	0.023882775
148	0xbd60548c	-0.05476813
149	0xbb806548	-0.0039183237
150	0x3caa1cd7	0.020765705
151	0xbcd9d1f0	-0.026589364
152	0xbd25a6f3	-0.04044242
153	0x3d181c1f	0.037136193
154	0xbd968b9c	-0.07350847
155	0xbcb244be	-0.021761294
156	0x3c35e202	0.011101248
157	0xbd149a8b	-0.036280196
158	0xbceff8a2	-0.029293362
159	0xbd2a8ca7	-0.041638043
160	0x3ca61d65	0.020277688
161	0xbd174bb1	-0.03693742
162	0xbcac87d6	-0.021060865
163	0x3d71563b	0.058920126
164	0x3d0e7874	0.03478284
165	0x3ddb5b44	0.10710767
166	0xbd6b80fb	-0.057496052
167	0x3de71108	0.11282545
168	0x3c355ea1	0.011069925
169	0xbdfe10a8	-0.12405521
170	0x3d8d6e67	0.06905823
171	0x3cf565d0	0.029955775
172	0xbcca2169	-0.024674134
173	0x3c5d33ea	0.013501147
174	0xbd62894a	-0.05530671
175	0x3ce8b82f	0.028408138
176	0xbc4ec7cf	-0.01262088
177	0xbad81b1a	-0.0016487569
178	0x3b2bf564	0.0026238794
179	0x3cc498be	0.023998614
180	0x3cd1274b	0.025531432
181	0x3a3f3561	0.0007294026
182	0xbce76bbc	-0.028249614
183	0xbe0e85e6	-0.13918266
184	0xbd71ff99	-0.059081648
185	0x3cab1b58	0.020887062
186	0x3b8deafe	0.004330992
187	0xbdb0b8fa	-0.086290315
188	0xbdd81d4d	-0.10552464
189	0x3d6a533d	0.05720829
190	0xbc2f02a3	-0.010681781
191	0xbd78f403	-0.060779583
192	0x3d6fb426	0.058521412
193	0xbd57c53d	-0.052678335
194	0x3ca245cf	0.019808678
195	0x3c7e18a2	0.015508803
196	0xbd4c21e3	-0.049837004
197	0xbd756773	-0.05991311
198	0x3d6f37c2	0.058402784
199	0xbc0f8837	-0.0087605035
200	0x3c8ee87a	0.017444838
201	0xbb0a42e5	-0.0021097
202	0x3d145e75	0.036222894
203	0x3dc21787	0.09477144
204	0xbd57aed8	-0.05265698
205	0x3cf28caf	0.029608099
206	0xbccfb7ad	-0.025356138
207	0xbd91f2a2	-0.07126357
208	0xbadc5e56	-0.0016812782
209	0x3cdd7b92	0.027036462
210	0x3cc90020	0.024536192
211	0xbdabb5eb	-0.083843075
212	0xbd65b9f1	-0.05608553
213	0x3dccc4bd	0.09998462
214	0x3c81c693	0.015841758
215	0x3d55869d	0.05213033
216	0x3dc1cda3	0.0946305
217	0x3d9d69cb	0.07686194
218	0x3cf52b6e	0.029927935
219	0x3cb778d9	0.022396492
220	0xbd52576d	-0.051352907
221	0x3c233d02	0.009963276
222	0x3c076bda	0.00826546
223	0xbd01b5af	-0.031667408
224	0xbcea2442	-0.028581742
225	0xbd7bf985	-0.061517257
226	0x3c82f3dd	0.015985424
227	0xbd07c73a	-0.03314898
228	0xbcab2103	-0.020889765
229	0x3c5c3109	0.013439425
230	0xbc72630b	-0.0147941215
231	0x3b293c15	0.0025823165
232	0xbc845913	-0.016155755
233	0x3d59255d	0.053014148
234	0x3d3b8381	0.04577971
235	0x3d11bae8	0.03557864
236	0x3c78cd3e	0.015185652
237	0xbd84abd6	-0.064780876
238	0x3a508aeb	0.00079552707
239	0x3c151845	0.009100025
240	0x3d0b21c2	0.03396774
241	0xbca92d5f	-0.020651517
242	0x3c80d859	0.015728163
243	0xbd3a9d37	-0.045560088
244	0x3de072b4	0.10959378
245	0xbd0292a9	-0.031878147
246	0xbde07a16	-0.10960786
247	0x3a5d1f81	0.00084351754
248	0xbd1c8aca	-0.038218297
249	0xbde2d9ca	-0.11076696
250	0x3c9ba924	0.019001551
251	0x3d7a8810	0.061164916
252	0x3c631847	0.013860769
253	0xbdcaaa11	-0.09895719
254	0x3d0cdf16	0.03439244
255	0xbd0254c7	-0.03181913

layers1d.0.bias f4 [128]
0	0xbd3fd047	-0.046829488
1	0xbc305634	-0.01076274
2	0xbd874750	-0.06605399
3	0xbd3766a5	-0.044775624
4	0xbce7c6bb	-0.028293004
5	0xbd4aedbe	-0.049543135
6	0xbce1cad8	-0.027562544
7	0xbd80ecc1	-0.06295157
8	0xbd3fb03b	-0.046798926
9	0xbc8681b3	-0.016419267
10	0xbce4c73a	-0.02792703
11	0xbd8292bc	-0.063756436
12	0xbd0024fd	-0.031285275
13	0x3a04da51	0.0005067932
14	0xbc1ecd28	-0.009692468
15	0xbce5028a	-0.027955312
16	0xbd4e5ec7	-0.050383355
17	0xbd4b4570	-0.049626768
18	0xbc932ef4	-0.017966725
19	0xbc76863a	-0.015046651
20	0xbc06ac9c	-0.008219864
21	0xbd5f4946	-0.05451324
22	0xbc425276	-0.0118604805
23	0xbd524d1d	-0.051343072
24	0xbd501135	-0.05079766
25	0xbc3456b4	-0.011007
26	0xbd36b631	-0.044607345
27	0xbd36db6b	-0.044642847
28	0xbd448552	-0.047978707
29	0xbd799f7f	-0.060943123
30	0xbd3c9015	-0.046035845
31	0xbd2d98bd	-0.04238199
32	0xbcf7eb9c	-0.030263714
33	0xbc8cbf87	-0.017181171
34	0xbd96a307	-0.07355314
35	0xbd90ea35	-0.070759214
36	0xbd1c0cb3	-0.03809805
37	0xbd3d525f	-0.046221133
38	0xbd1f117e	-0.03883504
39	0xbd5f03ef	-0.05444711
40	0xbcac4dff	-0.021033285
41	0xbcea582d	-0.028606499
42	0xbd0ec468	-0.034855276
43	0xbc9d7413	-0.019220388
44	0xbd2c1683	-0.042013656
45	0xbd3043b6	-0.043033324
46	0xbc0fce7f	-0.00877726
47	0xbcf21e64	-0.029555507
48	0xbc95496e	-0.01822349
49	0xbd7a342a	-0.061084904
50	0xbd73f7dd	-0.059562553
51	0xbcfd7c4b	-0.030943057
52	0xbd879f20	-0.066221476
53	0xbca8e2c7	-0.020615948
54	0xbd90d0e8	-0.07071096
55	0xbd706bca	-0.058696546
56	0xbd04dcc6	-0.03243711
57	0xbcc2d909	-0.023785131
58	0xbbe3e538	-0.0069548152
59	0xbbf6636b	-0.0075191758
60	0xbd0619ce	-0.032739453
61	0x3a6c8e2d	0.00090238714
62	0xbd2aa14d	-0.041657735
63	0xbd581cee	-0.052761964
64	0xbd3c4c11	-0.04597098
65	0xbc551e34	-0.013007689
66	0xbd0e2fb1	-0.03471345
67	0xbcdc40ba	-0.026886333
68	0xbd23d94d	-0.040002156
69	0xbd0bdef3	-0.034148168
70	0xbd4d9ad2	-0.050196476
71	0xbd0bb9cb	-0.034112733
72	0xbc290111	-0.010315196
73	0xbc9b1227	-0.018929554
74	0xbd121ef1	-0.03567404
75	0xbd929330	-0.0715698
76	0xbcf7e9e7	-0.0302629
77	0xbd6cae08	-0.057783157
78	0xbd50b0c4	-0.050949827
79	0xbc5be39e	-0.013420967
80	0xbd63d9fc	-0.055627808
81	0xbc0f3eec	-0.008743029
82	0xbb180070	-0.002319362
83	0xbd44cdae	-0.048047714
84	0xbd726e23	-0.059187066
85	0xbd65f0a3	-0.056137692
86	0xbcf6e857	-0.030140085
87	0xbb0e67da	-0.002172938
88	0xbd70c02e	-0.058777027
89	0xbd18dd81	-0.037320618
90	0xbd813125	-0.06308202
91	0xbd905312	-0.070470944
92	0xbcfeb5f4	-0.031092621
93	0xbcdcb243	-0.02694047
94	0xbd4acc19	-0.04951105
95	0xbd4f83ec	-0.05066292
96	0xbd74006f	-0.059570726
97	0xbd454717	-0.0481635
98	0xbd7f7d6c	-0.06237547
99	0xbd457012	-0.04820258
100	0xbd19596f	-0.037438806
101	0xbd59796c	-0.053094313
102	0xbccba0a2	-0.02485687
103	0xbd37e624	-0.044897214
104	0xbc8d19d6	-0.017224234
105	0xbd1878fe	-0.037224762
106	0xbd67798d	-0.056512404
107	0xbd47563c	-0.048666224
108	0xbd1fff99	-0.039062116
109	0xbd4ae7a2	-0.04953731
110	0xbd844683	-0.064587615
111	0xbd40ee4b	-0.047102254
112	0xbd0e26d3	-0.034704994
113	0xbd5b678e	-0.053565554
114	0xbd5cc14a	-0.053895272
115	0xbd79ffdb	-0.06103502
116	0xbd0ee9ef	-0.034891065
117	0xbd3d0768	-0.04614964
118	0xbd37e8a7	-0.04489961
119	0xbc308c96	-0.010775706
120	0xbc20225a	-0.009773815
121	0xbc5ca2b1	-0.013466523
122	0xbd726bd2	-0.059184857
123	0xbbc7e570	-0.006100349
124	0xbd449967	-0.04799786
125	0xbc6d7616	-0.014493486
126	0xbc8353a3	-0.016031092
127	0xbd7ae125	-0.06124987

layers1d.3.weight f4 [128, 128]
0	0xbd6c5aef	-0.05770391
1	0xbc970578	-0.018435225
2	0x3d3be172	0.0458693
3	0x3dbd4d2d	0.09243236
4	0xbd9c4a08	-0.07631308
5	0x3b857469	0.004072715
6	0xbd24162f	-0.04006022
7	0x3db5f442	0.08884479
8	0xbd47b054	-0.048752144
9	0xbe1c754a	-0.15279117
10	0xbd2c2d9c	-0.042035684
11	0xbd13e5e7	-0.036107924
12	0x3db145eb	0.08655914
13	0xbda0def1	-0.07855023
14	0xbd059ff7	-0.032623257
15	0xbdabec84	-0.08394721
16	0xbd25234c	-0.040316865
17	0x3dccb76c	0.099959224
18	0xbd0b2661	-0.033972148
19	0xbd926b4d	-0.07149372
20	0x3d5abd3c	0.053403124
21	0x3e19961a	0.14998665
22	0x3c364c57	0.011126599
23	0xbc366426	-0.011132276
24	0xbe041025	-0.12896784
25	0xbd958fd9	-0.073028274
26	0x3cf0aacf	0.029378323
27	0xbd3cbeb3	-0.046080302
28	0xbdb27460	-0.08713603
29	0xbb6b1010	-0.0035867728
30	0x3e109a0f	0.14121269
31	0xbda36773	-0.07978716
32	0xbe1867d0	-0.14883351
33	0xbd21ec7d	-0.039532173
34	0x3dba52b7	0.09097808
35	0xbc436be3	-0.011927578
36	0x3c16e7a6	0.009210503
37	0xbe2d81be	-0.16944024
38	0xbe4d52e3	-0.2005115
39	0xbd79b425	-0.060962815
40	0xbdd84486	-0.10559945
41	0xbda136b4	-0.07871762
42	0xbc991cd5	-0.018690506
43	0xbdb39e48	-0.08770424
44	0x3d8d856a	0.06910212
45	0xbd948f53	-0.072538994
46	0xbd8312aa	-0.06400044
47	0x3c44c2bf	0.012009322
48	0x3daae30f	0.08344089
49	0xbd869912	-0.065721646
50	0x3cfa454a	0.030550618
51	0x3d1420e9	0.036164198
52	0x3d837633	0.06419029
53	0xbd83435a	-0.06409331
54	0xbc8462a8	-0.016160324
55	0xbe3ca23d	-0.18421264
56	0x3d9e7f1f	0.0773909
57	0x3c88b6b6	0.016688686
58	0x3d89a667	0.06721192
59	0xbe20e3c1	-0.15711881
60	0x3a606ff7	0.0008561606
61	0xbdf200ae	-0.11816536
62	0xbdafae0e	-0.0857812
63	0xbd22c4a7	-0.039738324
64	0xbd8ead09	-0.069665976
65	0xbcf7e3ca	-0.030259985
66	0xbda55366	-0.080725476
67	0x3c4fdffd	0.01268768
68	0xbd52733d	-0.05137943
69	0x3d9d2186	0.0767241
70	0xbdad731c	-0.08469221
71	0xbcbc6824	-0.022998877
72	0xbe0811bb	-0.13288014
73	0x3d9d61e5	0.076846875
74	0xbcd86909	-0.026417272
75	0xbda6b669	-0.08140261
76	0x39ff829a	0.00048734696
77	0xbe1642b1	-0.14673878
78	0xbd3e0dde	-0.046399944
79	0xbc53a99f	-0.012918859
80	0x3d30bfd3	0.043151688
81	0xbc9a1c57	-0.018812342
82	0x3d0a65ff	0.033788677
83	0xbdd8ace9	-0.10579855
84	0xbdd12b88	-0.10213381
85	0x3cce95da	0.02521794
86	0x3db7dce8	0.089776814
87	0x3c576a2f	0.013147875
88	0xbde7e03c	-0.11322066
89	0xbb93aaa4	-0.004506426
90	0x3e0a0ffe	0.13482663
91	0xbb985c18	-0.0046496503
92	0xbd810f51	-0.063017495
93	0x3d96558b	0.07340535
94	0xbe0831c6	-0.13300237
95	0xbe1585bb	-0.14601795
96	0xbdfd7c15	-0.123771824
97	0xbc4b57a7	-0.012411035
98	0x3dcc0baa	0.09963162
99	0xbe0615e2	-0.13094285
100	0xbdf03e63	-0.11730649
101	0xbe35081b	-0.17678873
102	0xbd472e07	-0.04862788
103	0x3bf2389f	0.0073920037
104	0x3d0f4fa4	0.03498806
105	0x3a073ab0	0.00051585864
106	0x3e0f3470	0.13984847
107	0x3dd2a639	0.10285611
108	0x3e0380b1	0.1284206
109	0xbc0ac964	-0.008470867
110	0x3e4dc4a1	0.20094539
111	0xbd2bc602	-0.04193688
112	0x3e53ac03	0.20671086
113	0xbdb06fbe	-0.08615063
114	0xbe06e18a	-0.13171974
115	0xbd94ed68	-0.07271844
116	0xbd11371b	-0.035452943
117	0xbe148f83	-0.1450787
118	0xbd240fef	-0.040054258
119	0x3c10e374	0.008843292
120	0xbd91df7b	-0.07122704
121	0xbdf0535c	-0.117346495
122	0x3e12ce64	0.14336544
123	0xbc93388a	-0.017971296
124	0xbdf787b1	-0.12086428
125	0xbd18a094	-0.037262514
126	0xbda0f219	-0.078586765
127	0xbd973121	-0.073824175
128	0x3de006f4	0.10938826
129	0xbe35fa04	-0.17771155
130	0x3dcf9d84	0.101374656
131	0x3e43450c	0.19069308
132	0x3b8c3b0c	0.0042795
133	0xbde2a351	-0.110663064
134	0xbd126260	-0.03573835
135	0x3d3503ab	0.04419295
136	0x3c813b18	0.015775248
137	0xbd682830	-0.05667895
138	0x3d492a7d	0.049112786
139	0xbd13e5e8	-0.036107928
140	0x3b443143	0.0029936589
141	0xbd86d73f	-0.06584024
142	0xbc55d721	-0.013051779
143	0xbddda9b2	-0.108233824
144	0x3cac15f4	0.021006562
145	0x3d5be7aa	0.05368773
146	0xbd5ff4c9	-0.054676805
147	0xbdbb45ca	-0.091441706
148	0xbca2edf9	-0.019888865
149	0x3dbfb9b7	0.09361594
150	0x3e09ff00	0.13476181
151	0xbe0651b6	-0.13117108
152	0xbdbdbf35	-0.092649855
153	0xbe069c19	-0.13145484
154	0x3d4aa5fc	0.0494747
155	0xbe55bd6d	-0.20873041
156	0xbdd25ff6	-0.10272209
157	0x3c182fc8	0.009288736
158	0x3defbea5	0.117062844
159	0xbe325164	-0.1741386
160	0xbddab62b	-0.10679277
161	0xbdbde9b8	-0.09273094
162	0x3ca2beea	0.019866426
163	0xbd8c647b	-0.06855103
164	0xbc398de8	-0.011325337
165	0xbb2e7852	-0.002662201
166	0xbd80bbcc	-0.062858194
167	0xbd3bc4c2	-0.04584194
168	0xbd85b288	-0.06528193
169	0xbde99136	-0.1140465
170	0x3c1769e9	0.00924156
171	0xbde5d290	-0.11221802
172	0x3d6c29cb	0.057657044
173	0xbe0a1036	-0.13482746
174	0xbdbb89e6	-0.091571614
175	0xbdc43e79	-0.09582228
176	0x3d8a61af	0.06756913
177	0xbd88f8c1	-0.06688071
178	0x3dfd0b80	0.12355709
179	0x3dba11a9	0.090854
180	0x3e0a2cf9	0.13493718
181	0x3d9ce264	0.07660368
182	0x3dac3742	0.08408977
183	0xbe2f7dc4	-0.1713782
184	0x3de72aa8	0.11287433
185	0x3d7e5c90	0.062099993
186	0xbc7226c3	-0.014779749
187	0xbdc581b5	-0.0964388
188	0x3c547bf0	0.012969002
189	0x3d79d7dd	0.06099688
190	0xbda8b4f2	-0.082376376
191	0x3de24064	0.11047438
192	0xbdd3eb9e	-0.10347675
193	0xbdf23a3a	-0.11827512
194	0xbd353acf	-0.044245537
195	0x3b1b9947	0.0023742483
196	0xbe0fb956	-0.14035544
197	0x3d17d065	0.037063975
198	0x3ccdf633	0.025141811
199	0x3d917ac3	0.07103493
200	0xbd324e62	-0.043531783
201	0xb9d55236	-0.00040687778
202	0xbded5cbe	-0.11589955
203	0x3d81afe0	0.063323736
204	0x3d8d0fd1	0.06887782
205	0xbd099b5f	-0.03359544
206	0xbd2fbcbe	-0.042904608
207	0x3da25547	0.079264216
208	0xbcdf30d1	-0.027244957
209	0xbc71d6f8	-0.014760725
210	0x3d849642	0.06473972
211	0x3a2db783	0.00066267716
212	0xbe0b5e62	-0.13610223
213	0xbc17e2b8	-0.009270363
214	0x3db81967	0.0898922
215	0x3dab7b28	0.083730996
216	0xbd811f04	-0.06304744
217	0x3d464733	0.048407745
218	0x3db0525e	0.0860946
219	0x3c9520e3	0.018204158
220	0xbdd5c457	-0.104378395
221	0x3de79ea9	0.11309559
222	0xbde8734e	-0.113501176
223	0xbdf335c0	-0.118754864
224	0xbe27154d	-0.1631672
225	0xbdaaa2a9	-0.08331806
226	0x3ce0a567	0.02742262
227	0xbe16031e	-0.14649627
228	0xbd5552ca	-0.052080907
229	0xbd89fc11	-0.06737531
230	0xbd88a6d8	-0.06672448
231	0x3d5112f8	0.05104348
232	0x3cc4ef66	0.024039935
233	0xbe0113b7	-0.12605177
234	0x3d8ed3a5	0.06973962
235	0x3df4b7e2	0.11949135
236	0xbd516f24	-0.051131383
237	0x3d23fb47	0.04003456
238	0x3e044ad6	0.12919173
239	0xbd1c766d	-0.038198877
240	0x3d7a6e25	0.0611402
241	0xbc9c3df8	-0.019072518
242	0xbe0dfa65	-0.13865049
243	0xbe016563	-0.12636332
244	0xbdd0173c	-0.101606816
245	0xbdb7ac5f	-0.08968424
246	0x3dd5a69e	0.1043217
247	0xbe107a13	-0.14109068
248	0xbd111f9b	-0.035430532
249	0xbd953c57	-0.072868995
250	0x3e2f348c	0.17109889
251	0xbdd28db2	-0.102809325
252	0xbe33d4a4	-0.17561585
253	0xbe5c2f2f	-0.21502374
254	0xbe46d7f6	-0.1941832
255	0xbe360f00	-0.1777916

layers1d.3.bias f4 [128]
0	0xbb4b3dc3	-0.0031012155
1	0xbb591562	-0.0033124317
2	0x3bc901ff	0.006134271
3	0xbc788780	-0.0151690245
4	0xbd08dfca	-0.033416547
5	0xbd497386	-0.049182437
6	0xbc118c0f	-0.00888349
7	0xbbe2e74e	-0.0069245463
8	0x3bceac6b	0.006307175
9	0xbc3b0aa0	-0.011416107
10	0x3bc3378b	0.005957549
11	0xbcc570f5	-0.024101714
12	0x3bfadc9d	0.0076556937
13	0x3b7b6336	0.0038358695
14	0xbcbc790e	-0.023006942
15	0xbc1f0039	-0.009704643
16	0xbc5bded6	-0.013419827
17	0xbceec573	-0.029146885
18	0xbc9cc5ba	-0.019137252
19	0xb9bde24c	-0.00036217493
20	0x3a50eb7c	0.000796966
21	0xbc1be04d	-0.009513927
22	0xbc9faf7f	-0.019492863
23	0xbc9960c8	-0.018722907
24	0x3c400d19	0.011721873
25	0x3b4a91e9	0.0030909723
26	0x3b2a2dba	0.0025967197
27	0x3c3b5794	0.0114344545
28	0x3c1d06ec	0.00958417
29	0xbc8a43b6	-0.01687799
30	0xbb8666ee	-0.0041016256
31	0x3bc36b12	0.0059636915
32	0xbd9859eb	-0.074390255
33	0xbb4f7316	-0.003165429
34	0xbd055061	-0.03254736
35	0xbc013855	-0.007886966
36	0x3a36ceb1	0.00069735484
37	0x3bd7c610	0.00658489
38	0x3bfe4cbe	0.007760613
39	0x3b9a48d8	0.0047083907
40	0xbc3dd98a	-0.01158751
41	0x3b6857bf	0.0035452691
42	0xbcc84d2b	-0.024450859
43	0xbd347101	-0.04405308
44	0x3c0931c7	0.008373684
45	0xbcbaddae	-0.022810783
46	0xbc9e161d	-0.019297654
47	0x3aee08b7	0.0018160556
48	0xbd07e311	-0.03317553
49	0x3ced7021	0.028984131
50	0x3ae54e3a	0.0017494627
51	0x3bcd564a	0.00626639
52	0xbca7e7b8	-0.020496234
53	0x3c922f90	0.017844945
54	0xbc660628	-0.014039554
55	0x3bb7424f	0.0055926214
56	0x3c0899a3	0.008337411
57	0xbce01e37	-0.027358158
58	0xbd436634	-0.04770489
59	0x3b6a4e3f	0.0035752205
60	0xbd313fb7	-0.043273654
61	0xbd2e0ae6	-0.042490862
62	0xbd01adf3	-0.03166003
63	0xbd44715c	-0.04795967
64	0xbc66706f	-0.014064892
65	0x3bcddc3a	0.0062823566
66	0x3c9cae07	0.019125951
67	0xbb32a583	-0.0027259297
68	0xbcf3b4bc	-0.029749267
69	0xbc3056ac	-0.010762852
70	0xbcf04cc9	-0.029333489
71	0xbd1775b4	-0.036977485
72	0x3c9fcc0a	0.019506473
73	0xbd01d7dc	-0.0317
74	0xbd2b4ca2	-0.04182113
75	0xbc7c6cb4	-0.015406776
76	0xbd25e3fa	-0.04050062
77	0xbcf93358	-0.03041999
78	0x3c6203ef	0.013794883
79	0xbbbf694c	-0.00584141
80	0xbcda61f5	-0.026658038
81	0xbba0597f	-0.0048934813
82	0xbcc3a555	-0.023882547
83	0x3c0b61e0	0.008507222
84	0x3b8d6b55	0.0043157735
85	0xbcefa72d	-0.02925452
86	0xbc31b2fd	-0.010845897
87	0xbcec0ebd	-0.028815622
88	0xbc8b7438	-0.01702319
89	0xbca744c5	-0.020418534
90	0x3ad74c45	0.0016425928
91	0xbbe39b1a	-0.00694598
92	0xbc15348b	-0.0091067655
93	0xbd44fc83	-0.048092376
94	0x3be52a97	0.0069936025
95	0xbc804f67	-0.015662862
96	0xbad3a6e1	-0.0016147756
97	0xbd08d848	-0.033409387
98	0xbb32e3ea	-0.0027296492
99	0x3c08b30c	0.008343469
100	0xbd3414fb	-0.04396532
101	0xbc8d5c94	-0.017256059
102	0xbc9ea0ff	-0.019363878
103	0xbd0d8e06	-0.034559272
104	0xbcf83d81	-0.030302765
105	0xbcaaf937	-0.020870788
106	0xba9c5c64	-0.001192939
107	0xbc454d38	-0.012042336
108	0xbc95c886	-0.018284094
109	0xbb9b5df6	-0.0047414256
110	0xbbb3ef49	-0.0054911715
111	0x3c44eb4f	0.012018993
112	0x3c51394d	0.012770009
113	0x39ed193b	0.0004522296
114	0xbb71f830	-0.0036921613
115	0xbd19a587	-0.037511375
116	0x3c830626	0.015994143
117	0xbd12b809	-0.03582004
118	0xbcd3e604	-0.025866516
119	0xbcfb2fd1	-0.03066245
120	0x3a2d1fbb	0.00066041545
121	0x3c92766e	0.017878737
122	0xbbd2e283	-0.0064356937
123	0xbc9be94f	-0.019032149
124	0xbc21dd80	-0.00987947
125	0xbbbcd6d3	-0.0057629137
126	0x3ba15ace	0.004924155
127	0xbba974e7	-0.0051714065

combined.0.weight f4 [64, 128]
0	0x3de6f3d9	0.11276979
1	0xbcb1ce62	-0.021704856
2	0xbe0c16d6	-0.13680586
3	0x3c60aa1f	0.013712435
4	0x3d573043	0.05253626
5	0x3c826d02	0.01592112
6	0xbc91fda8	-0.017821148
7	0x3df78f7e	0.12087916
8	0xbd8a2bce	-0.06746636
9	0x3d358b91	0.044322554
10	0xbd49be5e	-0.049253814
11	0xbe16697f	-0.14688681
12	0xbd8539c8	-0.065051615
13	0xbd0d20d4	-0.034455135
14	0xbcb0b674	-0.021571375
15	0xbdcde337	-0.100531034
16	0x3dcdfdb6	0.10058157
17	0xbd0ce99e	-0.034402482
18	0xbd2855c0	-0.041097403
19	0x3bf38296	0.0074313385
20	0xbd950827	-0.072769456
21	0xbd1be5af	-0.03806084
22	0xbc8c1452	-0.017099533
23	0x3da8116e	0.082064494
24	0xbc5a9275	-0.013340582
25	0x3d9e16c2	0.077191845
26	0x3d2926de	0.041296832
27	0xbd22c21c	-0.0397359
28	0xbb4bbc32	-0.0031087515
29	0xbd063e78	-0.03277442
30	0xbd0efe0e	-0.034910254
31	0x3d196639	0.037451003
32	0x3d715498	0.058918566
33	0x3d9c52d5	0.076329865
34	0x3c96f67c	0.01842808
35	0xbc91f8cc	-0.01781883
36	0x3df67863	0.12034681
37	0x3d13d23b	0.036089163
38	0xbd24b5e6	-0.040212534
39	0xbe3a3482	-0.18184093
40	0xbbd0cbc0	-0.006371945
41	0xbd0347e8	-0.032050997
42	0x3bbcd1eb	0.005762329
43	0x3dcd1f84	0.10015777
44	0xbd99361f	-0.07481026
45	0x3d95d15e	0.07315324
46	0x3caf391a	0.021389533
47	0xbe121f15	-0.1426967
48	0x3daaa373	0.08331957
49	0xbd995e60	-0.07488704
50	0xbba7a8bf	-0.0051165516
51	0x3c6ee43b	0.014580782
52	0xbe079689	-0.13241018
53	0x3cce7286	0.025201093
54	0x3b9a83b9	0.0047154096
55	0xbcd24370	-0.025666922
56	0xbdf56943	-0.11982968
57	0xbde84638	-0.11341518
58	0x3da7874f	0.08180105
59	0xbdba8935	-0.091082014
60	0xbdd42b17	-0.10359781
61	0x3d6ed54c	0.058308885
62	0x3d276211	0.040865008
63	0x3e001053	0.12506227
64	0xbe0bdff6	-0.13659653
65	0x3cc90769	0.024539666
66	0xbd4c6cab	-0.04990832
67	0xbdc4a796	-0.09602277
68	0xbc0f65f6	-0.008752337
69	0xbdeefb51	-0.116690286
70	0xbd3b13de	-0.045673244
71	0x3b485f29	0.0030574298
72	0x3ce1125a	0.027474571
73	0x3b950bfc	0.004548548
74	0xbd02eb63	-0.031962764
75	0x3e2640a7	0.162356
76	0x3dfdcde5	0.12392787
77	0x3d9916cb	0.074750505
78	0xbc4845e7	-0.012223697
79	0xbcc2ca1f	-0.02377802
80	0x3afe123b	0.0019384095
81	0x3e04980a	0.12948623
82	0x3de6f5d7	0.11277359
83	0xbc79e2c6	-0.015251821
84	0xbdb895d7	-0.09012955
85	0xba34f2bc	-0.00069026253
86	0x3d135835	0.035972793
87	0x3b2e7120	0.002661772
88	0x3cdf1029	0.027229385
89	0x3d300112	0.04296977
90	0x3c5d9e7f	0.013526558
91	0x3cb34e26	0.02188785
92	0xbdebeb63	-0.11519506
93	0xbd003a20	-0.031305432
94	0xbd0421d7	-0.032258835
95	0x3c95a7ef	0.018268554
96	0xbdc57819	-0.096420474
97	0x3e0cd8f5	0.13754638
98	0x3c41fc8d	0.011839998
99	0xbd28f751	-0.041251484
100	0xbcb10ec3	-0.021613484
101	0x3df4c54b	0.11951693
102	0x3df11d07	0.11773115
103	0x3d057982	0.032586582
104	0x3d953df6	0.07287209
105	0x3d7295c4	0.05922486
106	0x3d8b4705	0.06800655
107	0x3da963a7	0.0827096
108	0xbdc10a86	-0.09425835
109	0xbd8cc125	-0.06872777
110	0x3c84eecc	0.016227148
111	0x3d3a3cae	0.045468025
112	0xbb0ba743	-0.0021309413
113	0x3ce763e5	0.028245876
114	0xbd6bb25e	-0.05754315
115	0x3dcd8e62	0.10036923
116	0x3c85e63b	0.016345134
117	0x3c1f1991	0.009710685
118	0x3d9a7a61	0.07542873
119	0x3d94a436	0.07257883
120	0xbc24fba6	-0.010069763
121	0xbdd5450b	-0.104135595
122	0xbc8a017e	-0.016846415
123	0x3baa40b9	0.005195704
124	0xbd95db42	-0.07317211
125	0x3d0a3edc	0.033751354
126	0x3c12eb78	0.008967273
127	0x3d8fe94f	0.07026922
128	0x3cf23363	0.029565519
129	0xbcd962b7	-0.026536329
130	0x3dbc2f33	0.0918869
131	0x3b8c4f4a	0.004281913
132	0xbdac363a	-0.084087804
133	0xbd7131b2	-0.058885284
134	0xbdadb691	-0.084820874
135	0xbd74180f	-0.059593257
136	0x3d6f28a8	0.058388382
137	0x3dcb0a09	0.099140234
138	0x3dabe654	0.08393541
139	0xbcb6c272	-0.022309516
140	0x3cd40104	0.02587939
141	0x3d785945	0.06063201
142	0x3dd43208	0.10361105
143	0x3d2962a3	0.041353833
144	0xbdbed6c0	-0.09318304
145	0x3bd2d581	0.006434143
146	0xbcdff89e	-0.02734023
147	0x3dc774aa	0.09739049
148	0x3bc09801	0.0058774953
149	0x3ce663ed	0.02812382
150	0xbd348246	-0.04406955
151	0xbd1cf95c	-0.038323745
152	0xbb4ebcdb	-0.0031545672
153	0xbd30e880	-0.04319048
154	0x3d6b8d1b	0.057507616
155	0x3d634b59	0.05549178
156	0x3ce20efe	0.02759504
157	0xbd951640	-0.072796345
158	0xbd7fb45b	-0.06242786
159	0xbd15e179	-0.03659198
160	0x3c0bc011	0.008529679
161	0xbdf4557e	-0.11930369
162	0x3c4cfae2	0.012510987
163	0x3dee1359	0.11624784
164	0x3cfd0f62	0.030891124
165	0xbd0501a8	-0.032472283
166	0x3dd1c535	0.102426924
167	0x3d2bc984	0.041940227
168	0x3c97180b	0.018444082
169	0x3dab49f7	0.08363717
170	0xbda8d103	-0.08242991
171	0xbd70a294	-0.058748797
172	0xbc79a2f1	-0.015236602
173	0xbc8084f2	-0.015688393
174	0x3db9f2dd	0.090795256
175	0x3dd3457e	0.10315989
176	0x3d9a4895	0.07533375
177	0x3dd4fcfb	0.10399815
178	0x3bd2c207	0.0064318213
179	0x3cf9f064	0.030510135
180	0x3b9ee7ad	0.0048493952
181	0xbc089291	-0.008335725
182	0xbd6c77fb	-0.05773161
183	0xbdbaa7b7	-0.0911402
184	0x3da51dca	0.080623224
185	0x3d82bd3c	0.0638375
186	0xbca40793	-0.020023143
187	0x3d3b49cd	0.04572468
188	0x3daa749d	0.083230235
189	0xbca9c0b2	-0.020721767
190	0x3d96c651	0.073620446
191	0xbd9ef797	-0.07762068
192	0x3d0c9335	0.034320075
193	0x3d8d6f2f	0.06905972
194	0x3df523e6	0.11969738
195	0xbd2a8b3a	-0.041636683
196	0xbdaa2038	-0.083069265
197	0x3d37342b	0.044727486
198	0xbc5e5a45	-0.013571327
199	0xbd2f66c2	-0.042822607
200	0x3d7b8940	0.06141019
201	0xbd512775	-0.05106302
202	0xbc5c2ba8	-0.013438143
203	0x3cd02108	0.025406376
204	0x3d2ec27d	0.042665947
205	0xbd81b51f	-0.06333374
206	0xbc972c3a	-0.018453706
207	0xbd991226	-0.07474165
208	0x3cadc505	0.02121211
209	0xbda9c13f	-0.08288812
210	0xbcd655c7	-0.026163949
211	0xbd9ba7f3	-0.07600393
212	0xbd30dc1b	-0.04317866
213	0xbcafc442	-0.021455888
214	0xbdbeeab9	-0.093221135
215	0x3e1f555e	0.15559909
216	0x3d8d1e9c	0.06890604
217	0x3d8775ed	0.066142894
218	0x3dd188f6	0.10231201
219	0xbdaa4713	-0.083143376
220	0xbcc366bb	-0.023852697
221	0x3c8b4324	0.016999789
222	0x3dc3b1aa	0.09555371
223	0x3dd88ffc	0.10574338
224	0x3d1b113e	0.03785824
225	0xbc8fbe20	-0.017546713
226	0x3c3e8025	0.011627232
227	0xbdc71354	-0.097204834
228	0xbc253f51	-0.010085897
229	0xbcc0c578	-0.02353166
230	0x3d0304f6	0.031987153
231	0xbd9846e4	-0.07435396
232	0xbe04bc6b	-0.12962501
233	0x3dc28cc3	0.094995044
234	0xbd2c2f97	-0.042037573
235	0xbc6af8ea	-0.014341572
236	0x3da900a9	0.08252079
237	0x37f73367	2.946863e-05
238	0x3cee54ee	0.029093232
239	0xbd5d9bbd	-0.0541036
240	0xbae4d4ba	-0.0017458417
241	0xbd5a8505	-0.053349514
242	0x3c7a2e93	0.015269893
243	0xb9c30c14	-0.00037202297
244	0xbbed6d7a	-0.0072457166
245	0x3dc5413c	0.09631583
246	0xbbae294d	-0.005314982
247	0xbd8247ec	-0.06361374
248	0x3d0e75b0	0.034780204
249	0xbd343601	-0.043996815
250	0x3c88efb9	0.016715871
251	0xbc856980	-0.016285658
252	0x3d70ee49	0.058820996
253	0xbd52ce88	-0.051466495
254	0x3dafe124	0.08587864
255	0x3da38eca	0.07986219

combined.0.bias f4 [64]
0	0x3cac657a	0.021044482
1	0x3dbddd52	0.09270729
2	0x3c79415e	0.015213339
3	0x3cb26b63	0.021779722
4	0x3d3dd2fc	0.04634379
5	0x3d291c9e	0.041287057
6	0x3c2843b5	0.010270049
7	0x3d001a76	0.031275235
8	0x3d34edf0	0.044172227
9	0xbccdb343	-0.025109893
10	0x3d18871e	0.037238233
11	0x3cf7c238	0.030243978
12	0x3d41bd92	0.04729993
13	0x3d4cad49	0.049969945
14	0x3d368632	0.044561572
15	0x3d9270e2	0.07150437
16	0x3d07099c	0.03296815
17	0x3d124e5c	0.03571926
18	0x3d4d3f9a	0.050109483
19	0x3d0faebe	0.035078757
20	0xbd3c126d	-0.04591601
21	0xbcc25c6d	-0.023725713
22	0x3d9288ea	0.071550205
23	0xbb744ffd	-0.0037279122
24	0x3d528ea2	0.051405556
25	0x3d5a6497	0.053318586
26	0x3d42ea92	0.047586985
27	0xbc000263	-0.007813069
28	0x3d31c778	0.04340312
29	0x3d97ef23	0.074186586
30	0x3d7d84d0	0.061894238
31	0x3d3f9727	0.04677501
32	0x3d12847b	0.035770874
33	0x3cf48d27	0.029852463
34	0x3d340428	0.043949276
35	0x3c2b82c6	0.010468191
36	0x3d8993d6	0.067176506
37	0x3d02c4fd	0.031926144
38	0x3da62588	0.08112627
39	0x3d54c994	0.051950052
40	0x3d09b9b5	0.03362437
41	0x3d535ffa	0.051605202
42	0x3d2b716d	0.041856218
43	0x3d0a975a	0.033835746
44	0x3d143764	0.036185637
45	0x3d06f0ec	0.032944605
46	0x3d2a1160	0.041520476
47	0x3daa9410	0.08329022
48	0xbcd2eeb2	-0.025748584
49	0x3d061207	0.032732036
50	0x3d212056	0.03933748
51	0x3d6277b5	0.055289943
52	0x3d3f20c1	0.046662096
53	0x3d494c41	0.049144987
54	0x3d6eac38	0.05826971
55	0x3d675759	0.056479786
56	0x3d7ff55d	0.062489856
57	0xbcb2eeb4	-0.021842338
58	0xbcc3c901	-0.023899557
59	0xbcb6c579	-0.02231096
60	0x3d58f81d	0.052970994
61	0x3cd48e8f	0.025946883
62	0x3d0592a0	0.032610536
63	0x3d7bfd36	0.061520778

combined.3.weight f4 [64, 64]
0	0xbdb4e0b6	-0.08831923
1	0x3e0c8e39	0.13726129
2	0xbb8d6355	-0.00431482
3	0xbdee6d8f	-0.116419904
4	0x3d6d770e	0.057974868
5	0xbe850dbe	-0.25987047
6	0x3d36ffc0	0.044677496
7	0x3cf66d8b	0.030081531
8	0xbd9af657	-0.07566517
9	0xbda44e7e	-0.08022784
10	0x3db3c5b5	0.08777944
11	0xbe956e37	-0.2918565
12	0xbc379b40	-0.011206448
13	0x3b9a91ed	0.0047171027
14	0xbea2f816	-0.318299
15	0x3cb2147c	0.021738283
16	0xbde2baf7	-0.11070817
17	0x3d3c3bd3	0.04595549
18	0xbea173c9	-0.3153365
19	0xbb993871	-0.004675918
20	0x3baafb2f	0.0052179317
21	0x3df1099d	0.11769412
22	0xbe88c272	-0.2671085
23	0xbd367dc3	-0.04455353
24	0x3c8a29a9	0.016865568
25	0xbe269c45	-0.1627055
26	0xbe8c68ef	-0.27423808
27	0xbdc60d02	-0.0967045
28	0xbe879e1d	-0.26487818
29	0xbe4a3dd9	-0.19750156
30	0xbe426d1b	-0.18986933
31	0xbdbb6764	-0.091505796
32	0x3d58a771	0.05289406
33	0x3d0e3237	0.034715857
34	0xbd3fff4e	-0.046874337
35	0xbd7ce5f9	-0.061742757
36	0xbe42864b	-0.18996541
37	0xbe3da35f	-0.18519352
38	0xbe559ec4	-0.20861346
39	0xbda27d84	-0.079340965
40	0x3c8bb4c7	0.017053975
41	0xbe99f092	-0.30066353
42	0xbd0e04e7	-0.034672644
43	0xbd10fa70	-0.035395086
44	0xbe5cd49a	-0.21565476
45	0x3d14b67b	0.03630684
46	0xbd1f6659	-0.038915966
47	0x3d425ec6	0.047453664
48	0xbdf31ef7	-0.118711405
49	0xbd53581d	-0.051597703
50	0xbeba8037	-0.36425945
51	0xbd25a598	-0.040441126
52	0x3cef2b44	0.029195435
53	0x3d8f3994	0.06993404
54	0xbe8f826b	-0.2802919
55	0xbe8a68f3	-0.27033195
56	0x3da3685d	0.0797889
57	0x3bf06223	0.0073359176
58	0xbcf285d3	-0.029604828
59	0xbe5743b2	-0.21021917
60	0xbeaa8999	-0.33308104
61	0xbc92c434	-0.017915823
62	0xbe3dfbb2	-0.18553045
63	0xbe8c0049	-0.27343968
64	0xbe820df2	-0.25401264
65	0xbcbcad9e	-0.023032006
66	0x3d543f63	0.051818263
67	0xbe8e1d0e	-0.27756542
68	0xbc370af6	-0.011172047
69	0xbe16ad7a	-0.14714614
70	0x3cf9f266	0.030511092
71	0x3d21faf1	0.039545957
72	0x3c7799a6	0.015112316
73	0x3d11f3f6	0.03563305
74	0x3d66f6e8	0.056387812
75	0xbe5425a8	-0.2071749
76	0x3db32a01	0.08748246
77	0x3d649cd4	0.055813625
78	0xbe7bc14c	-0.24585456
79	0xbcf895bf	-0.030344842
80	0xbeaf2177	-0.3420522
81	0x3e3b25f9	0.18276204
82	0xbe8a821c	-0.2705239
83	0x3ceea023	0.029129094
84	0x3cfef575	0.031122902
85	0xbd99aced	-0.07503686
86	0xbdadf22b	-0.084934555
87	0xbe01000d	-0.12597676
88	0x3cfb5712	0.030681167
89	0xbde7a327	-0.11310416
90	0xbe84194c	-0.2580055
91	0xbe4b9aee	-0.1988332
92	0xbe8a5d20	-0.27024174
93	0xbdfb1785	-0.12260345
94	0xbe5d46ee	-0.21609089
95	0xbc386296	-0.0112539735
96	0x3de3e8e1	0.111284025
97	0xbccf13bc	-0.025277965
98	0xbd28bf67	-0.04119816
99	0xbe952957	-0.29133102
100	0xbe0abfae	-0.13549682
101	0xbe7e3058	-0.24823129
102	0xbdcf2c70	-0.10115898
103	0xbd87da5f	-0.06633448
104	0x3b824d24	0.003976481
105	0xbe31affa	-0.17352286
106	0x3ddfd3cd	0.1092907
107	0x3e0b6819	0.13613929
108	0xbe84b697	-0.25920555
109	0x3dacbdcd	0.08434639
110	0x3c5eca33	0.013598013
111	0xbd63d51d	-0.055623163
112	0xbe26b4de	-0.16279933
113	0xbc9e911a	-0.0193563
114	0xbe29f7c8	-0.16598427
115	0xbd1ac6c4	-0.037787214
116	0x3dbe851f	0.093027346
117	0x3db051fa	0.08609386
118	0xbd8e7114	-0.06955162
119	0xbc956aa0	-0.01823932
120	0xbda686aa	-0.08131154
121	0xbe7f5434	-0.24934465
122	0x3d295c3c	0.041347727
123	0xbe4f65fe	-0.2025375
124	0xbdb74a56	-0.08949725
125	0xbd2cfc10	-0.042232573
126	0xbeaf0269	-0.34181526
127	0xbe4845d1	-0.19557883
128	0xbd82117f	-0.06350993
129	0xbd12d08c	-0.035843417
130	0xbe5295e6	-0.20564994
131	0x3dbfb1c4	0.09360078
132	0x3c3ee50f	0.0116512915
133	0x3d7b26c3	0.061316263
134	0xbe3fe068	-0.18737948
135	0xbe0bdbbf	-0.13658045
136	0xbe20fd27	-0.1572157
137	0x3af2cc77	0.001852407
138	0xbce133ef	-0.027490584
139	0x3cb87909	0.022518652
140	0xbe2c0695	-0.16799386
141	0xbdccb670	-0.09995735
142	0xbbcc8d6a	-0.006242444
143	0xbc825dfa	-0.015913952
144	0x3c10616a	0.008812288
145	0xbe3c5850	-0.18393064
146	0xbc6d9dfb	-0.0145029975
147	0xbe35f5aa	-0.17769495
148	0xbddcd32b	-0.107824646
149	0x3d1c2b92	0.03812749
150	0xbc75d8bb	-0.015005286
151	0xbba47f4b	-0.0050200573
152	0xbdf7697b	-0.12080666
153	0x3ca358c4	0.019939788
154	0x3ddd04f2	0.10791959
155	0x3de26d13	0.110559605
156	0x3d6d4109	0.05792335
157	0xbcb13d17	-0.021635575
158	0x3c9b53a5	0.018960783
159	0xbd3324da	-0.043736316
160	0xbdb0cbf9	-0.08632655
161	0xbe892d09	-0.26792172
162	0xbda5160d	-0.080608465
163	0x3d884374	0.06653491
164	0xbbae9e8e	-0.00532896
165	0x3cc8c138	0.024506196
166	0x3d3f3b4c	0.04668741
167	0x3d92b216	0.071628734
168	0xbde4067e	-0.11134051
169	0x3d3b6dcd	0.04575901
170	0xbe2ac374	-0.16676122
171	0xbe9cf20d	-0.3065342
172	0xbd726349	-0.059176717
173	0xbe2b518d	-0.16730328
174	0xbe59b40e	-0.21260092
175	0x3aea8f0c	0.0017895414
176	0x3c8ed405	0.017435083
177	0xbe47c283	-0.19507794
178	0x3ca789be	0.020451423
179	0xbe535a91	-0.20640017
180	0xbe7093da	-0.23493901
181	0xbc819658	-0.01581876
182	0xbd47bceb	-0.04876415
183	0xbd31d5c1	-0.043416742
184	0xbe05535f	-0.13020085
185	0x3d9a9791	0.0754844
186	0xbcbb163d	-0.022837752
187	0x3d96f2c5	0.07370523
188	0xbd1905b6	-0.037358962
189	0xbe334ec3	-0.17510514
190	0x3c9f9b70	0.019483298
191	0x3d14cbfc	0.036327347
192	0xbbce9140	-0.0063039362
193	0xbe8c5479	-0.27408198
194	0xbe4f7cf4	-0.2026251
195	0x3d881a9a	0.06645699
196	0xbe55bbb0	-0.20872378
197	0x3d3692e5	0.044573683
198	0xbe87716d	-0.26453725
199	0xbe22f378	-0.15913188
200	0xbe77c375	-0.24195655
201	0x3d968d96	0.07351224
202	0xbe960d02	-0.293068
203	0xbdb2eda7	-0.08736735
204	0xbe88d532	-0.26725155
205	0xbe8a062b	-0.2695783
206	0xbd68ae5a	-0.0568069
207	0xbea0717f	-0.3133659
208	0x3d8377d3	0.06419339
209	0xbdb5f472	-0.08884515
210	0x3d9ebe0d	0.07751093
211	0xbea7d5ae	-0.32780212
212	0xbdc8a6e4	-0.09797457
213	0x3e05793e	0.13034531
214	0x3d77d44b	0.060505193
215	0x3d187663	0.037222277
216	0xbea3864d	-0.319384
217	0xbd69751a	-0.056996442
218	0x3d709b65	0.058741946
219	0xbd6bc639	-0.057562087
220	0xbca61e4f	-0.020278124
221	0x3cb562a4	0.022141762
222	0x3d2bad87	0.041913535
223	0xbea00f27	-0.3126156
224	0xbe56f3d7	-0.20991455
225	0xbe0b499d	-0.136023
226	0xbea88061	-0.32910445
227	0x3d967d72	0.073481455
228	0x3d5a0b44	0.0532334
229	0x3d47ed74	0.048810437
230	0x3c898b0a	0.016789932
231	0xbbabbbba	-0.0052408846
232	0xbdcc6b97	-0.09981459
233	0xbdcc9b7e	-0.09990595
234	0xbe891060	-0.26770306
235	0xbe4ac195	-0.19800408
236	0x3c0b327b	0.008495922
237	0xbe8903f5	-0.2676083
238	0xbe220c93	-0.15825109
239	0xbe8c91d9	-0.27455023
240	0xbde4e785	-0.11176971
241	0xbd9a9371	-0.075476535
242	0x3d2d3c39	0.04229376
243	0xbe90b318	-0.28261638
244	0xbdefdb3e	-0.11711739
245	0xbe4bc9f1	-0.19901253
246	0xbcad6bb2	-0.021169517
247	0x3de8047d	0.11328981
248	0xbe8d80e0	-0.27637386
249	0x3d93cdd3	0.07216992
250	0xbc5793fb	-0.01315784
251	0x3cf03189	0.029320495
252	0x3d807e16	0.06274049
253	0xbe8af715	-0.27141634
254	0xbd92f168	-0.07174951
255	0xbdc7ab4b	-0.097494684

combined.3.bias f4 [64]
0	0x3dc90a37	0.098164015
1	0x3e28f510	0.16499734
2	0x3e0ed9cd	0.13950272
3	0x3deab993	0.11461177
4	0x3e4ae542	0.19814017
5	0x3e0e2dd7	0.13884674
6	0x3dbe775a	0.09300108
7	0x3deaa101	0.1145649
8	0x3dd80018	0.10546893
9	0x3e067bdc	0.13133186
10	0x3e0b9a36	0.13633046
11	0x3e2abea4	0.16674286
12	0x3da5d6f0	0.08097637
13	0x3e16754c	0.14693183
14	0x3dee7ed3	0.116452836
15	0x3dfa41e4	0.12219599
16	0x3e1393b7	0.14411817
17	0x3e20eabb	0.15714543
18	0x3dfa26e4	0.12214449
19	0x3df5e331	0.12006224
20	0x3df94e7f	0.12173175
21	0x3e03a6c9	0.12856592
22	0x3dd52107	0.1040669
23	0x3e43dc8e	0.19127104
24	0x3e26cfee	0.16290256
25	0x3df2c484	0.11853889
26	0x3df5fb5a	0.12010832
27	0x3e05a346	0.13050565
28	0x3dfb7192	0.12277521
29	0x3e13a3c1	0.14417936
30	0x3e2c411a	0.1682171
31	0x3dffcff4	0.12490836
32	0x3e03a78c	0.12856883
33	0x3e1cca34	0.1531151
34	0x3dec48be	0.11537312
35	0x3dc9e339	0.098577924
36	0x3e0acea9	0.13555397
37	0x3e0855c4	0.13313967
38	0x3dfffaab	0.12498983
39	0x3e20a7c6	0.15689
40	0x3e0e6351	0.13905074
41	0x3e139adf	0.14414547
42	0x3de92076	0.113831446
43	0x3e0cbb07	0.1374322
44	0x3e169415	0.14704926
45	0x3e0d512e	0.13800499
46	0x3e00dd10	0.12584329
47	0x3e1771c4	0.14789492
48	0x3e0d3370	0.13789153
49	0x3e23d26e	0.15998241
50	0x3e1b68ab	0.15176646
51	0x3e066db7	0.1312779
52	0x3dfe3a0f	0.124134175
53	0x3de33446	0.11093955
54	0x3e0a3c39	0.13499536
55	0x3de852a0	0.113438845
56	0x3e08db37	0.13364874
57	0x3e01e54a	0.12685123
58	0x3d812675	0.06306163
59	0x3e105e8e	0.1409857
60	0x3e11c5ae	0.14235565
61	0x3de3bc69	0.11119921
62	0x3ddf4ee6	0.109037206
63	0x3e457f45	0.1928683

combined.6.weight f4 [1, 64]
0	0x3d722e52	0.059126206
1	0x3d2da360	0.042392135
2	0xbd4e4c0c	-0.050365493
3	0xbdc9741f	-0.098366015
4	0xbd124996	-0.03571471
5	0xbd1c6d25	-0.038190026
6	0x3d19aae2	0.037516482
7	0x3d8e3db4	0.06945363
8	0x3d0b0a55	0.0339454
9	0xbd3e8c1a	-0.04652033
10	0xbd654830	-0.055977046
11	0xbd63a30e	-0.055575423
12	0x3d35e942	0.044411905
13	0x3d78d501	0.06075001
14	0x3d2ae80d	0.041725207
15	0x3d2076fb	0.03917597
16	0x3d4c1ca0	0.049831986
17	0x3d1800da	0.037110187
18	0x3df93159	0.121676154
19	0xbdd32c9e	-0.103112444
20	0xbd62c7e7	-0.055366423
21	0x3d3748f1	0.044747297
22	0x3d6f2b98	0.058391184
23	0xbd1bcb22	-0.03803552
24	0xbd69c461	-0.057072047
25	0x3d81292f	0.06306683
26	0x3cc500cb	0.02404823
27	0xbda926ec	-0.08259377
28	0x3d3b22e1	0.04568756
29	0x3d39310a	0.045212783
30	0xbd7ae98c	-0.061257884
31	0xbd073189	-0.033006225
32	0xbdabfb7e	-0.08397578
33	0x3d6ebeb2	0.05828733
34	0x3d9ee44e	0.077583894
35	0xbd75b27c	-0.05998467
36	0xbd412759	-0.047156665
37	0x3d29733e	0.04136967
38	0xbd814eca	-0.06313856
39	0x3d5af7ce	0.05345898
40	0xbd410833	-0.04712696
41	0xbd2d2cc8	-0.042279035
42	0xbd2bca2d	-0.041940857
43	0xbd72cd01	-0.05927754
44	0x3d29a916	0.04142102
45	0xbd1c1d9b	-0.03811417
46	0x3da5120e	0.08060084
47	0x3d56554f	0.05232745
48	0xbd649b2c	-0.055812046
49	0x3d26af26	0.04069438
50	0xbd89e4d2	-0.06733097
51	0xbd2a7df9	-0.041624043
52	0x3d4ad1f1	0.049516622
53	0xbd97eacf	-0.07417833
54	0xbd295381	-0.0413394
55	0x3d49d41e	0.049274556
56	0xbd86173d	-0.06547401
57	0x3d1fc880	0.03900957
58	0x3d9a3891	0.075303204
59	0xbd98f10c	-0.07467851
60	0x3d165c77	0.036709275
61	0xbdb3f91f	-0.087877505
62	0x3dda61fc	0.1066322
63	0xbd723c86	-0.05913975
