data/models/nov12_24_undersample/fold1_epoch_models/epoch_13_model.pt (torch, 775579 bytes, 9 tensors)

layers1d.0.weight f4 [128, 1280]
0	0xbd864354	-0.065558106
1	0x3d8caa7c	0.06868455
2	0xbd7e1c12	-0.06203849
3	0x3ccc036b	0.024903974
4	0x3cb4d131	0.022072406
5	0xbd1f615b	-0.038911205
6	0x3da7edc2	0.081996456
7	0x3d09614d	0.03354006
8	0xbbd473a0	-0.00648351
9	0xbb8b9a77	-0.004260357
10	0xbd60a79b	-0.05484734
11	0x3d79e96d	0.061013628
12	0xbccf9e0f	-0.025343923
13	0x3c85c5aa	0.016329605
14	0xbd15eb75	-0.036601502
15	0x3d526e12	0.051374502
16	0x3cfbe403	0.030748373
17	0x3daf9545	0.08573393
18	0x3deb2c82	0.114830986
19	0x3d534f31	0.051589195
20	0xbe2a3b65	-0.1662422
21	0x3d8fc27c	0.07019517
22	0xbd2f06f2	-0.042731233
23	0x3d83ac2f	0.06429326
24	0x3cbeb8fb	0.023281565
25	0x3c08daaf	0.0083529195
26	0x3cd3794d	0.025814677
27	0x3cd93044	0.026512273
28	0xbcc89b83	-0.024488216
29	0x3dbca976	0.092120096
30	0xbccb6a24	-0.024830885
31	0xbb3f01c7	-0.0029145346
32	0xbda5ff45	-0.081053294
33	0xbd1148c3	-0.03546978
34	0xbc686376	-0.01418387
35	0xbdeb292f	-0.114824645
36	0x3d7a5e42	0.061125048
37	0xbd8fedec	-0.07027802
38	0xbc2ff2ae	-0.010739012
39	0xbdb56c4b	-0.08858546
40	0xbd873820	-0.06602502
41	0x3d6365a6	0.05551686
42	0x3cebc3af	0.028779833
43	0xbdad62db	-0.08466121
44	0xbd49da33	-0.049280357
45	0x3d3ca3c6	0.046054624
46	0x39a70833	0.0003185883
47	0xbd3726ce	-0.04471474
48	0x3c851200	0.016243935
49	0x3d93de6a	0.072201565
50	0xbd99aa55	-0.075031914
51	0xbcd163f5	-0.025560359
52	0xbca2c420	-0.01986891
53	0x3db0388f	0.08604538
54	0xbc398401	-0.011322976
55	0xbd5855df	-0.052816268
56	0x3cd7c8ba	0.026340831
57	0xbcd78468	-0.026308253
58	0x3c04c737	0.008104137
59	0x3e016fc7	0.12640296
60	0xbc78d8e4	-0.0151884295
61	0xbb0be3a0	-0.0021345392
62	0x3d2f8489	0.042851005
63	0xbddd90ff	-0.108186714
64	0x3ad95ec1	0.0016584025
65	0x3c858fab	0.016303858
66	0x3d71c390	0.059024394
67	0xbbd0b3c2	-0.006369085
68	0x3d224655	0.039617855
69	0xbd9478af	-0.07249581
70	0x3c664eff	0.01405692
71	0xbd5484e9	-0.051884566
72	0xbceb6534	-0.02873478
73	0x3c685cf5	0.014182319
74	0xbdc3480b	-0.095352255
75	0xbc925247	-0.017861499
76	0x3cccf9c6	0.025021445
77	0x3d709aeb	0.05874149
78	0xbcdef8df	-0.02721828
79	0x3da1f1d7	0.079074554
80	0x3d4d24b7	0.050083842
81	0xbcbef9b5	-0.023312429
82	0xbba15d34	-0.0049244408
83	0x3d96618e	0.07342826
84	0x3cb9a024	0.022659369
85	0x3d279c13	0.04092033
86	0xbd8b27c6	-0.067946956
87	0x3c461e1d	0.0120921405
88	0x3ca1eeaf	0.019767134
89	0xbcd63cf2	-0.026152108
90	0x3d194972	0.03742356
91	0x3e102d55	0.14079793
92	0x3d0b12e2	0.033953555
93	0x3d024a7f	0.031809326
94	0x3d43192d	0.04763143
95	0x3e00c777	0.1257609
96	0x3cbd54db	0.023111751
97	0xbc7074f5	-0.014676322
98	0xbc269353	-0.010166961
99	0x3ce69770	0.028148383
100	0x3d07fa7f	0.033197876
101	0xbc98b268	-0.018639758
102	0x3b49c2cb	0.0030786272
103	0xbd024dd2	-0.031812496
104	0x3c45694b	0.01204903
105	0x3d6e1cbb	0.05813287
106	0x3d3286f6	0.04358574
107	0xbdc57dc1	-0.09643126
108	0xbc30ebe3	-0.010798427
109	0xbbbc054d	-0.0057379366
110	0x3d5e0fb0	0.05421418
111	0x3da675c8	0.08127934
112	0xbab4d197	-0.0013795373
113	0xbd2dad86	-0.042401813
114	0xbc3ad70d	-0.011403811
115	0xbc053527	-0.008130348
116	0xbcb2928b	-0.021798393
117	0xbd52fccb	-0.051510613
118	0xbd3dd0c7	-0.046341684
119	0xbbed2a29	-0.007237692
120	0x3dca7c02	0.09886934
121	0xbd17e988	-0.037087947
122	0x3d080fcb	0.033218186
123	0x3d689033	0.056778144
124	0xbcde53e8	-0.027139619
125	0xbe2f0eac	-0.1709544
126	0x3d4987a6	0.04920163
127	0x3c10eb6c	0.008845191
128	0xbbb1e191	-0.005428501
129	0x3cd47a24	0.025937147
130	0xbdecc81c	-0.11561605
131	0xbc84143c	-0.01612293
132	0x3dc9a240	0.098454
133	0xbcf98695	-0.030459682
134	0xbe0c280f	-0.13687156
135	0xbca2f9d4	-0.019894518
136	0xbe2db9ae	-0.16965362
137	0xbc043722	-0.008069785
138	0xbd12f3ad	-0.03587692
139	0xbd9b1609	-0.07572562
140	0x3d24a2c7	0.0401943
141	0x3ba267f6	0.0049562408
142	0xbd89c66b	-0.06727298
143	0x3c9cfa03	0.019162184
144	0xbd2557df	-0.040367004
145	0xbc0c4d07	-0.008563287
146	0x3c3e0584	0.011597995
147	0x3d442364	0.047885314
148	0x3dbac610	0.09119809
149	0x3d18b27e	0.0372796
150	0x3b551008	0.0032510776
151	0xbce5b69f	-0.028041182
152	0x3d402ef9	0.046919797
153	0xbdcd782b	-0.10032686
154	0xbd87f622	-0.06638743
155	0xbcea68d7	-0.028614445
156	0xbd77bb71	-0.060481492
157	0xbbb7dad4	-0.005610803
158	0xbd81b5b9	-0.06333489
159	0xbe25de80	-0.16198158
160	0x3c1f96a1	0.009740503
161	0xbd071d82	-0.032987125
162	0xbcef19f8	-0.029187188
163	0x3d9e3e68	0.07726747
164	0xbce049dd	-0.02737897
165	0x3c5f82af	0.013641997
166	0xbd4c9758	-0.04994902
167	0xbca80af7	-0.020513041
168	0xbd0e4762	-0.034736045
169	0xbd3f30b6	-0.046677314
170	0x3d53c101	0.051697735
171	0xbb770c03	-0.0037696369
172	0xbc9fc826	-0.019504618
173	0x3e3c6ed7	0.18401657
174	0xbdc46917	-0.09590357
175	0xbc9030fc	-0.017601483
176	0x3d4b3f0e	0.04962068
177	0x3cd6c07f	0.026214836
178	0x3d9dcae6	0.077047154
179	0x3d0cefb3	0.034408282
180	0xbca5c146	-0.020233762
181	0xbce0fdaa	-0.027464706
182	0xbdb5f4fb	-0.08884617
183	0xbd50dc2e	-0.05099123
184	0x3d9ec03a	0.07751508
185	0xbd88cab1	-0.06679285
186	0xbb6643dd	-0.0035135665
187	0xbd89e816	-0.0673372
188	0xbd0268de	-0.03183829
189	0xbd7e11b9	-0.06202862
190	0x3dd806cb	0.10548171
191	0xbd2351c6	-0.039872907
192	0xbe1fabb2	-0.1559284
193	0xbdbeec76	-0.09322445
194	0x3bd49968	0.006488014
195	0x3cd9aac9	0.026570695
196	0xbb51d139	-0.0032015576
197	0xbd9c978e	-0.07646094
198	0xbc7319eb	-0.014837722
199	0xbd908ee7	-0.070585065
200	0x3d36c601	0.044622425
201	0xbcb37636	-0.021906953
202	0x3dcdce18	0.10049075
203	0xbca85907	-0.020550264
204	0xbd0f9dec	-0.035062715
205	0x3d070838	0.032966822
206	0xbbbda97f	-0.005788028
207	0x3d93f32f	0.07224118
208	0x3d33da99	0.043909643
209	0x3d8d48a0	0.06898618
210	0x3cbb9793	0.022899425
211	0xbcc1b5ad	-0.0236462
212	0xbd4e87e9	-0.050422583
213	0x3d3e3771	0.04643959
214	0xbd1dbc4d	-0.038509656
215	0xbd0ecdcc	-0.034864232
216	0xbd32cb77	-0.04365107
217	0xbd6b92be	-0.05751299
218	0x3c409178	0.011753432
219	0xbdeec87d	-0.11659334
220	0x3affe9c6	0.0019524626
221	0x3bc39009	0.005968098
222	0x3db594be	0.08866261
223	0xbd8a0be9	-0.06740553
224	0xbd2ac371	-0.041690294
225	0xbd560ca5	-0.052258153
226	0x3d5946d1	0.05304605
227	0xbd962311	-0.07330907
228	0x3dc70745	0.097181834
229	0xbc820339	-0.015870677
230	0xbd9bbb11	-0.076040395
231	0xbc62ebe8	-0.01385019
232	0x3dab94ec	0.08378014
233	0x3d3771c8	0.044786245
234	0x3c74a9b3	0.014933038
235	0xbd66bbcf	-0.056331452
236	0xbca73699	-0.020411776
237	0x3d1794ab	0.037007015
238	0x3e0e22b2	0.13880423
239	0x3e0555bf	0.13020991
240	0x3757baff	1.2858537e-05
241	0x3cb70ed3	0.022345936
242	0xbd22bcf3	-0.039730977
243	0x3d181dcb	0.037137788
244	0x3dbab8d9	0.09117288
245	0xbc1c55fb	-0.009541984
246	0x3d2dc356	0.042422615
247	0x3da2d241	0.07950259
248	0xbd4549aa	-0.048165955
249	0xbc4aa4d2	-0.012368398
250	0xbdd51eb5	-0.104062475
251	0xbcff6a5b	-0.031178644
252	0xbd8325c8	-0.064036906
253	0x3cac7f03	0.021056658
254	0xb74eb977	-1.2321739e-05
255	0x3e0456ea	0.1292378

layers1d.0.bias f4 [128]
0	0xbcfaabbc	-0.030599467
1	0xbd518113	-0.051148485
2	0xbd5f1aef	-0.054469045
3	0xbd9ad82e	-0.07560764
4	0xbd1e7b8e	-0.03869205
5	0xbca774b3	-0.020441389
6	0xbcdc9e1a	-0.026930857
7	0xbc28fcd9	-0.01031419
8	0xbd8ad9e1	-0.06779838
9	0xbd5d7e3e	-0.054075472
10	0xbd23a495	-0.03995188
11	0xbd82fd7f	-0.06396007
12	0xbcd8e42f	-0.026475994
13	0xbd0dfba6	-0.03466382
14	0xbd9c6155	-0.07635752
15	0xbd4037b7	-0.046928134
16	0xbcd7a91a	-0.026325751
17	0xbd21c75a	-0.039496757
18	0xbd5656c7	-0.05232885
19	0xbca7644c	-0.020433567
20	0xbd0c8fd1	-0.03431684
21	0xbd6b723c	-0.05748199
22	0xbd3dfb9b	-0.046382528
23	0xbc29b12c	-0.0103571825
24	0xbd807926	-0.06273107
25	0xbcad4076	-0.021148901
26	0xbd5ce8b3	-0.053932857
27	0xbd1a16be	-0.037619345
28	0xbd21f767	-0.039542582
29	0xbcd507ae	-0.026004639
30	0xbcae63da	-0.021287847
31	0xbd4ce881	-0.05002642
32	0xbcafba63	-0.02145118
33	0xbd2fbaa1	-0.042902593
34	0xbca1eea8	-0.01976712
35	0xbcc3c561	-0.023897829
36	0xbd58f14c	-0.052964494
37	0xbdc389b9	-0.09547753
38	0xbd8abb54	-0.06774011
39	0xbcd2c9a9	-0.025730925
40	0xbd18e3d0	-0.037326634
41	0xbd1c3a51	-0.038141552
42	0xbd7e6bba	-0.062114455
43	0xbd8340f4	-0.06408873
44	0xbd5b786b	-0.053581636
45	0xbd05036e	-0.032473974
46	0xbd611b46	-0.05495765
47	0xbd4ecce1	-0.050488357
48	0xbd53c235	-0.051698882
49	0xbd52e4af	-0.05148762
50	0xbd703a80	-0.05864954
51	0xbd51ca35	-0.05121823
52	0xbc22229d	-0.009895948
53	0xbd881aa8	-0.06645709
54	0xbd668eef	-0.056288656
55	0xbd4eb1ba	-0.050462462
56	0xbcf8c777	-0.03036855
57	0xbcc442d6	-0.023957651
58	0xbcd5cd4c	-0.02609887
59	0xbd165ac1	-0.036707643
60	0xbd32a111	-0.043610636
61	0xbd651963	-0.055932414
62	0xbd2115a1	-0.039327268
63	0xbd477a18	-0.048700422
64	0xbcf1433a	-0.029451001
65	0xbd3b53dd	-0.045734275
66	0xbd1aeea0	-0.037825227
67	0xbcfd44cb	-0.030916592
68	0xbd86e5a5	-0.0658677
69	0xbd627aa9	-0.05529276
70	0xbced3b16	-0.028958838
71	0xbd2e11b1	-0.04249734
72	0xbd367be4	-0.044551745
73	0xbd8effa7	-0.069823556
74	0xbda38579	-0.07984442
75	0xbd836535	-0.06415788
76	0xbd71ddb7	-0.059049334
77	0xbd073c36	-0.033016406
78	0xbca69d51	-0.020338686
79	0xbcf6a858	-0.03010957
80	0xbd122b43	-0.03568579
81	0xbd18b9a1	-0.037286405
82	0xbd69f9c9	-0.05712298
83	0xbd26ddac	-0.040738747
84	0xbd0bb0ab	-0.03410403
85	0xbd9ebd1f	-0.07750916
86	0xbd335fb7	-0.043792453
87	0xbc9759ce	-0.01847544
88	0xbd29be85	-0.04144146
89	0xbd91cb51	-0.07118858
90	0xbd76c7d9	-0.060249183
91	0xbd430e61	-0.047621135
92	0xbd829403	-0.06375887
93	0xbc23dbfa	-0.010001177
94	0xbd07c499	-0.033146475
95	0xbd87a0dd	-0.06622479
96	0xbd13cd0b	-0.036084216
97	0xbd52b769	-0.051444445
98	0xbd2e3817	-0.04253396
99	0xbd86f57d	-0.06589792
100	0xbc63f5f3	-0.013913619
101	0xbc36a658	-0.011148058
102	0xbd3d5dbd	-0.046231974
103	0xbcf7d3a9	-0.030252295
104	0xbcce4a45	-0.025181899
105	0xbd93d48d	-0.07218275
106	0xbd6cee43	-0.05784441
107	0xbd80dd7d	-0.062922455
108	0xbccc6a50	-0.024953038
109	0xbd172c4d	-0.036907483
110	0xbc8f555a	-0.017496753
111	0xbda4e847	-0.08052116
112	0xbd305c6e	-0.043056898
113	0xbd0477e3	-0.032340895
114	0xbd8ebd40	-0.0696969
115	0xbd198bd8	-0.03748688
116	0xbd4dbae8	-0.050227076
117	0xbd40ea7e	-0.04709863
118	0xbd4f5905	-0.050622005
119	0xbd8cd950	-0.068773866
120	0xbd8a36d6	-0.067487404
121	0xbd6de649	-0.058080945
122	0xbd8b9c83	-0.068169616
123	0xbd09fb0b	-0.03368668
124	0xbd39ec5f	-0.045391437
125	0xbd14fd71	-0.036374513
126	0xbd494052	-0.049133606
127	0xbc28b2e6	-0.010296559

layers1d.3.weight f4 [128, 128]
0	0xbd0e3974	-0.03472276
1	0x3dd4ed99	0.10396881
2	0x3d5568f1	0.052102033
3	0xbdc59a6f	-0.096485965
4	0x3e2241d2	0.15845421
5	0xbdc0a02d	-0.09405551
6	0xbdb10614	-0.086437374
7	0x3cf15cc1	0.029463174
8	0xbd312dea	-0.043256678
9	0xbc931ea8	-0.017958954
10	0xbd76c26d	-0.060244013
11	0xbca6bb7c	-0.020353071
12	0x3e258c6b	0.16166846
13	0xbdde8fa3	-0.1086724
14	0xbd3f1d63	-0.046658885
15	0x3d28273f	0.041053053
16	0x3df5f048	0.12008721
17	0x3dd232ee	0.1026362
18	0xbe0d451b	-0.13795893
19	0x3da7d4fa	0.08194919
20	0x3d1634e0	0.03667152
21	0x3de78603	0.113048576
22	0xbdef9e07	-0.11700063
23	0xbe36ee5e	-0.17864367
24	0xbe3cc6ae	-0.18435165
25	0x3dd56370	0.10419357
26	0x3c9393e5	0.018014858
27	0x3dbb7d21	0.09154726
28	0x3cac3af9	0.021024214
29	0xbd8762c5	-0.06610636
30	0xbd6a61af	-0.057222065
31	0xbe1c8f77	-0.15289102
32	0xbd2279f4	-0.039667085
33	0x3ded6ede	0.11593412
34	0x3d44b8a8	0.048027664
35	0xbd2725d6	-0.040807568
36	0x3dca3e66	0.09875183
37	0xbcd5dff6	-0.02610777
38	0x3e17c4c1	0.1482115
39	0xba9282cd	-0.0011177898
40	0xbd35d152	-0.044389077
41	0x3daea564	0.085276395
42	0x3cc6a24b	0.02424731
43	0x3dc248a4	0.09486511
44	0xbd9eefe1	-0.07760597
45	0xbe851f93	-0.26000652
46	0x3d77aa2e	0.06046503
47	0xbd847a18	-0.064686
48	0xbb7f2fed	-0.0038938478
49	0xbe14348a	-0.14473167
50	0x3de99cbe	0.11406849
51	0xbd10b640	-0.035330057
52	0xbde487a9	-0.111586876
53	0xbe01db14	-0.12681228
54	0xbca1c1f5	-0.019745806
55	0x3e0d679b	0.13809054
56	0x3d99c9b4	0.07509175
57	0x3d6de508	0.05807975
58	0x3e0398ae	0.12851211
59	0x3e2101b8	0.15723312
60	0xbe04a6da	-0.12954274
61	0xbdbe29c5	-0.09285311
62	0xbda7332c	-0.08164057
63	0xbd0b044d	-0.03393965
64	0x3da707b9	0.0815577
65	0xbcc04895	-0.02347211
66	0xbd476b80	-0.048686504
67	0xbdb35b9e	-0.08757709
68	0x3dc19ac0	0.09453344
69	0x3c994e50	0.0187141
70	0x3dfa1cd9	0.122125335
71	0x3b64c107	0.0034905092
72	0xbd343eeb	-0.044005316
73	0x3e21eb3e	0.15812394
74	0xbd090972	-0.033456273
75	0xbdc91afa	-0.098195985
76	0xbdbfd702	-0.09367181
77	0xbcbf28f0	-0.02333495
78	0xbdfdb6b3	-0.12388363
79	0xbbe9c4d3	-0.007134059
80	0xbe6c3b18	-0.23069417
81	0x3c90773b	0.017634979
82	0xbe0c14c5	-0.13679798
83	0xbdcd9cde	-0.10039686
84	0xbe08461d	-0.13307996
85	0x3dd0c151	0.10193122
86	0xbcdc39fd	-0.02688312
87	0x3da6d4ce	0.08146058
88	0xbdb14f38	-0.08657688
89	0xbdb648ad	-0.089005806
90	0x3dfc0616	0.12305848
91	0x3d669e9f	0.056303617
92	0xbcf24dc5	-0.029578099
93	0xbdc6e50c	-0.09711656
94	0xbd5fc0ac	-0.054627106
95	0xbd1502b6	-0.03637954
96	0xbe29f041	-0.16595556
97	0xbc804654	-0.015658535
98	0xbbe5f5bc	-0.007017819
99	0xbd7a7296	-0.061144434
100	0x3e157a2a	0.14597383
101	0xbb41d04c	-0.0029573618
102	0x3bf6b5ef	0.0075290124
103	0xbcad060d	-0.02112105
104	0xbc94f14c	-0.018181466
105	0x3de3afc4	0.11117509
106	0xbd15d209	-0.03657726
107	0xbc5dc2b5	-0.013535191
108	0x3d187bf3	0.037227582
109	0xbe2d6aa0	-0.16935205
110	0xbe306924	-0.17227608
111	0xbd4a1761	-0.049338702
112	0x3c92d56d	0.017924035
113	0x3da60d07	0.081079535
114	0x3e5844c8	0.21119988
115	0x3d23b929	0.039971504
116	0xbd87bb27	-0.06627493
117	0xbdcf300b	-0.10116585
118	0x3da137c6	0.07871966
119	0xbdb369a9	-0.087603875
120	0xbd66c34f	-0.056338605
121	0xbcf4ebd7	-0.029897613
122	0xbdc25604	-0.094890624
123	0x3d8b78e5	0.06810168
124	0x3da87023	0.082245134
125	0x3d57a38f	0.052646216
126	0x3cea5144	0.028603204
127	0x3d71528e	0.05891662
128	0xbe2d2dc9	-0.16911997
129	0x3e1b65d3	0.15175562
130	0x3cc2ff10	0.023803264
131	0xbd396411	-0.045261446
132	0x3dc44212	0.095829144
133	0xbe106806	-0.14102182
134	0xbc10be4f	-0.008834436
135	0x3dba101c	0.09085104
136	0x3d0a609c	0.03378354
137	0xbd557ccf	-0.05212098
138	0xbbf4199b	-0.0074493415
139	0xbdb06ca3	-0.08614471
140	0x3dcbfa36	0.09959833
141	0x3ad41b36	0.0016182426
142	0xbde19d82	-0.1101637
143	0x3d15fb52	0.03661663
144	0x3e46fce1	0.19432403
145	0x3cb75efe	0.022384163
146	0xbdde73e6	-0.108619496
147	0x3dda9a71	0.106739886
148	0x3d8a66ce	0.0675789
149	0x3e1a34dd	0.15059228
150	0xbde98ab6	-0.1140341
151	0xbdec942c	-0.11551699
152	0xbd3e163a	-0.046407916
153	0xbca95a3a	-0.020672906
154	0xbd9c276b	-0.07624706
155	0x3dd96bd3	0.10616269
156	0x3d767893	0.060173582
157	0xbdaf1c3f	-0.085503094
158	0xbd866631	-0.0656246
159	0xbd66e5d4	-0.056371525
160	0xbe24446e	-0.16041729
161	0xbc5d4de2	-0.013507338
162	0x3d277e1e	0.04089176
163	0xbb7c16cb	-0.0038465734
164	0x3d96680b	0.07344063
165	0xbd94992d	-0.072557785
166	0x3d8b0e92	0.067898884
167	0x3c132e2a	0.008983174
168	0xbd6884f8	-0.056767434
169	0xba99347f	-0.0011688619
170	0x3d1401d0	0.03613454
171	0x3def4719	0.11683483
172	0xbc75faa8	-0.015013374
173	0xbd34bcb8	-0.04412529
174	0x3e1a8416	0.1508945
175	0xbe1f3bc1	-0.15550138
176	0xbd5bb2d5	-0.053637344
177	0xbded54dd	-0.11588452
178	0x3cc46824	0.02397544
179	0x3ae3fd6b	0.001739425
180	0xbd983f06	-0.07433896
181	0xbd9c31a3	-0.07626655
182	0x38ac73e7	8.2231876e-05
183	0x3dc2f3ff	0.09519195
184	0x3d96515d	0.073397376
185	0x3d186622	0.037206776
186	0x3e0529c8	0.1300422
187	0x3dc20392	0.09473337
188	0xbd3bd1d9	-0.045854423
189	0xbd5d2db5	-0.053998668
190	0xbe5a768a	-0.21334282
191	0xbddf748d	-0.10910902
192	0x3d9ba8ed	0.076005794
193	0xbdc120ad	-0.094300605
194	0xbe26a3e1	-0.16273452
195	0xbe34f6a4	-0.17672211
196	0x3d65211f	0.05593979
197	0x3e124287	0.1428319
198	0x3d3c4197	0.04596099
199	0x3d8a6867	0.067581944
200	0xbdc0b0b6	-0.09408705
201	0x3e270717	0.16311298
202	0xbc8e55cb	-0.017374894
203	0xbd91f640	-0.071270466
204	0x3c1a62d1	0.009422974
205	0xbc300bd5	-0.0107450085
206	0xbe12dfba	-0.14343157
207	0xbbfc301e	-0.0076961657
208	0xbdec1016	-0.11526506
209	0x3dcaefcc	0.09909019
210	0xbd30fd07	-0.043210056
211	0x3e0595f1	0.1304548
212	0xbdef7eb0	-0.116940856
213	0x3e855359	0.26040152
214	0xbd983692	-0.074322835
215	0x3da35184	0.07974532
216	0x3b638e14	0.0034722136
217	0xbdc744f3	-0.09729948
218	0x3d3c3686	0.045950435
219	0x3e0bbd57	0.13646446
220	0xbd0068b2	-0.031349845
221	0x3c0abf9e	0.008468537
222	0x3ca9d414	0.02073101
223	0x3ca41289	0.02002837
224	0xbde45bb0	-0.111503005
225	0xbe3f45a5	-0.18678911
226	0xbe0ee636	-0.13955006
227	0xbd2ef036	-0.04270955
228	0x3d572835	0.05252858
229	0x3bc6e3d9	0.006069642
230	0xbd8ea0f3	-0.069642924
231	0xbdc4ae4a	-0.096035555
232	0xbde41f39	-0.11138768
233	0x3df52c88	0.11971384
234	0xbd995717	-0.07487314
235	0xbc87ca96	-0.016576093
236	0xbd8eb29d	-0.069676615
237	0xbe0a7464	-0.13520962
238	0xbdc94e31	-0.09829367
239	0xbd9d5310	-0.076818585
240	0xbe030442	-0.12794593
241	0x3d7fa132	0.062409587
242	0x3e56ab90	0.20963883
243	0xbc418e8b	-0.01181377
244	0xbd976bda	-0.07393618
245	0xbe19d56f	-0.15022825
246	0x3cc04ef8	0.023475155
247	0xbe0dd281	-0.13849832
248	0x3e054f5a	0.13018551
249	0xbdba4e45	-0.0909696
250	0xbc85a612	-0.01631454
251	0x3d876378	0.06610769
252	0x3df2cc9f	0.118554346
253	0x3d7f1992	0.062280245
254	0x3d8a1f67	0.06744271
255	0xbda405ac	-0.08008894

layers1d.3.bias f4 [128]
0	0x3b8bf2f8	0.0042709075
1	0x3bafa2f2	0.0053600008
2	0x3c4b8318	0.012421392
3	0x3c57a381	0.013161541
4	0x3b68ba29	0.003551135
5	0xbaa8a54d	-0.0012866646
6	0xba99a530	-0.0011722203
7	0x3c9bd607	0.019022955
8	0x3c7a864a	0.015290806
9	0x3a7e0e0e	0.00096914254
10	0xbd1d8fd2	-0.038467236
11	0xbd06ce38	-0.03291151
12	0xbcde3559	-0.027125048
13	0xbccad8a5	-0.024761507
14	0xba2986a9	-0.00064669043
15	0xbc39ee0d	-0.01134826
16	0xbaff0d96	-0.0019459005
17	0xbcd6a875	-0.026203373
18	0x3a44cd31	0.00075073825
19	0x3c306100	0.010765314
20	0xbc48caa7	-0.012255347
21	0xbc074fda	-0.008258784
22	0x3b41c016	0.0029563955
23	0x3c0305bf	0.007996975
24	0x3a243497	0.000626394
25	0xba8c001a	-0.0010681183
26	0x398cbd9a	0.00026844145
27	0x3c92d13f	0.017922042
28	0xbbe5136c	-0.0069908407
29	0x3d22cdc2	0.039747007
30	0x3c84d4c3	0.016214734
31	0x3d24aaa0	0.040201783
32	0xbc6a47cd	-0.014299345
33	0xbc18bfcf	-0.0093230745
34	0x3be2092b	0.0068980656
35	0xbbe4afc1	-0.0069789593
36	0xbbd15287	-0.006388012
37	0xbcaf9776	-0.021434527
38	0xbc5e3384	-0.013562087
39	0x3b6989ff	0.003563523
40	0xbbbb405d	-0.00571446
41	0xbc939569	-0.01801558
42	0xbbfd2a0a	-0.0077259587
43	0x3b287f05	0.0025710475
44	0xbcefb674	-0.029261805
45	0x3b985cd1	0.0046497365
46	0x3c889e13	0.016676938
47	0xbc7aa157	-0.0152972555
48	0x3ca03a93	0.01955918
49	0xbc38e304	-0.0112845935
50	0x3d158002	0.03649903
51	0xbcc7c7cd	-0.024387265
52	0xbc7d3680	-0.015454888
53	0xbcb2c505	-0.021822462
54	0xbcaabc5e	-0.020841774
55	0xbc203771	-0.009778843
56	0x3b6b8796	0.003593897
57	0xbbe4a2c7	-0.0069774124
58	0xbc3a0de1	-0.011355848
59	0xbc3f3544	-0.011670414
60	0xbc790371	-0.015198574
61	0x3a90aa24	0.0011037034
62	0xbd45aba4	-0.048259392
63	0xbad56233	-0.0016279876
64	0x3d1b7daf	0.037961658
65	0x3c1cf19f	0.009579091
66	0x3cfa7838	0.030574903
67	0x3b520ab0	0.0032049827
68	0x3cc08291	0.023499759
69	0xbc373e0d	-0.011184228
70	0xb8dd754d	-0.0001055995
71	0xbcfb5394	-0.030679502
72	0xbc5d7931	-0.013517664
73	0xbcb7bbef	-0.02242848
74	0xb9c8a8bc	-0.0003827269
75	0x39d13241	0.00039901029
76	0xbc9de7a5	-0.019275496
77	0x3cb4e6c0	0.022082686
78	0x3d0b2bb5	0.03397723
79	0xbd11b39b	-0.035571676
80	0xbd21a244	-0.03946139
81	0x3c87a143	0.016556388
82	0x3c7a860b	0.015290747
83	0xbca1c462	-0.019746963
84	0xbca2ff6d	-0.019897187
85	0xbd76619d	-0.060151685
86	0x3c43572b	0.011922638
87	0x3890a7c9	6.8977075e-05
88	0x3cebf153	0.028801596
89	0xbc549f5b	-0.012977446
90	0xbc83c520	-0.016085207
91	0xbc035adb	-0.008017267
92	0xbb281e64	-0.002565288
93	0xbcccf4d4	-0.025019087
94	0xbcd18bf1	-0.025579425
95	0xbcf13008	-0.029441848
96	0x3ca104ee	0.019655671
97	0xbbaf5e17	-0.0053517926
98	0x3b804108	0.0039140023
99	0x3ba321c8	0.0049783923
100	0x3d0647ee	0.03278344
101	0x3ac3a588	0.0014926651
102	0xbd0e262f	-0.034704383
103	0x3cf0502c	0.029335104
104	0xbb76fce0	-0.0037687346
105	0x3c8985cd	0.016787434
106	0xbc6d60b3	-0.014488387
107	0xbc5ffcbd	-0.013671097
108	0x3c53d7f1	0.012929902
109	0xbd3aba2e	-0.04558771
110	0xbc261a2a	-0.010138074
111	0xbc438292	-0.011932986
112	0xbcb940ef	-0.02261397
113	0x3cf130ad	0.029442156
114	0xbc328bdd	-0.010897604
115	0xbae02faf	-0.0017104055
116	0x37cebeec	2.4646019e-05
117	0x3c6afd49	0.014342614
118	0xbca7c9c9	-0.02048196
119	0xbc31c85b	-0.010850991
120	0xbcf37743	-0.029719954
121	0x3d093a66	0.03350296
122	0xbc83fac1	-0.01611078
123	0xbc2a7b6e	-0.0104054045
124	0x3afd4c88	0.0019325176
125	0xbc4be4c8	-0.012444682
126	0xbd096476	-0.033543073
127	0x3c415e7d	0.011802313

combined.0.weight f4 [64, 128]
0	0xbdc2cb0c	-0.09511384
1	0xbde7fac9	-0.1132713
2	0xbe02cc9f	-0.12773369
3	0x3cedfdd3	0.029051697
4	0xbd6d3fa9	-0.05792204
5	0xbd7e7419	-0.062122438
6	0xbe456b79	-0.19279279
7	0x3d3891c1	0.045060877
8	0x3d3d027d	0.04614495
9	0xbde91154	-0.11380258
10	0x3dbb3fc3	0.09143021
11	0xbdc17061	-0.09445263
12	0x3c17161b	0.009221579
13	0xbd9c7d1a	-0.07641049
14	0xbdf11863	-0.117722295
15	0x3d0c876f	0.034308847
16	0xbe1e078d	-0.15432568
17	0x3dad1314	0.084509045
18	0xbe06752b	-0.13130634
19	0xbd472a0f	-0.048624095
20	0x3c93e79c	0.018054776
21	0x3d4303bf	0.047610994
22	0xbc79026c	-0.015198331
23	0x3d0571e9	0.032579336
24	0xbe232a6a	-0.15934148
25	0xbe40d33b	-0.18830578
26	0xbdfbc77e	-0.122939095
27	0xbdb0ee7a	-0.08639236
28	0xbe5bb852	-0.21457031
29	0xbc899ec1	-0.016799333
30	0xbd981f28	-0.074278176
31	0x3c60aa18	0.0137124285
32	0xbd1fb585	-0.03899147
33	0xbc06b0bc	-0.008220848
34	0xbd9a3707	-0.07530027
35	0xb9f36b76	-0.00046428636
36	0x3ce9ec2d	0.028555
37	0x3cf4a9c5	0.029866109
38	0x3dba2b92	0.09090342
39	0xbe0cedcf	-0.13762592
40	0x3ceaf0d3	0.028679287
41	0x3d6c9778	0.05776164
42	0x3ddb7f6f	0.107176654
43	0xbe216c11	-0.1576388
44	0x3d89048b	0.0669032
45	0xbca17141	-0.019707324
46	0xbdd5c8ee	-0.10438715
47	0xbe2c8f3d	-0.16851516
48	0xbd0cb084	-0.034348026
49	0xbca1c493	-0.019747054
50	0xbe527f88	-0.20556462
51	0xbd7b0088	-0.061279804
52	0xbd3f2330	-0.046664417
53	0x3c301121	0.010746271
54	0xbe20703a	-0.15667811
55	0x3d31102f	0.043228325
56	0xbb65ce0f	-0.0035065447
57	0xbe2d7b23	-0.16941504
58	0x3bf76ae4	0.007550584
59	0xbe3510dd	-0.17682214
60	0x3dab6e0b	0.083705984
61	0x3caea663	0.021319574
62	0x3d627d85	0.055295486
63	0xbdcd82ce	-0.10034715
64	0x3d710d21	0.05885041
65	0x3d3c144b	0.04591779
66	0xbcb80c27	-0.022466732
67	0xbd61e01a	-0.05514536
68	0xbd02cbb0	-0.031932533
69	0x3da886ae	0.08228813
70	0x3d466201	0.048433308
71	0x3c0a6e16	0.008449098
72	0x3d6056d4	0.054770306
73	0x3db5d3f2	0.08878316
74	0xbdcd4412	-0.10022749
75	0xbe121733	-0.14266662
76	0xbe4232e3	-0.18964724
77	0xbe19f6cf	-0.15035556
78	0xbc9f7d1b	-0.019468835
79	0x3d068a56	0.03284677
80	0x3d6f1bb1	0.058376018
81	0x3c2f566b	0.010701756
82	0xbd861084	-0.06546119
83	0xbb48373d	-0.0030550503
84	0x3d67e382	0.056613453
85	0x3d6170b3	0.05503912
86	0x3d1f4ff3	0.038894605
87	0xbe04411d	-0.12915464
88	0x3d0a3534	0.033742145
89	0xbd549232	-0.051897235
90	0xbbcf37cf	-0.0063237916
91	0x3d458ff8	0.048233002
92	0x3d62ce1d	0.055372346
93	0x3d45087e	0.048103802
94	0x3dd050ee	0.10171686
95	0x3d4ccfe8	0.050002962
96	0x3b96b3ff	0.004599094
97	0x3ce85019	0.028358506
98	0x3d4e4cc7	0.05036619
99	0xbd3173f1	-0.04332346
100	0xbe50c34b	-0.20386998
101	0xbd56a11f	-0.05239975
102	0x3ce946c9	0.028476136
103	0x3db49ba9	0.08818752
104	0xbb2c20fd	-0.002626478
105	0xbdb6a186	-0.08917527
106	0xbd053f0e	-0.032530837
107	0x3d410b12	0.047129698
108	0xbe0b3a1d	-0.13596387
109	0xbdc53233	-0.09628715
110	0xbd101be8	-0.035182863
111	0x3d855dd1	0.06512035
112	0xbdc4a513	-0.09601798
113	0x3d83d055	0.064362206
114	0x3d72422e	0.059145145
115	0xbcdf7b44	-0.027280457
116	0xbc95e2f0	-0.018296689
117	0xbe935766	-0.28777617
118	0xbd817dee	-0.06322847
119	0x3d8a9b1b	0.06767865
120	0x3d2a2cb7	0.04154655
121	0xbe01daee	-0.12681171
122	0x3d4703cc	0.048587605
123	0x3d031987	0.032006767
124	0xbe10a400	-0.14125061
125	0xbd9743e4	-0.07385996
126	0xbd30f1f4	-0.043199494
127	0x3b8869b0	0.0041629896
128	0x3d23ca3a	0.03998778
129	0x3d8b1e7a	0.06792922
130	0xbb3647eb	-0.0027813863
131	0xbcd442ee	-0.02591082
132	0x3d269634	0.04067059
133	0xbb620789	-0.0034489355
134	0x3d2a85c4	0.041631475
135	0xbdede8c1	-0.1161666
136	0xbd86e179	-0.06585974
137	0x3d9f8afa	0.077901796
138	0xbd713ed1	-0.058897797
139	0x3d01b225	0.031664032
140	0xbdbc3029	-0.09188873
141	0xbd33dd70	-0.04391235
142	0x3d1d614f	0.03842288
143	0xbdad5fd7	-0.084655456
144	0x3d133718	0.035941213
145	0x3c7032cf	0.014660551
146	0xbccd65c6	-0.025072943
147	0x3d55b86c	0.05217783
148	0xbd2aae3e	-0.041670077
149	0xbdc8e18e	-0.09808646
150	0xbd37f319	-0.04490957
151	0xbd94890b	-0.07252701
152	0x3cff6d46	0.031180035
153	0x3cb26689	0.021777408
154	0x3dac3f70	0.08410537
155	0xbacb8504	-0.0015527313
156	0x3e39e155	0.18152364
157	0xbd9849f3	-0.0743598
158	0x3dc978e0	0.09837508
159	0xbdf744c8	-0.12073666
160	0xbc5c7372	-0.013455259
161	0x3da5d8e1	0.08098007
162	0x3dd8aa83	0.105793975
163	0xbd9f2bb1	-0.07772005
164	0xbdba1052	-0.09085144
165	0x3c97c68a	0.018527288
166	0xbd360a5a	-0.044443466
167	0x3d2b6cce	0.04185181
168	0xbce4dec2	-0.02793825
169	0xbc55d613	-0.013051528
170	0xbd7dd253	-0.06196816
171	0xbc0c7d1b	-0.008574749
172	0xbe130e21	-0.14360859
173	0xbc8ec91c	-0.01742988
174	0x3d3a2fd4	0.04545577
175	0x3d4e5a95	0.050379355
176	0x3d145902	0.036217697
177	0xbd25970d	-0.040427256
178	0x3d28037d	0.04101895
179	0x3d53bf1f	0.05169594
180	0xbd623ec1	-0.055235628
181	0x3ddeb5ac	0.10874495
182	0x3d0b1de2	0.033964045
183	0xbcba191a	-0.022717047
184	0xbddcb5b9	-0.10776848
185	0x3bbf9eed	0.005847803
186	0x3d0e6f4d	0.034774113
187	0x3d94c5d9	0.07264299
188	0x3c06d267	0.008228875
189	0xbc32c08e	-0.010910166
190	0x3e012cc1	0.12614729
191	0x3dcf7888	0.101304114
192	0x3c6f62ba	0.014610941
193	0xbd4ab929	-0.04949299
194	0xbda6e290	-0.08148682
195	0x3b09d58f	0.0021031832
196	0x3a7f9fd9	0.0009751297
197	0xbdbbe6b4	-0.091748625
198	0xbe017356	-0.12641653
199	0xbdbe4b89	-0.09291751
200	0xbdd0d150	-0.10196173
201	0xbd0c2764	-0.034217253
202	0x3d017502	0.031605728
203	0x3d9349cd	0.07191811
204	0xbd82b430	-0.06382024
205	0x3de753e8	0.11295301
206	0xbe30a87f	-0.17251776
207	0xbde9dc7d	-0.11419008
208	0x3e02b0fd	0.12762828
209	0xbe719f09	-0.23595823
210	0xbd1791a7	-0.03700414
211	0xbdbc515f	-0.09195208
212	0xbe46b142	-0.19403556
213	0xbd040e6d	-0.03224032
214	0xbe2f3dd8	-0.17113435
215	0x3d23635f	0.03988969
216	0xbc8787ea	-0.016544301
217	0xbd54d277	-0.051958527
218	0x3c4b9987	0.0124267405
219	0x3df2ed0c	0.11861619
220	0xbe2b4d12	-0.16728619
221	0xbddeef96	-0.10885541
222	0x3ddafc3f	0.106926434
223	0xbd6d4ed3	-0.0579365
224	0xbd51846e	-0.051151685
225	0xbe0c8c34	-0.13725358
226	0xbe0beda5	-0.13664873
227	0x3cff67dd	0.031177456
228	0xbcab178d	-0.020885253
229	0x3c067e89	0.008208879
230	0x3c8d76bf	0.017268537
231	0x3d433243	0.047655355
232	0xbdf3f680	-0.119122505
233	0x3d970fc4	0.07376054
234	0xbe06ee30	-0.13176799
235	0xbd747ef7	-0.059691396
236	0x3cf8615c	0.030319862
237	0xbbccc162	-0.006248639
238	0xbc55cf73	-0.013049948
239	0x3bc1b411	0.005911358
240	0x3c29b6aa	0.010358492
241	0xbdef543f	-0.116859905
242	0xbe1ea005	-0.1549073
243	0x3dccfc85	0.10009102
244	0xbd0c28e8	-0.0342187
245	0xbbebd38e	-0.00719685
246	0x3d1fb63f	0.038992163
247	0xbd35602e	-0.044281177
248	0x3d20650a	0.03915886
249	0x3cde2c35	0.027120689
250	0x3d94106c	0.07229695
251	0x3cfba581	0.030718567
252	0x3dc93973	0.09825411
253	0x3ddef82c	0.10887179
254	0xbcbeb348	-0.023278847
255	0xbd3c6ea5	-0.046003956

combined.0.bias f4 [64]
0	0xbc877c0e	-0.016538646
1	0x3cc8da6a	0.02451821
2	0xbc94ab0d	-0.01814797
3	0x3bfdd042	0.0077457735
4	0x3b9e7c90	0.0048366264
5	0x3ce2202e	0.027603235
6	0x3d253bbf	0.04034018
7	0xbc5debbf	-0.013544976
8	0xbd1f7368	-0.03892842
9	0x3c88145b	0.016611269
10	0xbbd0ac1c	-0.0063681733
11	0x3b593fd3	0.0033149614
12	0x3d0b06c8	0.033942014
13	0x3d1de806	0.038551353
14	0x3b585d9e	0.0033014785
15	0x3cf4633a	0.029832471
16	0xbcbe215f	-0.023209272
17	0x3c399d55	0.011329015
18	0xbbfc0ec8	-0.0076921917
19	0x3d371671	0.044699136
20	0xbcea1ca3	-0.028578108
21	0xbd62d1a6	-0.055375718
22	0x3aa2f857	0.001243363
23	0x3ca5adff	0.02022457
24	0x3cb6e624	0.022326536
25	0x3cd29c44	0.025709279
26	0x3c0d6541	0.008630098
27	0xbc93c32a	-0.018037397
28	0x3c439e3e	0.011939583
29	0x3b0f3fc5	0.0021858078
30	0x3cd32275	0.025773266
31	0xbb3b9587	-0.002862306
32	0x3c82dd07	0.015974535
33	0xbc7c649a	-0.015404845
34	0x3ccb1077	0.024788124
35	0x3c8a22b2	0.016862247
36	0x3a84c17f	0.0010128467
37	0xbd0c72f8	-0.03428933
38	0x3bf0af7a	0.007345137
39	0x3cad608c	0.021164201
40	0x3c574168	0.013138153
41	0xbd14400d	-0.036193896
42	0x3d71c7c7	0.059028413
43	0x3cace7f0	0.02110669
44	0x3c940a71	0.018071385
45	0x3ad3e52b	0.001616632
46	0xbcc8f6a1	-0.024531664
47	0x3cdfaadb	0.02730315
48	0xbba193df	-0.0049309577
49	0x3c44ca46	0.012011116
50	0x3c451bfd	0.012030599
51	0x3cd325b0	0.025774807
52	0x3c9f3429	0.019434052
53	0x3d11c7be	0.03559088
54	0x3ca6e96e	0.02037498
55	0x3d08cb41	0.033396963
56	0x3d730701	0.05933285
57	0xbc954d5b	-0.018225363
58	0xbb695535	-0.0035603766
59	0xbb9a2fcd	-0.0047054053
60	0x3d201eb8	0.039091796
61	0x3c3e7f8e	0.011627091
62	0x3aed4b6a	0.001810414
63	0xbbfbcfb0	-0.0076846704

combined.3.weight f4 [64, 64]
0	0x3daa605e	0.08319162
1	0xbe551ff8	-0.20812976
2	0x3b4f97f1	0.0031676257
3	0xbc887774	-0.016658522
4	0xbe758d1d	-0.23979612
5	0x3c944b24	0.018102236
6	0xbe45ccec	-0.19316453
7	0xbcb8bb3f	-0.022550223
8	0x3cc8dd49	0.02451958
9	0xbdb33452	-0.08750214
10	0xbdde5e7e	-0.10857867
11	0x3d8dfc7f	0.069329254
12	0xbe1017d5	-0.14071591
13	0x3cfde416	0.030992549
14	0xbea251c6	-0.31703013
15	0xbd4af7e5	-0.049552817
16	0xbc1e90bd	-0.009678063
17	0xbcba9ad6	-0.02277891
18	0x3d1ca824	0.03824629
19	0xbe44161c	-0.19149059
20	0x3d4d65f9	0.050146077
21	0x3d8df5f1	0.06931675
22	0xbea66441	-0.32498363
23	0xbe192da6	-0.1495882
24	0xbe812707	-0.25225088
25	0xbe2876d6	-0.16451582
26	0x3daae174	0.08343783
27	0x3d8ddd70	0.069270015
28	0xbdb77cd2	-0.089593545
29	0xbd52ff4d	-0.051513005
30	0x3d106721	0.0352546
31	0xbe6fcd88	-0.23418248
32	0x3d6ef265	0.058336634
33	0xbd9e6e0f	-0.07735836
34	0x3da73493	0.081643246
35	0x3c9da9c6	0.019245993
36	0x3da35daa	0.079768494
37	0x3d0f3e8b	0.034971755
38	0xbd9a72d1	-0.07541431
39	0xbe87ecb2	-0.26547772
40	0xbe9b6583	-0.30350885
41	0xbd074ee8	-0.033034235
42	0xbe3ae954	-0.1825307
43	0xbe92b556	-0.28653973
44	0x3c8116f1	0.01575801
45	0x3c84cf36	0.016212087
46	0x3d6afa20	0.057367444
47	0x3cdef16d	0.02721473
48	0x3c340249	0.010986873
49	0xbe23f85f	-0.16012715
50	0xbe6a7cc1	-0.22899152
51	0xbe4178b8	-0.18893707
52	0xbe244194	-0.16040641
53	0xbdbf4f13	-0.09341254
54	0xbe99fd37	-0.30076
55	0x3d285ee9	0.04110614
56	0xbe07e146	-0.13269529
57	0x3dd573c4	0.10422471
58	0xbe182af5	-0.14860137
59	0x3d23150c	0.039814994
60	0xbe835575	-0.25651136
61	0xbe1ed79e	-0.15511939
62	0xbe1fa3be	-0.15589806
63	0xbe494310	-0.19654489
64	0x3d8a7f33	0.067625426
65	0xbdce8382	-0.10083677
66	0xbd082963	-0.033242594
67	0x3cb54816	0.0221291
68	0xbd29cbb4	-0.041454032
69	0x3d84544a	0.06461389
70	0xbd227c70	-0.039669454
71	0x3dcce2b4	0.10004178
72	0x3d5cbad9	0.05388913
73	0xbdc609f2	-0.09669866
74	0xbe4aa125	-0.19788034
75	0x3dda4d6f	0.106593005
76	0xbd8d093b	-0.06886526
77	0x3c63ffa0	0.013915926
78	0xbde71e1a	-0.11285038
79	0xbdb77713	-0.089582585
80	0xbe286421	-0.16444446
81	0x3dc50d7a	0.09621711
82	0x3d96820f	0.073490255
83	0xbdb0d101	-0.08633614
84	0x3dcb0e0f	0.09914791
85	0x3d1903f0	0.03735727
86	0xbe7c590a	-0.2464334
87	0xbda2d71b	-0.07951184
88	0xbe38b74c	-0.18038672
89	0x3cf09a99	0.029370593
90	0x3d9109fa	0.07081981
91	0x3d45067b	0.048101883
92	0xbd974447	-0.0738607
93	0xbdc8c8c2	-0.098039165
94	0x3cec6ef9	0.02886151
95	0xbdb2f359	-0.08737821
96	0x3d9df8e2	0.07713486
97	0xbe49ef3b	-0.19720165
98	0x3e0e3d77	0.13890634
99	0x3d469b90	0.0484882
100	0x3b4541a3	0.0030098937
101	0x3d32a99d	0.043618787
102	0x3cc185f0	0.023623437
103	0xbb068156	-0.0020523868
104	0xbd4ab208	-0.04948619
105	0x3de17441	0.11008502
106	0xbd792e6f	-0.0608353
107	0xbe3eab8b	-0.18620126
108	0xbd00b84a	-0.03142575
109	0x3b2822bc	0.002565547
110	0x3c7818f4	0.015142668
111	0x3d2f2b61	0.04276598
112	0xbcb9d53a	-0.022684682
113	0xbdf0167c	-0.117230386
114	0xbe62bcf5	-0.22142394
115	0xbd883b10	-0.0665189
116	0xbda49d75	-0.08037845
117	0xbc89051b	-0.016726067
118	0xbdead743	-0.11466839
119	0xbd484ed3	-0.048903298
120	0xbc6d2ee6	-0.0144765135
121	0x3c9a8cc6	0.018865954
122	0xbe2db782	-0.16964534
123	0x3d9674ad	0.07346473
124	0xbcad4dcb	-0.021155259
125	0xbe1fd0ec	-0.15607041
126	0xbdd982bd	-0.106206395
127	0xbe222e81	-0.15838052
128	0x3c79e850	0.0152531415
129	0xbe5f0f62	-0.21783212
130	0x3c416b87	0.011805422
131	0x3cb4755c	0.022028618
132	0xbe3abbc6	-0.18235692
133	0x3d3f9824	0.046775952
134	0xbd000df4	-0.031263307
135	0xbd9490df	-0.072541945
136	0xbd40c28f	-0.047060546
137	0xbe489862	-0.1958938
138	0xbe4ed7c8	-0.20199502
139	0x3d361b69	0.044459734
140	0xbdf589c7	-0.119891696
141	0x3d88b69a	0.066754535
142	0xbe4bb81e	-0.19894454
143	0x3e02d5a7	0.12776814
144	0xbe20e5a4	-0.15712601
145	0xbb7e499e	-0.0038801203
146	0xbd1a98c4	-0.037743345
147	0xbe4ba757	-0.19888054
148	0x3cb883b9	0.022523748
149	0xbb026852	-0.0019898606
150	0xbe5a2309	-0.21302427
151	0xbe27d933	-0.16391449
152	0xbdd1603f	-0.102234356
153	0xbe01c86e	-0.12674114
154	0xbc76e738	-0.015069775
155	0x3d1f526b	0.03889696
156	0xbde715dd	-0.11283467
157	0xbde48731	-0.11158598
158	0x3d113ac2	0.035456426
159	0xbe6da36f	-0.23206876
160	0x3a1a40b3	0.0005884275
161	0xbdc72de5	-0.097255506
162	0x3d9d41a8	0.076785386
163	0x3e09b4c7	0.13447867
164	0x3d283767	0.04106846
165	0x3d746253	0.05966408
166	0x3c9689fe	0.018376347
167	0xbe996b3e	-0.29964632
168	0xbd24269f	-0.040075894
169	0x39daf7a5	0.0004176471
170	0xbe3d379b	-0.18478243
171	0xbeb5ab95	-0.3548247
172	0x3d1a1304	0.03761579
173	0x3db06c11	0.08614362
174	0x3d976434	0.07392159
175	0x3b6b03a5	0.0035860327
176	0x3c90ad1b	0.017660668
177	0xbe94d1a5	-0.29066196
178	0xbe281db1	-0.16417576
179	0xbe7dd525	-0.2478834
180	0xbe8776ce	-0.26457828
181	0xbe6717d3	-0.22567682
182	0xbe4281a2	-0.18994763
183	0x3d69859f	0.057012197
184	0xbe3879b0	-0.1801517
185	0x3d03f7a2	0.032218583
186	0xbd8df56b	-0.069315754
187	0x3c53107c	0.012882348
188	0xbe02fb97	-0.12791286
189	0xbdb595a9	-0.08866436
190	0xbe4f54b2	-0.20247152
191	0xbe710cbc	-0.23540014
192	0x3dbe50cf	0.09292757
193	0xbe80988d	-0.25116387
194	0x3d9043b5	0.07044164
195	0x3dcfd4ea	0.10148032
196	0xbd999dcd	-0.07500801
197	0x3c01a527	0.007912911
198	0xbe7a1bcd	-0.24424668
199	0x3dcbd730	0.09953153
200	0x3bd2d07d	0.006433545
201	0xbe13bb1d	-0.14426847
202	0xbe7bc2f0	-0.24586082
203	0x3d0626af	0.032751735
204	0xbe8684f8	-0.26273322
205	0x3d58026d	0.05273669
206	0xbe270e95	-0.16314156
207	0x3e036c18	0.12834203
208	0xbe2f2f3b	-0.1710786
209	0xbda06e0e	-0.07833491
210	0xbd0a560f	-0.033773478
211	0xbe48f892	-0.19626072
212	0xbd7419e7	-0.059595015
213	0x3d940592	0.07227625
214	0xbdfcbc0f	-0.12340557
215	0xbe7dc127	-0.24780713
216	0xbe9fcd8d	-0.3121151
217	0xbe83da08	-0.25752282
218	0x3cec4524	0.028841563
219	0x3d0e9013	0.03480537
220	0xbe8796cf	-0.26482245
221	0xbe6ab96c	-0.22922295
222	0xbc171dd9	-0.009223425
223	0xbe6ef86e	-0.23336956
224	0x3d27eb6e	0.040996008
225	0xbdf3d95b	-0.11906692
226	0xbc848ab4	-0.01617942
227	0xbd4c1ff5	-0.049835164
228	0xbcd1c925	-0.025608608
229	0x3d089ca8	0.033352524
230	0x3e0206c2	0.1269789
231	0xbe7c3b04	-0.24631888
232	0xbdae00b0	-0.08496225
233	0x3da16974	0.07881442
234	0xbe84f142	-0.25965315
235	0xbeb55d40	-0.35422707
236	0xbd405247	-0.046953466
237	0xbd992b09	-0.074789114
238	0x3d98993b	0.074511014
239	0xbd8bced7	-0.06826561
240	0x3dc23e93	0.09484591
241	0xbe7aeb9a	-0.24503937
242	0xbe276e54	-0.1635068
243	0xbe082887	-0.1329671
244	0xbdce5019	-0.10073871
245	0xbe6f83cb	-0.23390119
246	0xbe709155	-0.2349294
247	0x3d21fd72	0.039548345
248	0xbe5398d9	-0.20663776
249	0x3dae298e	0.0850402
250	0xbc8a3ef9	-0.01687573
251	0xbd9dbec6	-0.07702403
252	0xbe804390	-0.25051546
253	0xbe58efd7	-0.21185242
254	0xbe18ab04	-0.14908987
255	0xbe7616f6	-0.24032196

combined.3.bias f4 [64]
0	0x3e024a22	0.12723592
1	0x3df4a4d1	0.11945499
2	0x3de4fbb2	0.111808196
3	0x3ddc9e89	0.10772426
4	0x3e0ace0f	0.13555168
5	0x3e2a939e	0.16657874
6	0x3e3191ce	0.17340776
7	0x3e14f998	0.14548337
8	0x3da1b047	0.0789495
9	0x3e0c082c	0.13674992
10	0x3e27ee78	0.16399562
11	0x3e0617a8	0.13094962
12	0x3dfc398d	0.123156644
13	0x3deccae5	0.115621366
14	0x3e25e4d8	0.16200578
15	0x3e1650eb	0.14679305
16	0x3e16749e	0.14692923
17	0x3e17d7b3	0.14828376
18	0x3e1436a4	0.14473969
19	0x3e242b71	0.16032197
20	0x3def1e38	0.11675686
21	0x3e0c047c	0.13673586
22	0x3db1ae4d	0.08675823
23	0x3e1b0bea	0.15141264
24	0x3dfd3b9c	0.12364885
25	0x3e2d0e56	0.169
26	0x3e207f09	0.1567346
27	0x3e09beb9	0.13451661
28	0x3e0bc9a7	0.13651143
29	0x3e243af9	0.16038121
30	0x3e148749	0.14504732
31	0x3e1baa8e	0.1520178
32	0x3ddb519b	0.107089244
33	0x3e2e7921	0.17038395
34	0x3e0df82e	0.13864204
35	0x3e248021	0.16064502
36	0x3e1bbe84	0.15209395
37	0x3e078fef	0.132385
38	0x3e026e49	0.12737383
39	0x3e0eab9b	0.1393265
40	0x3db78215	0.08960358
41	0x3e20b9c5	0.15695865
42	0x3dda96ff	0.106733315
43	0x3dfeb596	0.124369785
44	0x3df55948	0.1197992
45	0x3df1c544	0.118052036
46	0x3dfe1e16	0.12408082
47	0x3dddd030	0.10830724
48	0x3e12424a	0.142831
49	0x3e1bc2ab	0.15210979
50	0x3e109782	0.14120296
51	0x3df47f05	0.119382896
52	0x3dffb30c	0.12485322
53	0x3dfcd086	0.1234446
54	0x3e272507	0.16322719
55	0x3e26194e	0.1622059
56	0x3e10d091	0.14142062
57	0x3deff53b	0.11716696
58	0xbee162a0	-0.44020557
59	0x3e01842f	0.1264808
60	0x3e03045d	0.12794633
61	0x3e1c1c20	0.15245104
62	0x3df2b33f	0.11850595
63	0x3df562d5	0.11981741

combined.6.weight f4 [1, 64]
0	0x3d6d65bd	0.057958353
1	0x3d38383b	0.0449755
2	0x3d1b786c	0.03795664
3	0x3d826146	0.0636621
4	0xbd31346c	-0.043262884
5	0xbd304288	-0.0430322
6	0x3d308411	0.0430947
7	0x3d0abdc8	0.033872396
8	0xbd5f744e	-0.054554276
9	0xbd2be7ac	-0.041968986
10	0xbd138c61	-0.036022548
11	0x3d4fab70	0.050700605
12	0xbd76b90c	-0.06023507
13	0xbd7a2111	-0.06106669
14	0x3ceb8042	0.028747682
15	0xbd4c028a	-0.04980711
16	0x3d19baa8	0.037531525
17	0x3d0e966e	0.03481143
18	0xbd6080c0	-0.054810286
19	0xbd20eec8	-0.03929022
20	0xbd992359	-0.07477445
21	0xbd26d060	-0.040726066
22	0xbd437fab	-0.047729176
23	0xbd13463d	-0.035955656
24	0x3d32095f	0.04346597
25	0x3d2adf4d	0.041716862
26	0xbd49a76d	-0.049231935
27	0x3d76a026	0.060211323
28	0xbd541b29	-0.051783714
29	0x3cfe1a47	0.03101839
30	0x3d1cb91d	0.038262475
31	0xbd24c756	-0.040229164
32	0xbd8467c7	-0.064651065
33	0xbd11a0b0	-0.035553634
34	0xbd2d4883	-0.04230548
35	0x3d10a2b6	0.035311423
36	0xbd3a0147	-0.045411374
37	0x3d1f8c79	0.038952325
38	0x3d892cf5	0.06698028
39	0x3d78a93f	0.06070828
40	0xbd6998f0	-0.05703062
41	0xbd433289	-0.047655616
42	0x3d171b2b	0.036891144
43	0x3d3cf04f	0.046127614
44	0x3d82f31f	0.06394028
45	0xbd70829e	-0.058718316
46	0xbd5a208d	-0.0532537
47	0xbd60ea24	-0.054910794
48	0xbd49edbd	-0.04929899
49	0x3d1be14c	0.038056657
50	0xbd7d6a65	-0.061869044
51	0xbda6b4e5	-0.08139972
52	0x3d3c809b	0.046021085
53	0x3d0a90a7	0.033829357
54	0x3cf9a00b	0.030471822
55	0xbd3856ca	-0.045004643
56	0xbd5c519a	-0.05378876
57	0xbd81ebc1	-0.063437946
58	0xbe5877c3	-0.21139435
59	0xbd4eb069	-0.050461207
60	0xbd70cec8	-0.058790952
61	0x3d2ebb15	0.042658884
62	0xbd796139	-0.060883734
63	0x3d7c4460	0.061588645
