data/models/nov12_24_undersample/fold1_epoch_models/epoch_0_model.pt (torch, 775567 bytes, 9 tensors)

layers1d.0.weight f4 [128, 1280]
-0.014532442 -0.023394024 -0.032924894 0.0031985801 -0.008172275 0.028828615 0.056663327 -0.009825933
0.0011332576 -0.022125924 -0.006811397 -0.023865871 -0.0012504517 0.026283152 0.017731046 0.026923764
0.01829359 -0.006374351 0.012490188 0.02754621 -0.027420634 0.022582078 -0.015615329 -0.0020737092
-0.014058815 -0.011652127 -0.04020982 0.020620812 -0.029688373 0.026792306 0.011901391 0.0014458555
0.015378823 -0.0063025756 0.008177305 -0.04426966 0.0020726488 -0.023085326 -0.027764851 -0.00015283737
0.013098817 -0.031630035 0.0060534575 -0.03040804 -0.02193418 0.018580694 0.02794743 0.014969458
0.0020223053 -0.016144013 -0.021198848 0.0046426533 -0.014905039 -0.0024871286 0.021609642 -0.0058942037
0.0029740508 -0.05068977 -0.003912852 0.045318943 -4.5987683e-08 0.027042165 0.0069618733 -0.0154842865
0.0109573975 -0.0015179944 0.009623509 0.019943755 0.019104857 -0.031858522 0.016807858 -0.030727169
-0.015845114 -0.014144571 -0.051585007 0.049632788 0.032243207 -0.0011526877 -0.02540962 0.05141876
0.021050373 0.02849756 0.013062805 0.032934304 0.03800243 0.022214992 0.004379033 0.018510338
0.018673992 0.005087392 0.014597931 0.013411467 -0.0017651555 0.0022027446 -0.0008951962 0.028376997
0.038833123 -0.025456661 -0.009975199 0.013803631 -0.019032288 -0.002358502 0.0005319279 -0.01778462
-0.008207675 0.013575799 0.008346137 -0.01898101 0.02653165 0.0038705736 0.010949335 0.013992647
0.019214602 -0.0101265125 -0.058008295 0.019671863 -0.020209124 0.011261664 -0.016823139 0.012704461
-0.01655179 -0.012350162 -0.014312688 0.020985648 0.019417517 -0.037851863 0.006582888 0.0151377395
0.0033125824 0.022863708 -0.032903627 -0.0012284595 -0.012510082 0.012260423 0.009822654 0.0017571896
-0.006975852 0.013127927 -0.009912297 0.019416837 0.041592218 -0.009556849 -0.058317535 0.017382322
-0.020937456 -0.023930665 -0.011792406 0.013620069 -0.008542306 0.034615044 -0.0059542414 0.000894973
0.036879573 -0.039981313 -0.020255456 0.0066942647 0.018792236 0.020789446 -0.042577956 -0.0127234375
0.016096203 0.04520567 -0.015130505 -0.0066868085 -0.047430716 0.0025284544 -0.034206107 -0.03683
0.023694195 -0.0008267842 0.006700583 -0.0069209747 -0.020137444 0.016528744 -0.0003943112 0.0038536622
0.0030531227 -0.022590654 0.027179262 -0.017959213 -0.01526885 -0.003513815 -0.018184476 -0.02395454
-0.0014321259 -0.041088052 0.0077157468 -0.012723095 -0.03517654 0.004136947 0.032229878 -0.009642613
-0.050468788 -0.026883312 0.018627854 -0.017496632 -0.02444918 -0.03256236 -0.013449284 -0.0033345623
0.027819596 -0.01849916 5.2418123e-05 0.010565317 0.007943024 -0.0028328085 -0.01924231 0.051690243
-0.026163192 -0.031069905 0.010775289 -0.020209206 0.045574985 0.048065152 0.0078168325 -0.022217533
-0.04117067 -0.017229913 0.031041227 -0.027469613 0.03409531 -0.004704074 0.006765915 0.022725672
0.016909167 0.029033085 0.025813626 -0.024705356 0.0028087075 0.0020047757 -0.007352907 0.004337665
-0.009608953 -0.0128413 0.03236602 -0.003155318 -0.012255437 0.023925023 0.010611398 -0.0027472759
-0.0056341314 0.037580203 -0.013197942 0.011054518 0.0045875804 -0.02361833 -0.012892885 0.030266713
0.010800625 -0.014041069 -0.035743173 -0.0340158 -0.035667177 0.03370651 -0.0031044567 0.04277555
00000000: 7b19 6ebc d3a4 bfbc 41dc 06bd 459f 513b
00000010: 01e5 05bc fd29 ec3c ce17 683d f3fc 20bc
00000020: d189 943a 6d41 b5bc 2432 dfbb 5c82 c3bc
00000030: 32e6 a3ba c44f d73c b340 913c 3a8f dc3c
00000040: 70dc 953c efdf d0bb a5a3 4c3c 97a8 e13c
00000050: 3da1 e0bc 0dfe b83c 70d7 7fbc 11e7 07bb
00000060: f256 66bc 90e8 3ebc 0db3 24bd faec a83c
00000070: 0835 f3bc 8a7b db3c 0dfe 423c dc82 bd3a
00000080: 75f7 7b3c d685 cebb 1afa 053c 1a54 35bd
00000090: 47d5 073b 701d bdbc 1d73 e3bc f842 20b9
000000a0: 6c9c 563c 7f8e 01bd 155c c63b 481a f9bc
000000b0: 4faf b3bc 8a36 983c 02f2 e43c 7542 753c
000000c0: a788 043b 7340 84bc 35a9 adbc 6621 983b
000000d0: 4434 74bc 18ff 22bb b406 b13c 2a24 c1bb
000000e0: 4be8 423b 14a0 4fbd 6237 80bb 5ba0 393d
000000f0: fe83 45b3 8887 dd3c 6d20 e43b ceb1 7dbc
00000100: a886 333c 71f7 c6ba ecab 1d3c 1661 a33c
00000110: ca81 9c3c 157e 02bd a2b0 893c 8bb7 fbbc
00000120: 9dcd 81bc a1be 67bc cd4a 53bd c04b 4b3d
00000130: 7411 043d c815 97ba d627 d0bc 7a9c 523d
00000140: d571 ac3c b773 e93c 6005 563c 1fe6 063d
00000150: 70a8 1b3d 37fc b53c fe7d 8f3b fea2 973c
00000160: 33fa 983c 23b4 a63b 292c 6f3c c5bb 5b3c
00000170: ca5c e7ba ec5b 103b 9aab 6aba e076 e83c
00000180: 7b0f 1f3d 7d8a d0bc 046f 23bc a028 623c
00000190: 9ae9 9bbc 1991 1abb 1471 0b3a 0db1 91bc
000001a0: 7c79 06bc 076d 5e3c 3cbe 083c 107e 9bbc
000001b0: e758 d93c 73a9 7d3b d764 333c 6a41 653c
000001c0: f167 9d3c ace9 25bc 1b9a 6dbd e326 a13c
000001d0: 9b8d a5bc d882 383c aed0 89bc 5f26 503c
000001e0: 9f97 87bc 5558 4abc c47f 6abc 18ea ab3c
000001f0: 7c11 9f3c 8e0a 1bbd 44b5 d73b 4804 783c
00000200: e917 593b ac4c bb3c f4c5 06bd 4304 a1ba
00000210: 16f7 4cbc f1df 483c 32ef 203c 8051 e63a
00000220: b095 e4bb 8416 573c 3067 22bc 0f10 9f3c
00000230: 9a5c 2a3d 5494 1cbc 5ede 6ebd 5f65 8e3c
00000240: 0785 abbc 3e0a c4bc f034 41bc b626 5f3c
00000250: 07f5 0bbc 81c8 0d3d cc1b c3bb 9f9c 6a3a
00000260: 090f 173d 72c3 23bd c5ee a5bc 905b db3b
00000270: 2df2 993c a14e aa3c 3966 2ebd f775 50bc
00000280: 2fdc 833c 9529 393d f0e5 77bc 041d dbbb
00000290: b646 42bd 6db4 253b b41b 0cbd 0edb 16bd
000002a0: 541a c23c 8cbc 58ba 9090 db3b 58c9 e2bb
000002b0: 48f7 a4bc 4a67 873c 8ebb ceb9 b98d 7c3b
000002c0: e616 483b 0910 b9bc 0ba7 de3c 331f 93bc
000002d0: 332a 7abc 0948 66bb 9cf7 94bc 503c c4bc
000002e0: 2cb6 bbba f24b 28bd 60d4 fc3b 8774 50bc
000002f0: 4715 10bd 3a8f 873b 7a03 043d 0dfc 1dbc
00000300: 5cb8 4ebd 643a dcbc 7199 983c 1955 8fbc
00000310: a649 c8bc 1c60 05bd 635a 5cbc ac88 5abb
00000320: ece5 e33c 8d8b 97bc 88db 5b38 271a 2d3c
00000330: 7523 023c a4a6 39bb 0da2 9dbc 26b9 533d
00000340: 3154 d6bc 5086 febc d68a 303c c78d a5bc
00000350: d6ac 3a3d f7df 443d 2c12 003c 8b01 b6bc
00000360: 94a2 28bd bf25 8dbc 2c4a fe3c f407 e1bc
00000370: 86a7 0b3d a224 9abb 9cb4 dd3b 302b ba3c
00000380: 1885 8a3c cbd6 ed3c 1977 d33c e362 cabc
00000390: 4b12 383b 8e62 033b a8f0 f0bb f922 8e3b
000003a0: df6e 1dbc 5164 52bc 3b92 043d 74c9 4ebb
000003b0: 07cb 48bc 69fe c33c 6edb 2d3c a40b 34bb
000003c0: 859e b8bb b3ed 193d 2e3c 58bc 021e 353c
000003d0: 6a53 963b 3a7b c1bc ae3c 53bc e6f1 f73c
000003e0: 1bf5 303c 830c 66bc 6f67 12bd 2754 0bbd
000003f0: bf17 12bd d60f 0a3d 2474 4bbb 6a35 2f3d

layers1d.0.bias f4 [128]
0.001103949 -0.019574672 -0.027538676 -0.033125736 -0.025878698 0.003268435 0.013964241 0.005250791
-0.022169605 0.0046130153 0.011839017 -0.010421669 -0.00075245736 -0.011414408 -0.028643915 -0.017576441
0.008609886 2.994619e-05 -0.00952069 0.009261354 -0.010878818 -0.028916627 -0.0028547137 0.016096408
-0.024142127 0.0043881577 -0.026991142 -0.0038721687 -0.012764414 0.009084603 0.008997654 -0.019901173
0.005142116 -0.0032240318 0.0008305901 0.015846644 -0.018769568 -0.037859555 -0.04272926 0.01036907
-0.002438832 -0.009115211 -0.023696411 -0.03197642 0.0045639155 -0.010783605 -0.026134796 -0.017215135
-0.0015049328 -0.006401852 -0.03184446 -0.006400407 0.016628284 -0.020473843 -0.02562318 -0.02119734
-0.003669392 -0.013237224 -0.008859107 -0.00233995 -0.006901809 -0.018142387 -0.011698462 -0.012933306
0.006287347 0.00019481918 -0.002947553 -0.00945514 -0.037328653 -0.022710634 0.012502428 -0.01015273
-0.008906878 -0.027150089 -0.020344183 -0.0086931735 -0.023131192 0.0153049305 0.022218037 0.022008661
-0.012094998 -0.007697891 -0.012090062 -0.01797968 -0.0069004474 -0.03537103 -0.0069120983 0.016469765
-0.030507132 -0.031824388 -0.030439608 -0.012036101 -0.017797526 0.027058104 -0.0056992746 -0.02026097
-0.003051378 -0.01044215 -0.009354783 -0.015303753 0.008077896 0.020765558 -0.046231974 0.017582942
-0.008639166 -0.030567609 -0.015627434 -0.011222189 0.006824259 -0.0025800092 0.02122734 -0.033751696
-0.015936876 0.0041257627 -0.029773867 -0.010412313 -0.0042152237 -0.004080134 -0.026781851 -0.025247756
-0.03025356 -0.023584645 -0.034017846 -0.011260149 -0.0019599164 -0.0012486117 -0.014949393 -0.0071200063
00000000: 62b2 903a 105b a0bc ca98 e1bc daae 07bd
00000010: 90ff d3bc 3d33 563b 46ca 643c d40e ac3b
00000020: 089d b5bc c728 973b 70f8 413c a6bf 2abc
00000030: 8f40 45ba 7f03 3bbc a5a6 eabc 78fc 8fbc
00000040: 7b10 0d3c f434 fb37 abfc 1bbc efbc 173c
00000050: 123d 32bc 90e2 ecbc 2616 3bbb 9ddc 833c
00000060: b6c5 c5bc 89ca 8f3b 871c ddbc 36c4 7dbb
00000070: d521 51bc 96d7 143c e56a 133c c907 a3bc
00000080: 327f a83b 474a 53bb f5bb 593a d2d0 813c
00000090: a3c2 99bc 9f12 1bbd e004 2fbd 08e3 293c
000000a0: d0d4 1fbb f757 15bc fa1e c2bc b5f9 02bd
000000b0: e68c 953b b8ad 30bc a418 d6bc c106 8dbc
000000c0: 2a41 c5ba a0c6 d1bb 566f 02bd 81ba d1bb
000000d0: 0a38 883c c3b8 a7bc b4e7 d1bc 0ba6 adbc
000000e0: 2f7a 70bb f1e0 58bc ca25 11bc d959 19bb
000000f0: 9228 e2bb 589f 94bc e8aa 3fbc 38e6 53bc
00000100: 1706 ce3b 6048 4c39 bc2b 41bb bbe9 1abc
00000110: eee5 18bd a70b babc fcd6 4c3c a357 26bc
00000120: 27ee 11bc dd69 debc d8a8 a6bc d06d 0ebc
00000130: a07d bdbc 88c1 7a3c 9a02 b63c 824b b43c
00000140: 192a 46bc 973e fcbb 6515 46bc 1f4a 93bc
00000150: 261d e2bb 37e1 10bd e27e e2bb 9aeb 863c
00000160: 18ea f9bc 4a5a 02bd 7c5c f9bc 1133 45bc
00000170: 1ecc 91bc f5a8 dd3c fbc0 babb 55fa a5bc
00000180: a1f9 47bb 8d15 2bbc ce44 19bc 98bc 7abc
00000190: 2759 043c 881c aa3c bd5d 3dbd 1a0a 903c
000001a0: 4a8b 0dbc ec68 fabc 1b05 80bc 46dd 37bc
000001b0: 099e df3b 5f15 29bb f5e4 ad3c 383f 0abd
000001c0: 0d8e 82bc 6831 873b 53e8 f3bc 6898 2abc
000001d0: dc1f 8abb a5b2 85bb 9d65 dbbc 62d4 cebc
000001e0: 50d6 f7bc 9634 c1bc 4c56 0bbd 7d7c 38bc
000001f0: f171 00bb 75a8 a3ba 4dee 74bc f14e e9bb

layers1d.3.weight f4 [128, 128]
0.0013123705 -0.0010166202 0.06318659 0.032615453 0.060280256 -0.032141667 -0.059543293 0.033645812
0.059882622 0.042830985 -0.07274982 -0.05740382 0.07950598 -0.058068547 -0.0961266 0.06441189
-0.00037202807 0.07734118 -0.07557897 0.071221955 -0.010431833 0.00067626016 -0.05322624 -0.059619024
-0.08351444 0.024001444 0.023747968 0.07017173 -0.03869682 -0.09458735 -0.030345876 -0.07237275
-0.05491185 0.06843771 -0.045317415 0.07471167 0.0953008 -0.017818486 0.09223572 0.041918192
-0.09054744 0.099737026 -0.0059283343 0.035688907 -0.024316523 -0.07565819 0.027665107 -0.01370161
0.058853623 -0.09935582 0.029487105 -0.002681334 0.04691418 -0.07348749 -0.025712555 0.060817942
0.112842396 -0.001381326 -0.050329838 0.1065822 -0.04420849 -0.0628233 0.023154836 -0.052047458
-0.042401634 -0.005584794 -0.07658774 0.061583027 0.12411447 -0.038033 0.056971926 0.015030393
-0.07041235 0.01665311 -0.05862974 -0.032556906 -0.010972042 0.06646875 -0.021202348 0.029922916
-0.083519235 0.015271664 -0.057743214 -0.03715792 -0.05822939 -0.03062076 0.013777157 0.07383592
-0.08964937 -0.055876266 0.11077045 0.048626423 -0.07744708 -0.03236651 0.022602601 0.060105957
-0.052983947 0.054914508 0.041585088 -0.043784156 0.08353205 0.035658024 0.0075290124 0.004784461
0.08340573 0.0014823668 -0.0649834 -0.023713898 0.103460655 -0.06953657 -0.04801598 -0.055449646
-0.07216125 0.027525935 0.08702982 0.052704453 0.008848091 0.017584018 0.084065095 -0.10964906
-0.026521401 0.02809836 -0.04911986 0.0032087 0.108274125 -0.01243392 0.008043433 0.05891662
-0.06158888 0.06728092 0.007837432 0.043242402 -0.014223022 -0.07763718 -0.012951204 0.04351593
0.0048769386 0.053806443 -0.051317196 -0.038369842 0.060041174 0.057367876 -0.05017705 0.0006822628
0.09738917 0.06983213 0.0021747155 0.102491945 0.101400055 -0.03228668 -0.08315667 -0.060091585
-0.041525174 -0.05301649 -0.004391046 0.10453382 0.03785832 -0.05544779 -0.022476451 0.02033916
-0.07996188 -0.06865243 -0.045068655 0.037447516 0.08333605 -0.020457309 -0.0234975 -0.0449051
-0.015475376 -0.013334673 0.0370859 0.09565354 -0.059789784 0.0549677 0.073810436 -0.017705746
0.016780382 -0.009236994 0.007000025 -0.048546866 0.05707592 -0.0019769908 -0.010015459 0.071441464
0.107151575 -0.053408086 0.012928571 0.08305038 -0.018170323 -0.014978677 -0.1000154 -0.080754325
-0.017449338 -0.06957111 -0.07492445 0.025487207 0.07805572 0.1064509 -0.03187738 0.053939827
-0.0665083 0.033989053 0.032037556 0.032924235 0.034112785 -0.02396824 -0.045572776 -0.05748927
-0.05537933 0.044691253 0.039875943 0.065622 -0.07956163 0.09047854 0.022514353 0.023576798
0.0034722136 0.0023000366 0.017318085 0.053767152 0.019107964 0.044993665 0.03958279 0.036311764
-0.062604204 -0.08358815 -0.08077263 -0.018329406 0.00013426902 0.014980823 -0.069642924 -0.09526297
-0.051539004 0.0027132914 0.05454497 -0.026828358 -0.06553337 -0.030921271 0.027010698 0.05850669
-0.029709075 0.070516795 0.06691625 -0.036302928 -0.022531481 -0.029387802 -0.018294375 -0.11359094
0.046699885 -0.057139043 -0.07003292 0.014709292 0.10369465 0.024808455 0.06973108 -0.08008894
00000000: d903 ac3a 1d40 85ba f967 813d c897 053d
00000010: 6ee8 763d fba6 03bd abe3 73bd 31d0 093d
00000020: 7b47 753d 8b6f 2f3d dcfd 94bd 4520 6bbd
00000030: 08d4 a23d 49d9 6dbd 06de c4bd 62ea 833d
00000040: c30c c3b9 0d65 9e3d 26c9 9abd d1dc 913d
00000050: 47ea 2abc 0d47 313a c203 5abd 1433 74bd
00000060: 9e09 abbd ad9e c43c 198b c23c 32b6 8f3d
00000070: 8f80 1ebd 03b7 c1bd ea97 f8bc 2a38 94bd
00000080: 3feb 60bd 1229 8c3d c19e 39bd 6f02 993d
00000090: 112d c33d 13f8 91bc 15e6 bc3d 69b2 2b3d
000000a0: f070 b9bd ed42 cc3d 7942 c2bb 882e 123d
000000b0: 7233 c7bc aef2 9abd efa1 e23c b87c 60bc
000000c0: 7f10 713d 107b cbbd f18e f13c 52b9 2fbb
000000d0: 1529 403d 9c80 96bd 23a3 d2bc 3c1c 793d
000000e0: ea19 e73d 9c0d b5ba a926 4ebd c547 da3d
000000f0: f613 35bd 81a9 80bd 36af bd3c b72f 55bd
00000100: 56ad 2dbd a600 b7bb 08da 9cbd 7c3e 7c3d
00000110: ba2f fe3d 7ec8 1bbd 655b 693d 0a42 763c
00000120: 5a34 90bd 1a6c 883c bd25 70bd 645a 05bd
00000130: 14c4 33bc c520 883d 8cb0 adbc e720 f53c
00000140: 220c abbd 0036 7a3c 2684 6cbd e732 18bd
00000150: f181 6ebd 63d8 fabc 96b9 613c 4937 973d
00000160: 179a b7bd 83de 64bd 9edb e23d 802c 473d
00000170: 939c 9ebd bf92 04bd 1729 b93c aa31 763d
00000180: b205 59bd 09ee 603d 2055 2a3d 0457 33bd
00000190: da12 ab3d 260e 123d efb5 f63b f8c6 9c3b
000001a0: a0d0 aa3d fa4b c23a 0416 85bd a643 c2bc
000001b0: 2ee3 d33d 3069 8ebd 67ac 44bd 2b1f 63bd
000001c0: 47c9 93bd 127e e13c b13c b23d a0e0 573d
000001d0: 95f7 103c 5c0c 903c 522a ac3d b08f e0bd
000001e0: 6943 d9bc 882e e63c e831 49bd 0e49 523b
000001f0: d3be dd3d a4b7 4bbc 9ac8 033c 8e52 713d
00000200: 9f44 7cbd 94ca 893d 9368 003c f21e 313d
00000210: ae07 69bc 3e00 9fbd 4931 54bc c33d 323d
00000220: bace 9f3b 2564 5c3d fb31 52bd b229 1dbd
00000230: bced 753d 94fa 6a3d 7386 4dbd e2d9 323a
00000240: f973 c73d 2604 8f3d ac85 0e3b 4ce7 d13d
00000250: d5aa cf3d 0a3f 04bd 0b4e aabd 9822 76bd
00000260: 4d16 2abd d227 59bd c3e2 8fbb d415 d63d
00000270: 5311 1b3d 391d 63bd 8920 b8bc 4f9e a63c
00000280: 0ec3 a3bd a599 8cbd e999 38bd 9162 193d
00000290: 17ac aa3d 1696 a7bc d47d c0bc 69ee 37bd
000002a0: 6e8c 7dbc ac79 5abc 62e7 173d 01e6 c33d
000002b0: 22e6 74bd d025 613d ed29 973d a40b 91bc
000002c0: 0377 893c c356 17bc 7760 e53b 14d9 46bd
000002d0: 71c8 693d 6790 01bb e117 24bc e74f 923d
000002e0: 4972 db3d 70c2 5abd 5bd2 533c 5116 aa3d
000002f0: eed9 94bc 2069 75bc e0d4 ccbd 8662 a5bd
00000300: eaf1 8ebc 4c7b 8ebd fd71 99bd 8cca d03c
00000310: addb 9f3d ee02 da3d db91 02bd 02f0 5c3d
00000320: 8135 88bd 1b38 0b3d d039 033d 90db 063d
00000330: d9b9 0b3d 0b59 c4bc 85aa 3abd de79 6bbd
00000340: 70d5 62bd 2d0e 373d f554 233d d464 863d
00000350: 35f1 a2bd d04c b93d 0570 b83c 2124 c13c
00000360: 148e 633b 36bc 163b a8de 8d3c f23a 5c3d
00000370: 4e88 9c3c 474b 383d 9021 223d a5bb 143d
00000380: a236 80bd 4430 abbd 1f6c a5bd 8d27 96bc
00000390: 91ca 0c39 2072 753c f3a0 8ebd 3b19 c3bd
000003a0: 901a 53bd 7ad1 313b 8c6a 5f3d 25c7 dbbc
000003b0: 5c36 86bd 9b4e fdbc 8a45 dd3c b6a4 6f3d
000003c0: 7260 f3bc 1c6b 903d 630b 893d 61b2 14bd
000003d0: f193 b8bc b0be f0bc 16de 95bc 5ea2 e8bd
000003e0: 6148 3f3d a10a 6abd 6b6d 8fbd 3eff 703c
000003f0: dc5d d43d 1a3b cb3c 2bcf 8e3d ac05 a4bd

layers1d.3.bias f4 [128]
-0.0066086235 0.021996796 0.04034536 0.065120794 0.01196 0.015736446 0.008231671 -0.032883998
0.07669399 -0.026256781 -0.056019206 0.007025481 -0.0017927638 -0.056927916 0.059141506 -0.04069521
0.009320755 -0.03618145 -0.011665117 0.04432613 -0.00016947243 0.06559939 -0.01339553 -0.067636736
0.046663653 -0.049834546 0.00881757 -0.011246523 0.046938885 0.03998951 0.02631479 0.05038923
-0.059235714 -0.06128759 0.03574265 -0.04012078 -0.013682565 -0.054828785 0.07131455 0.058002677
0.014413407 -0.040643174 0.06951582 0.018319411 -0.07072918 0.005615582 -0.0066661993 0.04029359
0.0086738905 -0.06861859 0.048588768 -0.04819668 -0.057104234 -0.027013343 0.00044200645 0.027519519
0.02062764 0.023821743 0.006099007 -0.016025625 -0.0672497 -0.040271413 -0.09766785 0.011680841
0.04266425 0.037462015 0.017982908 0.059363555 0.035653334 -0.028619148 0.05045413 -0.070023574
-0.012547857 -0.011507251 -0.036381494 0.052306756 -0.06881042 0.023234025 0.056059863 -0.044160772
-0.060739998 0.0543505 -0.027866466 -0.011990618 -0.018439667 -0.08393076 -0.02102359 0.020895291
-0.025466854 -0.07580112 0.055291515 0.015104649 0.008619281 -0.07464593 -0.040466998 -0.0899684
-0.00865446 0.051535968 -0.0069299503 0.008969708 0.031174766 0.059715856 -0.06480227 0.058019865
0.005902285 0.02311186 -0.024042165 0.014100899 -0.060709417 -0.09452243 0.06003348 -0.02363812
-0.0041893204 0.021203771 -0.057861205 -0.050007816 -0.007597892 -0.044687882 -0.06482077 -0.03585031
-0.067874506 0.020365546 -0.06919807 -0.010997532 0.026898867 -0.031445894 -0.0113562215 0.036429733
00000000: 278d d8bb a032 b43c 2d41 253d 0d5e 853d
00000010: e0f3 433c b8e9 803c 21de 063c 5fb1 06bd
00000020: bd11 9d3d 7618 d7bc 6574 65bd 0236 e63b
00000030: 2cfb eaba 3f2d 69bd 5d3e 723d 05b0 26bd
00000040: 14b6 183c 0033 14bd 0c1f 3fbc 518f 353d
00000050: 69b4 31b9 f958 863d ed78 5bbc 2185 8abd
00000060: 6322 3f3d 4f1f 4cbd 9277 103c 5643 38bc
00000070: fd42 403d 0acc 233d 1d92 d73c f064 4e3d
00000080: 26a1 72bd b208 7bbd e366 123d b055 24bd
00000090: d62c 60bc 2694 60bd 5d0d 923d 3794 6d3d
000000a0: 3626 6c3c 7579 26bd 4f5e 8e3d 9712 963c
000000b0: 76da 90bd eb02 b83b 2270 dabb e40a 253d
000000c0: ef1c 0e3c e787 8cbd 0405 473d e269 45bd
000000d0: 21e6 69bd 164b ddbc 1abd e739 9d70 e13c
000000e0: 4cfb a83c d125 c33c 2eda c73b 2c48 83bc
000000f0: 36ba 89bd a3f3 24bd 1506 c8bd 0061 3f3c
00000100: b5c0 2e3d c571 193d e450 933c 3327 733d
00000110: 3b09 123d b472 eabc fda8 4e3d 8568 8fbd
00000120: 8795 4dbc e988 3cbc c304 15bd 9c3f 563d
00000130: 7aec 8cbd 4855 be3c 079f 653d ede1 34bd
00000140: 81ca 78bd a19e 5e3d 3748 e4bc 4c74 44bc
00000150: c90e 97bc e4e3 abbd aa39 acbc 9a2c ab3c
00000160: dd9f d0bc 9e3d 9bbd 5b79 623d 7d79 773c
00000170: e337 0d3c f7df 98bd b9c0 25bd 5a41 b8bd
00000180: 70cb 0dbc 6117 533d a314 e3bb aff5 123c
00000190: 3962 ff3c 9d98 743d 0db7 84bd 3da6 6d3d
000001a0: f567 c13b 1555 bd3c 13f4 c4bc 7507 673c
000001b0: 70aa 78bd fa94 c1bd abe5 753d bba4 c1bc
000001c0: 9146 89bb 88b3 ad3c dfff 6cbd ffd4 4cbd
000001d0: bdf7 f8bb a40a 37bd c0c0 84bd c6d7 12bd
000001e0: ca01 8bbd a5d5 a63c b8b7 8dbd fe2e 34bc
000001f0: 035b dc3c 69cd 00bd 720f 3abc 5837 153d

combined.0.weight f4 [64, 128]
0.047870707 -0.045623943 0.07716042 -0.04731302 0.06748688 -0.007949987 -0.08524677 0.07820871
-0.003624223 -0.055945564 0.039070144 -0.06326419 0.012779751 -0.074215956 -0.03228467 -0.006018467
-0.013778101 0.08236323 -0.01252341 0.089282505 -0.0246929 0.01002351 -0.026468292 0.0206244
-0.030780276 -0.036790457 0.056581505 -0.016343463 -0.11932097 -0.04819937 0.05096609 0.003683971
0.027161425 -0.03533369 0.029470436 0.01420773 -0.034785476 0.031912 0.053455498 0.016440129
0.010025297 0.07645871 0.07740198 -0.049976736 0.023587976 0.034077212 0.03235088 0.032587077
0.07233993 -0.06968275 -0.05209113 -0.03904928 0.027500518 0.044572532 -0.050249346 0.021724798
0.018158814 -0.068465374 -0.030341052 0.062157314 0.06252765 0.007177113 0.051676504 -0.079799265
0.045047626 0.054035086 -0.028545883 0.028789831 0.06797948 0.049227994 -0.03960422 -0.061112817
0.047590263 0.059713487 -0.003222384 -0.06973579 -0.087358326 -0.055075597 -0.0446966 0.03814009
-0.009147577 0.008599074 -0.038588554 -0.060156915 0.10591213 0.096536584 0.06683456 0.0069494583
0.06289369 -0.00031469174 0.025986329 0.05007821 -0.033893894 0.029762955 0.09816017 0.059400532
0.0024029948 0.033975113 0.014818415 -0.023511741 -0.02179 0.028319638 0.060889877 0.06546952
0.03703737 -0.04068522 -0.06795723 -0.050912168 0.0026424944 -0.04781083 0.05043443 0.06431441
-0.0523573 0.043421123 0.04579002 0.07146565 -0.04290011 -0.08672591 0.0117224045 0.07660184
0.099210694 -0.051431105 -0.0539491 0.055015467 -0.030495184 -0.038761124 -0.10052824 -0.030563623
0.039583325 0.098022915 -0.053889338 -0.08232894 0.06473864 -0.037620995 0.061836325 -0.06832003
-0.0672327 0.035865493 -0.043285917 0.019529646 -0.028904328 -0.058239426 -0.011626091 -0.04494488
-0.015101206 0.07731872 0.025953354 0.05242646 -0.03171684 0.019279616 -0.01760988 0.0196593
0.0064968504 0.07246947 0.04631241 -0.06462845 0.10102307 -0.01976834 0.066517256 -0.11929244
0.030435016 0.066341825 0.08958442 0.019699967 -0.06289732 0.0003503685 0.021107467 0.10291028
-0.015737679 -0.012432148 -0.07314714 0.013437683 -0.0550619 -0.006581474 0.025355939 0.05763189
0.044980474 -0.019369893 0.046675097 -0.004587048 -0.058778826 0.052658133 -0.022835487 -0.0063625686
-0.04137256 0.024434503 -0.055613786 0.045937818 -0.024145324 0.031214315 0.06728138 0.036133092
-0.0039337464 -0.024000276 -0.06256531 -0.056765165 -0.030474996 -0.059244905 -0.049779464 -0.0029439505
-0.032286923 0.043699056 -0.0060009183 0.068201385 -0.022788154 0.11145426 -0.017356696 -0.048978362
0.07996574 -0.085155405 -0.016038647 -0.047755785 -0.1015412 -0.05649106 -0.03374657 0.045440715
0.025718067 -0.082955316 -0.06773778 0.04939188 -0.04666214 -0.05473564 0.012481648 -0.020010654
-0.019307556 -0.038787577 -0.05912544 -0.01662923 -0.062192056 -0.0012500779 0.03317641 0.051206697
-0.08308222 0.093786165 -0.065714695 0.022352984 0.045903098 -0.05311344 -0.047990628 -0.09107779
-0.02082684 -0.082058296 -0.094695054 0.09478425 -0.04849921 0.024380889 0.016240856 0.0131840985
-0.026195373 0.07855161 -0.01002288 0.029953027 0.077057645 0.07610505 0.008137965 0.032075524
00000000: 1314 443d 2ce0 3abd 4806 9e3d 4ccb 41bd
00000010: 9036 8a3d aa40 02bc dc95 aebd e32b a03d
00000020: 5f84 6dbb 2d27 65bd 0408 203d a890 81bd
00000030: 2962 513c 89fe 97bd ee3c 04bd 8f36 c5bb
00000040: 8bbd 61bc 0eae a83d fd2e 4dbc bfd9 b63d
00000050: c448 cabc a639 243c 08d4 d8bc 80f4 a83c
00000060: eb26 fcbc 97b1 16bd 02c2 673d bae2 85bc
00000070: 8d5e f4bd b46c 45bd d2c1 503d c76e 713b
00000080: a381 de3c 0fba 10bd fc6b f13c 8ac7 683c
00000090: 377b 0ebd 28b6 023d 27f4 5a3d 73ad 863c
000000a0: 2541 243c 6296 9c3d ee84 9e3d 68b4 4cbd
000000b0: 923b c13c 8c94 0b3d 5b82 043d 077a 053d
000000c0: f526 943d d4b5 8ebd 825d 55bd 23f2 1fbd
000000d0: c448 e13c b091 363d 42d2 4dbd 34f8 b13c
000000e0: cbc1 943c 9337 8cbd cc8d f8bc ab98 7e3d
000000f0: 7f0e 803d fd2d eb3b beaa 533d cc6d a3bd
00000100: dc83 383d e553 5d3d 0ed9 e9bc a7d8 eb3c
00000110: d338 8b3d 4ba3 493d 0938 22bd 6f51 7abd
00000120: 02ee 423d 2196 743d a22e 53bb a3d1 8ebd
00000130: ece8 b2bd f396 61bd c813 37bd c838 1c3d
00000140: b8df 15bc 21e3 0c3c 080f 1ebd 1967 76bd
00000150: 75e8 d83d f9b4 c53d 8fe0 883d 48b8 e33b
00000160: 68ce 803d 36fd a4b9 48e1 d43c cf1e 4d3d
00000170: 53d4 0abd 71d1 f33c 3308 c93d f94d 733d
00000180: 907b 1d3b 7d29 0b3d f0c8 723c b29b c0bc
00000190: f180 b2bc 96fe e73c aa67 793d e214 863d
000001a0: 7fb4 173d 8ca5 26bd 292d 8bbd 4789 50bd
000001b0: b32d 2d3b 4ad5 43bd 5594 4e3d 46b7 833d
000001c0: 9c74 56bd 59da 313d 518e 3b3d 955c 923d
000001d0: 07b8 2fbd 5b9d b1bd 540f 403c 6de1 9c3d
000001e0: fa2e cb3d 6ca9 52bd bbf9 5cbd e657 613d
000001f0: 09d1 f9bc fcc3 1ebd c0e1 cdbd 9060 fabc
00000200: 2022 223d 3dc0 c83d 11bb 5cbd 139c a8bd
00000210: b195 843d 7918 1abd 1648 7d3d 5feb 8bbd
00000220: 4cb1 89bd b2e7 123d 934c 31bd a3fc 9f3c
00000230: c5c8 ecbc 778c 6ebd 5c7b 3ebc 1f18 38bd
00000240: 0c6b 77bc 4759 9e3d 219c d43c 21bd 563d
00000250: 84e9 01bd 49f0 9d3c 9842 90bc 8a0c a13c
00000260: 88e3 d43b e06a 943d 15b2 3d3d ec5b 84bd
00000270: 2fe5 ce3d 37f1 a1bc 333a 883d 984f f4bd
00000280: db52 f93c 39de 873d 0978 b73d d361 a13c
00000290: 4fd0 80bd aab1 b739 91e9 ac3c a0c2 d23d
000002a0: 4eec 80bc 35b0 4bbc 2bce 95bd ba29 5c3c
000002b0: 9688 61bd 68a9 d7bb 42b7 cf3c 6b0f 6c3d
000002c0: 723d 383d 9cad 9ebc 632e 3f3d f34e 96bb
000002d0: 11c2 70bd 0eb0 573d 7d11 bbbc 187d d0bb
000002e0: 4676 29bd de2a c83c 48cb 63bd 4b29 3c3d
000002f0: 6acc c5bc 2ab5 ff3c d2ca 893d 4b00 143d
00000300: a8e6 80bb 3a9c c4bc 3e22 80bd 9782 68bd
00000310: b3a6 f9bc c9aa 72bd 8de5 4bbd 4bef 40bb
00000320: 4b3f 04bd c8fd 323d 5aa3 c4bb 2bad 8b3d
00000330: 39ae babc 2242 e43d a12f 8ebc 899d 48bd
00000340: 14c5 a33d f565 aebd 7b63 83bc 929b 43bd
00000350: d5f4 cfbd 2b63 67bd d839 0abd 0b20 3a3d
00000360: b2ae d23c 7ae4 a9bd 1bba 8abd 244f 4a3d
00000370: cd20 3fbd 7a32 60bd d37f 4c3c 62ed a3bc
00000380: e12a 9ebc b9df 1ebd 842d 72bd 063a 88bc
00000390: 19bd 7ebd a7d9 a3ba fde3 073d 1dbe 513d
000003a0: 0327 aabd f612 c03d 6d95 86bd 9b1d b73c
000003b0: e304 3c3d 7a8d 59bd d291 44bd fe86 babd
000003c0: 0d9d aabc 2e0e a8bd 7bef c1bd 3f1e c23d
000003d0: 1ca7 46bd 6eba c73c 8b0b 853c 1e02 583c
000003e0: ae97 d6bc abdf a03d 0137 24bc 0d60 f53c
000003f0: 66d0 9d3d f7dc 9b3d 1955 053c a061 033d

combined.0.bias f4 [64]
-0.030244717 0.0064580794 0.022105152 0.022481086 0.019983651 0.03998561 0.032369375 0.06279351
-0.061410792 -0.065377854 0.06014276 -0.029607235 -0.0046920893 0.08549791 -0.005141411 0.008526073
-0.05889829 -0.018085599 0.041385826 0.034175664 0.0261989 -0.0521161 -0.015484833 0.061461765
-0.0011877948 -0.09551628 0.042387128 -0.02187147 -0.0517403 -0.003753977 0.050785277 0.033654254
0.053296812 -0.07188248 0.04603865 0.063202955 -0.017803246 -0.07662078 -0.010264005 0.011618886
0.04279747 -0.029604776 0.08936417 -0.032983936 0.0012065483 0.0048276717 -0.022940833 0.025397563
-0.0073115495 -0.0069543226 -0.024447111 0.044477113 0.0041320412 0.059427086 0.051727477 0.06818806
0.08175031 0.022154853 0.010301197 0.0015965875 0.052405387 -0.02271124 0.03121789 -0.0040973816
00000000: c5c3 f7bc 4c9e d33b dd15 b53c 412a b83c
00000010: c1b4 a33c f3c7 233d c095 043d e299 803d
00000020: e289 7bbd d3e4 85bd 4158 763d df8a f2bc
00000030: 19c0 99bb 8719 af3d 4879 a8bb f1b0 0b3c
00000040: 553f 71bd 4028 94bc 2f84 293d c8fb 0b3d
00000050: 139f d63c b177 55bd 19b4 7dbc 55bf 7b3d
00000060: c8af 9bba 0a9e c3bd 209e 2d3d cc2b b3bc
00000070: a3ed 53bd 4805 76bb 3904 503d 0bd9 093d
00000080: c24d 5a3d 1f37 93bd 0693 3c3d 8d70 813d
00000090: 1dd8 91bc 5beb 9cbd 5b2a 28bc 245d 3e3c
000000a0: 664c 2f3d b785 f2bc 9004 b73d 2a1a 07bd
000000b0: 0b25 9e3a 7231 9e3b 6aee bbbc 8d0e d03c
000000c0: b995 efbb 16e1 e3bb 4f45 c8bc a22d 363d
000000d0: 1366 873b d169 733d 31e0 533d 2ea6 8b3d
000000e0: b56c a73d 187e b53c 5ac6 283c 9644 d13a
000000f0: 08a7 563d ec0c babc a9bc ff3c 5443 86bb

combined.3.weight f4 [64, 64]
0.08006999 -0.07771849 -0.043409906 -0.04403436 -0.05637654 -0.048979968 -0.06796814 -0.079226874
0.045456395 0.036906086 -0.023740118 0.15468219 0.040981445 0.014750952 -0.11661127 -0.09296313
0.08341173 -0.0719452 0.041777737 -0.09419362 0.063291036 0.08758909 -0.12478214 0.07912341
-0.08558705 -0.067047745 0.10868803 0.12161622 0.059480302 0.0672628 0.033875104 -0.10150076
0.06963416 -0.009035084 0.07680342 -0.019191626 0.06386833 -0.024852663 -0.09282632 -0.03525704
-0.122442186 -0.07373151 -0.04477551 -0.022205645 0.0062718783 0.00981512 0.061784383 -0.00948599
-0.004502487 0.007893634 -0.09352217 -0.07917768 -0.008465828 -0.026170008 -0.13610223 0.08309721
-0.094257005 0.112098135 0.062033694 0.06352094 -0.111429535 -0.055913832 0.058090717 -0.055282496
0.073639385 0.02257956 -0.10213081 -0.056424446 0.03666008 0.0133515075 -0.054936673 0.09458366
0.07207762 0.036629327 -0.036158334 0.07625185 0.002804933 -0.03777682 0.028785314 -0.13179673
-0.006661504 0.09625185 0.08727976 -0.117522456 0.08587052 -0.010608489 -0.14141026 -0.017808314
-0.12619781 0.089416966 0.080214225 0.052494925 0.07894927 -0.04521003 -0.025124833 -0.059188772
0.06302361 -0.13690583 0.16561495 0.053364754 0.013550557 -0.05911518 0.01240448 0.07464643
0.051044513 0.06069206 -0.010690986 -0.10672639 -0.059729856 -0.035783537 -0.03539046 0.05646568
-0.08309668 0.012043724 -0.083971225 0.029527651 -0.05476455 0.05085958 -0.0418321 -0.1049729
0.028571514 -0.00827783 -0.026620613 0.047246266 -0.030664662 -0.08453355 0.009640346 -0.14795661
-0.02741218 -0.08404401 2.038548e-05 0.09258787 -0.0393089 0.089137495 0.091401525 -0.04639246
-0.04310632 -0.0019401828 -0.118228264 0.025215657 0.040708676 0.097186565 -0.021840485 0.14930972
0.012062701 0.006424879 -0.013531483 -0.091486454 0.029222187 -0.07573965 -0.024147436 0.050783772
0.026206013 0.012215202 -0.064758025 0.12427798 0.009501168 0.010522216 0.04079784 -0.112783
0.03647443 0.04782586 0.07629879 0.14271332 0.09378414 0.03449699 0.02256093 -0.0811909
0.09421778 0.0019101514 -0.038465753 -0.097587086 0.095652945 0.13446982 0.16076712 0.037965715
-0.0022373316 -0.12270832 -0.03446945 -0.10452398 -0.11895496 -0.066233 -0.0050874124 0.060189523
-0.054342054 0.03779837 0.11060582 0.01950595 0.06765343 0.08422745 0.060249448 -0.018793235
0.1289216 -0.07361364 0.06954342 0.12285923 0.063109 -0.009187889 -0.11458535 0.0810666
0.029603703 0.011155401 -0.011156611 0.021315437 -0.033214316 0.035984036 -0.018829064 0.14324129
0.008869019 -0.091573566 -0.040693406 -0.034217644 -0.09521267 0.102597035 -0.029225562 0.013809368
-0.057708703 -0.017075315 0.041667074 0.01165284 -0.11310847 -0.07167469 -0.047638237 -0.10911581
-0.006855162 0.011218116 -0.06318128 -0.08548595 -0.029200565 -0.053287618 0.13195273 -0.067521706
0.08203196 0.06508431 0.026547749 -0.08827816 -0.086147666 -0.13130406 0.10124172 -0.06879788
0.12652497 -0.01371531 -0.018692764 0.03401635 0.057458464 -0.10846707 -0.035523523 0.04301144
-0.11722011 0.06427417 0.10310807 -0.116686374 -0.04732543 -0.062067095 0.04896407 -0.0978981
00000000: bcfb a33d df2a 9fbd 96ce 31bd 605d 34bd
00000010: 16eb 66bd 389f 48bd e132 8bbd b341 a2bd
00000020: 7c30 3a3d d62a 173d a37a c2bc 0265 1e3e
00000030: 29dc 273d faad 713c e4d1 eebd 7463 bebd
00000040: c5d3 aa3d 0158 93bd 221f 2b3d 96e8 c0bd
00000050: bb9e 813d e961 b33d c78d ffbd 740b a23d
00000060: 4348 afbd 5450 89bd d497 de3d ed11 f93d
00000070: 9ea1 733d 14c1 893d 9fc0 0a3d a1df cfbd
00000080: 5b9c 8e3d e407 14bc 1d4b 9d3d c237 9dbc
00000090: 66cd 823d d097 cbbc ba1b bebd b069 10bd
000000a0: f8c2 fabd 8c00 97bd 8666 37bd 9de8 b5bc
000000b0: 5484 cd3b 99cf 203c 9f11 7d3d 206b 1bbc
000000c0: 9989 93bb 4d54 013c 8d88 bfbd e827 a2bd
000000d0: 42b4 0abc 7c62 d6bc 625e 0bbe df2e aa3d
000000e0: d109 c1bd b593 e53d 0b17 7e3d 4417 823d
000000f0: 2b35 e4bd e705 65bd 88f0 6d3d e66f 62bd
00000100: 3fd0 963d c5f8 b83c f529 d1bd 521d 67bd
00000110: e128 163d 48c0 5a3c 4705 61bd 14b5 c13d
00000120: 6e9d 933d a208 163d c31a 14bd ee29 9c3d
00000130: f8d2 373b debb 1abd 2ecf eb3c b9f5 06be
00000140: bf48 dabb b11f c53d bbbf b23d 9daf f0bd
00000150: e2dc af3d 3acf 2dbc dacd 10be bee2 91bc
00000160: 003a 01be 3e20 b73d 5b47 a43d eb04 573d
00000170: 28b0 a13d 272e 39bd 98d2 cdbc ed6f 72bd
00000180: 8612 813d 0b31 0cbe f796 293e 0095 5a3d
00000190: 2803 5e3c c222 72bd 293c 4b3c 3ae0 983d
000001a0: 0d14 513d 3d98 783d 3f29 2fbc 5e93 dabd
000001b0: 4ba7 74bd c291 12bd 96f5 10bd 8f48 673d
000001c0: 982e aabd 0a53 453c 1bf9 abbd f9e3 f13c
000001d0: cb50 60bd 2352 503d 2358 2bbd 08fc d6bd
000001e0: cf0e ea3c bc9f 07bc 7913 dabc 4d85 413d
000001f0: 7534 fbbc ed1f adbd 8bf2 1d3c f081 17be
00000200: 828f e0bc 441f acbd 7c01 ab37 b69e bd3d
00000210: 5e02 21bd b88d b63d b930 bb3d 0506 3ebd
00000220: 4190 30bd bb4d feba a921 f2bd 1191 ce3c
00000230: 24be 263d c009 c73d d1ea b2bc a6e4 183e
00000240: a3a2 453c cb87 d23b 27b3 5dbc 405d bbbd
00000250: 5e63 ef3c 641d 9bbd d8d0 c5bc a502 503d
00000260: fead d63c 4522 483c db9f 84bd 7485 fe3d
00000270: c9aa 1b3c 5f65 2c3c a31b 273d c6fa e6bd
00000280: 3666 153d 0de5 433d 8a42 9c3d 7123 123e
00000290: e611 c03d b74c 0d3d b3d1 b83c 6a47 a6bd
000002a0: 40f5 c03d 0c5e fa3a 448e 1dbd bddb c7bd
000002b0: b1e5 c33d 75b2 093e 23a0 243e f081 1b3d
000002c0: 32a0 12bb 804e fbbd d72f 0dbd ab10 d6bd
000002d0: a89e f3bd 2ba5 87bd 4fb4 a6bb 4a89 763d
000002e0: c695 5ebd 77d2 1a3d 4e85 e23d f1ca 9f3c
000002f0: e28d 8a3d 717f ac3d 20c8 763d 45f4 99bc
00000300: 0604 043e c0c2 96bd c86c 8e3d 9f9d fb3d
00000310: 4b3f 813d cd88 16bc b9ab eabd 3f06 a63d
00000320: 7783 f23c 25c5 363c 38ca 36bc b69d ae3c
00000330: bc0b 08bd ff63 133d 693f 9abc d8ad 123e
00000340: 5d4f 113c ec8a bbbd 21ae 26bd cd27 0cbd
00000350: dcfe c2bd 651e d23d 726a efbc b040 623c
00000360: f65f 6cbd 88e1 8bbc 18ab 2a3d 8eeb 3e3c
00000370: 6aa5 e7bd 2eca 92bd 5020 43bd 1c78 dfbd
00000380: 44a1 e0bb 30cc 373c 3065 81bd 4213 afbd
00000390: 0636 efbc 1e44 5abd 9e1e 073e d248 8abd
000003a0: 5f00 a83d ec4a 853d aa7a d93c 2ecb b4bd
000003b0: 306e b0bd 9274 06be d257 cf3d e7e5 8cbd
000003c0: c38f 013e 2eb6 60bc 9121 99bc ba54 0b3d
000003d0: 9159 6b3d fc23 debd 1d81 11bd c42c 303d
000003e0: 1911 f0bd 2da2 833d 532a d33d 44f9 eebd
000003f0: 4fd8 41bd 113a 7ebd 8c8e 483d cd7e c8bd

combined.3.bias f4 [64]
0.030886672 -0.0100632645 -0.030864706 -0.07342062 -0.10765941 -0.019621108 0.07745794 0.107767604
-0.052329015 -0.021339305 0.042866275 -0.08031672 0.1011605 0.03401719 0.09851591 -0.0089158965
0.049700957 0.069799915 0.069282405 0.06168734 0.015790755 0.0018966962 -0.15374348 0.02396929
-0.0781432 0.0857421 0.117659956 0.043341003 0.029703243 0.09121965 0.050069112 0.042877108
0.004496953 -0.083239846 0.08568223 0.10641562 0.07088691 0.08873819 0.097167894 0.0085387705
-0.10767813 0.0070206863 -0.035973318 0.013491224 0.06888979 -0.066652 0.012084583 -0.06348603
-0.0075866585 0.05211803 0.021299906 0.02504565 -0.013865938 0.058445893 0.08671401 0.079990156
0.058370702 -0.10665852 -0.14471722 0.044564113 0.10720503 0.06338041 -0.049806837 0.010861921
00000000: 0c06 fd3c 64e0 24bc fbd7 fcbc 8d5d 96bd
00000010: 897c dcbd 72bc a0bc 45a2 9e3d 43b5 dc3d
00000020: f356 56bd c4cf aebc 8c94 2f3d 187d a4bd
00000030: 3c2d cf3d 9c55 0b3d b6c2 c93d fb13 12bc
00000040: 3b93 4b3d 42f3 8e3d efe3 8d3d ddab 7c3d
00000050: 9d5b 813c 909a f83a ee6e 1dbe 3f5b c43c
00000060: 8b09 a0bd 8e99 af3d b4f7 f03d 5686 313d
00000070: 3754 f33c 5ed1 ba3d 4515 4d3d e89f 2f3d
00000080: 2d5b 933b a779 aabd 2a7a af3d 6ff0 d93d
00000090: 282d 913d 5ebc b53d f6ff c63d 33e6 0b3c
000000a0: 5a86 dcbd c90d e63b c258 13bd 4b0a 5d3c
000000b0: 1716 8d3d d880 88bd 6afe 453c f704 82bd
000000c0: 8199 f8bb b779 553d 247d ae3c 892c cd3c
000000d0: f62d 63bc f664 6f3d 1d97 b13d e1d1 a33d
000000e0: 1e16 6f3d c86f dabd c030 14be dc88 363d
000000f0: 508e db3d 97cd 813d 4102 4cbd 33f6 313c

combined.6.weight f4 [1, 64]
0.07529022 0.054994974 0.07569917 0.11371982 -0.07712355 -0.038303625 0.033573158 0.05195537
-0.041773014 -0.05629325 -0.03535794 0.036987137 -0.086238146 -0.090823755 0.03906106 -0.05321361
0.05765067 0.060099375 -0.08531432 -0.036777474 -0.1038236 -0.08955028 -0.05954395 -0.020333271
0.0993261 0.03536492 -0.036389682 0.07349113 -0.06559065 0.042312164 0.060589522 -0.053518035
-0.10435734 -0.024503084 -0.051795214 0.04576683 -0.06256051 0.05068765 0.08938225 0.102307975
-0.07084642 -0.06554257 0.060993195 0.076038815 0.09539507 -0.076066256 -0.06936116 -0.050385516
-0.061883777 0.039598137 -0.091795325 -0.11153952 0.07066867 0.068187445 0.042684887 -0.05971133
-0.07648719 -0.054903407 -0.013602654 -0.060047913 -0.07130836 0.070499256 -0.06761023 0.08038334
00000000: c231 9a3d 6942 613d 2b08 9b3d f0e5 e83d
00000010: f4f2 9dbd 43e4 1cbd 0284 093d 27cf 543d
00000020: 2e1a 2bbd c093 66bd 7dd3 10bd d37f 173d
00000030: a09d b0bd ce01 babd 7dfe 1f3d 84f6 59bd
00000040: 1c23 6c3d c32a 763d 46b9 aebd faa3 16bd
00000050: 78a1 d4bd 2366 b7bd 5be4 73bd f691 a6bc
00000060: 7b6b cb3d ceda 103d 590d 15bd 8482 963d
00000070: 6454 86bd 854f 2d3d b82c 783d ba35 5bbd
00000080: 4db9 d5bd b1ba c8bc 3827 54bd 0076 3b3d
00000090: ba1f 80bd da9d 4f3d 0b0e b73d d886 d13d
000000a0: ee17 91bd 2f3b 86bd 00d4 793d 3dba 9b3d
000000b0: 7e5e c33d a0c8 9bbd 390d 8ebd 0b61 4ebd
000000c0: d879 7dbd a831 223d 30ff bbbd d56e e4bd
000000d0: bcba 903d dca5 8b3d 59d6 2e3d de93 74bd
000000e0: 51a5 9cbd 65e2 60bd abdd 5ebc cdf4 75bd
000000f0: 1e0a 92bd ea61 903d 3b77 8abd 05a0 a43d
