data/models/nov12_24_undersample/fold1_epoch_models/epoch_4_model.pt (torch, 775567 bytes, 9 tensors)

layers1d.0.weight f4 [128, 1280]
-0.06253326 0.014405433 -0.03591517 0.021836616 -0.0049362862 -0.037200715 0.05166258 0.0027096805
-0.034157302 -0.03448132 -0.026548963 -0.0019805366 -0.027807157 0.032630738 0.018302469 0.02457933
0.008834765 0.0351522 0.11355813 0.043965824 -0.07277595 0.008573243 -0.036137365 0.002597994
0.014017656 0.017194055 -0.012655619 0.035288952 -0.05257389 0.057148058 -0.009087907 -0.023463065
-0.0070761894 -0.022881508 0.009173996 -0.0756443 0.025721693 -0.04079905 -0.005687326 -0.0381153
-0.01710042 0.01972643 0.003751334 -0.08051398 -0.050503638 -0.0031642097 0.06465523 -0.009983805
0.032607812 0.04426762 -0.046965003 -0.010828104 -0.013435123 0.0013223022 -0.0044574095 -0.012387363
0.022572378 -0.032367736 0.016449148 0.07358361 -0.0145019 -0.01606985 0.028562676 -0.047877345
-0.026442397 0.007905297 0.032204397 0.023284987 0.013284039 -0.04415437 -0.0076357676 -0.02196783
-0.057985693 -0.027724026 -0.11196727 0.01157271 0.031220445 0.020936267 -0.018873293 0.055962507
0.040879622 0.03670366 -0.0060054925 0.05057984 -0.0004554326 0.003311172 -0.01646727 0.005890403
0.053789914 -0.014934873 -0.0046216073 0.057920296 0.0061907144 0.014801371 0.04882985 0.06625863
0.06376665 -0.028902926 0.030608553 0.036570843 0.01679283 -0.025263393 0.009505405 -0.020808488
-0.010598372 0.029880561 0.039434467 -0.055914626 -0.004224742 0.0035709103 0.036248833 0.026907453
5.111624e-05 -0.027435524 -0.020852204 -0.006795211 0.02034985 0.0037592005 -0.02531918 0.02409262
0.044864308 -0.04066143 -0.005710578 0.027812215 0.0029091155 -0.0997213 0.027538914 -0.012415852
0.008967579 0.018055344 -0.056942593 0.028301796 0.046481714 0.017495014 -0.0413727 -0.019459222
-0.0799543 0.046419825 -0.02020882 -0.0039932067 0.04773789 0.018167429 -0.080098435 0.021423431
-0.045818146 -0.018961363 0.024607698 -0.003744263 0.0133056035 0.029036408 0.030489901 -0.050551746
0.07593953 -0.07184988 -0.030627111 -0.019887827 0.0020196086 -0.033880815 -0.084885046 -0.07235493
-0.0038879334 3.2510343e-05 -0.02142684 0.051028315 -0.048030004 0.000572214 -0.069377415 -0.053085458
-0.0052120504 -0.043497924 0.010738903 -0.018385831 -0.020700995 0.049295533 -0.039296117 0.023250971
-0.0021019687 0.008312771 0.0713459 -0.004844767 -0.027204925 -0.015422213 -0.012821592 -0.019397387
0.02529277 -0.066522606 0.02034859 -0.03827075 -0.0182182 0.0005535789 0.044054706 -0.031172693
-0.0775538 -0.05145683 0.016031548 -0.0062168473 -0.029429954 -0.064625576 0.030793305 -0.030803265
0.058972172 -0.0573449 0.048833292 -0.0018885732 -0.02311064 0.05756281 -0.003129651 0.12773606
0.011817232 0.023504818 0.03013625 -0.021137524 0.035038307 0.04634729 -0.025534404 -0.011772774
-0.056868877 -0.050519038 0.017900808 -0.093308195 0.028642144 0.016062163 0.039135836 -0.011094111
0.0132327145 -0.031034458 0.01893079 -0.023227332 0.058081057 0.03257803 -0.02762967 -0.012249919
-0.0025354228 0.014017372 0.016723434 -0.013987344 -0.007583595 0.014607912 0.04118727 0.03998724
0.07674816 0.033585034 -0.058308873 0.030216578 0.058965214 -0.010641285 -0.00040870326 0.064142816
-0.033187922 -0.04057972 -0.061608 0.00277364 -0.050162595 0.026236739 -0.02074469 0.053454302
00000000: 7011 80bd c404 6c3c c91b 13bd b4e2 b23c
00000010: 92c0 a1bb c75f 18bd 249c 533d e594 313b
00000020: 87e8 0bbd 493c 0dbd 367d d9bc e4cb 01bb
00000030: d6cb e3bc cfa7 053d 0fef 953c 975a c93c
00000040: b1bf 103c c1fb 0f3d 2a91 e83d 8215 343d
00000050: 8f0b 95bd ca76 0c3c c604 14bd 1b43 2a3b
00000060: 50aa 653c 8cda 8c3c 8359 4fbc 268b 103d
00000070: b857 57bd 1514 6a3d 72e5 14bc 9d35 c0bc
00000080: 61df e7bb 0072 bbbc 874e 163c 66eb 9abd
00000090: 4db6 d23c e81c 27bd c05c babb ca1e 1cbd
000000a0: 2e16 8cbc 5299 a13c f1d8 753b 83e4 a4bd
000000b0: e7dc 4ebd a15e 4fbb f669 843d 1d93 23bc
000000c0: c58f 053d f751 353d 605e 40bd 5c68 31bc
000000d0: fd1e 5cbc 1951 ad3a 760f 92bb 5ef4 4abc
000000e0: b5e9 b83c 0894 04bd 5dc0 863c 01b3 963d
000000f0: 6199 6dbc eba4 83bc 46fc e93c 091b 44bd
00000100: ba9d d8bc 3885 013c c2e8 033d 28c0 be3c
00000110: 4ca5 593c 36db 34bd 7635 fabb e1f5 b3bc
00000120: 6882 6dbd 7f1d e3bc 194f e5bd 779b 3d3c
00000130: 05c2 ff3c 8982 ab3c 2a9c 9abc f138 653d
00000140: 6471 273d 9456 163d b9c9 c4bb ce2c 4f3d
00000150: 21c7 eeb9 3f00 593b 5ee6 86bc 4804 c13b
00000160: d052 5c3d 66b1 74bc da70 97bb d53d 6d3d
00000170: 7adb ca3b 7381 723c cf01 483d 9bb2 873d
00000180: 1798 823d d4c5 ecbc cabe fa3c 4fcb 153d
00000190: 1e91 893c 2df5 cebc 8fbc 1b3c 9076 aabc
000001a0: cba4 2dbc 14c8 f43c 0986 213d bc06 65bd
000001b0: b46f 8abb ef05 6a3b a879 143d 056d dc3c
000001c0: a565 5638 77c0 e0bc 3ed2 aabc 5daa debb
000001d0: bbb4 a63c eb5c 763b 2b6a cfbc e35d c53c
000001e0: a3c3 373d 9a8c 26bd cd1f bbbb 71d6 e33c
000001f0: dca6 3e3b ae3a ccbd 4a99 e13c dc6b 4bbc
00000200: c1ec 123c cde8 933c a33c 69bd 2bd9 e73c
00000210: 9c63 3e3d b451 8f3c 6c76 29bd f268 9fbc
00000220: 14bf a3bd b722 3e3d f88c a5bc 72d9 82bb
00000230: ce88 433d dcd3 943c a60a a4bd 3180 af3c
00000240: cfab 3bbd dc54 9bbc 1596 c93c 4f62 75bb
00000250: bfff 593c c3dd ed3c f5c5 f93c 590f 4fbd
00000260: 2f86 9b3d 0826 93bd b5e5 fabc cceb a2bc
00000270: 695b 043b 9cc6 0abd 36d8 adbd d22e 94bd
00000280: b3cc 7ebb b75b 0838 5787 afbc 1103 513d
00000290: 1cbb 44bd a200 163a bf15 8ebd 2370 59bd
000002a0: d9c9 aabb e12a 32bd 39f2 2f3c e29d 96bc
000002b0: 2295 a9bc 1dea 493d f7f4 20bd d278 be3c
000002c0: 2fc1 09bb 4a32 083c cd1d 923d dac0 9ebb
000002d0: dddc debc 73ad 7cbc a811 52bc 45e7 9ebc
000002e0: c832 cf3c 013d 88bd 16b2 a63c cac1 1cbd
000002f0: 563e 95bc 0d1e 113a b572 343d e05d ffbc
00000300: 87d4 9ebd 66c4 52bd 9854 833c b2b6 cbbb
00000310: 1617 f1bc 6a5a 84bd 3e42 fc3c 2157 fcbc
00000320: ce8c 713d 7ce2 6abd 6b05 483d 008a f7ba
00000330: 8652 bdbc fbc6 6b3d d51a 4dbb 3ecd 023e
00000340: 109d 413c 2d8d c03c 4ce0 f63c 9a28 adbc
00000350: 5484 0f3d a8d6 3d3d 872d d1bc 98e2 40bc
00000360: 57ef 68bd 0ded 4ebd b7a4 923c 5e18 bfbd
00000370: eea2 ea3c cc94 833c e64c 203d 13c4 35bc
00000380: 07ce 583c fa3b febc be14 9b3c 3f47 bebc
00000390: 67e6 6d3d 8a70 053d 9e57 e2bc e2b3 48bc
000003a0: 5629 26bb 1fa9 653c 95ff 883c 2c2b 65bc
000003b0: ce7f f8bb 0656 6f3c fcb3 283d a9c9 233d
000003c0: 242e 9d3d 7690 093d 49d5 6ebd c288 f73c
000003d0: 8285 713d c958 2ebc 3947 d6b9 4f5d 833d
000003e0: 0ff0 07bd ec36 26bd ac58 7cbd f5c5 353b
000003f0: 4b77 4dbd 6eee d63c c5f0 a9bc e6f2 5a3d

layers1d.0.bias f4 [128]
-0.0111076115 -0.026911091 -0.035518225 -0.053363867 -0.024215663 4.584842e-05 -0.006384319 -0.0066068484
-0.043873046 -0.018828709 -0.0030679011 -0.033704344 -0.011696868 -0.022666126 -0.04760676 -0.028145391
-0.014092061 -0.026926322 -0.028729942 -0.005979274 -0.020928489 -0.042727496 -0.015855879 0.00636266
-0.04292471 -0.005355992 -0.039496653 -0.015675653 -0.026409943 -0.0056775874 -0.008327308 -0.023250403
-0.009209673 -0.01854836 -0.006457647 0.0009176724 -0.03210556 -0.057017587 -0.05612448 -0.003303652
-0.013502723 -0.020336723 -0.03645305 -0.048181668 -0.020615002 -0.022027703 -0.037783906 -0.02731527
-0.020038374 -0.02196928 -0.040438004 -0.02402497 0.0072969273 -0.035455346 -0.056288656 -0.032037307
-0.018263398 -0.021247014 -0.01868522 -0.014490091 -0.02306649 -0.03296878 -0.021782128 -0.028722279
-0.00781929 -0.015365576 -0.017056394 -0.01917452 -0.050218463 -0.03373363 -0.016255092 -0.019097362
-0.024546748 -0.041927118 -0.047623668 -0.033410918 -0.027859556 -0.0030337428 -0.004536272 0.0036458038
-0.023874963 -0.01972067 -0.029803356 -0.029194156 -0.01903101 -0.052671857 -0.020749444 -0.006478935
-0.04144146 -0.050791547 -0.04100099 -0.02564811 -0.034556806 0.012536049 -0.014134947 -0.036581513
-0.018793182 -0.0206543 -0.019138478 -0.028479537 -0.0011786101 0.009346121 -0.046231974 -0.0063933516
-0.0062554814 -0.04995422 -0.030423826 -0.027821565 -0.011355959 -0.015793733 0.0019619802 -0.05062669
-0.025794435 -0.0066983216 -0.048385285 -0.014713242 -0.025804536 -0.019916913 -0.037405174 -0.042013127
-0.04531566 -0.037222207 -0.04927976 -0.020068647 -0.020658458 -0.0071481676 -0.02990711 -0.010296559
00000000: b3fc 35bc a674 dcbc 8f7b 11bd 1294 5abd
00000010: ed5f c6bc 5e4d 4038 8d33 d1bb 437e d8bb
00000020: 39b4 33bd aa3e 9abc d70e 49bb 910d 0abd
00000030: 38a4 3fbc 50ae b9bc 4eff 42bd 2a91 e6bc
00000040: 63e2 66bc 9794 dcbc 0e5b ebbc c9ed c3bb
00000050: 3972 abbc 0703 2fbd 30e4 81bc dc7d d03b
00000060: d2d1 2fbd 5181 afbb 3ec7 21bd 3a6a 80bc
00000070: aa59 d8bc 0e0b babb 436f 08bc a177 bebc
00000080: 2be4 16bc bbf2 97bc ab9a d3bb f48f 703a
00000090: 1f81 03bd 468b 69bd c8e2 65bd 1582 58bb
000000a0: 863a 5dbc 3399 a6bc cb4f 15bd 245a 45bd
000000b0: cbe0 a8bc 7173 b4bc 4cc3 1abd 46c4 dfbc
000000c0: 8427 a4bc ebf8 b3bc 52a2 25bd 04d0 c4bc
000000d0: 101b ef3b a039 11bd ef8e 66bd 8d39 03bd
000000e0: 1f9d 95bc 380e aebc bf11 99bc d967 6dbc
000000f0: f0f5 bcbc 450a 07bd 6f70 b2bc fc4a ebbc
00000100: 7b1c 00bc e6bf 7bbc dab9 8bbc e213 9dbc
00000110: e0b1 4dbd 462c 0abd 6629 85bc 1272 9cbc
00000120: 4316 c9bc c5bb 2bbd 0911 43bd e3d9 08bd
00000130: b939 e4bc c2d1 46bb 02a5 94bb 70ee 6e3b
00000140: 6d95 c3bc 3e8d a1bc 2b26 f4bc 9528 efbc
00000150: ece6 9bbc 72be 57bd bdfa a9bc 3f4d d4bb
00000160: 85be 29bd cc0a 50bd a7f0 27bd fc1b d2bc
00000170: 708b 0dbd 0064 4d3c 4496 67bc 7fd6 15bd
00000180: 29f4 99bc 3533 a9bc 4cc8 9cbc eb4d e9bc
00000190: 987b 9aba 7920 193c bd5d 3dbd 527f d1bb
000001a0: c8fa ccbb cc9c 4cbd 633b f9bc 0dea e3bc
000001b0: 580e 3abc dc61 81bc 9194 003b ef5d 4fbd
000001c0: da4e d3bc 987d dbbb a62f 46bd cf0f 71bc
000001d0: 0964 d3bc cb28 a3bc 2b36 19bd f515 2cbd
000001e0: ea9c 39bd 5076 18bd 93d9 49bd 0167 a4bc
000001f0: ed3b a9bc 2d3b eabb c1ff f4bc e6b2 28bc

layers1d.3.weight f4 [128, 128]
-0.023312312 0.040524695 0.0920087 -0.0014587961 0.08837797 -0.03599618 -0.08209981 0.04117001
0.02756142 -0.0017752774 -0.07748535 -0.03742581 0.12751414 -0.09669559 -0.09422778 0.04288151
0.059891358 0.09561175 -0.10040645 0.055755183 -0.013092883 0.058414817 -0.07902849 -0.079283394
-0.1390088 0.06812736 0.0338249 0.0750722 -0.0075040814 -0.10456443 -0.050673503 -0.12010214
-0.035602022 0.100521676 0.0033153547 0.04661209 0.12584093 -0.040429827 0.11363816 0.04162341
-0.10718674 0.045626536 -0.038556613 0.041399743 -0.047129925 -0.1561323 0.038289446 -0.027094081
0.022305036 -0.08647638 0.07804464 -0.015875498 -0.029556481 -0.116743796 -0.019745806 0.061113067
0.13398716 0.041301142 -0.024929505 0.14980483 -0.08954085 -0.09008465 -0.01681789 -0.08017534
-0.01421265 -0.042250305 -0.045375537 -0.010341231 0.122871846 -0.04156709 0.09469441 -0.023719074
-0.056392636 0.10111696 -0.04931037 -0.028069148 -0.024663655 0.015332177 -0.05973572 -0.0024433986
-0.153093 0.03489534 -0.09177436 -0.030708918 -0.060528707 -0.014720301 0.0032205544 0.08529626
-0.08657688 -0.038374316 0.09889892 0.078918785 -0.11335526 -0.06730185 -0.022869905 0.01804591
-0.055510703 0.026497655 -0.0054245777 -0.054018866 0.12296077 0.01451201 0.0075290124 -0.00021054047
0.028851341 0.054598566 -0.029730825 -0.008481573 0.0706519 -0.11708763 -0.098878816 -0.012666533
-0.050212316 0.08430008 0.15258266 0.061983548 -0.017289601 -0.044304628 0.058405727 -0.054952744
0.0031527015 -0.012040231 -0.0774984 0.024727913 0.12037323 -0.01887647 -0.02353037 0.05891662
-0.09399262 0.108878285 0.020883609 0.004880902 0.00978968 -0.123013854 -0.004493247 0.06651937
-0.003173263 0.034500718 -0.045730602 -0.0043022977 0.0857348 0.045964986 -0.07521929 -0.0077125826
0.12940356 0.036817566 -0.041742016 0.103769176 0.12516676 0.023543723 -0.109564506 -0.06471851
-0.06730218 -0.049734715 -0.051177215 0.08179649 0.06940243 -0.08921975 -0.060991313 -0.00899069
-0.08495103 -0.03816553 -0.034603372 -0.015124846 0.07661471 -0.05853174 0.03533132 0.0025664628
-0.04129512 -0.058858518 0.062161166 0.12628493 -0.041501895 0.0051120035 0.06596936 -0.052231163
0.008070036 -0.07669186 0.055816818 -0.060221367 -0.026519625 -0.08031846 8.2231876e-05 0.083411455
0.094258726 -0.023937883 0.021988686 0.13777485 -0.05779762 -0.02835007 -0.1502071 -0.09260079
-0.0051418655 -0.08940746 -0.10483851 -0.078406066 0.04172951 0.085864194 0.0053831977 0.03864523
-0.07270636 0.08510569 0.030574864 0.008562339 0.021102078 -0.017474966 -0.12299647 -0.023141855
-0.13085969 0.038533926 -0.022258304 0.11373959 -0.12040316 0.12375635 -0.04067486 0.044653602
0.0034722136 -0.077834874 0.026488334 0.073405735 -0.018619062 0.014694505 0.007858609 0.041000046
-0.036499627 -0.14339201 -0.08617872 -0.024711372 0.020963082 0.001142654 -0.069642924 -0.060823288
-0.057863623 0.065309495 -0.032310862 -0.013666445 -0.087481186 -0.096538804 -0.03927876 0.025533322
-0.047759462 0.108305275 0.16721907 -0.0067493604 -0.031040609 -0.096611105 -0.03001601 -0.0908356
0.09906786 -0.062617935 -0.045023423 0.010364307 0.1014333 0.038249392 0.053689793 -0.08008894
00000000: 76f9 bebc 39fd 253d 0f6f bc3d 1335 bfba
00000010: 82ff b43d bb70 13bd f223 a8bd e2a1 283d
00000020: 7dc8 e13c 6db0 e8ba a4b0 9ebd ce4b 19bd
00000030: 1193 023e 5608 c6bd 7ffa c0bd 86a4 2f3d
00000040: a450 753d 18d0 c33d e6a1 cdbd 8c5f 643d
00000050: 8883 56bc 6044 6f3d b0d9 a1bd 555f a2bd
00000060: 5358 0ebe 5b86 8b3d fa8b 0a3d 74bf 993d
00000070: cce4 f5bb e025 d6bd 058f 4fbd 1cf8 f5bd
00000080: 6dd3 11bd 4fde cd3d 6c46 593b 52ec 3e3d
00000090: 72dc 003e bf99 25bd 20bb e83d 4f7d 2a3d
000000a0: b984 dbbd e4e2 3a3d 8aed 1dbd c792 293d
000000b0: 4f0b 41bd 25e1 1fbe 65d5 1c3d 68f4 ddbc
000000c0: 0db9 b63c 871a b1bd ded5 9f3d 550d 82bc
000000d0: 6f20 f2bc 5f17 efbd f5c1 a1bc b251 7a3d
000000e0: ee33 093e 632b 293d f638 ccbc 7066 193e
000000f0: 3161 b7bd 4d7e b8bd acc5 89bc f832 a4bd
00000100: 2ddc 68bc a80e 2dbd b3db 39bd 446e 29bc
00000110: 3ca4 fb3d 4142 2abd 25ef c13d 814e c2bc
00000120: f7fb 66bd 6916 cf3d acf9 49bd 45f1 e5bc
00000130: 6f0b cabc d033 7b3c 71ad 74bd 6d21 20bb
00000140: 69c4 1cbe 6bee 0e3d 32f4 bbbd 4591 fbbc
00000150: f3ec 77bd 6b2d 71bc f00f 533b ceaf ae3d
00000160: 384f b1bd 632e 1dbd 848b ca3d 2ca0 a13d
00000170: cd26 e8bd 8dd5 89bd ab59 bbbc 04d5 933c
00000180: 315f 63bd 9c11 d93c a8c0 b1bb e342 5dbd
00000190: dbd2 fb3d c8c3 6d3c efb5 f63b 87c4 5cb9
000001a0: a659 ec3c bfa2 5f3d 0f8e f3bc 4cf6 0abc
000001b0: f1b1 903d a4cb efbd fa80 cabd 4a87 4fbc
000001c0: 6eab 4dbd 85a5 ac3d a13e 1c3e 76e2 7d3d
000001d0: eca2 8dbc c578 35bd d83a 6f3d 2116 61bd
000001e0: 8e9d 4e3b 6444 45bc 7bb7 9ebd 3192 ca3c
000001f0: 3d86 f63d d4a2 9abc c3c2 c0bc 8e52 713d
00000200: 347f c0bd 94fb de3d 1a14 ab3c f9ef 9f3b
00000210: e564 203c b0ee fbbd 163c 93bb 4f3b 883d
00000220: 85f6 4fbb a050 0d3d 0350 3bbd 4afa 8cbb
00000230: ba95 af3d c845 3c3d 920c 9abd d5b9 fcbb
00000240: 5e82 043e 04ce 163d adf9 2abd ef84 d43d
00000250: b72b 003e c4de c03c 5b63 e0bd 238b 84bd
00000260: bad5 89bd a1b6 4bbd 339f 51bd eb84 a73d
00000270: dc22 8e3d d8b8 b6bd 07d2 79bd b04d 13bc
00000280: cefa adbd 7553 1cbd 44bc 0dbd 34ce 77bc
00000290: 2ce8 9c3d fabe 6fbd 93b7 103d 1a32 283b
000002a0: 1225 29bd a115 71bd b59c 7e3d d650 013e
000002b0: e4fd 29bd 9882 a73b f21a 873d 58f0 55bd
000002c0: 2f38 043c 9f10 9dbd 2da0 643d aeaa 76bd
000002d0: af3f d9bc 017e a4bd e773 ac38 a0d3 aa3d
000002e0: b80a c13d 6119 c4bc 9e21 b43c da14 0d3e
000002f0: 32bd 6cbd 683e e8bc e4cf 19be 7ca5 bdbd
00000300: 187d a8bb 421b b7bd 93b5 d6bd 5c93 a0bd
00000310: 90ec 2a3d 91d9 af3d 8965 b03b 764a 1e3d
00000320: 12e7 94bd e44b ae3d 2378 fa3c 0d49 0c3c
00000330: 44de ac3c a927 8fbc 93e5 fbbd fd93 bdbc
00000340: 1500 06be c0d5 1d3d 0c57 b6bc 4df0 e83d
00000350: ef95 f6bd f873 fd3d af9a 26bd b2e6 363d
00000360: 148e 633b e467 9fbd 10fe d83c bf55 963d
00000370: 0187 98bc 39c1 703c 65c1 003c aaef 273d
00000380: a280 15bd 5bd5 12be 787e b0bd 816f cabc
00000390: c5ba ab3c 1bc5 953a f3a0 8ebd d721 79bd
000003a0: 6802 6dbd fcc0 853d 6558 04bd 3ae9 5fbc
000003b0: 5629 b3bd 23b6 c5bd c4e2 20bd 422b d13c
000003c0: 6d9f 43bd 28cf dd3d 7a3b 2b3e bd29 ddbb
000003d0: e048 febc 0bdc c5bd 23e4 f5bc 0408 babd
000003e0: 17e4 ca3d d53d 80bd 7b6a 38bd 0ecf 293c
000003f0: 43bc cf3d 65ab 1c3d d4e9 5b3d ac05 a4bd

layers1d.3.bias f4 [128]
0.0019276679 0.014056428 0.012694548 0.03727 0.0045926273 -0.0033977674 -0.002901834 0.0010469906
0.04434967 -0.011100082 -0.0798437 0.0016061484 -0.0009724275 -0.049831517 0.042884268 -0.025245275
0.018466173 -0.019304328 0.007884463 0.007983384 -0.013835727 0.022895072 -0.015625287 -0.045324475
0.009786139 -0.004778304 0.016944597 0.002827753 0.014211965 0.008207687 0.00064119906 0.037383594
-0.034989804 -0.068533376 0.011837615 -0.037764963 -0.042095862 -0.03314912 0.01435557 0.023385132
-0.036081195 -0.041550007 0.031157767 -0.004411649 -0.050471988 0.003957948 -0.002706979 0.008145691
0.030709613 -0.058970608 0.03797345 -0.03531393 -0.016432187 -0.019768097 -0.013105378 0.0076587335
0.005354494 0.010072818 -0.015505797 0.0050560934 -0.042565126 -0.028924566 -0.066154875 0.0008147118
0.031894352 0.02140339 0.018192295 0.0309588 0.015795844 -0.0164359 0.025041627 -0.049324967
-0.023328228 0.0013348126 -0.023818297 0.012578623 -0.0035591153 0.00041606656 0.017056255 -0.027263178
-0.03196217 0.004086119 0.00735175 -0.018837158 -0.0020392202 -0.09203504 -0.026579024 0.025877127
-0.023083603 -0.042700443 0.051546644 0.011294195 -0.0019477037 -0.0650844 -0.035333265 -0.061861448
0.019791445 -0.0050913524 -0.02571508 -0.011701534 0.024418814 0.01543067 -0.050937675 0.054283682
-0.016530218 0.019844359 -0.017611017 -0.0028334174 -0.03892177 -0.085298166 0.029233428 -0.023805493
0.022876577 0.011815971 -0.023558369 -0.019882265 -0.028525472 -0.014984686 -0.02226108 -0.035954
-0.043661404 0.014440994 -0.038399786 -0.012916277 0.01847856 -0.020576192 -0.030252395 0.010763046
00000000: cda9 fc3a ef4c 663c cbfc 4f3c 6da8 183d
00000010: c07d 963b 14ad 5ebb b22c 3ebb 2d3b 893a
00000020: 00a8 353d 1edd 35bc 1885 a3bd 6685 d23a
00000030: 81ea 7eba 221c 4cbd 6aa7 2f3d 2ecf cebc
00000040: 5f46 973c 1c24 9ebc d62d 013c bdcc 023c
00000050: 3faf 62bc 728e bb3c 9a00 80bc 28a6 39bd
00000060: 0b56 203c 5293 9cbb 65cf 8a3c d351 393b
00000070: 4dd9 683c 8979 063c 2416 283a 8a1f 193d
00000080: 7851 0fbd 3a5b 8cbd 8ef2 413c 6faf 1abd
00000090: b66c 2cbd 5fc7 07bd a033 6b3c 2d92 bf3c
000000a0: e0c9 13bd 5730 2abd 933e ff3c 988f 90bb
000000b0: b7bb 4ebd adb1 813b 9267 31bb 8175 053c
000000c0: ba92 fb3c 2a8b 71bd 0c8a 1b3d 57a5 10bd
000000d0: cb9c 86bc b4f0 a1bc f0b7 56bc 1df6 fa3b
000000e0: c074 af3b 7608 253c 070c 7ebc 96ad a53b
000000f0: c558 2ebd 36f3 ecbc 357c 87bd 6292 553a
00000100: a7a3 023d 2a56 af3c 0208 953c 4f9d fd3c
00000110: 4966 813c 95a4 86bc 1924 cd3c fa08 4abd
00000120: d71a bfbc e1f4 ae3a 971e c3bc 9216 4e3c
00000130: 0c40 69bb 8223 da39 8fb9 8b3c 0757 dfbc
00000140: c4ea 02bd dae4 853b f3e6 f03b 6250 9abc
00000150: 70a4 05bb de7c bcbd 41bc d9bc 45fc d33c
00000160: d319 bdbc a9e6 2ebd 9322 533d 4a0b 393c
00000170: 174a ffba f84a 85bd 9db9 10bd 6e62 7dbd
00000180: ab21 a23c 5cd5 a6bb 6ea8 d2bc cab7 3fbc
00000190: f709 c83c ecd0 7c3c 06a4 50bd 9158 5e3d
000001a0: 616a 87bc a390 a23c fb44 90bc dbb0 39bb
000001b0: 6f6c 1fbd ceb0 aebd f17a ef3c bd03 c3bc
000001c0: a967 bb3c c697 413c 7bfd c0bc 22e0 a2bc
000001d0: 40ae e9bc 5482 75bc de5c b6bc 8044 13bd
000001e0: 4dd6 32bd eb99 6c3c 1849 1dbd cb9e 53bc
000001f0: 5960 973c 678f a8bc dfd3 f7bc 7d57 303c

combined.0.weight f4 [64, 128]
0.004585235 -0.13444598 0.007359139 -0.0062089865 0.037776105 0.032691527 -0.13093774 0.0699579
0.024040597 -0.077824704 0.07602747 -0.07949415 0.054008126 -0.05840163 -0.07874736 0.013753612
-0.059878446 0.07435695 -0.09705397 0.052683078 -0.015107923 0.0039683096 -0.013683406 0.040079284
-0.09631083 -0.092669345 -0.026220476 -0.06490481 -0.15675221 -0.0189935 -0.01979469 0.0008702732
-0.01808438 0.033736125 -0.0078943325 0.005166054 0.003941603 0.034498166 0.07515706 -0.04015509
0.038757816 0.07530294 0.09131614 -0.07990022 0.036110125 -0.010800019 -0.0075548603 -0.07012789
-0.024574194 -0.031379692 -0.1403697 -0.07547724 -0.003816733 0.092509136 -0.07748448 0.029614612
0.003899108 -0.09237929 -0.028480142 0.004120361 0.056356426 0.039683647 0.09109945 -0.11818396
0.058709003 0.046100073 -0.018280659 0.0059257974 0.02476365 0.06289369 -0.04359583 -0.0024939575
0.06079777 0.06427477 -0.07329463 -0.09299436 -0.1403056 -0.09108422 -0.014047795 0.04411253
0.019021913 0.039271347 -0.058818623 -0.028506177 0.095360346 0.1540189 0.066011384 -0.05840333
0.07732782 -0.04484298 0.022117024 0.050271638 -0.0006066737 0.06267733 0.11054966 0.07021223
0.018279385 0.055291194 0.039762225 -0.02909661 -0.09411031 -0.058804326 0.079061724 0.069423795
0.025640547 -0.06544365 -0.03644677 -0.042277735 -0.032119658 -0.04818424 0.03087636 0.059455033
-0.039744113 0.069532834 0.07774596 0.036015645 -0.026265388 -0.10966697 -0.017547457 0.09383584
0.06516322 -0.09226679 -0.0113547575 0.06561799 -0.12316872 -0.016751412 -0.081109084 -0.0054581356
0.0056959516 0.0735071 -0.015995074 -0.10294972 0.06449669 -0.01729948 0.07942916 -0.15324825
-0.07469812 0.072463624 -0.05274597 0.008888724 -0.084451176 -0.103535816 -0.027716244 -0.09830272
-0.014264473 0.037032567 0.022401521 0.05615893 -0.07231872 -0.0118418895 -0.04213946 -0.049680915
0.0105696665 0.05820672 0.02513153 -0.052238934 0.13654393 -0.08078358 0.05157299 -0.15455127
0.020820297 0.031331085 0.0517546 -0.056288626 -0.09416323 -0.0005893323 -0.044415325 0.07913152
-0.041620918 -0.04914908 -0.039485108 -0.009561387 -0.09653839 -0.021022659 0.017477926 0.073039375
0.044733148 -0.037061885 0.030556832 0.0016321611 -0.036395967 0.061179943 0.037546676 -0.017544312
-0.10735266 0.029202586 -0.058408845 0.07838133 3.3638455e-07 0.008120158 0.074206956 0.059161723
-0.06648854 -0.06052868 -0.08554652 -0.026276918 -0.01958438 -0.11886357 -0.09868567 -0.022179045
-0.07582793 -0.00060825027 -0.017313115 0.09488573 -0.019067742 0.10253088 -0.055233054 -0.06386009
0.11209959 -0.16442756 -0.009676831 -0.071798526 -0.1964378 -0.04303097 -0.14508884 0.033556547
0.013373053 -0.05582793 -0.050654303 0.07755544 -0.09947342 -0.0696712 -0.018809078 -0.036534373
-0.043344382 -0.097395115 -0.094176896 -0.0031517195 -0.052320886 -0.0027863798 0.0050317873 0.052996203
-0.11854225 0.10167538 -0.1170265 -0.016104646 0.030348025 0.006537758 -0.04359378 -0.100398086
-0.000831221 -0.13971561 -0.14659387 0.10377752 -0.040754978 0.0152015 0.036515776 -0.016756091
-0.00051959377 0.07077839 0.031255692 -0.042349096 0.06038531 0.092699856 -0.0628298 -0.02584345
00000000: bd3f 963b 35ac 09be ef24 f13b c174 cbbb
00000010: 1ebb 1a3d 8de7 053d 8b14 06be 1646 8f3d
00000020: c9f0 c43c 8f62 9fbd 4ab4 9b3d d4cd a2bd
00000030: a037 5d3d 8c36 6fbd 4c46 a1bd d456 613c
00000040: 1a43 75bd 7548 983d 3bc4 c6bd 36ca 573d
00000050: 3987 77bc 9808 823b 5d30 60bc 2d2a 243d
00000060: 9d3e c5bd 6dc9 bdbd 53cc d6bc d0ec 84bd
00000070: a783 20be 4298 9bbc 7928 a2bc 0c23 643a
00000080: b225 94bc e42e 0a3d 3b57 01bc 0048 a93b
00000090: 9028 813b f34d 0d3d f2eb 993d aa79 24bd
000000a0: 84c0 1e3d 6e38 9a3d f503 bb3d baa2 a3bd
000000b0: 36e8 133d 90f2 30bc c38e f7bb 369f 8fbd
000000c0: d24f c9bc fe87 00bd 13bd 0fbe d093 9abd
000000d0: 2722 7abb 6e75 bd3d 2fb0 9ebd 589a f23c
000000e0: 2d88 7f3b 5a31 bdbd 304f e9bc 1804 873b
000000f0: ffd5 663d 528b 223d 5992 ba3d 6f0a f2bd
00000100: da78 703d 6ed3 3c3d 52c1 95bc 312d c23b
00000110: 23dd ca3c 68ce 803d 8b91 32bd aa71 23bb
00000120: 1507 793d 7ea2 833d 7f1b 96bd d473 bebd
00000130: 45ac 0fbe 5d8a babd b928 66bc 57af 343d
00000140: d8d3 9b3c feda 203d cceb 70bd c985 e9bc
00000150: 494c c33d 21b7 1d3e fa30 873d 5538 6fbd
00000160: 0c5e 9e3d 46ad 37bd c32e b53c a2e9 4d3d
00000170: 2f09 1fba f95c 803d dc67 e23d 6ecb 8f3d
00000180: a6be 953c 0579 623d b7dd 223d 045c eebc
00000190: e8bc c0bd cedc 70bd 1deb a13d 102e 8e3d
000001a0: 200c d23c 5207 86bd 3549 15bd 6b2b 2dbd
000001b0: e78f 03bd d65c 45bd 6cf0 fc3c 1f87 733d
000001c0: b9ca 22bd 3b67 8e3d 4639 9f3d 2485 133d
000001d0: 832a d7bc 1499 e0bd afbf 8fbc 012d c03d
000001e0: 4b74 853d 5ff6 bcbd 4e09 3abc ba62 863d
000001f0: e23f fcbd 423a 89bc 851c a6bd 29da b2bb
00000200: 1ba5 ba3b e48a 963d 1a08 83bc 4ed7 d2bd
00000210: d716 843d a4b7 8dbc c1ab a23d 1ced 1cbe
00000220: 54fb 98bd cf67 943d 290c 58bd 03a2 113c
00000230: bdf4 acbd 960a d4bd 2d0d e3bc f052 c9bd
00000240: 89b5 69bc 76af 173d 6583 b73c e806 663d
00000250: d61b 94bd 7c04 42bc 6d9a 2cbd 377e 4bbd
00000260: 652c 2d3c 2b6a 6e3d a3e0 cd3c 7ef8 55bd
00000270: 2cd2 0b3e dd71 a5bd 333e 533d b042 1ebe
00000280: 548f aa3c 0655 003d a2fc 533d e78e 66bd
00000290: a7d8 c0bd 6c7d 1aba d8ec 35bd b50f a23d
000002a0: b27a 2abd 8c50 49bd 23bb 21bd 5da7 1cbc
000002b0: ebb5 c5bd b637 acbc de2d 8f3c ab95 953d
000002c0: 1b3a 373d 34ce 17bd 5252 fa3c 3dee d53a
000002d0: f013 15bd d297 7a3d 8bca 193d 17b9 8fbc
000002e0: b6db dbbd 433a ef3c 1d3e 6fbd 6486 a03d
000002f0: 5798 b434 690a 053c d1f9 973d 9053 723d
00000300: 252b 88bd ecec 77bd 0433 afbd b142 d7bc
00000310: 6c6f a0bc be6e f3bd b61b cabd d4b0 b5bc
00000320: ac4b 9bbd fc72 1fba 3cd4 8dbc 7353 c23d
00000330: f433 9cbc b6fb d13d 0e3c 62bd 14c9 82bd
00000340: 7894 e53d b35f 28be 928b 1ebc 1b0b 93bd
00000350: fe26 49be 3e41 30bd 2b92 14be 9772 093d
00000360: a61a 5b3c d4ab 64bd e37a 4fbd 63d5 9e3d
00000370: b8b8 cbbd c6af 8ebd 7f15 9abc 11a5 15bd
00000380: e189 31bd 1777 c7bd d1df c0bd 148d 4ebb
00000390: 6d4e 56bd b29b 36bb b1e1 a43b 8c12 593d
000003a0: 47c6 f2bd 2e3b d03d 97ab efbd e4ed 83bc
000003b0: 6c9c f83c b03a d63b 648f 32bd 839d cdbd
000003c0: 4ce6 59ba 9c11 0fbe b41c 16be 4f89 d43d
000003d0: b1ee 26bd b60f 793c 9191 153d 1244 89bc
000003e0: 5935 08ba 43f4 903d f805 003d 3f76 2dbd
000003f0: 9656 773d 6cd9 bd3d e9ac 80bd a5b5 d3bc

combined.0.bias f4 [64]
-0.01660128 -0.005995266 0.017444579 -0.004821561 0.009065985 0.02370406 0.047921468 0.017557614
-0.04281411 -0.013502821 0.01923544 -0.00225353 0.0066416166 0.082663625 0.002244692 0.0027302443
-0.026455648 -0.022376513 0.036303904 0.024095422 -7.7053366e-05 -0.050318506 -0.0127438605 0.05311939
0.0056018536 -0.0069763744 0.0029090398 -0.025665767 -0.011722684 -0.0063215815 0.0514597 0.03279128
0.014628643 -0.03760254 0.05648697 0.04734079 0.0055890554 -0.03172521 0.004420825 0.02043345
0.028403552 -0.019047227 0.056394283 0.0038860845 0.016203506 0.0041142255 -0.03490969 0.014246481
0.008699139 0.0031570324 -0.0075577153 0.035941254 0.009303397 0.045724407 0.031377666 0.04678397
0.106678 -0.008212804 0.01722568 -0.026023488 0.02775412 -0.01856677 0.013987487 0.010024421
00000000: 68ff 87bc f073 c4bb efe7 8e3c 2ffe 9dbb
00000010: 7f89 143c 042f c23c 4d49 443d fcd4 8f3c
00000020: d95d 2fbd f03a 5dbc a493 9d3c f6af 13bb
00000030: eba1 d93b 8c4b a93d af1b 133b e6ed 323b
00000040: 84b9 d8bc f34e b7bc 67b3 143d c363 c53c
00000050: b697 a1b8 c71a 4ebd a0cb 50bc b893 593d
00000060: c18f b73b 129a e4bb 97a5 3e3b 0441 d2bc
00000070: 8010 40bc 4525 cfbb 68c7 523d 2650 063d
00000080: faac 6f3c 1f05 1abd e25e 673d 6be8 413d
00000090: 6524 b73b 4bf2 01bd 91dc 903b 0d64 a73c
000000a0: 91ae e83c ee08 9cbc b1fd 663d aead 7e3b
000000b0: 37bd 843c a0d0 863b 77fd 0ebd 126a 693c
000000c0: d586 0e3c 37e6 4e3b b6a6 f7bb 2337 133d
000000d0: 466d 183c 8449 3b3d de85 003d 8ca0 3f3d
000000e0: ff79 da3d ff8e 06bc df1c 8d3c 362f d5bc
000000f0: 9c5c e33c 5719 98bc c62b 653c 783d 243c

combined.3.weight f4 [64, 64]
0.075915545 -0.13704027 -0.015105559 -0.048644133 -0.13576844 -0.027747314 -0.12265126 -0.050240126
0.031025022 -0.0063035907 -0.044586774 0.12635247 -0.029805353 0.029043747 -0.20264158 -0.06843148
0.039634474 -0.050436355 0.050880525 -0.14745992 0.05526203 0.07802905 -0.1869159 -0.031566672
-0.13411339 -0.08221467 0.13198131 0.10824862 0.05992841 0.06889271 0.024138527 -0.15312828
0.06392083 -0.046138957 0.07304158 -0.011663096 0.08250562 0.016370298 -0.0972129 -0.11719113
-0.24397789 -0.03340728 -0.11044475 -0.14072163 -0.01980299 0.009636787 0.046763495 0.007301374
0.005444433 -0.031844214 -0.14422528 -0.13511442 -0.07646006 -0.08400698 -0.17847195 0.057297047
-0.15453887 0.1162911 -0.07185691 0.052572448 -0.19671233 -0.100755766 -0.025036328 -0.12392721
0.089003175 -0.055968635 -0.08788149 -0.057352066 -0.012254138 0.007268057 -0.052458365 0.09969469
0.052345045 -0.05209505 -0.09799995 0.08554433 -0.019217407 -0.017967682 -0.015239877 -0.14547335
-0.08267318 0.09819676 0.071916774 -0.080165006 0.09041751 0.01721871 -0.15850398 -0.03235655
-0.16171512 0.04174464 0.099722154 0.009251642 -0.020626564 -0.09025834 0.01629533 -0.103276804
0.07557721 -0.16422 0.13219489 0.06846375 -0.022541123 -0.018452367 -0.013340481 0.035288803
0.012077434 0.081220105 -0.025139926 -0.13604404 -0.0367191 -0.013138229 -0.03054426 0.065180086
-0.088367864 -0.011823883 -0.13154967 -0.02343943 -0.06815441 0.044390175 -0.083319955 -0.083526276
0.001933208 0.031292863 -0.08236301 0.041978147 -0.008861691 -0.16009186 -0.041157328 -0.17118327
-0.024917645 -0.14525914 0.0036425788 0.08672603 -0.0716279 0.03854696 0.030103622 -0.03713492
-0.044164114 -0.06353895 -0.108351216 0.002505224 -0.03151625 0.105041854 -0.036601916 0.14860491
-0.03342707 0.018341633 -0.024698464 -0.13415398 0.030328479 -0.05387888 -0.086265676 0.005661377
-0.007025931 0.00026594644 -0.04236338 0.08751385 0.0019659845 -0.03892428 0.048580438 -0.14396876
0.032424524 -0.019602947 0.08701485 0.16136727 0.07702389 0.0627724 0.012974527 -0.185721
0.009505106 0.009003475 -0.08157504 -0.17998761 0.066160284 0.11932569 0.1662354 0.05006686
-0.0039442424 -0.16572325 -0.06407053 -0.14796685 -0.1644575 -0.12699778 -0.06007693 0.063189104
-0.14939189 0.04976965 0.06599783 0.024034439 0.017256731 0.002839687 -0.04058857 -0.09624833
0.120379776 -0.084279336 0.0684502 0.12059195 0.005123076 -0.008897488 -0.13745815 0.08812125
0.0030189662 -0.017523326 -0.096879445 0.011919117 -0.08070999 0.07005043 -0.035796147 0.15083574
-0.076409765 -0.08688096 -0.07418546 -0.046619464 -0.07264801 0.07838906 -0.039946556 -0.06546299
-0.09658503 -0.07098162 0.026402175 0.006439216 -0.12275922 -0.082437694 -0.031747747 -0.17590222
0.02389696 -0.023516139 -0.055527404 -0.08597018 -0.04746805 0.034815922 0.13405994 -0.10919148
0.01176743 0.09531704 -0.081278756 -0.16573839 -0.08459091 -0.14932442 0.11332036 -0.09592011
0.10789387 -0.081864394 -0.032594763 -0.004539755 0.019538311 -0.16751727 -0.06812857 0.040997453
-0.12382581 0.09906159 0.034024175 -0.11741223 -0.082427554 -0.12764728 0.01483915 -0.1565811
00000000: 9c79 9b3d 4954 0cbe 4e7d 77bc 123f 47bd
00000010: e206 0bbe 564e e3bc 9530 fbbd 97c8 4dbd
00000020: 3028 fe3c 5a8e cebb 9fa0 36bd 8b62 013e
00000030: 5b2a f4bc 27ed ed3c 4681 4fbe ce25 8cbd
00000040: c257 223d 5a96 4ebd 1968 503d bcff 16be
00000050: 705a 623d b2cd 9f3d e266 3fbe 0e4c 01bd
00000060: 0555 09be 2a60 a8bd 1c26 073e 74b1 dd3d
00000070: 7e77 753d 9f17 8d3d 29be c53c a9cd 1cbe
00000080: ede8 823d 34fc 3cbd d396 953d 9216 3fbc
00000090: b5f8 a83d 011b 863c 8f17 c7bd e701 f0bd
000000a0: 57d5 79be 12d6 08bd db30 e2bd 5519 10be
000000b0: e139 a2bc 9de3 1d3c 148b 3f3d 5d40 ef3b
000000c0: 3767 b23b 146f 02bd cbaf 13be 6f5b 0abe
000000d0: 1897 9cbd da0b acbd 5ac1 36be 4fb0 6a3d
000000e0: 703f 1ebe 072a ee3d b729 93bd 3556 573d
000000f0: f56e 49be 0a59 cebd fc18 cdbc 8dcd fdbd
00000100: 4c47 b63d 5e3f 65bd 36fb b3bd 00ea 6abd
00000110: 94c5 48bc e228 ee3b 95de 56bd bb2c cc3d
00000120: c267 563d 9f61 55bd 33b4 c8bd de31 af3d
00000130: d36d 9dbc f630 93bc adb0 79bc f7f6 14be
00000140: 8e50 a9bd 621b c93d 1a49 933d 8d2d a4bd
00000150: d12c b93d 410e 8d3c de4e 22be 4d88 04bd
00000160: a698 25be 6dfc 2a3d 213b cc3d 3394 173c
00000170: 0af9 a8bc 5dd9 b8bd c97d 853c ca82 d3bd
00000180: 39c8 9a3d 4a29 28be 195e 073e b936 8c3d
00000190: 29a8 b8bc 6b29 97bc 0892 5abc fe8a 103d
000001a0: 6ee0 453c ba56 a63d 3ff2 cdbc 214f 0bbe
000001b0: c466 16bd ba41 57bc f537 fabc 237d 853d
000001c0: 36fa b4bd f6b8 41bc f5b4 06be 0c04 c0bc
000001d0: 8a94 8bbd 79d2 353d a7a3 aabd d30f abbd
000001e0: b263 fd3a f22c 003d f0ad a8bd 47f1 2b3d
000001f0: a030 11bc 1fef 23be 9694 28bd ab4a 2fbe
00000200: 1720 ccbc d0be 14be 55b8 6e3b 6b9d b13d
00000210: a6b1 92bd 6be3 1d3d df9b f63c c91a 18bd
00000220: 6ee5 34bd b620 82bd 3ee7 ddbd af2e 243b
00000230: 2f17 01bd 2f20 d73d e4eb 15bd e32b 183e
00000240: d3ea 08bd 3141 963c 6f54 cabc a95f 09be
00000250: 6e73 f83c 1ab0 5cbd 0fac b0bd 1383 b93b
00000260: c839 e6bb ba6e 8b39 3985 2dbd 763a b33d
00000270: bfd7 003b 116f 1fbd 48fc 463d 8c6c 13be
00000280: 94cf 043d 5c96 a0bc d734 b23d 763d 253e
00000290: b4be 9d3d d18e 803d 1c93 543c a52d 3ebe
000002a0: 4ebb 1b3c 5083 133c d110 a7bd ac4e 38be
000002b0: 0b7f 873d 0761 f43d 9d39 2a3e e812 4d3d
000002c0: b43e 81bb 5bb3 29be 6937 83bd 9f84 17be
000002d0: 8c67 28be b50b 02be 3a13 76bd 4a69 813d
000002e0: 30fa 18be 43db 4b3d df29 873d dfe3 c43c
000002f0: fd5d 8d3c 0b1a 3a3b 3340 26bd d81d c5bd
00000300: ac89 f63d a59a acbd 9e2f 8c3d eaf8 f63d
00000310: 7adf a73b c5c6 11bc d4c1 0cbe ea78 b43d
00000320: d9d9 453b 148d 8fbc bb68 c6bd 6648 433c
00000330: 474b a5bd 9a76 8f3d fb9e 12bd af74 1a3e
00000340: b97c 9cbd a5ee b1bd 8cee 97bd 0df4 3ebd
00000350: 7bc8 94bd 728a a03d 009f 23bd 7611 86bd
00000360: 5fce c5bd d05e 91bd 6049 d83c 0f00 d33b
00000370: 3069 fbbd 18d5 a8bd ed09 02bd b61f 34be
00000380: 8fc3 c33c eba4 c0bc b470 63bd 2211 b0bd
00000390: dc6d 42bd 249b 0e3d 0247 093e c89f dfbd
000003a0: 2ecc 403c 9535 c33d 7a75 a6bd 53b7 29be
000003b0: 003e adbd 80e8 18be 8114 e83d c371 c4bd
000003c0: 76f7 dc3d 85a8 a7bd 1682 05bd 3ac2 94bb
000003d0: cf0e a03c a689 2bbe fe86 8bbd f2ec 273d
000003e0: 6398 fdbd cee0 ca3d ef5c 0b3d d375 f0bd
000003f0: c7cf a8bd f8b5 02be e81f 733c cc56 20be

combined.3.bias f4 [64]
0.07292501 0.09171308 0.03138205 0.04212099 0.029614901 0.06599111 0.11245916 0.13092177
0.041093554 0.056745343 0.09106587 0.05249077 0.09982601 0.055500686 0.12037263 0.07640321
0.08473939 0.11654839 0.111104704 0.1224307 0.0657801 0.07079953 -0.17418121 0.107825376
0.05715866 0.10561561 0.14465289 0.065604284 0.07857388 0.1201444 0.09794351 0.0931063
0.050329078 0.043896895 0.11101371 0.1276073 0.091858566 0.11979446 0.10112867 0.064759135
-0.0026702299 0.07653337 0.028650558 0.07368288 0.07427548 0.02364089 0.07079879 0.04626703
0.05941465 0.10305444 0.08604078 0.06038047 0.061553914 0.10400961 0.115354754 0.12189581
0.090453036 0.019043343 -0.2266952 0.08396172 0.116414316 0.092090875 0.04163589 0.060807467
00000000: b559 953d 11d4 bb3d 778a 003d 0f87 2c3d
00000010: f39a f23c 5926 873d fd50 e63d 5b10 063e
00000020: b751 283d ce6d 683d be80 ba3d 9000 573d
00000030: 9471 cc3d b054 633d ed85 f63d 4979 9c3d
00000040: d88b ad3d ecb0 ee3d dd8a e33d f2bc fa3d
00000050: b8b7 863d 58ff 903d 8f5c 32be 8dd3 dc3d
00000060: 331f 6a3d ff4c d83d e31f 143e 8a5b 863d
00000070: 58eb a03d 440e f63d 9b96 c83d 84ae be3d
00000080: dd25 4e3d 3bcd 333d 285b e33d 7dab 023e
00000090: 5820 bc3d cc56 f53d 8c1c cf3d 70a0 843d
000000a0: 06ff 2ebb 87bd 9c3d 93b4 ea3c 0de7 963d
000000b0: be1d 983d 8aaa c13c f5fe 903d 7f82 3d3d
000000c0: c75c 733d 350e d33d 2636 b03d 8351 773d
000000d0: f51f 7c3d fe02 d53d 1d3f ec3d 83a4 f93d
000000e0: 713f b93d c900 9c3c c922 68be 1ff4 ab3d
000000f0: a16a ee3d 249a bc3d 658a 2a3d 4011 793d

combined.6.weight f4 [1, 64]
0.066889994 0.06476293 0.056565892 0.08880604 -0.05314043 -0.042769603 0.041135125 0.04534546
-0.072752826 -0.041072033 -0.0326501 0.057817403 -0.07362354 -0.06472288 0.030284543 -0.039820857
0.045359846 0.0582522 -0.070927516 -0.04163116 -0.07468374 -0.068377174 -0.034280494 -0.037490323
0.059521418 0.03825373 -0.054747213 0.051773056 -0.051692113 0.038994405 0.04026219 -0.051203568
-0.075263225 -0.026437985 -0.04983602 0.03706064 -0.047508128 0.05472529 0.07953711 0.08368249
-0.07274579 -0.054304842 0.043869156 0.061781805 0.07363385 -0.034432843 -0.05999129 -0.07028181
-0.045904502 0.05541405 -0.061585262 -0.082300946 0.05554127 0.051453594 0.031865012 -0.052638147
-0.064501174 -0.08530537 -0.0527728 -0.06911743 -0.07605254 0.056121025 -0.0655041 0.05618563
00000000: 9ffd 883d 6da2 843d a3b1 673d f1df b53d
00000010: c8a9 59bd 2e2f 2fbd 4e7d 283d 29bc 393d
00000020: 6fff 94bd 263b 28bd 1cbc 05bd f1d1 6c3d
00000030: f0c7 96bd 6e8d 84bd 4a17 f83c 321b 23bd
00000040: 3fcb 393d dc99 6e3d 7242 91bd 6f85 2abd
00000050: caf3 98bd 5509 8cbd b469 0cbd 748f 19bd
00000060: bbcc 733d f1af 1c3d 9d3e 60bd fc0f 543d
00000070: 1cbb 53bd 99b8 1f3d f7e9 243d d5ba 51bd
00000080: 9b23 9abd 7994 d8bc db20 4cbd e6cc 173d
00000090: e297 42bd a027 603d 5ae4 a23d ba61 ab3d
000000a0: bffb 94bd c16e 5ebd 25b0 333d eb0e 7d3d
000000b0: 58cd 963d 7409 0dbd 6db9 75bd e9ef 8fbd
000000c0: 5c06 3cbd d8f9 623d d440 7cbd 668d a8bd
000000d0: 3e7f 633d 01c1 523d e384 023d 199b 57bd
000000e0: 3119 84bd 95b4 aebd 4b28 58bd 708d 8dbd
000000f0: 6fc1 9bbd 29df 653d 0327 86bd e722 663d
