data/models/nov12_24_undersample/fold2_epoch_models/epoch_7_model.pt (torch, 775567 bytes, 9 tensors)

layers1d.0.weight f4 [128, 1280]
000000 c0 fa 09 be 40 14 62 3d ec 5f 5a ba 02 eb 2e bd
       -0.1347456 0.055195093 -0.00083303335 -0.04270459
000010 09 41 31 bd 14 c3 d2 bb 2c c6 a4 bd a1 97 ff bc
       -0.043274913 -0.0064319465 -0.08045611 -0.031200232
000020 97 55 02 bc 75 82 95 bb 57 35 16 bb ce 5c f7 bc
       -0.0079549765 -0.004562671 -0.0022919977 -0.03019562
000030 a5 4c 39 3d 12 f0 e6 3c 65 4f 6e bb 1b 0a 0d 3a
       0.04523911 0.028190646 -0.003636324 0.0005380229
000040 64 d5 0a 3d 99 7a 7c bd d0 dd 40 bd a9 00 85 3c
       0.03389491 -0.061640356 -0.047086537 0.016235666
000050 32 8f 85 3d c7 47 9d bc 1b a8 f8 3d 84 75 98 bc
       0.06521453 -0.019199265 0.121414386 -0.018610723
000060 7b a1 05 bd cb 7b 51 3b ab 93 d9 ba 27 de bc 3d
       -0.032624703 0.0031964655 -0.0016599795 0.0922206
000070 0a 78 04 bd 3d 64 f3 3c 1d 1e ec 3b 51 3a 2b 3c
       -0.03234104 0.029710883 0.007205738 0.010450915
000080 54 e0 b2 ba b7 a4 80 bd db 19 32 3c 84 ff 09 3d
       -0.0013647177 -0.06281417 0.010870422 0.033690944
000090 8d a9 c6 3c 4b 20 da bc 13 eb 44 3c d2 e9 8a 3c
       0.02425077 -0.026626727 0.012018937 0.016957197
0000a0 23 6e ef 3c 79 9b a2 bd 53 22 b6 bc 6e 1b 10 3b
       0.029227322 -0.0793981 -0.022233164 0.0021989006
0000b0 b1 cf 45 3d 06 ac 06 3e b3 78 50 3b 45 37 0d 3d
       0.048293773 0.13151559 0.0031810224 0.034476537
0000c0 84 5e 34 3d df 81 cd ba 8e 25 1c bc 03 a6 ef bc
       0.04403545 -0.0015678963 -0.009530438 -0.029253965
0000d0 a3 e9 57 bd bd 6e 5f bd d1 9b a0 ba aa 1e ae 3c
       -0.052713048 -0.054548968 -0.0012253468 0.021254856
0000e0 ee 6c 48 3d 1d c4 4b 3c 86 35 09 bd 38 c8 2c 3c
       0.04893201 0.012436894 -0.03349831 0.010545783
0000f0 17 41 b8 3d 6c 28 46 3d d7 b6 80 3c 27 51 29 3d
       0.0899679 0.048378393 0.015712185 0.04133716
000100 12 8a 2c bc ac a6 3b 3d c4 7e cf bd 3d b5 a5 bc
       -0.010530965 0.045813248 -0.101316005 -0.020228023
000110 04 16 2e bc 47 75 71 bd 1e d9 de 3c 30 90 52 3d
       -0.010625366 -0.058949735 0.027203139 0.05140704
000120 ec 80 16 bc ba cf af 3d d1 02 77 3d b7 8b 6a 3d
       -0.009186011 0.085845426 0.06030542 0.05726215
000130 19 75 a0 3c 27 86 4f bd e4 e0 51 bd 89 11 ef bc
       0.019587087 -0.050665047 -0.051239863 -0.029183166
000140 ba 2e 39 bd 0b 54 42 3d 57 b0 ff bc 74 35 a9 3a
       -0.045210578 0.04744343 -0.031212015 0.0012909607
000150 44 73 92 3d 87 23 4e bd 98 88 d2 bc ab f6 90 bc
       0.071508914 -0.05032685 -0.025699899 -0.017695745
000160 ed 69 3f 3d 24 70 57 3b 3c 36 89 3d 6a 89 a0 bc
       0.046731878 0.0032873238 0.066997975 -0.019596774
000170 dd 79 a3 3c 3c 68 9f bb b4 e4 0e 3c a0 b0 29 3c
       0.01995557 -0.0048647206 0.008721519 0.010357052
000180 e2 ce 8a bd 76 a0 18 bc d0 22 9d bd cc 2f 5c 3d
       -0.06777741 -0.009315601 -0.076726556 0.05375652
000190 b3 93 8a bd e6 d2 cd bb 75 bb 11 3d 19 01 3f bd
       -0.06766453 -0.0062812446 0.035579164 -0.046631906
0001a0 99 d2 ba 3c 68 5a 68 bd cc 51 b9 3b 1a 6b 8c 3d
       0.022805499 -0.056726843 0.005655503 0.068563655
0001b0 19 08 99 3d fb 74 d1 3b eb f4 87 bc 49 8b 3b 3d
       0.07472248 0.006392119 -0.016596278 0.04578713
0001c0 93 cf 2a 3d af 69 a3 3d 85 3e 1b 3d 68 d9 00 3d
       0.041701864 0.07979142 0.03790142 0.031457335
0001d0 f4 f8 09 bd 89 74 1a 3e 3a 69 13 bd e3 b5 af bc
       -0.033684686 0.15083517 -0.035989024 -0.021449035
0001e0 ac c9 b6 3c 2e 83 13 3d 84 38 aa bc ab ea ca bd
       0.022312962 0.036013775 -0.020778902 -0.099080406
0001f0 76 7a b5 3c 2c 55 30 bd 6b a8 83 bd 3f dd 86 bd
       0.02215312 -0.043049976 -0.064286076 -0.06585168
000200 ec 3e 04 bd fa 9e af 3c 2d 77 ac 3d 4b 96 13 bd
       -0.03228657 0.02143811 0.084211685 -0.036032002
000210 4e 51 98 bd bd bf c6 bb f7 77 16 bd e6 08 4b bd
       -0.07437383 -0.0060653375 -0.0367355 -0.049569033
000220 71 c8 a5 bd 9f 09 ef 3b 6a 46 99 3d ea aa 13 bd
       -0.08094872 0.007294848 0.074841335 -0.03605167
000230 e6 d8 98 3c 9d 70 21 3d 0a 34 3c 3d 8b ab 6d 3c
       0.018658113 0.039414037 0.045948066 0.014506231
000240 6a 4d ea bc 1a 5f 46 3d f7 9c bb bb 4a b5 fb bc
       -0.028601367 0.04843054 -0.005725499 -0.030726094
000250 ae 7e c9 bc fa 10 14 bd 79 5c 94 bd f2 0a 1f bc
       -0.024596538 -0.036149003 -0.072442 -0.009707199
000260 63 33 3d bd e5 a9 12 3a 4f b3 95 3b 7e 1c b4 bd
       -0.046191584 0.0005594774 0.0045684944 -0.08794497
000270 eb 98 4e 3b 03 81 04 3b 57 c5 8f 3d 66 31 06 bc
       0.0031524252 0.0020218499 0.070200615 -0.008190488
000280 7e 4a c5 3d a8 84 13 bc b9 fc f0 3c 76 79 61 3c
       0.09633349 -0.009003796 0.029417383 0.013761869
000290 f8 93 95 3c 77 5d de 3c 89 94 59 bb 0f f7 f8 3c
       0.018259034 0.027144177 -0.0033200106 0.030391244
0002a0 be ff 23 bd bb 39 18 3c f9 42 25 bc e8 37 6f bc
       -0.040038817 0.009291108 -0.010086768 -0.014600731
0002b0 fb 53 56 bd f5 02 8a bd 8f a4 14 3c a6 9e 22 3d
       -0.052326184 -0.06738845 0.009072437 0.03970208
0002c0 04 bf d8 bc 01 8f ad 3c 37 8e d2 3c 3c 8b e4 bc
       -0.02645827 0.021186354 0.025702579 -0.027898423
0002d0 5c b9 61 bd 1f 9e 9e 3d c3 26 89 bc 47 12 ec b9
       -0.055108413 0.07745003 -0.016742116 -0.00045027045
0002e0 1e f6 67 bd 19 41 b7 b7 c8 41 4d bd 72 77 3a 3d
       -0.0566312 -2.1845613e-05 -0.050111562 0.04552407
0002f0 2b 33 bc 3d a6 8d 21 bd e2 b5 35 3d 8c ad f0 ba
       0.09189447 -0.039441727 0.04436291 -0.0018362268
000300 a5 dc 51 bd 3d 86 80 3c 17 58 0c bd 55 35 39 be
       -0.051235814 0.01568901 -0.034263697 -0.18086751
000310 b9 b1 8a 3d 89 75 1f 3d cd 3f c6 bd cf b6 fb 3d
       0.06772179 0.03893045 -0.09680138 0.12290727
000320 95 16 d6 bc 1b 0c 4e bd 06 a2 53 bd bd 5f 3a bc
       -0.026133815 -0.050304513 -0.05166819 -0.011375365
000330 b9 95 e5 bc 4e 62 73 bd 49 ba 3c 3d 06 91 97 3b
       -0.028025495 -0.059419923 0.046076093 0.0046254424
000340 3b 2d 27 3d d0 3b e3 3b f6 7b 44 bd 08 e9 93 bc
       0.04081462 0.0069346204 -0.04796978 -0.018055454
000350 cb 67 d9 3c 7a 2d 4d 3c b8 0e 81 bd b8 ab 2f 3d
       0.02653875 0.0125230495 -0.063016355 0.042888373
000360 44 ca b2 3d e1 9b b0 3d 3a 44 88 bd 91 36 9c bd
       0.08729985 0.086234815 -0.06653638 -0.07627595
000370 b6 97 6a 3d 69 83 b4 bd ae 2a 12 3d fa 2b 57 3d
       0.05727359 -0.08814127 0.035685234 0.052532174
000380 cf 13 36 3d b3 88 a2 bc 1c 79 6d 3d 16 dd 9b 3c
       0.044452485 -0.019840574 0.057976827 0.01902632
000390 d7 b3 dd bc 8a 79 18 bd 1b 2b 64 3c 39 94 a6 3d
       -0.027063293 -0.037225284 0.013926293 0.0813374
0003a0 e4 bb 91 3c 4e 2c 09 3d f0 7d a7 bb 9d d4 b5 3c
       0.017789789 0.033489518 -0.0051114485 0.022196108
0003b0 71 64 78 bd af a1 3e bd 77 14 96 bc df eb ac bc
       -0.060642663 -0.046540912 -0.018320305 -0.021108566
0003c0 85 80 35 bc b4 24 14 bd 8d cf ad bc 33 96 9c bc
       -0.011078005 -0.036167815 -0.021217132 -0.01911459
0003d0 53 b0 36 3d f2 49 69 3d 3b 6d f4 bd 64 03 ee 3b
       0.04460175 0.056955285 -0.119348966 0.007263588
0003e0 bb 45 b5 3d 92 33 2b bd a3 6d b3 3d 24 dd af bd
       0.08851191 -0.04179723 0.08761146 -0.08587101
0003f0 8e 12 df 3c dc 54 42 3d 23 ec ba 3c 8d 54 ea 3c
       0.027230527 0.04744421 0.022817677 0.02860477

layers1d.0.bias f4 [128]
000000 a8 29 51 bd 45 92 d3 bb f6 c3 02 bd 98 c6 bd bc
       -0.051065117 -0.0064566457 -0.031925164 -0.023165986
000010 3f 75 c1 bc 86 45 b3 bb 0a 25 fa bc f9 2a c6 bb
       -0.023615478 -0.0054709343 -0.03053524 -0.006047603
000020 95 f5 1e bd 95 30 3f bc 11 f2 14 bd 2e ee 31 bd
       -0.038808424 -0.011669298 -0.036363665 -0.043440036
000030 7b e8 1c bc 30 36 7e bd 68 0c 02 bb e9 e8 9c bc
       -0.009576912 -0.062063396 -0.001984382 -0.019154029
000040 25 91 c3 bc 3a 46 ae bc 24 ee 37 bd 15 0b 0c bd
       -0.023872921 -0.021273721 -0.044904843 -0.034190256
000050 83 6e a2 38 86 36 71 bc a5 92 20 bd 75 57 a3 bc
       7.7453464e-05 -0.014722472 -0.03920235 -0.019939164
000060 d9 12 c3 bc cc 11 24 bc ef 1a f1 bc bc 1c 97 bc
       -0.023812698 -0.010014009 -0.029431788 -0.018446319
000070 64 ca 00 bd 2e 94 0b bd 4d 40 92 bc 76 af 9a bc
       -0.031443015 -0.034076862 -0.017852927 -0.018882494
000080 95 a2 57 bd 32 d5 ac bc e1 63 9e bc f5 04 60 bd
       -0.052645285 -0.021097753 -0.019334735 -0.054692227
000090 f0 2b 6d 3b 8f 70 59 bd 0a 6b 5d 3c 0a 6f 36 bd
       0.003618952 -0.05308586 0.01351429 -0.04453949
0000a0 fa 1e 18 bc 14 ae 21 bc 30 41 d0 bb e3 9f 2e bd
       -0.009284729 -0.009868164 -0.006355427 -0.04263295
0000b0 2b bd 20 bc c6 ea 83 bd 06 2a fd bc 2e 6e 2b bd
       -0.009810726 -0.06441264 -0.030903827 -0.041853122
0000c0 8a 5e 7d bd 56 af 28 bd 10 c6 84 bc ac 8c 18 bc
       -0.061857738 -0.04118284 -0.016207725 -0.009310883
0000d0 65 ae 2c bd 2f fe 1c bd d2 1b 0b bd d9 16 cb bc
       -0.042158503 -0.038328346 -0.03396208 -0.024791168
0000e0 b3 4a 84 bc 5c e1 ff bb be c0 8a bd 6a 12 41 bd
       -0.0161489 -0.0078088474 -0.06775044 -0.0471367
0000f0 01 27 e0 3a 00 d9 10 bd 35 9a 36 bd 9e 60 bb ba
       0.0017101468 -0.035363197 -0.044580657 -0.0014295762
000100 34 a1 d7 bc 55 1a 2d bd d6 51 04 bd 02 81 10 bd
       -0.026321985 -0.04226144 -0.032304607 -0.03527928
000110 48 a4 b0 bc 59 20 36 3c 3d 76 52 bc eb c3 22 bd
       -0.02156271 0.011116111 -0.012845573 -0.039737623
000120 17 fb 2d bd b1 7d eb bc 00 c4 2b bd af f0 03 bd
       -0.042475786 -0.028746458 -0.041934967 -0.032211956
000130 e6 73 1d bd 5d 86 9a bc 9a 13 97 bc 89 7c 58 bc
       -0.038440607 -0.018862898 -0.018441964 -0.013213285
000140 47 5e eb 3a bc 89 94 bb 4c 69 e2 bc f3 f9 c4 bc
       0.0017957174 -0.004533021 -0.0276381 -0.024044966
000150 e0 90 08 bb 33 51 fe bc 3c 1a a1 bb 54 ff ad bc
       -0.0020838305 -0.031044578 -0.0049164575 -0.021239914
000160 00 e8 84 bc 7a 2a 3d bd 40 4e 4c bc 95 da c8 bb
       -0.016223907 -0.046183087 -0.012469828 -0.0061295726
000170 c0 b0 73 bd bc 74 36 bc 80 9e 61 bd 6a ec 92 bc
       -0.059494734 -0.01113623 -0.055082798 -0.017934997
000180 9b d7 50 bd 13 b6 68 bd 57 26 86 bb a1 4e 57 bd
       -0.050986867 -0.056814265 -0.004093926 -0.05256522
000190 dd aa 10 bd 38 ce 15 bd 97 e6 54 bd bf be 1a bd
       -0.035319198 -0.03657362 -0.05197772 -0.037779566
0001a0 e6 34 40 bd ce 2c 44 bc 6c 73 59 bd d7 09 1f ba
       -0.046925448 -0.011973573 -0.05308859 -0.0006066835
0001b0 f3 c5 b4 bc 3e f3 e7 bc c2 86 2f bd b3 da 32 3b
       -0.022067046 -0.02831423 -0.042853124 0.0027291
0001c0 db ee e8 bc a6 2b 2f bc 0a 3e 9f bc d2 e0 0c bd
       -0.028434208 -0.010691559 -0.019438762 -0.034394093
0001d0 5b ef ad bc a5 36 25 bd e9 bb 5c bd 8d 4a 47 bd
       -0.021232298 -0.040335316 -0.053890143 -0.04865508
0001e0 c7 62 61 bc ca bf 25 bc 79 25 5a bc 2c fa e9 bc
       -0.0137564605 -0.010116527 -0.013314598 -0.028561674
0001f0 d6 83 2e bd 74 c4 da bc b4 d6 06 bd 52 7a 66 bd
       -0.042606197 -0.026705004 -0.0329196 -0.056268997

layers1d.3.weight f4 [128, 128]
000000 39 02 c3 bd 92 3a c4 bd 4a fa db bc 94 5d a1 bd
       -0.09521908 -0.09581484 -0.026852746 -0.07879177
000010 7b 33 97 ba f6 22 f8 3d e2 bf 09 be fa 63 1f 3d
       -0.0011535728 0.12116043 -0.13452104 0.038913704
000020 cd 26 38 bd c8 6d 9b bd 9a d6 32 3c 3b 6b b7 bd
       -0.04495888 -0.075892985 0.010915423 -0.089559995
000030 1e 82 cc 3d 45 1b 09 3d b6 69 c2 bd 15 05 95 bd
       0.099857554 0.033473272 -0.09492819 -0.0727636
000040 50 8e de bd 89 3b 51 bd 9e 8d 88 bd 86 56 36 bd
       -0.10866988 -0.051082168 -0.06667636 -0.04451611
000050 a7 61 90 3d f7 e7 20 bd b9 b6 5d 3d ef ba 77 bd
       0.07049876 -0.03928372 0.054129336 -0.06048101
000060 13 d6 ed bc 32 fa 9c bc 80 1a a2 3d 00 7e 4d 3e
       -0.029032743 -0.019162271 0.07915211 0.20067596
000070 c0 7f a2 bd 82 45 68 3d b2 54 d7 3c 85 ac 10 3d
       -0.07934523 0.056706913 0.026285503 0.035320777
000080 b6 2e 54 bc 18 34 db bd 9f 00 0a 3e c1 b4 12 3d
       -0.01295059 -0.107032955 0.134768 0.03581691
000090 fc 21 20 bd 92 7c 6b 3c c5 d3 f7 bd c4 32 75 bd
       -0.03909491 0.014372962 -0.12100939 -0.059862867
0000a0 1b 4d 35 bd d0 0f dd bc 76 fd 51 bd 3a e5 b2 bd
       -0.044262987 -0.026985079 -0.05126711 -0.08735128
0000b0 86 af 86 3d d6 ef 20 3e f8 67 ce bd 0c 28 d6 3d
       0.06576447 0.1571649 -0.10078424 0.10456857
0000c0 9e 6e 3a 3c 5e 10 27 bd b7 ce 37 bd 35 71 36 3d
       0.011378912 -0.040787093 -0.044874873 0.044541556
0000d0 5b 3e 89 3d 12 89 77 3d 0f 46 9c bd ac 10 e1 bc
       0.067013465 0.060433455 -0.0763055 -0.02747377
0000e0 f6 11 61 3d cd aa a5 bd de 28 cc 3d 7e 22 e3 bc
       0.05494877 -0.08089218 0.09968732 -0.027726408
0000f0 3e 3c 4d bd 6b 11 f3 bb 2c 87 30 bd 88 af f0 3d
       -0.05010628 -0.007417848 -0.04309766 0.1175223
000100 10 40 5f 3c 02 d1 2b 3d 1e 8d fb 3d 50 c6 1f 3c
       0.0136261135 0.041947372 0.12282775 0.009751871
000110 51 90 5a 3d a2 ef 4f bd bb 90 80 3d e9 b8 52 3c
       0.053360287 -0.05076564 0.06277605 0.012861469
000120 ff b1 c7 bb 88 f8 6c bc a5 eb 8d bc 28 41 d1 bb
       -0.006094217 -0.014463551 -0.017324278 -0.006385941
000130 f3 4a c6 bd 47 b0 d3 ba 2b e8 af bd af a6 be bd
       -0.09682264 -0.0016150557 -0.085892044 -0.09309136
000140 e4 53 9a 3d a1 77 bf ba 18 88 ec 3d 92 92 6c bc
       0.07535532 -0.0014607796 0.11549395 -0.014439242
000150 5b 46 35 bc 0d c9 59 3c 32 eb d2 bc ca 45 c6 3d
       -0.011064137 0.013292563 -0.025746915 0.0968128
000160 c6 d3 4e bd dd c1 db bd b6 0b c1 3d 62 a7 aa bd
       -0.05049493 -0.10730336 0.09426062 -0.08332707
000170 da 13 60 3d 20 85 f2 bb c9 30 13 bd d4 b6 38 bd
       0.054706432 -0.0074011236 -0.035935197 -0.045096233
000180 c4 8b 93 bd 6a 0f 73 3c 70 e9 7b 3d d2 95 7c 3d
       -0.072043926 0.014835218 0.06150192 0.061666317
000190 fb 73 d7 bd 5d 54 2a 3e 3c e6 af bd 5a 4e 84 bd
       -0.105201684 0.16633745 -0.085888356 -0.06460257
0001a0 d7 5a 20 3d 24 66 62 3d c6 b3 38 3d ff 8f ad 3d
       0.03914913 0.05527319 0.04509332 0.08474731
0001b0 75 cd 9a bd f6 d4 18 3d e1 00 39 bd b2 26 15 bd
       -0.07558719 0.03731247 -0.045166854 -0.036413856
0001c0 96 aa bd bd d6 80 06 bd c9 af 5d 3d 28 f0 ab 3b
       -0.09261052 -0.03283771 0.05412272 0.0052471347
0001d0 85 f3 22 3c 36 78 e3 bc 36 c2 17 3e 88 97 85 bc
       0.009945755 -0.027767282 0.1482018 -0.016307607
0001e0 40 7d 1a 3d 4b 42 92 bd cb 6a 62 bc 04 51 88 bd
       0.037717104 -0.07141551 -0.013819407 -0.066560775
0001f0 6e ff 83 3d 01 91 f6 bc f4 b8 7f 3c dc f0 71 3d
       0.06445204 -0.03009844 0.015608061 0.059067592
000200 49 5d 41 3d 2a e9 81 3d 2d f4 67 bd 74 49 a5 3c
       0.047208104 0.06343301 -0.05662935 0.020176627
000210 f2 76 1e 3d 54 5c aa ba 3f 95 18 3d 73 07 9e 3c
       0.038687654 -0.0012997487 0.037251707 0.019290661
000220 62 1a aa 3b f9 bc c3 bd e9 ca ae 3d 68 74 cd bc
       0.0051911334 -0.09557528 0.08534796 -0.02507992
000230 e4 8d a5 bd 2c 1e 4f bc 3e f3 98 bd a4 30 8f bd
       -0.08083704 -0.012641471 -0.0746827 -0.06991699
000240 01 cb 20 bc a3 8c 00 be ff 21 7c bd 3a b0 e6 bd
       -0.009814025 -0.12553649 -0.06155586 -0.11264081
000250 97 b7 3d 3d 9c bb 0a 3e db 73 24 3e 45 c0 f6 3d
       0.046317663 0.1354813 0.1605982 0.12048391
000260 9d 50 1f bd 72 7f 88 bd 5c 27 d9 3d 38 6b f7 3c
       -0.03889524 -0.06664933 0.1060321 0.030202493
000270 65 bd 08 bd 2d e1 7b 3d 64 e6 fe 3d c7 da 70 3d
       -0.033383746 0.06149404 0.12446287 0.058802392
000280 1d cc 6e 3d 16 26 09 bd 05 35 92 bd 99 79 19 bb
       0.058300126 -0.033483587 -0.07139019 -0.0023418425
000290 75 29 09 be 73 9b a0 bc e5 26 dd bb 1b 91 48 bd
       -0.13394721 -0.019605374 -0.0067490214 -0.04896651
0002a0 76 53 22 3c 74 a2 9d bd 92 dc e6 bc ce f5 e5 bc
       0.009907594 -0.07697001 -0.028181348 -0.02807131
0002b0 02 c4 a6 3d 93 e5 91 3d d0 15 e9 bb f9 b8 37 3d
       0.08142854 0.07123866 -0.007113196 0.044854138
0002c0 11 c8 60 3b 94 2c 87 bd 8b 58 89 bd 1d 3e c1 3d
       0.0034298936 -0.066002995 -0.06706341 0.09435675
0002d0 db a7 a3 ba 3f 58 6e bd 5c e2 ae bd 02 89 53 bc
       -0.0012485938 -0.058189627 -0.085392684 -0.012911083
0002e0 78 48 6e 3d 40 db 99 bd ef 8b 8c 3d 15 34 0c 3d
       0.05817458 -0.07512522 0.06862628 0.034229357
0002f0 c1 c9 81 bc 2b fa 22 bc e8 e3 93 bd e5 a3 87 bc
       -0.015843274 -0.00994734 -0.07221204 -0.016557643
000300 39 0f 87 3c 72 d6 a0 bc 6f 7c e5 3d 02 76 ed 3d
       0.01648675 -0.019633505 0.112053744 0.11594774
000310 c2 f6 58 3d 37 80 34 bd a8 0e e6 ba e5 81 92 3b
       0.0529697 -0.044067588 -0.0017551975 0.004471051
000320 e5 30 46 3d 58 92 10 be ac 22 2f bd 22 1c 08 3e
       0.048386473 -0.14118326 -0.042757675 0.13291982
000330 60 b8 04 bd e0 1f a6 3d 5f cb 13 bd 4e 71 1c 3e
       -0.032402396 0.081115484 -0.03608262 0.15277597
000340 f1 f4 8d 3a 20 4c ec 3c 49 97 3c 3d d1 51 43 bc
       0.0010830445 0.028844893 0.046042714 -0.011921362
000350 fa 0c ca bd 48 5a d5 bd 4d b9 b6 3d a5 8f a6 bc
       -0.09865756 -0.104176104 0.08922062 -0.020332167
000360 c3 1b c4 bd e7 b1 a0 3d d8 df a0 3d 76 3a ce bd
       -0.09575608 0.07846432 0.07855195 -0.10069744
000370 1e 3e 10 3e b5 b2 ba bc dc f8 11 be 99 76 de bd
       0.14086196 -0.022790292 -0.14255089 -0.108624645
000380 5f 55 86 bd 96 c2 74 bd 3a 6f 8e 3d 03 df 58 bb
       -0.06559252 -0.059755884 0.069548085 -0.003309191
000390 cf 25 b1 bd f0 1c a0 3d b4 d5 83 bd 14 d6 16 be
       -0.086497895 0.078180194 -0.06437245 -0.14730102
0003a0 cf 1c d7 3d 4c f8 e9 bc e4 cf f3 3d f5 9f 6f bd
       0.10503542 -0.02856078 0.11904886 -0.058502156
0003b0 e0 b5 51 3c be c4 07 3e 92 ea 3d bd dc 24 b0 bd
       0.01279971 0.13258645 -0.04636628 -0.0860078
0003c0 db cb c6 bd f6 b3 1d bd 97 3b 79 3d 48 07 84 3d
       -0.09706851 -0.038501702 0.060847845 0.06446701
0003d0 69 1a d6 bd 27 44 9b bc 9c 2b 41 3b a4 dd 7b 3d
       -0.10454256 -0.018953396 0.0029475456 0.06149067
0003e0 46 92 09 3e bc d6 c3 bc e2 b5 2a 3d af c7 f2 bd
       0.13434705 -0.023906104 0.041677363 -0.11854493
0003f0 cb c3 f8 3d 52 b2 81 bd 8c 42 c6 3c 51 c7 a9 bd
       0.121467195 -0.0633284 0.024201654 -0.0828997

layers1d.3.bias f4 [128]
000000 45 16 5c 3c 86 75 9a bc 6f 4a ca bc f2 48 0e bb
       0.013433044 -0.018854868 -0.024693696 -0.002171096
000010 de 44 4f bb 8e 33 32 bb 95 2a 82 bd e6 ab c1 bc
       -0.0031626741 -0.0027191374 -0.06355778 -0.023641538
000020 96 63 94 bc b4 ec 2b 3c 95 4c 87 3b c0 b4 28 3c
       -0.018113893 0.010493446 0.0041290023 0.010297
000030 25 2a 6f ba b0 6b 84 bc 47 f4 40 bb 8f 12 e5 3b
       -0.00091234065 -0.01616463 -0.0029442476 0.0069907377
000040 8a c7 42 bc 37 9c 06 3c 14 c9 a5 3c f8 6c 0d bd
       -0.011888394 0.008215955 0.020237483 -0.03452775
000050 81 52 fa bc 7a 41 2a 3d 8a d7 64 bc 24 41 4c bc
       -0.030556919 0.04156635 -0.013967404 -0.012466703
000060 8e e8 9c 3c d1 45 53 bc da 7c f3 bc 7d 37 16 3c
       0.01915386 -0.0128950635 -0.02972262 0.009168503
000070 9b 78 02 3d ae 0b bd bb 97 75 84 bc 82 7d ef 3b
       0.0318533 -0.0057692146 -0.016169352 0.007308663
000080 3c 83 81 3b 8a a2 d5 3b ad 02 1b 3d 49 7e f4 bc
       0.003952412 0.0065196203 0.03784435 -0.029845374
000090 dd 06 04 bc 8a 0c a2 bc e5 87 50 3c bf bb 0c 3c
       -0.008058277 -0.01978137 0.012727712 0.008589684
0000a0 3e 83 c5 3c e3 68 4e bd 15 48 a4 bd 2b 3f 56 3c
       0.024110433 -0.050392997 -0.08021561 0.013076584
0000b0 91 0a bb b9 ca a9 48 3d 33 6e 7a ba e5 86 a1 3c
       -0.00035675292 0.04899005 -0.0009553164 0.019717643
0000c0 02 a6 ca bc 8a 86 52 bc 45 0c 35 3c a4 c7 77 bc
       -0.024737362 -0.012849459 0.011050289 -0.015123282
0000d0 dd bf 87 3c 0e 70 9d 3c c3 7f cb bc 94 bc 8b bc
       0.01657098 0.01921847 -0.024841195 -0.017057694
0000e0 e3 4c bc bc d8 a8 66 3c 43 69 ab 3c 92 3a 9a bd
       -0.022985881 0.014078341 0.020924216 -0.07530703
0000f0 d3 62 a8 bc 82 af 12 ba 47 bd 0a bd 10 8d 58 3c
       -0.020554936 -0.0005595611 -0.033871915 0.013217226
000100 c7 14 66 bd 29 55 1e bd 1a 06 b2 bc 68 c3 88 bd
       -0.05617216 -0.038655434 -0.021731425 -0.06677896
000110 53 b3 95 3c 95 05 cd bc de 1f 12 bd 9b e6 c4 bb
       0.018273985 -0.025027076 -0.035674922 -0.0060089356
000120 86 e5 df 3c 5c 43 8f 3b 6b 8a 76 3d f8 b7 1f bc
       0.027331125 0.0043720435 0.0601906 -0.009748451
000130 4f 49 dc ba de 73 cb bb 9a 82 e2 3b e2 81 52 3b
       -0.0016806516 -0.006208881 0.0069125416 0.0032120873
000140 58 63 97 bd 9d a7 5d bc b8 5b e8 bb 13 d9 b8 bc
       -0.07391995 -0.013528732 -0.007091012 -0.022564447
000150 af f2 ae 3c c8 f8 3f bd d6 f1 47 3d 83 c2 bc 3b
       0.021355955 -0.046868116 0.048814617 0.0057604923
000160 f5 30 0a bd 1c 1a 97 bc 38 14 5e 3c f4 a0 47 3b
       -0.033738095 -0.018445067 0.013554625 0.0030460926
000170 bb a4 d4 bb 16 11 b4 3c 9d 9d dc 3b 9a c9 bb bc
       -0.006489364 0.021980803 0.006732656 -0.02292328
000180 78 ee 8b 3b c5 77 19 3d 6b 3b ea bc 5d b9 8a 3c
       0.004270371 0.037467737 -0.028592786 0.016934091
000190 69 18 85 bd e0 d0 bb bc 9b 96 3a 3c e7 ec 98 bc
       -0.064987965 -0.022926748 0.011388446 -0.018667651
0001a0 e9 ad 5d bc 7f b4 36 3c 3c 7e 75 3c b0 77 86 bd
       -0.013530233 0.011151432 0.01498371 -0.06565797
0001b0 83 a6 4e ba 74 41 bc 3c 86 4b 9e 3c b3 4b e7 bc
       -0.00078830885 0.02298043 0.019323122 -0.028234338
0001c0 fa f2 28 bc 14 f5 55 3d 7f e3 bd ba 16 cb 35 bc
       -0.010311836 0.052235678 -0.0014487355 -0.011095783
0001d0 4f 15 60 3c 79 26 67 3c e9 f8 85 bb 77 04 0b 3d
       0.013676955 0.014108294 -0.0040885103 0.033939805
0001e0 e1 e2 0c 3b f2 5c 18 bb 55 61 7a bd 04 53 57 bc
       0.0021497535 -0.002324876 -0.06112798 -0.013142351
0001f0 44 80 1e ba 93 9d 83 3c 3d 48 84 3c 4e 8e 11 3d
       -0.0006046335 0.016066348 0.016147727 0.035536103

combined.0.weight f4 [64, 128]
000000 b1 80 76 3c e9 1f 49 3d ee 14 6c 3d 6a 57 8e bc
       0.015045331 0.049102698 0.057637148 -0.017375667
000010 de fb a6 bc d8 05 08 bd 7e 7b 74 3d a4 cb db 3c
       -0.020383772 -0.033208698 0.059688084 0.026830502
000020 dd c8 ae bd 85 a8 44 3d 0e 64 e4 3d e7 35 9d 39
       -0.085344054 0.048012275 0.111518964 0.00029985534
000030 ba 89 46 bb 0e d6 35 3d 14 9a d3 3d 8a 9f 7b 3c
       -0.0030294494 0.04439359 0.103321224 0.015357861
000040 f0 db f7 3c 37 cd 7d 3b b3 60 32 3c 61 32 cc 3d
       0.030256242 0.0038727054 0.010887313 0.099705465
000050 58 5b 58 bd 16 c1 ff bd 17 f5 dc 3d 98 d1 aa bd
       -0.052821487 -0.12488 0.10788935 -0.08340758
000060 54 4f d7 bd 21 3a 2d 3d bc 26 63 3d 44 3d d4 3c
       -0.105131775 0.042291764 0.05545686 0.02590812
000070 d3 c4 47 be 65 42 6d bd 68 9d 08 bd 54 7e 8a 3c
       -0.19508676 -0.057924647 -0.03335324 0.016905941
000080 16 5c 77 bd 4f 30 ce 3c c7 de c1 bd 0c bd c0 bc
       -0.060390554 0.02516952 -0.094663195 -0.023527645
000090 eb dc a8 bc 9d 23 e2 bd 03 7f 13 be de 0a b2 bd
       -0.020613154 -0.11041949 -0.1440392 -0.08693479
0000a0 b3 40 43 be c9 bf a5 bc dc 3d 6d bd 1a 4d 94 3d
       -0.1906765 -0.020233052 -0.05792032 0.072412685
0000b0 b1 79 08 be 5c d9 8e bd db 60 22 bd 1c 34 a3 3d
       -0.13327672 -0.06975052 -0.03964315 0.079689234
0000c0 b5 67 b0 bc 28 7c 54 3d ac 7c d4 3c bf fd 50 3d
       -0.021533826 0.051876217 0.025938354 0.05102324
0000d0 f0 6b 85 bd bc b6 a0 3d a7 47 b9 bd e8 c5 87 3d
       -0.06514728 0.07847354 -0.0904687 0.066295445
0000e0 b5 5b be 3d 5b 79 09 bd cf 8b 5c bd 5a 97 b6 bd
       0.092948355 -0.033563 -0.05384427 -0.08915587
0000f0 48 97 80 bc bc 3e e8 3d 50 f2 b0 bd 15 e6 1b 3d
       -0.015697137 0.11340091 -0.086399674 0.03806122
000100 92 fa a8 bd 8f 46 1f bd 09 17 18 be a3 2f ac 3d
       -0.082509175 -0.03888565 -0.14852537 0.084075235
000110 0f 91 67 3d 38 bb c5 bc 7b 08 c9 3d 0d 7c d2 bd
       0.056534823 -0.024137124 0.09816071 -0.10277567
000120 c7 73 0d be 3e fe 2f bd ec 59 43 bd da 53 12 3e
       -0.13813697 -0.042967074 -0.047693178 0.142898
000130 98 92 11 bd 53 f2 8b 3d 58 a5 73 3d ff 7f 65 bd
       -0.035540193 0.06833329 0.059483856 -0.05603027
000140 2b 63 e3 bd f4 77 b4 3b e4 66 2d bc 0b cc 7d 3d
       -0.11102899 0.0055074636 -0.010583613 0.06196217
000150 d1 9f 2c be c8 30 1c 3d 19 25 79 bd a9 2e 25 3c
       -0.1685784 0.03813246 -0.060826395 0.010081925
000160 ac f2 d0 3d fa 89 42 bd af ff b0 3b 6c 9f e3 3d
       0.10202536 -0.047494866 0.0054015736 0.11114392
000170 a6 11 cc bc de 30 19 be b9 3d 9e 3c 9f ce 26 bc
       -0.02491076 -0.14960048 0.019316541 -0.010181098
000180 5e 61 25 bd 6f 28 34 3d 6d 7c 11 3c 67 28 9f 3c
       -0.04037606 0.043983873 0.008879763 0.019428445
000190 a1 6a 34 bc fc 30 9a bd 5e 8d bb bd 8a d0 94 3d
       -0.01101175 -0.07528874 -0.09157823 0.07266338
0001a0 b8 9e 8a bd fa d5 79 3d fa c8 a0 bd ce 6d 7d 3c
       -0.067685544 0.06099508 -0.07850833 0.015468074
0001b0 be d6 99 3d 36 1c 33 be 1c f8 b0 3c 8f 3e 32 bc
       0.07511662 -0.1749123 0.021602683 -0.010879173
0001c0 6c 04 5e bc 71 ac 59 bd 3e 8d 06 bd 03 2f b3 3d
       -0.013550859 -0.05314297 -0.032849543 0.08749201
0001d0 ae cb 8b bc 5f 6a d5 bc f6 4e 13 3c c4 46 9e bb
       -0.017064895 -0.026051698 0.008990994 -0.0048302133
0001e0 a0 04 4c 3c 38 f8 cb bd cd 84 fe 3d 8e c4 47 bc
       0.012452275 -0.09959453 0.124276735 -0.012192858
0001f0 cb f0 be 3d 37 26 42 3d 60 e6 ba 3d 6a e9 b8 bd
       0.09323271 0.047399726 0.09125972 -0.09028895
000200 d7 d7 74 bc 8e e3 a8 bd a0 36 4b 3d 28 15 00 bd
       -0.014944038 -0.082465276 0.04961264 -0.031270176
000210 91 b1 1b bd 71 61 02 be 1c 62 93 3c 7e 91 4d bd
       -0.038011137 -0.12732483 0.017991118 -0.05018758
000220 2e fc 95 3d 69 11 ca bd ee 2c 90 bd 98 7c f4 bd
       0.0732349 -0.09866602 -0.0703982 -0.11937827
000230 9b e8 e2 bd 47 83 77 3d 71 61 be bd 14 4a 2e be
       -0.11079522 0.06042793 -0.09295929 -0.17020446
000240 2d e9 0e 3d 99 38 25 be 63 c9 bd bd 93 ff 1a bd
       0.034890343 -0.16134872 -0.09266927 -0.03784139
000250 1e 85 3d 3d 09 46 0a 3d 1d 26 11 3d 13 40 21 3d
       0.04626953 0.033758197 0.03543674 0.039367747
000260 09 69 ba bc ef 6b 0c be 05 c1 00 bd d3 68 32 3d
       -0.022755163 -0.13713048 -0.031434078 0.043557
000270 d3 58 82 bc ec ed 4f 3d a1 b1 84 bc d4 be 83 bd
       -0.015911495 0.05076401 -0.016197981 -0.06432882
000280 a7 d2 ab bd 8e da d7 bd 70 37 39 3c 31 df 6b bd
       -0.08389788 -0.10539733 0.011304721 -0.0575859
000290 3a ce 8d bd bf 58 9e 3c 71 ed 03 3e b2 c6 7d 3d
       -0.069241 0.019329427 0.12883545 0.06195707
0002a0 26 d1 e4 3d cf a7 30 bc d1 5f ee bc 32 5d d0 bd
       0.111727044 -0.010782196 -0.029098423 -0.101740256
0002b0 62 83 ad 3d cc d0 69 3d 4d 16 b6 3c cb 88 0d be
       0.08472325 0.05708389 0.02222743 -0.13821714
0002c0 9f 61 01 3e 1e 72 08 be 3f a3 7f bd c1 18 9c bc
       0.12634896 -0.13324782 -0.062411543 -0.019054772
0002d0 5c 09 08 3e 72 15 ae bb 91 20 04 3e 02 82 ba bd
       0.1328482 -0.005312615 0.12903048 -0.09106828
0002e0 b0 4c c7 bd ed b4 89 bd ef 4d 10 bc ae c3 98 bc
       -0.09731424 -0.06723962 -0.008807643 -0.018647995
0002f0 43 7b 8e 3c 81 f4 38 be 57 11 f2 3d 52 a9 f1 bd
       0.01739276 -0.18062021 0.118197136 -0.117998734
000300 0c 78 59 3d 19 c7 33 be 9b 14 f3 bc 7e 30 fc 3c
       0.053093 -0.17556418 -0.029672911 0.030784842
000310 c3 a9 88 bd 76 4e 24 bc 0a 59 7f bd 3f 56 96 3d
       -0.066730045 -0.010028472 -0.062340774 0.07340669
000320 99 ef 2e 3d b2 09 ce bd de 39 36 bd 0e 90 9c 3c
       0.042708967 -0.10060443 -0.04448878 0.01911166
000330 49 94 d0 bd 0a d0 46 be 5e 72 b7 3b b6 c7 b2 3a
       -0.10184533 -0.19415298 0.0055983504 0.0013639841
000340 52 5f 1a bc d7 37 a0 bd 97 ad 55 bc 9e 13 c0 bc
       -0.00942214 -0.078231506 -0.013041875 -0.023446854
000350 a8 23 3f bd 83 2b b5 3c a2 ce 30 3c 48 1d f4 bd
       -0.046664864 0.022115475 0.010791453 -0.119196475
000360 5d 2a ca bd 6c e9 1c 3d de c9 0a bb a1 45 fa 3b
       -0.098713614 0.038308546 -0.002117745 0.007637695
000370 b5 8b cb bd 12 39 12 3d ff 9e 9b bd 35 1c 94 3d
       -0.099387564 0.035698958 -0.075986855 0.072319426
000380 82 01 f8 b7 92 1e 18 bd 1d f9 69 bb ff 5b 10 be
       -2.9564606e-05 -0.03713853 -0.0035701462 -0.14097594
000390 b6 d0 e1 3d 23 4d 9f 3d fc 89 1a bd 29 17 b4 bd
       0.110261366 0.077783845 -0.03772925 -0.0879348
0003a0 ef 87 81 3d 19 a6 dd bd 27 13 aa bb 0a b4 57 3d
       0.063247554 -0.10822696 -0.0051902714 0.052661933
0003b0 a1 b1 c0 bc e8 58 9c 3d 6a b7 e3 bd 5c 07 f9 3b
       -0.0235222 0.07634145 -0.11118968 0.0075997543
0003c0 fe 14 86 3d a6 64 ce bc 90 c2 1d bb 41 a7 75 bd
       0.06546973 -0.025194477 -0.0024072267 -0.05997396
0003d0 a3 37 1b 3d 28 82 27 bd 4a 86 f9 bd 79 03 95 bd
       0.037894856 -0.04089561 -0.12183817 -0.07276053
0003e0 2d ce 12 bd a7 13 f1 3d 00 83 9c 3d 17 9f 1a 3d
       -0.035841156 0.117713265 0.07642174 0.037749376
0003f0 d9 ff 12 be 7d 44 19 bd e8 f3 00 bd 3f 6d 12 bd
       -0.1435541 -0.03741883 -0.031482607 -0.035748716

combined.0.bias f4 [64]
000000 40 9b 04 bd 74 a1 89 3c 42 51 27 3d 39 b9 cf bb
       -0.03237462 0.01680062 0.040848978 -0.006339219
000010 6c 76 77 bc a1 d3 36 3c 3c 4d 62 3c 5a 92 87 bb
       -0.015103918 0.011158855 0.013812359 -0.0041373195
000020 ca 06 97 bc b1 50 85 bb 3b 13 74 bc 88 5e a6 3c
       -0.018435854 -0.004068457 -0.014897163 0.020308748
000030 dc 45 74 3c 35 a8 98 bb 34 d3 cd bb f2 df 56 bc
       0.014909234 -0.0046587237 -0.006281281 -0.013114916
000040 bc 12 73 3c 07 1c 9f bc 49 3f 20 3d 60 3a 2a 3c
       0.01483601 -0.019422544 0.039122853 0.010389894
000050 27 39 c4 3b 23 ec 86 3c 29 7c b7 b9 af bd 5c 3d
       0.0059882584 0.01647002 -0.00034996987 0.053891834
000060 8b c3 a9 3c 58 97 61 3c ea 93 52 3c 9b 41 45 3c
       0.020723125 0.013768993 0.012852648 0.012039567
000070 37 b3 07 3d b8 f7 df 3c 75 1c e2 bb 9c 03 0b bb
       0.033129897 0.027339801 -0.006900365 -0.0021211868
000080 34 ff 9d 3a 43 28 f7 3c 26 ef 43 3b f4 c7 93 bc
       0.0012054206 0.030170565 0.0029897182 -0.018039681
000090 d9 74 fd 3c b3 d4 20 bc ba c5 c7 bc 92 b3 a6 bc
       0.030939506 -0.009816336 -0.024386276 -0.020349298
0000a0 2f b5 35 3c f2 96 82 3d fb 9f 03 3d da 0f 4b bb
       0.011090561 0.06376447 0.03213499 -0.003098479
0000b0 1c 25 c6 bc 87 16 eb 3c 0d a4 c3 3c 36 01 23 bd
       -0.024187617 0.028697265 0.023881936 -0.039796077
0000c0 c1 b1 de 3b b9 d5 5a 3c 41 7b c7 bc 0a 72 16 bc
       0.0067960923 0.0133566195 -0.024350764 -0.0091824625
0000d0 9b 2b ef 3b b1 fd 6b bc 69 0a cc bc cc a8 40 3d
       0.0072988993 -0.014403746 -0.024907308 0.047035977
0000e0 da 31 50 bd 16 65 50 3c d0 ed 80 3b a1 3f 5a 3c
       -0.050828792 0.012719413 0.0039345995 0.013320834
0000f0 48 61 6f 3c 5d d7 f1 3c 86 4b fc 3c cb 42 67 3d
       0.014610596 0.029521639 0.030797731 0.056460183

combined.3.weight f4 [64, 64]
000000 31 7d d5 bd b5 72 be 3d ce 91 b5 bd a8 b3 81 bc
       -0.10424269 0.092992224 -0.08865701 -0.015832737
000010 43 24 68 bd de c9 4c be 5f 57 b5 3c 34 16 d3 bd
       -0.056675207 -0.19998881 0.022136388 -0.10306969
000020 92 5f ba bd 6d 63 3d be 76 3c 6b bd 26 1a 10 3d
       -0.0910026 -0.18494959 -0.057430707 0.035181187
000030 22 57 a6 bd 05 cd b1 3c ad 03 dc bd 97 67 45 be
       -0.08122088 0.021704206 -0.107428886 -0.19277798
000040 57 dd 03 bc 29 21 d2 3d af a8 72 bd 4a 82 ea bd
       -0.008048377 0.10260231 -0.0592429 -0.11450632
000050 bf 71 d4 3c 3d 9e b6 bd 46 8f 24 bd dc 36 0e be
       0.025933145 -0.089169 -0.0401757 -0.13888115
000060 54 c8 a8 3d bc b9 16 be 6e ff 13 be c2 f1 01 3e
       0.082413346 -0.1471929 -0.14452907 0.1268988
000070 7a f7 0b 3d 37 22 7e bb 0c 27 18 3e 74 ec cb 3d
       0.03417156 -0.0038777718 0.14858645 0.09957209
000080 fb b5 0f 3e 31 3e 81 3d da a3 97 bd dc e5 43 bb
       0.14034264 0.0631069 -0.07404299 -0.0029891646
000090 f2 39 a6 3d 4a 87 14 3e 07 80 14 3c d0 eb 15 3e
       0.08116521 0.14504734 0.009063727 0.14640737
0000a0 d6 1f d3 3d 03 f3 91 3c 47 a4 fa 3d 0b bf 9e bd
       0.103088066 0.017816072 0.12238365 -0.07751282
0000b0 9b c4 08 3e 14 81 23 be a7 f4 55 be d8 09 59 bc
       0.13356249 -0.15967208 -0.20894109 -0.013246976
0000c0 10 e7 72 3d 6b 0d 43 bd c7 eb 15 be 2e ae 3a bd
       0.05930239 -0.04762022 -0.14640723 -0.045576267
0000d0 82 93 b1 3d 33 f2 03 3e 91 76 b5 3c 4a b6 a0 3d
       0.08670713 0.1288536 0.022151263 0.07847269
0000e0 83 35 83 bd 6d 1d c9 bd 56 ca bd bd f0 2f ec ba
       -0.06406691 -0.09820066 -0.09267108 -0.0018019658
0000f0 68 36 b0 3d d0 ac 68 be 7b 10 20 bd 0b 74 f3 bc
       0.08604127 -0.22722173 -0.039078217 -0.02971842
000100 4e c6 91 bd 91 3e f7 bd f0 69 c3 3c c1 a6 a3 bd
       -0.07117902 -0.120724805 0.023854226 -0.0799079
000110 96 44 ed 3d 8a f6 01 bd ab 93 04 3d a5 7f 9b 3d
       0.11585347 -0.03172926 0.03236739 0.07592706
000120 09 50 87 bc 5e 75 01 3e e5 78 87 bd 3e 79 b3 bd
       -0.016517656 0.12642428 -0.06614856 -0.087633595
000130 86 0c 86 bd ac cc a4 3d 6d 86 8a 3b 17 e2 ee bd
       -0.065453574 0.080468506 0.0042274506 -0.11664217
000140 5b 53 41 3c ce 9e c2 bd 7d 54 86 3d 20 9f 96 3d
       0.011799659 -0.09502946 0.065590836 0.073545694
000150 a2 13 3a be 2a 30 82 bd 3f 27 81 3d a7 df a1 3c
       -0.18171552 -0.06356843 0.06306314 0.019759966
000160 53 46 2c be af a5 97 3c 59 f7 12 bc d1 ea 4c be
       -0.16823702 0.018511621 -0.008970105 -0.2001145
000170 b6 42 c8 bd 80 ff 50 bd 12 ba 2f be 7a b7 21 be
       -0.09778349 -0.051024914 -0.17160824 -0.15792647
000180 bd 3b 1f be da 75 0f be c8 d7 cc 3d 6b 2f e9 bc
       -0.15550132 -0.140098 0.100020945 -0.028464993
000190 61 7a 31 be ac fb a9 3c 62 3b 84 39 1a 4d 24 bc
       -0.1733184 0.02074989 0.00025221246 -0.010028148
0001a0 9d ca f1 bd 14 52 ed bc ef 22 0f be bb 87 74 bd
       -0.118062235 -0.028969802 -0.1397817 -0.059699755
0001b0 03 3c 8c 3d db 28 bd 3d ff fd 9e bd e0 da 05 3e
       0.06847384 0.09236308 -0.0776329 0.13071775
0001c0 35 86 dd bd 0a da 08 be b6 9d 8d 3d 8c 02 95 3d
       -0.108166136 -0.13364425 0.069148466 0.072758764
0001d0 2a 09 db 3a 4e 2b 7f bd 55 c2 4f 3d 1a ac 22 be
       0.0016711105 -0.062297158 0.05072244 -0.15885964
0001e0 d1 fc df 3c 8b d4 e8 3d f8 2e 0e 3c 94 ea 09 bd
       0.027342232 0.11368664 0.00867819 -0.033670977
0001f0 ad f6 bd bd 34 1a 71 bc 05 bb d8 bd f0 00 43 3c
       -0.09275565 -0.01471572 -0.10582546 0.011902079
000200 cb 5e 2b be a4 23 12 3e 2b c5 b9 3b e9 32 0d 3d
       -0.1673538 0.14271408 0.005669256 0.03447238
000210 2d ec 84 bd aa bc 87 bc cc 11 18 bd eb be 94 bd
       -0.064903595 -0.016569454 -0.037126347 -0.07262977
000220 07 8b 5b bc c3 34 09 be 7d 56 80 bd 0a 39 93 3d
       -0.013399846 -0.13399033 -0.06266496 0.07188614
000230 3a 53 13 3e 67 77 c0 bc 97 31 98 bc 92 e6 df bd
       0.14387217 -0.023494435 -0.018578334 -0.1093265
000240 6a cc 17 be 92 15 ff 3d 62 45 ca 3a 6f 28 f8 bd
       -0.14824072 0.12455286 0.0015432055 -0.12117087
000250 9a 11 8e bd 9d 7c 3f bd f9 53 18 3e 8b a7 fe bd
       -0.06936951 -0.0467497 0.14875783 -0.124343
000260 d3 5d a2 ba 0b 93 1c be f6 50 27 3d a8 50 74 3d
       -0.0012387581 -0.15290467 0.040848695 0.059647232
000270 88 b6 9f bd 38 d0 20 3c 4a a6 5d 3d b9 bb d8 3d
       -0.07798487 0.009815268 0.054113664 0.1058268
000280 d0 3c 20 3e 22 4e 58 3e db ba 66 bc fd f3 41 bd
       0.15648198 0.21123555 -0.014082636 -0.047351826
000290 16 51 73 bc 5c ae 2e bd 1d 67 e5 bc 94 eb e4 3d
       -0.014850875 -0.04264675 -0.02800327 0.111777455
0002a0 c4 ac 4c bb fd 98 c5 bd 79 7d 69 bd d3 0f c6 3c
       -0.0031230906 -0.09648321 -0.057004426 0.024177467
0002b0 c1 73 7d bd 76 09 3a be 71 e2 93 bd 87 10 3f bd
       -0.06187797 -0.18167672 -0.07220925 -0.04664662
0002c0 af d8 d1 3d 5c 28 ed 3c a3 e2 11 be 32 d0 6c bc
       0.10246407 0.028949909 -0.14246611 -0.0144539345
0002d0 eb 1a 3b 3d 40 00 a7 bd ed 4d 5d 3d 15 dd 3c bd
       0.045679968 -0.081543446 0.054029394 -0.046109278
0002e0 3e 47 ac bd 43 7c 36 be 3f 73 30 bd ad b4 bd bd
       -0.08412026 -0.1782084 -0.043078657 -0.09262977
0002f0 43 7d 6a bd c9 73 53 bd 95 06 b1 bd e1 e0 9b bd
       -0.057248365 -0.051624093 -0.086438335 -0.076112516
000300 e6 13 b6 bd 20 f7 32 3e 24 75 89 bd 31 08 f0 3c
       -0.08890514 0.17477083 -0.06711796 0.029300781
000310 1b 61 d5 3d ff 90 51 3b 70 6b e8 bc c2 c2 f6 bd
       0.10418912 0.0031977294 -0.028371543 -0.12048866
000320 c8 b8 c8 bd ab 41 b7 bd 41 15 d9 3a b7 20 f8 3d
       -0.09800869 -0.08948072 0.001656212 0.12115615
000330 57 70 67 3d 22 db 0e bd 06 d7 33 be 67 8b 27 3d
       0.05650362 -0.03487695 -0.17562494 0.04090443
000340 d7 6f b3 bd a5 18 20 3d dd 56 69 3d 0a d8 9e bd
       -0.08761566 0.039086003 0.056967605 -0.0775605
000350 38 a5 de 3d 35 5c 06 bd ac ea d3 3d 8a b0 8c bd
       0.10871357 -0.03280278 0.103474945 -0.0686961
000360 4d 92 48 3d 27 bc b4 bd 16 14 b8 3c 10 e6 b8 3d
       0.04896765 -0.0882495 0.022470515 0.09028256
000370 ee 89 2b 3d 5a 47 9a bd b3 3d 7c 3b aa 52 8a bc
       0.041879587 -0.075331405 0.0038488924 -0.01688512
000380 66 d0 ab 3d 9a fc b1 bd 30 48 cc bc bb 8f 5e bc
       0.08389358 -0.08690758 -0.024936765 -0.013584073
000390 20 28 e1 3d 69 e0 19 bc d4 b7 b2 bd 91 06 0c bd
       0.10993981 -0.009391882 -0.08726469 -0.03418595
0003a0 bc 7a 56 3d 53 c8 7e bc 7c fb 3e bd fc 54 16 be
       0.052363142 -0.015550691 -0.046626553 -0.14680856
0003b0 db 83 89 3c 17 7b 5e bd c1 67 07 bc b1 ac b6 bd
       0.016786506 -0.054316606 -0.008264483 -0.08919657
0003c0 98 75 28 3d c8 86 ba 3d cf 5b 1c be f3 51 b7 bd
       0.04112777 0.09107739 -0.15269397 -0.089511774
0003d0 c5 b9 34 bd b5 0f 8e 3d 42 4b 65 bd 83 32 6b bb
       -0.044122476 0.0693659 -0.055979975 -0.0035888262
0003e0 4a e2 0d be fc 1e 9f bd 6c 63 73 bd c7 3a 84 3d
       -0.13855854 -0.07769582 -0.059420988 0.064565234
0003f0 18 7c 7b 3d 96 e2 83 bc 31 1a 55 bc fd 9b 43 3d
       0.061397642 -0.016099256 -0.013006733 0.047756184

combined.3.bias f4 [64]
000000 9c b8 d7 3d 8f ad aa 3d 4e 14 b9 3d be 79 e6 3d
       0.10533258 0.08333885 0.09037076 0.11253689
000010 53 41 06 3e 1a ae a8 3d 51 87 1d 3e 38 71 c4 3d
       0.13110857 0.08236332 0.1538365 0.09591907
000020 d8 49 a1 3d 4c 0e fc 3d b0 fa b8 3d 65 1d 1f 3e
       0.07875413 0.123074144 0.0903219 0.15538557
000030 39 0f b8 3d a0 89 d7 3d 6d 18 c7 3d 7b ae b9 3d
       0.089872785 0.10524297 0.09721456 0.09066483
000040 cb 35 e3 3d 3a 3b 90 3d 08 e9 e2 3d 73 30 e7 3d
       0.110942446 0.070425466 0.110796034 0.11288538
000050 ac 8b b6 3d 2f d5 dc 3d ec c3 e4 3d 51 35 c3 3d
       0.08913359 0.10782849 0.11170182 0.09531654
000060 99 10 aa 3d b8 30 c8 3d 6f 60 e5 3d d5 ba c0 3d
       0.08303947 0.09774917 0.11200034 0.094106354
000070 c7 c6 e7 3d a7 1a c0 bb b4 ae d7 3d c2 9f f9 3c
       0.11317211 -0.005862552 0.10531369 0.030471686
000080 10 bb ac 3d 95 b7 a6 3d f7 90 92 3d a6 f9 a4 3d
       0.08434117 0.08140484 0.07156556 0.08055429
000090 bb 36 b1 3d a4 06 c4 3d d6 f1 d9 3d 71 6b 05 3e
       0.08653017 0.09571579 0.1064183 0.13029267
0000a0 64 65 c8 3d de 04 cb 3d 9b ae 9d 3d 08 4f a6 3d
       0.09784964 0.09913038 0.07699319 0.08120543
0000b0 70 3e cb 3d 5e b0 05 3e c6 7c a8 3d 1a cc 5a 3d
       0.099240184 0.1305556 0.08226924 0.053417303
0000c0 36 1e d2 3d f1 e6 4a 3c 12 7d b4 3d 5a fa c0 3d
       0.102596685 0.012384162 0.08812918 0.09422751
0000d0 15 ed a2 3d 4a a0 c0 3d 8a a5 d5 3d 45 b3 00 3e
       0.07955376 0.09405573 0.10431965 0.12568386
0000e0 99 01 9e 3d dd 73 99 3d c0 87 ec 3d ae 0c b2 3d
       0.077151485 0.07492802 0.1154933 0.08693825
0000f0 93 62 ba 3d 2d 20 aa 3d 29 de c5 3d 4a 82 7b 3d
       0.09100833 0.08306918 0.09661514 0.06140355

combined.6.weight f4 [1, 64]
000000 f8 a3 88 bd 3b 5e 22 3d f6 3f d6 bd 18 11 8c bd
       -0.066718996 0.039640646 -0.10461418 -0.06839198
000010 f3 d7 41 bd 1b ce 68 3d dc 87 4e bd 68 6f 2a 3d
       -0.047325086 0.056837182 -0.050422534 0.04161015
000020 83 60 91 bd 07 25 97 bd e1 93 00 3d af ce 44 bd
       -0.07098486 -0.07380109 0.03139103 -0.04804867
000030 88 3b a9 bd b1 0e 2c 3d 23 8a 2f 3d 0b 31 90 bd
       -0.08263308 0.0420062 0.042856347 -0.07040604
000040 07 bd 45 bd 8a 60 1b 3d 0c c0 12 3d ae 5f 66 bd
       -0.048275974 0.037933864 0.03582768 -0.05624359
000050 ff 3e 26 3d b8 0c 87 bd 04 5c 55 bd 01 bb 25 3d
       0.04058742 -0.06594223 -0.052089706 0.040461544
000060 d2 79 22 3d 7d 79 9e bd 2d cc a5 bd f1 cb 0e 3d
       0.03966696 -0.07738016 -0.08095584 0.034862462
000070 6c c1 4f 3d 2d dd 9c 3d 7f c0 44 3d 22 63 dd 3c
       0.05072157 0.076593734 0.04803514 0.02702481
000080 01 6a 32 3d a8 16 86 bd 8d 4c 71 3d 6a 62 0a be
       0.043558124 -0.0654729 0.058910895 -0.13514104
000090 37 49 a1 bd 41 a6 ee 3c 71 a1 f6 3c e8 fc 81 bd
       -0.07875293 0.02913201 0.030106278 -0.06347066
0000a0 51 16 26 3d 6d d2 86 bd 18 38 c1 bd f2 19 28 3d
       0.040548626 -0.06583104 -0.09434527 0.04104037
0000b0 7b 19 3f 3d 60 0d 81 bd f5 83 b9 bd 3b af a7 bd
       0.04665516 -0.06301379 -0.09058372 -0.081877194
0000c0 75 62 6b bd 2c d0 b6 3d ed 6b 45 3d 59 62 ba bd
       -0.057466943 0.089264244 0.04819863 -0.091007896
0000d0 84 9f 2e 3d 8e 62 02 3d 58 8a 9f bd 8f 03 93 bd
       0.042632595 0.03183227 -0.07790059 -0.07178413
0000e0 af 34 36 3d 1e b9 a1 bd 6e b8 12 3d 59 c9 cc bd
       0.044483837 -0.078966364 0.035820417 -0.099993415
0000f0 3a 51 96 bd 57 bc bb bd 82 68 49 3d fa 94 88 3d
       -0.073397115 -0.09166782 0.049171932 0.0666904
