data/models/nov12_24_undersample/fold2_epoch_models/epoch_3_model.pt (torch, 775567 bytes, 9 tensors)

layers1d.0.weight f4 [128, 1280]
-0.08999126 0.021869782 -0.0014774839 -0.035689324 -0.021644836 0.009252749 -0.066255264 -0.021036778
0.0009741948 0.0031651554 -0.020060478 -0.0038860657 0.009000544 0.019749817 8.835473e-05 -0.005579002
0.0016316889 -0.055867333 -0.013820747 -0.0052207527 0.061800133 -0.0012888811 0.074288204 -0.010808313
-0.024059743 0.012084404 0.0039568865 0.07275395 -0.012934765 -0.0023030052 0.020558508 -0.0068074493
0.009120415 -0.054158542 -0.0009841808 0.00411339 0.019968346 -0.0068586767 -0.0028455267 -0.009020623
0.014304274 -0.05393275 -0.031741146 -0.028507037 0.035881177 0.10598176 0.019275088 0.010589164
0.019758176 0.0049776793 0.0032896136 -0.004668917 -0.06355533 -0.040146258 -0.0003097065 0.032287747
0.03417083 -0.007840763 -0.026270289 -0.005667379 0.078700036 0.0029839182 -0.013946779 0.055950414
-0.00057412597 0.0062640673 -0.07775016 -0.036778964 -0.041091017 -0.032304555 0.027341483 0.025462931
-0.010235617 0.0640929 0.06834079 0.02045301 -0.01567629 -0.03307287 -0.0077650305 -0.016810114
-0.039972782 0.03096332 -0.036524873 0.0030868403 0.0409168 -0.033632316 -0.011639142 -0.04654325
0.02942826 -0.011916586 0.044354066 -0.0403594 0.0025614204 -0.018586144 0.010371731 -0.0048707617
-0.05660182 -0.009409021 -0.054891877 -0.015744597 -0.07215189 -0.013912802 0.0005061864 -0.03320892
0.016120732 -0.065429345 -0.0036960132 0.093929455 0.031190926 0.043118913 -0.035146218 0.036818236
0.042930726 0.05560423 0.044528004 0.018443564 -0.005287847 0.09617262 -0.037456926 -0.0075607863
-0.028352592 0.02777501 0.015735522 -0.06345137 0.019883033 -0.036640078 -0.07520538 -0.05065717
0.008252719 0.0029746382 0.09905629 0.001080038 -0.08218805 -0.023226855 -0.017609198 -0.050732113
-0.07269862 -0.007388994 0.07845598 -0.02823894 -0.018242776 0.026147401 0.010508249 0.0023001216
-0.029126046 0.03881155 0.0007635846 -0.006402688 -0.029404975 -0.028913569 -0.061580896 -0.017786609
-0.048033934 0.002343414 0.0028853512 -0.06201812 0.014648286 -0.013788822 0.06343006 0.030705336
0.090545796 -0.017726367 0.0006467798 -0.008418173 -0.012143169 0.030619366 -0.0066139824 0.0235005
-0.028725762 -0.0058965846 -0.0042965123 0.03646699 -0.07223187 -0.030546296 -0.004640869 0.032410633
-0.05523329 0.03052602 0.045620333 0.012762893 -0.008151869 0.054439284 -0.0038593123 0.0017754181
-0.040559474 -0.012143985 -0.022231096 0.03897798 0.054615207 -0.015783263 -0.0069676465 -0.004389997
-0.029650742 -0.0023450102 -0.043892805 -0.10783927 0.05368657 0.020569563 -0.06411503 0.08058086
-0.012344254 -0.043428656 -0.049214397 0.015010363 -0.009442852 -0.04974739 0.03215601 0.007478953
0.03161894 0.0068243505 -0.06563647 0.0066862586 0.03205142 0.02588951 -0.030647993 0.026101017
0.08147126 0.077264085 -0.026972335 -0.04411238 0.017210107 -0.0342605 -0.0002714361 0.05305578
0.046073053 -0.027538912 0.04151874 -0.010222202 -0.035798874 -0.0007925954 0.013535495 0.0639486
0.0005100081 0.021481548 -0.0126175145 0.036642093 -0.036430143 -0.03405068 -0.0052312044 0.009788459
-0.029221682 -0.027854072 -0.013679241 -0.005117749 0.043236464 0.038556647 -0.07173683 -0.026997825
0.029544638 -0.03857443 0.045959234 -0.046233457 0.037094224 0.018436307 0.0077405064 0.054034755
00000000: 564d b8bd 4228 b33c 22a8 c1ba f82e 12bd
00000010: 8350 b1bc d898 173c d7b0 87bd 5255 acbc
00000020: 1b61 7f3a 7f6e 4f3b df55 a4bc 5dad 7ebb
00000030: 0577 133c 5eca a13c 164b b938 10d0 b6bb
00000040: 65de d53a 25d5 64bd 6a70 62bc d912 abbb
00000050: 2322 7d3d acef a8ba 6a24 983d 5a15 31bc
00000060: f018 c5bc aafd 453c c5a8 813b 0600 953d
00000070: 56ec 53bc 04ee 16bb 516a a83c 0611 dfbb
00000080: cb6d 153c 59d5 5dbd a1ff 80ba 9ec9 863b
00000090: a894 a33c c0be e0bb 047c 3abb 3ccb 13bc
000000a0: 795c 6a3c 96e8 5cbd 0103 02bd 9787 e9bc
000000b0: 24f8 123d f70c d93d cae6 9d3c 2c7e 2d3c
000000c0: e6db a13c cd1b a33b 8f96 573b b7fd 98bb
000000d0: 4c29 82bd 6770 24bd 1a60 a2b9 2840 043d
000000e0: b6f6 0b3d 8b76 00bc ca34 d7bc 6cb5 b9bb
000000f0: 7c2d a13d d78d 433b 0881 64bc 432c 653d
00000100: f180 16ba ce42 cd3b 7a3b 9fbd 8aa5 16bd
00000110: 0e4f 28bd c851 04bd 3ffb df3c a397 d03c
00000120: 4ab3 27bc 2343 833d 42f6 8b3d 128d a73c
00000130: 906b 80bc 6b77 07bd cc71 febb 5db5 89bc
00000140: 80ba 23bd caa6 fd3c 1b9b 15bd 964c 4a3b
00000150: 6098 273d 0ac2 09bd 1ab2 3ebc 23a4 3ebd
00000160: 8913 f13c c93d 43bc 9cac 353d e64f 25bd
00000170: 81dd 273b f841 98bc 31ee 293c e99a 9fbb
00000180: 4fd7 67bd 4b28 1abc 4ed6 60bd d0fa 80bc
00000190: 5fc4 93bd 85f2 63bc 98b1 043a 1406 08bd
000001a0: a00f 843c d2ff 85bd d038 72bb 165e c03d
000001b0: 1d84 ff3c 759d 303d 7bf5 0fbd b8ce 163d
000001c0: 21d8 2f3d 43c1 633d ff62 363d f516 973c
000001d0: ad45 adbb 27f6 c43d 6f6c 19bd 79c0 f7bb
000001e0: b243 e8bc 6b88 e33c c8e7 803c cbf2 81bd
000001f0: bee1 a23c e813 16bd 4705 9abd e57d 4fbd
00000200: 6a36 073c 26f2 423b 06de ca3d 1090 8d3a
00000210: 3552 a8bd 3f46 bebc 2a41 90bc 7acc 4fbd
00000220: 04e3 94bd 601f f2bb 87ad a03d 5955 e7bc
00000230: e071 95bc 1333 d63c ca2a 2c3c a3bd 163b
00000240: bf99 eebc dcf8 1e3d 4c2b 483a a4cd d1bb
00000250: b4e2 f0bc 26dc ecbc 403c 7cbd 39b5 91bc
00000260: 3bbf 44bd f693 193b 2918 3d3b b606 7ebd
00000270: 5dff 6f3c 83ea 61bc 9fe7 813d c289 fb3c
00000280: 1370 b93d e336 91bc a88c 293a 60ec 09bc
00000290: 24f4 46bc 77d5 fa3c 1bba d8bb 1f84 c03c
000002a0: 4a52 ebbc 2338 c1bb c2c9 8cbb 695e 153d
000002b0: 4dee 93bd 3a3c fabc 6e12 98bb 03c1 043d
000002c0: 4d3c 62bd b411 fa3c 63dc 3a3d 741b 513c
000002d0: 6b8f 05bc bafb 5e3d 84ec 7cbb 25b5 e83a
000002e0: b121 26bd 91f7 46bc fd1d b6bc 60a7 1f3d
000002f0: 32b4 5f3d e74b 81bc db50 e4bb f7d9 8fbb
00000300: 1de6 f2bc beae 19bb f1c8 33bd d6da dcbd
00000310: 73e6 5b3d 8081 a83c be4e 83bd 9407 a53d
00000320: 8e3f 4abc 3fe2 31bd 0995 49bd 07ee 753c
00000330: 31b6 1abc ebc3 4bbd 05b6 033d 0112 f53b
00000340: dd82 013d cd9e df3b 6a6c 86bd 6718 db3b
00000350: 5a48 033d 3d16 d43c 8011 fbbc cdd1 d53c
00000360: 67da a63d a23c 9e3d 16f5 dcbc 2faf 34bd
00000370: 36fc 8c3c bd54 0cbd 894f 8eb9 0451 593d
00000380: 19b7 3c3d 4999 e1bc 8e0f 2a3d 067b 27bc
00000390: d7a1 12bd 2dc6 4fba fbc3 5d3c 7cf7 823d
000003a0: 10b2 053a 12fa af3c b1b9 4ebc 0516 163d
000003b0: c637 15bd ba78 0bbd 866a abbb c65f 203c
000003c0: 4f62 efbc 392e e4bc e51e 60bc cab2 a7bb
000003d0: b818 313d 93ed 1d3d c2ea 92bd 8b2a ddbc
000003e0: 9907 f23c 3900 1ebd c03f 3c3d 4b5f 3dbd
000003f0: 1df0 173d bd07 973c 13a4 fd3b 8c53 5d3d

layers1d.0.bias f4 [128]
-0.041121777 0.004270295 -0.02455939 -0.014501028 -0.012200674 0.0053057624 -0.020290708 0.004766909
-0.031807814 -0.0032254397 -0.031785313 -0.043440036 -0.00047099433 -0.05097896 0.0029997132 -0.0081985155
-0.022471199 -0.011951059 -0.030971939 -0.021622058 0.010083702 0.007419841 -0.032040887 -0.008929211
-0.019950774 -0.010014009 -0.020432575 -0.00918697 -0.017108006 -0.017526908 -0.00011831248 0.0030283171
-0.044125956 -0.009056614 -0.0049682497 -0.03897104 0.009144665 -0.0390291 0.020913314 -0.037727986
0.0033883217 0.0023275928 0.0040219747 -0.02690075 0.0040499894 -0.05017094 -0.020651907 -0.028110575
-0.046704978 -0.03409747 -0.015238113 -0.0013609808 -0.026859025 -0.03442861 -0.02639866 -0.015188946
-0.0036503405 -0.0031844077 -0.050817087 -0.0471367 0.011230135 -0.024232352 -0.028909074 0.0072914064
-0.010409278 -0.025999263 -0.016325194 -0.018546058 -0.00571649 0.016746283 -0.0083751865 -0.03474895
-0.035459835 -0.026072226 -0.029444339 -0.020151827 -0.032215316 -0.016183719 -0.015304875 0.0042192265
0.007933235 0.0062166047 -0.0145414565 -0.014801717 -0.0043349443 -0.018772444 0.0008900873 -0.0058766603
-0.0061382297 -0.038985565 -0.012469828 0.0031333503 -0.0449532 0.0069126585 -0.03973607 -0.020634389
-0.042209078 -0.04320334 0.0076386747 -0.038820937 -0.03003462 -0.02832524 -0.029266365 -0.0337131
-0.026740275 -0.00090735586 -0.039979003 0.009017077 -0.022067046 -0.015725166 -0.03005693 0.0068807467
-0.012041286 -0.0036769395 -0.016143458 -0.019521186 -0.026941117 -0.0348541 -0.046785083 -0.036396198
-0.0053775837 0.0009863264 -0.0039786138 -0.02217366 -0.027039537 -0.020705834 -0.025417544 -0.045975387
00000000: 4f6f 28bd d5ed 8b3b c630 c9bc b895 6dbc
00000010: 56e5 47bc f6db ad3b b338 a6bc bb33 9c3b
00000020: e948 02bd e661 53bb 5131 02bd 2eee 31bd
00000030: caef f6b9 50cf 50bd d696 443b 1153 06bc
00000040: 8515 b8bc 60ce 43bc ddb8 fdbc be20 b1bc
00000050: 1d36 253c 2322 f33b 4e3d 03bd d34b 12bc
00000060: ce6f a3bc cc11 24bc 3762 a7bc f284 16bc
00000070: 1726 8cbc 9794 8fbc 871e f8b8 bb76 463b
00000080: 6bbd 34bd 3162 14bc b3cc a2bb 19a0 1fbd
00000090: 81d3 153c fadc 1fbd 6652 ab3c a988 1abd
000000a0: 9b0e 5e3b 878a 183b c5ca 833b f65e dcbc
000000b0: c6b5 843b 0b80 4dbd 302e a9bc 2648 e6bc
000000c0: b84d 3fbd caa9 0bbd 47a9 79bc f062 b2ba
000000d0: 7507 dcbc 0405 0dbd 0142 d8bc 0fdb 78bc
000000e0: 8d3a 6fbb 7fb1 50bb 9425 50bd 6a12 41bd
000000f0: 9afe 373c ed82 c6bc b9d2 ecbc c0ec ee3b
00000100: ad8b 2abc 68fc d4bc 6abc 85bc e7ed 97bc
00000110: 6551 bbbb 802f 893c 1438 09bc ea54 0ebd
00000120: 553e 11bd 6c95 d5bc 4135 f1bc 7215 a5bc
00000130: 35f4 03bd b893 84bc 4cc1 7abc 7041 8a3b
00000140: 66fa 013c a9b4 cb3b 4a3f 6ebc e782 72bc
00000150: 260c 8ebb abc8 99bc bf54 693a 0091 c0bb
00000160: 3423 c9bb 54af 1fbd 404e 4cbc e558 4d3b
00000170: d920 38bd 9583 e23b 4ac2 22bd 7309 a9bc
00000180: 6de3 2cbd fcf5 30bd d94d fa3b b402 1fbd
00000190: 2a0b f6bc 550a e8bc 04c0 efbc bf16 0abd
000001a0: 6c0e dbbc 9fdb 6dba 06c1 23bd 5dbc 133c
000001b0: f3c5 b4bc 10d2 80bc f339 f6bc e377 e13b
000001c0: d048 45bc cff8 70bb 493f 84bc e5ea 9fbc
000001d0: 9eb3 dcbc 2cc3 0ebd b7a1 3fbd 2e14 15bd
000001e0: 7136 b0bb 9f47 813a 085f 82bb 89a5 b5bc
000001f0: 0582 ddbc 489f a9bc 7438 d0bc b050 3cbd

layers1d.3.weight f4 [128, 128]
-0.08194914 -0.06401578 -0.035242703 -0.043231733 -0.010248019 0.09968895 -0.12733206 0.018241426
-0.003695956 -0.07132044 0.046179965 -0.089559995 0.059487265 0.03966618 -0.07508248 -0.050900582
-0.08750541 -0.0028320556 -0.022459831 0.0029568512 0.068255424 -0.005088026 0.048956312 -0.020095749
-0.0122150015 -0.019162271 0.043640252 0.124754086 -0.09058631 0.046124246 0.023011193 0.016608877
-0.051621627 -0.124481104 0.07561526 0.068066984 0.010700821 -0.01267791 -0.063347295 -0.04442302
-0.030028557 -0.07006969 -0.056424525 -0.040668294 0.07827779 0.11656189 -0.10354448 0.057853613
-0.0050684507 -0.0436531 -0.010552237 0.0072214156 0.054766323 0.0316767 -0.06143818 -0.041931883
0.025546636 -0.03613704 0.08085447 -0.027726408 -0.06535948 -0.021674458 -0.03753465 0.080358654
-0.018570969 0.05339401 0.087019615 0.03855443 0.04021835 -0.050015822 0.033264272 0.046602026
0.012858983 -0.023466218 -0.00131851 -0.022254074 -0.04872319 0.0025248714 -0.044299345 -0.060115434
0.06457793 0.014200611 0.09174267 -0.033327878 0.018630214 -0.019845428 -0.031980358 0.0860665
-0.084569894 -0.08058578 0.09426062 -0.071779475 0.011174307 -0.061413046 0.0042220755 -0.047850385
-0.06823256 0.019948704 0.029778462 0.056300048 -0.04599749 0.11546399 -0.05468571 -0.049879752
0.03060709 0.02011493 -0.004678903 0.07256967 -0.07558719 0.064838946 -0.028407961 -0.023992745
-0.119935066 -0.03550869 -0.0097293565 -0.054745313 -0.0021490967 -0.027042171 0.12583895 -0.017025802
0.07691563 -0.05223114 -0.011329793 -0.05904012 0.039558746 -0.020154897 0.021027144 0.044274405
0.02617195 0.08143886 -0.037110522 -0.019358048 0.023003383 -0.033165876 0.049377274 -0.018843919
0.07016495 -0.057220552 0.049923588 -0.02507992 -0.07980842 -0.044262726 -0.062396374 -0.029122097
-0.052954737 -0.094326094 -0.0027456838 -0.030019455 -0.026700197 0.13783388 0.12843749 0.13021056
-0.012862828 -0.06664933 0.06710315 0.012687784 -0.055708654 0.04077228 0.090967186 -0.00446456
0.030211065 -0.00037148202 -0.074022435 0.008311875 -0.093190186 -0.047176432 -0.045148782 -0.059676077
0.03429349 -0.016010687 -0.03500798 0.021870974 0.06680087 0.07306843 0.053903595 -0.012808721
0.054233603 -0.064110845 -0.023429777 0.086681224 -0.019695923 -0.055370398 -0.041429203 0.0116025
0.006329101 -0.054994557 0.019039229 0.034229357 0.009377962 0.03188405 -0.027008174 -0.024953537
0.038681343 -0.03572934 0.07082256 0.06209435 0.034158148 -0.03942871 -0.015145099 -0.01839129
0.060164534 -0.13758442 -0.054546073 0.10697207 -0.034297146 0.075364664 -0.055497106 0.11251796
-0.024054334 0.013151443 0.020168921 -0.0023329381 -0.06815713 -0.13556412 0.067318924 -0.0312129
-0.10778859 0.044126224 0.07855195 -0.062306188 0.10086857 -0.012353406 -0.103716336 -0.089465044
-0.043106005 -0.0693627 0.05498955 -0.027784362 -0.107970685 0.07593175 -0.060920015 -0.13954298
0.10193929 -0.033297945 0.08879487 -0.050765965 0.01279971 0.11264172 -0.024682252 -0.08396282
-0.10409508 -0.00475449 0.022427062 0.021102589 -0.08967346 -0.014921535 0.01372211 0.07661939
0.06793171 -0.006837787 0.054463264 -0.105864905 0.12837327 -0.030791473 -0.01297119 -0.074180946
00000000: f3d4 a7bd b51a 83bd a75a 10bd c213 31bd
00000010: 4fe7 27bc b829 cc3d 5663 02be 0b6f 953c
00000020: da37 72bb 7310 92bd 3427 3d3d 3b6b b7bd
00000030: eba8 733d 0179 223d d8c4 99bd 217d 50bd
00000040: 0936 b3bd 029a 39bb aefd b7bc bbc7 413b
00000050: 80c9 8b3d 75b9 a6bb 6a86 483d d79f a4bc
00000060: 6e21 48bc 32fa 9cbc 1fc0 323d 127f ff3d
00000070: 5185 b9bd c7ec 3c3d f881 bc3c 570f 883c
00000080: 3371 53bd f3ef febd 2cdc 9a3d b466 8b3d
00000090: 7f52 2f3c 02b7 4fbc 3abc 81bd eaf4 35bd
000000a0: 73fe f5bc b380 8fbd 671d 67bd cc93 26bd
000000b0: 1b50 a03d 00b8 ee3d 210f d4bd e9f7 6c3d
000000c0: 3f15 a6bb 98cd 32bd 4ae3 2cbc a0a1 ec3b
000000d0: a752 603d 6dbf 013d 9aa6 7bbd c4c0 2bbd
000000e0: 2e47 d13c 6f04 14bd 0797 a53d 7e22 e3bc
000000f0: 31db 85bd a28e b1bc efbd 19bd 1493 a43d
00000100: 2522 98bc adb3 5a3d 5737 b23d 40eb 1d3d
00000110: ffbb 243d 64dd 4cbd 1e40 083d c4e1 3e3d
00000120: 7cae 523c 3a3c c0bc dbd1 acba 2d4e b6bc
00000130: f891 47bd 5078 253b 3b73 35bd 9a3b 76bd
00000140: 6f41 843d aea9 683c 95e3 bb3d d082 08bd
00000150: 649e 983c e192 a2bc d6fd 02bd a243 b03d
00000160: fb32 adbd 280a a5bd b60b c13d 1e01 93bd
00000170: 7114 373c 3f8c 7bbd 5659 8a3b c4fe 43bd
00000180: 83bd 8bbd 776b a33c f6f1 f33c e19a 663d
00000190: dd67 3cbd 6278 ec3d 20fe 5fbd b64e 4cbd
000001a0: b8bb fa3c 11c8 a43c 7c51 99bb 689f 943d
000001b0: 75cd 9abd 48ca 843d d0b7 e8bc 6f8c c4bc
000001c0: 84a0 f5bd 8f71 11bd e167 1fbc 9f3c 60bd
000001d0: dcd7 0cbb 8b87 ddbc eddb 003e b279 8bbc
000001e0: f185 9d3d 52f0 55bd 99a0 39bc 0ed4 71bd
000001f0: 5a08 223d e21b a5bc 1e41 ac3c 1459 353d
00000200: 8f66 d63c 6bc9 a63d 3401 18bd c594 9ebc
00000210: 9771 bc3c f1d8 07bd d33f 4a3d 905e 9abc
00000220: a4b2 8f3d 1960 6abd ad7c 4c3d 6874 cdbc
00000230: 9972 a3bd d54c 35bd 5793 7fbd 7791 eebc
00000240: 11e7 58bd 0a2e c1bd eef0 33bb 5ceb f5bc
00000250: 5fba dabc 5324 0d3e 1e85 033e eb55 053e
00000260: 9cbe 52bc 727f 88bd 606d 893d 6ce0 4f3c
00000270: c22e 64bd d600 273d 014d ba3d 724b 92bb
00000280: 327d f73c 79c3 c2b9 1399 97bd 882e 083c
00000290: 7fda bebd 133c 41bd eeed 38bd e76e 74bd
000002a0: 5577 0c3d d828 83bc 8764 0fbd c22a b33c
000002b0: e5ce 883d e7a4 953d 04ca 5c3d abdb 51bc
000002c0: 0e24 5e3d 8c4c 83bd ceef bfbc ed85 b13d
000002d0: 5859 a1bc 12cc 62bd abb1 29bd 6a18 3e3c
000002e0: 5964 cf3b f941 61bd 28f8 9b3c 1534 0c3d
000002f0: 06a6 193c da98 023d 3f40 ddbc 5c6b ccbc
00000300: 5470 1e3d ee58 12bd 6b0b 913d a556 7e3d
00000310: 6ae9 0b3d 0080 21bd 2623 78bc 55a9 96bc
00000320: 166f 763d eee2 0cbe b46b 5fbd 2c14 db3d
00000330: 2a7b 0cbd ca58 9a3d ef50 63bd d16f e63d
00000340: 980d c5bc 2679 573c 4b39 a53c 35e4 18bb
00000350: f795 8bbd 52d1 0abe 81de 893d 32b2 ffbc
00000360: 44c0 dcbd b3bd 343d d8df a03d c634 7fbd
00000370: 2e94 ce3d f165 4abc 3b69 d4bd 7339 b7bd
00000380: ec8f 30bd 080e 8ebd b93c 613d 089c e3bc
00000390: bc1f ddbd 1b82 9b3d 4487 79bd 5be4 0ebe
000003a0: 8cc5 d03d 6d63 08bd 16da b53d f9ef 4fbd
000003b0: e0b5 513c b4b0 e63d 6f32 cabc b3f4 abbd
000003c0: cd2f d5bd 8ecb 9bbb f5b8 b73c 56df ac3c
000003d0: b8a6 b7bd 7479 74bc b3d2 603c a0ea 9c3d
000003e0: c81f 8b3d 840f e0bb df14 5f3d b3cf d8bd
000003f0: 4874 033e 663e fcbc 1d85 54bc 2eec 97bd

layers1d.3.bias f4 [128]
0.035531294 -0.052433804 -0.010443642 0.01562214 -0.0031216561 -0.016766291 -0.05287269 -0.025328225
0.009415222 -0.0044192835 0.007045008 0.014317068 -0.0024553954 -0.00021639571 -0.0022719032 -0.017755508
-0.0060065975 -0.011431328 0.006081498 -0.016460378 -0.03022962 0.0444957 0.009020317 -0.02339376
0.014649347 -0.04706763 -0.026334338 -0.009056075 0.018752439 -0.011174945 -0.03258812 0.0091159195
-0.0040997555 0.0070154946 0.08504704 -0.059847724 -0.03752536 -0.04369552 -0.0049565476 0.015097079
0.050954714 -0.047133446 -0.082277864 0.020664789 0.0011986411 0.06018931 -0.019421019 0.008213989
-0.0013435916 -0.016893178 0.03117301 -0.01647524 0.025914596 0.0290626 -0.012883619 -0.03588018
-0.02959798 0.009698172 0.030339548 -0.083949424 0.012385021 0.008353442 -0.050732583 0.017290303
-0.0637823 -0.035907116 -0.01120661 -0.08935212 0.028636066 -0.043843556 -0.032486442 0.014385999
0.022135219 0.027810453 0.07314915 -0.017362125 0.012792118 0.0020063433 0.04153275 -0.0041608936
-0.05615265 -0.028016232 0.0096639525 -0.04530268 0.0127427075 -0.04466244 0.052212738 -0.051790506
-0.03559953 0.02859425 0.01659793 0.022905234 -0.037372656 0.045648456 -0.018210184 -0.031586803
0.0070830807 0.022473605 -0.045224246 0.020630196 -0.064717084 0.010760649 -0.0058197184 -0.020549722
-0.02618815 0.021160474 0.024209587 -0.05918087 0.008131461 0.03349306 -0.020952005 -0.02867615
-0.025365973 0.06649511 -0.024471652 -0.03078649 0.00828871 0.0099757565 0.00563159 0.020482382
0.0145144975 -0.015345229 -0.05231307 -0.028184932 -0.0036867755 0.015518268 0.004900628 0.045568064
00000000: 4389 113d d4c4 56bd cf1b 2bbc 01f4 7f3c
00000010: b394 4cbb 7659 89bc 0991 58bd 237d cfbc
00000020: 4e42 1a3c a3cf 90bb cfd9 e63b 2392 6a3c
00000030: b3ea 20bb 48e8 62b9 36e4 14bb 0074 91bc
00000040: fed2 c4bb 774a 3bbc 4e47 c73b ead7 86bc
00000050: 1ca4 f7bc 2041 363d f4c9 133c 45a4 bfbc
00000060: d103 703c fdc9 40bd 1cbb d7bc ee5f 14bc
00000070: b79e 993c 1e17 37bc 1f7b 05bd f05a 153c
00000080: 3e57 86bb 3ce2 e53b 242d ae3d e322 75bd
00000090: 31b4 19bd 13fa 32bd 896a a2bb bd59 773c
000000a0: e4b5 503d 000f 41bd 4c81 a8bd 3449 a93c
000000b0: b91b 9d3a 1189 763d d418 9fbc f893 063c
000000c0: 741b b0ba 9063 8abc 8a5e ff3c 15f7 86bc
000000d0: d94a d43c b114 ee3c d115 53bc 18f7 12bd
000000e0: 7777 f2bc 15e5 1e3c a58a f83c aded abbd
000000f0: 8bea 4a3c e0dc 083c f8cc 4fbd 65a4 8d3c
00000100: 4ba0 82bd 5713 13bd ee9b 37bc 3ffe b6bd
00000110: 2f96 ea3c 4d95 33bd 8110 05bd 41b3 6b3c
00000120: eb54 b53c bfd2 e33c 39cf 953d 043b 8ebc
00000130: 0896 513c db7c 033b 3f1e 2a3d 1b58 88bb
00000140: 5200 66bd 4c82 e5bc 8e55 1e3c 4e8f 39bd
00000150: cac6 503c f6ef 36bd 06dd 553d 4822 54bd
00000160: d0d0 11bd 7d3e ea3c 62f8 873c c2a3 bb3c
00000170: 1214 19bd e0f9 3a3d 862d 95bc 2a61 01bd
00000180: 3019 e83b 911a b83c 0f3d 39bd a800 a93c
00000190: 648a 84bd 6f4d 303c 56b3 bebb e457 a8bc
000001a0: 8888 d6bc bb58 ad3c 2f53 c63c a467 72bd
000001b0: d239 053c 0530 093d 8aa3 abbc 3fea eabc
000001c0: 4dcc cfbc 972e 883d c678 c8bc f333 fcbc
000001d0: 5fcd 073c 5b71 233c 3389 b83b abca a73c
000001e0: 37ce 6d3c 8e6a 7bbc 3b46 56bd 16e4 e6bc
000001f0: d49d 71bb 5540 7e3c 7295 a03b 94a5 3a3d

combined.0.weight f4 [64, 128]
0.0107143 0.06278478 0.030139817 -0.024094136 0.008042708 -0.008610389 0.036511615 0.008260508
-0.053431362 0.06512792 0.1372334 -0.0008716087 -0.00020727274 0.032986253 0.11439269 0.030838253
0.004112274 -0.016380528 0.04277066 0.08620118 0.002480327 -0.07263253 0.07066908 -0.0828589
-0.030029448 0.040643297 0.030730715 0.042347647 -0.13284218 -0.038331084 -0.026554734 0.016009737
0.008707757 0.025376316 -0.032055534 -0.03152194 -0.03419389 -0.063398995 -0.11852013 -0.08766329
-0.137559 -0.0406569 -0.08142007 0.059420444 -0.12050645 -0.020714618 0.0051924177 0.09703748
-0.045510333 0.03795856 0.052550104 0.038803175 -0.03817586 0.07114056 -0.10197921 0.07110367
0.1043789 -0.02288888 0.012368655 -0.034211107 -0.01859722 0.11056679 -0.04631667 -0.00030816087
-0.07019514 -0.037358467 -0.092375465 0.072505064 0.049872506 -0.050127156 0.041950937 -0.06959998
-0.10138765 -0.07655726 -0.06209885 0.12606391 -0.053632006 0.108248085 0.055481214 -0.053736597
-0.08487048 0.04037481 0.008709878 0.10913593 -0.07872558 0.021114707 -0.034422066 -0.029973587
0.109908804 -0.01975286 -0.016798042 0.088319145 -0.031498097 -0.09304257 0.008967529 -0.034557115
-0.044244606 0.06865397 0.012811639 0.045010142 -0.04709757 -0.025333434 -0.052248523 0.060854185
-0.034608535 0.07532998 -0.041429926 -0.032679595 0.061459854 -0.16007905 0.029654501 0.050048817
0.035103746 -0.044308636 -0.044953212 0.102503404 0.0084091965 0.015882213 -0.005617882 0.0055979784
0.006842091 -0.08544787 0.07293243 -0.010066934 0.1047782 0.032922428 0.07706512 -0.015497872
0.03498242 -0.023465483 0.05527557 -0.0023947202 -0.05146242 -0.039920103 0.023593437 -0.032843377
0.066465765 -0.06836475 -0.0009409004 -0.09007409 -0.08819617 0.076146804 -0.029299354 -0.09384422
0.024987059 -0.11463455 -0.050668478 -0.035104983 -0.020199975 0.019398773 0.031376816 -0.0054296
0.023913128 -0.09591924 -0.020709153 0.005578995 -0.043971915 0.009227242 -0.055741943 -0.0121049555
-0.048875224 -0.07551669 0.0011808352 -0.009852522 -0.039409325 -0.028690953 0.114939265 0.046179194
0.115478106 -0.045793787 -0.011003379 -0.030051427 0.06880127 0.08017321 0.0041629244 -0.10722087
0.108146116 -0.071026325 -0.038338687 -0.024778446 0.11716391 0.05897785 0.10604645 -0.0361336
-0.06201215 -0.066648565 -0.011202944 -0.037390996 0.010003306 -0.11173395 0.08375733 -0.08618592
0.029252436 -0.1448443 -0.04670338 0.022366967 -0.021164807 0.0059541883 -0.057274573 0.07191933
0.049229342 -0.07895095 -0.07326742 0.06298302 -0.086578675 -0.11944308 0.040193968 0.022532068
-0.025025925 -0.08381479 -0.023417177 -0.04840133 -0.051090878 0.015614004 -0.0021690212 -0.0947951
-0.09687008 0.021043442 -0.0047948863 -0.01154935 -0.07973639 -0.0022263632 -0.04177919 0.062439863
-0.008523875 -0.029697087 0.03394594 -0.1030089 0.07597377 0.06767681 -0.039690763 -0.10309632
0.0147060435 -0.099188656 -0.005626588 0.048085853 -0.026306434 0.09494148 -0.021689547 0.022499552
0.054969702 -0.025935775 0.01596674 -0.036563955 0.010742988 -0.039843507 -0.074602835 -0.064780146
0.022753369 0.14214274 0.06275576 0.03463383 -0.06332504 0.01650501 -0.009356152 -0.014396552
00000000: 088b 2f3c 4f95 803d c7e7 f63c 1161 c5bc
00000010: 90c5 033c 9712 0dbc 348d 153d 1557 073c
00000020: d8da 5abd c961 853d ea86 0c3e ab7c 64ba
00000030: 5a57 59b9 981c 073d b746 ea3d 81a0 fc3c
00000040: 41c0 863b 7530 86bc 4a30 2f3d 3f8a b03d
00000050: fb8c 223b 5dc0 94bd f3ba 903d edb1 a9bd
00000060: 5100 f6bc 9679 263d fbbe fb3c ba74 2d3d
00000070: c807 08be 0e01 1dbd 5089 d9bc da26 833c
00000080: fbaa 0e3c fee1 cf3c aa4c 03bd 261d 01bd
00000090: e40e 0cbd 55d7 81bd afba f2bd d088 b3bd
000000a0: 44dc 0cbe d987 26bd 91bf a6bd da62 733d
000000b0: 16cc f6bd b4b1 a9bc 2825 aa3b 96bb c63d
000000c0: 0b69 3abd 6f7a 1b3d c73e 573d 14f0 1e3d
000000d0: 4a5e 1cbd 24b2 913d 7ada d0bd cd9e 913d
000000e0: 9bc4 d53d 7681 bbbc e6a5 4a3c f220 0cbd
000000f0: 3259 98bc d770 e23d 8cb6 3dbd a790 a1b9
00000100: 78c2 8fbd 3105 19bd 592f bdbd 897d 943d
00000110: 1d47 4c3d 2252 4dbd bfd4 2b3d 6f8a 8ebd
00000120: 54a4 cfbd 0dca 9cbd 5d5b 7ebd e616 013e
00000130: 3cad 5bbd 2cb1 dd3d 4540 633d e81a 5cbd
00000140: 93d0 adbd 0f60 253d e0b3 0e3c a982 df3d
00000150: e03a a1bd c0f8 ac3c 27fe 0cbd 2b8b f5bc
00000160: de17 e13d c0d0 a1bc 0c9c 89bc abe0 b43d
00000170: 2604 01bd 1a8d bebd 8bec 123c c38b 0dbd
00000180: d539 35bd 749a 8c3d e9e7 513c 8e5c 383d
00000190: 62e9 40bd 1088 cfbc 8c02 56bd 3d42 793d
000001a0: aec1 0dbd 9b46 9a3d 6db2 29bd 0adb 05bd
000001b0: 54bd 7b3d c3eb 23be ffed f23c fdff 4c3d
000001c0: f2c8 0f3d f97c 35bd dc20 38bd 4eed d13d
000001d0: bac6 093c 6a1b 823c 3616 b8bb 3f6f b73b
000001e0: 9f33 e03b 4bff aebd 995d 953d c8ef 24bc
000001f0: f495 d63d abd9 063d 51d4 9d3d c9ea 7dbc
00000200: ba49 0f3d af3a c0bc a368 623d bdf0 1cbb
00000210: 42ca 52bd 4383 23bd 0647 c13c c786 06bd
00000220: 341f 883d d102 8cbd c2a6 76ba c478 b8bd
00000230: 32a0 b4bd dbf2 9b3d 3305 f0bc 6631 c0bd
00000240: a9b1 cc3c 85c5 eabd c089 4fbd 3eca 0fbd
00000250: 6b7a a5bc 2dea 9e3c fa84 003d c9ea b1bb
00000260: 77e5 c33c 4e71 c4bd 3ea6 a9bc 01d0 b63b
00000270: e51b 34bd dc2d 173c aa51 64bd dd53 46bc
00000280: 6331 48bd 7fa8 9abd 41c6 9a3a 796c 21bc
00000290: ac6b 21bd 4a09 ebbc 4765 eb3d 6526 3d3d
000002a0: c97f ec3d 4492 3bbd 8447 34bc 692e f6bc
000002b0: aee7 8c3d da31 a43d 2469 883b 9e96 dbbd
000002c0: b67b dd3d 4076 91bd 0709 1dbd 2bfc cabc
000002d0: a2f3 ef3d c292 713d e22e d93d d300 14bd
000002e0: 7400 7ebd 0b7f 88bd 8e8c 37bc 4d27 19bd
000002f0: e8e4 233c c5d4 e4bd f788 ab3d 3e82 b0bd
00000300: cea2 ef3c 1052 14be 0b4c 3fbd ee3a b73c
00000310: d161 adbc 5a1b c33b be98 6abd 714a 933d
00000320: b5a4 493d 09b1 a1bd 3b0d 96bd 3efd 803d
00000330: 2950 b1bd 939e f4bd 6ea2 243d 2c95 b83c
00000340: 2b03 cdbc 17a7 abbd 61d5 bfbc 7940 46bd
00000350: ab44 51bd e1d1 7f3c 2326 0ebb ef23 c2bd
00000360: d263 c6bd 4c63 ac3c 6c1e 9dbb 7c39 3dbc
00000370: d54c a3bd 2de8 11bb a820 2bbd f1c0 7f3d
00000380: b9a7 0bbc 4e47 f3bc e60a 0b3d 55f6 d2bd
00000390: 2398 9b3d 249a 8a3d c892 22bd 2a24 d3bd
000003a0: 9ef1 703c 6c23 cbbd 3e5f b8bb acf5 443d
000003b0: 9780 d7bc ae70 c23d 47ae b1bc fb50 b83c
000003c0: e927 613d 4377 d4bc aecc 823c 16c4 15bd
000003d0: 5c03 303c f232 23bd 5fc9 98bd 74ab 84bd
000003e0: 4665 ba3c de8d 113e 1886 803d 34dc 0d3d
000003f0: 8fb0 81bd 8435 873c 8c4a 19bc 84df 6bbc

combined.0.bias f4 [64]
-0.01855919 0.008902881 0.035923667 -0.0067911474 -0.00323531 0.0057972264 0.0070963423 0.0038566205
-0.014878577 -0.006920802 0.002147248 0.037873745 -0.036654033 0.0005917243 -0.034999054 -0.005575326
0.023996731 -0.015500269 0.03766527 -0.010387542 0.0034098376 0.030512467 0.0077107376 0.054922186
0.012189735 0.0152542675 -0.01834794 0.006222258 0.02290366 0.034453698 0.0037901683 -0.018860664
-0.022680838 0.030072343 -0.0013656799 -0.031025028 0.032126058 0.01085331 -0.04100895 -0.024985475
0.05054744 0.06645886 0.06296259 -0.016222961 -0.028828437 0.016867494 0.030441714 -0.052997228
0.014794545 0.016365413 0.0018243258 0.006793216 -0.0023248827 -0.022464976 -0.03410961 0.04314259
-0.06956976 0.009847586 -0.01784929 0.034173567 0.0011127895 -0.018570518 0.009969533 0.0588816
00000000: 7109 98bc 64dd 113c b224 133d 4688 debb
00000010: 7f07 54bb a9f6 bd3b 6f88 e83b 5bbf 7c3b
00000020: 46c5 73bc e5c7 e2bb d8b8 0c3b 8021 1b3d
00000030: 8a22 16bd f21d 1b3a 2b5b 0fbd 39b1 b6bb
00000040: cb94 c43c d7f4 7dbc e646 1a3d 8230 2abc
00000050: 9577 5f3b 48f5 f93c 5baa fc3b 16f6 603d
00000060: 74b7 473c 09ed 793c 6b4e 96bc 15e4 cb3b
00000070: 75a0 bb3c 521f 0d3d 7964 783b ae81 9abc
00000080: 2acd b9bc 465a f63c 9d00 b3ba 3328 febc
00000090: 9d96 033d 15d2 313c 00f9 27bd 57ae ccbc
000000a0: d50a 4f3d 951b 883d 88f2 803d 04e6 84bc
000000b0: 9d29 ecbc b32d 8a3c e760 f93c 9f13 59bd
000000c0: d264 723c c210 863c 371e ef3a a099 de3b
000000d0: 0f5d 18bb 7808 b8bc 85b6 0bbd 49b6 303d
000000e0: 977a 8ebd c557 213c ad38 92bc 95f9 0b3d
000000f0: 05db 913a 3321 98bc 4157 233c d52d 713d

combined.3.weight f4 [64, 64]
-0.062083986 0.05713863 -0.073197275 -0.053606573 -0.048761755 -0.18306187 0.06816327 -0.042228498
-0.018739525 -0.16453277 -0.092704006 0.03629692 -0.10075211 0.04699849 -0.051297747 -0.15209755
0.019903306 0.13291901 -0.078897215 -0.10745046 0.003665664 -0.06441769 -0.03743006 -0.14228968
0.06677767 -0.10502978 -0.11001978 0.087966 0.024947142 -0.02433075 0.15095538 0.12872535
0.14748995 0.07090946 -0.05357639 0.014194828 0.03889606 0.14927785 0.0035054763 0.11770774
0.10884276 0.028966233 0.11689328 -0.050442938 0.14484371 -0.12133167 -0.18020053 -0.0026131002
0.043354556 -0.07668465 -0.13148044 -0.019980129 0.081768036 0.11148025 0.0401507 0.07004999
-0.03866403 -0.055867158 -0.061098605 0.021012522 0.099497244 -0.13962743 -0.038094386 -0.03141589
-0.029779643 -0.069325775 0.055382922 -0.05924509 0.12134467 -0.032570332 0.043876797 0.08858665
-0.010337725 0.13407952 -0.04102618 -0.08647361 -0.024689209 0.06996894 0.0148888 -0.11102436
0.016416002 -0.048120663 0.07334799 0.09478068 -0.15855774 -0.06511209 0.048809376 0.033371348
-0.10150264 0.031688817 0.03801346 -0.1484415 -0.0560957 -0.059087545 -0.11302548 -0.11870524
-0.1151108 -0.11186062 0.112853155 -0.033942595 -0.19465895 0.046278436 0.012184787 -0.036791485
-0.09063282 -0.029509377 -0.13544053 -0.058493685 0.06728856 0.11753688 -0.055002607 0.14644751
-0.06222879 -0.12329077 0.086964056 0.08347098 0.031630054 -0.035091802 0.0695247 -0.108654544
0.040159203 0.11257095 0.022892058 -0.048538532 -0.0437464 -0.013700584 -0.05340474 0.056474075
-0.1129647 0.10648335 -0.029809823 0.015062665 -0.072594315 -0.024920452 0.0047234623 -0.069688946
0.04017901 -0.095354885 -0.09502143 0.043471016 0.13870777 -0.0014542962 -0.019006794 -0.07879635
-0.087981865 0.14686549 -0.012166469 -0.0807832 -0.07091441 -0.008615206 0.11399729 -0.12353411
-0.026687626 -0.10856815 0.05394716 0.051581264 -0.08659332 -0.019514332 0.016026948 0.09915248
0.13026316 0.16827531 0.050511893 -0.048515473 -0.043859728 -0.09306246 0.0033708587 0.09203215
-0.039619084 -0.09477605 -0.079577 0.043979067 -0.10317816 -0.12505405 -0.024396922 -0.00979323
0.07825537 0.008145412 -0.09252792 -0.033278286 0.0481424 -0.07812522 0.085941084 -0.07934324
-0.052718665 -0.15713075 -0.04473216 -0.093070716 -0.06786004 -0.015453916 -0.114622295 -0.07964873
-0.08126072 0.16723184 -0.0851506 0.039687797 0.14052269 -0.01615352 -0.033457354 -0.08351055
-0.10140069 -0.064082064 -0.045856316 0.12276955 0.08143104 -0.010054073 -0.13801768 0.01705978
-0.08000924 0.06255725 0.018734735 -0.07246309 0.072497874 -0.042143654 0.08534972 -0.073632605
0.05246525 -0.106592484 0.05252464 0.10576207 0.063001566 -0.1127556 -0.010385034 -0.01381499
0.072910264 -0.11446561 -0.0037466781 0.03459609 0.1340339 -0.035421185 -0.036112502 -0.01821278
0.054083228 -0.0053751976 -0.07900158 -0.12212922 -0.004109585 -0.031951495 0.0035999685 -0.055612184
0.04589478 0.107548036 -0.12821406 -0.10892452 -0.029406622 0.08617718 -0.07284575 -0.0147637995
-0.08947033 -0.07513253 -0.08492492 0.06974475 0.061438408 0.00782489 -0.011831853 0.057838365
00000000: c74b 7ebd 320a 6a3d 74e8 95bd 9192 5bbd
00000010: 68ba 47bd 9274 3bbe 2f99 8b3d caf7 2cbd
00000020: a283 99bc 477b 28be 99db bdbd 14ac 143d
00000030: 1f57 cebd 7d81 403d 961d 52bd 76bf 1bbe
00000040: 420c a33c ec1b 083e dd94 a1bd fd0e dcbd
00000050: a33b 703b 6ced 83bd 4350 19bd 63b4 11be
00000060: bbc2 883d da19 d7bd 0d52 e1bd 8527 b43d
00000070: f35d cc3c 4851 c7bc 0c94 1a3e 94d0 033e
00000080: 9b07 173e fb38 913d eb72 5bbd 6d91 683c
00000090: 7a51 1f3d 4bdc 183e 22bc 653b c110 f13d
000000a0: f4e8 de3d 984a ed3c be65 ef3d 419d 4ebd
000000b0: e951 143e bd7c f8bd 7d86 38be 8c40 2bbb
000000c0: 8c94 313d d70c 9dbd cfa2 06be 5ead a3bc
000000d0: 0076 a73d c24f e43d 0f75 243d 5f76 8f3d
000000e0: 2d5e 1ebd f6d4 64bd 8842 7abd 7422 ac3c
000000f0: 36c5 cb3d 7efa 0ebe dc08 1cbd f3ad 00bd
00000100: 70f4 f3bc acfa 8dbd 34d9 623d fbaa 72bd
00000110: 8e83 f83d 7868 05bd 28b8 333d eb6c b53d
00000120: 905f 29bc 244c 093e 110b 28bd 1319 b1bd
00000130: 0641 cabc e04b 8f3d 27f0 733c bd60 e3bd
00000140: da7a 863c 2c1a 45bd 7937 963d 601c c23d
00000150: f65c 22be 7d59 85bd 57ec 473d 65b0 083d
00000160: 9ee0 cfbd 22cc 013d 00b4 1b3d 0c01 18be
00000170: 9bc4 65bd c805 72bd e779 e7bd bc1b f3bd
00000180: 36bf ebbd 2e17 e5bd 8e1f e73d 6407 0bbd
00000190: ad54 47be 758e 3d3d b3a2 473c abb2 16bd
000001a0: b39d b9bd a6bd f1bc ecb0 0abe 1397 6fbd
000001b0: 96ce 893d 2db7 f03d 6a4a 61bd 56f6 153e
000001c0: 9ee3 7ebd df7f fcbd 361a b23d d5f2 aa3d
000001d0: 848e 013d 6cbc 0fbd f762 8e3d 4686 debd
000001e0: fa7d 243d 998b e63d 2088 bb3c 57d0 46bd
000001f0: 6d2f 33bd 6a78 60bc eebe 5abd 5c51 673d
00000200: 095a e7bd f113 da3d bb33 f4bc 65c9 763c
00000210: 54ac 94bd fa25 ccbc 46c7 9a3b 14b9 8ebd
00000220: bf92 243d 6c49 c3bd 989a c2bd aa0e 323d
00000230: 6909 0e3e 159e beba 23b4 9bbc fb5f a1bd
00000240: d62f b4bd e863 163e df55 47bc aa71 a5bd
00000250: 933b 91bd cb26 0dbc 6977 e93d 74ff fcbd
00000260: 02a0 dabc fa58 debd b2f7 5c3d e046 533d
00000270: d757 b1bd 85dc 9fbc f24a 833c 7510 cb3d
00000280: b563 053e 5d50 2c3e 8fe5 4e3d 29b8 46bd
00000290: 42a6 33bd 8897 bebd a0e9 5c3b 5a7b bc3d
000002a0: 9f47 22bd f219 c2bd 44f9 a2bd 6523 343d
000002b0: 124f d3bd 2b0e 00be 0edc c7bc c973 20bc
000002c0: 5a44 a03d 5674 053c 477f bdbd d04e 08bd
000002d0: f730 453d 1e00 a0bd e101 b03d b57e a2bd
000002e0: 87ef 57bd e2e6 20be 1239 37bd dc9b bebd
000002f0: 34fa 8abd 6c32 7dbc 18bf eabd e01e a3bd
00000300: 056c a6bd d33e 2b3e 7063 aebd ac8f 223d
00000310: 2ee5 0f3e 6354 84bc 940a 09bd 9407 abbd
00000320: 2aab cfbd 753d 83bd d5d3 3bbd 9a6e fb3d
00000330: 51c5 a63d d7b9 24bc 8254 0dbe f4c0 8b3c
00000340: e2db a3bd 041e 803d 9679 993c 8767 94bd
00000350: c479 943d d39e 2cbd d6cb ae3d b1cc 96bd
00000360: cde5 563d 294d dabd 1424 573d c999 d83d
00000370: f706 813d 68ec e6bd fd25 2abc 4558 62bc
00000380: fa51 953d f26c eabd d48a 75bb a1b4 0d3d
00000390: 2f40 093e ce15 11bd b4ea 13bd f832 95bc
000003a0: 6086 5d3d 6d22 b0bb 95cb a1bd e21e fabd
000003b0: b3a9 86bb 92df 02bd 73ed 6b3b 9ac9 63bd
000003c0: 2afc 3b3d 2542 dc3d 8c4a 03be d213 dfbd
000003d0: 28e6 f0bc a97d b03d 2730 95bd dde3 71bc
000003e0: 383c b7bd 15df 99bd 1eed adbd 56d6 8e3d
000003f0: d7a6 7b3d f833 003c 63da 41bc ece7 6c3d

combined.3.bias f4 [64]
0.021331424 0.049620137 -0.0345325 0.082928784 0.1007561 0.06856477 0.13610147 0.059083804
0.046797875 0.083337046 0.032652803 0.1309106 0.04874327 0.089072764 0.06744587 0.046033252
0.054651093 0.03612082 0.10790738 0.09357483 0.0701331 0.086005986 0.062672585 0.047663003
0.058009952 0.10164148 0.10145378 0.09968114 0.07653026 0.004007623 0.07765406 -0.019803464
0.053315535 0.03009915 0.051928334 0.049725648 0.06531968 0.07019991 0.110066354 0.10926867
0.05930605 0.07842108 0.06274493 0.061199937 0.06505759 0.106260344 0.08100826 0.019650245
0.1009684 0.0038976336 0.048180185 0.04288695 0.042338137 0.06876411 0.090945505 0.07027634
0.040559534 0.0557996 0.08621201 0.09190017 0.036657903 0.03444936 0.08519488 0.0067328857
00000000: 3dbf ae3c 7c3e 4b3d f371 0dbd 91d6 a93d
00000010: 3759 ce3d b06b 8c3d 2f5e 0b3e dc01 723d
00000020: 21af 3f3d 9dac aa3d f2be 053d 6e0d 063e
00000030: 06a7 473d c86b b63d 0f21 8a3d 5d8d 3c3d
00000040: d3d9 5f3d 6df3 133d 8bfe dc3d 29a4 bf3d
00000050: f1a1 8f3d e823 b03d 7c5a 803d 483a 433d
00000060: d89b 6d3d 6929 d03d 00c7 cf3d a025 cc3d
00000070: e6bb 9c3d 6152 833b 1809 9f3d e03a a2bc
00000080: 6461 5a3d 7e92 f63c ceb2 543d 1fad 4b3d
00000090: 53c6 853d f8c4 8f3d 786a e13d 41c8 df3d
000000a0: e7ea 723d 3b9b a03d 6a80 803d c9ac 7a3d
000000b0: ea3c 853d 069f d93d a9e7 a53d 8df9 a03c
000000c0: 85c8 ce3d 716f 7f3b 9658 453d 3aaa 2f3d
000000d0: c16a 2d3d 33d4 8c3d a341 ba3d 0bed 8f3d
000000e0: c121 263d 1f8e 643d ec8f b03d 2836 bc3d
000000f0: 9926 163d c61a 0d3d a77a ae3d 8a9f dc3b

combined.6.weight f4 [1, 64]
-0.049579613 0.05773414 -0.064632915 -0.08079601 -0.04887092 0.07952141 -0.060584925 0.058777224
-0.07102723 -0.07240786 0.02531622 -0.056358293 -0.09083862 0.05229086 0.05510559 -0.06783989
-0.041732673 0.053223047 0.03829352 -0.08269544 0.051488683 -0.076467454 -0.05479815 0.03656903
0.06343041 -0.09012685 -0.10079991 0.06212487 0.047188614 0.09011142 0.06265195 0.04361942
0.04642358 -0.06052543 0.070307836 -0.12932283 -0.083188705 0.048759628 0.04493614 -0.060845386
0.039484326 -0.074784525 -0.11258834 0.045854427 0.06248782 -0.05158218 -0.09776081 -0.100038275
-0.07308436 0.11261587 0.058379687 -0.07817287 0.054608952 0.052913472 -0.09437721 -0.07434781
0.05416762 -0.08732813 0.048885312 -0.10040824 -0.08010749 -0.08364736 0.056800187 0.083548926
00000000: fe13 4bbd a27a 6c3d 435e 84bd 6178 a5bd
00000010: e02c 48bd 1fdc a23d e627 78bd 63c0 703d
00000020: b976 91bd 924a 94bd f663 cf3c f4d7 66bd
00000030: 9909 babd f12e 563d 66b6 613d a4ef 8abd
00000040: e1ef 2abd 6900 5a3d abd9 1c3d 3a5c a9bd
00000050: cce5 523d f89a 9cbd 0674 60bd 68c9 153d
00000060: cee7 813d 6d94 b8bd 2f70 cebd a676 7e3d
00000070: d948 413d 568c b83d aa4f 803d 47aa 323d
00000080: a726 3e3d 83e9 77bd 8efd 8f3d 346d 04be
00000090: d75e aabd 2db8 473d f50e 383d 0339 79bd
000000a0: 51ba 213d a128 99bd b794 e6bd dad1 3b3d
000000b0: 3af3 7f3d d647 53bd d236 c8bd dee0 ccbd
000000c0: 41ad 95bd 26a3 e63d 8a1f 6f3d 1919 a0bd
000000d0: a3ad 5f3d ccbb 583d d748 c1bd aa43 98bd
000000e0: dede 5d3d 17d9 b2bd f73b 483d d6a2 cdbd
000000f0: 650f a4bd 4f4f abbd 50a7 683d b31b ab3d
