data/models/nov12_24_undersample/fold2_epoch_models/epoch_14_model.pt (torch, 775579 bytes, 9 tensors)

layers1d.0.weight f4 [128, 1280]
00000000: 202d 0abe af0e 8b3d 0a21 a0bc eac9 75bd
00000010: 1c77 febc d399 a9bc e97b f1bd 1980 31bd
00000020: da07 2dbb 7ce0 b8bb 121f 8dbc 928a 3bbd
00000030: bdf9 303d 2bed 983d 26b7 33bd 5ab6 68bc
00000040: 36ee 443d c7d3 bdbd c549 10bd 20eb f238
00000050: 9da4 ad3d 8375 86bc 6e9e 573e 631d babc
00000060: 38f7 c4bc 2ee7 cc3c 3e06 4d3a fe1a e73d
00000070: 728f 21bd 5c3b 133d 70e1 2b3c e6d3 f23c
00000080: cf62 113b 3949 a6bd 6aaa d03c 470c df3d
00000090: cf65 0b3d 6cab 46bd d7a5 a13d 0f38 0a3c
000000a0: 9b28 edbc 9cbf cabd 3215 86bd 3c39 473d
000000b0: f8a1 9fba 24b6 f93d d4fd 8bbc 779e 30ba
000000c0: b6ff d53c 0990 dabb 6c53 7ebc fa72 a0bc
000000d0: 2089 4fbd 2504 dfbc 3538 903a 0189 f13c
000000e0: 5099 e93c b3eb ff3a 9a8c 69bd 7ff3 b13c
000000f0: 39d1 e73d 52d3 3b3d 2a39 f33c 7498 813d
00000100: 0ab2 cc3a b66b 7d3d b242 f9bd 3329 d539
00000110: a9df c23c 5fc6 52bd dc6d ea3c 27a9 693d
00000120: 0b01 30bd 99b1 d93d 8b5d e93d 40a5 f63d
00000130: 7786 913d e66d 87bd e990 63bd b887 d8bc
00000140: b716 ccbb e773 4a3d af1d 6dbd d904 fd3c
00000150: 779e a93d 88e6 e2bc b942 203c 67bd cc3b
00000160: 8beb 1f3b c22d e2bc fc0f 653d cd6f 5e3a
00000170: 07e5 e2bc 07e8 99bc ad2f da3c 8e1b 893c
00000180: 3354 b1bd e5b5 cbbc 6502 e7bd 62cf af3d
00000190: 2129 5bbd 78c8 b5bb 2cde 9d3d 1bbd a6bd
000001a0: 6d80 203d a530 a8bd f185 8abc f8db b03d
000001b0: cde4 3b3e 6495 fa3b a77e 50bc 894f 233d
000001c0: 7149 503d 3fc7 983d 7eb6 193d a427 793d
000001d0: edc8 51bd dace 363e a373 5abd 8809 923a
000001e0: 82b7 f13c 69a6 e13c a677 933b f1b8 10be
000001f0: a989 143d 58e2 5fbd 976a 83bd 29bf 9ebd
00000200: e1d0 833c bce5 743d 3986 9f3d 8903 23bd
00000210: 1abf e0bd 6619 2dbc e97e b4bd b415 6ebd
00000220: 39ee debd 4d5c cb3c 8f34 e33d b8d9 3b3c
00000230: ada7 913c f2d9 a73d e563 973a 8204 5cbc
00000240: c4f0 b1bc 8b87 513d beb7 03bc 4208 6cbd
00000250: 34d2 20bd 383a c2bc 9e5c a2bd bbee cfbc
00000260: 34c8 8839 8f23 903b a859 0dba f686 c8bd
00000270: 48bb 45bc 6ab0 193d 4eee ac3d 57f0 4bbd
00000280: b7b5 bd3d 01ba 5a3b 8568 0a3d dabe c0bc
00000290: 9911 123c 6a8a 393c eb90 063b e511 c739
000002a0: 2216 3abc 56e0 223b 04d9 8f3b 1065 123d
000002b0: eb19 29bd 6496 30bd f94d 08bd 0711 aa3d
000002c0: c19d 01bc 14c7 bc3a 1cde d93d 9cd0 bfbb
000002d0: f849 5fbd 26ef b73d 3960 2abd f246 923c
000002e0: 724e b8bd e36d d1bc efec 9abc 9768 be3d
000002f0: 2f74 253e cb72 7dbd 913c 733d 5519 843c
00000300: 7acc 74bd e39d b938 624c 6fbd 0711 58be
00000310: 6e91 7a3d db2d 883d 752b 0abe 71d6 f63d
00000320: 589b 8bbd 3574 75bd def0 d4bc 49d4 53bc
00000330: 5c57 c6bc 1305 91bd ff80 423d acfe 9e3c
00000340: 499e 793d af19 2fbb 9427 42bc 7598 d6bd
00000350: c7bd 463d 3e93 84bc 89d3 d7bd 804c 8c3b
00000360: 937a fd3d 0b7a aa3d 58c0 d8bd edfd ebbd
00000370: b845 cf3d 0f9e 24be e622 453d 032e 553d
00000380: c92e 733d 687e e3bc 8be3 693d d652 913d
00000390: d10f 24bc 5b1d b8bd bec3 d6bc eed5 6f3d
000003a0: 4906 68bc 9281 403c 090d c5bc 4e9b 093d
000003b0: 8040 90bd ba91 92bd 4108 b2bc 81dd 5e3c
000003c0: 4e59 29bc 3753 35bd d437 29bd c482 f2bc
000003d0: 93a7 533c 5dd0 d03d 83bd 4dbe 1359 5f3d
000003e0: 2eac e83d 0d3a 13bd 62f0 f63d d64c a9bd
000003f0: 3059 683c 70f6 09bb 51d0 2a3d 6fe7 003d
-0.13493776 0.0678991 -0.019547004 -0.060007013 -0.031062655 -0.020703232 -0.11791212 -0.043335054
-0.0026402385 -0.005641995 -0.01722673 -0.045786448 0.04320692 0.07467111 -0.043875836 -0.014203632
0.04807874 -0.09268909 -0.035226602 0.00011583255 0.08478663 -0.016413456 0.2105653 -0.02271909
-0.024043664 0.025012579 0.00078210596 0.11284445 -0.03944344 0.03594528 0.01049076 0.029642057
0.0022184139 -0.08119435 0.025471885 0.108910136 0.03403264 -0.048503324 0.078929596 0.008436217
-0.028950026 -0.09899828 -0.065470114 0.048638567 -0.0012179008 0.12192944 -0.017088808 -0.000673748
0.026122909 -0.0066700024 -0.015522819 -0.019586075 -0.050667882 -0.027223656 0.0011003079 0.029484274
0.028515488 0.00195252 -0.057018854 0.021722553 0.11319203 0.045855828 0.029690344 0.06327906
0.0015617025 0.0618703 -0.12170924 0.00040657222 0.02378829 -0.051458713 0.028616838 0.057046082
-0.042969745 0.10629577 0.11394795 0.12043238 0.07105725 -0.06612758 -0.05555812 -0.026431903
-0.0062282938 0.04942694 -0.057889637 0.0308861 0.08282178 -0.027697816 0.009781533 0.0062481645
0.002440187 -0.02760971 0.055923447 0.00084852875 -0.0276971 -0.018787397 0.026634062 0.016736772
-0.08658638 -0.024867008 -0.112797536 0.08584477 -0.05350602 -0.0055475794 0.077083915 -0.08141538
0.039184976 -0.08212403 -0.016909571 0.08635706 0.18349 0.0076472033 -0.012725509 0.039870773
0.05085129 0.07459878 0.037527554 0.06082882 -0.05121701 0.17852345 -0.053332936 0.0011141757
0.029506449 0.02754517 0.004500347 -0.1413305 0.036264095 -0.054659218 -0.06416815 -0.07751305
0.016090812 0.059789404 0.07789273 -0.039798293 -0.1097395 -0.0105651375 -0.08813269 -0.058126166
-0.10885281 0.024824286 0.11094009 0.011465482 0.01778015 0.08195867 0.0011550157 -0.013428809
-0.021721251 0.051154654 -0.008039413 -0.057625063 -0.039262965 -0.023709401 -0.079278216 -0.02538239
0.00026089104 0.00439877 -0.0005392083 -0.09791367 -0.012068577 0.037521757 0.084438905 -0.049789753
0.09263175 0.0033375027 0.033791084 -0.023528505 0.008915328 0.011324504 0.0020533155 0.0003796957
-0.011357816 0.0024852953 0.004389884 0.035740912 -0.041284483 -0.043112174 -0.033277486 0.08304029
-0.007911147 0.0014402592 0.10638067 -0.0058537256 -0.0545139 0.08981161 -0.04159567 0.017856095
-0.08999337 -0.025565093 -0.018911807 0.09297293 0.16157602 -0.061877053 0.059383933 0.01612536
-0.059765317 8.850896e-05 -0.058422454 -0.21100245 0.06117385 0.06649371 -0.1349314 0.1205262
-0.06816739 -0.059925277 -0.02599376 -0.012929031 -0.024211578 -0.07081046 0.0474863 0.019408546
0.060941968 -0.002671819 -0.0118502565 -0.104782976 0.04852083 -0.016183492 -0.10538394 0.0042815804
0.12376895 0.08324059 -0.10583562 -0.11523042 0.1012072 -0.1607592 0.048128985 0.052045833
0.05937079 -0.027770236 0.057101768 0.07095878 -0.010013537 -0.08989974 -0.026216384 0.05855363
-0.014161655 0.011749642 -0.024054067 0.033595376 -0.070435524 -0.071567014 -0.021732451 0.013602615
-0.010336233 -0.044268813 -0.041313007 -0.02960337 0.012918371 0.10195992 -0.20091824 0.054528307
0.11360966 -0.035944033 0.12057568 -0.082666084 0.01418142 -0.002105143 0.041702572 0.031470712

layers1d.0.bias f4 [128]
00000000: 95f9 79bd bbb3 aabc 58ab 53bd a8ce ffbc
00000010: 1679 1abd fe23 8cbc 40da 32bd 704e 82bc
00000020: 3be6 6abd c689 b0bc a0f1 24bd 2eee 31bd
00000030: 75ce e0bc da58 a1bd b1fb 84bc a9f8 95bc
00000040: 0e50 33bd 26ac 16bd a2b5 69bd a85e 17bd
00000050: c55e 3bbc f74f 0abd 3e76 72bd adcc 0fbd
00000060: b2d3 0dbd cc11 24bc fea6 24bd f6e5 42bd
00000070: 4047 51bd 37b5 71bd bc06 14bd 304f 31bd
00000080: 7a32 92bd b505 0cbd 169d 25bd dcb2 81bd
00000090: 0b46 fa3a 987d 82bd 607d 263c 654c 69bd
000000a0: 96f5 63bc ba3d f6bc bd98 13bc 1a62 76bd
000000b0: ef0f f1bc 78bb a8bd ee27 31bd 35e5 73bd
000000c0: 0a3f 98bd 63b5 3ebd e3e3 91bc 565b ebbc
000000d0: b1dd 5cbd 70cb 2fbd bf20 27bd 65b4 22bd
000000e0: c9c1 07bd 809c 8dbc d9ca c0bd 6a12 41bd
000000f0: 4b28 83bc 56c6 20bd 6d17 79bd d448 4fbc
00000100: 1787 24bd e5d1 7cbd 8b4e 56bd 389d 80bd
00000110: f759 45bd 600a 00bb ed80 00bd 806e 52bd
00000120: fe19 70bd a317 3dbd 715c 5bbd f2fd 43bd
00000130: 643d 57bd bd19 d7bc fd98 a6bc b165 12bd
00000140: 93cb 66bc 61e8 65bc e252 45bd 08e9 35bd
00000150: b44e 0fbc 39d1 02bd b279 ddbc 1e94 31bd
00000160: 27f3 a5bc 6fd0 8fbd 404e 4cbc 6e4c 9ebc
00000170: e054 a9bd 7287 dcbc 10ba 96bd 0bff 1abd
00000180: 3c19 91bd f377 9ebd f26d a5bc 9d20 8ebd
00000190: 2816 3dbd 6cd2 6dbd 8c89 85bd 695e 55bd
000001a0: a89f 83bd 1b3f e3bc bdbc 8ebd b8a5 88bc
000001b0: f3c5 b4bc b7e4 23bd 0ba0 41bd deef f8bb
000001c0: 1977 2dbd 4e79 7fbc 3638 2fbd 213c 21bd
000001d0: 5858 f5bc 3066 8cbd a699 8bbd 1fba 71bd
000001e0: aa13 cebc 3deb f2bc 2555 bbbc 6018 34bd
000001f0: fa7d 88bd 2154 29bd 916d 1ebd e630 99bd
-0.061029036 -0.020837655 -0.051677078 -0.031226471 -0.037713133 -0.017107006 -0.04366517 -0.015906543
-0.05734847 -0.02155007 -0.040269494 -0.043440036 -0.027442196 -0.07878275 -0.016233297 -0.018307047
-0.043777518 -0.036785267 -0.057057984 -0.036955506 -0.011436169 -0.033767667 -0.059194796 -0.035107303
-0.034625717 -0.010014009 -0.04019832 -0.04758259 -0.05109334 -0.05901071 -0.036139235 -0.04328841
-0.07138534 -0.03418513 -0.040433012 -0.06332943 0.0019094361 -0.06371611 0.010161728 -0.05695762
-0.013913533 -0.03005873 -0.009008584 -0.06015215 -0.029426543 -0.08238882 -0.04325097 -0.05954476
-0.07433899 -0.046559703 -0.01780886 -0.028730076 -0.05392236 -0.042918622 -0.040802713 -0.03972282
-0.033143792 -0.01728654 -0.0941369 -0.0471367 -0.016010424 -0.039251648 -0.060813356 -0.012651641
-0.040167894 -0.06172361 -0.052321 -0.06279987 -0.0481815 -0.0019537434 -0.031372953 -0.051374912
-0.058618538 -0.04616512 -0.053554956 -0.047849603 -0.05254878 -0.02625739 -0.020336622 -0.03574151
-0.014086622 -0.014032454 -0.048174746 -0.04441169 -0.008746792 -0.03193781 -0.027035568 -0.043354146
-0.020257546 -0.070221774 -0.012469828 -0.019323554 -0.08268142 -0.026920054 -0.07359707 -0.037840884
-0.07084891 -0.07737722 -0.020194028 -0.06939814 -0.046163708 -0.058062002 -0.065203756 -0.05209199
-0.064269364 -0.027740052 -0.06969593 -0.016680583 -0.022067046 -0.04001304 -0.04727177 -0.007596954
-0.04234991 -0.015592886 -0.042778216 -0.039363984 -0.029949352 -0.06855428 -0.068164155 -0.05901539
-0.02515586 -0.029653186 -0.022867749 -0.04396856 -0.06664653 -0.041339997 -0.03867871 -0.0748003

layers1d.3.weight f4 [128, 128]
00000000: e425 24bd 1702 2c3d 9b7c 5bbd 441c c8bd
00000010: 5af1 31bd 4aa0 a63d 1297 1dbe 8009 5e3d
00000020: dac7 bcbd 3405 cbbd 671e 16bd 3b6b b7bd
00000030: 9078 8b3d f540 9f3d 3b73 ffbd a13f e5bd
00000040: 1e03 13be 514c 67bd d18a e4bd 2bfa f8bd
00000050: 9f8b 9e3d 504b a0bc a280 973c 656c 82bd
00000060: 4c69 78bc 32fa 9cbc 06d7 033e 6bf0 603e
00000070: 151e 6dbd ae98 863d b044 783d b1ee ab3d
00000080: 36f8 ca3c a4d2 cbbd b561 e23d d967 1d3d
00000090: 4786 98bd b65f 513d a840 15be b617 3cbd
000000a0: 160a b2bd 5240 58bd 9bee dabd a999 1abe
000000b0: e223 7e3d d161 273e 8e5f 9abd 3971 9f3d
000000c0: 8b40 363d 39c4 4ebd bd82 83bd 67f6 e43d
000000d0: 36fd b33d b562 803d c1c8 0cbe 2873 a5bd
000000e0: ff64 da3d 3cf2 13be 2268 f33d 7e22 e3bc
000000f0: 02df 52bd e3d5 51bd 6495 7abd b438 043e
00000100: 22b8 363d d44a fe3c 89dc 3a3e 231e 9d3d
00000110: a881 123e 3646 56bd 4ddd 0a3e 4d39 073c
00000120: 6f3b 973c 523d 00bd 7a7d 4ebd c066 db3c
00000130: bd22 81bd 33f8 15bc 9113 cfbd 06f2 37bd
00000140: 1b7f af3d 8984 123d 99b3 3f3e 5779 e3bc
00000150: 9cc3 cc3b 39ef de3c daf4 c33d cac7 193e
00000160: 420d 86bc d062 04be b60b c13d 0356 c4bd
00000170: 41da fa3d 9fcd ea3c 7fe2 96bd 2c2b c9bd
00000180: 75c7 c4bc f12a e63c bf05 fb3c b42d 2b3c
00000190: 8b6f 1abe 236b 343e 1a2f 21be 6ee4 2fbd
000001a0: a2fc c33d bb16 fb3d 4640 2c3d 90ef cb3d
000001b0: 75cd 9abd 7529 d83c 3751 93bd d2b0 53bc
000001c0: ae2a 08bd e0bd a6bd f1c8 e53d 8851 3dbc
000001d0: 1096 023c 2d02 0abd 50db 3d3e e9d4 5ebd
000001e0: 0795 b7bc a9d5 99bd 8e3f 95bc 90df aebd
000001f0: a5c1 003e 6213 31bd ee9f a53d b2ed fe3d
00000200: bebd 5a3d 9315 4e3d 68a3 a2bd 37cc 913b
00000210: 4869 933c e252 3b3d 5b4c 2ebd d88b 663d
00000220: ec0e cfbc 1b8c 0cbe a582 0fbb 6874 cdbc
00000230: fa72 613d 9139 863c 6ef4 c3bd 4672 4bbd
00000240: b2c4 9ebc ac0f e8bd 26d8 d6bd 75ac 2fbe
00000250: 78ac 063d aa07 073e b93a 163e 7e55 163e
00000260: ef55 89bb 727f 88bd d46a c63d 27e3 843d
00000270: 1876 7d3c 21fc 813d 024f 213e 4569 a03d
00000280: 3edf 153d 3d46 62bd d6d9 b53c f086 003d
00000290: e68e 5abe 2b94 c238 af43 bcbd 01ab 94bd
000002a0: 54bf e4bc ed58 21be 2c35 00bd 5602 80bd
000002b0: 025d c73d 9ba8 693c 506a 47bd 692b b23d
000002c0: daea 8c3d 98a1 00bd 1ad8 b2bd 1215 f93d
000002d0: 924b d13b a0fe f2bc 8cb8 e9bd 3da0 2fbd
000002e0: ba46 443e 6c2a 03be f253 a03d 1534 0c3d
000002f0: c8a6 75bc a330 35bd d1d2 00bd 8db3 56bd
00000300: 8e11 823c 1ae4 fd3a 1670 113e 7f65 483e
00000310: e703 173d 6925 c6bc 74f2 95bb 2689 253d
00000320: 6be6 353d b986 32be e365 e1bd 411f 173e
00000330: 3189 66bd 9cd8 6d3d 693d 09be 1a6c 193e
00000340: da16 e13c c59d 0c3d 65c6 da3d 2406 c3bc
00000350: 5df7 22be 98a5 03bd f18b 773d 1728 dbbd
00000360: 5592 1dbe 6bc6 c23d d8df a03d a693 01be
00000370: b07d 233e a0d8 ce3c 7f9c 09be 696d 03be
00000380: a87f c43b 80f9 06bd d0df 903c 9b97 143d
00000390: b255 13be 87b7 be3d ead5 01be 9756 4fbe
000003a0: d93e 043e f09e 96bb 8b1b f43d a969 fbbd
000003b0: e0b5 513c 1932 063e 71bd 7bbd 8144 4abd
000003c0: ab8e d5bd e0d4 9fbd 0d55 173e c337 a73d
000003d0: feba ffbd af82 8bbd 5276 0d3b 65ef b23c
000003e0: efbb d43d fec6 17bd 4546 2fbc aa64 11be
000003f0: 66bc 0a3e a44f 9fbd 5812 583d 89e7 35bc
-0.040075198 0.04199418 -0.05358563 -0.09771016 -0.04344306 0.081360415 -0.1538966 0.05420828
-0.09217806 -0.09913102 -0.036650088 -0.089559995 0.06810105 0.077760614 -0.1247315 -0.11193777
-0.14356658 -0.056469265 -0.1115929 -0.12157091 0.07741474 -0.019567162 0.018493954 -0.06368331
-0.0151618235 -0.019162271 0.12874994 0.21966712 -0.057890017 0.0657209 0.06061238 0.08395136
0.02477656 -0.09952286 0.110537924 0.038429115 -0.07447486 0.051116668 -0.14575446 -0.04592105
-0.0869333 -0.052795716 -0.10690042 -0.15097679 0.06204594 0.16345908 -0.07537757 0.077852674
0.044495147 -0.0504801 -0.06421421 0.1117981 0.087885305 0.06268827 -0.13748457 -0.08078605
0.10663795 -0.14447874 0.11885096 -0.027726408 -0.051482208 -0.05122937 -0.061177626 0.12912256
0.044609196 0.03104154 0.1824819 0.07671764 0.14307272 -0.052313052 0.13560982 0.008253408
0.018460957 -0.03130848 -0.050412633 0.026782393 -0.06305454 -0.009153414 -0.10111154 -0.044908546
0.08569165 0.035770927 0.18720855 -0.02776782 0.0062489044 0.02721368 0.09568186 0.1501762
-0.016363744 -0.12928319 0.09426062 -0.09586718 0.1224866 0.0286625 -0.073674195 -0.098226875
-0.02402089 0.028096648 0.030642388 0.010447908 -0.15081613 0.17618994 -0.15740624 -0.042942457
0.0956967 0.12260195 0.042053483 0.09957802 -0.07558719 0.026386956 -0.07193225 -0.012920575
-0.033243828 -0.081416845 0.11219967 -0.011555083 0.007970348 -0.03369348 0.18540692 -0.054402266
-0.022409929 -0.075114556 -0.018218782 -0.08538735 0.1257387 -0.043231376 0.08087145 0.124476805
0.05340361 0.050313544 -0.079413235 0.004449393 0.017994538 0.04573334 -0.042553287 0.05628571
-0.02527567 -0.13725321 -0.0021897939 -0.02507992 0.05504129 0.016384872 -0.09568106 -0.049669527
-0.019380901 -0.11331114 -0.10490446 -0.17155631 0.032879323 0.13186517 0.14670838 0.1468105
-0.0041911523 -0.06664933 0.096883446 0.06488638 0.01547005 0.06346918 0.15752795 0.078325786
0.036589853 -0.055242766 0.022198599 0.031378686 -0.21343574 9.278239e-05 -0.09192597 -0.07259179
-0.027923264 -0.15756579 -0.03130071 -0.062504455 0.09734537 0.01426139 -0.048685372 0.08699686
0.06880732 -0.031404108 -0.08732624 0.12162222 0.0063871825 -0.02966243 -0.11412153 -0.042877425
0.19167605 -0.12809151 0.07828511 0.034229357 -0.014993377 -0.044235837 -0.03145105 -0.052417327
0.015877511 0.0019370348 0.14202914 0.19569968 0.036868956 -0.02418776 -0.004576022 0.040413998
0.044409197 -0.17434205 -0.110057615 0.14758016 -0.05628318 0.058067903 -0.13402332 0.14982644
0.027476717 0.03433015 0.10682372 -0.023806639 -0.15914674 -0.032140344 0.060436193 -0.10701006
-0.15387852 0.095105015 0.07855195 -0.1265398 0.15965915 0.02524978 -0.13438605 -0.12834705
0.005996663 -0.032952785 0.017684847 0.036277395 -0.14388159 0.09312349 -0.12679258 -0.20247875
0.129146 -0.0045965835 0.11919316 -0.122760125 0.01279971 0.13105048 -0.061459962 -0.049381737
-0.104276024 -0.078042746 0.14778538 0.081649326 -0.12486838 -0.06812035 0.0021585417 0.021842668
0.10387408 -0.037055008 -0.010697906 -0.14198557 0.13548431 -0.07778862 0.05275187 -0.011102566

layers1d.3.bias f4 [128]
00000000: 3864 dc3c 206b ddba 8d8a 7bbc 53ba 86bc
00000010: 0682 253c 9eb6 d93b 431b 6fbd d671 b7bc
00000020: 78bd 343b ec90 f53a fa6c 2c3a c386 af3c
00000030: 954f 153d 46d1 173c fa11 8b3c 2d50 de3c
00000040: d7fb 80bc 454b 873c 45c7 b33b a732 f7bb
00000050: 27e0 00bc 4d8a 483d 3e16 41bc 21d3 bdbc
00000060: dd90 143d 99e2 ba3b 727d 43bc 65fa efbb
00000070: e5e1 aa3c 95fa 333c 4179 bc3c cdef 0d3d
00000080: 0137 fa3c 3ed0 e7bb ecc4 843d 2c77 c4bc
00000090: 36d7 a33b 33cf 05bc 7a04 213c 6959 0fbb
000000a0: 9a92 9c3c 7f1b cbbc b85d 2cbd b73d f23c
000000b0: 75a5 e2ba 212f 643d b23e 7d3c 09ef 273d
000000c0: beef d8bc 49ec 393b 24fd 533b 0936 f2bb
000000d0: 9181 723c b3d8 bf3c 43b7 4ebc f932 25b9
000000e0: 15a3 98bb 1832 46b9 2eae cf3c 352d f4bc
000000f0: 8d6c a4bc 261c 5bbb 8d04 a9bc 9f97 863c
00000100: e4f2 48bd cd01 d7bb e6dd 2fbc 4b45 eebd
00000110: f001 08bc 9520 3cbc 04f7 96bc eea1 1c3d
00000120: 7714 0b3c 03c3 c9bb 8067 4d3d 7e80 ddbb
00000130: 6534 6dbb 100a 13bb cee5 b73b 9367 f4bb
00000140: fc32 a1bc f60a 47bc 4fc4 bd3c a789 9cbb
00000150: 7f0f d63b 7fa9 38bd fdb4 c43c e5a7 f7bb
00000160: 9157 023b fbae 5dbc 8f85 b1bb 2121 d6bb
00000170: f231 4a3c 41df 9b3c 3b64 4e39 4cf1 ccbc
00000180: e688 023d 0bde 553d 11fa 68bc 6915 da3c
00000190: 9ed3 52bd 2be7 153c 17d2 fa3c 3029 d4bb
000001a0: 7541 89bb 92ff 863c ed4f 1a3c efd7 44bc
000001b0: c8fd 2abc d59a bc3c fcb9 15bd 95d0 16bc
000001c0: c640 4d3c c640 1c3d 1c87 90bc 62d1 47bb
000001d0: 5ca0 b4bb 8eec 8b3b b2f2 103b 7c83 223d
000001e0: ab4e 5a3c 4c68 183c e4e9 f9bc 8584 bd3c
000001f0: 43c6 b7bb 6adb 983c 4e36 413b e10f 253d
0.026903257 -0.0016892888 -0.015352857 -0.016446268 0.010101801 0.006644084 -0.05837561 -0.022393148
0.0027578752 0.0018735207 0.0006577518 0.021426564 0.03645285 0.009266203 0.016976345 0.02713784
-0.015745087 0.016515383 0.0054864013 -0.00754388 -0.007865942 0.04896002 -0.011785088 -0.023171963
0.036270965 0.005703282 -0.011931764 -0.0073235505 0.020859668 0.010985036 0.023007037 0.03465252
0.030543806 -0.007074385 0.06482872 -0.023982607 0.0050000204 -0.008167076 0.009827727 -0.002187336
0.019112874 -0.024793385 -0.042081565 0.029570444 -0.0017291742 0.055709008 0.015456842 0.040999446
-0.026481505 0.0028369597 0.0032346928 -0.0073916954 0.014801399 0.02341876 -0.012616935 -0.00015754615
-0.004658113 -0.00018901413 0.02535161 -0.029806713 -0.020071292 -0.0033433526 -0.020632053 0.01642972
-0.049059764 -0.006561494 -0.010734057 -0.1163431 -0.008301243 -0.011482378 -0.018428333 0.038240366
0.008488766 -0.0061572804 0.050147533 -0.006759702 -0.003619456 -0.0022436418 0.0056121117 -0.007458636
-0.019677632 -0.012148609 0.023164896 -0.0047771516 0.006532609 -0.04508352 0.024012083 -0.0075578564
0.001988862 -0.013530488 -0.0054175328 -0.006534711 0.012341009 0.019027354 0.0001968303 -0.025017403
0.031868838 0.05221371 -0.014219777 0.026621537 -0.051471345 0.009149353 0.030617757 -0.0064746365
-0.0041887113 0.016479287 0.00941847 -0.012014373 -0.010436483 0.023023048 -0.03655432 -0.009205003
0.01252765 0.03814771 -0.01764255 -0.0030489792 -0.0055122804 0.004270143 0.0022117314 0.039676175
0.01332442 0.00930221 -0.030507036 0.02313448 -0.0056083514 0.018659312 0.002948183 0.040298346

combined.0.weight f4 [64, 128]
00000000: b12e 1fbc f70a 243d 1120 053d 276d 2c3c
00000010: 3b98 9f3c 08a4 1abd 0e0a 383d 3c22 cb3d
00000020: b2c2 bcbd 2ab2 963d 9a11 ea3d fbf9 e6bc
00000030: ed89 383d 212b 5d3d 6429 fd3d c475 1b3d
00000040: 30b0 5a3d 202f a23c 3590 453d 9f1b bd3d
00000050: c734 bbbd 0178 15be 1dc6 bc3d cbc4 2abd
00000060: 1293 adbd ae9f 6a3d b7a0 9e3d 374e 7ebc
00000070: c6b7 8fbe 5ee0 20be 916d 87bd 95ad 6d3b
00000080: 8c09 7a3c da49 893d 22fe d8bd c865 a8bc
00000090: 88ff cdbc 1f27 08be c39d 12be 2da8 87bd
000000a0: c974 53be b269 0abd f0b4 72bd eef6 8d3d
000000b0: 14dd 61be 48c2 a7bd a17b 74bd f595 183d
000000c0: 143f b6bc 5214 0d3d e6ac 363d cd30 b53d
000000d0: af5c afbd 3d80 383d ff67 74bd a641 333d
000000e0: 939a d53d 4e4f 573c 5aed 91bc 25b8 12be
000000f0: ad36 3fbd 9b3f 0d3e c07f c3bd 0f41 6a3d
00000100: 1fe2 f1bd 5af2 dfbc 8637 2dbe ac26 4a3d
00000110: 3ca2 2c3d 39a7 e2bc 93dc 123e 6af0 d1bd
00000120: a8a2 47be 250d 84bc b788 f0bd 224c f33d
00000130: 4684 cdbc eed4 323d 9594 013e 4781 b03c
00000140: 21c4 d8bd 3f47 f63c 9411 75bc 517b e53d
00000150: 9ba9 4ebe 09cb 033d a14a 0bbe 83fc 6b3c
00000160: cd0d d03d 35f4 15bd b2bf 15bd 8ed2 cf3d
00000170: bed3 923c f346 73be 119c 0f3c 5f48 ffbc
00000180: 4ce9 73bc 31e0 013d 3e5e f93c ed2f 2d3d
00000190: fff5 2a3d a308 bdbd b09d 13be d360 933d
000001a0: 6354 31bd 8bef 7d3d cac2 16be bd76 143d
000001b0: 6fc2 9c3d 628c 5dbe 2ec5 8c3d 0211 f1bb
000001c0: 30e2 03bd 8384 abbd 0eb9 cfbc 2558 783d
000001d0: 9a8c ee3c a2e5 e0bc 1151 683c 58b7 c13a
000001e0: 6fd0 863c a75a b8bd ffea 0e3e 81e3 6abd
000001f0: 22ba 033e fdc2 133d 5575 ac3d 931d 03be
00000200: b220 83bd b743 bdbd c57b ca3c abee cbbc
00000210: f12c f2bc a9fc 52be 78f2 77bc 4067 b3bd
00000220: e25c b73d 4a19 4cbe 9b03 1dbe b824 0dbe
00000230: 8d56 3abe ead2 be3c ef1f 0fbe 415e 40be
00000240: 50b1 903d 0c8d 7cbe c307 f1bd 68d9 f33c
00000250: b6f9 0f3d 49d6 9b3b 4015 debc 16a4 543d
00000260: a834 023c 2b8c 3ebe b53c 04be 03bb 163d
00000270: 893c a23b 1f69 b23c e859 93bc 4266 29be
00000280: 2919 39bd eead 4abe d8a4 50bc c64c c4bd
00000290: 6465 95bd 5021 033c 005c e83d c580 e13c
000002a0: 6009 b03d 886e 3f3d 7504 08bd 43b6 1cbe
000002b0: 8190 a83d 2771 6d3d fdcc 603d 9ff1 3bbe
000002c0: e9cb 053e e9ee 2abe da4b 22be 9446 e9bc
000002d0: 969c ff3d 1391 e0bd 797f 183e ebe6 03be
000002e0: 29ba 10be 1f3c 10be 386a 103c e303 413c
000002f0: 5bce 2c3d ca0b 33be ae32 863d 5222 12be
00000300: 5071 1a3c c0a7 48be 032a a73a 7305 783d
00000310: 4846 c6bd cb1f f93b 8452 23bd cc07 4d3d
00000320: 0bf6 803d cdb8 12be 9e04 95ba 37bb 57bc
00000330: e667 0bbe ecdd 68be 7da7 123c f887 2abd
00000340: b203 5fbc 5e1a e3bd dad5 5dbe 1d02 33bd
00000350: ff15 dbbc 5ad7 5b3b 2aa4 b03c d326 0bbe
00000360: b746 13be cda1 193d c0af 4ebc 02d7 f33c
00000370: 2f62 13be 82eb 1a3d 0730 24be 35ee d73d
00000380: 6ca0 5f3c b795 d6bd b464 13bd 50ec 06be
00000390: 522e a83d c7a3 9a3d 2c00 32bd dad9 0dbe
000003a0: 8bea 973d 08bd 19be 61e7 ff3c cd0e 813d
000003b0: 0e87 a5bd c3b3 b63d 4488 21be f278 dcbd
000003c0: 3910 753d 4d1d e93b 30b8 4fbd 0f1a d6bd
000003d0: 59ab f03c d396 00bd ee0b 4cbe 16ae 1ebe
000003e0: c234 89bd df7e 0d3e 4e56 033e 2a3e de3c
000003f0: 5921 f5bd 4077 c8bd d444 b4bd 8d0c 7ebd
-0.009715722 0.04004952 0.032501284 0.010524071 0.019481769 -0.03775409 0.044931464 0.09918639
-0.09216823 0.07358201 0.114291385 -0.028195372 0.04505341 0.05399621 0.1236141 0.037954107
0.05339068 0.019797862 0.04823323 0.09233784 -0.09140926 -0.14596559 0.092174746 -0.041691583
-0.08475317 0.05728119 0.07745498 -0.015521578 -0.28069896 -0.1571059 -0.06612695 0.0036266793
0.015261065 0.06703539 -0.10595347 -0.020556346 -0.02514626 -0.13296174 -0.14317994 -0.06623874
-0.20650019 -0.033792205 -0.059254587 0.06931864 -0.22056991 -0.08191353 -0.059688214 0.037252385
-0.022246875 0.034443207 0.044598483 0.08847199 -0.085626 0.045044173 -0.05966949 0.04376378
0.10429873 0.013141466 -0.017813373 -0.14328058 -0.046683002 0.13793795 -0.09545851 0.05719095
-0.11810707 -0.027337242 -0.16915712 0.049353287 0.042146906 -0.027667629 0.14341955 -0.102509335
-0.19495642 -0.016119549 -0.11744826 0.118797556 -0.025087487 0.043660097 0.12654336 0.02154602
-0.105842836 0.03006327 -0.014957804 0.11205161 -0.20181887 0.03217605 -0.13602687 0.014403465
0.10158882 -0.036609847 -0.036559768 0.10147582 0.017923232 -0.23757534 0.0087652365 -0.031162439
-0.014887165 0.031707946 0.030440446 0.042282034 0.041738506 -0.09230163 -0.14415622 0.07196202
-0.043293368 0.061996024 -0.14722744 0.03624605 0.07654273 -0.21635583 0.068735465 -0.007356764
-0.03219813 -0.08374884 -0.025356796 0.060630936 0.029119778 -0.027453247 0.014179484 0.0014779372
0.01645681 -0.090016656 0.13956831 -0.05734587 0.12863973 0.036074627 0.08420817 -0.1280425
-0.064027205 -0.09241431 0.024717221 -0.02489408 -0.029562445 -0.20604195 -0.015133493 -0.08759928
0.08953263 -0.19931522 -0.15333407 -0.13783538 -0.18197079 0.023293931 -0.13977025 -0.18785955
0.0706507 -0.2466318 -0.117690586 0.029766753 0.035150252 0.0047557694 -0.027109742 0.051914297
0.007947125 -0.18608157 -0.12913783 0.036799442 0.004951064 0.021778641 -0.017987207 -0.16542915
-0.04519001 -0.19792911 -0.012734614 -0.09584956 -0.07294729 0.008003548 0.113456726 0.027527222
0.08595538 0.04673627 -0.033207376 -0.15303902 0.08230687 0.05796924 0.054882992 -0.1835389
0.13066067 -0.166927 -0.15849248 -0.028476037 0.12481038 -0.10965171 0.14892377 -0.12881057
-0.14133514 -0.14085434 0.008814387 0.011780712 0.042188983 -0.17484966 0.06552635 -0.14270905
0.00942643 -0.19595242 0.0012753609 0.06055207 -0.09681374 0.007602667 -0.039873615 0.050056264
0.06296929 -0.14328308 -0.0011369174 -0.013167194 -0.13613853 -0.22740906 0.008951065 -0.041633576
-0.013611721 -0.110890135 -0.21663609 -0.043703187 -0.026743887 0.0033545108 0.021562655 -0.13589029
-0.14382444 0.03750782 -0.012615144 0.02976561 -0.14392923 0.037822254 -0.16033946 0.10543481
0.013649087 -0.104777746 -0.03598471 -0.13176084 0.0821196 0.07550769 -0.043457195 -0.13852635
0.074177824 -0.15013516 0.03123826 0.06301651 -0.080824 0.089210056 -0.15774637 -0.10765256
0.059829924 0.0071140886 -0.050712764 -0.10454189 0.02937858 -0.031393837 -0.19926426 -0.15496096
-0.06699516 0.13817929 0.12825891 0.027129252 -0.11969251 -0.0978837 -0.088021904 -0.062023688

combined.0.bias f4 [64]
00000000: d6f2 a4bb fedb 2f3c 0024 cb3c 6e07 0cbd
00000010: 7c64 e3bc eb32 cf3a 144b 453b 1ebc 51bc
00000020: 4eac 85bc 7145 65bc 2426 c83c 3c94 fb3c
00000030: 6f2e e23c e4b0 893b 5537 663b 9fe7 62bc
00000040: 815b 8e3c b400 05bc 97be ba3c 6720 263c
00000050: 95e9 993c eda8 bd3c 3a01 a7bc d002 023d
00000060: b090 d13c 6af0 373b 436e 623c c584 723c
00000070: 4460 203d cf63 043d 385a 143c 397b 553c
00000080: 26ce 69bb e05d a93c eb28 a63a ed8d 0c3b
00000090: 0bdf b33c aeb7 d13c 81fb 15bd 0b5e 13bd
000000a0: 5c9e ff3c ea42 4a3d a453 533c cb83 f4bc
000000b0: 4341 1bbd 9fc0 0cbb 20de ac3c 7c35 edbc
000000c0: 74ed c43c 299d 4e3c dc32 b5bb a228 2c3d
000000d0: 19cf 9e3c c6bc 30bc 1182 8cbc e107 5b3d
000000e0: a794 2dbd a2ad 19bc 96bc 123b b433 233d
000000f0: eb7f 0fbc a9ce da3c 3df8 c63c d315 1f3d
-0.005033831 0.010733603 0.02479744 -0.034186773 -0.027757876 0.0015808021 0.0030104565 -0.012801198
-0.016317513 -0.013993607 0.02443225 0.030710332 0.027610032 0.004201995 0.0035128195 -0.013849168
0.017377617 -0.008117843 0.022795958 0.010139561 0.018788138 0.02315184 -0.020386327 0.031740963
0.025581688 0.0028066882 0.013820234 0.014802163 0.039154306 0.032321747 0.009054713 0.013029867
-0.0035675853 0.020674646 0.001267699 0.00214469 0.021956941 0.02560028 -0.036616806 -0.03597836
0.031203441 0.04938022 0.012898359 -0.029848 -0.037904035 -0.0021477116 0.021102011 -0.028956167
0.024039008 0.012610712 -0.0055297446 0.042030938 0.019385861 -0.010787195 -0.017151864 0.05347431
-0.042378094 -0.009379776 0.0022390238 0.03984423 -0.008758525 0.026709871 0.024288291 0.038839173

combined.3.weight f4 [64, 64]
00000000: 9fe6 26be 949d 443d db22 98bd b7a5 a8bb
00000010: 3db7 88bd 8337 1ebe 166d 8f3c c395 d2bd
00000020: 0b89 25be 8642 89be 7961 25bd 5b4b 0e3d
00000030: a3af 70bd c0c4 1cbd 3a0e a4bd a175 36be
00000040: d87c 99bd 005b 453d 81f7 88ba bfcf 87bd
00000050: 9437 6abd 9b24 26bd d89f bc3a 9947 05be
00000060: be43 373d 0f57 49be 7b37 02be 1f54 bd3d
00000070: df48 c73c d711 583d f530 ea3d 427e 433d
00000080: 5a92 043e 434e 083d aac7 ddbd 1e91 edbc
00000090: 112b c23d 9949 fd3d 8ad9 3ebd 5fcd ce3d
000000a0: 159a 763d f9be b43c 1c3e d23d b508 ffbd
000000b0: 9738 c83d 517e 0dbe 0611 7ebe bbec 05bd
000000c0: 4b7f 7a3d 8372 0abd e0f4 5ebe 4fa3 063c
000000d0: fc27 713d f22f 0b3e 3ff5 54bd 3d90 383d
000000e0: 139c d4bd 012b 05be 272a 2cbd 74dd 6c3c
000000f0: 16c6 053d 3072 22be 6260 b3bb 3ef4 643d
00000100: ad56 2cbd 3354 58be e44d 4e3d 3a10 44be
00000110: 0301 d03d 4d05 aa3c 4d18 353d 8b96 a93d
00000120: 2b22 323b a8b9 0e3e ab9d f6bd 55fb 6fbe
00000130: d96e dfbd a8c6 b73d 65d2 363c 2c42 99bd
00000140: 01e6 bd3c c68b 36be af48 ef3c 7362 333d
00000150: 5177 88be b106 f2bc 0649 7e3d eb1e a83c
00000160: a42c 69be 7791 b13c a31d af3c 21b1 83be
00000170: fa4b 44be 4faf 96bd 0176 88be b0e6 5dbe
00000180: 8402 81be 5476 4abe efe0 d53d 1059 1a3d
00000190: 8ade 51be 4acc 95bd ce14 133d a873 e9bc
000001a0: 17b1 46be e77c a7bc 7bd1 4bbe 2158 63bd
000001b0: 0987 8c3d 7900 d13d 895e 41bd 6671 063e
000001c0: e1c2 9bbe 817c 7dbe 175f bb3d a693 183d
000001d0: 5605 13be a2b2 54be 4531 583d 3e66 72be
000001e0: 79d1 503c 5033 073e 25cf 3b3d 26ff 4dbc
000001f0: 808e 2ebe 15c7 9e3c fe6a 00be 7ad0 343d
00000200: 6f2d 2dbe 1172 073e cc21 433c d91e 483d
00000210: 0f4e 96bd c322 66bd b7b7 eebc df98 cdbd
00000220: 6120 64bd 382f 5dbe fabc 4abd b397 923d
00000230: cc42 8f3d 752b eebd e648 08bd e02a cdbd
00000240: cc6b 2fbe 74f6 ed3d 7696 f1bc 3f33 d5bd
00000250: c9b2 13bd 05c6 e8bc d731 1b3e 374f fbbd
00000260: d3ed 193d 2937 05be afd5 463c 7fe5 b43d
00000270: b3f8 3abd 1cf5 a53d 89fc a93d 0406 a73d
00000280: afe3 093e 209d 3f3e 0b4b bbbc 8c7e 71bd
00000290: 6862 e9bc 2912 04bd 5710 a8bd 4de0 b53d
000002a0: f4db 343c d5ee e3bd 5ea6 7fbd ed06 2c3c
000002b0: 4101 38bd 798b 2dbe b632 afbd 4896 aabd
000002c0: 2250 a33d 3597 533c cd89 1cbe 84d4 3ebc
000002d0: 29b9 2b3d 577c a9bc de6f 07bd 0b2c 6bbd
000002e0: 786d d0bd 292a 2cbe 360d 4fbb 9b91 93bd
000002f0: 2836 e0bc 9a90 a0bc c318 42bd 2b10 0e3b
00000300: b029 b8bd 8039 073e b9ed e9bb 70af bc3c
00000310: 9b0e d43d 8a91 46ba ef96 24bd 208d f7bd
00000320: 5027 13be 3043 08be 695e b13c ab11 af3d
00000330: 0e81 f93c 04f5 a8bd 5727 e9bd c32b 73bc
00000340: 40c7 c9bd 0d65 833d 1048 453d 4aee 5cbd
00000350: 5a49 b53d c249 acba 6f7e be3d df55 84bd
00000360: 3da1 333d f48b 29be 06ba 553d 0e9f d63d
00000370: e910 023d 14b3 52bd 01c7 0d3d 2802 233c
00000380: ad07 b13d 725d 5dbd b9ff 96bd d0d7 a23c
00000390: 4160 b93d 2323 4c3c 5512 39be 0b2b 6fbc
000003a0: 94c5 6c3d 9a6a 88bc ddaa 9cbc 1dd7 18be
000003b0: 1301 053d 1b6e b1bd d6a5 1bbd a707 19be
000003c0: db8a 273d dd95 873d 0aab 32be 59af 1fbd
000003d0: d74d 1bbd 6af9 603d 169b b4bd baff 44bc
000003e0: c9ff 11be 76b9 ebbd 0aec e63a 14b9 323d
000003f0: cdef 2f3d fef0 4e3c 0d45 403c f651 9f3c
-0.16298912 0.04800184 -0.07428523 -0.005146708 -0.06675575 -0.15450864 0.01750807 -0.10282471
-0.16165559 -0.26808566 -0.04037616 0.034739833 -0.05876125 -0.038273573 -0.08010526 -0.1781831
-0.07494515 0.048182487 -0.0010449738 -0.06631421 -0.05718191 -0.040562253 0.0014390899 -0.13015594
0.04474234 -0.19662116 -0.12716477 0.092445605 0.02432674 0.05275139 0.11435119 0.04772783
0.12946454 0.03327776 -0.108290985 -0.028999861 0.094808705 0.12367553 -0.04659418 0.10097765
0.060205538 0.02206372 0.10265753 -0.124528326 0.09776419 -0.13817717 -0.24811181 -0.032696467
0.061156552 -0.033800613 -0.217731 0.008217647 0.058876023 0.13592508 -0.051991697 0.04505943
-0.10381331 -0.13004686 -0.042032387 0.014457095 0.032659613 -0.15863872 -0.005474136 0.05589699
-0.042074848 -0.2112587 0.05036725 -0.19146815 0.10156443 0.02075448 0.04421263 0.08280667
0.002718101 0.1393801 -0.120417915 -0.2343572 -0.109098144 0.089734375 0.01115856 -0.074833244
0.023180963 -0.17826757 0.029209463 0.04379506 -0.2665353 -0.029544206 0.06208136 0.020522555
-0.22770935 0.021675808 0.021376437 -0.25721076 -0.19169608 -0.07357656 -0.2665253 -0.21670032
-0.25197232 -0.19771701 0.10443293 0.037682593 -0.20495048 -0.07314356 0.035908513 -0.028497532
-0.19403492 -0.0204453 -0.19904129 -0.05550397 0.068616934 0.10205168 -0.047209296 0.13129196
-0.30422118 -0.24754526 0.09148996 0.037250184 -0.14357504 -0.20771268 0.052781362 -0.23671815
0.012745255 0.13203168 0.045851845 -0.012573039 -0.17046547 0.01938204 -0.12540814 0.04414413
-0.16911863 0.13227107 0.011909913 0.048857544 -0.07339107 -0.056185495 -0.029140336 -0.100389235
-0.05569494 -0.21600044 -0.04949663 0.071578406 0.06995162 -0.116293825 -0.033272646 -0.100179434
-0.17130965 0.11619273 -0.02949069 -0.10410165 -0.036059175 -0.028414736 0.15155731 -0.122709684
0.037580322 -0.13009323 0.012135907 0.088328354 -0.045647334 0.081033915 0.083001204 0.08155444
0.1346576 0.18712282 -0.022862932 -0.058958575 -0.028489307 -0.03224388 -0.082062416 0.088806726
0.011038769 -0.11129538 -0.06241452 0.010499698 -0.04492307 -0.16947736 -0.08554594 -0.08329445
0.079742685 0.0129144685 -0.15286942 -0.011647347 0.04192463 -0.020689173 -0.03306567 -0.05741505
-0.101771295 -0.16812958 -0.0031593568 -0.072055064 -0.027369574 -0.019600201 -0.047386896 0.0021677117
-0.08992326 0.13205528 -0.0071389345 0.023032874 0.10354348 -0.00075747876 -0.040183004 -0.12087464
-0.14370465 -0.1330688 0.021651464 0.08548292 0.030457046 -0.08249858 -0.113844566 -0.014841977
-0.09852457 0.06415758 0.048164427 -0.053938188 0.08851881 -0.001314454 0.09301459 -0.06461691
0.04385494 -0.16557294 0.05217936 0.10479556 0.031754408 -0.051440313 0.034613613 0.009949245
0.08644042 -0.054044195 -0.07372994 0.019878298 0.09051562 0.012459549 -0.180734 -0.014597665
0.057805613 -0.016652394 -0.019124443 -0.14925809 0.032471728 -0.08663579 -0.03799995 -0.14944325
0.040903907 0.06620381 -0.17448059 -0.038985584 -0.03791603 0.05492536 -0.08818643 -0.012023861
-0.1425773 -0.11509983 0.0017617953 0.043633536 0.0429533 0.012630699 0.011735213 0.019448262

combined.3.bias f4 [64]
00000000: 54b9 2d3e 2413 ff3d 6252 063e c98e 103e
00000010: f3fd 313e 64e4 d83d 263e 283e 3433 dd3d
00000020: 768a 113e 8d11 013e ca39 0c3e 2731 2c3e
00000030: b9b2 ea3d c194 143e 6e54 f73d 4f24 f03d
00000040: cfa6 1d3e 4a04 d83d 866d 173e 5452 113e
00000050: 54df cf3d 5412 183e cb8e 143e eec2 083e
00000060: c660 cc3d e9ea 033e 3b14 fc3d d3e4 023e
00000070: 3989 f43d a03b 8a3d ff6a f53d 1dc7 b13d
00000080: cb60 043e ef0d 123e 29f3 c43d 6589 be3d
00000090: 5e65 013e b21b 1d3e d0b5 023e 2108 1d3e
000000a0: ee66 eb3d 51a0 103e 7fbf df3d 12e1 fd3d
000000b0: dfee 083e dc54 163e 21b8 fc3d 3476 dd3d
000000c0: faa8 013e a4d1 403d 67cb dd3d 523d f43d
000000d0: 297b ef3d eebc 033e 66c2 eb3d f7b4 153e
000000e0: 8cd4 e63d 5b98 da3d 1657 223e b215 fa3d
000000f0: 5cdc ff3d 7b54 eb3d 8b52 fd3d 75c6 e33d
0.16965228 0.12454823 0.13117364 0.14116968 0.1738203 0.10590437 0.16429958 0.10800782
0.14212975 0.12604351 0.1369392 0.16815625 0.1145987 0.1450987 0.120766506 0.11725675
0.15395664 0.10547693 0.14787874 0.14191562 0.10150018 0.14850742 0.14507596 0.1335561
0.099793956 0.1288258 0.12308546 0.12782602 0.11940236 0.06749654 0.119832985 0.08680556
0.12927549 0.14263128 0.096166916 0.0930355 0.12636325 0.15342596 0.12764668 0.15335132
0.11494242 0.14123656 0.10925197 0.123964444 0.13372372 0.14680809 0.12339807 0.10813561
0.12662116 0.04707493 0.108298115 0.119257584 0.11693413 0.1286504 0.11511688 0.14619814
0.11271009 0.10673591 0.15853533 0.12211169 0.12493202 0.11490723 0.123692594 0.11121837

combined.6.weight f4 [1, 64]
00000000: 732f 68bd d270 2d3d 4487 9ebd fe4c 52bd
00000010: 23af 5cbd 6d56 193d 737e 31bd b3ac 1c3d
00000020: f9b0 92bd 5d52 6ebd bc0e 893c a6c5 33bd
00000030: 1889 65bd d5cd da3c 46d6 da3c 04a5 5ebd
00000040: bb55 52bd 1c3b e43c 3ad9 eb3c 3d18 85bd
00000050: a8cd d33c 183f 82bd 1ba4 6dbd 1abb 063d
00000060: c82f 073d 6752 aabd 0051 91bd 6cd4 f33c
00000070: 22ca ef3c 146b 303d 194d 023d cabe f13c
00000080: aa89 f53c aaeb 99bd 35fa 3a3d 8369 eebd
00000090: 8354 b6bd 4d50 a63c 500c c93c 79a8 7cbd
000000a0: 445d e93c 7153 80bd f885 c8bd 5b24 d93c
000000b0: 19aa 153d d5f6 2fbd 5383 b7bd ae94 a8bd
000000c0: 2ee7 4cbd 2b35 523d 1181 0e3d 4bc5 bcbd
000000d0: 4bea ef3c 3769 ec3c 5810 93bd 640c 63bd
000000e0: 900d 083d c3a0 88bd dec7 033d 5d4a fcbd
000000f0: 47a3 62bd faff a9bd abc3 163d 73f6 333d
-0.056685876 0.042343922 -0.077406436 -0.051342957 -0.05387796 0.037435938 -0.043333482 0.038250636
-0.07162661 -0.058184016 0.016730659 -0.043889664 -0.056038946 0.026709476 0.026713502 -0.05435659
-0.05135129 0.027860217 0.028790105 -0.06498764 0.0258549 -0.063596904 -0.05801783 0.032893278
0.033004552 -0.08316498 -0.07095528 0.029764377 0.02927119 0.043070868 0.031811807 0.02950992
0.02997287 -0.075156525 0.045648772 -0.116412185 -0.08902838 0.020301962 0.024542004 -0.061684106
0.028486855 -0.06265915 -0.097911775 0.026506593 0.03653917 -0.042960007 -0.08960595 -0.082314834
-0.050025158 0.051320236 0.034791056 -0.09217318 0.029286524 0.028858764 -0.07180852 -0.05543174
0.03321606 -0.06671288 0.03217303 -0.12318871 -0.055331495 -0.08300777 0.036807697 0.043936204
