data/models/nov12_24_undersample/fold2_epoch_models/epoch_4_model.pt (torch, 775567 bytes, 9 tensors)

layers1d.0.weight f4 [128, 1280]
00000000: eb3c fabd a64d e93c 88e6 58bc 75b7 e2bc
00000010: 6471 f8bc d079 213c 875c bbbd deeb 29bd
00000020: a952 7ebb 3421 a33b 8f59 b43b 32be 52bc
00000030: cc91 b73b 3ee3 a83c 04f1 2cba 054f eabb
00000040: 41d0 263c a364 79bd 34c0 61bc 2955 0b3c
00000050: f4ba 6c3d eba1 8d3b f68f 913d a1c4 8ebc
00000060: 5647 01bd 4baf 773c 7766 963c 182f 903d
00000070: ae78 debc c8b7 453c 808a 413c 1702 593b
00000080: b77d 9d3c 3cb8 59bd 8511 69bc 1c5b a13b
00000090: 3d2f cd3c 9239 0a3c 792b a4bb 55b3 d93b
000000a0: fe3e c73c c2da afbd 5319 0dbd c0eb c3bc
000000b0: d810 e93c 1cdf e83d 4d14 0d3c c348 e13c
000000c0: 27b3 9d3c 1ef4 e73a a0c8 113c 1532 84bc
000000d0: c64d 90bd f924 56bd c735 9cbb c83e 423c
000000e0: a878 173d c980 503c d508 b3bc 3fb0 eb3b
000000f0: d120 993d 894a f83b 59c4 96bb 9dbd 343d
00000100: eaf7 c23b 6e20 2d3d ab05 9abd 7890 14bd
00000110: 04e2 1abd d696 48bd e45f ed3c 7102 f93c
00000120: 0541 8ebc 482b 713d ccd6 8f3d 5548 b43c
00000130: eee8 133a 5a3f b3bc 5963 8cbc e06d 89bc
00000140: 1f80 14bd 585b c43c ecc6 fabc b576 c7bb
00000150: 2ad2 693d 4a60 d1bc 1312 0fbc 9b22 33bd
00000160: 4948 e93c bf76 12bc b8fa 7d3d ff1e 48bd
00000170: ffd3 8b3c 946f a6bc 47cd 743a c1c8 62bb
00000180: 5b35 4fbd b366 37bc d3c8 6dbd cf45 85bb
00000190: 9077 90bd 3495 c4bb adf0 a33b f12e dcbc
000001a0: 565f 303c 80e3 4ebd 162f 9bbb 354e b93d
000001b0: fde2 cf3c ff8a a93c d06e b8bc 4f14 113d
000001c0: b959 d83c 4e42 5b3d a802 4c3d 38d3 c23b
000001d0: 7894 00bc 9030 d83d 3031 3bbd 46e2 08bb
000001e0: 84d5 f5bb 528f 143d c46a 333c 42a0 a2bd
000001f0: 737c 3a3d 7774 05bd f7dd 98bd a74f 58bd
00000200: 3153 63ba a4c6 7d3c 2190 ca3d 47e9 0cbc
00000210: e9cf babd da57 b9bb ee72 b1bc f2ef 49bd
00000220: 2672 7ebd 7cb6 b53b 5494 a63d f1e1 1fbd
00000230: 66ff b8bc c472 493d d08a eb3c 0ed9 a83c
00000240: 9ae9 f7bc 97de 5e3d 2700 2a3b 60c5 04bb
00000250: 7947 ccbc a0a2 a3bc 6c6c 9cbd c996 c0bc
00000260: 4b3f c6bc af42 143c b3ed 903c 7259 86bd
00000270: c446 00bb 947c edbb fd31 703d fb7c 1e3c
00000280: 5b06 a83d 5f73 98bc ffc2 aa3a 586b 503b
00000290: d033 223b 393d 0f3d e1f9 9cbc c956 bd3c
000002a0: c0cd abbc 4a22 763c f714 15bc 927a f13c
000002b0: f6ce 93bd 8a18 cebc 5754 3c3b 3975 423d
000002c0: 848d 37bd c35b 883c adbe 093d 39fd ee3b
000002d0: d2d2 a8bc 3e10 813d 4499 a4ba 8fbe a83b
000002e0: a266 3dbd 2611 48bc 9b80 0dbd f341 553d
000002f0: c6a1 6f3d b3c3 21bd bf8b 4dbc f7f0 13bb
00000300: 3d8f f8bc c792 003c 5fad 2dbd e2fc f6bd
00000310: b3f6 7e3d 05a1 a03c 4249 9abd 0f12 d23d
00000320: b428 27bc 4591 47bd 62b9 62bd ff17 c53b
00000330: e8f5 dabb 98ee 52bd e34f 823d a878 54bc
00000340: 7fcb 333d 2bc3 783b 7746 93bd 1508 123c
00000350: 2252 863c b597 093d 93d0 f4bc baac 293d
00000360: 9707 9b3d 269d a13d 7cbc 2ebd 920d 7ebd
00000370: 2d00 543c ee2d 45bd 640f 42ba f02c 363d
00000380: cedc fd3c c96a 9ebc bfd0 013d 0f5d 403c
00000390: 7f65 fbbc 1123 1b3b 022f 6f3c 7212 933d
000003a0: 2918 e6bb eeee 983c 5d79 92bc 44d6 ae3c
000003b0: b6aa 34bd 236f 0abd c27f f4bb 9622 9a39
000003c0: d8b4 b0bc 6c77 dfbc e6d6 cebc 12b8 85bc
000003d0: 76a8 2a3d 32dc 283d a5f1 b2bd 0e50 ccbb
000003e0: be02 263d be32 1bbd 7f2c 523d dfdb 80bd
000003f0: 64bd 2f3d 90aa d03c e883 0d3b be06 6f3d
-0.122186504 0.028479408 -0.013238557 -0.02767537 -0.030327506 0.0098557025 -0.091485076 -0.041484706
-0.0038806594 0.0049783234 0.0055038403 -0.012862729 0.005602097 0.02061617 -0.00065971934 -0.007150533
0.010181488 -0.06088699 -0.013778735 0.0085041905 0.05779548 0.0043222806 0.071075365 -0.017427744
-0.031562172 0.015117477 0.018359406 0.070402324 -0.027157154 0.012067743 0.011812806 0.0033112818
0.019224985 -0.053154215 -0.014225368 0.004924191 0.025046939 0.008436577 -0.005010065 0.0066436925
0.02432203 -0.085866466 -0.03444798 -0.023916125 0.028450415 0.1137068 0.008610797 0.027500516
0.019250466 0.0017696654 0.00889793 -0.016137162 -0.07046084 -0.052281354 -0.004767153 0.0118557885
0.0369803 0.012726017 -0.021854797 0.007192641 0.07476962 0.0075772447 -0.004601043 0.04412614
0.005949964 0.042267255 -0.07520612 -0.03627059 -0.0378132 -0.048971973 0.028976388 0.030396672
-0.017364988 0.058879167 0.07023391 0.022007147 0.0005642314 -0.021880794 -0.017137216 -0.016776025
-0.036255 0.023969337 -0.030612431 -0.006087149 0.057085194 -0.02555861 -0.008732337 -0.043734174
0.028476851 -0.008939444 0.062006682 -0.048857685 0.017068861 -0.020316876 0.000933845 -0.0034604522
-0.050587993 -0.011193919 -0.05805285 -0.0040671597 -0.07054055 -0.0059992317 0.005003056 -0.026877852
0.010764917 -0.05050993 -0.0047358377 0.0904812 0.025376791 0.020696161 -0.022513777 0.03541976
0.02640997 0.05353003 0.04980722 0.0059455894 -0.007847898 0.105561376 -0.045701206 -0.0020886823
-0.0075022597 0.036269493 0.010950748 -0.07940723 0.04552884 -0.032581773 -0.074642114 -0.052810337
-0.0008671759 0.015489254 0.09890772 -0.0086005395 -0.09121687 -0.0056562247 -0.021661248 -0.049301095
-0.06212058 0.0055454355 0.0813376 -0.039033834 -0.022582721 0.049181715 0.028752714 0.020611312
-0.030262757 0.054411497 0.0025940032 -0.0020259246 -0.024936425 -0.019975007 -0.07637867 -0.0235094
-0.024200102 0.009049102 0.017691469 -0.06560029 -0.001957343 -0.007247517 0.058641423 0.009673352
0.08204337 -0.0186097 0.0013028084 0.0031802263 0.002475012 0.034970496 -0.01916212 0.023112671
-0.020972133 0.015022824 -0.009099237 0.029477391 -0.07217209 -0.025158186 0.0028736794 0.047475073
-0.044812694 0.016645318 0.03362911 0.00729337 -0.02060834 0.06301926 -0.0012557884 0.0051496695
-0.046240456 -0.01221112 -0.034546476 0.052064847 0.05850389 -0.039493274 -0.012545525 -0.0022574046
-0.030341739 0.007847494 -0.042401668 -0.12059952 0.06224699 0.01960803 -0.07533504 0.10257351
-0.0102025755 -0.048722524 -0.055352576 0.0060148234 -0.0066821463 -0.051497072 0.063628934 -0.01296822
0.04389524 0.0037958126 -0.071911745 0.00891306 0.016396586 0.033591945 -0.029884612 0.04142449
0.07569807 0.07891302 -0.04266022 -0.06202466 0.012939495 -0.048139505 -0.0007402806 0.04447645
0.030989077 -0.019338029 0.031693216 0.011740937 -0.030688046 0.0023672024 0.01459861 0.071812525
-0.007021923 0.018668618 -0.017880136 0.021342404 -0.044108115 -0.033797394 -0.007461519 0.00029398937
-0.021570608 -0.027278624 -0.025248956 -0.016323123 0.041664563 0.04122562 -0.08737496 -0.006235129
0.04052996 -0.03789019 0.051311966 -0.06291937 0.042905226 0.025471956 0.0021593515 0.05835604

layers1d.0.bias f4 [128]
00000000: d20f 2dbd 2946 063b 4a5e 08bd d245 8fbc
00000010: 2810 53bc ffe9 163a 51f0 c1bc a4a7 d23b
00000020: 312d fdbc eb86 e739 f590 e7bc 2eee 31bd
00000030: 0b4d 043a 4dd1 58bd 6fbf b3ba f26c 25bc
00000040: 9f6e b5bc fed8 44bc e60a 0fbd f817 fcbc
00000050: 29fc 593b ce97 753a 1e08 0abd 8f1b 2dbc
00000060: a8a6 86bc cc11 24bc d556 cebc ddb4 12bc
00000070: 7e82 c1bc e241 acbc 8220 a7bb ebc3 b3bb
00000080: fc3a 30bd a497 85bc 15bd cdbb 43b3 33bd
00000090: 2366 203c 9ac1 24bd 8288 aa3c fb8b 29bd
000000a0: 96d4 923a 7d01 04bc 1530 c0b9 ccfe fdbc
000000b0: d0a4 89bb e336 4fbd bc5e b7bc ddbc fcbc
000000c0: 4535 4dbd 5d00 06bd 4d92 32bc 46be 47ba
000000d0: 7779 e9bc 3988 06bd af81 ffbc 23c7 6abc
000000e0: 8acb f9bb 4619 e0bb a84a 5dbd 6a12 41bd
000000f0: 9b4f b43a dede f2bc 1d43 0fbd 1cda 003a
00000100: 723d 71bc 2858 0dbd 00d8 88bc 8797 9bbc
00000110: b294 14bc 5897 513c 7c77 6ebb 4086 0ebd
00000120: ad3d 17bd 5d67 d8bc 3006 eebc f121 afbc
00000130: b418 edbc 4b39 a8bc 9afd 3abc 6444 103b
00000140: 195d cd3b 5b59 c63a a5d5 94bc 4f22 89bc
00000150: 9fff 52ba b1f7 b2bc 5e0f 4abb 34bd 21bc
00000160: 42b4 30bc f574 35bd 404e 4cbc 5abc 0b3b
00000170: c5e1 45bd 8360 d1ba df97 44bd 8047 b7bc
00000180: 2e55 31bd 62b0 4fbd 3593 663b 06d3 3fbd
00000190: 3ff8 0abd 06c5 f8bc 3561 09bd 4447 0cbd
000001a0: 7c2d 00bd 2c16 0bbb cd7c 31bd 66c0 073c
000001b0: f3c5 b4bc 327a a2bc 91e6 15bd 4dbc 6a3b
000001c0: 00a0 c2bc 8cfb 86bb 5308 8bbc 2811 a9bc
000001d0: fdf9 dfbc 7824 2fbd 4cab 53bd f806 2abd
000001e0: 0f5c 18bc eaa6 8fbb 6fe1 3cbc fa50 cebc
000001f0: 661a e6bc f56e c6bc b15c c6bc 8482 4ebd
-0.042251416 0.0020488596 -0.033293046 -0.017489348 -0.01288227 0.0005756914 -0.023674162 0.0064286757
-0.030905338 0.00044160275 -0.028267363 -0.043440036 0.00050468807 -0.05293398 -0.0013713668 -0.010096775
-0.022147475 -0.012014626 -0.034922503 -0.030773148 0.0033261871 0.0009368629 -0.033699147 -0.0105656525
-0.01643689 -0.010014009 -0.02518789 -0.008954254 -0.023621794 -0.02102751 -0.005100311 -0.0054860017
-0.043025002 -0.01630766 -0.006278644 -0.04387213 0.009789976 -0.040223695 0.020817045 -0.04139326
0.0011202272 -0.008056995 -0.00036656918 -0.031005286 -0.0042005554 -0.050589453 -0.02238404 -0.030851776
-0.05009963 -0.03271519 -0.010899139 -0.00076196005 -0.028500302 -0.032844756 -0.031189768 -0.014329704
-0.0076231407 -0.0068389503 -0.054026276 -0.0471367 0.0013756634 -0.029647287 -0.034976114 0.00049153133
-0.014724122 -0.0345079 -0.01670456 -0.018993152 -0.009068655 0.012792431 -0.0036387136 -0.034796
-0.036924053 -0.026416475 -0.029055685 -0.02137849 -0.028942443 -0.020535132 -0.011413002 0.002201342
0.0062672016 0.0015132831 -0.01816828 -0.016739992 -0.0008048955 -0.021846624 -0.0030831913 -0.00987177
-0.010785164 -0.044300992 -0.012469828 0.0021321983 -0.048311014 -0.0015974197 -0.047996398 -0.022372961
-0.043294124 -0.05070532 0.0035182957 -0.046832107 -0.033928152 -0.030367386 -0.03353997 -0.03424765
-0.031293377 -0.0021222932 -0.04333191 0.008285617 -0.022067046 -0.019833658 -0.03659684 0.0035817802
-0.023757935 -0.004119342 -0.016971743 -0.020638064 -0.027340883 -0.04275939 -0.051677033 -0.041510552
-0.009299292 -0.0043839114 -0.011528357 -0.025185097 -0.02808876 -0.02422283 -0.02421412 -0.05041744

layers1d.3.weight f4 [128, 128]
00000000: 8dc2 8bbd d0a3 94bd 74de 79bc 56bd 84bd
00000010: 909b 89bc 5bff e43d 6ce1 01be 912f 993c
00000020: f9ba a6bc 6a27 bcbd ae7e 283d 3b6b b7bd
00000030: bfb0 7d3d 9339 2f3d eb33 afbd 10f6 69bd
00000040: eb03 c8bd 3ec6 c5bc 7d67 09bd d5cb 6cbc
00000050: e181 6f3d 0804 23bc 8c2d 693d 42c4 2ebd
00000060: d0c6 9bbb 32fa 9cbc dc4c 633d 2d52 113e
00000070: ad02 a7bd 5f70 1d3d 4723 903c a7b9 2e3d
00000080: 6895 b0bc 95c8 0fbe 0ae1 b63d 3276 893d
00000090: 400f 92bc ae86 5b3b 6de8 71bd ac70 39bd
000000a0: a73c 05bd b20f 62bd d558 73bd 089a 2bbd
000000b0: 938e 723d d404 123e 4667 efbd 33ab 953d
000000c0: 899d 6aba eed4 51bd e92c 2cbd 2efd 433b
000000d0: d460 8d3d cb4c 163d 1f54 5fbd 4410 d1bc
000000e0: 7138 0b3d 1a0e 4fbd 8880 ba3d 7e22 e3bc
000000f0: 9520 90bd b99f f3bc 23d8 08bd 2031 9f3d
00000100: b487 54bc 24f4 5c3d f73c c83d 5c60 333d
00000110: fafb 3a3d 3f16 9fbd 2a4f 213d 9dae 173d
00000120: 1f80 f93b d6ec 57bc 9387 2cbc 178c c4bc
00000130: 662a 93bd c2c2 b2bb c9ce 8abd a125 96bd
00000140: 004a 973d d3c9 803c 17d9 bd3d 48b5 97bc
00000150: 350f 22ba 50c3 e7ba 2523 f3bc 60f2 a03d
00000160: a514 b5bd 00f0 8cbd b60b c13d ae4e 93bd
00000170: a150 033c 4071 85bd 0b43 1fbc 433e 2cbd
00000180: 5f69 a7bd 12ad ca3c b801 853d b575 933d
00000190: 7f3a 8bbd 3db7 fb3d 10e9 57bd 00f1 49bd
000001a0: 9bef 363d 30d9 f13c 673f 443c 29ff 9a3d
000001b0: 75cd 9abd 0561 333d 5d82 52bd 6678 34bd
000001c0: d65d 09be aabe e1bc 05e8 c13c 29cb a6bc
000001d0: d7a7 43ba 7349 24bd f52f f33d c1e2 3cbc
000001e0: 3e24 963d 0107 79bd 5591 c0bb 3980 25bd
000001f0: c04d 763d 9269 13bd 0c9f 0f3d 7645 553d
00000200: 6392 1f3d e214 9b3d 343b 1cbd dc61 d4bc
00000210: d1c4 0a3d 382d 1cbd 42f9 233d 10ab e73c
00000220: f82d 9c3d f098 3ebd 36e9 493d 6874 cdbc
00000230: ecf3 9ebd cf86 2ebd 3d15 87bd 1900 2ebd
00000240: fa5a eebc f736 e0bd ad54 ddbc c3c0 3cbd
00000250: 30cb 913c 87c1 103e f1cd 093e 55b6 eb3d
00000260: e8bc aabc 727f 88bd 3e5d ad3d 104b ee3c
00000270: c22c 45bd 78aa 3a3d 408c d43d d422 d73c
00000280: 1a69 333d cc7b 22bc 7670 89bd a139 b43a
00000290: ea17 cebd 42b8 4ebd fe2b c0bc 8843 2abd
000002a0: 6996 c43c 6e02 12bd a3d9 07bd 87e9 713c
000002b0: 92af ac3d 9e95 9c3d ee35 303d de9e d0bb
000002c0: 9232 fc3c a766 79bd 327c 07bd 5cdc df3d
000002d0: 826e 8fbc 41b0 3ebd 8443 93bd 0e32 0d3c
000002e0: 552d aebb e56f 9dbd b306 e43c 1534 0c3d
000002f0: f7ab d33b 4491 e13c 423b 55bd 0bff 33bd
00000300: 01a7 1a3d e788 cebc 618c be3d 39fc 823d
00000310: 7e98 373d 912a 21bd 2973 38bc e013 753b
00000320: c677 2e3d f7fd 1abe da3e 16bd 229b c73d
00000330: d7a4 03bd 3c9c a23d 3ab6 7bbd 86d2 023e
00000340: a2ae f3bc 6492 a43c 979d 353c 8e8a ebbb
00000350: 418f 99bd 7364 f3bd 342d a83d e6ff 06bd
00000360: dacc cbbd ee21 353d d8df a03d 1237 9bbd
00000370: 81a7 d83d 8214 fdbc 8d2f dabd 97b5 c5bd
00000380: f33b 3dbd 3084 8abd 1f9b 7d3d f883 bfbb
00000390: 3281 e8bd 35ec 9b3d 8401 42bd 400d 06be
000003a0: 9b8a d53d 5dfa d7bc b3bd db3d 5a9d 8ebd
000003b0: e0b5 513c ac5a ce3d 61ee 52bb 0fa1 cdbd
000003c0: 1c32 c4bd 7fd6 4abc f8e9 193d 4a98 773d
000003d0: 8b92 c9bd 91eb c2bc abfe cf3b 164a a33d
000003e0: 51b9 893d e0ec b0bc 47b2 7c3d ec44 d8bd
000003f0: 9d59 0f3e 65dd 2bbd 88ab ac3c 9cc8 6fbd
-0.06824217 -0.07257807 -0.015250791 -0.064814255 -0.01679781 0.11181518 -0.12683648 0.01869944
-0.020352827 -0.09187205 0.041136436 -0.089559995 0.061936136 0.042779516 -0.085548244 -0.05711943
-0.09766372 -0.02414238 -0.03354596 -0.014452894 0.05847347 -0.009949692 0.056928203 -0.042667635
-0.004753925 -0.019162271 0.05549322 0.14191504 -0.08154807 0.038437244 0.017594947 0.04265752
-0.021555617 -0.1404136 0.089296415 0.06711997 -0.017829537 0.0033497023 -0.05905955 -0.045273468
-0.032528546 -0.05519075 -0.05941089 -0.041894943 0.059218 0.14259654 -0.1168962 0.07308044
-0.0008949866 -0.051228456 -0.042035017 0.0029905546 0.06903234 0.03669433 -0.054523584 -0.025520451
0.033989374 -0.050550558 0.09106547 -0.027726408 -0.070374645 -0.029739248 -0.03340925 0.07773042
-0.012971807 0.05394377 0.09777253 0.043793067 0.04565046 -0.07767915 0.039382137 0.03703176
0.00761415 -0.013179025 -0.01053037 -0.023992581 -0.07185821 -0.005455346 -0.067777224 -0.07331396
0.07387161 0.015721237 0.09269922 -0.018519059 -0.00061820756 -0.0017682109 -0.029679844 0.07858729
-0.08841828 -0.06881714 0.09426062 -0.07192741 0.008014829 -0.06515741 -0.009720574 -0.042051565
-0.08174395 0.02474073 0.064944685 0.07200185 -0.067982666 0.12290809 -0.0527125 -0.0493021
0.0446621 0.029522508 0.011978007 0.07568199 -0.07558719 0.043793697 -0.051393855 -0.044060133
-0.13414702 -0.027556736 0.023670206 -0.020360546 -0.000746367 -0.04010911 0.118743815 -0.011528672
0.073311314 -0.060797695 -0.0058767 -0.040405486 0.060132742 -0.03598935 0.03506379 0.052068196
0.038957965 0.075723425 -0.038142398 -0.02592557 0.033879105 -0.03812906 0.040032633 0.028279811
0.07625955 -0.04653257 0.049294673 -0.02507992 -0.07761368 -0.042609032 -0.06595848 -0.042480562
-0.029096115 -0.10947984 -0.027017916 -0.04608227 0.017797083 0.14136325 0.13457467 0.115093865
-0.02084203 -0.06664933 0.0846505 0.029088527 -0.048138388 0.045572728 0.10378313 0.026261725
0.043801405 -0.009917211 -0.06710903 0.0013750085 -0.10063155 -0.05046869 -0.023458477 -0.04156831
0.023997502 -0.03564685 -0.03316654 0.01476515 0.08431925 0.07645725 0.04302018 -0.0063665947
0.030785833 -0.060888913 -0.033077426 0.10930702 -0.017508749 -0.046554808 -0.07190612 0.008617891
-0.0053154626 -0.07687358 0.027835226 0.034229357 0.006459709 0.027535088 -0.052058466 -0.0439444
0.037756924 -0.025211764 0.09304119 0.06395764 0.044823162 -0.039347235 -0.011257925 0.003739588
0.042594694 -0.15135942 -0.036681034 0.09746386 -0.032139625 0.079399556 -0.06145308 0.12775621
-0.029746357 0.020089336 0.011084936 -0.007188148 -0.07498027 -0.118843935 0.08211747 -0.032958888
-0.09951182 0.04422181 0.07855195 -0.07578863 0.10578824 -0.030893568 -0.10653601 -0.09653776
-0.04619975 -0.06763494 0.061915513 -0.0058445893 -0.11352767 0.07613412 -0.047364727 -0.13090992
0.104268275 -0.0263645 0.10729542 -0.06963606 0.01279971 0.10075888 -0.0032185542 -0.10040485
-0.0957987 -0.012380241 0.037576646 0.06044797 -0.09842404 -0.023793967 0.0063474975 0.07973115
0.067247994 -0.021597326 0.061693456 -0.10560021 0.13999029 -0.041959185 0.021077886 -0.058540925

layers1d.3.bias f4 [128]
00000000: e245 d63c cf39 32bd e28a bfbb 8e1d 853c
00000010: 1cc1 f43b dfec 5abc 134a 9abd 06a5 0dbd
00000020: 1794 4f3c 3e8e 3abc 322b b13b 1837 953c
00000030: 6840 913a 3491 cebb 69cb fdba 714d 08bb
00000040: b479 00bc 0a6b 05bb d346 303c 28a8 89bc
00000050: 64e0 32bc a5fe 2b3d 9bd2 ca3c ff72 1fbd
00000060: 1d08 c33c 7c7a 67bd ceb5 abbc 73ea 7d3a
00000070: aa24 fa3c eb07 94bb a814 09bd dde3 733c
00000080: 8fff 1bba bcb3 323c 1628 8f3d aecb 5abd
00000090: d2b5 f7bc 1c7f 00bd d5c0 bf3b b17a 1f3c
000000a0: 79a0 103d 5388 0bbd 9677 adbd 0e87 253c
000000b0: 480e 293c 271f 7d3d d5e8 02bc 02e3 1dba
000000c0: 1422 87bc 8d4c 9fbc 0829 db3c 8024 4dbc
000000d0: 2e74 b23c 6c96 253d 98cf 25bc 9fb3 06bd
000000e0: f6a3 97bc 29ce 963c 28f0 953c d6b8 a8bd
000000f0: 920f 3fbc ad6c fdbb 9e16 3fbd 8b32 c2bb
00000100: ba18 a3bd c172 fabc 0d02 e0bc bafb a2bd
00000110: 452e a83c acd6 ffbc 4909 f1bc b53a a93c
00000120: 044f dd3c 1279 c03c 3b96 803d 438b 81bc
00000130: dc7b 563c 6ddb b7bb 393f bf3c 5a3b 65bc
00000140: bd70 97bd 64fa e5bc 6135 e6ba 6e8e 05bd
00000150: c69e 103c 52da 04bd 42f0 6d3d 396f 0ebd
00000160: 1b4a 58bc d32b 8f3c 57cb 49bc ef2b 243c
00000170: 57ef ffbc 8778 033d efb4 08bc a689 dabc
00000180: ef0f a23a 6455 7d3c 2fb5 5bbd 6951 9f3c
00000190: d7c6 6fbd 7981 87ba ec69 90bc eb3f 6ebc
000001a0: b0b9 67bc 155e 0d3c e4d7 803c 526a 5ebd
000001b0: ca36 ff3b 8bf9 dd3c 7eb5 64bc 13d2 00bd
000001c0: 516c 99bc 4946 603d 2444 98bc 6f19 f8bc
000001d0: 989b ea3b d104 f43c ac25 493c d7d4 7a3c
000001e0: dab7 ed3c fa53 afbc d2f5 4fbd 2d71 aebc
000001f0: ea55 2cbc 6cd0 983c ece8 a6bb 8d44 303d
0.02615637 -0.04351216 -0.0058454135 0.016249444 0.0074693095 -0.0133621385 -0.0753366 -0.034581207
0.012669585 -0.011386452 0.0054067606 0.018214747 0.0011081817 -0.0063039307 -0.0019362989 -0.0020798112
-0.007841516 -0.002035799 0.010759073 -0.016803816 -0.010917757 0.041990895 0.024758628 -0.03892803
0.02380758 -0.056513295 -0.020960715 0.000968612 0.03053506 -0.0045175455 -0.033466965 0.01488587
-0.0005950862 0.01090711 0.06990068 -0.0534169 -0.030238066 -0.03137122 0.005851845 0.009733842
0.03530929 -0.034065556 -0.08470075 0.010103 0.010318346 0.061797287 -0.007990082 -0.00060229015
-0.016495742 -0.019445682 0.026752964 -0.012520909 0.021783914 0.040426657 -0.010120295 -0.032886144
-0.0185108 0.018408852 0.018302992 -0.0823838 -0.011661427 -0.0077339024 -0.04665243 -0.0059264353
-0.079637006 -0.030572297 -0.027344728 -0.07958169 0.020529876 -0.031230293 -0.029423373 0.020657877
0.027015217 0.02349523 0.06278654 -0.015813475 0.013091054 -0.0056108744 0.023345577 -0.013991201
-0.0739455 -0.028073497 -0.0017563516 -0.032606535 0.008826917 -0.03243477 0.058090456 -0.03477404
-0.013201262 0.017476952 -0.012316546 0.01002024 -0.031242056 0.032097366 -0.008343919 -0.026676964
0.0012364368 0.015462253 -0.053639587 0.019448 -0.058539238 -0.0010338268 -0.017628632 -0.014541606
-0.014143392 0.008628388 0.015727945 -0.054300614 0.007788514 0.02709653 -0.013959287 -0.031450342
-0.018728407 0.05475453 -0.01858718 -0.030285565 0.0071596615 0.029787453 0.012277048 0.015309534
0.029018331 -0.021402348 -0.050771542 -0.0212942 -0.01051853 0.01865407 -0.0050936844 0.043034125

combined.0.weight f4 [64, 128]
00000000: ce1b 133d eb04 553d 10c3 083d f641 1dbd
00000010: dd4b 8fbc cb38 e23b 528f 003d ca7a 9d3c
00000020: ec1b a6bd ae6f 5b3d df96 0f3e ab14 32bc
00000030: 430d 4a3c d173 153d 3718 b93d a8c4 3e3d
00000040: eb57 2a3c 603d 53bc cc72 cd3c 0982 993d
00000050: bda6 18bc 0568 ccbd 2074 af3d d072 b7bd
00000060: 7b4f 5dbd 6e17 fd3c fdb0 103d d0cb 773d
00000070: 0ddb 10be d22a 40bd 4180 13bd 0b5a b53c
00000080: adb9 dbbc 03c9 c93c 6eff 71bd 735b c5bc
00000090: 9dd8 96bc ef2e 84bd 5420 03be bc8b c5bd
000000a0: 3e03 15be eefe 2ebd 9f10 9bbd cb36 6c3d
000000b0: 5f32 dcbd abd3 adbc 8c3d d1bc c074 ba3d
000000c0: 410d 33bd 3201 5d3d a6a6 e43c 8f90 fc3c
000000d0: 81a1 f4bc 42c7 af3d 18f2 e7bd 64fd 823d
000000e0: ae2b d03d 4ff4 7cbc 5039 873a 1d0d 81bd
000000f0: 78e7 c3bc 3bf3 ca3d 11e0 87bd 502d 473c
00000100: 0b99 aabd 7700 34bd c599 e6bd 77b4 b33d
00000110: d43b 563d 3cf0 1dbd 7d4c 413d 667c a4bd
00000120: b6b1 dcbd 2967 70bd 8282 77bd 74b0 e53d
00000130: 6a82 34bd 215f b93d 3fe7 603d 6996 4ebd
00000140: 98a6 b9bd a600 d73c cbe1 79bb 5cc3 c23d
00000150: 8644 e0bd 3eb4 793c bca2 33bd 6256 5cbc
00000160: c991 fd3d bd37 03bd 8195 b9bc 90de b13d
00000170: 9760 27bd ce21 dfbd 71a9 483c b869 e2bc
00000180: df26 40bd 9f16 a03d b27e c7bb 4f46 f23c
00000190: 85e3 09bd 41f8 60bd e4dc 52bd 4de2 5a3d
000001a0: d6ec 3bbd 9767 a63d ba16 27bd 2460 d2bc
000001b0: fecb 843d 1ea6 2dbe a5f1 f13c 5eed 103d
000001c0: 562c eeba 54f9 24bd 3203 0abd cfb8 d93d
000001d0: e506 f03b 0073 743c a2e0 463b 8be6 e7bb
000001e0: f541 cf3c 4dee b8bd 62d8 b53d 3b26 b8bc
000001f0: 0ac7 d83d 30d0 423d 9241 be3d c5a5 a8bc
00000200: 45c4 723d 5e59 38bd 4449 2e3d f94c a3bc
00000210: c0d6 0cbd 86cb 92bd 0c46 243d 7429 24bd
00000220: 8ef4 643d aa95 94bd 1183 0c3c 9234 cdbd
00000230: 9351 dfbd feff 9f3d d5b5 f0bc 8310 eebd
00000240: 287b 283d 7e37 f5bd 5259 e0bc a666 e2bc
00000250: 06db 55bc 6859 923c ec49 fd3c c15f 6f3c
00000260: 6431 d13c 4a47 b7bd 85fe 32ba 00ff f43c
00000270: 156d 3abd 7a01 a13c c12e 4fbd ca7c cbbb
00000280: f308 7ebd f131 acbd 5880 8b3c b8b2 5bbc
00000290: 95f8 4bbd 7f4f edbc 9cfc e73d 797b 533d
000002a0: 4772 003e 3d5f 3dbd 9c49 babb ef60 28bd
000002b0: c925 a13d 5cc8 a23d 7d94 853c 8a27 debd
000002c0: 5f58 e83d 9699 9fbd ef1e 40bd 931d c6bc
000002d0: 6e73 f73d 65db 973d 521c e83d 185f 63bd
000002e0: d7f7 80bd ea1e 6abd 075d a4bc 3dab 61bd
000002f0: d4c8 a23c 1f7c fbbd 71a7 ce3d d609 8dbd
00000300: 16a2 233c a082 1abe f34a 39bd 91d3 113d
00000310: 6ddc ccbc 7732 4c3b 889c 8ebd edd4 713d
00000320: 16f2 163d 99f7 63bd bc92 7cbd 93d3 2f3d
00000330: b256 97bd b5c0 ecbd 52aa 573d 4e8b da3c
00000340: c547 d8bc 44a3 a7bd 6220 2ebd d4ab 69bd
00000350: 239b 61bd 06d2 d93c c6f9 9b3b bf24 c9bd
00000360: 3b77 c5bd e72e e53b c8b6 6dba 95bf 09bc
00000370: 11ed 9cbd 1fcd 4e3c e7c1 22bd 1d3f 583d
00000380: af74 24bc 8950 d3bc 018f 773c 7e6e f1bd
00000390: c4b3 ae3d 4b19 613d 5147 d0bc 07c8 aebd
000003a0: ba79 6c3d 5375 98bd f092 95bb 5e80 263d
000003b0: 654d 38bd fead b73d cc85 4fbd 7423 7c3b
000003c0: 5b2b 853d 7bb8 a1bc 179b ad3c 73bd 74bd
000003d0: ee70 f73b d49a 19bd 4d3c 86bd 0c56 2bbd
000003e0: 5af6 813c 04aa 163e 6af0 bd3d d2cd 273d
000003f0: f422 adbd 7bcb 8a3c d24e 38bc ddd8 5dbc
0.03591519 0.052006643 0.03338915 -0.038392983 -0.01749223 0.006903743 0.03138668 0.01922359
-0.081107944 0.053573303 0.14022397 -0.010869185 0.012332263 0.036487404 0.09037822 0.046574265
0.010396938 -0.012893051 0.025079153 0.07495505 -0.009317097 -0.09980778 0.08567071 -0.089574456
-0.054030877 0.030894961 0.03532504 0.060497105 -0.14146061 -0.046915837 -0.036010984 0.022137662
-0.026821936 0.024631983 -0.059081487 -0.024091458 -0.018413836 -0.064542644 -0.12805301 -0.09645793
-0.14552018 -0.04272359 -0.075715296 0.057669442 -0.10751795 -0.021219095 -0.025542043 0.091042995
-0.04371381 0.053956218 0.027911495 0.03083065 -0.029862167 0.08582927 -0.113254726 0.06395987
0.10164581 -0.015439107 0.0010316763 -0.06301329 -0.023914084 0.09909674 -0.06634534 0.012156799
-0.08329972 -0.043945756 -0.11259798 0.08774655 0.05230315 -0.038559183 0.047192086 -0.080315396
-0.10776083 -0.05869213 -0.060427196 0.112152964 -0.044069685 0.090513475 0.054908033 -0.05043641
-0.09064978 0.026245426 -0.0038128968 0.09509918 -0.1095057 0.015240727 -0.043856367 -0.01344833
0.12381322 -0.032035578 -0.022654297 0.086850286 -0.0408636 -0.108951196 0.012247429 -0.027638301
-0.04691207 0.07816815 -0.0060881013 0.029574541 -0.033664245 -0.054924253 -0.05148019 0.053438473
-0.04588016 0.08125227 -0.040793158 -0.025680609 0.06484221 -0.169579 0.02953417 0.03538262
-0.0018171172 -0.04027684 -0.033694454 0.106309526 0.0073250406 0.014919996 0.0030346294 -0.0070770434
0.025300005 -0.09029827 0.08879162 -0.022479167 0.10584839 0.047561824 0.0928985 -0.020586858
0.05926921 -0.045007102 0.04255034 -0.019934164 -0.03438449 -0.07167725 0.040105864 -0.040078595
0.055897288 -0.07255109 0.008576171 -0.100197926 -0.10904231 0.078124985 -0.02938358 -0.11624243
0.041133076 -0.11973475 -0.027386341 -0.027636837 -0.013052708 0.017864898 0.030919038 0.014610232
0.025536247 -0.08949144 -0.00068280875 0.02990675 -0.045514185 0.019654024 -0.050581697 -0.0062099444
-0.062020253 -0.08407963 0.017028973 -0.013409309 -0.049797613 -0.02896857 0.11327478 0.051631425
0.12543593 -0.046233404 -0.0056850445 -0.041108068 0.07868535 0.07948372 0.016306156 -0.10847385
0.113449804 -0.07792966 -0.0469045 -0.024184024 0.12082563 0.07414893 0.11333527 -0.05551061
-0.06297272 -0.05715839 -0.02006389 -0.055094946 0.019871153 -0.122795336 0.10090531 -0.06886642
0.009987375 -0.15088892 -0.045237493 0.035602156 -0.025007451 0.003115801 -0.0696345 0.059040952
0.036851965 -0.05565605 -0.061663374 0.042926382 -0.07389583 -0.115601934 0.052652664 0.026677754
-0.02640141 -0.08185437 -0.04251135 -0.057048634 -0.05507959 0.026589405 0.00476 -0.09821462
-0.09641882 0.0069941166 -0.0009068069 -0.008407493 -0.07662404 0.012622147 -0.0397357 0.052794565
-0.010037585 -0.025795238 0.015109778 -0.11788653 0.08530381 0.054955762 -0.025424631 -0.08534246
0.057733275 -0.07444253 -0.0045646355 0.040649764 -0.044995684 0.08968733 -0.050664708 0.003847328
0.0650241 -0.019741287 0.021192117 -0.059750985 0.007551304 -0.03750117 -0.0655447 -0.041830108
0.01586454 0.14713293 0.09274371 0.04096777 -0.084539324 0.01694273 -0.011249261 -0.013540474

combined.0.bias f4 [64]
00000000: 0faa a6bc 0173 b33c 9c2e 223d 5e94 eeba
00000010: 66ee 28bc ca18 00bb 3b70 093c 4e16 9aba
00000020: 2249 29bc 8c37 193c cd90 303c bbcb 073d
00000030: b207 5ebc 80a8 90bb eb38 45bc 95aa 843b
00000040: caf3 d23c 74a4 a4bb 0840 d33c 2bf7 203b
00000050: 064f 1b3c 258b ae3c a6b6 85bb 228b 713d
00000060: ca68 df3c b9c4 5c3c d616 cdbc 40c6 983b
00000070: efaa e03c 9c63 163d 9824 cdb9 b1ee b1bc
00000080: 73ce c6bc ba06 1f3d ec0e 4bbb 25c1 b4bc
00000090: dd42 263d eaad 0cbb e67b 31bd 822d 83bc
000000a0: f3ce 2d3d 359e 9c3d 351d 633d c67f b0b9
000000b0: c0c3 bdbc f53d 5b3c 269b d03c 7a08 43bd
000000c0: c951 9a3c a5fe be3c b91d 37bc 977c 903b
000000d0: fcb5 263b 4250 ebbc 0e87 71bc a6ad 3a3d
000000e0: 31a7 85bd bf9e 4a3c b5e4 6abc 9ee2 063d
000000f0: c813 17bb 33b3 5dbb 6734 253c 9807 503d
-0.020344762 0.021905424 0.03959523 -0.0018202176 -0.010310745 -0.0019546025 0.008388574 -0.0011755915
-0.010332378 0.009351622 0.010776711 0.033153277 -0.013551639 -0.004414618 -0.012037496 0.0040486553
0.025751013 -0.005024487 0.025787368 0.0024561386 0.00947929 0.021306584 -0.0040806113 0.058970578
0.027271647 0.013474637 -0.025035303 0.004662305 0.027425257 0.03671609 -0.0003912791 -0.021720262
-0.024268365 0.038824774 -0.0030984236 -0.022064755 0.04059111 -0.0021465966 -0.04333105 -0.01601291
0.04243369 0.07647363 0.055447776 -0.00033664535 -0.02316463 0.013381471 0.025464606 -0.047615506
0.018837826 0.023314783 -0.01117652 0.0044093835 0.002543806 -0.028724793 -0.014741672 0.04557576
-0.0652603 0.01236695 -0.014336755 0.032930963 -0.0023052562 -0.0033828735 0.0100832945 0.050788492

combined.3.weight f4 [64, 64]
00000000: 73ef 88bd 9e8b 793d 4542 9bbd 23de 28bd
00000010: 2906 67bd 5b4b 24be 8552 1b3d 277e 84bd
00000020: 978a 4abd a19a 41be e0a7 a9bd 8bdd 1c3d
00000030: 9345 ccbd 8e4c f13c 6bcf b1bd c05b 28be
00000040: ca4a 02bc 0244 fe3d 56ee 95bd 01be c8bd
00000050: 27b3 063d 010e 77bd dd3a fdbc 32be 12be
00000060: 539a a73d 61ff ecbd b861 e0bd 9395 c53d
00000070: 2be6 023d e676 92bc f021 1a3e 1471 d83d
00000080: 7a19 0f3e 70f6 6e3d a5be 82bd 1b61 653b
00000090: f846 2e3d 301b 0e3e 9929 0cbc 7989 e33d
000000a0: 3ca1 cd3d 80d5 803c 598f e83d b576 92bd
000000b0: 200f 263e 89a3 10be 6ea3 30be 52fb 9db9
000000c0: dcb5 3c3d a86d 95bd d241 15be 8c64 0cbd
000000d0: 6d17 953d f960 ed3d b3c1 e93c d31d 993d
000000e0: 148f 41bd dd80 a2bd a483 92bd c64e b13c
000000f0: 6f45 c93d f942 1bbe c784 41bd 1352 15bd
00000100: 1b45 17bd ed24 b7bd f6e0 863d c937 86bd
00000110: c5e2 003e 0d63 e2bc af23 673d f994 bc3d
00000120: 320b 33bc 3556 173e f54a 26bd f1e1 b7bd
00000130: 4c0b 1ebd 4fcf 823d d2e1 a53c ced4 aebd
00000140: abde 6c3c eb0b 71bd 20bc 983d f876 b93d
00000150: e4a0 27be 6bc3 7fbd 54da 8d3d 5012 053d
00000160: ca91 0bbe 19fa f83c 8c7e 093d e08b 1ebe
00000170: f9a9 68bd 3ec7 6dbd 5870 12be 860f f8bd
00000180: 1439 fcbd cfc3 00be d8e2 f83d 0d58 f8bc
00000190: fcd8 43be 2519 1a3d 0a26 563c 4d0f a6bc
000001a0: f217 a4bd adde 74bc 72dd 05be e8ac 41bd
000001b0: af4a 8d3d 5b04 ee3d 6c29 c9bc 847c 0a3e
000001c0: 9276 9bbd dcda 19be 1e13 b33d 989b bd3d
000001d0: 357f 973c 2fa3 22bd db01 8d3d 454c 07be
000001e0: a8bf 333d 5e61 db3d 331d c73c c868 dbbc
000001f0: 13bf 8abd 4de4 45bc 88f8 65bd 83f6 6c3d
00000200: baf4 febd 82fb 093e bd5e 13bd 442e b73c
00000210: d47d 67bd 52ba b0bc d6db 35bc dff8 a3bd
00000220: b822 fb3c 86d6 d3bd 2b7f abbd aa51 9e3d
00000230: a8d2 123e 2e92 98bb 036f f3bc 4b6a adbd
00000240: 3e53 d4bd 9ac0 143e 6018 72bb c9bd cbbd
00000250: 9be5 a4bd f352 92bc b3b3 103e 6f06 00be
00000260: 0057 b6bc 92cd e6bd c4d6 333d 5b3d 6e3d
00000270: cbd2 87bd 1aa0 90bb 843b 123d 6bf8 f23d
00000280: 5be9 133e 8521 4b3e 5da8 003d f6d7 40bd
00000290: 1e9a cdbc 7a2e a8bd 42ff 8ebc 57ff bb3d
000002a0: 4053 d9bc f24a bbbd 18fe adbd 5574 2a3d
000002b0: a19b 9abd 3bb5 04be dc93 febc 099e 0cbd
000002c0: e770 ba3d 9490 ed3c 792f 04be 3a21 c7bc
000002d0: 542e 673d cfc1 9ebd 49d2 a93d ae95 64bd
000002e0: f8a7 76bd 1394 15be 9eab 6fbd 1cc8 e4bd
000002f0: 526a 38bd b51d b2bc 299b d2bd 857c a6bd
00000300: 3bda 8abd e698 213e e5e3 b1bd 7ee8 0b3d
00000310: 750a e53d f9b6 8f3b 03e1 19bd d367 d0bd
00000320: e843 c7bd 334b a4bd 61dd 2ebd 7344 fc3d
00000330: 1c77 8f3d 06a5 b9bc 72cf 24be 8b80 8e3b
00000340: 6c3a d1bd bab5 4c3d 0529 b43c 2d9e a1bd
00000350: 7210 be3d 2005 57bd 8c4d 8d3d 8b25 abbd
00000360: 373f 573d f824 f9bd 9325 eb3c 9c3c 9e3d
00000370: 37b6 393d 50b6 03be 4925 e3bc bd4b debc
00000380: 3ef6 913d e7c5 fabd 9497 61b9 4044 8b3c
00000390: bfd7 033e 49a8 2abd ffb8 63bd 0e87 21bd
000003a0: 5e70 043d 96f3 afbc 1747 a1bd 6e5e 12be
000003b0: 8173 223c 3f92 10bd 34f6 72bb 92a4 a0bd
000003c0: b308 5e3c f219 cb3d 7b77 05be 58f3 edbd
000003d0: 9a36 2fbd ea3d a43d 02a1 b4bd 6864 80bc
000003e0: 86bf dabd 9922 a4bd a3fe c0bd 93d6 0f3d
000003f0: 92be 783d aba8 ebbb a36b e7bc 1d58 2b3d
-0.06686296 0.060924165 -0.07580999 -0.04122747 -0.05640236 -0.16044371 0.037920494 -0.06469374
-0.049448576 -0.18906642 -0.08283973 0.038297217 -0.09974208 0.02945545 -0.0868214 -0.1644125
-0.007952401 0.12415315 -0.073208496 -0.09801865 0.032885697 -0.06031609 -0.030911857 -0.14330366
0.08183732 -0.11572147 -0.10956138 0.0964767 0.031957787 -0.01787896 0.15052009 0.10568443
0.13974562 0.05834049 -0.06384019 0.0035000506 0.04254815 0.13877559 -0.0085548395 0.11110205
0.10040519 0.015726805 0.113554664 -0.07151548 0.16216707 -0.14124884 -0.17249843 -0.00030132622
0.046071872 -0.07296306 -0.1457589 -0.034275576 0.07279859 0.11590762 0.028534746 0.07476392
-0.04725559 -0.07934735 -0.07154015 0.021644007 0.098276965 -0.15162267 -0.047245767 -0.036455225
-0.03693114 -0.0894259 0.06585877 -0.06553609 0.12586506 -0.027635122 0.056430515 0.09208102
-0.010927962 0.14778979 -0.04059883 -0.08978642 -0.038584992 0.06387197 0.020249281 -0.08536683
0.014457385 -0.058849256 0.07457757 0.090558946 -0.16369969 -0.062442224 0.069264084 0.032488167
-0.13629833 0.030392693 0.03356795 -0.15483046 -0.056802724 -0.05805134 -0.14300668 -0.12112336
-0.12315574 -0.12574695 0.12152642 -0.030315423 -0.19125742 0.037621636 0.013070593 -0.020270968
-0.0801238 -0.014945668 -0.13072756 -0.047284037 0.068990104 0.116219245 -0.024555884 0.13524061
-0.07590975 -0.15024894 0.08743881 0.09258193 0.018493274 -0.039706405 0.068851195 -0.13212688
0.04388395 0.10711931 0.024305915 -0.026783362 -0.06774726 -0.012078357 -0.05614522 0.05785228
-0.12449022 0.13474849 -0.03597902 0.022360928 -0.056516483 -0.02157322 -0.011099776 -0.08006453
0.030656204 -0.103436515 -0.08373865 0.0773042 0.14338171 -0.004656098 -0.02971602 -0.084675394
-0.1036744 0.14526597 -0.0036940798 -0.09948308 -0.08051606 -0.017861819 0.1413105 -0.12502454
-0.022258282 -0.11269678 0.04390599 0.058163982 -0.066320024 -0.004413617 0.03570129 0.11863788
0.14444487 0.19837005 0.031410564 -0.047080956 -0.025097903 -0.0821199 -0.0174557 0.091795616
-0.026528955 -0.09145154 -0.0849573 0.04161485 -0.07549215 -0.12959759 -0.031076364 -0.0343304
0.09103566 0.028999604 -0.12908734 -0.024307836 0.056440666 -0.0775181 0.08292062 -0.05580681
-0.06021878 -0.14607267 -0.058513276 -0.1117098 -0.04502327 -0.021742681 -0.10283501 -0.08129219
-0.067799054 0.15780982 -0.086860456 0.03415727 0.11183635 0.0043858257 -0.037568104 -0.10176053
-0.09729749 -0.080221556 -0.042691592 0.12317743 0.0700514 -0.022661697 -0.16094759 0.0043488196
-0.10216221 0.049977995 0.021992216 -0.07891498 0.092804804 -0.052495122 0.068995565 -0.0835677
0.05255052 -0.12165254 0.02870444 0.07726404 0.04533979 -0.12862515 -0.02772774 -0.027135724
0.07127045 -0.12244778 -0.0002151414 0.017000318 0.1287527 -0.041664395 -0.055596348 -0.03943544
0.032333724 -0.021478456 -0.078748874 -0.14293835 0.009915234 -0.03529572 -0.0037073018 -0.07843889
0.013551879 0.09917058 -0.1303386 -0.1161868 -0.04277668 0.08019622 -0.08819772 -0.015672877
-0.106810614 -0.080144115 -0.09423568 0.035116743 0.060728617 -0.0071917376 -0.028249567 0.04183208

combined.3.bias f4 [64]
00000000: 1926 3f3d d011 8f3d 7461 8b3c 7cdf a43d
00000010: d780 dc3d ea7b 863d ea09 0b3e 93b9 823d
00000020: 1418 843d 26c0 b73d d2e1 563d a75d 083e
00000030: 51c9 5a3d 8114 cb3d e02b a83d 42c2 8b3d
00000040: c658 b73d 0f39 2d3d e351 d63d 2e3b ba3d
00000050: f528 9a3d 5a78 b73d 4908 b03d 4ec4 793d
00000060: 8356 793d 0ffa ae3d 76b7 e63d 69c8 c13d
00000070: 1dee c23d 52f4 e9bb a2f4 b53d 74f6 923b
00000080: 4079 913d bc6d 283d 55be 5e3d ad01 763d
00000090: caee 933d 2b11 9f3d fce4 e63d 8df3 fe3d
000000a0: 2f58 923d 88d7 bb3d be3a 633d 3289 8f3d
000000b0: ba9d 943d df64 f13d 1746 a23d 7600 453d
000000c0: 8e76 da3d 1ea0 f039 b638 8e3d 1914 7e3d
000000d0: b297 3a3d 2d70 953d 0f2f bb3d 90c0 ae3d
000000e0: 7a2c 283d 1e0a 4f3d ba49 b03d b26b b63d
000000f0: 723d 803d 2f61 4a3d b072 c03d d8bd 103d
0.046667192 0.06985819 0.017014243 0.08050439 0.10766762 0.065666035 0.13578 0.06383052
0.06449905 0.08972196 0.052461453 0.13316976 0.053414647 0.0991602 0.082114935 0.06824161
0.08952479 0.042290743 0.104648374 0.09093319 0.07527343 0.08958502 0.0859533 0.060978226
0.06087352 0.08543789 0.11265461 0.09462053 0.09518073 -0.007139721 0.08884551 0.004484946
0.07103205 0.041120276 0.054380734 0.060060192 0.0722328 0.077669464 0.11274144 0.124487974
0.07145726 0.09171969 0.055475943 0.0700859 0.072566465 0.11786818 0.07923525 0.048096143
0.10667144 0.00045895664 0.069444105 0.062030885 0.045554824 0.072967865 0.09139835 0.08532822
0.04105804 0.050546758 0.08607812 0.0890726 0.0626172 0.049409088 0.09396875 0.0353373

combined.6.weight f4 [1, 64]
00000000: 41e0 3cbd 9d84 6e3d 8237 b0bd 3d46 8ebd
00000010: 561c 45bd 7536 823d e487 50bd caac 523d
00000020: 2626 94bd dde4 92bd 3b41 dc3c 6c2e 46bd
00000030: 0620 afbd 001c 433d 8b3b 6e3d 75d2 8dbd
00000040: 9c97 80bd e4fb 473d 5dd3 1c3d 1878 96bd
00000050: 1dbe 2a3d bfc3 9dbd 7b78 69bd 5ee6 243d
00000060: e085 693d 9f72 93bd bffc c7bd e654 363d
00000070: 7db4 563d bf40 963d 775b 6b3d 1b9e 463d
00000080: fc73 4d3d a22e 8dbd 6199 853d 0378 04be
00000090: 8a44 acbd 304e 2a3d 0443 383d fe09 86bd
000000a0: 4bd1 333d 9218 9abd cd01 c9bd 7a74 3b3d
000000b0: e058 803d d11c 7ebd b396 bfbd 0229 c3bd
000000c0: 42f1 88bd 4b63 d93d 5df9 653d 5680 b2bd
000000d0: be97 2e3d c448 213d 1936 a8bd d464 89bd
000000e0: aa6d 393d e9e5 98bd 42a1 273d ccb3 c8bd
000000f0: f80b acbd c0bb c4bd c3ca 623d 429f b23d
-0.046112303 0.05823194 -0.08604337 -0.06946991 -0.048122726 0.06358043 -0.050910845 0.051434316
-0.07233839 -0.071725585 0.026886573 -0.048384115 -0.0855103 0.047634125 0.058162253 -0.06924907
-0.06278917 0.048824206 0.03828751 -0.07347125 0.041685212 -0.07703351 -0.056999665 0.040258758
0.05701244 -0.071995966 -0.09765004 0.04451456 0.05241822 0.07336568 0.057460275 0.048490625
0.05015944 -0.0689366 0.06523395 -0.12936406 -0.0841151 0.04157847 0.044985786 -0.065448746
0.04390077 -0.07524218 -0.098147966 0.045765378 0.062669516 -0.0620392 -0.093549155 -0.09529306
-0.06686641 0.10614642 0.056146014 -0.087158844 0.04262518 0.039376035 -0.08213443 -0.067086846
0.0452706 -0.07465727 0.04092527 -0.097999185 -0.0840072 -0.09606123 0.05536915 0.08721782
