data/models/nov12_24_undersample/fold2_epoch_models/epoch_9_model.pt (torch, 775567 bytes, 9 tensors)

layers1d.0.weight f4 [128, 1280]
0	0xbe117d5e	-0.1420798
1	0x3d61b7c2	0.055106886
2	0x3ba4468a	0.0050132917
3	0xbd763be7	-0.06011572
4	0xbd258852	-0.04041321
5	0x3c773b30	0.015089795
6	0xbdab69de	-0.08369802
7	0xbd2182c5	-0.039431352
8	0x3cc2a361	0.023759546
9	0xbb3ccf5d	-0.0028810122
10	0x3b69761d	0.003562338
11	0xbd1cbf6d	-0.038268495
12	0x3d3a14af	0.04542988
13	0x3d5cf8f3	0.053948354
14	0xbc61e329	-0.013787069
15	0x3c25d8f8	0.01012253
16	0x3ca42dfd	0.02004146
17	0xbd82a3d8	-0.06378907
18	0xbd4bea34	-0.0497839
19	0x3c5618c1	0.013067425
20	0x3d678efa	0.056532837
21	0xbb8328f0	-0.004002683
22	0x3e2f28cc	0.17105407
23	0xbc872f69	-0.0165021
24	0xbd20575e	-0.03914582
25	0x3c466377	0.012108675
26	0xbb8acc82	-0.004235805
27	0x3da4acb1	0.08040751
28	0xbcd72ed7	-0.026267452
29	0x3c840ec0	0.016120315
30	0x3af2ad00	0.0018514693
31	0x3cc68950	0.024235398
32	0xbc404c24	-0.011736903
33	0xbd8bb9f8	-0.0682258
34	0x3c526cf6	0.012843361
35	0x3d9fb8c2	0.07798912
36	0x3c8c5e70	0.017134875
37	0xbcecc5ae	-0.028902855
38	0x3c6061c0	0.01369518
39	0x3a4a3d95	0.0007714865
40	0x3c8cab2d	0.017171467
41	0xbdc18e1b	-0.094509326
42	0xbd35d937	-0.044396605
43	0x3d037319	0.032092188
44	0x3d32bf71	0.043639604
45	0x3e1a6d6a	0.150808
46	0x3bda1410	0.0066552237
47	0x3cf3190c	0.02967503
48	0x3d331097	0.043716993
49	0x3b70613c	0.003667905
50	0xbc431c8a	-0.01190866
51	0xbc8a1faf	-0.016860811
52	0xbd794e83	-0.06086589
53	0xbd6162fc	-0.05502604
54	0xbc220d42	-0.009890856
55	0x3c95a48b	0.018266937
56	0x3d47b711	0.04875857
57	0x3c705d81	0.014670731
58	0xbd5d354f	-0.054005917
59	0x3cfca5d2	0.030840788
60	0x3dd9522d	0.10611377
61	0x3d305857	0.043052997
62	0x3c00fd12	0.007872837
63	0x3d46d9bd	0.048547495
64	0xbb24d377	-0.0025150457
65	0x3d5c3cba	0.05376885
66	0xbddb3b6a	-0.10704692
67	0xbcbac67f	-0.022799728
68	0xbb4b2cd9	-0.0031002073
69	0xbd6cafc2	-0.057784803
70	0x3d337c1c	0.04381953
71	0x3d8c792a	0.06859048
72	0xbc1a60c7	-0.009422488
73	0x3db585ec	0.08863434
74	0x3da52a01	0.08064652
75	0x3dd59985	0.10429672
76	0x3d377e7c	0.04479836
77	0xbd518979	-0.051156495
78	0xbd3b7cb0	-0.04577321
79	0xbd17fb9f	-0.0371052
80	0xbbdde14a	-0.0067712413
81	0x3d151c9e	0.036404245
82	0xbd06e79a	-0.032935716
83	0x3c4f7ac1	0.012663544
84	0x3dc8e2fd	0.098089196
85	0xbd0af1b0	-0.033921897
86	0xbcb760f8	-0.022385105
87	0xbc3a7103	-0.011379483
88	0x3cfe0b68	0.031011298
89	0xbc3e7981	-0.0116256485
90	0x3d9ee1b7	0.077578954
91	0xbca9d984	-0.020733602
92	0x3c9d21c3	0.019181138
93	0xbc4c97a3	-0.012487325
94	0x3d04de1b	0.03243838
95	0x3c1ea79c	0.009683516
96	0xbd130781	-0.03589583
97	0xbce8fb7e	-0.028440233
98	0xbda5d77c	-0.08097741
99	0x3d9dd36b	0.077063404
100	0xbd9354e6	-0.071939275
101	0x3c1d5645	0.009603088
102	0x3d54382e	0.05181139
103	0xbd7842a6	-0.060610436
104	0x3d22ac84	0.039715305
105	0xbd52fcb6	-0.051510535
106	0x3c8dce6c	0.017310344
107	0x3da1f5b4	0.07908192
108	0x3ddce26f	0.10785376
109	0xbac948d6	-0.001535679
110	0xbd218c75	-0.03944059
111	0x3d6e2bad	0.05814712
112	0x3d6f4e1a	0.058424093
113	0x3d950499	0.072762676
114	0x3d544d22	0.051831372
115	0x3d25b630	0.04045695
116	0xbd18caa5	-0.037302632
117	0x3e338e2e	0.17534706
118	0xbd2b7917	-0.041863527
119	0xbbee1673	-0.0072658597
120	0x3c4e2a58	0.012583338
121	0x3cdbe64c	0.026843213
122	0xbd178f1f	-0.037001725
123	0xbdfcea70	-0.12349403
124	0x3d2989f1	0.041391317
125	0xbd561af4	-0.0522718
126	0xbd9d3177	-0.0767545
127	0xbd920825	-0.0713046
128	0xbbd5f53c	-0.0065294784
129	0x3c043be9	0.008070924
130	0x3d724bd9	0.059154365
131	0xbd35af40	-0.044356585
132	0xbdbd0a9c	-0.09230539
133	0x3ce72ecb	0.028220555
134	0xbd8847ed	-0.06654344
135	0xbd70bbee	-0.058772974
136	0xbdc15a9f	-0.09441113
137	0x3cef23f7	0.029191954
138	0x3dc61de7	0.09673672
139	0xba95d0ba	-0.0011430003
140	0x3cb20fcd	0.02173605
141	0x3d63914d	0.05555849
142	0x3cbb5844	0.022869237
143	0x3c37dfc2	0.011222782
144	0xbcc37416	-0.023859065
145	0x3d5109c1	0.051034693
146	0xbc01079e	-0.007875351
147	0xbd02fdcb	-0.031980317
148	0xbca7210b	-0.020401498
149	0xbcc687f2	-0.024234746
150	0xbdbdf235	-0.09274713
151	0xbce887e2	-0.028385106
152	0xbd0404db	-0.032231193
153	0xbce6c222	-0.028168742
154	0xbc8ab0bf	-0.016929982
155	0xbd9751f5	-0.07388679
156	0xbc829451	-0.015939863
157	0x3bd5d71f	0.0065258886
158	0x3db05a74	0.086110026
159	0xbcdb3be4	-0.026761957
160	0x3da2c58d	0.07947836
161	0x3b7c99f8	0.003854392
162	0x3d139a74	0.03603597
163	0xbc59f920	-0.013304025
164	0x3c559280	0.013035417
165	0x3d33b636	0.04387494
166	0xbb80b62b	-0.003927966
167	0x3b5635bc	0.0032685837
168	0xbcbf2b33	-0.023336029
169	0xbc17c205	-0.009262566
170	0xbb8f0753	-0.004364887
171	0x3ccca291	0.024979861
172	0xbd2956b2	-0.041342445
173	0xbd9ebbf2	-0.077506915
174	0x3b7ea3d9	0.0038854985
175	0x3d2ede40	0.042692423
176	0xbcb9d8b9	-0.02268635
177	0x3cf9ca94	0.030492105
178	0x3d30f6bf	0.043204065
179	0xbd1b80a6	-0.037964486
180	0xbd17039f	-0.036868688
181	0x3da41168	0.080111325
182	0xbd11c9a6	-0.035592698
183	0x39bb6bfd	0.00035747877
184	0xbd792e24	-0.06083502
185	0xbd16f302	-0.036852844
186	0xbd29091c	-0.041268453
187	0x3da63b0f	0.08116733
188	0x3e0c8c47	0.13725387
189	0xbd6f98c1	-0.058495287
190	0x3cad2efd	0.02114057
191	0x3bf21156	0.0073873205
192	0xbd553108	-0.052048713
193	0x3c32c3dc	0.010910954
194	0xbd4882ae	-0.04895275
195	0xbe26e07b	-0.1629657
196	0x3d47e0db	0.048798423
197	0x3d484b95	0.048900206
198	0xbdbc334b	-0.09189471
199	0x3df0fa9a	0.117665485
200	0xbc93a616	-0.018023532
201	0xbd4216ef	-0.047385152
202	0xbcbfe607	-0.023425115
203	0x3c45c469	0.012070754
204	0xbc89f70f	-0.01684144
205	0xbd9196ef	-0.071088664
206	0x3d088a7a	0.033335187
207	0xbc61f124	-0.013790403
208	0x3d2d2f10	0.04228121
209	0xbb2566ab	-0.0025238197
210	0xbd356aa5	-0.044291157
211	0xbce812ec	-0.028329335
212	0x3cfcb034	0.030845739
213	0x3b671417	0.0035259777
214	0xbd9af8d6	-0.07566993
215	0x3cc178e9	0.023617225
216	0x3df487ef	0.1193999
217	0x3da8f402	0.08249666
218	0xbd897fd3	-0.06713834
219	0xbd38c97a	-0.045114018
220	0x3d8439b9	0.06456322
221	0xbe051f89	-0.13000311
222	0x3d002ea7	0.03129449
223	0x3d5f7d07	0.054562595
224	0x3d82a5f7	0.063793115
225	0x3ba36986	0.0049869446
226	0x3d5aa722	0.053382047
227	0x3d46b09a	0.048508264
228	0xbc5c78a1	-0.013456495
229	0xbd3ad446	-0.045612596
230	0x3bb11c21	0.0054049646
231	0x3d8ce2fd	0.06879232
232	0x3c45e674	0.01207887
233	0x3cf172da	0.02947371
234	0xbc774b90	-0.015093699
235	0x3cd8fb5f	0.02648705
236	0xbda3f96c	-0.08006558
237	0xbd776868	-0.060402304
238	0xbc4afa68	-0.012388803
239	0xbcc35f38	-0.023849115
240	0xbd0cff1e	-0.034422986
241	0xbd340dbe	-0.043958418
242	0xbc87598a	-0.016522188
243	0xbc9e321b	-0.019311002
244	0x3c94a16f	0.018143384
245	0x3cff360e	0.031153705
246	0xbe15dc5d	-0.14634843
247	0x3d0a5310	0.03377062
248	0x3dc44607	0.09583669
249	0xbcdd50cd	-0.027016068
250	0x3db04829	0.086075135
251	0xbdd18c21	-0.102318056
252	0x3d095a88	0.033533603
253	0x3c936111	0.01799062
254	0x3caff292	0.021477971
255	0x3c657ab7	0.014006308

layers1d.0.bias f4 [128]
0	0xbd6792f4	-0.05653663
1	0xbc2f09e4	-0.01068351
2	0xbd3b8e67	-0.045790102
3	0xbcbcce89	-0.023047702
4	0xbca4a556	-0.02009837
5	0xbc3857b9	-0.011251383
6	0xbd1ef108	-0.038804084
7	0xbbc66e52	-0.0060556317
8	0xbd33953d	-0.043843497
9	0xbc5395e8	-0.012914158
10	0xbd20698c	-0.039163157
11	0xbd31ee2e	-0.043440036
12	0xbc5e8b71	-0.01358305
13	0xbd93a1d5	-0.072086014
14	0xbbbcad72	-0.005757981
15	0xbc8c05ad	-0.01709255
16	0xbd00b4ea	-0.031422533
17	0xbce4054b	-0.027834555
18	0xbd434dc3	-0.04768158
19	0xbcfd6696	-0.030932706
20	0xba9fc30e	-0.0012188868
21	0xbca69755	-0.020335833
22	0xbd41ffe6	-0.047363184
23	0xbce9d237	-0.028542621
24	0xbcca96a4	-0.024730034
25	0xbc2411cc	-0.010014009
26	0xbd0511a5	-0.03248753
27	0xbcd35c4c	-0.025800847
28	0xbd1f5421	-0.03889859
29	0xbd244509	-0.0401049
30	0xbcb390bb	-0.021919599
31	0xbce009ba	-0.027348388
32	0xbd7bd534	-0.061482623
33	0xbcf705a1	-0.030154051
34	0xbcd0a496	-0.025469106
35	0xbd674ed8	-0.056471676
36	0x3a67aaa1	0.00088373764
37	0xbd5d3c64	-0.05401267
38	0x3c7dd7ec	0.015493374
39	0xbd3d64d5	-0.04623874
40	0xbc146b28	-0.009058751
41	0xbc9f1c77	-0.019422753
42	0xbc238f56	-0.009982904
43	0xbd461fe3	-0.048370253
44	0xbc3b0f2c	-0.0114171915
45	0xbd9472ce	-0.0724846
46	0xbd0d5883	-0.03450824
47	0xbd3a456b	-0.04547636
48	0xbd716de5	-0.058942694
49	0xbd45a1f1	-0.048250142
50	0xbc7250ba	-0.0147897545
51	0xbc87f1fe	-0.016594883
52	0xbd41d0ad	-0.04731815
53	0xbd2f43ed	-0.04278939
54	0xbd1cc7be	-0.038276426
55	0xbcd72899	-0.026264476
56	0xbcb04539	-0.021517383
57	0xbc39abb9	-0.011332446
58	0xbd9c26a0	-0.07624555
59	0xbd41126a	-0.0471367
60	0xbbe11fd5	-0.0068702498
61	0xbd0aee05	-0.0339184
62	0xbd46803d	-0.04846214
63	0xbc20268e	-0.009774817
64	0xbcf0cd4c	-0.029394768
65	0xbd422817	-0.047401514
66	0xbd27483b	-0.04084037
67	0xbd2dba61	-0.042414073
68	0xbd03af91	-0.032149855
69	0x3b558dd3	0.0032585755
70	0xbc9f2e09	-0.019431131
71	0xbd38c469	-0.045109186
72	0xbd4b44d5	-0.04962619
73	0xbcf27b9a	-0.029599953
74	0xbd447635	-0.047964294
75	0xbd0e3684	-0.03471996
76	0xbd210342	-0.039309748
77	0xbca4a70b	-0.020099184
78	0xbca76ccf	-0.020437626
79	0xbca89707	-0.020579828
80	0xbbe6c898	-0.0070429556
81	0xbb54e346	-0.0032484098
82	0xbd0ed51a	-0.0348712
83	0xbcfb21e6	-0.030655812
84	0xbc06ad7c	-0.008220073
85	0xbcd306de	-0.02576011
86	0xbc828bf6	-0.01593588
87	0xbcd49b79	-0.025953041
88	0xbc72ac68	-0.014811613
89	0xbd708372	-0.058719106
90	0xbc4c4e40	-0.012469828
91	0xbc3f0c89	-0.011660703
92	0xbd899511	-0.06717885
93	0xbc9cf875	-0.019161442
94	0xbd86610d	-0.0656148
95	0xbcca16f2	-0.024669144
96	0xbd5d6657	-0.054052677
97	0xbd8d877e	-0.06910609
98	0xbc404a21	-0.011736424
99	0xbd7533e2	-0.059863932
100	0xbd200f5c	-0.039077148
101	0xbd3bd43f	-0.04585671
102	0xbd5c70bc	-0.05381845
103	0xbd286c46	-0.041118883
104	0xbd5240b3	-0.051331233
105	0xbc70af4c	-0.0146902315
106	0xbd695579	-0.05696628
107	0xbb937847	-0.004500422
108	0xbcb4c5f3	-0.022067046
109	0xbcfe1cc7	-0.031019581
110	0xbd2a819c	-0.04162751
111	0xbbe2e646	-0.0069244234
112	0xbd0e436a	-0.03473226
113	0xbc1a6bfb	-0.009425159
114	0xbce1dfad	-0.027572477
115	0xbd0a73e0	-0.033801913
116	0xbcf5ebcf	-0.030019669
117	0xbd63f6ea	-0.055655397
118	0xbd77bd23	-0.06048311
119	0xbd5aa19d	-0.053376783
120	0xbcaf6435	-0.021410087
121	0xbc7cc301	-0.015427352
122	0xbca7983d	-0.020458335
123	0xbd05848e	-0.032597117
124	0xbd2ffd08	-0.04296592
125	0xbd0ba18d	-0.034089614
126	0xbd0d8839	-0.03455374
127	0xbd858c2a	-0.06520875

layers1d.3.weight f4 [128, 128]
0	0xbda3eeb9	-0.08004517
1	0xbd6cf300	-0.05784893
2	0xbcbe3610	-0.023219138
3	0xbdbf0635	-0.09327356
4	0xbc0ba1bb	-0.008522446
5	0x3df73810	0.1207124
6	0xbdf84ed3	-0.121244095
7	0x3d1b22b3	0.03787489
8	0xbdb33833	-0.087509535
9	0xbd89d03e	-0.06729172
10	0x3a0100ef	0.00049210986
11	0xbdb76b3b	-0.089559995
12	0x3dc6f3d6	0.09714477
13	0x3d1d7626	0.038442753
14	0xbde277c4	-0.11058
15	0xbdf37488	-0.11887461
16	0xbde6611c	-0.11248991
17	0xbd9c5bb3	-0.07634678
18	0xbd9a3454	-0.07529512
19	0xbd57141e	-0.05250942
20	0x3db8204c	0.08990535
21	0xbd09912a	-0.033585705
22	0x3d945997	0.072436504
23	0xbd5c25c0	-0.05374694
24	0xbcb6360b	-0.022242567
25	0xbc9cfa32	-0.019162271
26	0x3dbe992e	0.093065605
27	0x3e49b06b	0.19696204
28	0xbd8e9c85	-0.069634475
29	0x3d44e793	0.04807241
30	0x3d412fde	0.04716479
31	0x3d4f019d	0.050538648
32	0x3c8773c5	0.016534695
33	0xbe031d0e	-0.12804052
34	0x3e204cb5	0.15654261
35	0x3d2d05a8	0.042241722
36	0xbd279269	-0.040911112
37	0x3d02ceec	0.031935617
38	0xbe11214d	-0.1417286
39	0xbd364c30	-0.04450625
40	0xbce24496	-0.027620595
41	0xbc855555	-0.016276041
42	0xbd5e47eb	-0.054267805
43	0xbdcd89d4	-0.10036054
44	0x3d881193	0.06643977
45	0x3e2ca04b	0.16858022
46	0xbdda19ed	-0.10649476
47	0x3dfbc11e	0.122926936
48	0x3d2da178	0.042390317
49	0xbd099ec1	-0.033598665
50	0xbd051a97	-0.03249606
51	0x3d8aafea	0.06771834
52	0x3d6975cf	0.056997117
53	0x3d8d9c44	0.06914571
54	0xbda28514	-0.07935539
55	0xbd8a7a11	-0.067615636
56	0x3d94edcd	0.072719194
57	0xbd97fcf6	-0.07421295
58	0x3ddae384	0.106879264
59	0xbce3227e	-0.027726408
60	0xbd817570	-0.063212276
61	0xbb5c3b87	-0.0033604817
62	0xbd671c6c	-0.05642359
63	0x3e0643b7	0.13111769
64	0x3bf02f14	0.007329831
65	0x3d05abc3	0.032634508
66	0x3e077529	0.13228287
67	0x3d781423	0.06056608
68	0x3da42226	0.08014326
69	0xbd6f9606	-0.058492683
70	0x3dd24eb9	0.102689214
71	0xbb510167	-0.0031891705
72	0x3b80c98b	0.003930276
73	0x3b50f064	0.0031881565
74	0xbc8a2695	-0.0168641
75	0x3bde3628	0.0067813583
76	0xbdad494b	-0.08461245
77	0x3cee7641	0.029109122
78	0xbda680b4	-0.08130017
79	0xbda4c60f	-0.08045589
80	0x3d7d1217	0.06178483
81	0xbbb99b4d	-0.0056642652
82	0x3e25fa31	0.16208722
83	0xbb127222	-0.002234586
84	0x3cc8fa2d	0.024533356
85	0x3c30a78c	0.010782134
86	0x3cc2cebe	0.023780223
87	0x3de3a445	0.11115316
88	0xbcadab8b	-0.021199962
89	0xbdc77000	-0.09738159
90	0x3dc10bb6	0.09426062
91	0xbd7ea644	-0.062170282
92	0x3d76fd3d	0.0603001
93	0x3c8601d5	0.016358295
94	0xbd6cb0de	-0.05778586
95	0xbd2b4ff2	-0.04182429
96	0xbd586c96	-0.05283793
97	0x3a88ff9e	0.0010452156
98	0x3d40fd55	0.047116596
99	0x3d3ee0a9	0.04660097
100	0xbdc911e4	-0.098178655
101	0x3e48e44a	0.19618335
102	0xbdb337d3	-0.08750882
103	0xbd8a3afb	-0.06749531
104	0x3d11bf57	0.035582867
105	0x3db3cfaf	0.08779847
106	0x3d52946c	0.051411077
107	0x3db94c36	0.09047739
108	0xbd9acd75	-0.07558719
109	0x3d2ded95	0.042462904
110	0xbd469221	-0.048479203
111	0xbc8bcf8c	-0.01706674
112	0xbda26162	-0.079287305
113	0xbd6c0317	-0.057620134
114	0x3d623f40	0.0552361
115	0xbcc360c1	-0.023849847
116	0x3c3cdcca	0.01152725
117	0xbccff3e3	-0.025384849
118	0x3e1774e3	0.14790682
119	0xbcfa619b	-0.03056412
120	0x3cd044ac	0.02542337
121	0xbda154a7	-0.07877474
122	0xbcaa396f	-0.02077934
123	0xbd9e37d7	-0.07725494
124	0x3dddabe5	0.10823802
125	0xbcbabc65	-0.022794912
126	0x3d30cf72	0.043166585
127	0x3dc37e8e	0.09545623
128	0x3d45b2c9	0.048266206
129	0x3d53cf8e	0.05171161
130	0xbd94c469	-0.07264025
131	0xbcbf0883	-0.023319488
132	0x3cf05d57	0.029341383
133	0x3ccd74c4	0.025080092
134	0x3cd54595	0.026034156
135	0x3cda79de	0.026669439
136	0x3c86e796	0.01646785
137	0xbdd2b85c	-0.1028907
138	0x3d914ee4	0.07095125
139	0xbccd7468	-0.02507992
140	0xbd644c8a	-0.055737056
141	0x3a5f433e	0.0008516795
142	0xbd9b5af3	-0.075857066
143	0xbd8a2162	-0.067446485
144	0xbc379cd0	-0.011206821
145	0xbdd83dc4	-0.10558656
146	0xbda905df	-0.08253073
147	0xbdea6638	-0.11445278
148	0x3d50047c	0.050785527
149	0x3df15ce4	0.117852956
150	0x3e25d849	0.16195787
151	0x3e07f1c8	0.13275826
152	0xbd6aa13c	-0.05728267
153	0xbd887f72	-0.06664933
154	0x3de9edba	0.11422296
155	0x3ce93242	0.028466348
156	0xbd366f64	-0.044539824
157	0x3d5e8dc4	0.054334417
158	0x3e016c1d	0.12638898
159	0x3d834db7	0.06411307
160	0x3d731a7e	0.059351437
161	0x3b9bd451	0.0047555347
162	0xbd055550	-0.032552063
163	0x3cee5f79	0.02909826
164	0xbe234753	-0.15945177
165	0xbc9adc72	-0.018903945
166	0xbca1611d	-0.019699628
167	0xbd76548c	-0.060139224
168	0x3d0ce6c4	0.034399763
169	0xbdc060ab	-0.09393438
170	0xbbeba609	-0.007191424
171	0xbd6a3c63	-0.057186496
172	0x3d9dc5fb	0.077037774
173	0x3d9f4de1	0.07778526
174	0xbcc9b90f	-0.024624376
175	0x3d36f92d	0.044671226
176	0x3d1c384a	0.03813962
177	0xbd402d4a	-0.04691819
178	0xbda3d0d5	-0.07998816
179	0x3dbe6b65	0.09297828
180	0x3c92e2eb	0.017930469
181	0xbd172ce6	-0.036908053
182	0xbdbbbf65	-0.09167365
183	0xbd32fae0	-0.043696284
184	0x3d9128d6	0.07087867
185	0xbdb607d3	-0.08888211
186	0x3dcdc6d1	0.10047687
187	0x3d0c3415	0.034229357
188	0x3b00f1ec	0.0019675447
189	0xbd231196	-0.039811693
190	0xbd85e31e	-0.0653746
191	0xbaa2d4ad	-0.0012423001
192	0xbce3a6af	-0.027789442
193	0xbcaa8cf4	-0.020819165
194	0x3dea57fd	0.11442564
195	0x3e07cdf1	0.13262154
196	0x3d72ee37	0.05930921
197	0x3b9c9199	0.004778099
198	0xbc2d014e	-0.010559393
199	0x3c0112d7	0.007878027
200	0x3d4b4bfb	0.049633007
201	0xbe47ccf5	-0.19511779
202	0xbd7b7f16	-0.061400495
203	0x3de00ec4	0.10940316
204	0xbce87d9c	-0.028380208
205	0x3d8c6ebc	0.068570584
206	0xbd162423	-0.036655556
207	0x3e10fb61	0.14158393
208	0x3d027b7b	0.03185604
209	0x3d016406	0.03158953
210	0x3cb273e5	0.021783778
211	0xbd11e2c5	-0.035616655
212	0xbde2daa9	-0.11076862
213	0xbda839f8	-0.08214182
214	0x3dd43ae8	0.10362798
215	0xbd2d8cd6	-0.04237064
216	0xbe1739f7	-0.14768206
217	0x3da6b459	0.08139867
218	0x3da0dfd8	0.07855195
219	0xbdca8041	-0.09887744
220	0x3e17a8a1	0.1481042
221	0x3a618284	0.0008602517
222	0xbe1492ab	-0.14509074
223	0xbdd999b1	-0.106250174
224	0xbd670eb6	-0.056410514
225	0xbd661263	-0.05616988
226	0x3d5a375d	0.053275455
227	0xbbbe0392	-0.0057987655
228	0xbdfba201	-0.12286759
229	0x3da76d87	0.081751876
230	0xbd947dcc	-0.07250556
231	0xbe1260fd	-0.1429481
232	0x3df6614b	0.12030276
233	0xbc88bdf1	-0.016692134
234	0x3ddbfe97	0.107419185
235	0xbd988c6a	-0.07448657
236	0x3c51b5e0	0.01279971
237	0x3e16726e	0.14692089
238	0xbd38c0aa	-0.045105614
239	0xbd8d351a	-0.06894894
240	0xbe02ece1	-0.12785675
241	0xbd8ba49a	-0.06818505
242	0x3dc773b5	0.09738866
243	0x3d7405f4	0.05957599
244	0xbde0c9e5	-0.10976008
245	0xbd15599d	-0.036462415
246	0x3cc8c7a7	0.024509264
247	0x3d535e93	0.051603865
248	0x3e114126	0.14185008
249	0xbd3df8fe	-0.046380036
250	0x3d1bcdee	0.038038187
251	0xbe03263b	-0.12807553
252	0x3df5cf9a	0.120024875
253	0xbdbcf194	-0.09225765
254	0x3c9e043a	0.019289125
255	0xbd4fdd6e	-0.05074828

layers1d.3.bias f4 [128]
0	0x3cba2147	0.022720946
1	0xbc28ae45	-0.010295455
2	0xbc5d1bc5	-0.01349539
3	0xbcb3c5b9	-0.021944867
4	0x3c42448c	0.011857163
5	0xbb161431	-0.0022900219
6	0xbd72f9c0	-0.05932021
7	0xbcf2853f	-0.029604552
8	0x3b97b4a3	0.004629688
9	0x3c1bb853	0.009504396
10	0x3cafed59	0.02147548
11	0x3bca905c	0.0061817598
12	0x3c4d4c1d	0.012530354
13	0x3b9a8561	0.004715607
14	0x3c9a9cdc	0.018873625
15	0x3c80b41a	0.01571088
16	0xbca2e4a0	-0.019884408
17	0x3c5f4bc5	0.013628905
18	0x3c856da3	0.01628763
19	0xbc5f64c0	-0.0136348605
20	0xbcce67bc	-0.025195949
21	0x3cb76e31	0.02239141
22	0x3c09f7ed	0.0084209265
23	0xbce53358	-0.027978584
24	0x3c91e1c1	0.017807843
25	0xbca0f3dd	-0.019647533
26	0xbc82e270	-0.015977114
27	0x3c163c74	0.009169687
28	0x3ca16ac8	0.019704238
29	0x3bfd9681	0.0077388887
30	0xbbcc0443	-0.006226094
31	0x3c428844	0.011873309
32	0x3c887184	0.016655691
33	0x3c40a255	0.011757453
34	0x3d7a2d03	0.061078083
35	0xbc5f36c7	-0.0136239
36	0x3c2f0a75	0.0106836455
37	0xbc929d50	-0.017897278
38	0xbb79b033	-0.0038099408
39	0x3c09e1a6	0.008415615
40	0x3cdc300b	0.026878377
41	0xbcbeb310	-0.023278743
42	0xbd855829	-0.06510956
43	0xbbab5160	-0.0052282065
44	0x3c7d5673	0.015462506
45	0x3d3d2195	0.046174604
46	0xbc81fac0	-0.015866637
47	0x3c867931	0.01641521
48	0xbccf24ec	-0.02528616
49	0xbc311631	-0.0108085135
50	0x3c43154d	0.011906934
51	0xbc8d0eee	-0.017219033
52	0x3ab3f4f3	0.0013729617
53	0x3cd76e7a	0.026297797
54	0xbcc696cc	-0.024241827
55	0xbc750e93	-0.014957088
56	0xbaa95efc	-0.0012921984
57	0x3c3dbef2	0.011581169
58	0x3c96d943	0.018414145
59	0xbd8b6353	-0.06806054
60	0xbc997aa6	-0.018735241
61	0xba3728e3	-0.00069869886
62	0xbc9cb0b9	-0.019127237
63	0x3c92cc1b	0.01791959
64	0xbd3453c8	-0.044025213
65	0xbc99e7c6	-0.018787276
66	0xbc00137e	-0.007817147
67	0xbd9597e8	-0.073043644
68	0x3c824e3c	0.015906446
69	0xbca833cd	-0.020532513
70	0xbd0ae03b	-0.03390525
71	0x3cefdbdc	0.029279642
72	0x3d38e6b5	0.045141894
73	0xbb3b901c	-0.0028619831
74	0x3d23f066	0.040024184
75	0xbc59b4f6	-0.013287773
76	0xbb889179	-0.0041677323
77	0xbbaaee89	-0.005216424
78	0x3c735139	0.014850908
79	0xbb77138a	-0.0037700855
80	0xbd4df9dc	-0.050287113
81	0xbacbf09d	-0.0015559379
82	0x3ca2b9ac	0.019863926
83	0xbccaca76	-0.024754744
84	0x3c8e7520	0.017389834
85	0xbd6bf652	-0.057607956
86	0x3d45812f	0.048218902
87	0xbc5d8f48	-0.01352293
88	0xbc9f782f	-0.019466488
89	0xbc875e90	-0.016524583
90	0x3b6416de	0.003480367
91	0x3ae6c3f4	0.0017606006
92	0xbbb9a8c3	-0.00566587
93	0x3d102239	0.035188887
94	0x38b7c747	8.763238e-05
95	0xbd124b50	-0.035716355
96	0x3c0940eb	0.008377294
97	0x3d111438	0.035419673
98	0xbbfb9aa8	-0.0076783486
99	0x3ce3d460	0.02781123
100	0xbda25373	-0.07926073
101	0xbc3e6aa7	-0.011622108
102	0x3cf85381	0.030313255
103	0xbce6d33b	-0.028176894
104	0xbb0fc988	-0.002194019
105	0x3cc33259	0.023827719
106	0x3c96af88	0.018394247
107	0xbd1ccec1	-0.038283113
108	0x3c069984	0.008215312
109	0x3ce7ee13	0.028311765
110	0x3b412ae1	0.002947502
111	0xbc9035cf	-0.017603783
112	0xbc979c9c	-0.018507294
113	0x3d48aa67	0.048990633
114	0xbc8119fd	-0.015759462
115	0xbcb7817e	-0.022400614
116	0x3cad3bbb	0.021146646
117	0xbc537766	-0.012906885
118	0x3c5ee916	0.013605377
119	0x3d0fe8d9	0.03513417
120	0x3c9e6d34	0.019339181
121	0xbbc74886	-0.0060816435
122	0xbd07f2ed	-0.033190656
123	0xbc0a2bdf	-0.008433311
124	0xbc23db91	-0.010001079
125	0x3c8623cb	0.01637449
126	0xbba629bb	-0.0050708926
127	0x3cf98844	0.030460484

combined.0.weight f4 [64, 128]
0	0x3c0a2414	0.008431453
1	0x3d0f31ed	0.034959722
2	0x3cd6af9f	0.02620679
3	0xbb799709	-0.0038084409
4	0xbc148325	-0.00906447
5	0xbc9c77a9	-0.019100027
6	0x3da68642	0.081310764
7	0x3d05a888	0.032631427
8	0xbddb060b	-0.10694512
9	0x3d1b452f	0.037907775
10	0x3de5e5f0	0.11225498
11	0xbbccff98	-0.006256055
12	0xba8a496f	-0.0010550449
13	0x3d53283a	0.051552035
14	0x3dce4a68	0.100727856
15	0x3cbfedda	0.023428846
16	0x3d080509	0.033207927
17	0x3c07f540	0.008298218
18	0x3cda7e26	0.02667148
19	0x3db502aa	0.08838399
20	0xbd800aef	-0.062520854
21	0xbe151f54	-0.14562732
22	0x3dc0aae6	0.09407596
23	0xbd9a1257	-0.07523029
24	0xbde96dad	-0.11397872
25	0x3d5ba0a4	0.053619996
26	0x3da2424f	0.079228036
27	0xbb66c9db	-0.003521553
28	0xbe5e9d57	-0.21739708
29	0xbdbae792	-0.091262
30	0xbd2b56e6	-0.04183092
31	0x3c2e3c5d	0.010634509
32	0xbd290c9d	-0.041271795
33	0x3d2fd655	0.042929012
34	0xbe10c83b	-0.14138882
35	0xbae8b73a	-0.0017754801
36	0xbcadf63c	-0.021235578
37	0xbe02143e	-0.12703034
38	0xbe005563	-0.12532572
39	0xbdcc921f	-0.09988808
40	0xbe65dbc9	-0.22447123
41	0xbd65fb1d	-0.056147683
42	0xbd91b1f6	-0.071140215
43	0x3d9de201	0.077091224
44	0xbe2823f2	-0.16419962
45	0xbd8e852b	-0.069589935
46	0xbd348812	-0.04407508
47	0x3d9efc16	0.07762925
48	0xbd24a046	-0.04019191
49	0x3d6a0577	0.057134118
50	0x3d2898ef	0.041161474
51	0x3d79ddc4	0.061002508
52	0xbd96c474	-0.07361689
53	0x3db3f9ef	0.087879054
54	0xbd9b61b1	-0.075869925
55	0x3d3ffded	0.046873022
56	0x3dc576e7	0.096418194
57	0xbc897f4f	-0.016784338
58	0xbd573118	-0.052537054
59	0xbdbd389b	-0.09239312
60	0xbd0d5d00	-0.03451252
61	0x3de60424	0.112312585
62	0xbdc781ba	-0.0974154
63	0x3cb43d0c	0.022001766
64	0xbdd5c53b	-0.10438009
65	0xbd32121e	-0.04347431
66	0xbe062ded	-0.13103457
67	0x3d7d97c6	0.06191232
68	0x3d60039a	0.054690935
69	0xbd03c500	-0.032170296
70	0x3dfc772c	0.12327418
71	0xbe07619f	-0.13220833
72	0xbe1c1de1	-0.15245773
73	0xbcd3b552	-0.025843296
74	0xbda7e7fe	-0.08198546
75	0x3e089602	0.13338473
76	0xbcc27d3c	-0.023741357
77	0x3da8b30c	0.082372755
78	0x3da09532	0.07840957
79	0xbd25c70e	-0.040473036
80	0xbddfd1b1	-0.10928667
81	0x3d192f9a	0.037398912
82	0xbc3a2754	-0.011361916
83	0x3d95700e	0.07296763
84	0xbe4270ea	-0.18988386
85	0x3ce3ef3c	0.027824037
86	0xbdacc456	-0.084358856
87	0x3cb168af	0.021656362
88	0x3db2fa18	0.08739108
89	0xbc9bc820	-0.019016325
90	0x3c557438	0.013028197
91	0x3dee8b1c	0.11647627
92	0x3bd144c0	0.0063863695
93	0xbe4c5b57	-0.19956718
94	0x3c9373c8	0.017999545
95	0xbb7e5c87	-0.0038812475
96	0xbcdd67bf	-0.027027009
97	0x3d3b452d	0.045720268
98	0x3bcbc141	0.006218106
99	0x3d2323ee	0.039829187
100	0xbb083831	-0.0020785446
101	0xbdd5cb79	-0.104392
102	0xbddae0ab	-0.10687383
103	0x3dad4c64	0.08461836
104	0xbd621f25	-0.055205483
105	0x3d833b6d	0.06407819
106	0xbddd9ad6	-0.10820548
107	0x3d321715	0.043479044
108	0x3d85aff3	0.065277
109	0xbe27b04a	-0.16375843
110	0x3c9c6203	0.019089704
111	0x3c29dd97	0.010367773
112	0xbd4d2fba	-0.050094344
113	0xbddfc36c	-0.10925946
114	0xbc4730e1	-0.01215765
115	0x3dc52e8f	0.09628021
116	0xbce80230	-0.028321356
117	0xbc9acafc	-0.018895619
118	0x39b100e8	0.00033760746
119	0xbc1acee0	-0.009448737
120	0x3c7f8586	0.015595799
121	0xbdcb40d4	-0.09924474
122	0x3dc4acd3	0.09603276
123	0xbcfc2804	-0.0307808
124	0x3da1383d	0.07872055
125	0x3d1e5a84	0.03866054
126	0x3da614dc	0.08109447
127	0xbdd83283	-0.10556509
128	0xbc281213	-0.0102582155
129	0xbdaf45d1	-0.08558238
130	0x3d30706d	0.043075968
131	0x3be80415	0.0070805647
132	0xbc3a0190	-0.011352912
133	0xbe0805c0	-0.13283443
134	0x3be78f96	0.0070666773
135	0xbd694f6a	-0.0569605
136	0x3da5ad0d	0.080896474
137	0xbe09614e	-0.13416025
138	0xbd8c9316	-0.06863992
139	0xbe0ae516	-0.13563952
140	0xbe0a1db3	-0.13487892
141	0x3d51973c	0.05116962
142	0xbdacb04a	-0.08432062
143	0xbdf34b5d	-0.11879609
144	0x3d82c016	0.06384294
145	0xbe48736c	-0.1957528
146	0xbdcc327a	-0.09970565
147	0xbbd791de	-0.006578668
148	0x3d4f5d8d	0.050626326
149	0x3d2312f6	0.039813004
150	0x3c897d83	0.016783481
151	0x3d5083d3	0.050906967
152	0xbba3a1b0	-0.00499364
153	0xbe1b6b25	-0.15177591
154	0xbd269b9f	-0.040675756
155	0x3cc8a70a	0.024493713
156	0xbbc5e356	-0.0060390634
157	0x3d08b107	0.03337195
158	0xbd044513	-0.032292437
159	0xbd9fcb0d	-0.07802401
160	0xbda1eb98	-0.07906264
161	0xbe0da248	-0.13831437
162	0xbc05589d	-0.008138803
163	0xbdb01a73	-0.08598795
164	0xbd54d4d4	-0.05196078
165	0x3ccd9258	0.025094196
166	0x3e08299b	0.13297121
167	0x3d815624	0.06315258
168	0x3de42168	0.11139184
169	0xbb2a509c	-0.0025987988
170	0xbd026a23	-0.0318395
171	0xbde3cbe5	-0.11122874
172	0x3d86375e	0.06553529
173	0x3d9f4ef5	0.07778732
174	0x3c92d0cb	0.017921826
175	0xbe147c24	-0.14500481
176	0x3dfd11bf	0.123569004
177	0xbe02fa93	-0.12790899
178	0xbddfefdf	-0.10934424
179	0xbd210745	-0.039313573
180	0x3e00fc57	0.1259626
181	0xbcb1fb7e	-0.021726366
182	0x3dffd333	0.12491455
183	0xbdb06a5b	-0.08614036
184	0xbdf8d9c7	-0.12150913
185	0xbd8967ff	-0.06709289
186	0x3c269825	0.01016811
187	0x3ba3afaa	0.004995306
188	0x3d6423e9	0.05569831
189	0xbe3e3b33	-0.1857727
190	0x3ddee0f1	0.10882748
191	0xbe08f211	-0.13373591
192	0x3cfc33ef	0.030786483
193	0xbe4527d2	-0.19253471
194	0xbc8a9407	-0.016916288
195	0x3cb3e554	0.021959938
196	0xbd60ea5c	-0.054911003
197	0xbba9e2b0	-0.005184494
198	0xbd4345d4	-0.047674015
199	0x3d8e7705	0.06956295
200	0x3d36717c	0.04454182
201	0xbdce945c	-0.10086891
202	0xbd1540ba	-0.03643868
203	0x380e4530	3.3919874e-05
204	0xbdba39b8	-0.0909304
205	0xbe394ce2	-0.18095735
206	0xbc0fa945	-0.008768384
207	0xbc4cd315	-0.012501498
208	0x3c0e93bc	0.008702215
209	0xbda4cb8d	-0.08046637
210	0xbd909017	-0.07058733
211	0x3b1b0983	0.0023656792
212	0xbd16b32d	-0.03679197
213	0x3cc349e2	0.023838941
214	0x3d1e50a3	0.03865112
215	0xbdb830e9	-0.08993704
216	0xbd9e5c0c	-0.077324
217	0x3d29ca6e	0.041452818
218	0xb7d1ec1a	-2.5024685e-05
219	0x3cc5b72d	0.024135197
220	0xbde5558f	-0.1119796
221	0x3cf6a21b	0.030106595
222	0xbdf53a06	-0.11973958
223	0x3d9a4779	0.075331636
224	0x3b8cac3e	0.004292994
225	0xbd1872db	-0.03721891
226	0xbd20d9b0	-0.039270103
227	0xbddb5cf6	-0.1071109
228	0x3ddf2851	0.108963616
229	0x3da0bf3f	0.07848977
230	0xbd35d63a	-0.044393755
231	0xbde0b2d0	-0.10971606
232	0x3da52229	0.08063156
233	0xbdca2130	-0.09869611
234	0x3ba59744	0.0050534327
235	0x3d966912	0.07344259
236	0xbcf6f811	-0.030147584
237	0x3d6e745b	0.058216434
238	0xbe1d1432	-0.15339735
239	0xbd44324e	-0.047899537
240	0x3d3e14a6	0.04640641
241	0xbad8cbde	-0.0016540249
242	0x3bb573ed	0.005537501
243	0xbd95849e	-0.07300685
244	0x3d2badb8	0.041913718
245	0xbd2cd02f	-0.042190727
246	0xbe09fe20	-0.13475847
247	0xbd5c26da	-0.05374799
248	0xbd310630	-0.04321879
249	0x3e028fc5	0.12750156
250	0x3dbb64cc	0.09150085
251	0x3d1ed5da	0.038778163
252	0xbe04ea7e	-0.12980077
253	0xbd915c9a	-0.070977405
254	0xbd1cd88d	-0.038292456
255	0xbd427194	-0.047471598

combined.0.bias f4 [64]
0	0xbcb60a11	-0.022221597
1	0x3cc154c0	0.023599982
2	0x3d412abe	0.047159903
3	0x3b6684e4	0.0035174424
4	0xbcacaf40	-0.02107966
5	0x3beb1f8c	0.0071753915
6	0x3c895904	0.016766079
7	0x3c06a3b8	0.0082177445
8	0xbad1875b	-0.0015985774
9	0xbc0a7b88	-0.008452304
10	0x3bf8a04e	0.007587469
11	0x3cb03ec8	0.021514311
12	0x3cd96789	0.026538627
13	0xbc579073	-0.013156998
14	0x3bc28613	0.005936393
15	0xbb8c39de	-0.0042793592
16	0x3ce99e27	0.028517796
17	0xba194f9d	-0.000584835
18	0x3d08abc7	0.033366945
19	0xbba65404	-0.0050759334
20	0x3ae530f8	0.0017485907
21	0x3d090b31	0.03345794
22	0xbc884f0f	-0.01663926
23	0x3d0fd55a	0.035115577
24	0x3c82affd	0.015953058
25	0x3c45066c	0.012025457
26	0xbb979d18	-0.0046268813
27	0x3c2ca784	0.010537986
28	0x3d07b630	0.033132732
29	0x3cd853a7	0.026407076
30	0x3be8a31c	0.0070995223
31	0x3976c506	0.00023533785
32	0xbaafa7f3	-0.0013401493
33	0x3c8375b9	0.016047345
34	0x3bc5f386	0.006040993
35	0xbb942b57	-0.004521768
36	0x3d141704	0.036154762
37	0x3991c8d9	0.00027806198
38	0xbd226e13	-0.039655756
39	0xbc873799	-0.016506003
40	0x3c80e112	0.015732322
41	0x3d4b968e	0.049704127
42	0x3cc1ed06	0.023672592
43	0xbbec28ef	-0.007207028
44	0xbcd5091a	-0.026005317
45	0x3c5c8892	0.013460295
46	0x3c871975	0.016491631
47	0xbd837a9b	-0.064198695
48	0x3c837b9d	0.016050154
49	0x3cad79d8	0.021176264
50	0x3ad52061	0.001626026
51	0x3c015b69	0.007895329
52	0x3c597523	0.0132725565
53	0xbc84b43b	-0.016199222
54	0xbca4fd88	-0.020140424
55	0x3d221d1a	0.039578535
56	0xbcd77ec9	-0.026305573
57	0x3c43ed1c	0.011958387
58	0xbbb18ff1	-0.0054187705
59	0x3c917378	0.017755255
60	0x3cd7277b	0.026263943
61	0x3cc7a5f5	0.024371127
62	0x3c9dc36d	0.019258225
63	0x3d5ac018	0.05340585

combined.3.weight f4 [64, 64]
0	0xbe18a1f1	-0.14905526
1	0x3d69db38	0.05709383
2	0xbe001023	-0.12506156
3	0xbc9d6e77	-0.019217713
4	0xbd8dfbd3	-0.06932797
5	0xbe642e02	-0.22283176
6	0xbc8c6023	-0.017135685
7	0xbe146061	-0.1448989
8	0xbe0dd0ea	-0.13849226
9	0xbe6ee93c	-0.2333116
10	0xbd4b4f76	-0.049636327
11	0x3cf5564a	0.029948372
12	0xbd89fc08	-0.06737524
13	0xb8f25dc3	-0.00011556924
14	0xbddd0851	-0.10792602
15	0xbe45e5af	-0.19325899
16	0xbd4ed635	-0.050497252
17	0x3db814be	0.08988331
18	0xbd9c3f37	-0.07629245
19	0xbdec3e78	-0.115353525
20	0x3c377f3a	0.011199767
21	0xbdcef516	-0.1010534
22	0xbce60640	-0.028079152
23	0xbe0fc4ec	-0.14039963
24	0x3d81a5e0	0.06330466
25	0xbe485578	-0.19563854
26	0xbe0bfb1e	-0.13670012
27	0x3de0722e	0.10959278
28	0x3ccefbe3	0.025266593
29	0xbcac19b1	-0.021008344
30	0x3df8efe4	0.121551305
31	0x3daa9bfe	0.083305344
32	0x3dfb2ce1	0.12264419
33	0x3d879ede	0.066220984
34	0xbdb10211	-0.08642972
35	0xbd36e9a9	-0.04465643
36	0x3da769b5	0.08174459
37	0x3df0eaee	0.11763559
38	0xbc889eb6	-0.016677242
39	0x3dda0613	0.1064569
40	0x3db2805b	0.08715888
41	0x3c84586a	0.01615544
42	0x3dcc8ca8	0.099877656
43	0xbdec91c4	-0.1155124
44	0x3defa0ed	0.11700616
45	0xbe282bb5	-0.16422923
46	0xbe6fe8fd	-0.23428722
47	0xbc6bceed	-0.014392597
48	0x3d5c42d1	0.05377466
49	0xbd509621	-0.050924424
50	0xbe53fd92	-0.20702198
51	0xbd869a2f	-0.06572377
52	0x3d7b176d	0.061301637
53	0x3e0cf7a0	0.13766336
54	0xbd160dc2	-0.036634214
55	0x3d5f715c	0.054551467
56	0xbdbbf8a0	-0.09178281
57	0xbdfcd297	-0.12344854
58	0xbdfb2093	-0.122620724
59	0xbd33e51e	-0.043919675
60	0x3d8faee1	0.070157774
61	0xbe5403e3	-0.20704608
62	0xbd0feb57	-0.035136547
63	0xbc87dfc4	-0.016586192
64	0xbd1a372e	-0.03765028
65	0xbe269fda	-0.16271916
66	0x3cdcaefc	0.026938908
67	0xbe04b969	-0.12961353
68	0x3e02f8a7	0.12790166
69	0xbb732ea7	-0.0037106664
70	0x3d57cbb0	0.052684486
71	0x3d9c6106	0.07635693
72	0xbbba88ac	-0.005692562
73	0x3e14f60c	0.14546984
74	0xbd8baf14	-0.06820503
75	0xbe16185d	-0.14657731
76	0xbdce2c2b	-0.10067018
77	0x3db4ecc2	0.088342205
78	0x3cb88389	0.022523658
79	0xbdb84469	-0.08997423
80	0x3d0db063	0.034592044
81	0xbe06bec6	-0.13158712
82	0x3d8054f8	0.062662065
83	0x3d987842	0.07444812
84	0xbe797048	-0.24359238
85	0xbd09e64e	-0.0336669
86	0x3d95f8bb	0.07322832
87	0x3cc6c3b9	0.02426325
88	0xbe4f887a	-0.20266905
89	0x3ce8479f	0.028354464
90	0x3cdede28	0.027205542
91	0xbe4db31a	-0.20087853
92	0xbe09312f	-0.13397668
93	0xbd2745a5	-0.040837903
94	0xbe5946a6	-0.21218356
95	0xbe554943	-0.20828728
96	0xbe38555c	-0.18001312
97	0xbe19531b	-0.14973108
98	0x3dbcb96a	0.092150524
99	0xbb988759	-0.0046548066
100	0xbe2cd6bb	-0.16878788
101	0xba62bbeb	-0.0008649218
102	0x3c88bb76	0.01669095
103	0xbcd4e65f	-0.025988756
104	0xbe16916a	-0.14703909
105	0xbcd3ffc1	-0.025878789
106	0xbe339e69	-0.17540897
107	0xbd513951	-0.05108005
108	0x3d6e29b1	0.05814523
109	0x3dc5f0d3	0.09665074
110	0xbd9524a1	-0.07282377
111	0x3e14ee07	0.14543925
112	0xbe33d506	-0.1756173
113	0xbe57906f	-0.21051191
114	0x3d8fe8fd	0.07026861
115	0x3da1d967	0.07902794
116	0xbd66c952	-0.056344338
117	0xbdcd1b5b	-0.10014983
118	0x3d844cf2	0.06459989
119	0xbe580462	-0.21095422
120	0x3d02cb99	0.031932447
121	0x3df4b1bf	0.11947965
122	0x3ce3d76e	0.027812686
123	0xbc301c86	-0.010748988
124	0xbe091cd3	-0.13389902
125	0xbba2b7a3	-0.004965739
126	0xbe09f18a	-0.13471046
127	0x3c940580	0.018069029
128	0xbe4b9be9	-0.19883694
129	0x3e068da2	0.13139966
130	0x3cbf44e7	0.023348285
131	0x3d45fd06	0.048337005
132	0xbda54f5a	-0.08071776
133	0xbc23d14c	-0.009998631
134	0xbd35fcc3	-0.044430505
135	0xbdc17109	-0.09445388
136	0xbc88bf7a	-0.016692866
137	0xbe1d1d60	-0.15343237
138	0xbd7c614e	-0.061616234
139	0x3db17642	0.08665134
140	0x3deb3e22	0.1148646
141	0xbd84e534	-0.064890295
142	0xbcc2a64c	-0.023760937
143	0xbdecbe9e	-0.11559795
144	0xbe2cbd2d	-0.1686904
145	0x3de7675f	0.11299013
146	0x3bca27d3	0.006169298
147	0xbdff0329	-0.124517746
148	0xbd942c96	-0.072350666
149	0xbd27c5c9	-0.040960107
150	0x3e19ffb9	0.15038957
151	0xbde9a315	-0.114080586
152	0x3baa985c	0.005206151
153	0xbe025c0d	-0.12730427
154	0x3cfd2a44	0.030903943
155	0x3da283be	0.07935284
156	0xbd9d09dd	-0.07667897
157	0x3b39e466	0.0028364896
158	0x3d8831a5	0.06650094
159	0x3dd6d154	0.10489145
160	0x3e0cbd0f	0.13743995
161	0x3e5c4250	0.21509671
162	0xbc177bf5	-0.009245862
163	0xbd1d3450	-0.038379967
164	0xbb7d661d	-0.00386656
165	0xbcf068ce	-0.02934685
166	0xbcd3c717	-0.02585177
167	0x3df5219b	0.119693
168	0xbc501775	-0.012700905
169	0xbdaf9fd1	-0.085754044
170	0xbd8182bb	-0.06323763
171	0x3c724c09	0.014788636
172	0xbd658b96	-0.056041323
173	0xbe1f0023	-0.15527396
174	0xbd292f66	-0.04130497
175	0xbd1475d8	-0.036245197
176	0x3daf59f6	0.085620806
177	0x3c84e7d0	0.016223818
178	0xbe23249d	-0.15931936
179	0xbc684d54	-0.014178593
180	0x3cc33f43	0.023833876
181	0xbd91ec33	-0.071251296
182	0xbacd9a88	-0.0015686313
183	0xbd74e73a	-0.059790827
184	0xbddc1d46	-0.10747771
185	0xbe389c32	-0.18028334
186	0xbd20bfd0	-0.039245427
187	0xbdb6a12c	-0.0891746
188	0xbd874ea7	-0.066067986
189	0xbd1716bf	-0.036886927
190	0xbda2ab08	-0.07942778
191	0xbd393709	-0.0452185
192	0xbdcbcc92	-0.09951128
193	0x3e1ce483	0.15321545
194	0xbd8f4e2a	-0.069973305
195	0x3c7f4311	0.015579955
196	0x3dcbadd6	0.09945266
197	0xbb3c1733	-0.0028700351
198	0xbc76225c	-0.01502284
199	0xbe041c64	-0.12901455
200	0xbdc72b33	-0.097250365
201	0xbdc885a7	-0.09791117
202	0x3c760d68	0.015017845
203	0x3e010d82	0.12602809
204	0x3d2a39d4	0.041559055
205	0xbd3ee938	-0.046609133
206	0xbe284605	-0.1643296
207	0x3c6280c7	0.013824648
208	0xbdf18f8f	-0.1179496
209	0x3d427e19	0.047483537
210	0x3d48cbe6	0.049022578
211	0xbd974852	-0.07386841
212	0x3de3dc9b	0.111260615
213	0xbd38379c	-0.04497491
214	0x3dc49738	0.09599155
215	0xbd9728c9	-0.07380826
216	0x3d2edb71	0.042689744
217	0xbddeb0e5	-0.10873584
218	0x3ce24515	0.027620832
219	0x3ddc2e12	0.10750975
220	0x3d1daacb	0.03849296
221	0xbda39e61	-0.07989193
222	0x3c9b0a19	0.018925713
223	0x3c187a83	0.009306553
224	0x3daacb42	0.083395496
225	0xbd8278b6	-0.0637068
226	0xbd0aa33f	-0.03384709
227	0xbca93266	-0.020653915
228	0x3dd4d350	0.10391867
229	0xbbb1a469	-0.0054212105
230	0xbdf43d56	-0.119257614
231	0xbd3f3834	-0.04668446
232	0x3d43f398	0.04783973
233	0xbd0da7b7	-0.034583773
234	0xbd4bf9ff	-0.04979896
235	0xbe24021f	-0.16016434
236	0x3cd9e694	0.026599206
237	0xbda41684	-0.08012107
238	0xbd0cd61e	-0.034383886
239	0xbdd7b29c	-0.10532114
240	0x3cbc8428	0.023012236
241	0x3da088d6	0.078385994
242	0xbe5ab238	-0.21357048
243	0xbdab70e5	-0.08371142
244	0xbd45400c	-0.048156783
245	0x3dbbcd43	0.0917001
246	0xbdaf702e	-0.085663185
247	0xbbfb7ebd	-0.0076750205
248	0xbe09a36c	-0.13441247
249	0xbdbbab26	-0.09163503
250	0xbd4d37fa	-0.05010221
251	0x3d3e46d1	0.046454255
252	0x3d61082f	0.054939445
253	0xbce9fb62	-0.028562251
254	0xbb19e530	-0.0023482554
255	0x3ce7f6cc	0.028315924

combined.3.bias f4 [64]
0	0x3df1b068	0.11801225
1	0x3db86fc2	0.09005691
2	0x3dc67e0e	0.09692012
3	0x3dd919f4	0.10600653
4	0x3e1afd03	0.15135579
5	0x3dd46108	0.1037007
6	0x3e2e6b2c	0.1703307
7	0x3dd85a2e	0.105640754
8	0x3dca495c	0.098772734
9	0x3df8c6a7	0.12147265
10	0x3de92ec0	0.1138587
11	0x3e24903f	0.1607065
12	0x3dd932b3	0.10605373
13	0x3dfd4738	0.123670995
14	0x3db4d99e	0.0883057
15	0x3dbffcdd	0.09374402
16	0x3de713af	0.11283051
17	0x3d97a1dd	0.0740392
18	0x3e0424fe	0.12904736
19	0x3dfc3c10	0.123161435
20	0x3de24336	0.11047976
21	0x3deb60e3	0.11493089
22	0x3e000da1	0.12505199
23	0x3ddc97d6	0.10771148
24	0x3daebffb	0.08532711
25	0x3dcf2941	0.101152904
26	0x3ddb2b24	0.10701588
27	0x3dd153d4	0.10221067
28	0x3def6ad9	0.116903014
29	0x3d0622f3	0.032748174
30	0x3dd2fec4	0.10302499
31	0x3d6a078a	0.057136096
32	0x3dbe3e9a	0.09289284
33	0x3dcbf0bc	0.09958026
34	0x3dabb486	0.083840415
35	0x3dc623a5	0.096747674
36	0x3dc7b62a	0.09751542
37	0x3dd43bfb	0.10363003
38	0x3df24881	0.11830235
39	0x3e1e6077	0.15466486
40	0x3db25067	0.08706742
41	0x3df9fd56	0.12206523
42	0x3dacab77	0.08431142
43	0x3db61706	0.0889111
44	0x3dc8e3c5	0.098090686
45	0x3e117c9d	0.14207692
46	0x3dc1814f	0.09448492
47	0x3d91f7b1	0.071273215
48	0x3de4c8df	0.111711256
49	0x3c886a8a	0.016652364
50	0x3dc9ec55	0.0985953
51	0x3dd22343	0.10260632
52	0x3db91b3c	0.09038398
53	0x3dfa0626	0.12208204
54	0x3de5df4d	0.11224232
55	0x3e0ece66	0.13945922
56	0x3da0d553	0.07853188
57	0x3dba7bc9	0.091056414
58	0x3e0f4222	0.13990071
59	0x3dd41952	0.10356392
60	0x3dd5f5a9	0.104472466
61	0x3db081d6	0.08618514
62	0x3dc878a7	0.097886376
63	0x3d7ef94d	0.06224947

combined.6.weight f4 [1, 64]
0	0xbd5d03cc	-0.0539587
1	0x3d30a7b9	0.043128703
2	0xbdba8ac7	-0.09108501
3	0xbd6eb04d	-0.058273602
4	0xbd448a25	-0.047983307
5	0x3d637f47	0.055541303
6	0xbd6e30b2	-0.05815191
7	0x3d41eb76	0.047343694
8	0xbdaabcd8	-0.083368
9	0xbd8af469	-0.06784899
10	0x3cd5b0f0	0.026085347
11	0xbd415bf6	-0.04720684
12	0xbd9eb974	-0.07750216
13	0x3d1eb91d	0.038750757
14	0x3d2e04da	0.042485096
15	0xbd7e1a2c	-0.06203668
16	0xbd228cdf	-0.039685126
17	0x3d023251	0.031786267
18	0x3d0b7043	0.034042608
19	0xbd8c2761	-0.068434484
20	0x3d141ff5	0.03616329
21	0xbd817dcd	-0.06322823
22	0xbd5f6c8c	-0.054546878
23	0x3d0ee9d2	0.034890957
24	0x3d0fee33	0.035139274
25	0xbda89bd8	-0.0823285
26	0xbd96226c	-0.07330784
27	0x3cf87b09	0.030332105
28	0x3d27d2a3	0.040972363
29	0x3d559ee4	0.052153483
30	0x3d54b313	0.05192859
31	0x3cebad52	0.028769169
32	0x3cf2eb83	0.029653316
33	0xbd89d3cc	-0.0672985
34	0x3d5aaae7	0.05338564
35	0xbe0a8e31	-0.13530804
36	0xbda35e1e	-0.07976936
37	0x3cf1e794	0.02952937
38	0x3d1c538d	0.038165618
39	0xbd88f043	-0.06686451
40	0x3ce7d33e	0.02829897
41	0xbd98649b	-0.07441064
42	0xbdc2a010	-0.09503186
43	0x3d28f22b	0.041246574
44	0x3d193e3f	0.037412878
45	0xbd86bdf8	-0.065792024
46	0xbdba7828	-0.09104949
47	0xbdae9177	-0.08523839
48	0xbd80ccd3	-0.06289067
49	0x3d8c2bd9	0.06844301
50	0x3d43909e	0.04774534
51	0xbdaabb73	-0.08336534
52	0x3d1cbfbb	0.038268786
53	0x3d107df0	0.035276353
54	0xbda0b7c3	-0.0784755
55	0xbd900e9a	-0.07034035
56	0x3d1e1585	0.03859474
57	0xbd9e9d61	-0.077448614
58	0x3d434d37	0.04768106
59	0xbde8e743	-0.11372235
60	0xbd9909a3	-0.07472541
61	0xbdbcb338	-0.09213871
62	0x3cfec5c6	0.031100165
63	0x3d2ce72a	0.042212643
