data/models/nov12_24_undersample/fold2_epoch_models/epoch_6_model.pt (torch, 775567 bytes, 9 tensors)

layers1d.0.weight f4 [128, 1280]
-0.12122429 0.038194284 -0.0049001733 -0.029341184 -0.03781594 0.002792728 -0.07427823 -0.028257677
-0.011983463 0.012538201 -0.011956347 -0.022878114 0.02786284 0.0348179 -0.0073521733 0.0018565119
0.02895657 -0.044563856 -0.016118081 0.027948353 0.050808296 -0.024686903 0.097561456 -0.00430796
-0.044089988 -0.0067567504 0.004609391 0.092280425 -0.007690354 0.01704399 0.002452323 0.0058787283
-0.008815477 -0.05807896 0.007157156 0.032898467 0.043609995 -0.023344442 -0.0018009908 0.0071946313
0.019023987 -0.08108324 -0.02842888 -0.018854048 0.04074104 0.12224121 0.012201238 0.035517547
0.029772017 0.008502129 -0.015545919 -0.018683689 -0.050090726 -0.04606891 -0.009220312 0.008457505
0.04754432 0.004545927 -0.020553805 0.011471444 0.09434429 0.036022108 0.0077203773 0.02559111
-0.0009219194 0.051845774 -0.0938294 -0.026758835 -0.02988969 -0.04547333 0.020606935 0.051072977
0.0021486583 0.074893005 0.056432977 0.055210177 0.01946834 -0.037018836 -0.03512756 -0.009896771
-0.051971897 0.044857107 -0.032109074 -0.009526299 0.065016486 -0.050617214 -0.021334952 -0.01928527
0.041330107 0.0019986203 0.04957712 -0.034599867 0.017091911 0.0029744657 0.00852167 0.013897247
-0.059066087 -0.024331331 -0.07220924 0.025545515 -0.06305286 -0.0099759195 0.02827829 -0.04518808
0.01859955 -0.050451394 0.0054599307 0.08250987 0.046867542 0.018954195 -0.003882845 0.04359388
0.039668772 0.077750824 0.041325867 0.024119392 -0.024428664 0.1415307 -0.034160953 -0.011793933
-0.008779282 0.037465367 -0.031198757 -0.10532792 0.0256892 -0.024724003 -0.06837282 -0.06640335
-0.031738207 0.019593129 0.08155854 -0.02784699 -0.07610606 0.0039015517 -0.028781308 -0.061500322
-0.08335133 0.003530995 0.07263902 -0.040737066 0.0023422674 0.056676365 0.03361697 0.013653106
-0.014283261 0.04595166 0.0039692232 -0.008122233 -0.03894967 -0.032348346 -0.06441187 -0.009360609
-0.04017258 -0.01559304 -0.002946179 -0.087752216 0.018222282 -0.0027279295 0.067224234 -0.007977259
0.10253262 -0.0068846494 0.026166826 0.018588975 0.008665216 0.030199457 0.00905637 0.020240784
-0.040781237 0.013741527 -0.012517819 0.0022754483 -0.050021812 -0.06688938 0.01515509 0.040786296
-0.04135619 0.008580654 0.039626177 -0.025612181 -0.031878702 0.06968643 -0.0019285153 0.0051657567
-0.05246369 -0.018557662 -0.055573646 0.03110938 0.08557265 -0.04455664 0.0030016196 -0.011699174
-0.04026714 0.016991613 -0.053966884 -0.15938243 0.061654966 0.037409328 -0.08453746 0.118084185
-0.031553447 -0.048774745 -0.056092855 0.0060354094 -0.017058326 -0.047751367 0.057026282 0.005843625
0.034078848 0.014676122 -0.049788624 -0.01763188 0.029047161 0.0091476925 -0.050641816 0.03171296
0.08254396 0.072530344 -0.060200218 -0.08446145 0.047693327 -0.07862741 0.029563893 0.050579004
0.033400528 -0.029298378 0.044808805 0.01651506 -0.02750259 -0.014385582 0.02533279 0.06479342
0.013711933 0.03309555 -0.012115749 0.018710516 -0.06497461 -0.037392575 -0.015761867 -0.025530765
-0.0346306 -0.02308153 -0.021925189 -0.0174031 0.036963843 0.050987747 -0.118088685 -0.0044060387
0.06713641 -0.05170469 0.07973467 -0.08927226 0.04248932 0.03072469 0.0030467792 0.028273335
00000000: 7144 f8bd 9c71 1c3d a291 a0bb ec5c f0bc
00000010: e3e4 1abd 3306 373b 2f1f 98bd a57c e7bc
00000020: 4956 44bc 076d 4d3c 8ee4 43bc e26a bbbc
00000030: 9c40 e43c 379d 0e3d 80ea f0bb 3456 f33a
00000040: 5436 ed3c 9788 36bd 110a 84bc f2f3 e43c
00000050: 5c1c 503d 303c cabc 4dce c73d ca29 8dbb
00000060: b497 34bd bb67 ddbb 600a 973b 85fd bc3d
00000070: 5dff fbbb d69f 8b3c 27b7 203b 59a2 c03b
00000080: ca6e 10bc 34e4 6dbd 9386 ea3b 8bc0 063d
00000090: 65a0 323d d83c bfbc 390f ecba f1c0 eb3b
000000a0: 31d8 9b3c f80e a6bd afe3 e8bc ce73 9abc
000000b0: 14e0 263d 9959 fa3d b4e7 473c d97a 113d
000000c0: 72e4 f33c 844c 0b3c 4fb4 7ebc 890e 99bc
000000d0: ef2b 4dbd c1b2 3cbd cb10 17bc 5991 0a3c
000000e0: d5bd 423d 00f6 943b 7460 a8bc b9f2 3b3c
000000f0: 9437 c13d eb8b 133d 38fb fc3b 73a4 d13c
00000100: f7ac 71ba 3c5c 543d a129 c0bd 5835 dbbc
00000110: 39db f4bc 3e42 3abd e0cf a83c e631 513d
00000120: 81d0 0c3b 8161 993d 4426 673d 1124 623d
00000130: 117c 9f3c 10a1 17bd ebe1 0fbd 1126 22bc
00000140: 7ce0 54bd 16bc 373d ce84 03bd 3214 1cbc
00000150: 5d27 853d ff53 4fbd a3c6 aebc 24fc 9dbc
00000160: c249 293d 49fb 023b 6111 4b3d 97b8 0dbd
00000170: 5604 8c3c 41ef 423b 799e 0b3c 47b1 633c
00000180: 48ef 71bd 8052 c7bc 70e2 93bd d444 d13c
00000190: dc21 81bd 0a72 23bc dfa7 e73c 2317 39bd
000001a0: 155e 983c 1fa6 4ebd 38e9 b23b effa a83d
000001b0: 2ef8 3f3d d445 9b3c 5477 7ebb 7f8f 323d
000001c0: b97b 223d d33b 9f3d 5045 293d 0896 c53c
000001d0: 9f1e c8bc 6ced 103e 5bec 0bbd 573b 41bc
000001e0: fad6 0fbc 4975 193d 8994 ffbc 2ab6 d7bd
000001f0: 2872 d23c fe89 cabc 0d07 8cbd 7bfe 87bd
00000200: ecff 01bd c581 a03c 2a08 a73d 5f1f e4bc
00000210: 7edd 9bbd 2db1 7f3b c7c6 ebbc c3e7 7bbd
00000220: 1ab4 aabd 4468 673b c4c3 943d e9db 26bd
00000230: ba80 193b 7a25 683d f3b1 093d 47b1 5f3c
00000240: 5704 6abc cf37 3c3d 4210 823b 1d13 05bc
00000250: b089 1fbd b37f 04bd 5fea 83bd 3d5d 19bc
00000260: 018c 24bd f379 7fbc ae14 41bb 6fb7 b3bd
00000270: e546 953c 10c7 32bb dcac 893d 0db3 02bc
00000280: 9ffc d13d a098 e1bb d05b d63c e847 983c
00000290: 8df8 0d3c da64 f73c 2b61 143c 00d0 a53c
000002a0: 3a0a 27bd 2424 613c 8a17 4dbc b01f 153b
000002b0: ace3 4cbd 4dfd 88bd 0e4d 783c 880f 273d
000002c0: 1c65 29bd df95 0c3c 0f4f 223d a3d0 d1bc
000002d0: 3e93 02bd c2b7 8e3d 3cc6 fcba 8245 a93b
000002e0: 2be4 56bd 3d06 98bc 31a1 63bd 19d9 fe3c
000002f0: b740 af3d 0681 36bd d2b6 443b e4ad 3fbc
00000300: 28ef 24bd ff31 8b3c 610c 5dbd 2635 23be
00000310: eb89 7c3d 863a 193d fa21 adbd 1fd6 f13d
00000320: 303e 01bd 07c8 47bd 9fc1 65bd afc4 c53b
00000330: e7bd 8bbc f096 43bd 6494 693d e17b bf3b
00000340: 4396 0b3d 1e74 703c 28ef 4bbd bb70 90bc
00000350: 50f4 ed3c 34e0 153c cb6d 4fbd 73e5 013d
00000360: cf0c a93d ca8a 943d 8194 76bd 20fa acbd
00000370: 145a 433d 6807 a1bd fa2f f23c ee2b 4f3d
00000380: fece 083d 2703 f0bc 7089 373d 974a 873c
00000390: 1d4d e1bc 81b1 6bbc b686 cf3c 6ab2 843d
000003a0: 04a8 603c 338f 073d 2281 46bc cc46 993c
000003b0: 6911 85bd f528 19bd 081f 81bc e525 d1bc
000003c0: d1d8 0dbd 7a15 bdbc 749c b3bc f290 8ebc
000003d0: 6667 173d 87d8 503d 7bd8 f1bd 8860 90bb
000003e0: d07e 893d 4cc8 53bd ee4b a33d 60d4 b6bd
000003f0: 4809 2e3d 58b2 fb3c 79ac 473b 7b9d e73c

layers1d.0.bias f4 [128]
-0.05200953 -0.004169332 -0.03683017 -0.022013832 -0.0148367025 -0.0031932087 -0.027351117 -0.00069109915
-0.033911403 -0.008089666 -0.036526106 -0.043440036 -0.005784301 -0.061096773 -0.0058162417 -0.014394811
-0.024735888 -0.017457206 -0.040821083 -0.029709924 -0.000695716 -0.009755796 -0.03778481 -0.017900674
-0.021020172 -0.010014009 -0.02752191 -0.01442984 -0.02748417 -0.031862885 -0.0112205455 -0.0115485545
-0.050362583 -0.019262891 -0.015938861 -0.04741692 0.0069989306 -0.048606604 0.012678661 -0.04750242
-0.0043700133 -0.013223729 -0.0045178463 -0.03766485 -0.005790598 -0.063915655 -0.025352947 -0.039964963
-0.054217678 -0.038369343 -0.014664597 -0.012297556 -0.04123294 -0.03491161 -0.032984965 -0.021461492
-0.012612053 -0.006250987 -0.063730605 -0.0471367 -0.0015338555 -0.030255087 -0.040507592 -0.00466861
-0.023544839 -0.03832043 -0.032542426 -0.030732293 -0.018219622 0.009631325 -0.009986451 -0.04097176
-0.042537928 -0.02550376 -0.035671275 -0.025260495 -0.038767114 -0.017264653 -0.017514618 -0.0093684355
0.001290718 -0.0023565888 -0.025734285 -0.023832552 -0.0071401573 -0.019512586 -0.005313328 -0.014632309
-0.009632967 -0.04976041 -0.012469828 -0.005762669 -0.057863995 -0.006574039 -0.05501748 -0.019066
-0.048953857 -0.052710604 -0.00027291782 -0.05211802 -0.036931347 -0.037990738 -0.046524532 -0.03705926
-0.045430582 -0.006779366 -0.046783805 0.0021263913 -0.022067046 -0.025199499 -0.039859395 0.004233592
-0.024176292 -0.009752838 -0.022788988 -0.02847101 -0.026491897 -0.048382152 -0.053296085 -0.04630722
-0.009102933 -0.011941191 -0.011463377 -0.027632097 -0.037700474 -0.028282903 -0.03194775 -0.056183055
00000000: f207 55bd e49e 88bb 3bdb 16bd 5a56 b4bc
00000010: a415 73bc 2745 51bb 730f e0bc e12a 35ba
00000020: afe6 0abd 858a 04bc 669c 15bd 2eee 31bd
00000030: 3c8a bdbb 9c40 7abd 2c96 bebb 37d8 6bbc
00000040: eba2 cabc 6a02 8fbc 0234 27bd 3a62 f3bc
00000050: b660 36ba c6d6 1fbc 3fc4 1abd 6fa4 92bc
00000060: 7f32 acbc cc11 24bc a175 e1bc 236b 6cbc
00000070: 7b26 e1bc a882 02bd 61d6 37bc 2636 3dbc
00000080: ff48 4ebd 36cd 9dbc 3792 82bc 3f38 42bd
00000090: 4957 e53b b817 47bd 29ba 4f3c e691 42bd
000000a0: 5432 8fbb 57a8 58bc 710a 94bb 7546 1abd
000000b0: 0fbf bdbb 36e6 82bd fcb0 cfbc 4db2 23bd
000000c0: 5b13 5ebd 2c29 1dbd c743 70bc b07b 49bc
000000d0: dfe3 28bd 7aff 0ebd 3e1b 07bd 03d0 afbc
000000e0: c9a2 4ebc 14d5 ccbb 3185 82bd 6a12 41bd
000000f0: a60b c9ba 84d9 f7bc 4aeb 25bd 24fb 98bb
00000100: 1be1 c0bc e2f5 1cbd 354b 05bd 4ac2 fbbc
00000110: 5141 95bc b4cc 1d3c 369e 23bc 01d2 27bd
00000120: 403c 2ebd 43ed d0bc 0b1c 12bd 19ef cebc
00000130: 44ca 1ebd 9a6e 8dbc d17a 8fbc 117e 19bc
00000140: 4f2d a93a 0071 1abb b5d0 d2bc 7c3c c3bc
00000150: fbf7 e9bb dcd8 9fbc 6d1b aebb 5abc 6fbc
00000160: 98d3 1dbc 92d1 4bbd 404e 4cbc c5d4 bcbb
00000170: cc02 6dbd 096b d7bb 025a 61bd 4d30 9cbc
00000180: d783 48bd 13e7 57bd 6916 8fb9 b479 55bd
00000190: 5345 17bd 2d9c 1bbd 8290 3ebd 73cb 17bd
000001a0: 6b15 3abd 7225 debb 60a0 3fbd ed5a 0b3b
000001b0: f3c5 b4bc 2e6f cebc 9b43 23bd f2b9 8a3b
000001c0: 5c0d c6bc 5eca 1fbc f9af babc 093c e9bc
000001d0: 8905 d9bc 5d2c 46bd ff4c 5abd a4ac 3dbd
000001e0: 7824 15bc fca4 43bc e3d0 3bbc b55c e2bc
000001f0: d06b 1abd 8cb1 e7bc a5db 02bd 3420 66bd

layers1d.3.weight f4 [128, 128]
-0.068322636 -0.092062585 -0.034243573 -0.08432224 -0.01853973 0.11919021 -0.1278936 0.030241111
-0.03382264 -0.08203745 0.017917918 -0.089559995 0.09230424 0.027012972 -0.09266493 -0.070325725
-0.099295095 -0.064677894 -0.05872507 -0.0417911 0.07578946 -0.03275006 0.045802794 -0.043007713
-0.01655725 -0.019162271 0.08162028 0.17452203 -0.05953756 0.06578563 0.035756096 0.021947525
-0.0020272434 -0.10792345 0.13733928 0.040788945 -0.044629127 -0.0039428645 -0.08254661 -0.059554707
-0.03110533 -0.022019057 -0.035545714 -0.07452526 0.049039662 0.1515289 -0.11334081 0.09674772
0.01632272 -0.03383672 -0.021235274 0.01272543 0.0750096 0.04714963 -0.05982474 -0.014394837
0.043087617 -0.09237504 0.08263398 -0.027726408 -0.053638678 -0.014802223 -0.03958476 0.121198416
0.008893764 0.036856204 0.11143559 0.01903897 0.047587518 -0.042417735 0.04678669 0.013668188
0.018245013 -0.014748909 0.015850872 0.0030454532 -0.10131971 0.0047796518 -0.076759376 -0.08408992
0.09209191 0.022621911 0.1177995 -0.015491016 0.006800825 0.00510105 -0.015868071 0.09689357
-0.07178786 -0.08004621 0.09426062 -0.08124981 0.023664387 -0.0075054416 -0.027356125 -0.046302028
-0.06773872 0.012056706 0.058422104 0.06716196 -0.112775 0.14445919 -0.082340404 -0.06283848
0.035515107 0.047331348 0.017195825 0.0769306 -0.07558719 0.03407312 -0.05328743 -0.028326344
-0.11320798 -0.030175462 0.043870233 -0.004791901 -0.00042464418 -0.0511283 0.13365883 -0.025114415
0.040943652 -0.0674375 -0.015956782 -0.048165012 0.05679721 -0.030111734 0.030476283 0.06294753
0.043720562 0.05878672 -0.04496898 0.03218369 0.022460822 -0.042981166 0.025678672 0.03962118
0.041836448 -0.08485655 0.07190776 -0.02507992 -0.07551087 -0.04482602 -0.077313945 -0.044785295
-0.011357017 -0.11755884 -0.054450955 -0.071784705 0.04376255 0.15301499 0.17687303 0.12106082
-0.020319117 -0.06664933 0.1060902 0.012772545 -0.04047829 0.05143706 0.13932389 0.043294895
0.052469958 -0.005324392 -0.067575976 -0.0045917155 -0.12378575 -0.046530534 -0.020115498 -0.047857895
0.004344892 -0.046219118 -0.045312293 -0.018662237 0.094627045 0.0882022 0.019050779 0.011873448
0.016407752 -0.0683444 -0.045330107 0.10963144 -0.011063681 -0.062126428 -0.08500848 -0.0023463473
0.04074107 -0.066419 0.05288226 0.034229357 -0.010571551 -0.006601989 -0.06273436 -0.03655921
0.022300446 -0.01729102 0.11577383 0.10284644 0.04339354 -0.033764865 -0.017504659 -0.003651505
0.03484402 -0.1259066 -0.03600227 0.11142852 -0.05303993 0.099461675 -0.054320123 0.15136822
-0.022686465 0.017592203 0.047826193 -0.021160066 -0.079055496 -0.10911004 0.08995553 -0.00933177
-0.0884548 0.07436697 0.07855195 -0.09142973 0.12935975 -0.020327967 -0.13278627 -0.090620816
-0.06535578 -0.07347369 0.08018291 0.011907415 -0.08090601 0.08062879 -0.05118059 -0.12888685
0.105188735 -0.036283005 0.11866225 -0.06842579 0.01279971 0.10913273 -0.020099156 -0.07808428
-0.11079455 -0.024522668 0.06486868 0.06778065 -0.108665645 -0.013514423 -0.0025199489 0.09530629
0.107981026 -0.010178963 0.0393573 -0.1049366 0.12058682 -0.04748236 0.027127435 -0.08877431
00000000: bdec 8bbd 4f8b bcbd fd42 0cbd 23b1 acbd
00000010: a2e0 97bc ff19 f43d 8af6 02be 35bc f73c
00000020: 9c89 0abd 4003 a8bd 99c8 923c 3b6b b7bd
00000030: 010a bd3d 4f4a dd3c 1cc7 bdbd ef06 90bd
00000040: 3a5b cbbd d875 84bd b389 70bd 252d 2bbd
00000050: 8137 9b3d ed24 06bd b69b 3b3d db28 30bd
00000060: 12a3 87bc 32fa 9cbc 8928 a73d e7b5 323e
00000070: a8dd 73bd 9eba 863d fc74 123d 4ccb b33c
00000080: 80db 04bb f806 ddbd aba2 0c3e 4f12 273d
00000090: 08cd 36bd 2533 81bb 320e a9bd a3ef 73bd
000000a0: 9bd0 febc 4f61 b4bc 6298 11bd b3a0 98bd
000000b0: d0dd 483d 642a 1b3e 3a1f e8bd ab23 c63d
000000c0: 3ab7 853c 5f98 0abd 99f5 adbc 527e 503c
000000d0: a29e 993d f81f 413d c90a 75bd 53d8 6bbc
000000e0: a47c 303d 202f bdbd 013c a93d 7e22 e3bc
000000f0: 3bb4 5bbd 0685 72bc a123 22bd e036 f83d
00000100: 26b7 113c 88f6 163d 5838 e43d 9df7 9b3c
00000110: 21eb 423d 38be 2dbd 66a3 3f3d 89f0 5f3c
00000120: 9176 953c 68a5 71bc b0d9 813c 3a96 473b
00000130: b580 cfbd a09e 9c3b 0534 9dbd 5637 acbd
00000140: af9a bc3d 9651 b93c dd40 f13d 08ce 7dbc
00000150: 74d9 de3b b526 a73b c2fd 81bc 2370 c63d
00000160: 8305 93bd 44ef a3bd b60b c13d 4d66 a6bd
00000170: d1db c13c 35f0 f5bb f419 e0bc 32a7 3dbd
00000180: 99ba 8abd 7d89 453c 044c 6f3d 368c 893d
00000190: 94f6 e6bd 1ced 133e 16a2 a8bd 76b1 80bd
000001a0: 4a78 113d 84de 413d 42de 8c3c ca8d 9d3d
000001b0: 75cd 9abd 4290 0b3d ec43 5abd a60c e8bc
000001c0: 96d9 e7bd 8832 f7bc 46b1 333d 6105 9dbb
000001d0: c7a2 deb9 e96b 51bd dcdd 083e bfbc cdbc
000001e0: 88b4 273d ac1c 8abd ccb7 82bc ad48 45bd
000001f0: 31a4 683d e2ac f6bc 66a9 f93c a2ea 803d
00000200: 5514 333d 58ca 703d 6531 38bd 0cd3 033d
00000210: c2ff b73c 050d 30bd 145c d23c d249 223d
00000220: b25c 2b3d 45c9 adbd 6044 933d 6874 cdbc
00000230: 71a5 9abd 7d9b 37bd c656 9ebd c970 37bd
00000240: c812 3abc b0c2 f0bd f707 5fbd dc03 93bd
00000250: 5c40 333d f6af 1c3e 341e 353e bcee f73d
00000260: 4774 a6bc 727f 88bd d245 d93d f043 513c
00000270: 90cc 25bd abaf 523d ecaa 0e3e fd55 313d
00000280: bdea 563d 3d78 aebb 4665 8abd 1a76 96bb
00000290: 6283 fdbd cd96 3ebd 42c9 a4bc a406 44bd
000002a0: 995f 8e3b 4250 3dbd 6299 39bd 8ce1 98bc
000002b0: d3cb c13d 5ba3 b43d 6110 9c3c da88 423c
000002c0: 8d69 863c 26f8 8bbd 10ac 39bd 7386 e03d
000002d0: 7144 35bc 4878 7ebd ed18 aebd 2dc5 19bb
000002e0: 1ce0 263d af06 88bd 129b 583d 1534 0c3d
000002f0: 4c34 2dbc 7f55 d8bb df7a 80bd 1cbf 15bd
00000300: 6daf b63c e6a5 8dbc d41a ed3d 28a1 d23d
00000310: 6dbd 313d 074d 0abd ee65 8fbc 174e 6fbb
00000320: 9ab8 0e3d a9ed 00be 1e77 13bd a334 e43d
00000330: 6640 59bd 90b2 cb3d c77e 5ebd 4500 1b3e
00000340: f7d8 b9bc 861d 903c 66e5 433d e057 adbc
00000350: d9e7 a1bd 1675 dfbd 9b3a b83d 48e4 18bc
00000360: ca27 b5bd b64d 983d d8df a03d 833f bbbd
00000370: e276 043e d686 a6bc 20f9 07be 6897 b9bd
00000380: 40d9 85bd 6079 96bd f036 a43d 5217 433c
00000390: 0db2 a5bd b520 a53d bda2 51bd eafa 03be
000003a0: 316d d73d 7d9d 14bd 3205 f33d d222 8cbd
000003b0: e0b5 513c fb80 df3d fca6 a4bc a7ea 9fbd
000003c0: 41e8 e2bd c3e3 c8bc dfd9 843d 95d0 8a3d
000003d0: 188c debd 996b 5dbc ba25 25bb f22f c33d
000003e0: 2825 dd3d aac5 26bc 1f35 213d 00e9 d6bd
000003f0: 39f6 f63d dd7c 42bd 5b3a de3c 4ecf b5bd

layers1d.3.bias f4 [128]
0.023218572 -0.020351397 -0.0280302 -0.004667927 0.009737894 -0.0071103554 -0.056689914 -0.02941863
0.005229387 -0.00068421493 0.015839748 0.0010965528 -0.0029829233 -0.012688951 0.0034852852 0.005008633
-0.0059260735 -0.0012885187 0.026861709 -0.025353245 -0.021150867 0.04343836 0.00193724 -0.020679582
0.019744756 -0.026143314 -0.01522442 0.012062493 0.022910966 -0.0056866403 -0.019014833 0.029851226
0.017605273 -0.0004350112 0.048439797 -0.04724545 -0.009267398 -0.022109078 0.01129775 0.009327851
0.02813747 -0.047863267 -0.08039401 0.007357343 0.014798597 0.053757314 -0.0033226719 0.0214834
-0.02747295 -0.008712053 0.009729791 -0.01119401 0.022810541 0.017783431 -0.010279124 -0.013141657
-0.026501998 0.012295833 0.018738424 -0.07476285 -0.021986771 0.006741692 -0.038695462 0.019563422
-0.063739985 -0.041970577 -0.019788956 -0.08276539 -0.0016860729 -0.008242774 -0.03563584 0.0030687419
0.016826013 0.009824487 0.059434924 -0.0176082 -0.008790557 -0.007561926 0.00044073997 -0.0016965835
-0.068518884 -0.014267547 -0.018689636 -0.014430116 0.01523852 -0.043573365 0.053721406 -0.005717384
-0.027884053 -0.014194065 0.010979464 0.0034128616 -0.01380133 0.018251872 -0.012083946 -0.029523227
0.005451773 0.02853772 -0.036137745 -0.00050412107 -0.0769079 -0.011941111 -0.006560758 -0.01074734
-0.020301247 0.012187059 0.018662062 -0.058064997 -0.018092014 0.011753465 -0.0026672462 -0.036770474
-0.010115858 0.054374374 -0.020579474 -0.021420203 0.0140356505 0.025818236 0.0065486077 0.04242932
0.014554064 -0.0044755014 -0.06827699 -0.002386613 0.004409322 0.0035660681 0.0022001045 0.040241152
00000000: e034 be3c f9b7 a6bc 979f e5bc 69f5 98bb
00000010: b08b 1f3c fcfd e8bb af33 68bd 57ff f0bc
00000020: 475b ab3b e35c 33ba 5cc2 813c 35ba 8f3a
00000030: 267d 43bb 51e5 4fbc 6269 643b 751f a43b
00000040: 822f c2bb 83e3 a8ba 160d dc3c 9cb1 cfbc
00000050: 9544 adbc 6cec 313d fdea fd3a 3a68 a9bc
00000060: c1bf a13c 812a d6bc d96f 79bc c3a1 453c
00000070: c7af bb3c ff56 babb ffc4 9bbc 8f8a f43c
00000080: ef38 903c 3712 e4b9 cf68 463d 7284 41bd
00000090: 49d6 17bc 191e b5bc 331a 393c d8d3 183c
000000a0: 8d80 e63c 460c 44bd 9da5 a4bd de15 f13b
000000b0: d175 723c a130 5c3d 2fc1 59bb f5fd af3c
000000c0: f40e e1bc 00bd 0ebc b469 1f3c 1567 37bc
000000d0: 2cdd ba3c 8fae 913c c569 28bc 1b50 57bc
000000e0: b81a d9bc 7674 493c 5381 993c 441d 99bd
000000f0: 9a1d b4bc 69e9 dc3b 227f 1ebd 7843 a03c
00000100: 1c8a 82bd 57e9 2bbd 731c a2bc e780 a9bd
00000110: 38ff dcba b30c 07bc e3f6 11bd f21c 493b
00000120: b5d6 893c e3f6 203c 0972 733d 123f 90bc
00000130: 4506 10bc 08ca f7bb 1e13 e739 e55f deba
00000140: a153 8cbd 6ec2 69bc 021b 99bc 4b6c 6cbc
00000150: fcaa 793c fc79 32bd fa0a 5c3d e558 bbbb
00000160: 196d e4bc 398e 68bc 36e3 333c 51aa 5f3b
00000170: f91e 62bc f384 953c befb 45bc b2da f1bc
00000180: c9a4 b23b f0c7 e93c 2c05 14bd fe26 04ba
00000190: e481 9dbd a6a4 43bc a1fb d6bb 9c15 30bc
000001a0: cd4e a6bc 3bac 473c 2ee1 983c 90d5 6dbd
000001b0: b435 94bc 9b91 403c f7cc 2ebb a39c 16bd
000001c0: fcbc 25bc aab7 5e3d 4996 a8bc 6c79 afbc
000001d0: c9f5 653c c480 d33c b495 d63b 5eca 2d3d
000001e0: 2b74 6e3c 3aa7 92bb ced4 8bbd b968 1cbb
000001f0: 137c 903b b2b4 693b a12f 103b e8d3 243d

combined.0.weight f4 [64, 128]
0.008001822 0.049040575 0.05424839 -0.015588288 -0.026463808 -0.026673663 0.05872896 0.027945932
-0.07446916 0.049331453 0.13188569 -0.007213543 0.014462314 0.04040856 0.09156491 0.027660009
0.036775727 0.009048758 0.012275776 0.080743104 -0.03812312 -0.11093873 0.09078263 -0.09720386
-0.07032123 0.060181122 0.03257932 0.04374383 -0.15133137 -0.03656768 -0.018784873 0.026419774
-0.058550216 0.010499863 -0.084104635 -0.019674674 -0.017568622 -0.10157117 -0.14196916 -0.09154976
-0.1722097 -0.01883593 -0.0640778 0.0667328 -0.12885636 -0.06506783 -0.035797846 0.09456227
-0.021283293 0.061425015 0.028091231 0.04478635 -0.030672649 0.084417544 -0.11592851 0.06624096
0.09662361 -0.019018944 -0.041672982 -0.08962195 -0.007658459 0.111188725 -0.08015744 0.02891397
-0.067287676 -0.032875128 -0.11902384 0.0899015 0.047278836 -0.025726557 0.064939074 -0.08055353
-0.12283392 -0.044047065 -0.047072567 0.14264256 -0.036612432 0.088782184 0.057058558 -0.046783343
-0.10392515 0.020533856 -0.016319241 0.093141094 -0.114862084 0.023746505 -0.049174096 0.006187794
0.0978862 -0.02632661 -0.021637822 0.09605529 -0.02791348 -0.12286068 0.036504235 -0.015050654
-0.04409181 0.05776567 0.01402993 0.017907076 -0.025659572 -0.07252493 -0.07263566 0.05943609
-0.07078363 0.07895065 -0.06214934 0.009360089 0.066483885 -0.16220771 0.019823855 -0.005887122
-0.009250623 -0.036721162 -0.019803151 0.110468276 0.0049055307 -0.0060917707 0.0070832353 -0.0017476954
0.0132106 -0.09567275 0.12761392 -0.0017125093 0.10789781 0.038879424 0.09293391 -0.0731847
-0.0022810337 -0.07772665 0.05689348 -0.025152192 -0.04489224 -0.123754635 0.03340489 -0.023401406
0.0764282 -0.100945696 -0.057782624 -0.11414492 -0.10476765 0.074049234 -0.087645754 -0.15364318
0.03215664 -0.13838749 -0.07030605 -0.007316034 0.020135313 0.016906602 0.015528839 0.021457255
-0.0112166675 -0.13894679 -0.020904519 0.039623477 -0.023905743 0.0408495 -0.04357425 -0.06591806
-0.08163205 -0.10158165 0.016412195 -0.0442948 -0.0708773 0.013261154 0.12673222 0.064393245
0.105362594 -0.01477144 -0.032648645 -0.07901579 0.08680239 0.055999145 0.024124956 -0.12886277
0.13337924 -0.12236109 -0.04041835 -0.012269063 0.13878968 0.0122706825 0.14044097 -0.080778725
-0.05824623 -0.07124486 -0.018527308 -0.03815545 0.010078941 -0.16005915 0.0861366 -0.113602884
0.0319712 -0.16484374 -0.036343243 0.027612539 -0.045053765 -0.01001027 -0.065530494 0.07299781
0.037497114 -0.08398518 -0.032017168 0.0167477 -0.08438701 -0.16304737 0.026336834 -0.002268404
-0.008184634 -0.069289066 -0.041488744 -0.02988339 -0.041116968 0.026820596 -0.010013671 -0.1265247
-0.10660806 0.024502337 -0.007562644 0.0001746897 -0.09098461 0.02055311 -0.06608936 0.074041694
-0.0060805865 -0.04205083 -0.030182304 -0.11653816 0.093002334 0.04496487 -0.031959306 -0.07905305
0.07085494 -0.09846794 -0.009362062 0.0655372 -0.028580613 0.078881055 -0.0601978 0.015092516
0.057512194 -0.019255402 -6.0443133e-05 -0.050636806 0.019803692 -0.021759965 -0.10532608 -0.08269262
-0.025044579 0.120009676 0.08496643 0.04474644 -0.11873832 -0.021014677 -0.034080014 -0.02816789
00000000: 131a 033c c5de 483d 8f33 5e3d 0566 7fbc
00000010: a1ca d8bc ba82 dabc c78d 703d deee e43c
00000020: 4983 98bd c70f 4a3d 0b0d 073e 965f ecbb
00000030: 57f3 6c3c 7283 253d 6286 bb3d 3e97 e23c
00000040: 25a2 163d 3e41 143c 5620 493c a45c a53d
00000050: fd26 1cbd d833 e3bd 3eec b93d d112 c7bd
00000060: 9404 90bd 7b80 763d e571 053d bb2c 333d
00000070: 9cf6 1abe fec7 15bd bce2 99bc 486e d83c
00000080: 5ad2 6fbd 9e07 2c3c 0d3f acbd c82c a1bc
00000090: 12ec 8fbc 8c04 d0bd 5d60 11be 717e bbbd
000000a0: bd57 30be cf4d 9abc 393b 83bd 35ab 883d
000000b0: ecf2 03be 4842 85bd c3a0 12bd dda9 c13d
000000c0: 4d5a aebc cc98 7b3d 951f e63c e471 373d
000000d0: 3545 fbbc 1be3 ac3d ed6b edbd 57a9 873d
000000e0: 99e2 c53d 9ecd 9bbc 4ab1 2abd b78b b7bd
000000f0: cff3 fabb eab6 e33d 9529 a4bd fddc ec3c
00000100: 1fce 89bd 12a8 06bd c5c2 f3bd 471e b83d
00000110: 74a7 413d 80c0 d2bc c7fe 843d 40f9 a4bd
00000120: 5a90 fbbd b26a 34bd 2acf 40bd e410 123e
00000130: ebf6 15bd 6fd3 b53d 3cb6 693d e49f 3fbd
00000140: b6d6 d4bd 9e36 a83c eeaf 85bc c2c0 be3d
00000150: d03c ebbd 0888 c23c c76a 49bd fac2 ca3b
00000160: 8f78 c83d e7aa d7bc cd41 b1bc a3b8 c43d
00000170: cfaa e4bc 619e fbbd 7785 153d 0597 76bc
00000180: 9d99 34bd b29b 6c3d cbdd 653c dcb1 923c
00000190: 0634 d2bc f387 94bd 01c2 94bd 4273 733d
000001a0: 02f7 90bd e1b0 a13d 4e90 7ebd 0f5b 193c
000001b0: b428 883d c719 26be a365 a23c c2e8 c0bb
000001c0: ed8f 17bc ee68 16bd 383a a2bc 313d e23d
000001d0: 93be a03b 7a9d c7bb 7c1a e83b ed12 e5ba
000001e0: 4671 583c 13f0 c3bd 39ad 023e 4776 e0ba
000001f0: 87f9 dc3d 0840 1f3d 2254 be3d dce1 95bd
00000200: 657d 15bb 262f 9fbd 2309 693d f80b cebc
00000210: ede0 37bd 1273 fdbd 91d3 083d 4eb4 bfbc
00000220: 6386 9c3d 9ebc cebd 79ad 6cbd d0c4 e9bd
00000230: 6c90 d6bd 20a7 973d 9e7f b3bd a354 1dbe
00000240: aeb6 033d 73b5 0dbe 9efc 8fbd 57bb efbb
00000250: d0f2 a43c b77f 8a3c ac6c 7e3c 20c7 af3c
00000260: 1dc6 37bc 1148 0ebe f43f abbc 3a4c 223d
00000270: fad5 c3bc ce51 273d ea7a 32bd 0c00 87bd
00000280: b42e a7bd 0a0a d0bd de72 863c 776e 35bd
00000290: 1e28 91bd 5045 593c 17c6 013e 9be0 833d
000002a0: 58c8 d73d e903 72bc 96ba 05bd 08d3 a1bd
000002b0: 74c5 b13d 5c5f 653d b3a1 c53c 9af4 03be
000002c0: 9194 083e 7398 fabd b68d 25bd 2e04 49bc
000002d0: e21e 0e3e f90a 493c c2cf 0f3e 516f a5bd
000002e0: 9993 6ebd d3e8 91bd 95c6 97bc e448 1cbd
000002f0: 2422 253c 8ce6 23be 6368 b03d a1a8 e8bd
00000300: 3cf4 023d cccc 28be a7dc 14bd b133 e23c
00000310: 4c8a 38bd 1e02 24bc da34 86bd e07f 953d
00000320: 9396 193d 6c00 acbd 6f24 03bd 7932 893c
00000330: 19d3 acbd e4f5 26be 58c0 d73c 81a9 14bb
00000340: d818 06bc 6de7 8dbd 1af0 29bd 03ce f4bc
00000350: 446a 28bd deb6 db3c 6110 24bc b18f 01be
00000360: 5455 dabd 20b9 c83c 0ed0 f7bb e92c 3739
00000370: 2456 babd ff5e a83c dc59 87bd 2ca3 973d
00000380: a83f c7bb 7e3d 2cbd e140 f7bc 8fab eebd
00000390: 0278 be3d 152d 383d c3e7 02bd 91e6 a1bd
000003a0: 651c 913d 8fa9 c9bd 5663 19bc 5e38 863d
000003b0: e421 eabc 648c a13d f891 76bd 9a46 773c
000003c0: e891 6b3d 81bd 9dbc 5284 7db8 8a68 4fbd
000003d0: 5a3b a23c f441 b2bc 33b5 d7bd c05a a9bd
000003e0: 4a2a cdbc a2c7 f53d e102 ae3d 0b48 373d
000003f0: 142d f3bd f926 acbc 7c97 0bbd 59c0 e6bc

combined.0.bias f4 [64]
-0.023658236 0.012854511 0.038006656 0.003615985 -0.009772681 -0.0060343156 0.0041175825 0.015205886
-0.013803109 -0.011827838 0.015604237 0.017699825 -0.0046523516 0.0012848248 -0.020533273 -0.002075995
0.024882235 -0.010170359 0.028672025 0.015689202 -0.0025951096 0.019195545 -0.009961823 0.036065936
0.025054509 0.009776527 -7.828915e-06 0.01244746 0.028351996 0.031505816 0.009478032 -0.003081856
-0.016002195 0.035189092 0.01255021 -0.025045533 0.036801927 -0.012267627 -0.034558877 -0.0090987645
0.032073256 0.07616809 0.042744953 -0.007315645 -0.029871749 0.021150207 0.020264862 -0.03413398
0.026658893 0.026710484 -0.008756694 0.010169159 0.011546172 -0.010197811 -0.0038676139 0.054555066
-0.059015125 0.008447164 0.0032251987 0.01145123 0.01563638 0.016136203 0.0031282876 0.061236866
00000000: ebce c1bc ba9b 523c deac 1b3d 29fa 6c3b
00000010: 981d 20bc 82bb c5bb c9ec 863b 1c22 793c
00000020: 6f26 62bc 8cc9 41bc eaa8 7f3c 39ff 903c
00000030: c172 98bb 9167 a83a 6535 a8bc 6b0d 08bb
00000040: d4d5 cb3c 94a1 26bc 98e1 ea3c a486 803c
00000050: b712 2abb fa3f 9d3c ea36 23bc e0b9 133d
00000060: 1d3f cd3c ba2d 203c ef58 03b7 6ef0 4b3c
00000070: 7242 e83c 3e0c 013d bf49 1b3c f7f8 49bb
00000080: 0917 83bc 7022 103d 659f 4d3c 4a2c cdbc
00000090: 9ebd 163d 28fe 48bc 9c8d 0dbd fc12 15bc
000000a0: 3f5f 033d 04fe 9b3d 5515 2f3d 14b8 efbb
000000b0: 99b5 f4bc 3343 ad3c 7f02 a63c 12d0 0bbd
000000c0: c063 da3c f2cf da3c 3d78 0fbc 8b9c 263c
000000d0: 282c 3d3c b814 27bc cb77 7dbb 2275 5f3d
000000e0: d8b9 71bd f965 0a3c db5d 533b f19d 3b3c
000000f0: de17 803c 1230 843c f503 4d3b 82d3 7a3d

combined.3.weight f4 [64, 64]
-0.08937461 0.07999038 -0.08141825 -0.021248715 -0.054211125 -0.17716411 0.03754426 -0.083117545
-0.08433549 -0.1905375 -0.058397815 0.04587299 -0.096632026 0.024818078 -0.096597984 -0.1768215
-0.015156547 0.11069267 -0.062335137 -0.12813619 0.020659953 -0.07207875 -0.04405936 -0.12124288
0.067946665 -0.120678015 -0.12855712 0.10956147 0.024926018 -0.003589786 0.15100363 0.093808584
0.1334848 0.06647972 -0.07584086 -0.009217644 0.07088153 0.14392151 0.01518909 0.13920443
0.09650896 0.0322204 0.120517515 -0.0903619 0.16335042 -0.15537044 -0.17347084 0.00031263224
0.065189786 -0.065451846 -0.14677462 -0.047990587 0.07404021 0.12426625 0.023983305 0.07477973
-0.04289227 -0.09293511 -0.07873149 0.003211292 0.088419475 -0.2014162 -0.051280525 -0.046434514
-0.06568992 -0.1072295 0.040306196 -0.08622189 0.11361755 -0.017671455 0.05724387 0.09489813
-0.029906362 0.14395167 -0.06925852 -0.083503395 -0.07000997 0.08858407 0.022646558 -0.09276601
0.023077365 -0.09582514 0.06765295 0.094854526 -0.18018135 -0.062253166 0.060651705 0.02208973
-0.16395928 0.024735615 0.0027715669 -0.1735679 -0.092305556 -0.044911783 -0.1715124 -0.16411284
-0.1382739 -0.14218299 0.10758923 -0.022220293 -0.17896104 0.008286694 0.007890488 0.0017258123
-0.12222061 -0.020932486 -0.13166888 -0.05848429 0.073569566 0.10514476 -0.064586416 0.13859144
-0.1139748 -0.15554129 0.083309524 0.08618826 -0.00516582 -0.077887475 0.07531811 -0.14212188
0.041702174 0.11478673 0.020856056 -0.02271933 -0.09551857 0.010820323 -0.081585355 0.029932227
-0.14713345 0.13294083 -0.014915226 0.030870788 -0.053098463 -0.017843049 -0.034373984 -0.08398832
-0.008425766 -0.13277523 -0.07177636 0.084588155 0.13967265 -0.034326017 -0.005390246 -0.11910601
-0.13505542 0.1271444 -0.0033668482 -0.1509369 -0.0774231 -0.05147782 0.13966285 -0.10661548
-0.018811079 -0.16826479 0.023372684 0.05699454 -0.082128465 -0.0047526914 0.036798377 0.10551913
0.15243182 0.21335301 -0.0043085646 -0.06031915 -0.014490829 -0.05550537 -0.031187441 0.10903497
-0.022608161 -0.09512575 -0.062367897 0.021287033 -0.06513883 -0.1750529 -0.07380133 -0.04879302
0.10475846 0.037264027 -0.15769958 -0.031708673 0.057675026 -0.07948809 0.065669835 -0.050823938
-0.05365252 -0.19133332 -0.05950437 -0.112501 -0.048563037 -0.046015054 -0.09029722 -0.09903389
-0.105023615 0.16286878 -0.06814395 0.027177438 0.112209246 0.00892875 -0.034532275 -0.12120494
-0.112078995 -0.09490866 -0.015239385 0.1201594 0.051049743 -0.057050176 -0.16469103 0.042350486
-0.11030653 0.036277954 0.053028926 -0.08471102 0.096646935 -0.046984952 0.087060764 -0.07405899
0.02781306 -0.094455525 0.030489944 0.07915026 0.037754353 -0.08638808 -0.016322926 -0.023411777
0.08052212 -0.09499481 -0.028640624 -0.0037110334 0.11714724 -0.01414699 -0.09487088 -0.045115292
0.052138716 -0.019424567 -0.06555263 -0.13081093 0.0053149103 -0.051681336 -0.01894478 -0.09327692
0.04369293 0.088457026 -0.15699808 -0.107090585 -0.045153525 0.07643788 -0.07131412 -0.0064039873
-0.12762256 -0.0884714 -0.0571358 0.062035684 0.052205276 -0.03205691 -0.009570908 0.034198012
00000000: 090a b7bd ffd1 a33d 9dbe a6bd c911 aebc
00000010: 7c0c 5ebd 826a 35be 03c8 193d 8839 aabd
00000020: 16b8 acbd 431c 43be 8c32 6fbd 51e5 3b3d
00000030: 03e7 c5bd 484f cb3c 2ad5 c5bd b210 35be
00000040: 2a53 78bc d7b2 e23d 2153 7fbd 2236 03be
00000050: 103f a93c 069e 93bd 9677 34bd 304e f8bd
00000060: 9f27 8b3d 0926 f7bd 7aa4 03be c461 e03d
00000070: a631 cc3c 9d42 6bbb b2a0 1a3e b71e c03d
00000080: 3db0 083e 8526 883d 7452 9bbd 9a05 17bc
00000090: 562a 913d 2960 133e a9db 783c 9b8b 0e3e
000000a0: 7da6 c53d 8af9 033d e3d1 f63d a90f b9bd
000000b0: 5545 273e 6e19 1fbe 57a2 31be cae8 a339
000000c0: 3982 853d 9e0b 86bd 164c 16be c791 44bd
000000d0: 65a2 973d 4e7f fe3d a378 c43c 1d26 993d
000000e0: ceaf 2fbd c354 bebd fa3d a1bd 8a74 523b
000000f0: 4515 b53d 0c40 4ebe 870b 52bd 1e32 3ebd
00000100: 7088 86bd 249b dbbd 1c18 253d 1a95 b0bd
00000110: 51b0 e83d bac3 90bc 8c78 6a3d f359 c23d
00000120: 30fe f4bc 1168 133e 69d7 8dbd d403 abbd
00000130: 6361 8fbd 916b b53d 4685 b93c 1bfc bdbd
00000140: be0c bd3c f93f c4bd a18d 8a3d 1743 c23d
00000150: 7681 38be 2dfd 7ebd ec6d 783d 85f5 b43c
00000160: f1e4 27be 58a2 ca3c 2da3 353b c9bb 31be
00000170: b20a bdbd 6bf5 37bd f2a0 2fbe 320d 28be
00000180: ac97 0dbe 6b98 11be be57 dc3d 5507 b6bc
00000190: 9041 37be eac4 073c 1b47 013c a734 e23a
000001a0: cd4e fabd 9b7a abbc 35d4 06be 398d 6fbd
000001b0: a4ab 963d 2356 d73d e245 84bd eaea 0d3e
000001c0: 9f6b e9bd 3746 1fbe 2f9e aa3d 7883 b03d
000001d0: 0a46 a9bb 7883 9fbd 6240 9a3d 6688 11be
000001e0: e6cf 2a3d 4e15 eb3d 52da aa3c e31d babc
000001f0: 3d9f c3bd b947 313c 3916 a7bd 6e34 f53c
00000200: 27aa 16be a421 083e fe5e 74bc bce4 fc3c
00000210: c67d 59bd 962b 92bc bccb 0cbd 1102 acbd
00000220: 390c 0abc 3bf6 07be 7cff 92bd 8e3c ad3d
00000230: 5906 0f3e 7099 0cbd a9a0 b0bb daed f3bd
00000240: f84b 0abe 2432 023e 57a6 5cbb 348f 1abe
00000250: 0190 9ebd 68da 52bd c703 0f3e 3759 dabd
00000260: b119 9abc 9b4d 2cbe 1278 bf3c 1b73 693d
00000270: f832 a8bd 77bc 9bbb e5b9 163d 6a1a d83d
00000280: 1617 1c3e 3679 5a3e dc2e 8dbb 3711 77bd
00000290: f16a 6dbc 9959 63bd ce7c ffbc ba4d df3d
000002a0: c034 b9bc 4ad1 c2bd 7b75 7fbd 2562 ae3c
000002b0: 8267 85bd 1141 33be 2725 97bd 31db 47bd
000002c0: 9a8b d63d 2aa2 183d 007c 21be f4e0 01bd
000002d0: a63c 6c3d a7ca a2bd e87d 863d c32c 50bd
000002e0: bfc2 5bbd e2ec 43be dbba 73bd ed66 e6bd
000002f0: 09ea 46bd 487a 3cbd c0ed b8bd 48d2 cabd
00000300: 9f16 d7bd 13c7 263e 0e8f 8bbd 38a3 de3c
00000310: f6cd e53d e449 123c b771 0dbd 4c3a f8bd
00000320: ac89 e5bd 795f c2bd 9dae 79bc 2216 f63d
00000330: 8919 513d 72ad 69bd c4a4 28be b477 2d3d
00000340: 64e8 e1bd 3198 143d dc34 593d f97c adbd
00000350: d4ee c53d 4b73 40bd ea4c b23d 3dac 97bd
00000360: 37d8 e33c e671 c1bd 0cc6 f93c 8819 a23d
00000370: 4fa4 1a3d 3cec b0bd a8b7 85bc 0eca bfbc
00000380: c8e8 a43d a48c c2bd be9f eabc cf34 73bb
00000390: e4ea ef3d c7c8 67bc aa4b c2bd d0ca 38bd
000003a0: 688f 553d 4520 9fbc 7540 86bd 4df3 05be
000003b0: b328 ae3b cfaf 53bd 1532 9bbc f807 bfbd
000003c0: 5cf7 323d f528 b53d 1bc4 20be 4f52 dbbd
000003d0: e7f2 38bd 778b 9c3d 230d 92bd 8ad8 d1bb
000003e0: 7daf 02be 7e30 b5bd 3b07 6abd 2119 7e3d
000003f0: 33d5 553d 1b4e 03bd 4ccf 1cbc 3713 0c3d

combined.3.bias f4 [64]
0.086192645 0.081973135 0.06525549 0.09798782 0.13907073 0.087544724 0.15985385 0.08104063
0.073071346 0.11578163 0.07236105 0.1418191 0.082711615 0.10175883 0.09675091 0.09034355
0.0922293 0.06025506 0.11441157 0.102832675 0.086519554 0.09340474 0.091196254 0.08263724
0.08751048 0.10083017 0.11609913 0.09898076 0.10032944 -0.011681609 0.09922044 0.020641617
0.07557139 0.08122439 0.06380305 0.078819044 0.06496861 0.0953024 0.105839096 0.1327241
0.09264912 0.102414586 0.06842795 0.0808443 0.09026992 0.127601 0.085497595 0.062725134
0.11290512 0.0068562115 0.08165381 0.07350849 0.06447066 0.090066835 0.10496805 0.10663035
0.07518469 0.066779025 0.10553017 0.08572432 0.0882388 0.0706533 0.09542295 0.050632715
00000000: c585 b03d 88e1 a73d aca4 853d d7ad c83d
00000010: 8f68 0e3e a64a b33d bab0 233e a1f8 a53d
00000020: 6ea6 953d eb1e ed3d 0832 943d 0739 113e
00000030: b564 a93d ef66 d03d 5725 c63d 0a06 b93d
00000040: b7e2 bc3d 03ce 763d 9d50 ea3d f099 d23d
00000050: 2a31 b13d fc4a bf3d 1ac5 ba3d b73d a93d
00000060: b238 b33d 0c80 ce3d 61c5 ed3d 6db6 ca3d
00000070: 8579 cd3d 3864 3fbc 1634 cb3d 9c18 a93c
00000080: 2cc5 9a3d f958 a63d 2cab 823d e16b a13d
00000090: 430e 853d e82d c33d 2bc2 d83d d4e8 073e
000000a0: d2be bd3d bdbe d13d f423 8c3d b291 a53d
000000b0: 70df b83d d6a9 023e 5d19 af3d 0976 803d
000000c0: cd3a e73d 12aa e03b 1d3a a73d 9f8b 963d
000000d0: 3209 843d f674 b83d 7df9 d63d 0361 da3d
000000e0: 6efa 993d 71c3 883d 3420 d83d 3b90 af3d
000000f0: 8bb6 b43d adb2 903d 1c6d c33d 4064 4f3d

combined.6.weight f4 [1, 64]
-0.05681001 0.055040423 -0.096659906 -0.062244743 -0.056702014 0.07168772 -0.05241511 0.041811243
-0.0742073 -0.0689012 0.02987731 -0.043702196 -0.086896405 0.043146655 0.04912025 -0.07382054
-0.0420484 0.03933541 0.03925357 -0.06696359 0.04465371 -0.06859551 -0.044383254 0.040223118
0.04300234 -0.084568225 -0.09256922 0.04337996 0.045641463 0.07773411 0.05179914 0.039076097
0.0347077 -0.0754477 0.06689585 -0.13409755 -0.07079278 0.03954204 0.037000123 -0.06630839
0.038786087 -0.072157696 -0.10251276 0.041435055 0.052655615 -0.05887866 -0.091739155 -0.096325524
-0.06508493 0.10427218 0.04657622 -0.09163236 0.03571219 0.03412815 -0.08900233 -0.06403431
0.039214138 -0.08382449 0.037901748 -0.10522342 -0.07997686 -0.08914361 0.0448658 0.072024524
00000000: 9db1 68bd 1172 613d a1f5 c5bd 58f4 7ebd
00000010: 5f40 68bd 03d1 923d 3ab1 56bd 4442 2b3d
00000020: fff9 97bd 131c 8dbd 43c1 f43c 1301 33bd
00000030: bef6 b1bd 8cba 303d 5132 493d 392f 97bd
00000040: f13a 2cbd 2b1e 213d 5ac8 203d 3524 89bd
00000050: cfe6 363d ce7b 8cbd 37cb 35bd ffc0 243d
00000060: 3923 303d 1b32 adbd ee94 bdbd 2faf 313d
00000070: 8bf2 3a3d 1033 9f3d 562b 543d 420e 203d
00000080: a929 0e3d 5384 9abd b100 893d de50 09be
00000090: cefb 90bd d6f6 213d 718d 173d b1cc 87bd
000000a0: 29de 1e3d 6ac7 93bd 36f2 d1bd ceb7 293d
000000b0: 6aad 573d c02a 71bd bde1 bbbd 5146 c5bd
000000c0: 3f4b 85bd a78c d53d b5c6 3e3d bfa9 bbbd
000000d0: f246 123d f6c9 0b3d db46 b6bd 6c24 83bd
000000e0: 019f 203d 2dac abbd dd3e 1b3d 607f d7bd
000000f0: e8ca a3bd ed90 b6bd 33c5 373d 9881 933d
