data/models/nov12_24_undersample/fold0_epoch_models/epoch_12_model.pt (torch, 775579 bytes, 9 tensors)

layers1d.0.weight f4 [128, 1280]
-0.093247876 -0.051910583 0.075015195 0.012087174 0.017894275 -0.08992336 0.025818724 0.011303754
0.016790861 0.02730707 0.01827819 -0.040878106 -0.10431831 -0.03343062 -0.07040369 0.0028197512
0.026745835 0.13044636 0.022694001 -0.020432437 0.02561484 0.083930135 -0.014331285 -0.008632067
0.01186688 -0.04967114 0.06275856 0.020029794 -0.06889492 0.02614544 0.07089028 0.01638057
-0.0042103226 -0.075481854 -0.016930047 0.068056814 -0.09006428 0.024481239 0.0075936536 0.15267606
-0.009224511 -0.030754024 0.054475512 0.084484406 0.03527076 0.025871348 0.009876585 -0.0067533692
-0.009737491 -0.040759478 -0.08999682 0.025209721 -0.010983271 -0.045704916 -0.05870385 -0.015495798
-0.062261157 0.057654463 -0.055480413 0.10028908 -0.00028938305 -0.05652699 -0.10977552 0.03478318
-0.008320862 0.084444664 0.021865735 -0.10118121 0.0056210384 0.05605662 -0.105747424 -0.0069742533
0.07333184 0.10427625 -0.007054918 0.08225216 0.020235585 -0.052135404 -0.010519107 -0.036559578
-0.068280175 0.060891014 0.040315796 -0.0909232 0.047859382 -0.03387589 0.09740498 -0.06371866
-0.049924072 0.006195039 0.009847828 -0.061554566 0.019793948 -0.03549332 -0.0023798929 0.0023978772
0.031438094 -0.049122125 -0.02135768 -0.034873143 0.11207763 -0.095599085 -0.0541501 -0.01389433
0.023430767 -0.013845007 -0.10450227 0.016073404 -0.10149798 0.025040267 -0.12920508 -0.0120528545
-0.015881674 0.0839559 -0.05361666 -0.072505146 -0.002276009 -0.022380695 -0.013164172 -0.05952257
-0.05869511 0.057954688 -0.018670963 0.09801106 -0.027639009 -0.036828298 0.02864159 -0.06796839
0.07811118 0.047827754 0.048495356 -0.0067200176 -0.0462172 -0.068988524 -0.036875185 0.037657075
0.042762525 0.04357582 0.046566 0.010447711 -0.010412887 -0.11781716 0.045427885 -0.04994877
-0.016853575 0.0052476693 -0.0759889 0.0677262 0.09678705 0.0007447973 -0.1118029 0.07102019
0.017389912 -0.04509134 -0.007584006 0.025672305 0.07275753 0.04248555 -0.026632203 0.04181217
0.011748407 -0.017577428 -0.05540798 -0.06607584 -0.1588772 0.017256254 -0.15895893 -0.05509735
-0.0018812448 0.08211167 0.15806136 0.046541467 -0.086210325 -0.061234273 0.021347927 -0.003938211
-0.020138986 0.009003249 -0.032683678 0.055154633 -0.014847963 0.070800096 -0.071646795 0.021502513
0.030903779 -0.047243837 -0.013435573 0.027284643 -0.0036415507 -0.019159947 -0.064768076 0.03686243
0.043918163 0.019746505 0.001063351 0.020455092 -0.03096597 -0.027950564 0.01778972 0.05784817
-0.028155234 0.050942656 -0.11026184 -0.0057255263 0.058462635 -0.033669647 0.019391673 0.0023980832
0.06471324 0.03065281 -0.039609857 -0.046948593 -0.026196476 -0.018741779 0.037885375 -0.011125307
0.09860003 0.052407224 -0.010426515 -0.099030875 -0.047044635 0.05155168 0.041833784 0.045072682
0.09458345 0.045050796 -0.049782157 0.026332544 0.034836285 -0.012027857 0.018023925 0.05970833
0.05516943 0.045204446 0.017143628 -0.05654402 -0.000135811 0.02456886 0.15369749 -0.050757952
0.019124733 0.010409174 -0.0077555156 -0.041811783 -0.002680705 0.025826572 -0.033485387 -0.033833213
0.08287383 -0.010579723 0.04994434 0.016951041 0.007843958 0.055830806 0.087679654 0.038570784
00000000: bef8 bebd 31a0 54bd 91a1 993d 4809 463c
00000010: 0497 923c bd29 b8bd ca81 d33c 6133 393c
00000020: fd8c 893c 14b3 df3c 25bc 953c cd6f 27bd
00000030: d7a4 d5bd 8cee 08bd cf2f 90bd 93cb 383b
00000040: 151a db3c bb93 053e c5e8 b93c ed61 a7bc
00000050: 37d6 d13c 90e3 ab3d c4cd 6abc 836d 0dbc
00000060: 4d6d 423c f773 4bbd 8f87 803d 8615 a43c
00000070: c818 8dbd f62e d63c ec2e 913d 8c30 863c
00000080: bff6 89bb 3b96 9abd e2b0 8abc 5f61 8b3d
00000090: 9f73 b8bd e18c c83c 2fd4 f83b 1d57 1c3e
000000a0: 6722 17bc ddef fbbc b721 5f3d 2906 ad3d
000000b0: 1378 103d 26f0 d33c 66d1 213c 5e4b ddbb
000000c0: ff89 1fbc 69f3 26bd 4150 b8bd 9e84 ce3c
000000d0: 2df3 33bc 1435 3bbd 7373 70bd 16e2 7dbc
000000e0: 8e05 7fbd 1627 6c3d 6e3f 63bd 5c64 cd3d
000000f0: 56b8 97b9 d888 67bd fdd1 e0bd cf78 0e3d
00000100: 3a54 08bc 53f1 ac3d c51f b33c 1838 cfbd
00000110: b030 b83b a09b 653d 1b92 d8bd 4788 e4bb
00000120: 012f 963d c98e d53d f12c e7bb d273 a83d
00000130: 19c5 a53c ef8b 55bd 5558 2cbc 7fbf 15bd
00000140: 7ad6 8bbd db68 793d 2d22 253d f135 babd
00000150: 3308 443d 72c1 0abd 437c c73d ee7e 82bd
00000160: 2f7d 4cbd c1ff ca3b c958 213c a420 7cbd
00000170: eb26 a23c 7261 11bd faf7 1bbb b425 1d3b
00000180: 3bc5 003d 4834 49bd 4df6 aebc 24d7 0ebd
00000190: f588 e53d 74c9 c3bd 7fcc 5dbd 0ba5 63bc
000001a0: e1f1 bf3c 2bd6 62bc 4905 d6bd 5fac 833c
000001b0: 2cde cfbd 3f21 cd3c 564e 04be 5679 45bc
000001c0: 491a 82bc 12f1 ab3d 259d 5bbd 947d 94bd
000001d0: 1829 15bb b857 b7bc 8aae 57bc f0cd 73bd
000001e0: 496a 70bd e561 6d3d d9f3 98bc 06ba c83d
000001f0: 346b e2bc 45d9 16bd c5a1 ea3c 0333 8bbd
00000200: c1f8 9f3d 09e7 433d 11a3 463d 9833 dcbb
00000210: 3f4e 3dbd db49 8dbd 6f0a 17bd 4e3e 1a3d
00000220: c227 2f3d 8f7c 323d fdbb 3e3d e02c 2b3c
00000230: d09a 2abc 204a f1bd 9712 3a3d 1597 4cbd
00000240: 8210 8abc a4f4 ab3b 12a0 9bbd 09b4 8a3d
00000250: 4a38 c63d 803e 433a ebf8 e4bd 0973 913d
00000260: 4a75 8e3c b2b1 38bd 4183 f8bb ba4e d23c
00000270: e601 953d 5405 2e3d c72b dabc 3d43 2b3d
00000280: 647c 403c 8afe 8fbc 7af3 62bd c552 87bd
00000290: b4b0 22be fd5c 8d3c 21c6 22be c2ad 61bd
000002a0: 1a94 f6ba 2a2a a83d d6da 213e 44a2 3e3d
000002b0: 0a8f b0bd cad0 7abd d9e1 ae3c 1c0c 81bb
000002c0: 84fa a4bc 5d82 133c 52df 05bd d3e9 613d
000002d0: df44 73bc a4ff 903d 8ebb 92bd 0a26 b03c
000002e0: ec29 fd3c c182 41bd e120 5cbc 0b84 df3c
000002f0: 15a7 6ebb 52f5 9cbc 20a5 84bd 0ffd 163d
00000300: 88e3 333d 6cc3 a13c 2460 8b3a 7091 a73c
00000310: 59ac fdbc 95f8 e4bc bfbb 913c 34f2 6c3d
00000320: cea5 e6bc 3fa9 503d f6d0 e1bd 329d bbbb
00000330: 8476 6f3d 2fe9 09bd 49db 9e3c 2929 1d3b
00000340: 6088 843d 9a1b fb3c f23d 22bd 2b4d 40bd
00000350: fe99 d6bc 5c88 99bc b22d 1b3d eb46 36bc
00000360: d0ee c93d f5a8 563d f9d3 2abc b3d0 cabd
00000370: e0b1 40bd db27 533d e759 2b3d 229e 383d
00000380: f8b4 c13d 2f87 383d 60e8 4bbd 59b7 d73c
00000390: 7eb0 0e3d 7d10 45bc e9a6 933c b990 743d
000003a0: 57f9 613d 4c28 393d cb70 8c3c b49a 67bd
000003b0: 7d68 0eb9 a244 c93c e062 1d3e 92e7 4fbd
000003c0: 79ab 9c3c 3d8b 2a3c fb21 febb d542 2bbd
000003d0: c4ae 2fbb 3f92 d33c f927 09bd b294 0abd
000003e0: c1b9 a93d 9356 2dbc 7092 4c3d e9dc 8a3c
000003f0: f283 003c d8ae 643d 6491 b33d 66fc 1d3d

layers1d.0.bias f4 [128]
-0.058485482 -0.034462452 -0.036290456 -0.032527015 -0.016883614 -0.014268164 -0.042848244 -0.019781042
-0.058077946 -0.060634244 -0.032342326 -0.01808032 -0.05414055 -0.039819136 -0.054434534 -0.0465072
-0.0200248 -0.016178872 -0.034884505 -0.0387358 -0.06628369 -0.039156254 -0.0339006 -0.039794505
-0.01683276 -0.024415748 -0.044749424 -0.033394247 0.012398711 -0.0305787 -0.02504908 -0.05437399
-0.046673585 -0.025036832 -0.035787296 -0.040124323 0.0011118785 -0.0063612266 -0.06256738 -0.0063273916
-0.04130462 -0.032597546 -0.02006202 -0.035373528 -0.04037953 -0.049034584 -0.024645707 -0.022838969
-0.00054183777 -0.075382374 -0.041262757 -0.019842967 -0.057613894 -0.043044757 -0.03264447 -0.045899782
-0.04744137 -0.06451078 -0.043868564 -0.016226301 -0.06871692 -0.03866009 -0.022879153 -0.05645834
-0.055016223 -0.057792824 -0.04717212 -0.050904058 -0.053092442 -0.045726176 -0.04447358 -0.05096292
0.0005108468 -0.058519416 -0.041758012 -0.0088961115 -0.056389462 -0.013276383 -0.019345773 -0.018428613
-0.07812436 -0.011673262 -0.07738954 -0.007883528 -0.048755243 -0.037527043 -0.020621205 -0.064618714
-0.04512307 -0.03939232 -0.0038606778 -0.010774264 -0.04527282 -0.058351334 0.0066505405 -0.033542495
-0.026467765 -0.057642058 -0.06837879 -0.023864854 -0.039913796 -0.0364098 -0.03457733 -0.02956742
-0.065617286 -0.04715551 -0.04790124 -0.033483524 -0.01953149 -0.016447237 -0.040224865 -0.043400586
-0.07836631 -0.058847837 -0.03231869 -0.048857838 -0.037674725 -0.028019678 -0.03334425 -0.05838484
-0.060366828 -0.048440225 -0.059641637 -0.053496983 -0.020380316 -0.03370156 -0.04775798 -0.02228277
00000000: 798e 6fbd 8028 0dbd 4da5 14bd 0c3b 05bd
00000010: 814f 8abc 04c5 69bc a481 2fbd da0b a2bc
00000020: 24e3 6dbd 9d5b 78bd 6379 04bd 2e1d 94bc
00000030: 7bc2 5dbd 6419 23bd bff6 5ebd 557e 3ebd
00000040: 0d0b a4bc 8e89 84bc 0ee3 0ebd 6ea9 1ebd
00000050: bebf 87bd 4f62 20bd 5bdb 0abd 90ff 22bd
00000060: dbe4 89bc 8903 c8bc 2c4b 37bd 68c8 08bd
00000070: f723 4b3c 2f80 fabc ba33 cdbc 43b7 5ebd
00000080: cd2c 3fbd 0b1a cdbc b395 12bd 6759 24bd
00000090: 74bc 913a d671 d0bb 5423 80bd 0256 cfbb
000000a0: 092f 29bd 0185 05bd 1b59 a4bc d5e3 10bd
000000b0: 0265 25bd 7dd8 48bd cbe5 c9bc ca18 bbbc
000000c0: 1e0a 0eba 1362 9abd 2303 29bd b88d a2bc
000000d0: 8cfc 6bbd b34f 30bd 35b6 05bd 6901 3cbd
000000e0: e251 42bd 3a1e 84bd 86af 33bd 05ed 84bc
000000f0: 75bb 8cbd 0b5a 1ebd 106d bbbc dc40 67bd
00000100: b158 61bd 2bb8 6cbd 8e37 41bd c680 50bd
00000110: 7677 59bd 5f4b 3bbd ee29 36bd 7fbe 50bd
00000120: 59ea 053a 0eb2 6fbd 730a 2bbd ffc0 11bc
00000130: a3f8 66bd 3085 59bc 077b 9ebc 9af7 96bc
00000140: aaff 9fbd 3641 3fbc 687e 9ebd ea29 01bc
00000150: 94b3 47bd f5b5 19bd cded a8bc d156 84bd
00000160: f8d2 38bd d759 21bd 6d03 7dbb 8a86 30bc
00000170: fe6f 39bd cf01 6fbd c7ec d93b db63 09bd
00000180: edd2 d8bc 141a 6cbd 2e0a 8cbd 3a80 c3bc
00000190: a67c 23bd 7122 15bd f5a0 0dbd 6037 f2bc
000001a0: 5b62 86bd 2326 41bd 1734 44bd 0526 09bd
000001b0: 8100 a0bc 5bbc 86bc d4c2 24bd d0c4 31bd
000001c0: 847e a0bd 6e0a 71bd 9a60 04bd 281f 48bd
000001d0: d050 1abd 8689 e5bc fb93 08bd f124 6fbd
000001e0: 3543 77bd 4269 46bd ca4a 74bd a71f 5bbd
000001f0: 9ff4 a6bc a60a 0abd df9d 43bd 5b8a b6bc

layers1d.3.weight f4 [128, 128]
-0.0010458243 0.037971124 -0.009892525 -0.014213893 0.045684554 -0.12899186 -0.09495205 0.058227215
0.042914618 -0.06175278 0.07069695 0.2213629 0.032431114 0.008290176 0.05822776 0.0505388
-0.09529369 -0.10462983 0.115920365 -0.053138778 0.08491038 0.093272395 0.10330586 -0.021941196
0.04980087 0.09388847 0.08934617 -0.15516546 -0.07937521 0.028017383 -0.0026653295 -0.003726143
0.0020679997 -0.050516743 0.114155784 0.08615554 -0.02212635 -0.044760883 0.0028297026 -0.11361519
-0.05069093 0.16126712 0.14703678 -0.010598689 0.124491945 -0.016410466 -0.07610553 -0.06595952
0.07646254 0.11212852 -0.034450896 -0.042855635 0.104299344 0.16213419 -0.11023264 -0.0222849
-0.018356245 0.1965549 0.1353169 -0.111149766 -0.09164258 0.042781677 -0.021376012 0.12991212
0.06783752 0.068153076 0.13545594 -0.046838045 -0.116322 0.13901502 -0.07290034 0.08460272
-0.004797906 -0.0031587454 0.045724075 0.08531771 -0.15336555 0.14387073 -0.020304434 -0.066740856
0.034249026 -0.079601586 0.057169914 -0.107492 0.048809357 -0.017939858 0.21159406 0.0074836435
0.0025744953 -0.055699885 -0.049839158 -0.10943074 0.037546318 -0.037300065 -0.025904324 0.0074859383
-0.008500641 0.11346153 0.20509563 0.076694846 -0.14285734 0.085699 -0.038986493 -0.09980993
0.07823074 0.07267276 0.14484918 -0.08853586 -0.08006638 0.07380063 -0.0760429 -0.1717351
-0.048587512 0.013955094 0.16652587 0.054509103 0.06743405 0.13157734 -0.032770574 0.01850479
-0.04919107 0.04422839 -0.055800587 -0.038119353 0.0007863422 -0.09033095 -0.05249678 -0.16225758
-0.16141534 -0.0049719918 0.06247368 -0.018194282 -0.025532542 -0.09980083 0.08357338 0.03714951
0.012408656 -0.042923495 -0.04533291 0.08382572 0.017186005 0.01442885 0.003135943 -0.022174098
-0.13506092 -0.06555414 0.10322446 -0.08353115 0.080690205 0.10183204 0.009552339 -0.10645407
0.06505176 0.076243125 -0.06254907 0.028201764 -0.035544984 0.044802897 0.06321918 0.03872464
-0.18975465 -0.07851515 0.05965172 0.07816688 -0.14710483 -0.083487324 -0.083177924 -0.07755313
-0.10607914 0.0040516695 0.14267585 0.024981951 0.1278219 -0.14072755 -0.14536901 -0.00013194449
-0.16366768 0.12632707 0.013355019 -0.0091296 0.089371555 0.07704531 -0.102520496 0.057848834
0.018694518 0.19497265 0.046071853 0.07602434 -0.10949217 0.09349437 0.06570327 0.15589364
0.0580496 0.12127714 0.006180528 0.0027951957 -0.11651664 0.10179993 -0.11627325 0.07258637
-0.08337817 0.09099619 0.04985555 0.1992352 -0.024645755 0.08992496 0.11178402 0.05083404
0.12058439 -0.14507173 0.0940386 -0.17387655 0.06655228 -0.02983167 0.12020298 0.015199029
-0.0940812 -0.079976775 0.070673846 -0.051017795 0.04999078 0.08787271 -0.16446273 -0.050907545
0.053380564 0.13500898 0.0722591 -0.13520999 -0.07671783 0.04165157 -0.055379417 -0.07750004
-0.028172048 0.0219396 0.03070981 -0.08628752 -0.084907815 0.06474737 -0.10532126 -0.22128491
0.023579367 0.14699717 0.14851603 -0.022985922 0.18065867 0.041670155 -0.08909411 0.035366535
-0.06328337 0.04156359 -0.040574484 0.10141796 -0.0042282674 -0.23624359 -0.10714733 -0.10358997
00000000: 0a14 89ba 9c87 1b3d 4214 22bc 63e1 68bc
00000010: ba1f 3b3d 7116 04be 3876 c2bd a97f 6e3d
00000020: 3dc7 2f3d 7cf0 7cbd 90c9 903d f5ac 623e
00000030: 7dd6 043d 85d3 073c 3b80 6e3d c601 4f3d
00000040: 5729 c3bd 2a48 d6bd a867 ed3d 0ca8 59bd
00000050: 7ee5 ad3d 9905 bf3d 0692 d33d 06be b3bc
00000060: fffb 4b3d 9948 c03d 20fb b63d b2e3 1ebe
00000070: 788f a2bd b684 e53c cfac 2ebb 4e32 74bb
00000080: 4787 073b a5ea 4ebd 82ca e93d 5172 b03d
00000090: 5242 b5bc 3057 37bd 8872 393b 15af e8bd
000000a0: 4ba1 4fbd 3523 253e cf90 163e 20a6 2dbc
000000b0: a2f5 fe3d 3e6f 86bc 37dd 9bbd c915 87bd
000000c0: 6498 9c3d a3a3 e53d 621c 0dbd 6489 2fbd
000000d0: e59a d53d 8106 263e a6c1 e1bd d38e b6bc
000000e0: d65f 96bc b045 493e 8390 0a3e 7da2 e3bd
000000f0: 1baf bbbd d73b 2f3d bf1c afbc af07 053e
00000100: 66ee 8a3d d793 8b3d f6b4 0a3e 40d9 3fbd
00000110: 3b3a eebd f459 0e3e c64c 95bd 3144 ad3d
00000120: c137 9dbb f402 4fbb 2b49 3b3d 0dbb ae3d
00000130: dc0b 1dbe d952 133e 7c55 a6bc 6eaf 88bd
00000140: b548 0c3d 2806 a3bd 002b 6a3d c424 dcbd
00000150: 52ec 473d 9cf6 92bc 1dac 583e 5a39 f53b
00000160: ddb8 283b 9025 64bd 2524 4cbd 391d e0bd
00000170: 2bca 193d f4c7 18bd 4e35 d4bc 9a4c f53b
00000180: 4646 0bbc 855e e83d 9704 523e 3012 9d3d
00000190: 3249 12be f582 af3d 4db0 1fbd 2669 ccbd
000001a0: 7037 a03d 75d5 943d 5853 143e 4a52 b5bd
000001b0: d8f9 a3bd c924 973d 61bc 9bbd 53db 2fbe
000001c0: b303 47bd e8a3 643c c285 2a3e f044 5f3d
000001d0: dd1a 8a3d 36bc 063e 703a 06bd 5b97 973c
000001e0: 937c 49bd d428 353d 288f 64bd 0a23 1cbd
000001f0: 8822 4e3a 6fff b8bd dd06 57bd da26 26be
00000200: 104a 25be 17ec a2bb 67e4 7f3d 2d0c 95bc
00000210: 9f29 d1bc 6164 ccbd 8528 ab3d 162a 183d
00000220: ad4d 4b3c 8cd0 2fbd 00af 39bd d2ac ab3d
00000230: aac9 8c3c fc66 6c3c 6584 4d3b 74a6 b5bc
00000240: 694d 0abe 4041 86bd 5867 d33d 6112 abbd
00000250: e840 a53d 518d d03d 6a81 1c3c 9704 dabd
00000260: db39 853d 5b25 9c3d ba19 80bd 6307 e73c
00000270: 9e97 11bd 3e83 373d 0f79 813d ba9d 1e3d
00000280: 0b4f 42be 8dcc a0bd 5d55 743d f515 a03d
00000290: a6a2 16be 67fb aabd 3059 aabd 2dd4 9ebd
000002a0: 0540 d9bd dec3 843b 9e19 123e f3a6 cc3c
000002b0: bfe3 023e e21a 10be 9ddb 14be 945a 0ab9
000002c0: 8098 27be e25b 013e 02cf 5a3c 5194 15bc
000002d0: 6f08 b73d eec9 9d3d 44f6 d1bd e6f2 6c3d
000002e0: 3f25 993c e9a6 473e d7b5 3c3d a6b2 9b3d
000002f0: 6e3d e0bd fa79 bf3d 708f 863d 95a2 1f3e
00000300: 6bc5 6d3d 2660 f83d 0786 ca3b 9a2f 373b
00000310: 47a0 eebd 7b7c d03d ab20 eebd 2aa8 943d
00000320: 2dc2 aabd 365c ba3d 5535 4c3d 5004 4c3e
00000330: e5e5 c9bc 942a b83d 05ef e43d 5b37 503d
00000340: f3f4 f63d af8d 14be 4f97 c03d b20c 32be
00000350: 904c 883d 8c61 f4bc fb2c f63d 5905 793c
00000360: a5ad c0bd ddca a3bd 73bd 903d 09f8 50bd
00000370: 22c3 4c3d 9bf6 b33d eb68 28be 6e84 50bd
00000380: 94a5 5a3d cb3f 0a3e 94fc 933d 7d74 0abe
00000390: 3d1e 9dbd d69a 2a3d 87d5 62bd 57b8 9ebd
000003a0: 11c9 e6bc adba b33c 2493 fb3c 83b7 b0bd
000003b0: 26e4 adbd 459a 843d acb2 d7bd 8398 62be
000003c0: 8429 c13c 6d86 163e 9614 183e f94c bcbc
000003d0: 96fe 383e 53ae 2a3d f976 b6bd 80dc 103d
000003e0: b69a 81bd 953e 2a3d 6e31 26bd 38b4 cf3d
000003f0: 478d 8abb d7e9 71be 0f70 dbbd fa26 d4bd

layers1d.3.bias f4 [128]
0.014414656 0.0011342021 -0.018446743 0.034647558 0.001698634 -0.020417867 0.008454629 0.0049083163
0.008759732 0.012220207 -0.03806633 -0.024322184 -0.0013795072 -0.008999571 -0.04504407 -0.015768344
0.015573488 0.0010049011 -0.02605401 -0.03627002 -0.0036520076 -0.15220366 -0.025285648 0.0033290545
-0.009250771 -0.017860916 -0.017246787 0.027536381 -0.022627557 -0.027270561 -0.032890666 -0.0010209836
-0.015606417 -0.026149275 0.004371419 -0.014419363 -0.01735059 0.005728872 -0.001436944 -0.025887784
-0.036475755 -0.027215507 -0.019599743 -0.020552184 -0.028147263 -0.0012178298 -0.028386658 -0.031727914
-0.0047016665 -0.007798116 -0.009101752 -0.050655007 -0.0031437723 0.0026781275 0.0073414897 -0.017672826
0.010340798 -0.036170736 0.015832957 -0.029580023 -0.004498139 0.0020324565 -0.082746826 -0.020717306
0.0089107985 -0.023891782 -0.020421008 -0.022406055 -0.024542885 0.0061876797 -0.00046384113 -0.016777547
-0.0037533299 -0.022752427 -0.006883377 -0.041073035 -0.020171115 0.009394147 -0.029466778 -0.037744366
-0.02240781 0.010457403 0.006267603 -0.00298901 -0.030738726 -0.038036395 0.014072777 -0.014987372
0.014489733 -0.0012968237 -0.011457969 0.046759047 -0.013307754 -0.03276291 0.009587957 -0.0009156286
-0.0017445654 0.016857227 0.01636945 -0.008423687 -0.009372746 -0.021550052 0.016107352 -0.043127794
-0.0018286263 -0.029149896 0.00046709747 0.0020191101 0.002384781 -0.017802017 -0.036778722 -0.011544385
-0.0051749283 -0.022416659 -0.025495702 -0.004382173 -0.0050496943 -0.002109015 -0.029571436 -0.01763657
-0.031341095 0.003903292 -0.013970906 -0.024142122 -0.032398462 -0.0022781503 -0.023779022 -0.01975771
00000000: 732b 6c3c 82a9 943a a01d 97bc 99ea 0d3d
00000010: b3a4 de3a 5f43 a7bc 4985 0a3c f1d5 a03b
00000020: fb84 0f3c 4337 483c 71eb 1bbd 513f c7bc
00000030: 95d0 b4ba f072 13bc 2180 38bd 9d2c 81bc
00000040: f127 7f3c e3b6 833a 386f d5bc df8f 14bd
00000050: 8556 6fbb 47db 1bbe d923 cfbc 442c 5a3b
00000060: 8c90 17bc 0e51 92bc 2249 8dbc fa93 e13c
00000070: 6d5d b9bc 8366 dfbc 5db8 06bd 86d2 85ba
00000080: 0fb2 7fbc 0137 d6bc 1f3e 8f3b 313f 6cbc
00000090: d322 8ebc 43b9 bb3b d757 bcba 9e12 d4bc
000000a0: 9a67 15bd 0ef3 debc a48f a0bc 0e5d a8bc
000000b0: 1795 e6bc 969f 9fba 238b e8bc 21f5 01bd
000000c0: 7010 9abb 5787 ffbb 841f 15bc a07b 4fbd
000000d0: bf07 4ebb 8683 2f3b e190 f03b 9ac6 90bc
000000e0: 736c 293c c427 14bd 1eb4 813c ce51 f2bc
000000f0: 2065 93bb f632 053b 2b77 a9bd 57b7 a9bc
00000100: 99fe 113c b3b8 c3bc f549 a7bc e78c b7bc
00000110: 290e c9bc 05c2 ca3b b42f f3b9 1171 89bc
00000120: 6dfa 75bb 4c63 babc f48d e1bb 333c 28bd
00000130: e53d a5bc e9e9 193c 5064 f1bc d699 1abd
00000140: 9590 b7bc 8755 2b3c 7760 cd3b 44e3 43bb
00000150: c8cf fbbc 0dcc 1bbd 8191 663c 988d 75bc
00000160: 5866 6d3c 2ffa a9ba 35ba 3bbc 6a86 3f3d
00000170: c408 5abc 6732 06bd ce16 1d3c cc06 70ba
00000180: e7a9 e4ba 2b18 8a3c 3a19 863c 8103 0abc
00000190: 2590 19bc bc89 b0bc 91f3 833c c5a6 30bd
000001a0: 84ae efba c3cb eebc c3e4 f439 0c53 043b
000001b0: fc49 1c3b 89d5 91bc 49a5 16bd a924 3dbc
000001c0: 7292 a9bb 24a3 b7bc 5ddc d0bc 5598 8fbb
000001d0: e877 a5bb 6637 0abb cc3f f2bc 917a 90bc
000001e0: 855f 00bd 5fce 7f3b 3ae6 64bc b3c5 c5bc
000001f0: 40b4 04bd 054d 15bb 39cc c2bc ecda a1bc

combined.0.weight f4 [64, 128]
-0.06230224 0.021535423 0.025824426 -0.07809078 0.04132766 0.034683246 0.06119228 0.10756081
0.020018036 0.040846497 -0.0837309 0.006465901 -0.06851106 0.053855747 0.10206977 -0.039678764
-0.02309219 -0.035070237 0.09363593 0.020606587 -0.0073090144 -0.012460685 0.015846672 0.014581059
-0.15405919 0.03483977 0.061931722 -0.041296843 -0.024478655 -0.071209885 -0.0151863815 -0.044394583
0.09357041 0.08228373 -0.025712067 0.04709729 0.052813213 -0.112525985 0.021527838 0.047528744
0.0005159042 0.1255192 -0.036668234 -0.07818097 -0.03398486 -0.08262673 0.09303404 -0.073292814
0.050300177 -0.07245324 -0.008404568 -0.033292655 -0.055426683 -0.0028826334 0.08584088 9.149143e-05
-0.11061643 0.051352996 0.01488287 0.05326115 0.03690542 0.092527606 0.078209646 0.11165617
-0.02082176 -0.050586857 0.1493723 -0.0040302793 0.029805861 0.014242359 0.0237953 0.038152277
-0.1210649 -0.014830602 -0.014675469 -0.0040980587 0.040088393 0.017237488 0.069757536 0.08251422
0.0365004 0.116849385 -0.09072985 0.059727482 0.123329856 0.10068057 -0.09731124 -0.0271186
0.014524339 -0.04436745 0.08492961 0.029752506 0.09021987 0.17227052 0.0475585 -0.05965491
0.07365069 -0.019586787 0.102345206 0.03269297 -0.06757048 -0.10480134 -0.02220244 0.105242774
-0.03397429 0.05265346 0.05323322 -0.07155084 -0.13560964 0.09989601 -0.02657425 0.05049679
0.032787774 0.13258348 0.054469198 -0.0010139823 -0.013002565 0.056272175 -0.04709967 0.02463273
0.06772594 -0.021153217 0.06297304 -0.081055954 0.011564365 0.09134778 0.057750758 -0.14526057
0.03389294 0.0767387 0.009236086 -0.13003625 0.08973526 -0.0023161797 0.003206061 0.02033471
-0.05523832 -0.22948013 -0.035225056 -0.09505803 -0.12738198 0.015266704 0.07211241 0.07367759
0.015053263 -0.051500797 0.09633285 -0.011173789 -0.076960474 0.015202141 0.15085708 0.078134656
-0.18225048 0.111482725 -0.026512936 -0.0049768197 -0.08758369 0.0052650757 0.10793653 -0.12317772
0.07264997 0.0444458 -0.056285895 0.15488197 0.059517797 -0.0973216 -0.015456438 0.06630442
0.028824238 -0.01491973 0.06133593 -0.07705916 0.018124849 -0.08634912 0.12552306 -0.1230848
0.055901334 0.14984229 -0.16961358 -0.04376359 -0.122934625 0.024735173 0.09075845 -0.008318225
-0.08969969 -0.026380885 0.052209206 -0.030466242 -0.14340173 0.033402238 0.026894327 0.0051193708
0.11601958 0.0462993 -0.012249242 -0.047724105 0.10933849 -0.102509476 -0.03029505 -0.097154096
-0.02567993 0.08542701 0.07258189 0.037268825 -0.105095334 -0.21387932 -0.0365008 0.005557887
0.055597328 0.012972419 -0.05942707 0.06886719 -0.005829956 0.08471533 -0.11038887 0.05864162
-0.0034926846 -0.26871878 0.04523669 -0.09815479 -0.05994746 0.065945596 -0.050367825 -0.09960949
0.016754998 -0.015388717 0.12429464 0.015107995 -0.019162538 -0.02535994 -0.02775855 -0.08006426
0.0013396263 -0.021094214 -0.11706529 -0.014517403 -0.09430913 0.069745444 0.07360889 0.0014541899
-0.0077931876 -0.08876074 0.12170073 0.029389847 0.06416398 -0.053782586 -0.0753363 0.11861853
-0.036696997 -0.03005362 0.07130053 -0.069780536 0.039085418 0.045695644 0.08947628 0.043550104
00000000: a230 7fbd 0e6b b03c bf8d d33c 0fee 9fbd
00000010: 3147 293d 0510 0e3d c2a4 7a3d d848 dc3d
00000020: ddfc a33c a84e 273d 1b7b abbd e9df d33b
00000030: 874f 8cbd d897 5c3d f509 d13d 3386 22bd
00000040: d52b bdbc cfa5 0fbd 32c4 bf3d 25cf a83c
00000050: 7580 efbb e727 4cbc e1d0 813c 65e5 6e3c
00000060: b1c1 1dbe 26b4 0e3d 1eac 7d3d e126 29bd
00000070: 7687 c8bc 7dd6 91bd 4dd0 78bc 18d7 35bd
00000080: d8a1 bf3d 5f84 a83d 1da2 d2bc 17e9 403d
00000090: ab52 583d 0674 e6bd 265b b03c 80ad 423d
000000a0: bf3d 073a 1b88 003e 6e31 16bd 581d a0bd
000000b0: b533 0bbd 3438 a9bd a188 be3d 8b1a 96bd
000000c0: 8f07 4e3d 5d62 94bd 50b3 09bc e15d 08bd
000000d0: 1707 63bd 90ea 3cbb 58cd af3d 16df bf38
000000e0: de8a e2bd 8557 523d 48d7 733c 5d28 5a3d
000000f0: 232a 173d 1d7f bd3d 612c a03d fdab e43d
00000100: 6592 aabc 2a34 4fbd 0df5 183e 6f10 84bb
00000110: 6c2b f43c c958 693c 5cee c23c 9045 1c3d
00000120: e0f0 f7bd 0efc 72bc 6171 70bc 0249 86bb
00000130: ba33 243d a235 8d3c 0add 8e3d 37fd a83d
00000140: 7281 153d bb4e ef3d 92d0 b9bd cea4 743d
00000150: 5d94 fc3d 9d31 ce3d 1e4b c7bd d427 debc
00000160: 7ef7 6d3c a5ba 35bd 93ef ad3d 87bb f33c
00000170: 32c5 b83d af67 303e b4cc 423d b558 74bd
00000180: 2cd6 963d 7874 a0bc 5d9a d13d 10e9 053d
00000190: 6462 8abd 16a2 d6bd e4e1 b5bc 8689 d73d
000001a0: a028 0bbd 28ab 573d 140b 5a3d 3f89 92bd
000001b0: 41dd 0abe 4796 cc3d 3eb2 d9bc b9d5 4e3d
000001c0: 794c 063d f7c3 073e 181b 5f3d 9ae7 84ba
000001d0: b608 55bc a77d 663d 95eb 40bd 94ca c93c
000001e0: e6b3 8a3d 8349 adbc 02f8 803d aa00 a6bd
000001f0: 7678 3d3c 8b14 bb3d 0f8c 6c3d 30bf 14be
00000200: 53d3 0a3d 2e29 9d3d f452 173c 3928 05be
00000210: 1fc7 b73d 0ccb 17bb c71c 523b fa94 a63c
00000220: 9441 62bd d7fc 6abe 2648 10bd c9ad c2bd
00000230: 6c70 02be 3321 7a3c acaf 933d 47e4 963d
00000240: f6a1 763c 80f2 52bd 284a c53d 4512 37bc
00000250: 749d 9dbd 6712 793c 477a 1a3e 1005 a03d
00000260: df9f 3abe 0e51 e43d a831 d9bc 9714 a3bb
00000270: 145f b3bd a886 ac3b d40d dd3d 9a44 fcbd
00000280: 82c9 943d cd0c 363d 0a8c 66bd 6199 1e3e
00000290: efc8 733d 8c50 c7bd 003d 7dbc 9dca 873d
000002a0: cf20 ec3c e271 74bc 623b 7b3d 31d1 9dbd
000002b0: 907a 943c cfd7 b0bd 1e89 003e e213 fcbd
000002c0: ccf8 643d 4270 193e 2faf 2dbe 7341 33bd
000002d0: 26c5 fbbd 6ba1 ca3c 91df b93d 2a49 08bc
000002e0: 79b4 b7bd ba1c d8bc 52d9 553d 5794 f9bc
000002f0: e7d7 12be c9d0 083d 7e51 dc3c 65c0 a73b
00000300: ac9b ed3d 56a4 3d3d 0bb1 48bc 5a7a 43bd
00000310: dcec df3d 7df0 d1bd 532d f8bc baf8 c6bd
00000320: b75e d2bc 5bf4 ae3d d0a5 943d 32a7 183d
00000330: 393c d7bd 2e03 5bbe dd81 15bd ef1e b63b
00000340: 06ba 633d 458a 543c cd69 73bd 3e0a 8d3d
00000350: 3709 bfbb 3b7f ad3d 8f13 e2bd 3232 703d
00000360: 86e5 64bb 8295 89be 1c4a 393d 6105 c9bd
00000370: 788b 75bd 7c0e 873d 7e4e 4ebd 0f00 ccbd
00000380: c741 893c f520 7cbc 308e fe3d 8687 773c
00000390: c1fa 9cbc a6bf cfbc e665 e3bc bbf8 a3bd
000003a0: 6696 af3a c6cd acbc edbf efbd 67da 6dbc
000003b0: 2525 c1bd b3d6 8e3d 42c0 963d 849a be3a
000003c0: ff5d ffbb 31c8 b5bd 3b3e f93d fac2 f03c
000003d0: 6868 833d 214b 5cbd eb49 9abd 46ee f23d
000003e0: 974f 16bd 0233 f6bc 0306 923d 19e9 8ebd
000003f0: 0818 203d 5b2b 3b3d 573f b73d 9861 323d

combined.0.bias f4 [64]
0.026140472 -0.0042780237 -0.011003385 0.0026496316 0.062946655 0.081871 -0.013215996 -0.0027189301
0.00074851833 0.030678848 -0.0019230301 0.026123816 0.023342967 -0.0065416098 0.02255161 0.03835052
0.0053669093 -0.028192833 0.0952859 0.10262975 0.03824989 0.007482797 0.07370773 0.035901565
0.075752236 0.031034034 0.02441774 -0.010721502 0.02686616 0.002336661 0.03624029 0.016196461
0.009340197 0.01712626 0.0043047946 0.08252147 0.026176445 0.0032826404 0.0077277645 -0.013139799
0.023855696 0.007633649 0.007693679 0.030325567 0.10067807 0.015593113 -0.036595285 0.08216574
0.027306875 0.0717381 -0.026743425 0.1025065 0.025531184 0.04014985 0.09388575 0.052477032
0.009264883 0.093398325 0.009927627 0.09901999 0.024659188 0.009622308 0.09025127 0.03279303
00000000: 8b24 d63c aa2e 8cbb 8b47 34bc 71a5 2d3b
00000010: 2dea 803d fcab a73d e887 58bc 1430 32bb
00000020: 3738 443a 3552 fb3c 2f0e fcba 9d01 d63c
00000030: c039 bf3c 005b d6bb 27be b83c 6f15 1d3d
00000040: e6dc af3b a8f4 e6bc 4125 c33d 8c2f d23d
00000050: ebab 1c3d 4032 f53b 14f4 963d 850d 133d
00000060: fd23 9b3d 163b fe3c b607 c83c 3da9 2fbc
00000070: 6c16 dc3c ab22 193b b370 143d 71ae 843c
00000080: a007 193c 5f4c 8c3c 3c0f 8d3b 0401 a93d
00000090: fc6f d63c 9121 573b 3039 fd3b 5048 57bc
000000a0: 056d c33c b023 fa3b 421b fc3b 536d f83c
000000b0: 4e30 ce3d 427a 7f3c f0e4 15bd 8346 a83d
000000c0: abb2 df3c 6deb 923d 0715 dbbc eeee d13d
000000d0: c626 d13c 2b74 243d 2c47 c03d 28f2 563d
000000e0: bccb 173c 9f47 bf3d 7ca7 223c feca ca3d
000000f0: 1102 ca3c e3a6 1d3c a8d5 b83d fc51 063d

combined.3.weight f4 [64, 64]
-0.07917937 -0.036222637 -0.046502817 0.039048247 -0.11026559 -0.0038001381 0.13923568 -0.08233556
-0.06524824 -0.065162264 -0.08529271 -0.019482825 -0.17664842 -0.18703042 -0.13423772 -0.1372412
-0.11159521 -0.023814488 0.041583534 0.08741573 -0.234328 -0.2072718 -0.058679428 -0.1710477
-0.12149795 -0.07595154 -0.071994476 -0.24351043 -0.28005195 -0.11413505 -0.11675384 -0.025062434
-0.056113612 0.09008504 -0.20742983 0.08053557 -0.116716005 0.034510165 -0.18102646 -0.050533134
-0.099922225 -0.13757247 -0.16357186 -0.03566828 0.085643046 -0.24600556 0.09978668 -0.020159122
-0.11166801 -0.09925122 0.03201016 0.07892511 -0.123024315 -0.11349325 0.1462814 -0.16172938
0.054552037 0.11405174 -0.14106447 -0.070859514 -0.10072975 0.13312252 -0.049439013 -0.26398408
-0.08094146 -0.08164252 0.11995614 0.09181675 -0.11646185 -0.033260584 0.021798627 0.05358082
-0.16731915 -0.052397303 -0.022580307 -0.09817849 -0.09122598 -0.104973994 -0.23479125 -0.13758393
-0.2198226 -0.08046153 -0.011725837 0.037077606 -0.024724571 -0.16397402 -0.0489534 -0.14866494
0.017040493 -0.038948074 -0.0059223035 -0.18811569 -0.18150875 0.06282684 -0.038951747 0.10078461
-0.080526955 0.12148459 -0.10347289 -0.043977972 -0.21385644 0.06330204 -0.14590812 0.123567946
-0.02916916 -0.16395652 -0.045830704 -0.11897813 -0.09441437 -0.23000087 -0.08833222 -0.02390313
-0.18466885 0.07186047 -0.0257012 0.0244008 -0.08021668 -0.073914394 -0.05069117 -0.031887997
0.094161935 0.00360589 -0.22727145 0.007071503 -0.22743341 0.019524558 0.045957353 0.009566823
-0.20405273 -0.07032164 -0.05362184 0.09988348 -0.24685514 -0.0060364814 -0.032056354 0.005899903
-0.037048254 -0.18249582 -0.19395484 -0.26399016 -0.13135096 -0.17818911 -0.3264359 -0.36986035
-0.20237336 -0.058830358 0.0029804895 0.004215362 -0.10995084 -0.29511398 -0.004576252 -0.20524219
-0.02177711 -0.17226957 0.08508467 -0.2924788 -0.29397053 0.089347236 -0.24766955 0.053891573
-0.2314218 0.083096 -0.32070798 -0.0011023511 -0.18884571 0.11563298 -0.11783693 -0.035476845
-0.41869226 -0.32944414 -0.15914616 -0.18978305 -0.0028178305 -0.35740745 -0.044269774 -0.014398776
-0.30741784 0.03501088 0.11831516 0.0051639103 -0.1998834 -0.21232279 -0.048345268 -0.29456434
0.06940322 -0.009478655 -0.16918552 -0.022475056 -0.3047675 -0.10029075 0.012005695 -0.18471022
0.04622499 -0.03296257 -0.1867121 -0.35809562 0.06889319 -0.1902812 0.0014620543 -0.12174604
0.0075594033 0.027971437 0.028907705 -0.03636092 -0.08691416 -0.03247757 0.038901575 0.1064373
0.09369959 0.12076326 -0.2753261 -0.14745848 0.103429966 -0.03930218 -0.26044542 0.061586622
-0.17642744 0.09425299 -0.32233018 0.09169246 0.011798391 -0.3070694 -0.01395177 -0.26781648
0.015567973 -0.14202099 0.04701761 -0.3175844 -0.021205612 -0.05935989 -0.030943781 -0.15076248
-0.0013956178 0.017632721 0.16386613 0.07484441 -0.13089322 -0.031622875 0.1568096 -0.18643181
0.0302343 -0.3064899 0.01503629 -0.11113889 0.066573575 -0.053447146 -0.24343444 0.017284565
-0.11455532 -0.13663231 0.03736513 -0.1687467 0.07795984 -0.21433838 -0.29649463 0.08635844
00000000: cb28 a2bd 305e 14bd bd79 3ebd 0ef1 1f3d
00000010: edd2 e1bd bd0b 79bb cc93 0e3e 8c9f a8bd
00000020: dfa0 85bd cb73 85bd f2ad aebd 729a 9fbc
00000030: 53e3 34be e784 3fbe 9d75 09be f588 0cbe
00000040: 088c e4bd 9a16 c3bc 7f53 2a3d 0507 b33d
00000050: aef3 6fbe 0f3f 54be d759 70bd 2127 2fbe
00000060: ebd3 f8bd 7b8c 9bbd d771 93bd cc5a 79be
00000070: f862 8fbe a3bf e9bd a31c efbd bc4f cdbc
00000080: 63d7 65bd 817e b83d 7c68 54be d5ef a43d
00000090: cd08 efbd 885a 0d3d 005f 39be d5fb 4ebd
000000a0: 06a4 ccbd ccdf 0cbe 627f 27be e718 12bd
000000b0: 9f65 af3d e2e8 7bbe f55c cc3d be24 a5bc
000000c0: 33b2 e4bd 3944 cbbd 161d 033d 7da3 a13d
000000d0: 2cf4 fbbd 266f e8bd cbca 153e 639c 25be
000000e0: f571 5f3d f593 e93d 3473 10be cb1e 91bd
000000f0: 664b cebd 4551 083e 9080 4abd ec28 87be
00000100: a3c4 a5bd 3234 a7bd 91ab f53d 6c0a bc3d
00000110: 8d83 eebd 403c 08bd 0993 b23c 9077 5b3d
00000120: b655 2bbe 8e9e 56bd 56fa b8bc ce11 c9bd
00000130: b0d4 babd 9bfc d6bd 1e6d 70be cde2 0cbe
00000140: 2d19 61be 04c9 a4bd ba1d 40bc b0de 173d
00000150: 2f8b cabc cee8 27be 5c83 48bd 9f3b 18be
00000160: 8198 8b3c 0488 1fbd e20f c2bb 66a1 40be
00000170: 6edd 39be 5cab 803d de8b 1fbd 2968 ce3d
00000180: 51eb a4bd eacc f83d 98e9 d3bd 3f22 34bd
00000190: 2ffd 5abe 80a4 813d f068 15be 3111 fd3d
000001a0: 2af4 eebc 38e4 27be fab8 3bbd ceaa f3bd
000001b0: 525c c1bd 5985 6bbe 86e7 b4bd 7fd0 c3bc
000001c0: d519 3dbe 952b 933d 538b d2bc 30e4 c73c
000001d0: a548 a4bd 6e60 97bd 8ba1 4fbd fd9c 02bd
000001e0: f9d7 c03d cc50 6c3b d9b9 68be 11b8 e73b
000001f0: 4ee4 68be f7f1 9f3c c73d 3c3d 2abe 1c3c
00000200: 33f3 50be cb04 90bd 93a2 5bbd b68f cc3d
00000210: 98c7 7cbe adcd c5bb 864d 03bd f953 c13b
00000220: e9bf 17bd 2fe0 3abe 199c 46be b829 87be
00000230: de80 06be 3577 36be 9b22 a7be 565e bdbe
00000240: f63a 4fbe 1af8 70bd 5154 433b 0521 8a3b
00000250: e82d e1bd 2e19 97be 62f4 95bb 022b 52be
00000260: e965 b2bc 6f67 30be df40 ae3d c8bf 95be
00000270: 4e83 96be affb b63d 169d 7dbe 69bd 5c3d
00000280: d6f9 6cbe 3c2e aa3d d633 a4be c47c 90ba
00000290: c560 41be fcd0 ec3d 7d54 f1bd 2b50 11bd
000002a0: d55e d6be e7ac a8be 36f7 22be 7d56 42be
000002b0: 5aab 38bb 1cfe b6be 3954 35bd d8e8 6bbc
000002c0: df65 9dbe 9267 0f3d 384f f23d 0536 a93b
000002d0: 3cae 4cbe 256b 59be b005 46bd 23d1 96be
000002e0: 4723 8e3d 5c4c 1bbc f83e 2dbe 9c1d b8bc
000002f0: 7c0a 9cbe 3d65 cdbd 89b3 443c ad24 3dbe
00000300: 6a56 3d3d c303 07bd 7531 3fbe 4f58 b7be
00000310: df17 8d3d 13d9 42be 67a2 bf3a fd55 f9bd
00000320: dfb4 f73b 5b24 e53c dacf ec3c 30ef 14bd
00000330: 0d00 b2bd 3307 05bd 4257 1f3d cdfb d93d
00000340: 92e5 bf3d ba52 f73d 8bf7 8cbe 5bff 16be
00000350: 17d3 d33d 53fb 20bd 1a59 85be 4142 7c3d
00000360: 65a9 34be b607 c13d 7608 a5be 42c9 bb3d
00000370: 0a4e 413c 3338 9dbe f795 64bc 3e1f 89be
00000380: d010 7f3c f36d 11be 8a95 403d 6c9a a2be
00000390: 64b7 adbc 5b23 73bd d07d fdbc 7b61 1abe
000003a0: 2aed b6ba 7f72 903c 86cc 273e 0748 993d
000003b0: df08 06be fd86 01bd b292 203e fbe7 3ebe
000003c0: ecad f73c 3fec 9cbe c55a 763c c99c e3bd
000003d0: ba57 883d 65eb 5abd e146 79be 5c98 8d3c
000003e0: fb9b eabd 57e9 0bbe 2e0c 193d efcb 2cbe
000003f0: 69a9 9f3d 857b 5bbe 25ce 97be b2dc b03d

combined.3.bias f4 [64]
0.088566445 0.16391273 0.12566681 0.1370004 0.1673108 0.10332761 0.11140937 0.10557952
0.13798891 0.13476516 0.15876836 0.19420628 0.10930874 0.108424954 0.1784699 0.112006724
0.12428272 0.15241614 0.1363611 0.12545544 0.09851324 0.122363634 0.15262648 0.12710726
0.14427853 0.10672759 0.09974361 0.17800762 0.12932315 0.14468057 0.17537315 0.105848886
0.08730916 0.095043324 0.14995123 0.13685048 0.16409484 0.16363335 0.100213714 0.16743122
0.14789361 0.103368044 0.1551795 0.14006805 0.1467835 0.13238859 0.10605595 0.12076882
0.12562618 0.11997543 0.14552751 0.15305862 0.14864093 0.09560412 0.15804166 0.11381921
0.13967744 0.13435379 0.1366899 0.15826434 0.123883426 0.14350103 0.14055008 0.111401394
00000000: 5362 b53d bdd8 273e cdae 003e d549 0c3e
00000010: 8653 2b3e 6d9d d33d 992a e43d 133a d83d
00000020: f74c 0d3e e1ff 093e 2c94 223e 03de 463e
00000030: 43dd df3d e70d de3d d0c0 363e c863 e53d
00000040: f087 fe3d fa12 1c3e 3fa2 0b3e 6477 003e
00000050: 4fc1 c93d c999 fa3d 1e4a 1c3e 6828 023e
00000060: c0bd 133e ff93 da3d 6146 cc3d a147 363e
00000070: 4a6d 043e 2527 143e 0595 333e 4dc7 d83d
00000080: 25cf b23d 13a6 c23d d18c 193e 8822 0c3e
00000090: 7a08 283e 808f 273e d93c cd3d 1773 2b3e
000000a0: 6c71 173e a0b2 d33d 60e7 1e3e 006e 0f3e
000000b0: 6a4e 163e e090 073e dd33 d93d a555 f73d
000000c0: 26a4 003e aeb5 f53d 2a05 153e 66bb 1c3e
000000d0: 5435 183e 18cc c33d acd5 213e 0c1a e93d
000000e0: 9a07 0f3e 0a94 093e 70f8 0b3e 0c10 223e
000000f0: 98b6 fd3d eff1 123e 5cec 0f3e 6a26 e43d

combined.6.weight f4 [1, 64]
-0.089327395 -0.09704704 -0.14550868 0.02545041 -0.06682116 -0.075678304 0.027886592 -0.12130703
0.049932312 0.025481042 -0.06998841 -0.06715923 0.022372156 0.025630346 -0.06381352 0.03625915
0.043233063 -0.041418288 0.060147967 -0.06501203 0.03185636 0.048953902 -0.07523091 0.035781465
-0.113262415 0.044830684 -0.11914035 -0.06520131 0.04180085 0.040382754 -0.051345967 0.021569831
-0.07462591 -0.083729126 0.046969905 -0.038571898 -0.061072826 -0.059739847 0.024228025 -0.05228119
0.028419975 0.026375063 0.034192037 0.03600256 -0.07652348 0.030574562 -0.0975411 -0.12370219
-0.062093787 0.03580315 0.024111595 0.059368778 0.037401784 -0.090943255 -0.051412825 0.05441771
-0.079924144 -0.11350294 -0.06280518 -0.08157887 0.06428525 -0.07113985 0.038905613 -0.08419792
00000000: 48f1 b6bd 99c0 c6bd 3a00 15be 617d d03c
00000010: 88d9 88bd 3afd 9abd 6c72 e43c d26f f8bd
00000020: d385 4c3d 9ebd d03c 1556 8fbd c78a 89bd
00000030: d045 b73c bbf6 d13c aab0 82bd 7984 143d
00000040: 2715 313d 39a6 29bd b75d 763d 0725 85bd
00000050: d17b 023d e383 483d aa12 9abd 968f 123d
00000060: 20f6 e7bd 61a0 373d dbff f3bd 4488 85bd
00000070: 5e37 2b3d 6368 253d 2650 52bd 37b3 b03c
00000080: 78d5 98bd 2d7a abbd 8463 403d 91fd 1dbd
00000090: 8027 7abd c5b1 74bd da79 c63c cd24 56bd
000000a0: 02d1 e83c 8410 d83c f30c 0c3d 6c77 133d
000000b0: 58b8 9cbd 8177 fa3c a1c3 c7bd 9357 fdbd
000000c0: 0e56 7ebd 53a6 123d ae85 c53c ad2c 733d
000000d0: 9d32 193d 7540 babd 4196 52bd 1be5 5e3d
000000e0: 45af a3bd 3b74 e8bd 01a0 80bd d312 a7bd
000000f0: fca7 833d c5b1 91bd 7e5b 1f3d f66f acbd
