data/models/nov12_24_undersample/fold0_epoch_models/epoch_7_model.pt (torch, 775567 bytes, 9 tensors)

layers1d.0.weight f4 [128, 1280]
0	0xbde41a47	-0.111378245
1	0xbd60665f	-0.05478513
2	0x3d5b23b2	0.05350084
3	0x3c275a9c	0.010214474
4	0x3cf1c973	0.029515004
5	0xbd3ae783	-0.045630943
6	0xba2be9d9	-0.00065579783
7	0xbc7e1ecb	-0.015510271
8	0xbbee0e4d	-0.0072648884
9	0x3c87a4a9	0.016558008
10	0xb90b6c4a	-0.00013296414
11	0xbce90eaf	-0.028449384
12	0xbdb3fea2	-0.08788802
13	0xbd5cd1bc	-0.053910956
14	0xbcb9738f	-0.02263811
15	0x3b671dab	0.0035265486
16	0x3b404286	0.0029336526
17	0x3cce282d	0.025165642
18	0x3b799005	0.0038080227
19	0xbb6b0e8d	-0.0035866827
20	0x3d4dcad0	0.050242245
21	0x3d5bf3ff	0.05369949
22	0xbcd7f1d2	-0.026360426
23	0xbd139cfd	-0.036038388
24	0xbc4171d0	-0.01180692
25	0xbc7ccba9	-0.015429416
26	0x3d1920da	0.037384845
27	0xbc2080dc	-0.0097963475
28	0xbd0e0dad	-0.03468101
29	0x3b704ffa	0.0036668763
30	0x3d34564b	0.044027608
31	0x3ce4122c	0.027840696
32	0xbb326722	-0.0027222116
33	0x3b98657c	0.0046507698
34	0x3c0d7b56	0.008635363
35	0x3d6b00f5	0.05737396
36	0xbd9f1cdb	-0.077691756
37	0x398566ed	0.00025444422
38	0x3d307882	0.043083675
39	0x3e0ecd7f	0.13945578
40	0xbc8a9ead	-0.016921366
41	0xbc5c828c	-0.013458859
42	0x3d5765f9	0.052587483
43	0x3d817f36	0.06323092
44	0xbbb740f3	-0.0055924593
45	0xbd1f3b28	-0.038874775
46	0xbc1f8ed0	-0.009738639
47	0x3b3ffe08	0.0029295702
48	0xbb9918d6	-0.00467215
49	0xbcf5d54e	-0.030008938
50	0xbdb6643e	-0.089058384
51	0xbccd129b	-0.025033286
52	0xbc110ae4	-0.008852694
53	0xb859a169	-5.1887157e-05
54	0xbd1d56e7	-0.038412955
55	0x3c775488	0.015095837
56	0xbd339d2c	-0.043851063
57	0x3d8c9092	0.06863512
58	0xbd035f26	-0.032073162
59	0x3dba7340	0.091040134
60	0x3b409c5c	0.0029390072
61	0xbdc4fe6b	-0.09618839
62	0xbdde51e2	-0.10855462
63	0xbcb13e9b	-0.021636298
64	0xbca69151	-0.020332964
65	0x3d7549ab	0.05988471
66	0x3c818583	0.015810734
67	0xbda84e2e	-0.082180366
68	0xbb832221	-0.004001871
69	0x3d1c1491	0.03810555
70	0xbd8c9a80	-0.06865406
71	0x3ba93256	0.005163471
72	0x3d7ab7f0	0.061210573
73	0x3dd54c48	0.1041494
74	0x3c7f4c52	0.015582161
75	0x3d800366	0.06250648
76	0x3d03685b	0.032081943
77	0xbca053ee	-0.01957127
78	0xbd385cc5	-0.045010347
79	0xbc6ac8bf	-0.014330088
80	0xbc69d2b9	-0.014271432
81	0x3d363958	0.04448828
82	0x3d27c7de	0.040962093
83	0xbd356409	-0.044284854
84	0x3c5777a6	0.013151085
85	0xbc53560f	-0.012898936
86	0x3d39c469	0.045353327
87	0xbd27bf10	-0.040953696
88	0xbd4cf978	-0.0500426
89	0x3b959d46	0.0045658676
90	0xbc820f30	-0.015876383
91	0xbd82c119	-0.06384487
92	0x3cf42862	0.029804412
93	0xbd0f5f32	-0.035002895
94	0x3c8e4e4a	0.017371316
95	0x3cb2c910	0.02182439
96	0xbc4a5b25	-0.012350832
97	0xbca75940	-0.0204283
98	0xbd36bfba	-0.04461644
99	0xbcc933e4	-0.024560876
100	0x3d521ccf	0.051297005
101	0xbd870591	-0.065928586
102	0xbd0cf318	-0.03441152
103	0x3c892b46	0.016744267
104	0x3cbabe1b	0.022795727
105	0x3cb2df8c	0.021835111
106	0xbdaefd5c	-0.08544418
107	0xbc0454ad	-0.008076829
108	0xbd8b6591	-0.06806482
109	0x3d510e77	0.051039185
110	0xbdb91f79	-0.09039206
111	0xbd3c0210	-0.045900404
112	0x3cfc23c6	0.030778777
113	0x3d94a28f	0.07257568
114	0xbceb3515	-0.028711835
115	0xbd3a058d	-0.04541545
116	0xbbf35a88	-0.0074265637
117	0xbd957145	-0.07296995
118	0xbc087fea	-0.008331278
119	0xbd1d72cc	-0.038439557
120	0xbcdf24db	-0.027239254
121	0x3d2ba959	0.04190955
122	0xbc62ca4d	-0.013842178
123	0x3d88ea79	0.06685347
124	0xbbf689f6	-0.0075237704
125	0x3c56ee9b	0.013118411
126	0x3c92b3b7	0.01790796
127	0xbd320539	-0.043462012
128	0x3d2677c9	0.04064158
129	0x3ce77148	0.028252259
130	0x3d242628	0.04007545
131	0x3c3f174c	0.011663269
132	0xbd1f05ed	-0.03882401
133	0xbd27d22f	-0.04097193
134	0xbca06b26	-0.019582342
135	0x3d5e6034	0.054290965
136	0x3d5866d7	0.05283245
137	0x3d0d3f60	0.034484267
138	0x3d6998ad	0.05703037
139	0x3a8dd8ac	0.001082202
140	0x3cffae2f	0.031210987
141	0xbdc53051	-0.09628356
142	0x3d5443e9	0.051822577
143	0xbd9bce63	-0.076077245
144	0x3b4da2eb	0.0031377624
145	0x3cabd9f3	0.02097795
146	0xbd465595	-0.04842146
147	0x3d414bb3	0.047191333
148	0x3d974d96	0.07387845
149	0x3bbe23a6	0.0058025895
150	0xbda33128	-0.0796836
151	0x3dc0dc95	0.09417073
152	0x3c6c3d52	0.014418917
153	0xbc8401cd	-0.01611414
154	0x3bd41f79	0.0064734784
155	0xbb774479	-0.0037730022
156	0x3d84a419	0.06476612
157	0x3c4f2a4a	0.01264436
158	0xbc9d7757	-0.019221945
159	0x3cb79b95	0.022413054
160	0xbc677c3d	-0.014128742
161	0xbc925857	-0.01786439
162	0xbd08421d	-0.033266176
163	0xbd0c1cf4	-0.0342073
164	0xbdd3e8c4	-0.10347131
165	0x3b713387	0.0036804394
166	0xbdf7b7cd	-0.12095604
167	0xbd801491	-0.06253923
168	0xbd47cff4	-0.048782304
169	0x3d163928	0.036675602
170	0x3dc386b2	0.095471755
171	0x3ccb9580	0.02485156
172	0xbd67c3fe	-0.056583397
173	0xbd5d104b	-0.053970616
174	0xbcd535b0	-0.026026577
175	0xbb48ba05	-0.0030628454
176	0xbd0d3e36	-0.034483157
177	0xbc34f690	-0.011045113
178	0xbcbf86b4	-0.023379661
179	0x3d0c9efd	0.03433131
180	0xbc21e368	-0.009880878
181	0x3d8b15ab	0.06791242
182	0xbd5f4f3d	-0.054518927
183	0xbbe7119c	-0.0070516597
184	0x3cae271b	0.021258881
185	0xbc3d4096	-0.011551043
186	0x3cb921be	0.022599097
187	0x3d51640b	0.0511208
188	0xbd063d86	-0.032773517
189	0x3b2790f2	0.0025568572
190	0xbcf9e21f	-0.03050333
191	0x3d0661b6	0.03280803
192	0x3d73ebc1	0.059551004
193	0xbb91a2cd	-0.004444456
194	0x3acfbdea	0.0015849445
195	0x3d04ddb4	0.032437995
196	0xbcc2f693	-0.023799216
197	0xbd062519	-0.032750223
198	0x3cd8b16f	0.026451794
199	0x3d5edfd4	0.054412678
200	0x3c0fb0d3	0.0087701855
201	0x3cee428e	0.02908447
202	0xbdad2e8a	-0.08456142
203	0xbcf4c7ee	-0.02988049
204	0x3d037c37	0.032100882
205	0xbd1a1629	-0.03761879
206	0x3cd9b726	0.02657659
207	0x3bbe2453	0.00580267
208	0x3d1370b4	0.035996154
209	0x3bf9b0c6	0.00761995
210	0x3bd5ccb0	0.006524645
211	0xbcbe3e5f	-0.0232231
212	0xbbff6da2	-0.0077950517
213	0x3c513546	0.012769049
214	0x3cff9441	0.031198623
215	0xbbda7b9a	-0.0066675665
216	0x3db25679	0.087078996
217	0x3d18de08	0.03732112
218	0xbbb603fa	-0.0055546733
219	0xbdaa5cde	-0.08318494
220	0xbd81ff70	-0.06347549
221	0x3dac0dd9	0.08401079
222	0x3c845278	0.016152605
223	0x3ca8a113	0.020584619
224	0x3dbeb653	0.09312119
225	0x3d751e33	0.059843253
226	0xbc18f6d7	-0.009336195
227	0x3d14e898	0.03635463
228	0x3bc2aa69	0.0059407246
229	0xbd1672ac	-0.036730453
230	0x3c8df235	0.017327407
231	0x3ca9a84e	0.020710137
232	0x3d6e87d5	0.05823501
233	0x3d229aaf	0.0396983
234	0x3c6d4886	0.014482623
235	0xbd09c000	-0.03363037
236	0xba823c66	-0.0009936213
237	0x3d0df86b	0.034660738
238	0x3e0afc9e	0.13572928
239	0xbd6a5141	-0.057206396
240	0x3d57d4c0	0.05269313
241	0xbc8c7f35	-0.0171505
242	0x3bbd0005	0.0057678246
243	0xbca8e0d3	-0.020615017
244	0x3c7dc653	0.015489179
245	0x3d356583	0.044286262
246	0xbca083e4	-0.01959414
247	0xbd32d45a	-0.043659545
248	0x3d880e34	0.06643334
249	0xbd154011	-0.03643805
250	0x3d492f54	0.0491174
251	0x3cdf0322	0.027223174
252	0x3c817b71	0.015805932
253	0x3d031b96	0.03200873
254	0x3d5a633d	0.053317297
255	0x3d075561	0.033040408

layers1d.0.bias f4 [128]
0	0xbd4a3a34	-0.049371913
1	0xbcb4760b	-0.022028944
2	0xbcda3a6e	-0.02663919
3	0xbcd49fbf	-0.02595508
4	0xbc8a4f81	-0.016883614
5	0xbbbb9cb7	-0.005725469
6	0xbd153675	-0.036428887
7	0xbc195853	-0.009359437
8	0xbd401ef4	-0.04690452
9	0xbd42068b	-0.04736952
10	0xbcc5fe05	-0.024168978
11	0xbc1b0760	-0.009462208
12	0xbd0b371c	-0.033988103
13	0xbcfabd24	-0.030607767
14	0xbd3d881c	-0.046272382
15	0xbd0ff84c	-0.035148904
16	0xbc10ea88	-0.008844979
17	0xbc4d91e2	-0.012546988
18	0xbc9f8056	-0.019470375
19	0xbcf77e52	-0.030211601
20	0xbd5021df	-0.050813552
21	0xbccd00eb	-0.025024852
22	0xbccaa9bf	-0.024739144
23	0xbce60177	-0.02807687
24	0xbc89e4db	-0.01683276
25	0xbc5a9479	-0.013341063
26	0xbd374b2c	-0.044749424
27	0xbcece502	-0.028917793
28	0x3c5fbf96	0.0136565175
29	0xbc885dc3	-0.016646272
30	0xbc562772	-0.013070928
31	0xbd4052bb	-0.046953898
32	0xbd223c80	-0.03960848
33	0xbc4a36f5	-0.012342204
34	0xbc6022b1	-0.013680146
35	0xbca9c1c6	-0.020722281
36	0x3c2030b2	0.009777235
37	0xbb1b5665	-0.0023702618
38	0xbd4a0652	-0.049322434
39	0x3b2705a3	0.0025485537
40	0xbcdd5f8a	-0.027023096
41	0xbcad52cf	-0.02115765
42	0xbbf70003	-0.007537843
43	0xbcff1fd3	-0.031143105
44	0xbcbf17b7	-0.023326738
45	0xbd00aefc	-0.031416878
46	0xbc632f51	-0.013866262
47	0xbc310e2c	-0.0108066015
48	0x3b6f83ba	0.003654702
49	0xbd689b15	-0.056788523
50	0xbce934c8	-0.02846755
51	0xbc3ffced	-0.011718017
52	0xbd3dfd44	-0.04638411
53	0xbcf3f112	-0.029778037
54	0xbccda911	-0.025105031
55	0xbd096a5b	-0.033548694
56	0xbd06f55e	-0.032948844
57	0xbd428d13	-0.04749782
58	0xbcbd901f	-0.023140011
59	0xbb4922c3	-0.0030690886
60	0xbd67a0f4	-0.05654998
61	0xbc91fb1b	-0.017819932
62	0xbc8b017a	-0.016968478
63	0xbd236cd6	-0.039898716
64	0xbd193526	-0.037404202
65	0xbd0b4232	-0.033998676
66	0xbce99a59	-0.028515982
67	0xbd1c2fb1	-0.03813142
68	0xbd295403	-0.041339885
69	0xbceb0a0b	-0.028691312
70	0xbd09ee2d	-0.033674408
71	0xbd384eaf	-0.044996914
72	0x3bcffdd9	0.0063473997
73	0xbd3aa162	-0.045564063
74	0xbcee5f4f	-0.029098181
75	0xbb998eec	-0.004686227
76	0xbd63aafa	-0.055582978
77	0xbb21c57d	-0.0024684363
78	0xbbd16d72	-0.0063912207
79	0xbc0b7cc7	-0.008513636
80	0xbd84687e	-0.06465243
81	0x39561603	0.0002041683
82	0xbd91a359	-0.07111234
83	0xbbc396aa	-0.0059688883
84	0xbd304055	-0.0430301
85	0xbcb81aea	-0.022473771
86	0xbc1eafdf	-0.009685486
87	0xbd663a39	-0.05620787
88	0xbd16282a	-0.036659397
89	0xbd10ef9d	-0.035384763
90	0xbb7d036d	-0.0038606778
91	0xbc16d109	-0.009205111
92	0xbd1a6f3c	-0.037703738
93	0xbd472dff	-0.04862785
94	0x3c397c21	0.011321099
95	0xbccb5e06	-0.024825107
96	0xbca784f8	-0.020449147
97	0xbd17949d	-0.037006963
98	0xbd4974fc	-0.04918383
99	0xbc4875e1	-0.012235136
100	0xbcf291df	-0.029610572
101	0xbcb29654	-0.021800198
102	0xbc98fe9d	-0.018676097
103	0xbce71358	-0.028207466
104	0xbd5010f6	-0.050797425
105	0xbd022ec4	-0.03178288
106	0xbd2e700a	-0.042587318
107	0xbcc9e519	-0.024645375
108	0xbca51a58	-0.020154163
109	0xbb8be9e4	-0.0042698253
110	0xbd03d24d	-0.03218298
111	0xbd0e5f6e	-0.034758978
112	0xbd8aa86a	-0.06770404
113	0xbd18dfcb	-0.0373228
114	0xbcaf3414	-0.021387137
115	0xbd0eefeb	-0.034896772
116	0xbcb2d84d	-0.021831656
117	0xbc4d118a	-0.012516389
118	0xbcbe49ea	-0.023228604
119	0xbd392ee3	-0.04521073
120	0xbd593740	-0.053031206
121	0xbcf47299	-0.0298398
122	0xbd5c45ba	-0.053777434
123	0xbd3a75b3	-0.045522403
124	0xbc3a3f03	-0.011367562
125	0xbce3ea73	-0.027821755
126	0xbd18486b	-0.03717844
127	0xbb1b77d4	-0.0023722546

layers1d.3.weight f4 [128, 128]
0	0xbc9aec71	-0.018911572
1	0xbc72e0e9	-0.014824131
2	0x3d551cbe	0.052029364
3	0xbbd74673	-0.0065696775
4	0x3d3b1fba	0.045684554
5	0xbd946935	-0.07246629
6	0xbe0686bb	-0.13137333
7	0x3daf224f	0.08551466
8	0xbd3ab26f	-0.045580324
9	0xbc42f0ec	-0.011898261
10	0x3d842a4e	0.064533815
11	0x3e2cd94e	0.1687977
12	0xbc2a7a3a	-0.010405118
13	0xbd17e24b	-0.037081044
14	0x3d16d36a	0.036822714
15	0x3ccc2595	0.024920264
16	0xbd5b3cb2	-0.05352468
17	0xbd9ce56a	-0.07660945
18	0x3dabf0b3	0.08395519
19	0xbdc1ae42	-0.09457065
20	0x3d779807	0.06044772
21	0x3db9b3f2	0.09067525
22	0x3db73940	0.089464664
23	0xbd1edb3d	-0.0387833
24	0x3d4bfbff	0.04980087
25	0x3d316bd9	0.043315742
26	0x3db6fb20	0.08934617
27	0xbe16d63f	-0.14730166
28	0xbd3b0241	-0.045656446
29	0x3c29d6d3	0.0103661595
30	0xbc84be2d	-0.016203964
31	0xbcf0fb31	-0.029416652
32	0xbd99e10d	-0.07513628
33	0x3a6518af	0.0008739335
34	0x3dd538d8	0.10411233
35	0xb9af5941	-0.000334451
36	0x3d12dfec	0.03585808
37	0xbc886d0e	-0.016653564
38	0x3d2abe2f	0.04168528
39	0xbdb73d26	-0.0894721
40	0xbd06e5a3	-0.032933842
41	0x3dfbba7b	0.12291428
42	0x3e0f2288	0.13978016
43	0xbd6a84e7	-0.05725565
44	0x3e0be008	0.1365968
45	0xbcd80af2	-0.026372407
46	0xbdd2bbda	-0.10289736
47	0xbda59854	-0.08085695
48	0x3d8df602	0.06931688
49	0x3dc1cf9a	0.09463425
50	0xbcd540d3	-0.026031887
51	0xbdde7fd4	-0.10864225
52	0x3dc3f384	0.09567931
53	0x3e18defe	0.14928815
54	0xbe02da4f	-0.1277859
55	0x3b1bd5db	0.002377859
56	0xbce5da7b	-0.028058281
57	0x3e075c6a	0.13218847
58	0x3dedca22	0.116108194
59	0xbdee2ca9	-0.11629612
60	0xbdf7fbd2	-0.12108578
61	0x3d0f252b	0.034947556
62	0xbcda35a5	-0.026636908
63	0x3d953f54	0.072874695
64	0x3dbd4d40	0.0924325
65	0x3d33f278	0.043932408
66	0x3da9edb3	0.08297291
67	0xbd4a72cb	-0.04942588
68	0xbdbfd78a	-0.09367283
69	0x3db42683	0.08796408
70	0xbd01933c	-0.031634554
71	0x3d851492	0.06498064
72	0xbcd16c9f	-0.02556449
73	0x3d5ef0af	0.054428753
74	0x3d0d86f1	0.03455252
75	0x3d29001d	0.041259874
76	0xbe13fe3a	-0.14452448
77	0x3dfa9493	0.122353695
78	0xbca000e8	-0.019531682
79	0xbd0b8642	-0.034063585
80	0x3db47469	0.08811266
81	0xbd946634	-0.07246056
82	0x3d2ef28f	0.04271179
83	0xbda1e22f	-0.07904469
84	0x3c2dcf45	0.010608499
85	0x3cb6626a	0.022263724
86	0x3e29efcb	0.1659538
87	0xbcafaa92	-0.021443639
88	0xbd314516	-0.043278776
89	0xbc166a40	-0.009180605
90	0xbd4c2425	-0.049839158
91	0xbdf48730	-0.119398475
92	0x3cb15bfb	0.021650305
93	0xbcb4cd6a	-0.022070605
94	0xbc5d51a3	-0.013508233
95	0xbd8927da	-0.06697054
96	0xbd38e45d	-0.04513966
97	0x3df5839d	0.11987994
98	0x3dc826c1	0.09773017
99	0x3d6c21ed	0.05764954
100	0xbe04d85b	-0.12973158
101	0x3db34b38	0.08754581
102	0xbd32978e	-0.043601565
103	0xbd53d095	-0.05171259
104	0x3d2e0b93	0.042491507
105	0x3d1beb40	0.03806615
106	0x3e2f63ae	0.17127869
107	0xbd9e889c	-0.077409
108	0xbd98163f	-0.07426118
109	0x3dba857d	0.09107492
110	0xbda74a27	-0.0816844
111	0xbdc8640e	-0.09784709
112	0xbdcf64cf	-0.101266496
113	0x3b460b25	0.0030219045
114	0x3deac76a	0.114638165
115	0x3d38a6d6	0.045080982
116	0x3d0df97d	0.03466176
117	0x3dc49bc6	0.09600024
118	0xbd24ac97	-0.040203657
119	0xbbc5a086	-0.006031099
120	0xbd0fd84a	-0.03511838
121	0x3d559f10	0.052153647
122	0xbd20a423	-0.039219033
123	0xbd1f0057	-0.038818683
124	0x3d3525da	0.04422555
125	0xbd22aecf	-0.03971749
126	0xbd341d9f	-0.04397356
127	0xbe06d307	-0.13166438
128	0xbda797b4	-0.08183232
129	0x39eebf7f	0.00045537573
130	0x3cfc0cc3	0.030767804
131	0xbc489bc6	-0.0122441705
132	0xbcd1299f	-0.025532542
133	0xbe0895d3	-0.13338403
134	0x3d5c49b9	0.053781245
135	0x3d3f2ebe	0.046675436
136	0x3cfffb96	0.031247895
137	0xbce9990c	-0.028515361
138	0xbc36ca7f	-0.011156677
139	0x3d9edb80	0.0775671
140	0xbc9b44eb	-0.018953761
141	0xbd0c65bb	-0.034276705
142	0x3bdebab8	0.006797161
143	0xbafdf410	-0.0019375104
144	0xbddd8897	-0.10817068
145	0xbd02f99b	-0.031976324
146	0x3d9fee79	0.07809157
147	0xbd9f206a	-0.07769854
148	0x3dcd29bb	0.10017725
149	0x3dd10265	0.10205535
150	0xbd2f7709	-0.04283813
151	0xbdb4d7f1	-0.0883025
152	0x3d8539db	0.06505176
153	0x3d5d393e	0.05400967
154	0xbd8019ba	-0.06254907
155	0x3cf225af	0.029558985
156	0xbd8442d5	-0.0645806
157	0x3d70954e	0.058736138
158	0x3d824126	0.06360082
159	0x3c9bc129	0.019013004
160	0xbe10ae6c	-0.14129037
161	0xbccab44f	-0.024744181
162	0x3cb974a6	0.02263863
163	0x3d6a2c45	0.057171125
164	0xbd987f22	-0.07446124
165	0xbd5af57f	-0.05345678
166	0xbdb472f5	-0.08810989
167	0xbd9f9c01	-0.07793427
168	0xbda22a46	-0.07918219
169	0xbb9cac9a	-0.004781318
170	0x3e160ee2	0.14654115
171	0x3c020b8d	0.007937324
172	0x3dc07c16	0.093986675
173	0xbdca2127	-0.098696046
174	0xbe0458e0	-0.12924528
175	0x3c4dd81b	0.012563731
176	0xbe04b694	-0.12960273
177	0x3dd7e671	0.10542
178	0x3caa5fd2	0.020797644
179	0x3c283a18	0.010267757
180	0x3d60eb4c	0.054911897
181	0x3ced47c5	0.028964886
182	0xbd6b3ce6	-0.057431124
183	0xba8da6b1	-0.0010807124
184	0xbc2f6726	-0.010705745
185	0x3e0f081f	0.13967942
186	0x3c8e3bd6	0.017362516
187	0x3cf1471e	0.029452857
188	0xbd659020	-0.05604565
189	0x3dac56ee	0.08415018
190	0x3d5be561	0.05368555
191	0x3ddb3fc3	0.10705521
192	0x3d3ba889	0.045815025
193	0x3d7a0477	0.061039414
194	0xbc8d2a3f	-0.017232059
195	0x3d553831	0.05205554
196	0xbdc127f3	-0.09431448
197	0x3d36b9d3	0.04461081
198	0xbe17af97	-0.14813076
199	0x3d79bcb0	0.060970962
200	0xbd976f59	-0.07394285
201	0x3d50787c	0.050896153
202	0xb9cd65a4	-0.00039176375
203	0x3e33b28f	0.17548583
204	0xbcc8466e	-0.024447646
205	0x3db7d54a	0.089762285
206	0x3dbefc24	0.09325436
207	0x3cd5f53a	0.02611791
208	0x3de101f9	0.109867044
209	0xbe2a0e8f	-0.16607116
210	0x3e0568bc	0.13028234
211	0xbe059f76	-0.13049111
212	0x3dabe6b1	0.0839361
213	0xbd066471	-0.032810632
214	0x3d70caa9	0.05878702
215	0x3da9e05d	0.08294747
216	0xbdbc76e3	-0.09202363
217	0xbdaf5bad	-0.08562408
218	0x3d90bd73	0.070673846
219	0xbc59d555	-0.013295491
220	0x3d2d1678	0.042257756
221	0x3d545d76	0.051846944
222	0xbe26ba47	-0.16281997
223	0xbcf43efc	-0.02981519
224	0x3dd3a8bb	0.10334917
225	0x3ddf3bcd	0.10900078
226	0x3cd7bc58	0.026334926
227	0xbdd7e46b	-0.10541614
228	0xbdc0486b	-0.09388813
229	0x3d081f63	0.033233058
230	0xbcf13ac4	-0.029446967
231	0xbdb89fef	-0.0901488
232	0xbd2fddfb	-0.042936306
233	0x3d964eb5	0.07339231
234	0x3b5498a6	0.0032439618
235	0xbd43aa06	-0.04776957
236	0xbd8b7646	-0.06809668
237	0x3abfacb8	0.0014623618
238	0xbdaf3b27	-0.08556204
239	0xbe220b92	-0.15824726
240	0x3d3c7680	0.046011448
241	0x3e0af222	0.13568929
242	0x3dd472c1	0.1037345
243	0xbcf337ab	-0.02968963
244	0x3e16d8d5	0.14731152
245	0x3c65d144	0.014026944
246	0xbdbab74e	-0.09116994
247	0x3bc1a3c1	0.0059094136
248	0xbd82293e	-0.063555226
249	0x3d5f5817	0.05452737
250	0xbda34184	-0.079714805
251	0x3dca550e	0.09879504
252	0x3bf2f039	0.0074138907
253	0xbe0a4446	-0.13502607
254	0xbd4d6232	-0.050142474
255	0xbd93f6a9	-0.07224781

layers1d.3.bias f4 [128]
0	0x3c9c9469	0.019113736
1	0xbc13b725	-0.009015833
2	0xbd267533	-0.040639114
3	0x3d11a2fb	0.03555582
4	0xbbeb2ca7	-0.007176954
5	0xbcd96e86	-0.02654196
6	0x3c8e46ba	0.01736771
7	0xbb16911b	-0.0022974673
8	0x3d096eed	0.033553053
9	0x3c388dd6	0.011264285
10	0xbcf31034	-0.029670812
11	0xbca26b81	-0.019826652
12	0x3c4bbedb	0.01243564
13	0xbc679444	-0.01413447
14	0xbd0b99b4	-0.03408213
15	0xbd7c6539	-0.06161997
16	0x3ce7a028	0.02827461
17	0x3c596eec	0.013271075
18	0xbd2409e4	-0.040048495
19	0xbc7c10d0	-0.015384868
20	0xbbc0f5c9	-0.005888675
21	0xbdf110fc	-0.11770818
22	0xbda41f4e	-0.080137834
23	0x3a05f50c	0.0005110062
24	0x3c197050	0.009365156
25	0xbb63ebe3	-0.003477805
26	0xbc446869	-0.011987784
27	0x3c55f171	0.013058052
28	0x3c754130	0.014969155
29	0xbc5a8815	-0.013338109
30	0xbcd1fc10	-0.025632888
31	0xbc207476	-0.009793391
32	0xbd11a102	-0.03555394
33	0xbbc3c327	-0.0059741917
34	0x3c45fb61	0.012083859
35	0xbd96da27	-0.07365828
36	0x3c0a0fa8	0.008426584
37	0x3c82594f	0.015911726
38	0x3c3a4a58	0.011370264
39	0xbcb0ae82	-0.021567587
40	0xbd1d2c8a	-0.038372554
41	0xbcdb2dfd	-0.026755327
42	0xbcea669b	-0.02861338
43	0xbce9fdd4	-0.028563417
44	0xbc1c8869	-0.009554007
45	0xbce1c9da	-0.02756207
46	0xbc48d8df	-0.012258737
47	0xbcc1401e	-0.023590144
48	0xbc5e3e4e	-0.013564659
49	0xbd1bda3a	-0.038049914
50	0xbd39da62	-0.04537428
51	0xbcb1c5d5	-0.021700779
52	0x3c15ce4e	0.009143425
53	0x3c3ac448	0.011399336
54	0x3b37fc0b	0.0028073813
55	0xb8c6fd77	-9.488587e-05
56	0x3c53ec07	0.012934691
57	0xbcfca3b9	-0.030839788
58	0x3b7f3f3e	0.0038947607
59	0xbbe5b0cb	-0.0070096008
60	0x3ccfdc61	0.02537364
61	0xbcb52631	-0.022112938
62	0xbd99d30b	-0.075109564
63	0xbd364d6d	-0.044507433
64	0x3ca70abb	0.020390859
65	0xbcdd45d7	-0.027010841
66	0xbd23bab9	-0.039972994
67	0xbccdc2e0	-0.025117338
68	0xbcd466fe	-0.025928017
69	0x3c92bbf3	0.017911887
70	0x3cc76c33	0.024343586
71	0xbcdc5b63	-0.026899045
72	0x3c0d982e	0.0086422395
73	0xbc818015	-0.015808145
74	0x3c223026	0.009899175
75	0xbd12f517	-0.035878267
76	0xbc4ffaf8	-0.012694113
77	0x3be4f0da	0.0069867196
78	0xbc835cec	-0.01603552
79	0xbd2bfe1c	-0.041990384
80	0xbd2fb12a	-0.042893566
81	0x3cbbd14e	0.022926953
82	0x3ccb1cd1	0.024794014
83	0xbc76c087	-0.0150605505
84	0xbd1faaea	-0.038981356
85	0xbd671017	-0.05641183
86	0x3cb8556c	0.02250167
87	0xbc99185e	-0.018688377
88	0xbc8c6272	-0.017136786
89	0x3c0d609d	0.008628991
90	0xbbd41a7c	-0.0064728837
91	0x3d0f369b	0.034964185
92	0xbd4c60a2	-0.049896844
93	0xbca34efd	-0.019935125
94	0x3b459639	0.0030149354
95	0xb995c7b6	-0.0002856829
96	0xbc036ab0	-0.008021042
97	0xbba5cb9c	-0.0050596725
98	0x3cabab03	0.020955568
99	0xbb0815b9	-0.00207649
100	0x3c000b57	0.007815204
101	0xbbcd7982	-0.0062705884
102	0x3b6d687c	0.0036225608
103	0xbcdf873d	-0.027286166
104	0xbc126827	-0.008935965
105	0xbd54bc72	-0.051937528
106	0xbc935c7c	-0.017988436
107	0x3d0316ba	0.032004096
108	0x3d1aea75	0.037821252
109	0xbd4b186c	-0.049583837
110	0xbca328d0	-0.019916922
111	0xba49fda3	-0.00077053363
112	0xbc6b9133	-0.01437788
113	0x3b078621	0.0020679312
114	0xbd39593e	-0.045251124
115	0xbcc00cc0	-0.02344358
116	0xbc63d1dc	-0.013905015
117	0x3c0c48b5	0.008562257
118	0xbcec53d4	-0.028848566
119	0xbd1b385b	-0.03789554
120	0xbd6413ad	-0.055682827
121	0xbc8eb153	-0.01741854
122	0xbb3334ba	-0.002734466
123	0xbc04e664	-0.00811157
124	0xbc6a6507	-0.014306313
125	0xbc029b5e	-0.007971613
126	0xbd5da7f7	-0.054115262
127	0xbcd1ee1a	-0.025626231

combined.0.weight f4 [64, 128]
0	0xbdccce60	-0.100003004
1	0x3cb0461b	0.021517804
2	0xbc02cee5	-0.007983898
3	0xbd94e521	-0.07270265
4	0x3c1163f2	0.0088739265
5	0x3accd2dc	0.0015626806
6	0x3da48c9b	0.08034631
7	0x3dd2f545	0.10300688
8	0x3d83e2a9	0.06439716
9	0x3d38f772	0.045157857
10	0xbdbfef26	-0.09371786
11	0x3c071b38	0.008246236
12	0xbdd39e0f	-0.10332882
13	0x3d02b94b	0.03191499
14	0x3e039712	0.12850598
15	0xbcc4ea6c	-0.024037562
16	0xbda52241	-0.08063174
17	0x3cf064d3	0.029344952
18	0x3dc7fe12	0.09765257
19	0x3c86a8a8	0.016437843
20	0x3cdfb489	0.027307766
21	0xbce1ba29	-0.027554588
22	0x3bef5dfb	0.0073049045
23	0x3b5d2818	0.0033745822
24	0xbdc98c1f	-0.09841179
25	0x3d4cc276	0.04999014
26	0x3d40651d	0.04697143
27	0xbd7ae277	-0.06125113
28	0xbd039a63	-0.032129657
29	0xbd2d990b	-0.04238228
30	0xbd350ef0	-0.0442037
31	0xbd83377b	-0.064070664
32	0x3dc4486a	0.095841244
33	0x3d898cda	0.067163184
34	0xbd557263	-0.05211104
35	0x3d41bb78	0.047297925
36	0x3cbf47c2	0.023349646
37	0xbd9d8371	-0.07691086
38	0xbcbeeca7	-0.023306204
39	0x3cef6ce1	0.029226722
40	0xbc97cdc6	-0.018530738
41	0x3dc640e0	0.09680343
42	0xbd41a323	-0.04727472
43	0xbd9ad1ce	-0.07559548
44	0xbce151da	-0.02750485
45	0xbd997180	-0.074923515
46	0x3d9f1e59	0.0776946
47	0xbdb4513d	-0.088045575
48	0x3d90c4a8	0.07068759
49	0xbd472635	-0.04862042
50	0x3c6482d5	0.013947208
51	0xbd75217c	-0.059846386
52	0xbd806324	-0.062689096
53	0xbd1ccfdc	-0.038284168
54	0x3da64654	0.08118883
55	0xbc1aa2f4	-0.009438265
56	0xbdc99d3c	-0.09844443
57	0x3c6eada4	0.014567766
58	0xbc9fe5a2	-0.019518677
59	0x3d08db0f	0.033412036
60	0x3d316761	0.04331148
61	0x3dae190e	0.085008726
62	0x3d87cf3b	0.06631323
63	0x3de29a6e	0.110646114
64	0x3c23231d	0.009957102
65	0xbdae9c95	-0.085259594
66	0x3e1315de	0.1436381
67	0xbc76a870	-0.015054807
68	0xbc910edb	-0.017707279
69	0x3d5da96b	0.054116648
70	0xbd072150	-0.032990754
71	0x3dc8369c	0.09776041
72	0xbdc46fd7	-0.09591644
73	0xbd37a3a9	-0.044833813
74	0xbce77529	-0.028254109
75	0xbc84cf4d	-0.01621213
76	0x3d3d9f5e	0.046294563
77	0xbc5976e0	-0.013272971
78	0x3ddad893	0.106858395
79	0x3d80abdb	0.06282779
80	0x3a5fcabe	0.0008536986
81	0x3e0d322d	0.13788672
82	0xbc92f586	-0.01793934
83	0x3d690221	0.056886796
84	0x3e0ad2af	0.13556932
85	0x3d852675	0.06501476
86	0xbdabcea7	-0.08389025
87	0xbd1135c2	-0.035451658
88	0x3caeca67	0.021336747
89	0xbd153c8c	-0.036434695
90	0x3de93f9d	0.113890864
91	0xbb9db010	-0.004812248
92	0x3d984d9e	0.07436679
93	0x3e1ec21d	0.15503736
94	0x3d6ec5f5	0.058294255
95	0xbdb69733	-0.08915558
96	0x3d59cb1d	0.05317222
97	0xbc97af11	-0.018516095
98	0x3dc320f9	0.095277734
99	0x3d8bf56a	0.068339184
100	0xbd5288b1	-0.05139989
101	0xbde74fac	-0.11294493
102	0xbcb34457	-0.021883173
103	0x3db40247	0.08789497
104	0xbd320a91	-0.04346711
105	0x3d2d4b26	0.042307995
106	0x3d3093c9	0.04310969
107	0xbd5a6c20	-0.053325772
108	0xbe022b63	-0.12711863
109	0x3da099cf	0.07841837
110	0xbd524198	-0.051332086
111	0x3d6d9460	0.05800283
112	0x3ca44475	0.020052174
113	0x3dbe3de7	0.09289151
114	0x3d13c573	0.036076974
115	0x3d2e59a5	0.04256596
116	0xbd310ae1	-0.043223266
117	0x3d73841b	0.059452157
118	0xbda81926	-0.08207922
119	0x3bc64d95	0.006051729
120	0x3d9fbb3e	0.077993855
121	0xbd634786	-0.055488132
122	0x3d12604d	0.03573637
123	0xbdc61fe9	-0.09674055
124	0x3cf30127	0.029663635
125	0x3de71659	0.11283559
126	0x3d0eaaa9	0.034830723
127	0xbdf08164	-0.11743429
128	0x3d01799a	0.03161011
129	0x3d455020	0.048172116
130	0x3a315937	0.0006765308
131	0xbdaaf478	-0.0834741
132	0x3e00706d	0.12542887
133	0x3cef32fb	0.029199114
134	0x3ba4c88f	0.0050287913
135	0x3c96f493	0.018427169
136	0xbd1c313a	-0.038132884
137	0xbe3bbd1b	-0.18333857
138	0xbc2589ac	-0.010103624
139	0xbdc20805	-0.09474186
140	0xbdb54faf	-0.08853089
141	0xbbdf668a	-0.0068176435
142	0x3db702f3	0.089361094
143	0x3d53cfb4	0.051711753
144	0x3c964299	0.018342303
145	0xbd5afa21	-0.053461198
146	0x3da2e9a1	0.079547174
147	0x3be01ac6	0.006839129
148	0x3cb3d3fc	0.021951668
149	0x3b68cda3	0.003552296
150	0x3e18d2ca	0.1492416
151	0x3d8970a8	0.067109406
152	0xbe0b9ece	-0.13634798
153	0x3db6d1f0	0.08926761
154	0xbce7f823	-0.028316563
155	0x3d5c25a4	0.053746834
156	0xbd5b1608	-0.053487808
157	0x3bb4be90	0.005515881
158	0x3d95693b	0.07295462
159	0xbdb44546	-0.08802275
160	0x3d57d8e8	0.052697092
161	0x3c4391fe	0.011936663
162	0xbd2a472c	-0.04157178
163	0x3e0abd71	0.13548829
164	0x3d9bee44	0.07613805
165	0xbc3a83db	-0.011383976
166	0xbcb192c5	-0.02167643
167	0xbcf68333	-0.030091858
168	0x3d09c417	0.03363427
169	0xbcda0811	-0.026615174
170	0x3d01995d	0.0316404
171	0xbda1e85a	-0.07905646
172	0xbc74f455	-0.014950831
173	0xbd51d65b	-0.051229816
174	0x3e0aa0a4	0.13537842
175	0xbda568a2	-0.08076598
176	0x3d84d632	0.06486167
177	0x3de9434d	0.1138979
178	0xbdef0eef	-0.1167277
179	0xbd20c8f9	-0.039254162
180	0xbdbd0220	-0.09228921
181	0x3cd1a381	0.02559066
182	0x3da637a6	0.08116083
183	0x3ba4f07f	0.005033552
184	0xbdc5ea4b	-0.096638285
185	0x3cb549b6	0.022129875
186	0x3d381140	0.044938326
187	0xbce6e27b	-0.028184166
188	0xbdb5fcdd	-0.088861205
189	0x3d50a7d3	0.0509413
190	0x3d13db44	0.03609778
191	0xbd2bf4a3	-0.04198135
192	0x3df17331	0.11789549
193	0x3c1e66c1	0.009668053
194	0x3d0f5edb	0.03500257
195	0xbd80dd4b	-0.06292208
196	0x3de502dd	0.11182187
197	0xbd531345	-0.05153205
198	0xbd1fd76d	-0.039023805
199	0xbd500c9f	-0.050793286
200	0x3d385d31	0.04501075
201	0x3d0df6cd	0.034659196
202	0x3dda791d	0.10667632
203	0x3be277c7	0.006911251
204	0xbd3321d9	-0.04373345
205	0xbe362ea2	-0.17791227
206	0xbd3a5ec5	-0.045500536
207	0xb96e0896	-0.00022700647
208	0x3cee6c63	0.029104417
209	0xbc509185	-0.012730007
210	0xbd9c81f1	-0.07641972
211	0x3d767901	0.060173992
212	0x3bcfced8	0.0063417964
213	0x3debaa58	0.115071
214	0xbcb2d90f	-0.021832017
215	0x3d754216	0.059877478
216	0xbd1c2323	-0.038119446
217	0xbe2806b8	-0.16408813
218	0x3d00b076	0.031418286
219	0xbd4e2512	-0.05032832
220	0xbd9595ae	-0.0730394
221	0x3d2aa655	0.041662533
222	0xbd605be2	-0.054775126
223	0xbdd109f4	-0.102069765
224	0x3d1b3d21	0.037900094
225	0xbcd86979	-0.02641748
226	0x3df01e92	0.11724581
227	0x3d144e3b	0.03620742
228	0x3b7dbe36	0.003871811
229	0x3b800983	0.003907384
230	0xbce45731	-0.027873607
231	0xbdacf034	-0.084442526
232	0xbd3375ac	-0.043813393
233	0xbcebbd8b	-0.028776905
234	0xbda849a1	-0.082171686
235	0xbbcaaede	-0.0061853966
236	0xbd3c72be	-0.046007864
237	0x3d929c81	0.07158757
238	0x3d7b8115	0.0614024
239	0xbc95fb9e	-0.018308457
240	0xbd8a1a25	-0.06743268
241	0xbdd229af	-0.10261857
242	0x3dbeffd0	0.09326136
243	0x3cfd9032	0.030952547
244	0x3d4d3be6	0.05010595
245	0xbd4170e9	-0.04722682
246	0xbda03b6b	-0.07823833
247	0x3db89121	0.09012056
248	0xbcb5b03c	-0.022178762
249	0xbca418e0	-0.020031393
250	0x3d9f569b	0.077801906
251	0xbd8b044e	-0.067879304
252	0x3c1e7f9f	0.009673982
253	0x3d15b4eb	0.03654949
254	0x3dbe6ffb	0.09298702
255	0x3d080f44	0.033217683

combined.0.bias f4 [64]
0	0x3cb715b7	0.022349222
1	0xbcabae1d	-0.020957047
2	0x3bdb1533	0.0066858768
3	0x3cb0ffc2	0.02160633
4	0x3d671cb4	0.056423858
5	0x3d9f1216	0.077671215
6	0xbcd3e7e4	-0.02586741
7	0x3a812cdb	0.0009855287
8	0xbc39451e	-0.011307983
9	0x3d03e3db	0.03219972
10	0x3c998a53	0.018742716
11	0x3d6a1809	0.057151828
12	0x3c956778	0.018237814
13	0xbc65ba06	-0.014021402
14	0x3ac35db5	0.0014905246
15	0x3c974d52	0.018469486
16	0xbc8ecd29	-0.017431812
17	0xbca1ff9b	-0.019775202
18	0x3da76e57	0.081753425
19	0x3db4dabd	0.088307835
20	0x3d42ccd5	0.047558624
21	0xbb6478de	-0.0034862082
22	0x3dd29511	0.102823384
23	0x3cefb388	0.029260412
24	0x3d989e02	0.074520126
25	0x3d01ba21	0.031671647
26	0x3b8c5969	0.0042831195
27	0xbadf8ad5	-0.0017054925
28	0xbb64e4b5	-0.003492636
29	0xb75379e5	-1.2604961e-05
30	0x3c3e70a1	0.0116235325
31	0x3cb4f7ea	0.02209087
32	0x3cb539df	0.022122322
33	0x3c07e9e7	0.008295513
34	0x3cf853b3	0.030313348
35	0x3d80bc3b	0.06285902
36	0x3d18173d	0.037131537
37	0xbc1a242b	-0.009408037
38	0x3b02f97d	0.0019985132
39	0x3b9ca051	0.0047798534
40	0x3cbe4c8a	0.023229856
41	0x3c82e7ab	0.015979609
42	0x3b0eeb7f	0.0021807847
43	0x3c9d45b5	0.019198278
44	0x3dc8cf56	0.09805171
45	0xbbc89eb8	-0.0061224364
46	0xbc2da080	-0.010597348
47	0x3dd2bba9	0.102896996
48	0x3ca27512	0.019831214
49	0x3c88773d	0.01665842
50	0xbca09d52	-0.019606266
51	0x3db8121e	0.089878306
52	0x3c81c3c7	0.015840424
53	0x3d4daf31	0.050215904
54	0x3d96fdd2	0.07372631
55	0x3d584f00	0.052809715
56	0x3c88bcdd	0.01669162
57	0x3d96c15a	0.07361098
58	0x3b19522c	0.0023394926
59	0x3dadff7b	0.08495995
60	0x3c975511	0.01847318
61	0xbbda0f28	-0.006654639
62	0x3db0ca58	0.08632344
63	0x3b8d3a68	0.004309941

combined.3.weight f4 [64, 64]
0	0xbd6c4106	-0.0576792
1	0xbd358184	-0.04431297
2	0xbd47121e	-0.048601262
3	0x3cef4ee2	0.029212419
4	0xbdea0c4d	-0.114281274
5	0x3c21e091	0.009880201
6	0x3e1b001a	0.15136757
7	0xbdaf0896	-0.085465595
8	0xbca6e426	-0.020372462
9	0xbd37ef72	-0.044906087
10	0xbc2008ab	-0.009767692
11	0xbcb221d4	-0.021744646
12	0xbe201ada	-0.15635243
13	0xbe2e02b1	-0.16993214
14	0xbdc96a5e	-0.09834741
15	0xbd87a581	-0.06623364
16	0xbdc94d75	-0.09829227
17	0xbd37b0eb	-0.044846456
18	0x3cfb27b2	0.030658577
19	0x3d954240	0.07288027
20	0xbe7a6369	-0.24451984
21	0xbe170adc	-0.14750236
22	0xbd9d101d	-0.07669089
23	0xbdd8d79e	-0.10588001
24	0xbe14ea6e	-0.14542553
25	0xbdce3304	-0.10068324
26	0xbda5f84b	-0.08103999
27	0xbe18c4d2	-0.14918831
28	0xbe5c303d	-0.21502776
29	0xbdd877fc	-0.1056976
30	0xbe0511d0	-0.12995076
31	0xbd1fcd73	-0.03901429
32	0x3c7fdd0c	0.0156166665
33	0x3d98892d	0.07448039
34	0xbe209d69	-0.15685047
35	0x3da22fc2	0.07919265
36	0xbe08e54b	-0.13368718
37	0x3d88afd2	0.0667416
38	0xbe1734d6	-0.14766249
39	0xbd221b30	-0.03957671
40	0xbd990cf2	-0.07473172
41	0xbde8928e	-0.11356078
42	0xbe0690ae	-0.13141128
43	0xbd034845	-0.032051343
44	0x3defa47a	0.11701293
45	0xbe35db51	-0.17759444
46	0x3dbba976	0.091631815
47	0xbc3b604c	-0.011436533
48	0xbde883d9	-0.11353273
49	0xbdee93d1	-0.116492875
50	0x3d25c2a2	0.04046882
51	0x3dc3235e	0.0952823
52	0xbdc63007	-0.09677129
53	0xbe00ab4f	-0.12565349
54	0x3e1c90c9	0.15289606
55	0xbdfe8307	-0.12427335
56	0x3d83671f	0.06416153
57	0x3da9d523	0.08292606
58	0xbdd0f51e	-0.102030024
59	0xbdfb86ee	-0.12281595
60	0xbd642a9a	-0.05570469
61	0x3e00198b	0.12509744
62	0xbd8f5fc7	-0.0700069
63	0xbe3c4f7c	-0.18389696
64	0xbdf336b1	-0.11875666
65	0xbd3b00c5	-0.04565503
66	0x3dfbf05d	0.12301705
67	0x3dceeed4	0.101041466
68	0xbe108912	-0.14114788
69	0xbce9693e	-0.028492566
70	0x3bc12639	0.005894449
71	0x3d669b89	0.056300674
72	0xbda0454b	-0.078257166
73	0xbd83dfa2	-0.06439139
74	0xbd9aea26	-0.075641915
75	0xbe10a294	-0.14124519
76	0xbda1b556	-0.07895915
77	0xbd878618	-0.06617373
78	0xbe4fb646	-0.20284376
79	0xbe1d2bb4	-0.15348703
80	0xbe3f2437	-0.18666159
81	0xbd56390c	-0.052300498
82	0xbd2ff07c	-0.042953953
83	0x3c732255	0.014839728
84	0xbd82c5dd	-0.06385396
85	0xbd75ff3e	-0.06005787
86	0xbdabd206	-0.08389668
87	0xbe056759	-0.13027705
88	0x3c454d15	0.012042304
89	0xbd4d898d	-0.050180007
90	0xbc383529	-0.011243143
91	0xbe06c617	-0.13161503
92	0xbe24195d	-0.160253
93	0x3d491c62	0.049099334
94	0x3b1481a5	0.0022660282
95	0x3dbd5f18	0.09246653
96	0xbd3487be	-0.044074766
97	0x3e0b83f4	0.13624555
98	0xbdc1a40a	-0.09455116
99	0xbd95d38a	-0.073157385
100	0xbe76f9e7	-0.24118768
101	0x3da2bdd1	0.07946361
102	0xbdc130fb	-0.094331704
103	0x3e032eb5	0.12810786
104	0xbcf282b4	-0.02960334
105	0xbe07f8d8	-0.1327852
106	0xbd21d0ce	-0.039505772
107	0xbe0bc276	-0.136484
108	0xbe072e53	-0.13201265
109	0xbe69408e	-0.22778532
110	0xbda1b35c	-0.07895538
111	0xbca4f712	-0.020137344
112	0xbe4734ef	-0.19453786
113	0x3d9e02a5	0.07715348
114	0xbd3d9be7	-0.04629126
115	0x3d082a6e	0.03324359
116	0xbdd1afbf	-0.10238599
117	0xbde6ba03	-0.11265948
118	0xbcced1f6	-0.025246602
119	0xbd160d31	-0.036633674
120	0x3dc9f338	0.098608434
121	0x3c83a7fd	0.016071314
122	0xbe578d71	-0.2105005
123	0xb91ae28b	-0.00014770978
124	0xbe26dcf5	-0.16295226
125	0x3cee2ced	0.029074157
126	0x3d4f9dd3	0.050687622
127	0xbccbb600	-0.024867058
128	0xbdc1190e	-0.09428607
129	0xbd3c0256	-0.045900665
130	0xbd8ac664	-0.06776121
131	0x3dc74f21	0.097318895
132	0xbe225346	-0.15852079
133	0xbc70035f	-0.014649241
134	0xbd2e5ca3	-0.042568814
135	0x3d0650f5	0.03279205
136	0x3b135dce	0.0022486332
137	0xbdd46cb2	-0.103722945
138	0xbdfefb2a	-0.124502495
139	0xbe52c1a2	-0.20581678
140	0xbd44774d	-0.047965337
141	0xbdf7a23a	-0.12091489
142	0xbe5ca4ef	-0.21547292
143	0xbe88bcd5	-0.26706567
144	0xbdeee0c5	-0.11663965
145	0xbd8c44db	-0.06849071
146	0xbcdd988d	-0.027050281
147	0xbd2089f9	-0.03919408
148	0x3a459bda	0.00075381773
149	0xbe56cc47	-0.20976363
150	0xbbec5e2d	-0.007213375
151	0xbdc55f14	-0.09637275
152	0xbc87306d	-0.016502583
153	0xbdab0f0d	-0.0835248
154	0x3db9be2a	0.09069474
155	0xbe621095	-0.22076638
156	0xbe2c6d03	-0.1683846
157	0x3d97ef17	0.0741865
158	0xbe3941d8	-0.18091524
159	0x3dbba97f	0.09163188
160	0xbe2c9cb1	-0.16856648
161	0x3dd0f6d4	0.10203329
162	0xbe7026db	-0.23452322
163	0xbcb0accf	-0.021566777
164	0xbdc72683	-0.097241424
165	0x3df12638	0.11774868
166	0xbd006d2b	-0.03135411
167	0xbd75713b	-0.059922438
168	0xbe79c426	-0.24391231
169	0xbe781961	-0.24228431
170	0xbdd16de5	-0.10226039
171	0xbe139ff7	-0.1441649
172	0x3c69f7b3	0.0142802475
173	0xbe81990f	-0.25312087
174	0xbd6d4ea9	-0.057936344
175	0xbc766bfc	-0.015040394
176	0xbe7bbf92	-0.24584797
177	0x3d8addff	0.06780624
178	0x3e04767b	0.12935822
179	0x3bbede71	0.005824857
180	0xbdfb825c	-0.122807235
181	0xbe19a766	-0.15005264
182	0xbd66fb76	-0.056392156
183	0xbe546299	-0.20740737
184	0x3dd7a4d9	0.10529489
185	0xbd0125e2	-0.03153027
186	0xbd9f6ee2	-0.07784821
187	0xbccf5681	-0.025309803
188	0xbe6b5438	-0.22981346
189	0xbdc69126	-0.096956536
190	0x3c298e8d	0.010348928
191	0xbd6f5c9e	-0.058437936
192	0x3d9cc499	0.076546855
193	0xbd296516	-0.04135617
194	0xbdc5ba41	-0.09654666
195	0xbe88a2eb	-0.26686797
196	0x3dd485ee	0.103771076
197	0xbe47c5b4	-0.19509012
198	0x3b3c241c	0.0028708046
199	0xbdb9c05e	-0.09069894
200	0xbc059484	-0.008153085
201	0x3d297aee	0.041377
202	0x3d8e5b4a	0.06951006
203	0xbd9651ec	-0.07339844
204	0xbd82f8e8	-0.06395131
205	0xbcbb6538	-0.022875413
206	0x3d547393	0.051868033
207	0x3de2c06e	0.11071859
208	0x3dc8072a	0.097669914
209	0x3e0c381a	0.13693276
210	0xbe2838b8	-0.16427886
211	0xbdb6b226	-0.08920698
212	0x3e014856	0.1262525
213	0xbd885ac1	-0.06657935
214	0xbe5c3bf5	-0.21507247
215	0x3d902cd6	0.07039802
216	0xbe0a667e	-0.1351566
217	0x3df277f1	0.11839283
218	0xbe7cd019	-0.24688758
219	0x3dc68e20	0.09695077
220	0x3c754950	0.014971092
221	0xbe80403b	-0.25049004
222	0xbcb20f2d	-0.021735752
223	0xbe38bac3	-0.18039994
224	0xbb28ff1b	-0.002578682
225	0xbd83f7d0	-0.06443751
226	0x3cddf816	0.027095836
227	0xbe6316a0	-0.221766
228	0xbc3e203e	-0.011604367
229	0xbc7efcf3	-0.0155632375
230	0xbd0eee88	-0.03489545
231	0xbdc13c09	-0.09435279
232	0x3bdd99c9	0.0067627174
233	0x3caa5d46	0.02079643
234	0x3e308bac	0.1724078
235	0x3d9e124b	0.07718333
236	0xbda0ede6	-0.078578755
237	0xbb0cfb63	-0.0021512143
238	0x3e3da51c	0.18520015
239	0xbe057389	-0.13032354
240	0x3d0f6735	0.035010535
241	0xbe29a5c9	-0.16567148
242	0xba2e4244	-0.00066474476
243	0xbdd5f6b6	-0.10447447
244	0x3dbd0850	0.09230101
245	0xbd277558	-0.040883392
246	0xbe600baa	-0.2187945
247	0x3d1b5b30	0.03792876
248	0xbd5fc02a	-0.05462662
249	0xbdc80582	-0.097666755
250	0x3cdab674	0.026698329
251	0xbdf47626	-0.119365975
252	0x3db06309	0.086126395
253	0xbe237318	-0.15961874
254	0xbe8ceb2d	-0.27523175
255	0x3d83404b	0.06408747

combined.3.bias f4 [64]
0	0x3d0c84a7	0.034306195
1	0x3dfcf8d3	0.12352147
2	0x3dea1dd2	0.11431469
3	0x3dc0ed91	0.09420312
4	0x3e0cddb0	0.13756442
5	0x3d24a429	0.040195618
6	0x3d676611	0.056493822
7	0x3d955362	0.07291295
8	0x3dfdd002	0.1239319
9	0x3dc44294	0.09583011
10	0x3de13518	0.10996455
11	0x3e160b28	0.14652693
12	0x3d9ddb26	0.07707815
13	0x3da57303	0.08078577
14	0x3e08c64a	0.13356891
15	0x3d1205f3	0.035650205
16	0x3dd35f59	0.103209205
17	0x3de29d24	0.110651284
18	0x3de66e96	0.11251561
19	0x3d7f4dc5	0.062330026
20	0x3d598b97	0.05311164
21	0x3dc994b3	0.09842815
22	0x3dd1d280	0.10245228
23	0x3de8f26f	0.113743655
24	0x3dfc8526	0.123300835
25	0x3de3c8a2	0.11122252
26	0x3d6326a1	0.05545676
27	0x3e0beb4e	0.1366398
28	0x3db7ec89	0.089806624
29	0x3e0161ea	0.12635008
30	0x3e220de8	0.15825617
31	0x3da6d92a	0.081468895
32	0x3ce44953	0.027866995
33	0x3d904215	0.07043854
34	0x3dfb78e7	0.1227892
35	0x3dc34ce1	0.09536148
36	0x3e06330d	0.13105412
37	0x3e05efd4	0.13079768
38	0x3d9d4b0e	0.07680331
39	0x3e166aad	0.14689131
40	0x3dca9fd2	0.098937646
41	0x3d77376b	0.060355585
42	0x3dfc30d8	0.12314004
43	0x3df984e1	0.12183548
44	0x3dffbe5b	0.12487479
45	0x3dc328f2	0.09529294
46	0x3d817436	0.063209936
47	0x3dd21075	0.10257045
48	0x3da8b224	0.08237103
49	0x3d814c1f	0.06313347
50	0x3df4ff85	0.11962799
51	0x3e03330f	0.12812446
52	0x3de3512b	0.11099466
53	0x3d8f52a5	0.06998185
54	0x3dc05bff	0.09392547
55	0x3d85eba6	0.06539087
56	0x3de8c920	0.113664865
57	0x3dcee1c6	0.101016566
58	0x3dd01dd1	0.10161937
59	0x3df28fa5	0.11843804
60	0x3d90ca41	0.07069827
61	0x3df6b56f	0.120463245
62	0x3d851216	0.0649759
63	0x3dbf8539	0.09351582

combined.6.weight f4 [1, 64]
0	0xbdc19334	-0.09451905
1	0xbdc98a15	-0.0984079
2	0xbe0198be	-0.12655923
3	0x3d00d801	0.031455997
4	0xbd8cd6db	-0.06876918
5	0xbd850f66	-0.06497078
6	0x3ccb1b56	0.024793308
7	0xbdd4d4d5	-0.10392157
8	0x3d645e06	0.05575373
9	0x3d11842b	0.035526436
10	0xbda03f68	-0.07824594
11	0xbd473451	-0.048633877
12	0x3d0cbfc9	0.034362588
13	0x3d07d49d	0.03316175
14	0xbd5b984f	-0.05361205
15	0x3d4c8d58	0.049939483
16	0x3d030e1c	0.031995878
17	0xbd35d323	-0.04439081
18	0x3d8a4b0b	0.067525946
19	0xbd7f8a87	-0.06238797
20	0x3d550241	0.052004103
21	0x3d76f3f7	0.060291257
22	0xbd8b1e74	-0.06792918
23	0x3d40c425	0.047062058
24	0xbdbffc12	-0.093742505
25	0x3d73aa69	0.059488688
26	0xbe1497dd	-0.14511056
27	0xbd6103f0	-0.054935396
28	0x3d3c2eef	0.045943197
29	0x3d477178	0.048692197
30	0xbd6b3729	-0.05742565
31	0x3d204cfd	0.03913592
32	0xbda60977	-0.08107274
33	0xbdad5925	-0.084642686
34	0x3d815b52	0.06316246
35	0xbd20b5f3	-0.03923602
36	0xbd693978	-0.056939572
37	0xbd87939a	-0.0661995
38	0x3cc74747	0.02432598
39	0xbd78afc3	-0.060714494
40	0x3d16c6b7	0.036810603
41	0x3cb8eb7c	0.022573225
42	0x3d1aaf4c	0.037764832
43	0x3d55185a	0.052025177
44	0xbd8bbc6d	-0.06823049
45	0x3d2ff5ad	0.042958904
46	0xbddf856e	-0.109141216
47	0xbdd19dd0	-0.102351785
48	0xbd9485d7	-0.072520904
49	0x3d3804ba	0.044926383
50	0x3ccd7527	0.025080277
51	0x3d993e88	0.0748263
52	0x3d009729	0.031394158
53	0xbdc8f4c3	-0.098123096
54	0xbd38f7e9	-0.0451583
55	0x3d76f3f5	0.06029125
56	0xbdb4564f	-0.088055246
57	0xbdd9869a	-0.10621376
58	0xbd9acea6	-0.07558946
59	0xbda8f41e	-0.08249687
60	0x3d83b624	0.06431225
61	0xbd8a7081	-0.0675974
62	0x3d312bb2	0.04325456
63	0xbda26ab6	-0.0793051
