data/models/nov12_24_undersample/fold0_epoch_models/epoch_0_model.pt (torch, 775567 bytes, 9 tensors)

layers1d.0.weight f4 [128, 1280]
-0.0399214 -0.017049965 0.037530787 0.007961169 0.012370743 -0.02132444 0.007872657 0.010709809
-0.01513445 0.019524362 0.00022125611 0.02029872 -0.07634506 -0.037472285 -0.014414654 -0.030288186
0.033137392 0.007433784 -0.0075378013 0.021601973 0.019902956 0.029620077 -0.03273513 -0.03481345
-0.0355091 -0.008460911 -0.015518398 -0.007789383 0.013774513 0.00081342633 0.029856179 0.021650193
0.01742185 0.007968599 -0.012914647 0.033445433 -0.035213564 -0.007706867 0.0012854096 0.016484158
0.0013104455 0.006686415 0.016492408 0.02512166 -0.013129492 -0.02870181 -0.0033484416 -0.0031387818
0.019470524 -0.03347587 -0.05089367 -0.034262065 -0.0045060194 0.021125317 -0.037851796 -0.014132725
-0.042552415 -0.012041239 -0.0059962412 0.01813853 -0.0053815614 -0.03620059 -0.03100982 -0.01938326
-0.01363413 0.020244548 0.020860635 0.010302126 -0.011107268 0.013804154 -0.017465094 -0.0008711281
-0.000485624 0.056978177 0.008103954 0.00682463 0.002187213 -0.01611119 -0.01944134 0.0145306615
-0.009230658 0.018458344 -0.0007740649 0.021703191 0.07742964 -0.002262611 -0.03211481 0.00723702
0.0060539576 0.012034014 0.024694378 -0.00837435 -0.006057165 -0.048052233 -0.0004115117 0.010984859
-0.014978443 0.032605484 -0.023755021 -0.0066131963 0.005934313 0.009182824 -0.008159719 0.01480917
0.032709595 -0.0007050669 -0.012511742 -0.0005495356 -0.017855689 0.030545 0.018147433 -0.03743968
0.014287456 0.011638034 -0.028266357 -0.01699949 0.021905443 -0.021793744 -0.013807726 -0.029823098
-0.03882035 0.005642567 -0.056993555 -0.031163117 -0.02301087 0.017670913 0.014234404 0.002861638
0.021118395 0.043683495 0.0023605675 0.025806693 0.014572626 -0.017397435 -0.014842414 0.0056985505
0.014901485 0.008054265 -0.023522694 0.011577972 0.020870129 0.017969497 -0.0059957546 -0.012564041
-0.0055072824 0.024567848 -0.0006077301 0.014567456 0.037186664 -0.0012866585 -0.055587392 0.04000757
0.021282334 0.04598278 -0.014257329 0.035270505 0.008319553 0.021379108 -0.025460238 0.02805318
0.0061192554 -0.020168656 -0.002981884 -0.043685324 -0.011062182 0.02154396 -0.013117159 -0.038782593
-0.004740082 -0.024294091 0.012494173 0.025345046 0.0036398512 -0.006645586 0.007900344 -0.016001165
-0.008740563 -0.015146638 0.0013874681 0.017712368 -0.013211239 0.022241913 0.007472633 0.009374819
0.021670502 -0.00080503634 -0.0024310558 0.023666259 0.015460502 0.03978065 -0.03610252 -0.019739022
0.017169937 -0.011350788 -0.00835723 0.042716306 -0.0070651355 0.00473597 -0.03896202 0.036895093
0.032843746 -0.014479297 -0.027170205 -0.017546546 -0.0069599925 -0.03463894 0.027235158 0.03050857
0.02251832 0.028482663 -0.037601184 0.026463965 0.0035697455 0.0061965915 -0.005421635 0.022974223
0.003209237 0.015051592 -0.017563634 -0.040585663 -0.0040957234 0.026176142 -0.0050407555 0.029411651
0.039320845 0.048579082 0.017949073 0.009203563 -0.013324696 -0.012141149 0.04172978 -0.0024108756
0.047081117 0.007877583 0.00033745202 0.010549595 -0.004391785 0.04528802 0.029765315 -0.01662523
-0.031433556 -0.018529471 -0.024359468 -0.024508873 -0.01045973 0.017914329 -0.048580144 -0.026967317
-0.0046961783 0.026888903 -0.017085418 0.010664683 0.022759173 -0.0029246246 0.0022078224 0.0022059688
00000000: 9f84 23bd 5eac 8bbc e2b9 193d 906f 023c
00000010: a8ae 4a3c 98b0 aebc 51fc 003c 3278 2f3c
00000020: 7cf6 77bc 8ef1 9f3c fc00 6839 8049 a63c
00000030: cc5a 9cbd 8a7c 19bd 712b 6cbc ee1e f8bc
00000040: 13bb 073d 1a97 f33b a9ff f6bb 9ff6 b03c
00000050: 860b a33c cea5 f23c 4615 06bd 8c98 0ebd
00000060: fd71 11bd a29f 0abc e140 7ebc 153e ffbb
00000070: 7fae 613c 1e3c 553a f294 f43c bf5b b13c
00000080: 44b8 8e3c ba8e 023c f597 53bc 14fe 083d
00000090: 193c 10bd e389 fcbb 307b a83a c909 873c
000000a0: 41c3 ab3a b719 db3b 161b 873c f1cb cd3c
000000b0: 151d 57bc 0f20 ebbc 8771 5bbb 05b4 4dbb
000000c0: a680 9f3c fe1d 09bd e275 50bd 6156 0cbd
000000d0: 3ba7 93bb 000f ad3c 7c0a 1bbd f28c 67bc
000000e0: 714b 2ebd 9e48 45bc 1e7c c4bb 4197 943c
000000f0: cf57 b0bb 1247 14bd 4e08 febc a4c9 9ebc
00000100: b061 5fbc e5d7 a53c ece3 aa3c 40ca 283c
00000110: 42fb 35bc d12a 623c f512 8fbc 6b5c 64ba
00000120: 5a9b feb9 f361 693d 72c6 043c 25a1 df3b
00000130: 5857 0f3b 9dfb 83bc 7243 9fbc 0312 6e3c
00000140: 303c 17bc f435 973c 9eea 4aba e4ca b13c
00000150: 6e93 9e3d 5048 14bb d28a 03bd 8624 ed3b
00000160: 4760 c63b 502a 453c dd4b ca3c 9234 09bc
00000170: 2f7b c6bb 6bd2 44bd 2ac0 d7b9 d7f9 333c
00000180: 2568 75bc 548d 053d e499 c2bc 83b3 d8bb
00000190: a074 c23b 8e73 163c 58b0 05bc 29a2 723c
000001a0: 7ffa 053d 3dd4 38ba 0dfe 4cbc b60e 10ba
000001b0: 1846 92bc 8239 fa3c eda9 943c 5a5a 19bd
000001c0: ef15 6a3c 74ad 3e3c d98e e7bc 8442 8bbc
000001d0: 0b73 b33c cb88 b2bc cd39 62bc 924f f4bc
000001e0: 1602 1fbd 48e5 b83b 1372 69bd cb49 ffbc
000001f0: 4b81 bcbc 97c2 903c 6b37 693c 528a 3b3b
00000200: 7c00 ad3c 77ed 323d c0b3 1a3b 8f68 d33c
00000210: 06c2 6e3c 1185 8ebc 992d 73bc e8ba ba3b
00000220: 5c25 743c 09f6 033c aab2 c0bc 89b1 3d3c
00000230: d5f7 aa3c c434 933c 0978 c4bb 68d9 4dbc
00000240: 6f76 b4bb 8342 c93c 1450 1fba 57ac 6e3c
00000250: 0b51 183d 18a5 a8ba 9baf 63bd fade 233d
00000260: 4a58 ae3c 7158 3c3d 9297 69bc ce77 103d
00000270: bc4e 083c 3d23 af3c fd91 d0bc c8cf e53c
00000280: 0984 c83b bd38 a5bc b66b 43bb 62ef 32bd
00000290: 273e 35bc f57c b03c 5ae9 56bc 7fda 1ebd
000002a0: b152 9bbb 6704 c7bc 5cb4 4c3c 6aa0 cf3c
000002b0: 928a 6e3b 37c3 d9bb 7270 013c e014 83bc
000002c0: 9434 0fbc 9b29 78bc b4db b53a 8719 913c
000002d0: f473 58bc ac34 b63c fddc f43b d798 193c
000002e0: 5686 b13c 1309 53ba 5952 1fbb bedf c13c
000002f0: 0c4e 7d3c 09f1 223d 3ce0 13bd bbb3 a1bc
00000300: f8a7 8c3c a8f8 39bc c3ec 08bc 4bf7 2e3d
00000310: a782 e7bb 3230 9b3b a496 1fbd 4f1f 173d
00000320: 2a87 063d 933a 6dbc 0d94 debc c6bd 8fbc
00000330: a610 e4bb 90e1 0dbd 441c df3c 1ced f93c
00000340: 5778 b83c 7954 e93c b303 1abd f5ca d83c
00000350: 64f2 693b c70c cb3b f9a7 b1bb 7034 bc3c
00000360: 1052 523b f49a 763c 9ce1 8fbc 273d 26bd
00000370: 6b35 86bb 596f d63c ec2c a5bb b4f0 f03c
00000380: e50e 213d dcfa 463d ef09 933c 8bca 163c
00000390: d34f 5abc abeb 46bc d9ec 2a3d c8ff 1dbb
000003a0: 21d8 403d fa10 013c 0bec b039 35d8 2c3c
000003b0: f6e8 8fbb ee7f 393d 64d6 f33c a231 88bc
000003c0: 79c0 00bd 1ecb 97bc 828d c7bc d5c6 c8bc
000003d0: 4a5f 2bbc 12c1 923c f9fb 46bd 90ea dcbc
000003e0: 66e2 99bb 1e46 dc3c b8f6 8bbc ecba 2e3c
000003f0: 7271 ba3c 0fab 3fbb 1db1 103b 0492 103b

layers1d.0.bias f4 [128]
-0.02588069 0.006145426 0.0038608096 -0.017458739 -0.0073545338 0.01284694 -0.014720783 0.015499896
-0.024830313 -0.030833252 -0.016198575 0.010950282 -0.0022920656 -0.005580909 -0.025327418 -0.0063623157
0.001968174 0.0056647095 0.01757794 -0.016622148 -0.017499382 0.009766515 0.00023056156 -0.0048247953
-0.01683276 0.01250923 -0.041574594 -0.014246367 0.014002774 0.010279608 0.009223665 -0.024146313
-0.037074946 0.0008431983 0.01824866 -0.00031118296 0.019175364 0.006314685 -0.028621923 0.01767979
-0.010624082 0.0060854764 0.0042230133 -0.0041047633 0.005948314 -0.018395927 0.014494176 0.01041572
0.003249013 -0.025869964 -0.0046224324 0.0064014443 -0.029713051 -0.012730375 -0.010863469 -0.008978027
-0.008426772 -0.011395618 0.0051469407 0.016540349 -0.032693453 0.010191043 0.014101175 -0.00680553
-0.00086729415 -0.0014288856 -0.0022869548 -0.01906015 -0.021346482 -0.0031709457 -0.015883075 -0.030933686
0.021615457 -0.012319634 -0.0019992553 0.009814786 -0.037591446 0.014891851 0.0150746135 0.008679055
-0.03383377 0.0138891665 -0.041820597 0.00012902774 -0.018354148 -0.008441347 0.0037627341 -0.04093818
-0.016251465 -0.020017 -0.0038606778 0.0056886165 -0.016880862 -0.02420765 0.011180184 -0.013885206
0.0031978614 -0.01101967 -0.025399808 0.0145569835 -0.030416263 -0.0019822058 0.0015441751 -0.023580229
-0.023788746 -0.007772154 -0.01181839 -0.0013668974 -0.01801726 0.018598864 -0.011876209 -0.021545429
-0.04014712 -0.007141685 -0.005548466 -0.010020409 0.007549167 0.011894886 -0.010442206 -0.0055720476
-0.024016613 0.004122187 -0.036153514 -0.016853718 0.007877692 -0.0083989985 -0.034902707 0.013720915
00000000: be03 d4bc 925f c93b a305 7d3b a105 8fbc
00000010: 4dfe f0bb f97b 523c 702f 71bc 47f3 7d3c
00000020: f168 cbbc 0496 fcbc e0b2 84bc d068 333c
00000030: 7b36 16bb 0fe0 b6bb 727b cfbc f97a d0bb
00000040: 7bfc 003b 079f b93b 9dff 8f3c 2c2b 88bc
00000050: dd5a 8fbc bc03 203c e6c2 7139 5119 9ebb
00000060: dbe4 89bc 83f3 4c3c 1f4a 2abd 9869 69bc
00000070: e46b 653c cd6b 283c db1e 173c 7dce c5bc
00000080: e6db 17bd 140a 5d3a 377e 953c 4526 a3b9
00000090: a715 9d3c 6beb ce3b 8678 eabc 35d5 903c
000000a0: a110 2ebc ad68 c73b 3461 8a3b 4081 86bb
000000b0: 13ea c23b 0eb3 96bc fb78 6d3c b2a6 2a3c
000000c0: 65ed 543b 3fed d3bc c677 97bb 35c3 d13b
000000d0: c968 f3bc 1093 50bc b1fc 31bc 9318 13bc
000000e0: 7210 0abc b0b4 3abc aba7 a83b a07f 873c
000000f0: 92e9 05bd 55f8 263c 9d08 673c ec00 dfbb
00000100: 205b 63ba 7249 bbba bce0 15bb 0824 9cbc
00000110: d1de aebc a4cf 4fbb 391d 82bc a468 fdbc
00000120: e612 b13c 4ad8 49bc f005 03bb 32ce 203c
00000130: 7df9 19bd f3fc 733c 83fb 763c 9832 0e3c
00000140: 4795 0abd 638f 633c 134c 2bbd 9f4b 0739
00000150: 705b 96bc 934d 0abc 3498 763b cbae 27bd
00000160: cb21 85bc b1fa a3bc 6d03 7dbb 9367 ba3b
00000170: bc49 8abc 1f4f c6bc 172d 373c c67e 63bc
00000180: 3693 513b d98b 34bc 4213 d0bc 6a80 6e3c
00000190: 872b f9bc e5e7 01bb eb65 ca3a 532b c1bc
000001a0: 9ee0 c2bc 8ead febb eca1 41bc 7729 b3ba
000001b0: ef98 93bc a55c 983c 6e94 42bc 0a80 b0bc
000001c0: 4e71 24bd cc04 eabb e8cf b5bb a42c 24bc
000001d0: 015f f73b c5e2 423c c915 2bbc b995 b6bb
000001e0: 7dbe c4bc 6913 873b b515 14bd cf10 8abc
000001f0: 6f11 013c f49b 09bc 24f6 0ebd b0cd 603c

layers1d.3.weight f4 [128, 128]
0.019108368 0.07318452 0.0306536 0.07328298 0.048860006 -0.071989104 -0.0721555 0.09205838
-0.06301889 0.044038955 0.07939981 0.06978174 -0.008499404 -0.07115987 0.050590616 0.038331516
-0.0687917 -0.049259946 0.07787309 0.020676158 -0.00325499 0.03674174 0.036245514 -0.045221444
0.04980087 -0.028364582 0.08934617 -0.08672709 -0.03523536 -0.011620175 0.0016374375 -0.05057189
-0.046944167 -0.02001607 0.059632346 -0.019500809 0.09093813 -0.06229713 0.06515901 -0.017612156
0.04148602 0.0780293 0.06460826 -0.0525104 0.072038114 0.03104677 -0.026800124 -0.059525438
0.05277333 0.07211924 -0.059621643 -0.06931784 0.08587886 0.07680018 -0.115199015 -0.005404188
-0.04044332 0.05926027 0.08982969 -0.08547765 -0.0377549 0.0450806 -0.020102147 -0.018696845
0.04144568 0.018098513 0.06506829 -0.025658228 -0.07628954 0.07279237 -0.0031035861 0.061175086
-0.0059384094 -0.004549261 -0.000538989 -0.013080505 -0.086433455 0.098126836 -0.0029701083 0.012552614
0.0036404047 -0.0933561 0.03973933 -0.050985936 0.0066411737 0.08004874 0.06516468 0.033437822
0.025900144 0.00396824 -0.049839158 -0.08645312 0.027352784 0.012737804 0.005175967 -0.058488306
-0.028678833 0.04700049 0.012641514 0.035351157 -0.07693441 0.05802699 0.079952076 -0.022153841
0.03763288 0.0137187885 0.118294895 -0.0670639 0.0006016195 0.059299935 -0.032371156 -0.025379814
-0.051789228 -0.00047771918 0.044220418 -0.0059905867 -0.041754942 0.072380856 0.031042991 -0.02000726
-0.012005784 0.021053376 -0.0058543603 0.005279501 0.028365642 -0.09769895 0.020905906 -0.08566095
-0.012310341 0.015415171 -0.01564515 0.025035758 -0.025532542 -0.088248305 0.038335256 0.02955814
0.028126955 -0.0033732727 0.002218493 0.055738583 -0.04754485 -0.043384343 0.023690803 0.04212814
-0.033884738 0.015529678 0.0602451 -0.025549319 0.06049293 0.0018738039 -0.033848293 -0.035727058
0.06505176 -0.022943407 -0.065725505 0.092106976 -0.00038353834 0.08429413 0.07499018 0.016459981
-0.027864307 0.05351014 -0.041270133 0.061496697 -0.062970884 0.024539635 -0.08248488 -0.044427816
-0.017076505 0.04070432 0.07481009 0.025411824 0.07529743 -0.052681427 -0.06563339 -0.034962982
-0.07161245 0.029708259 0.022836288 0.024348015 0.08062403 -0.016712014 -0.020252818 -0.0063703908
-0.030731715 0.09543107 -0.03564156 0.025224842 0.009525729 0.086057834 -0.03778475 0.07467825
0.018238477 -0.026361722 -0.02579239 0.10829511 -0.020411354 0.05471272 -0.074953936 0.04641264
-0.02965736 -0.0051945825 -0.035031177 0.056629967 -0.056834087 0.07973688 0.03077514 -0.040317014
0.06782253 -0.07622722 0.1064178 -0.014877177 0.066336855 -0.063148685 -0.064363234 0.09173098
-0.061698284 -0.023171026 0.070673846 0.032445308 0.037322085 0.077401154 -0.06440186 0.03446144
0.06922829 0.055818655 0.0048207156 -0.036795996 -0.082018584 -0.022069931 0.03587347 0.0062765726
-0.04666073 0.09738799 -0.049102582 0.016634088 -0.023388287 -0.037121132 -0.06876738 -0.08824908
0.00730158 0.06956297 0.050215837 -0.03841247 0.10301127 0.020577962 -0.046323836 -0.043202646
-0.035818912 0.026073156 -0.028481338 0.07166808 0.06112495 -0.03790054 -0.03983269 -0.07852132
00000000: 2789 9c3c c4e1 953d 421d fb3c 6315 963d
00000010: 6e21 483d 066f 93bd 43c6 93bd 1b89 bc3d
00000020: 0c10 81bd 3162 343d 5e9c a23d bbe9 8e3d
00000030: 1641 0bbc 44bc 91bd 1b38 4f3d 8201 1d3d
00000040: aae2 8cbd ccc4 49bd ed7b 9f3d 0c61 a93c
00000050: ac51 55bb 827e 163d 2d76 143d 1f3a 39bd
00000060: fffb 4b3d d75c e8bc 20fb b63d f99d b1bd
00000070: f452 10bd 8c62 3ebc 499f d63a 7824 4fbd
00000080: 8748 40bd bef8 a3bc 0c41 743d 29c0 9fbc
00000090: c53d ba3d 462b 7fbd 1672 853d 5e47 90bc
000000a0: 3fed 293d d3cd 9f3d 5651 843d 2515 57bd
000000b0: b888 933d cc55 fe3c ef8b dbbc f2d0 73bd
000000c0: d928 583d 41b3 933d d335 74bd 83f6 8dbd
000000d0: 41e1 af3d 6a49 9d3d 76ed ebbd 9d15 b1bb
000000e0: e5a7 25bd e6ba 723d a1f8 b73d e80e afbd
000000f0: e2a4 1abd 6fa6 383d 42ad a4bc 202a 99bc
00000100: f2c2 293d 5543 943c 8642 853d 3431 d2bc
00000110: b13d 9cbd 2b14 953d 8965 4bbb ba92 7a3d
00000120: fd96 c2bb f811 95bb f14a 0dba 9d4f 56bc
00000130: 0604 b1bd b9f6 c83d 26a6 42bb 7ba9 4d3c
00000140: db93 6e3b 7c31 bfbd b5c5 223d a1d6 50bd
00000150: 349e d93b 98f0 a33d 0f75 853d 19f6 083d
00000160: 8a2c d43c 0308 823b 2524 4cbd 550e b1bd
00000170: f212 e03c 39b2 503c 289b a93b 6f91 6fbd
00000180: dfef eabc 9683 403d 5a1e 4f3c 60cc 103d
00000190: ca8f 9dbd b6ad 6d3d eabd a33d f97b b5bc
000001a0: ef24 1a3d c5c4 603c 9844 f23d cc58 89bd
000001b0: 00b6 1d3a 7de4 723d 9e97 04bd 54e9 cfbc
000001c0: f120 54bd 6276 fab9 7820 353d af4c c4bb
000001d0: 3b07 2bbd 6a3c 943d df4d fe3c 44e6 a3bc
000001e0: e8b3 44bc 2178 ac3c efd5 bfbb aaff ac3b
000001f0: 105f e83c 6316 c8bd dd42 ab3c 026f afbd
00000200: 50b1 49bc ea8f 7c3c 422a 80bc ca17 cd3c
00000210: 9f29 d1bc 87bb b4bd 6e05 1d3d ea23 f23c
00000220: 806a e63c 2012 5dbb 2364 113b 244e 643d
00000230: 63be 42bd c8b3 31bd 3713 c23c 8e8e 2c3d
00000240: b9ca 0abd 3170 7e3c 91c3 763d ce4c d1bc
00000250: 6fc7 773d 6d9a f53a 82a4 0abd 8956 12bd
00000260: db39 853d d0f3 bbbc 189b 86bd 95a2 bc3d
00000270: a515 c9b9 67a2 ac3d 7494 993d 15d7 863c
00000280: b043 e4bc 732d 5b3d df0a 29bd f6e3 7b3d
00000290: e1f6 80bd 5807 c93c d5ed a8bd f1f9 35bd
000002a0: 07e4 8bbc 93b9 263d 0836 993d 752c d03c
000002b0: 8a35 9a3d 7bc8 57bd cc6a 86bd 5835 0fbd
000002c0: 8ca9 92bd bc5e f33c 2b13 bb3c 7d75 c73c
000002d0: 361e a53d a2e7 88bc 3de9 a5bc b6be d0bb
000002e0: 14c1 fbbc 5d71 c33d e2fc 11bd 54a4 ce3c
000002f0: ce11 1c3c 173f b03d 2fc4 1abd e9f0 983d
00000300: dc68 953c 8af4 d7bc 904a d3bc d4c9 dd3d
00000310: b635 a7bc 721a 603d 7381 99bd 2e1b 3e3d
00000320: fef3 f2bc 5137 aabb da7c 0fbd d3f4 673d
00000330: dcca 68bd 174d a33d 251c fc3c 7423 25bd
00000340: 8ae6 8a3d 041d 9cbd 93f1 d93d 67bf 73bc
00000350: 9edb 873d 1954 81bd dfd0 83bd 74dd bb3d
00000360: 57b7 7cbd 2ad1 bdbc 73bd 903d 5fe5 043d
00000370: 0bdf 183d 7f84 9e3d 1fe5 83bd 7027 0d3d
00000380: 90c7 8d3d 1aa2 643d 18f7 9d3b 66b7 16bd
00000390: 5cf9 a7bd 00cc b4bc 0ff0 123d b5ab cd3b
000003a0: 521f 3fbd 5b73 c73d ca1f 49bd 3644 883c
000003b0: cb98 bfbc 540c 18bd ead5 8cbd efbb b4bd
000003c0: 1842 ef3b 0877 8e3d 1faf 4d3d 6556 1dbd
000003d0: 93f7 d23d 1d93 a83c 10be 3dbd 42f5 30bd
000003e0: dab6 12bd 5f97 d53c b251 e9bc b7c6 923d
000003f0: 285e 7a3d 993d 1bbd 9a27 23bd c9cf a0bd

layers1d.3.bias f4 [128]
0.036924623 0.032403417 0.0055713058 0.049877606 0.025403319 0.013592742 0.04136628 -0.0014943779
0.018317843 0.0046028816 -0.008268607 0.0075896326 0.012832941 0.06416402 -0.050693095 -0.084271684
0.08474886 0.059080362 -0.044356067 -0.046956535 -0.01572284 -0.06905915 -0.062848374 0.05522936
0.07485439 -0.06296696 0.0133252675 0.08126008 0.03054143 0.03266242 -0.044053994 0.05108818
-0.026555065 0.022720492 -0.0025002211 -0.06964544 0.049852464 0.04787966 0.09407536 -0.035978958
-0.043141812 -0.015929354 -0.0025204788 -0.050751645 -0.0045749145 -0.05961276 -0.01885438 -0.021906368
0.027263463 -0.047697045 -0.051122244 -0.034816947 0.055191103 0.036891293 0.03443403 0.042284206
0.058375698 -0.08984281 0.028092783 -0.07265245 0.008086208 0.026609523 -0.009788748 -0.07042237
0.030292159 -0.051260564 -0.045183334 -0.025641065 -0.0106103495 0.04985915 0.00414369 -0.026390538
0.06457264 -0.062814996 0.064477354 -0.04897016 -0.0465052 0.0056815585 0.032320675 -0.07020232
-0.02842662 0.040182117 0.06373661 -0.06953341 -0.06892407 -0.060698833 0.060614917 0.009701364
-0.036928203 0.055627357 -0.041915298 0.05299841 -0.07877223 -0.024571123 -0.019959947 0.0324956
-0.07298026 0.023008334 0.057186883 0.02356824 0.05409465 0.026150435 0.06184564 -0.04075745
0.003383868 -0.07459118 0.020225206 0.05388086 0.06171647 -0.023172641 -0.018737627 0.054215677
-0.04806154 0.018244015 -0.06565309 -0.0013135299 0.05367483 0.015032646 -0.020127803 -0.054879054
-0.045572326 -0.038425375 -0.051395725 0.016195174 -0.044193707 -0.0040069944 -0.07446957 0.028843487
00000000: 463e 173d 72b9 043d 808f b63b 764c 4c3d
00000010: 9f1a d03c 18b4 5e3c b06f 293d 00df c3ba
00000020: 4d0f 963c c5d3 963b 0d79 07bc 74b2 f83b
00000030: 4141 523c 6d68 833d 90a3 4fbd a296 acbd
00000040: cf90 ad3d 40fe 713d b5ae 35bd 7f55 40bd
00000050: 2fcd 80bc e26e 8dbd a6b6 80bd 2e38 623d
00000060: 424d 993d d2f4 80bd 3952 5a3c af6b a63d
00000070: 0532 fa3c 08c9 053d f671 34bd d741 513d
00000080: 028a d9bc 5320 ba3c c0da 23bb 45a2 8ebd
00000090: 1932 4c3d 761d 443d 95aa c03d ac5e 13bd
000000a0: 78b5 30bd 477e 82bc 9e2e 25bb f5e0 4fbd
000000b0: 2ae9 95bb 822c 74bd 8074 9abc fc74 b3bc
000000c0: a057 df3c fa5d 43bd 8f65 51bd 379c 0ebd
000000d0: 1110 623d 531b 173d b30a 0d3d 3432 2d3d
000000e0: 5b1b 6f3d 82ff b7bd d622 e63c cfca 94bd
000000f0: 047c 043c 37fc d93c fc60 20bc 9b39 90bd
00000100: 4327 f83c 99f6 51bd 2912 39bd 360d d2bc
00000110: 08d7 2dbc 1c39 4c3d cbc7 873b f830 d8bc
00000120: a93e 843d 26a5 80bd b40c 843d ef94 48bd
00000130: 3d7c 3ebd 5e2c ba3b af62 043d 3cc6 8fbd
00000140: f1de e8bc 0196 243d 5788 823d 8867 8ebd
00000150: 1028 8dbd 579f 78bd 5947 783d 78f2 1e3c
00000160: 0742 17bd 83d9 633d 60af 2bbd dc14 593d
00000170: 5653 a1bd 6149 c9bc 0b83 a3bc 1b1a 053d
00000180: ad76 95bd f97b bc3c cb3c 6a3d 2f12 c13c
00000190: 5a92 5d3d 7039 d63c db51 7d3d 49f1 26bd
000001a0: e2c3 5d3b 43c3 98bd 55af a53c 2db2 5c3d
000001b0: 69ca 7c3d 8dd4 bdbc a77f 99bc 4211 5e3d
000001c0: 2ddc 44bd 7974 953c 2175 86bd c02a acba
000001d0: 23da 5b3d 7d4b 763c 10e3 a4bc dcc8 60bd
000001e0: 0caa 3abd ed63 1dbd 5384 52bd beab 843c
000001f0: 7604 35bd 1b4d 83bb 8083 98bd 2d49 ec3c

combined.0.weight f4 [64, 128]
-0.060883936 0.020621337 -0.06708326 -0.038313333 0.014312737 -0.05205722 0.10981823 0.10196855
0.06967394 0.042400315 -0.037739784 -0.007257278 -0.08047738 0.08562005 0.11198743 -0.034730997
-0.07027693 0.021488171 0.081075385 0.0019834673 0.044559997 -0.022005036 0.0009655891 -0.055709817
-0.10580649 -0.0009367802 0.062044315 -0.080470845 -0.022788892 -0.04763598 -0.049102735 -0.0472215
0.05394609 0.08128753 -0.052210275 0.083854765 0.01667574 -0.018262431 -0.03729116 0.014204717
-0.018605115 0.12197636 -0.08878669 -0.069491595 -0.052525356 -0.09196301 0.07429857 -0.046241414
0.07604032 -0.0059824595 -0.016901225 -0.05192982 -0.11258916 -0.027727693 0.06030677 -0.01939185
-0.09980623 -0.030836089 -0.058116328 0.0085290605 -0.017156633 0.08564403 0.064996466 0.10872328
-0.016328873 -0.059083477 0.08301298 -0.055927992 -0.019033745 0.051605616 -0.060640704 0.045540243
-0.10938455 -0.06706696 -0.06768645 0.01721561 0.058844265 0.06897063 0.044111148 0.018815776
0.005344022 0.09902848 -0.059410766 0.0410226 0.10227776 0.074996255 -0.07925217 -0.05544235
-0.009412616 -0.04513875 0.07365415 0.020037714 0.05953715 0.09377073 0.07957542 -0.086990215
0.05507444 -0.04075894 0.058409195 0.027346218 -0.04210927 -0.08796562 0.009818317 0.11631136
-0.017568503 0.016297875 0.015454258 -0.058208168 -0.07583577 0.09488506 -0.074253894 0.0785202
0.0667074 0.07761057 0.05543449 0.05080933 -0.06811355 0.081203945 -0.02407217 -0.027068269
0.08988462 -0.043791357 0.017253816 -0.07615828 0.0016197799 0.11109171 0.011016709 -0.09507364
-0.046823036 0.06439307 -0.026415452 0.025866223 0.09323902 0.041231878 -0.052300878 0.014629876
-0.04427211 -0.08599134 0.0037072748 -0.06675703 -0.07760808 -0.019547915 0.06454729 0.04043599
0.056791905 -0.030683316 0.06736679 -0.034847952 0.028518507 -0.046904467 0.01996323 0.04536476
-0.04005397 0.06284098 -0.026424304 0.06739343 -0.024963139 0.061462827 0.07202291 -0.07900983
-0.0010235586 -0.005219533 -0.06463116 0.07516473 0.04785217 0.018973147 -0.05145708 -0.025561666
0.0462341 -0.03890443 -0.023716595 0.020328179 -0.06536144 -0.073878646 0.07444468 -0.0014595093
0.077092655 0.04654985 -0.087364115 -0.044383965 -0.023112372 -0.005547379 0.08035643 -0.035266727
-0.050604533 -0.023786558 0.03840163 -0.054638837 -0.051169172 0.028335456 -0.055357553 -0.043248527
0.11940754 0.008756326 -0.006075791 -0.06929932 0.079688795 -0.07119405 -0.08335228 -0.06841396
0.017826373 -0.027380744 0.07746568 0.008032588 -0.07113823 -0.061046362 -0.080670156 0.00045851982
-0.014126312 -0.018047117 -0.089507274 0.036877416 -0.058896966 0.035890985 0.025362058 0.072053134
-0.07619064 -0.1178831 0.020427741 0.011077313 -0.077716395 -0.023283342 -0.08550379 -0.013944035
0.014792829 -0.020192739 0.07613672 0.060079984 0.03220773 0.027949786 0.0077175237 -0.060761064
-0.0729401 -0.060184814 -0.015700802 -0.027778262 -0.009971036 0.008870264 -0.024729751 -0.03937978
-0.07486494 -0.08730711 0.074814275 -0.033116225 0.054458145 -0.05340504 -0.013368764 0.013347757
-0.054217137 -0.013842431 0.0614264 -0.023783073 -0.011402758 0.021545868 0.0831777 0.0480275
00000000: 6f61 79bd 14ee a83c f362 89bd 71ee 1cbd
00000010: f87f 6a3c f439 55bd 61e8 e03d e3d4 d03d
00000020: 36b1 8e3d f4ab 2d3d 0895 1abd 76ce edbb
00000030: 53d1 a4bd 9159 af3d aa59 e53d 1742 0ebd
00000040: 5aed 8fbd f607 b03c da0a a63d 0ffd 013b
00000050: 8b84 363d e843 b4bc 961f 7d3a fa2f 64bd
00000060: 13b1 d8bd 4192 75ba 2e22 7e3d e6cd a4bd
00000070: c5af babc f21d 43bd f31f 49bd 556b 41bd
00000080: 93f6 5c3d 147a a63d 71da 55bd 0cbc ab3d
00000090: 909b 883c 189b 95bc 9ebe 18bd e7ba 683c
000000a0: c169 98bc bece f93d ccd5 b5bd 9c51 8ebd
000000b0: d424 57bd 1a57 bcbd d929 983d a367 3dbd
000000c0: 07bb 9b3d 8208 c4bb 7074 8abc 5db4 54bd
000000d0: 2595 e6bd 3025 e3bc 3b04 773d a8db 9ebc
000000e0: 3567 ccbd f79b fcbc 630b 6ebd 79bd 0b3c
000000f0: 118c 8cbc 2366 af3d de1c 853d 50aa de3d
00000100: 21c4 85bc 8401 72bd b602 aa3d c014 65bd
00000110: a8ec 9bbc 6960 533d 6362 78bd 6888 3a3d
00000120: 0205 e0bd 675a 89bd 329f 8abd c007 8d3c
00000130: af06 713d 7940 8d3d e4ad 343d 8b23 9a3c
00000140: e81c af3b 72cf ca3d b458 73bd 5007 283d
00000150: 0177 d13d a397 993d f64e a2bd 8517 63bd
00000160: 5f37 1abc 69e3 38bd fdd7 963d 2226 a43c
00000170: 3add 733d de0a c03d 70f8 a23d ed27 b2bd
00000180: bc95 613d d9f2 26bd 7b3e 6f3d 2d05 e03c
00000190: c57a 2cbd 5227 b4bd 02dd 203c a634 ee3d
000001a0: d2eb 8fbc 1f83 853c db33 7d3c b06b 6ebd
000001b0: c94f 9bbd 1953 c23d 6d12 98bd 33cf a03d
000001c0: e49d 883d 4af2 9e3d 470f 633d 721d 503d
000001d0: 1e7f 8bbd 414e a63d 0033 c5bc 46be ddbc
000001e0: 6d15 b83d 915e 33bd e057 8d3c dff8 9bbd
000001f0: cb4e d43a 0d84 e33d 6d7f 343c f8b5 c2bd
00000200: 83c9 3fbd 84e0 833d 3865 d8bc 67e5 d33c
00000210: 19f4 be3d c2e2 283d 7239 56bd 26b2 6f3c
00000220: ac56 35bd 3a1c b0bd c0f5 723b e9b7 88bd
00000230: fcf0 9ebd f322 a0bc 5f31 843d 35a0 253d
00000240: a19e 683d 945b fbbc 99f7 893d babc 0ebd
00000250: a59f e93c e61e 40bd ed89 a33c 66d0 393d
00000260: a20f 24bd c6b2 803d c877 d8bc 9105 8a3d
00000270: 7f7f ccbc 72c0 7b3d bf80 933d e8cf a1bd
00000280: ed28 86ba 9e08 abbb 575d 84bd f7ef 993d
00000290: a300 443d 936d 9b3c a9c4 52bd b366 d1bc
000002a0: f85f 3d3d 405a 1fbd 4e49 c2bc 4887 a63c
000002b0: 38dc 85bd b04d 97bd 7476 983d 014d bfba
000002c0: c1e2 9d3d 0eab 3e3d f5eb b2bd f6cb 35bd
000002d0: 2856 bdbc cac6 b5bb e991 a43d d873 10bd
000002e0: b346 4fbd 07dc c2bc 074b 1d3d f9cc 5fbd
000002f0: c496 51bd c21f e83c 9abe 62bd 5e25 31bd
00000300: f18b f43d b176 0f3c 6e17 c7bb cdec 8dbd
00000310: e133 a33d 30ce 91bd 9ab4 aabd 9e1c 8cbd
00000320: 9d08 923c 954d e0bc 54a6 9e3d 1e9b 033c
00000330: ecb0 91bd c00b 7abd 6536 a5bd 7d65 f039
00000340: 0c72 67bc 8cd7 93bc 974f b7bd c60c 173d
00000350: f23d 71bd 6d02 133d 17c4 cf3c 9890 933d
00000360: d709 9cbd b26c f1bd 1458 a73c 9e7d 353c
00000370: c629 9fbd b5bc bebc 9c1c afbd 8675 64bc
00000380: 9f5d 723c 3e6b a5bc 92ed 9b3d 6e16 763d
00000390: 41ec 033d f3f6 e43c 48e3 fc3b 98e0 78bd
000003a0: 9f61 95bd 5a84 76bd f89e 80bc 3d8f e3bc
000003b0: 8e5d 23bc 9554 113c 0c96 cabc b14c 21bd
000003c0: ca52 99bd 12ce b2bd 3a38 993d e1a4 07bd
000003d0: 810f 5f3d 3ebf 5abd a908 5bbc 8db0 5a3c
000003e0: ca12 5ebd 5dcb 62bc 409a 7b3d b8d4 c2bc
000003f0: a2d2 3abc f680 b03c 1259 aa3d 7cb8 443d

combined.0.bias f4 [64]
0.01621507 -0.0807802 0.02741208 0.028530207 0.06469363 0.07375371 -0.0054424712 -0.0089285355
-0.06628751 0.04318392 -0.00883653 0.059680305 0.044795793 -0.049724236 -0.0081300335 0.043517068
-0.08060854 -0.015655342 0.029872488 0.061797827 0.02204157 -0.050383203 0.07144527 0.044418752
0.036580477 0.037844773 0.035703827 -0.0610683 0.0016255446 -0.018722087 0.051520433 0.03787183
-0.060023267 -0.0071917083 0.023482503 0.040262852 -0.017332122 -0.053819247 -0.024820022 -0.061611727
-0.024851141 0.016615568 -0.020060338 0.05332711 0.065483056 -0.018436423 -0.07655157 0.074587695
-0.0027347717 -0.051405985 -0.02255489 0.07151174 -0.053992882 0.053312104 0.03919131 0.023058925
-0.0041711666 0.041759193 -0.021557646 0.000802521 0.03110715 -0.09427767 0.048761327 -0.032384362
00000000: 77d5 843c 1770 a5bd 4c8f e03c 2eb8 e93c
00000010: 187e 843d 2f0c 973d c256 b2bb fe48 12bc
00000020: bfc1 87bd 9fe1 303d 18c7 10bc 5673 743d
00000030: cb7b 373d a4ab 4bbd d533 05bc f43e 323d
00000040: 1716 a5bd a23f 80bc 26b7 f43c b81f 7d3d
00000050: 8690 b43c 9e5e 4ebd e651 923d 70f0 353d
00000060: 69d5 153d 1f03 1b3d 2d3e 123d c122 7abd
00000070: 3a10 d53a 105f 99bc 1707 533d 7e1f 1b3d
00000080: f5da 75bd 6ca8 ebbb 615e c03c a9ea 243d
00000090: 18fc 8dbc 9271 5cbd 5c53 cbbc 945c 7cbd
000000a0: 9f94 cbbc 5f1d 883c 9455 a4bc 876d 5a3d
000000b0: fb1b 863d fb07 97bc 12c7 9cbd 6fc1 983d
000000c0: db39 33bb 158f 52bd 08c5 b8bc bf74 923d
000000d0: a427 5dbd cb5d 5a3d 1187 203d 12e6 bc3c
000000e0: 48ae 88bb b00b 2b3d a999 b0bc 4660 523a
000000f0: 6cd4 fe3c a714 c1bd f5b9 473d 77a5 04bd

combined.3.weight f4 [64, 64]
0.038525485 -0.01185259 -0.06845539 0.010412663 -0.020570233 -0.050773136 0.103046425 -0.09652805
-0.020279838 0.013150192 0.072326966 0.05129215 -0.13490379 -0.0679396 -0.0047893035 -0.024009153
-0.05811607 -0.07791459 -6.864897e-05 0.07543097 -0.063569896 -0.12782493 -0.09533372 0.006379662
-0.11736773 -0.041869566 -0.03118383 -0.109737635 -0.1335921 -0.07166456 -0.047840275 -0.06969562
0.08994705 0.078157775 -0.038935028 0.07120025 -0.04336342 0.06428015 0.007064349 -0.049984
-0.03022453 -0.13017067 -0.06513449 0.042779833 0.09252301 -0.11028176 0.07093003 -0.039589442
-0.09136355 -0.10728827 -0.04917981 0.108207114 -0.06301607 -0.048352394 0.11895673 -0.05786865
-0.0008622053 0.07801043 -0.016471732 -0.1508556 0.013248732 0.1305883 -0.06468592 -0.13549843
-0.07280543 -0.025652949 0.12156677 0.11306989 -0.11268698 -0.035387516 -0.0023580575 0.044269823
-0.039063886 0.02743513 -0.00824758 -0.082303405 0.010746238 0.014570844 -0.12223139 -0.091097
-0.12324708 -0.064174525 -0.020459648 0.08433387 -0.016886074 0.029994939 -0.1115724 -0.12214433
0.080815166 0.006688183 -0.029369848 -0.11394808 -0.090273015 0.01571023 0.07154348 0.06428583
0.00699796 0.111844786 -0.0023766519 -0.068048716 -0.08115082 0.07898228 0.0433377 0.14184746
0.018169886 -0.115715064 0.053147424 -0.04286275 -0.11130611 -0.1054797 -0.104490995 -0.02663785
-0.15033564 0.10407758 -0.12056379 0.12571383 -0.014372773 -0.07545483 0.06778999 0.066711426
0.094511226 0.072903186 -0.15608016 0.04843515 -0.08107498 0.012440562 0.08289948 0.06177936
0.030199472 -0.004514148 -0.0691783 0.09553176 -0.06287203 0.05157751 -0.07870232 0.05508997
0.028016469 0.006686746 -0.017068664 -0.10159306 0.057641044 0.0028281573 -0.12534477 -0.1496791
-0.027438195 -0.08261853 -0.007772711 -0.030127352 0.06362669 -0.13502069 0.04039792 0.06057121
0.0052432483 0.021634923 0.11900835 -0.15094571 -0.09127049 0.07584518 -0.070865415 0.10946428
-0.07713905 0.13117737 -0.10775409 0.041873675 0.03150455 0.09655253 0.057864897 -0.10022003
-0.15317726 -0.1449612 -0.037450317 -0.02407404 0.061421387 -0.14777379 -0.083721906 0.0028246832
-0.11363793 0.104985334 0.051284827 0.039452396 0.014558232 -0.110461876 -0.05519112 -0.08327524
0.09795192 0.010670459 0.0184265 0.0018781191 -0.08713686 -0.10451469 0.05943008 0.046843138
0.051776182 -0.08696617 -0.032009285 -0.13273881 0.1267511 -0.087547466 -0.027817594 0.040689044
-0.048553206 0.012857912 0.071470134 -0.060878992 -0.07631278 -0.06548774 0.08782522 0.15191694
0.09123722 0.14078751 -0.0891101 0.012343397 0.11723511 -0.08746032 -0.14842536 0.06648591
-0.05892578 0.097672775 -0.12127953 0.14631385 0.02258183 -0.12547848 -0.03155987 -0.056703378
0.027600732 0.11440778 -0.045015156 -0.09641244 -0.037172012 0.10445633 -0.054261055 0.005789018
-0.02178523 0.037472546 0.17221864 0.08832796 0.04623649 -0.087216675 0.14453946 -0.052536596
0.027903393 -0.10336856 -0.065915816 -0.011414641 0.14436829 -0.01581889 -0.1354937 0.048169572
0.102068365 0.018165652 0.058979034 0.0020656863 0.055394072 -0.08679125 -0.12620595 0.07736705
00000000: e6cc 1d3d 5e31 42bc 5732 8cbd e099 2a3c
00000010: e882 a8bc 7ef7 4fbd 010a d33d 80b0 c5bd
00000020: e721 a6bc e773 573c 2920 943d b817 523d
00000030: 3824 0abe eb23 8bbd 97ef 9cbb d8ae c4bc
00000040: 1e0b 6ebd af91 9fbd a3f7 8fb8 8d7b 9a3d
00000050: ef30 82bd 8ae4 02be 533e c3bd 7c0c d13b
00000060: 7e5e f0bd 6c7f 2bbd 3b75 ffbc 20be e0bd
00000070: 5ecc 08be dec4 92bd 2af4 43bd 94bc 8ebd
00000080: 2936 b83d 2f11 a03d 567a 1fbd 70d1 913d
00000090: d79d 31bd 50a5 833d 0e7c e73b 06bc 4cbd
000000a0: 6f99 f7bc 764b 05be 3b65 85bd e839 2f3d
000000b0: b47c bd3d 67db e1bd c343 913d 8a28 22bd
000000c0: d01c bbbd f4b9 dbbd c570 49bd b19b dd3d
000000d0: 920e 81bd 290d 46bd 969f f33d ad07 6dbd
000000e0: 9e05 62ba efc3 9f3d baef 86bc e479 1abe
000000f0: 3611 593c f0b8 053e 0d7a 84bd 1ac0 0abe
00000100: 031b 95bd 2226 d2bc 00f8 f83d 3091 e73d
00000110: 6ec8 e6bd 80f2 10bd a489 1abb 4654 353d
00000120: 7401 20bd a3bf e03c dc20 07bc b08e a8bd
00000130: fd10 303c 8dba 6e3c 7354 fabd 1091 babd
00000140: f768 fcbd ef6d 83bd fe9a a7bc 3cb7 ac3d
00000150: aa54 8abc f2b7 f53c 1280 e4bd ce26 fabd
00000160: 6c82 a53d 8c28 db3b 0999 f0bc 9c5d e9bd
00000170: 0fe1 b8bd beb2 803c 6385 923d 4aa8 833d
00000180: 254f e53b e10e e53d 9ac1 1bbb 205d 8bbd
00000190: 6732 a6bd 76c1 a13d df82 313d 7640 113e
000001a0: 03d9 943c 05fc ecbd 1db1 593d da90 2fbd
000001b0: 75f4 e3bd be05 d8bd 60ff d5bd 9f37 dabc
000001c0: 96f1 19be a026 d53d 26ea f6bd 20bb 003e
000001d0: c77b 6bbc 1088 9abd 7ad5 8a3d 00a0 883d
000001e0: 1a8f c13d 444e 953d 7ad3 1fbe f063 463d
000001f0: a40a a6bd 80d3 4b3c 34c7 a93d 5b0c 7d3d
00000200: e264 f73c 6beb 93bb 5aad 8dbd 28a6 c33d
00000210: 0dc3 80bd f042 533d af2e a1bd 05a6 613d
00000220: cb82 e53c 7e1c db3b 95d3 8bbc 0610 d0bd
00000230: 0419 6c3d 9b58 393b 615a 00be 7a45 19be
00000240: 11c6 e0bc e733 a9bd 3ab2 febb a3cd f6bc
00000250: b64e 823d dd42 0abe 4a78 253d 8419 783d
00000260: 8ecf ab3b b93b b13c a6ba f33d 8391 1abe
00000270: 06ec babd b854 9b3d e321 91bd cf2e e03d
00000280: 14fb 9dbd 5c53 063e 2dae dcbd bb83 2b3d
00000290: ea0a 013d 55bd c53d be03 6d3d 2940 cdbd
000002a0: 80da 1cbe b570 14be 8165 19bd ec36 c5bc
000002b0: fe94 7b3d 0352 17be 6476 abbd 521e 393b
000002c0: 01bb e8bd 8d02 d73d 0a10 523d d698 213d
000002d0: a785 6e3c d639 e2bd 1510 62bd 368c aabd
000002e0: 049b c83d 26d3 2e3c 2cf3 963c 382b f63a
000002f0: cf74 b2bd cc0b d6bd f56c 733d 97de 3f3d
00000300: 4313 543d 521b b2bd 2b1c 03bd afec 07be
00000310: 0acb 013e 164c b3bd b9e1 e3bc 8ea9 263d
00000320: badf 46bd fea9 523c ef5e 923d 405c 79bd
00000330: e049 9cbd 701e 86bd b5dd b33d 1d90 1b3e
00000340: 94da ba3d 9a2a 103e 5b7f b6bd f63b 4a3c
00000350: f618 f03d 651e b3bd d1fc 17be c429 883d
00000360: 295c 71bd aa08 c83d 6761 f8bd 4cd3 153e
00000370: 88fd b83c 6e7d 00be ec44 01bd cd41 68bd
00000380: ee1a e23c a04e ea3d d061 38bd e373 c5bd
00000390: ae41 18bd 33ed d53d d740 5ebd cdb1 bd3b
000003a0: f076 b2bc d07c 193d 155a 303e 4ae5 b43d
000003b0: 7962 3d3d a89e b2bd 2702 143e 9d30 57bd
000003c0: a895 e43c e5b2 d3bd dffe 86bd 7904 3bbc
000003d0: 48d5 133e 9e96 81bc dcbe 0abe 754d 453d
000003e0: 3809 d13d 22d0 943c 0094 713d 7760 073b
000003f0: e5e4 623d 9cbf b1bd 223c 01be 9e72 9e3d

combined.3.bias f4 [64]
-0.09040751 0.07602158 0.061741877 0.058578245 0.08612039 -0.10445824 -0.043238994 -0.014097316
0.08604428 -0.06628166 0.028507737 0.09633604 -0.059950758 -0.0373974 0.09027731 -0.06541891
0.061947323 -0.014342869 0.025342444 -0.058888458 -0.014622197 0.064061396 0.02372133 0.043144476
0.08073948 0.055163834 -0.08399015 0.059452873 -0.007305466 0.1151003 0.107485466 -0.045837343
-0.1265818 -0.070914246 0.07942789 -0.04593156 0.08473023 0.091309175 -0.0043376493 0.07816849
0.020849003 -0.051369697 0.07115783 0.07907527 0.044035006 0.076732375 -0.08375691 0.037737668
-0.09436742 -0.008979063 0.067677535 0.06548388 0.086538084 -0.08153006 -0.049136635 -0.0036397376
0.030155541 0.043588746 0.019427897 0.0835618 -0.017071508 0.039626222 -0.04240006 -0.050294787
00000000: 9327 b9bd 34b1 9b3d 0de5 7c3d beef 6f3d
00000010: e35f b03d 34ee d5bd 5f1b 31bd 6ef8 66bc
00000020: fc37 b03d aebe 87bd 0f89 e93c d44b c53d
00000030: ed8e 75bd 042e 19bd 4fe3 b83d 59fa 85bd
00000040: 7abc 7d3d 5afe 6abc f59a cf3c 0635 71bd
00000050: f091 6fbc 9f32 833d 3c53 c23c 43b8 303d
00000060: be5a a53d 79f3 613d 0703 acbd db84 733d
00000070: b162 efbb b5b9 eb3d 5721 dc3d f0bf 3bbd
00000080: a99e 01be 7d3b 91bd 17ab a23d bb22 3cbd
00000090: 0b87 ad3d 4e00 bb3d d722 8ebb cd16 a03d
000000a0: 87cb aa3c 0869 52bd 32bb 913d 37f2 a13d
000000b0: 0d5e 343d dd25 9d3d be88 abbd d092 1a3d
000000c0: b543 c1bd eb1c 13bc 859a 8a3d 6a1c 863d
000000d0: e13a b13d 3bf9 a6bd 7f43 49bd aa88 6ebb
000000e0: c108 f73c 1d8a 323d 4127 9f3c 7322 ab3d
000000f0: 8cd9 8bbc 1b4f 223d afab 2dbd e801 4ebd

combined.6.weight f4 [1, 64]
-0.07431579 -0.10535378 -0.09681621 0.042544626 -0.05341999 -0.081234924 0.05436373 -0.105938464
0.08495544 0.023382675 -0.08252282 -0.044816393 0.05716833 0.054048263 -0.055068273 0.11639531
0.0670978 -0.035113093 0.09817314 -0.10016304 0.00800065 0.064352416 -0.08457433 0.06388554
-0.09597289 0.07436095 -0.13093089 -0.0381971 0.09154318 0.0602132 -0.04527192 0.03390243
-0.10517721 -0.0856783 0.08622237 -0.06458942 -0.061345834 -0.056827765 0.038697995 -0.04064962
0.04242368 0.06375656 0.053352814 0.06314769 -0.042239834 0.064117745 -0.09649922 -0.0945678
-0.059563097 0.095219135 0.03205683 0.07328414 0.03218016 -0.019767316 -0.065551534 0.085172564
-0.08703587 -0.12114422 -0.093580976 -0.075188525 0.107343204 -0.077900834 0.078164265 -0.09151753
00000000: e032 98bd b9c3 d7bd 9447 c6bd 4643 2e3d
00000010: ebce 5abd 7f5e a6bd 81ac 5e3d 44f6 d8bd
00000020: 1efd ad3d 068d bf3c b901 a9bd 6591 37bd
00000030: 5729 6a3d b661 5d3d 458f 61bd aa60 ee3d
00000040: 926a 893d bfd2 0fbd 000f c93d 4822 cdbd
00000050: 2915 033c 33cb 833d 4e35 adbd 6cd6 823d
00000060: 6f8d c4bd 8e4a 983d bf12 06be 9074 1cbd
00000070: fe7a bb3d 1ea2 763d 0c6f 39bd 46dd 0a3d
00000080: 2667 d7bd 1b78 afbd 5b95 b03d 7547 84bd
00000090: c545 7bbd 3bc4 68bd ca81 1e3d 3780 26bd
000000a0: 74c4 2d3d cd92 823d 7b88 5a3d 9353 813d
000000b0: ad03 2dbd 2a50 833d 62a1 c5bd c3ac c1bd
000000c0: 6ff8 73bd 4002 c33d 064e 033d ff15 963d
000000d0: 58cf 033d 11ef a1bc e23f 86bd f46e ae3d
000000e0: dd3f b2bd 761a f8bd 62a7 bfbd 71fc 99bd
000000f0: c1d6 db3d 798a 9fbd 9614 a03d 8b6d bbbd
