data/models/nov12_24_undersample/fold0_epoch_models/epoch_11_model.pt (torch, 775579 bytes, 9 tensors)

layers1d.0.weight f4 [128, 1280]
-0.09714036 -0.051379427 0.091113016 0.01715204 0.014748416 -0.082053855 0.024563992 0.002780003
0.015388608 0.039974142 0.009824897 -0.03179722 -0.095868625 -0.046212442 -0.06665099 0.016929613
0.021507826 0.098370865 0.027317936 -0.024096498 0.026283333 0.08052657 -0.012299804 -0.0018040643
0.008161825 -0.0436626 0.06773703 -0.013632869 -0.07456543 0.04379656 0.09274121 0.008696397
-0.019479826 -0.057704754 -0.011106066 0.06357949 -0.078964025 0.02920626 0.011051839 0.15495247
-0.026102712 -0.020981546 0.059190996 0.07654186 0.037198655 0.019747373 0.0018036228 -0.0117801465
-0.00991833 -0.041213885 -0.09714172 0.017717635 -0.011161233 -0.055590138 -0.06029633 -0.011140538
-0.059339903 0.07073492 -0.06924088 0.09345171 0.0094462335 -0.04583391 -0.118291944 0.008367352
-0.016858727 0.08750745 0.015767764 -0.08648719 0.0027962315 0.031928837 -0.09392147 -0.0012418776
0.071545504 0.10997898 -0.016560525 0.07166666 0.030575192 -0.044104703 -0.028486747 -0.042174824
-0.05816797 0.055087626 0.057842262 -0.08142193 0.033847418 -0.045253124 0.09650882 -0.06776239
-0.052787088 -0.0018535097 0.007633053 -0.04498181 0.0044935998 -0.027301455 0.021428576 0.0011765596
0.021849696 -0.053258993 -0.03089809 -0.031589624 0.092278905 -0.08771671 -0.043608785 -0.009393714
0.029504161 -0.00018478715 -0.11008325 0.012073683 -0.09387371 0.034308717 -0.14520259 -0.0070407377
0.008934785 0.07416159 -0.047622163 -0.061847933 -0.004673263 -0.03330434 -0.013987787 -0.05354073
-0.03963008 0.052447 -0.012901537 0.09698006 -0.02433915 -0.026714556 0.024773167 -0.07146563
0.074661605 0.057780214 0.06263848 -0.008914487 -0.045657407 -0.060090527 -0.018091213 0.039055716
0.06776342 0.013059816 0.059230763 0.0061653783 -0.00502315 -0.116707996 0.04357633 -0.044715125
-0.010216633 0.0037469459 -0.045330565 0.055552695 0.086996794 -0.0070990385 -0.10335764 0.08795462
0.013802436 -0.02756039 0.001918121 0.019822886 0.069903135 0.036098137 -0.01922651 0.032190077
0.010886188 0.0016531937 -0.043164995 -0.04505482 -0.1472852 -0.014187093 -0.15129022 -0.072364405
-0.032052193 0.067654006 0.15788119 0.03309772 -0.08411943 -0.050800197 -0.003364627 -0.006692516
-0.0010699704 0.014360592 -0.014547495 0.03931638 -0.0033556446 0.06679764 -0.07174248 0.026266245
0.021319686 -0.0475714 -0.0055724094 0.030302377 -0.003999761 -0.013523002 -0.045574587 0.025349509
0.048815846 0.0069182487 -0.00394592 0.028550316 -0.025334517 -0.025336169 0.0303658 0.05274412
-0.014002584 0.04819268 -0.11635345 -0.0029950016 0.050104924 -0.034438126 0.02428208 0.022272142
0.056755282 0.023265323 -0.023267599 -0.037959907 -0.025418147 -0.01970284 0.030053467 -0.005042946
0.10003561 0.046846755 0.0052942852 -0.104404725 -0.054341853 0.044806413 0.04408068 0.044287004
0.096535765 0.052611582 -0.037307974 0.017544668 0.024000712 -0.0119952485 0.017559204 0.05065021
0.06679582 0.0256146 0.010533377 -0.06330608 0.0011142603 0.025897343 0.15222181 -0.062121984
0.037369005 0.0039082128 0.013871427 -0.042143676 0.015846437 0.031522524 -0.035005778 -0.029411072
0.0823689 -0.022606695 0.056605726 0.0025436368 -0.0009431337 0.045535482 0.09760828 0.03716329
00000000: 86f1 c6bd 3c73 52bd 7699 ba3d 6f82 8c3c
00000010: 57a3 713c da0b a8bd 6d3a c93c b630 363b
00000020: 8020 7c3c edbb 233d 9bf8 203c cd3d 02bd
00000030: c556 c4bd 4249 3dbd 5080 88bd f9af 8a3c
00000040: 2e31 b03c aa76 c93d ddc9 df3c 0566 c5bc
00000050: 2550 d73c 1deb a43d 1e85 49bc 5a76 ecba
00000060: 2db9 053c 8ed7 32bd b6b9 8a3d 665c 5fbc
00000070: c3b5 98bd 0664 333d 1aef bd3d 557b 0e3c
00000080: 2894 9fbc d25b 6cbd 38f6 35bc f735 823d
00000090: e4b7 a1bd f741 ef3c c612 353c dcab 1e3e
000000a0: 5bd5 d5bc 7ee1 abbc 4272 723d fbc1 9c3d
000000b0: 9e5d 183d 3ec5 a13c 8a67 ec3a 8401 41bc
000000c0: 7e80 22bc e4cf 28bd 3df2 c6bd 9324 913c
000000d0: 9bdd 36bc 7cb2 63bd 49f9 76bd ce86 36bc
000000e0: 660e 73bd 78dd 903d 2ace 8dbd 9c63 bf3d
000000f0: 60c4 1a3c 57bc 3bbd 0c43 f2bd 3817 093c
00000100: 501b 8abc 1b37 b33d 662b 813c 3220 b1bd
00000110: fb40 373b d0c7 023d e659 c0bd 7fc6 a2ba
00000120: 7386 923d a93c e13d f0a9 87bc f8c5 923d
00000130: d378 fa3c 22a7 34bd 0a5d e9bc 82bf 2cbd
00000140: 8a41 6ebd 90a3 613d 02ec 6c3d 8ac0 a6bd
00000150: 97a3 0a3d 575b 39bd 6ba6 c53d 02c7 8abd
00000160: 4637 58bd 77f1 f2ba b11e fa3b d93e 38bd
00000170: 0c3f 933b 4da7 dfbc fb8a af3c ca36 9a3a
00000180: 22fe b23c 1a26 5abd fe1d fdbc 1f64 01bd
00000190: b9fc bc3d d2a4 b3bd 209f 32bd 18e8 19bc
000001a0: b6b2 f13c 6cc3 41b9 5473 e1bd b2d0 453c
000001b0: dc40 c0bd 4c87 0c3d fdaf 14be fdb5 e6bb
000001c0: 3463 123c 08e2 973d 750f 43bd 4254 7dbd
000001d0: 2c22 99bb 226a 08bd 082d 65bc 864d 5bbd
000001e0: 2753 22bd aad2 563d f860 53bc 7b9d c63d
000001f0: e662 c7bc 7cd8 dabc 19f1 ca3c 925c 92bd
00000200: 2fe8 983d f2aa 6c3d 9a48 803d 120e 12bc
00000210: 4303 3bbd 7c21 76bd 0634 94bc e3f8 1f3d
00000220: 8cc7 8a3d d7f8 553c f59b 723d f106 ca3b
00000230: 3c99 a4bb 9a04 efbd 187d 323d 3527 37bd
00000240: aa63 27bc 528f 753b 8bac 39bd 398b 633d
00000250: 602b b23d 0d9f e8bb 2cad d3bd 8d21 b43d
00000260: 9d23 623c 54c6 e1bc 7669 fb3a 9b63 a23c
00000270: 6029 8f3d a4db 133d ea80 9dbc bed9 033d
00000280: fb5b 323c faaf d83a c7cd 30bd 678b 38bd
00000290: eed1 16be fb70 68bc d3eb 1abe ca33 94bd
000002a0: 2949 03bd 2f8e 8a3d 9bab 213e 7a91 073d
000002b0: cf46 acbd de13 50bd 1381 5cbb e54c dbbb
000002c0: 403e 8cba b048 6b3c 9e58 6ebc 360a 213d
000002d0: 60ea 5bbb 33cd 883d b9ed 92bd 4f2c d73c
000002e0: 9fa6 ae3c 3ada 42bd c298 b6bb b13c f83c
000002f0: 6d10 83bb 958f 5dbc 6bac 3abd c6a9 cf3c
00000300: 20f3 473d 7ab2 e23b c74c 81bb 5ae2 e93c
00000310: 558a cfbc cc8d cfbc b3c1 f83c 380a 583d
00000320: 186b 65bc b065 453d b84a eebd ca47 44bb
00000330: d23a 4d3d fe0e 0dbd 36eb c63c 1174 b63c
00000340: 3a78 683d eb96 be3c b19b bebc d97b 1bbd
00000350: b839 d0bc da67 a1bc b032 f63c 4c3f a5bb
00000360: 78df cc3d 62e2 3f3d af7b ad3b 25d2 d5bd
00000370: 9095 5ebd ee86 373d f18d 343d 4a66 353d
00000380: 8bb4 c53d 3e7f 573d 3fd0 18bd d6b9 8f3c
00000390: 249d c43c b887 44bc 52d8 8f3c 9876 4f3d
000003a0: 3fcc 883d b6d5 d13c 2f94 2c3c 9ea6 81bd
000003b0: 5f0c 923a aa26 d43c 09e0 1b3e 9f73 7ebd
000003c0: 3e10 193d 7710 803b fb44 633c d99e 2cbd
000003d0: 63d0 813c c31d 013d 3862 0fbd 7def f0bc
000003e0: 07b1 a83d ad31 b9bc 68db 673d 25b3 263b
000003f0: a23c 77ba 6a83 3a3d dae6 c73d 8938 183d

layers1d.0.bias f4 [128]
-0.05682013 -0.030855782 -0.03480003 -0.03561292 -0.016883614 -0.013399249 -0.043589566 -0.018053511
-0.05740002 -0.056550145 -0.03357254 -0.021294614 -0.04847121 -0.041227654 -0.055121202 -0.040423688
-0.019201098 -0.013244317 -0.030025752 -0.03847004 -0.057872534 -0.039910045 -0.031366758 -0.039999098
-0.01683276 -0.024089772 -0.044749424 -0.032354772 0.016723303 -0.025931176 -0.021879347 -0.052771077
-0.0455834 -0.02389934 -0.030344917 -0.03550934 0.0015450611 -0.010387623 -0.05930955 -0.0026287674
-0.038898095 -0.027889019 -0.01602237 -0.03848956 -0.036029536 -0.04379334 -0.023496456 -0.02295029
0.0006607272 -0.07287553 -0.0411954 -0.014464275 -0.05584316 -0.04074561 -0.032368064 -0.045733914
-0.045411143 -0.0617684 -0.036705624 -0.011843437 -0.06044036 -0.03439343 -0.023239672 -0.052699465
-0.054611195 -0.046255484 -0.04410309 -0.046149213 -0.048462138 -0.042747986 -0.038284834 -0.05319008
0.0008117599 -0.059827544 -0.038107555 -0.008151293 -0.059740573 -0.005999366 -0.015412593 -0.018841164
-0.07535452 -0.010410098 -0.07511511 -0.0040524285 -0.04938076 -0.032414183 -0.02227713 -0.06537093
-0.04365463 -0.038233265 -0.0038606778 -0.015725654 -0.04557213 -0.05443774 0.009452315 -0.032592386
-0.026352206 -0.05229361 -0.063717745 -0.016761571 -0.038191747 -0.03155194 -0.03274105 -0.030828055
-0.06169859 -0.04326747 -0.04859918 -0.029615864 -0.019038009 -0.012902449 -0.036109567 -0.044727623
-0.07708763 -0.054220792 -0.027218686 -0.043616865 -0.034399666 -0.026241416 -0.03370537 -0.058810078
-0.05811923 -0.046246897 -0.060944293 -0.05642757 -0.016093617 -0.031437967 -0.045420323 -0.017754113
00000000: 3abc 68bd 44c5 fcbc 7a8a 0ebd dade 11bd
00000010: 814f 8abc 8688 5bbc f98a 32bd f5e4 93bc
00000020: 491c 6bbd 20a1 67bd 5c83 09bd 0b72 aebc
00000030: bf89 46bd 54de 28bd c5c6 61bd 4f93 25bd
00000040: 9f4b 9dbc b1fe 58bc 91f8 f5bc c392 1dbd
00000050: c00b 6dbd b778 23bd 6e7a 00bd 18d6 23bd
00000060: dbe4 89bc ea57 c5bc 2c4b 37bd 7086 04bd
00000070: 4fff 883c 9e6d d4bc 513c b3bc 7c26 58bd
00000080: a9b5 3abd 8cc8 c3bc e795 f8bc 3e72 11bd
00000090: a683 ca3a d930 2abc 92ee 72bd 6647 2cbb
000000a0: 9c53 1fbd 8377 e4bc 5841 83bc 3ba7 1dbd
000000b0: b593 13bd a560 33bd a47b c0bc 3f02 bcbc
000000c0: a734 2d3a c43f 95bd 82bc 28bd 91fb 6cbc
000000d0: ccbb 64bd dee4 26bd 6094 04bd 7c53 3bbd
000000e0: 0901 3abd dd00 7dbd a358 16bd fa0a 42bc
000000f0: 5090 77bd 20e0 0cbd 2061 bebc 65db 57bd
00000100: fdaf 5fbd 6476 3dbd 71a5 34bd f506 3dbd
00000110: 3c80 46bd 8318 2fbd 8fd0 1cbd d7dd 59bd
00000120: 49cc 543a ba0d 75bd ab16 1cbd 008d 05bc
00000130: 88b2 74bd 5496 c4bb 1a85 7cbc c958 9abc
00000140: 7853 9abd 1e8f 2abc f3d5 99bd 3cca 84bb
00000150: 7b43 4abd bcc4 04bd 877e b6bc 32e1 85bd
00000160: 33cf 32bd 7c9a 1cbd 6d03 7dbb 16d3 80bc
00000170: d7a9 3abd 1cfa 5ebd e2dd 1a3c 987f 05bd
00000180: 95e0 d7bc d331 56bd 737e 82bd 904f 89bc
00000190: f36e 1cbd 9b3c 01bd 7b1b 06bd 1e8b fcbc
000001a0: a9b7 7cbd 3b39 31bd ef0f 47bd f89c f2bc
000001b0: 99f5 9bbc cb64 53bc a0e7 13bd 5034 37bd
000001c0: 1fe0 9dbd 9f16 5ebd b9f9 debc 99a7 32bd
000001d0: aae6 0cbd 3df8 d6bc a40e 0abd d6e2 70bd
000001e0: 6e0e 6ebd 636d 3dbd b9a0 79bd 9820 67bd
000001f0: c3d6 83bc 19c5 00bd a90a 3abd 1371 91bc

layers1d.3.weight f4 [128, 128]
-0.029476788 0.0076314644 -0.00970863 0.0021467772 0.045684554 -0.13252212 -0.096020244 0.050401628
0.03071004 -0.03909679 0.07755011 0.19757985 0.0049793315 -0.008669528 0.062578015 0.037500784
-0.08314865 -0.10731393 0.12469502 -0.0721667 0.076207876 0.1104936 0.087377705 -0.027030997
0.04980087 0.07881473 0.08934617 -0.15398593 -0.068748295 0.022051876 0.005259763 -0.0099838795
-0.019016895 -0.051384483 0.104749545 0.05911256 -0.007659119 -0.03426652 0.0021760769 -0.11403675
-0.04435268 0.154513 0.1383595 -0.01740805 0.12918049 -0.031138476 -0.09784361 -0.07771448
0.0555314 0.10407538 -0.01451653 -0.06412985 0.07821479 0.17186816 -0.10400852 -0.019680735
-0.02813632 0.19580898 0.12397291 -0.09027414 -0.10195959 0.040396694 -0.018580368 0.09631213
0.0593532 0.086364485 0.11235348 -0.056109574 -0.13973138 0.11975003 -0.07093654 0.08720353
-0.0050050667 0.02475819 0.042118095 0.0768558 -0.14527908 0.14985064 -0.009241828 -0.06999486
0.05107777 -0.06944344 0.048065603 -0.1184643 0.049636785 -0.022242308 0.18725194 0.0024855842
-0.01025334 -0.054956976 -0.049839158 -0.09257352 0.038167942 -0.02802014 -0.04148824 -0.015292116
-0.008939035 0.11105823 0.20414567 0.07498241 -0.15432663 0.07145696 -0.05756726 -0.06712936
0.07424741 0.045738615 0.14599311 -0.07655635 -0.085952975 0.093871854 -0.08183245 -0.15886134
-0.05255834 -0.013253724 0.17123847 0.06832991 0.061428364 0.12660609 -0.060241893 0.008358306
-0.04780518 0.04260605 -0.046928056 -0.05222546 4.484905e-06 -0.08362733 -0.060369756 -0.1619754
-0.121509545 0.018340241 0.059586246 -0.039449748 -0.025532542 -0.103503056 0.07963152 0.038940057
0.021397246 -0.035358213 -0.042077605 0.072767876 0.018511524 0.007497222 0.010161347 -0.0026216884
-0.13203126 -0.04337885 0.08276827 -0.08101492 0.09737723 0.09533779 0.020834526 -0.10718139
0.06505176 0.060161278 -0.06254907 0.035872888 -0.055404346 0.06092302 0.06263606 0.04106128
-0.17059794 -0.079946704 0.054771774 0.09140505 -0.13648966 -0.06954323 -0.08399558 -0.0590481
-0.102189675 0.0069271764 0.13423118 0.016134338 0.14133862 -0.11649051 -0.15363106 0.012526631
-0.1499606 0.14129448 0.026976991 -0.0011114952 0.0892952 0.07170168 -0.089190505 0.040179048
0.01636627 0.18660073 0.04639959 0.08372185 -0.106071614 0.08196269 0.07477087 0.1300466
0.0605965 0.1161247 0.010385669 0.03169946 -0.10764696 0.092789695 -0.12621301 0.08696152
-0.06930036 0.09077527 0.023231417 0.19486254 -0.005229929 0.10636111 0.110878535 0.060225524
0.10666056 -0.15979479 0.091698706 -0.16847001 0.08385946 -0.023332637 0.116229616 0.030739421
-0.08447078 -0.0808635 0.070673846 -0.060172345 0.07364847 0.08473462 -0.15705483 -0.07185113
0.07594907 0.13360989 0.06483043 -0.14694294 -0.088596985 0.022264984 -0.041623406 -0.06777906
-0.045643665 0.03216659 0.027379831 -0.077780135 -0.071665734 0.08235773 -0.090258986 -0.19637905
0.048537184 0.13371518 0.13900827 -0.026248636 0.17090675 0.042400107 -0.07636022 0.020404054
-0.07692591 0.040540993 -0.041216597 0.10939539 0.00997535 -0.20562975 -0.10074784 -0.083257526
00000000: 4e79 f1bc 5d11 fa3b f210 1fbc f2b0 0c3b
00000010: ba1f 3b3d e1b3 07be 43a6 c4bd f071 4e3d
00000020: 9f93 fb3c f523 20bd 98d2 9e3d 5f52 4a3e
00000030: a929 a33b a30a 0ebc e728 803d 6c9a 193d
00000040: d749 aabd 68c7 dbbd 1a60 ff3d 23cc 93bd
00000050: e012 9c3d 784a e23d 15f3 b23d 1c70 ddbc
00000060: fffb 4b3d 9e69 a13d 20fb b63d 7dae 1dbe
00000070: e8cb 8cbd 23a6 b43c 175a ac3b 6d93 23bc
00000080: 52c9 9bbc 8978 52bd ee86 d63d 0320 723d
00000090: 59f9 fabb 0d5b 0cbd 839c 0e3b 198c e9bd
000000a0: 28ab 35bd a838 1e3e 1dae 0d3e 549b 8ebc
000000b0: e447 043e 1e16 ffbc 3b62 c8bd c528 9fbd
000000c0: e574 633d 7925 d53d bdd6 6dbc 8356 83bd
000000d0: 132f a03d 35fe 2f3e 6b02 d5bd 7e39 a1bc
000000e0: 247e e6bc 2682 483e 82e5 fd3d a6e1 b8bd
000000f0: 31d0 d0bd 0177 253d db35 98bc 4b3f c53d
00000100: 571c 733d dddf b03d 9519 e63d 27d3 65bd
00000110: be15 0fbe 813f f53d 2d47 91bd c497 b23d
00000120: 8b01 a4bb b0d1 ca3c 0684 2c3d 9366 9d3d
00000130: 0ac4 14be 7272 193e 096b 17bc 7759 8fbd
00000140: ec36 513d 5d38 8ebd 70e0 443d 699d f2bd
00000150: f14f 4b3d 8035 b6bc f9be 3f3e 2fe5 223b
00000160: a0fd 27bc 911a 61bd 2524 4cbd 3097 bdbd
00000170: fd55 1c3d 7e8a e5bc 93ef 29bd c98b 7abc
00000180: 0875 12bc 7f72 e33d 900b 513e 6190 993d
00000190: cd07 1ebe 0758 923d a6cb 6bbd 1e7b 89bd
000001a0: 070f 983d 6a58 3b3d 387f 153e 93c9 9cbd
000001b0: 1d08 b0bd e33f c03d c697 a7bd 8cac 22be
000001c0: 6a47 57bd 2626 59bc 2359 2f3e 8df0 8b3d
000001d0: 4f9c 7b3d 07a5 013e 34c0 76bd 47f1 083c
000001e0: 5dcf 43bd ae83 2e3d a237 40bd 5dea 55bd
000001f0: 0a7d 9636 ce44 abbd 4746 77bd e1dc 25be
00000200: ffd9 f8bd 463e 963c b510 743d 0f96 21bd
00000210: 9f29 d1bc 69f9 d3bd da15 a33d 9c7f 1f3d
00000220: 4749 af3c c6d3 10bd 9159 2cbd 5307 953d
00000230: 7ba5 973c 42ab f53b c77b 263c a2d0 2bbb
00000240: 3433 07be 05ae 31bd 6982 a93d 26eb a5bd
00000250: b76d c73d 7640 c33d 2bad aa3c eb81 dbbd
00000260: db39 853d ac6b 763d ba19 80bd 73ef 123d
00000270: abef 62bd 6b8a 793d 5647 803d df2f 283d
00000280: 3ab1 2ebe 19bb a3bd 5e58 603d 9232 bb3d
00000290: f2c3 0bbe ae6c 8ebd e005 acbd 6cdc 71bd
000002a0: d248 d1bd 5efd e23b e673 093e 292c 843c
000002b0: 12bb 103e 9492 eebd 7651 1dbe 803c 4d3c
000002c0: 468f 19be 80af 103e dafe dc3c 97af 91ba
000002d0: 67e0 b63d 55d8 923d 83a9 b6bd c992 243d
000002e0: 8e12 863c 4314 3f3e 7f0d 3e3d 5c76 ab3d
000002f0: 133c d9bd 0edc a73d 7821 993d f02a 053e
00000300: 0934 783d c9d2 ed3d a728 2a3c 4bd7 013d
00000310: 0276 dcbd 8608 be3d fc3d 01be e218 b23d
00000320: 59ed 8dbd 62e8 b93d d04f be3c 0c8a 473e
00000330: d35f abbb dbd3 d93d 4914 e33d 0aaf 763d
00000340: da70 da3d 3fa1 23be 88cc bb3d 6783 2cbe
00000350: 82be ab3d 1624 bfbc cb09 ee3d 3dd1 fb3c
00000360: 04ff acbd c39b a5bd 73bd 903d 4777 76bd
00000370: 02d5 963d 5889 ad3d fbd2 20be af26 93bd
00000380: 308b 9b3d 08d1 083e d1c5 843d 3678 16be
00000390: 5672 b5bd 0e65 b63c 4e7d 2abd bfcf 8abd
000003a0: daf4 3abd 1dc1 033d ab4b e03c 314b 9fbd
000003b0: 7cc5 92bd 2bab a83d b4d9 b8bd 9717 49be
000003c0: edce 463d a2ec 083e 2f58 0e3e 6107 d7bc
000003d0: 2e02 2f3e bcab 2d3d bf62 9cbd 6726 a73c
000003e0: 558b 9dbd 500e 263d bcd2 28bd b10a e03d
000003f0: a76f 233c 9b90 52be e254 cebd ec82 aabd

layers1d.3.bias f4 [128]
0.004651993 0.018552357 -0.024461972 0.011480976 0.0044298433 -0.023017302 0.0048546083 -0.0009356998
0.0017159649 0.013683826 -0.040917296 -0.009894997 0.0062173256 -0.017371446 -0.051829062 -0.021856777
0.0034981424 0.0057948767 -0.04539791 -0.030378591 -0.020845689 -0.1343693 -0.041127164 -0.0010071164
-0.0023338976 -0.027394019 -0.010981074 0.025507603 -0.030545816 -0.02518194 -0.023260191 0.014259761
-0.011225383 -0.03088452 0.0018628937 -0.027288657 -0.00900624 0.017630449 -0.00079029304 -0.01989319
-0.028797638 -0.038274053 -0.00063928735 -0.01428573 -0.025942974 -0.0042636096 -0.019947402 -0.03531971
-0.030246003 -0.032223407 -0.014457244 -0.04156711 0.02175549 0.020516995 0.0058735344 -0.0002576284
-0.0019810875 -0.03135143 0.0055644424 -0.011251138 0.010965626 -0.019465517 -0.06758984 -0.017770395
0.03310562 -0.034413967 -0.034073755 -0.02138686 -0.009987317 0.016707573 0.011407083 -0.029984754
0.0050609494 -0.041213382 0.004010863 -0.04391579 -0.02592235 0.014597022 -0.041598357 -0.03665165
-0.0145805245 0.010873677 0.0019904082 -0.006447454 -0.04116443 -0.039544154 0.02246731 -0.02612773
0.007843851 0.011768114 -0.010584468 0.03298609 -0.032344345 -0.034307916 0.013042385 0.015306322
-0.013857033 0.0006717517 0.026385393 -0.0053382777 0.002422161 -0.038417432 0.015891692 -0.024191651
0.0005894024 -0.03230281 -0.009119023 0.013733631 -0.010749957 -0.022955742 -0.0353795 -0.0060040136
-0.016472112 -0.029103504 -0.021174768 -0.002683824 0.0018318647 -0.0045098183 -0.01555637 -0.026552465
-0.027255455 -0.010457045 -0.01319869 -0.013755886 -0.028391853 0.009032764 -0.042349007 -0.020090273
00000000: bf6f 983b 1dfb 973c 7964 c8bc b41a 3c3c
00000010: 3828 913b c88e bcbc 6813 9f3b c049 75ba
00000020: 3aea e03a 2032 603c e598 27bd a01e 22bc
00000030: b5ba cb3b 904e 8ebc b64a 54bd fc0c b3bc
00000040: 1741 653b f3e2 bd3b 29f3 39bd 86dc f8bc
00000050: 94c4 aabc 1b98 09be f574 28bd 3801 84ba
00000060: 4ef4 18bb 6c69 e0bc f6e9 33bc 52f5 d03c
00000070: 383b fabc 5b4a cebc 288c bebc c6a1 693c
00000080: abea 37bc 8801 fdbc 572c f43a 768c dfbc
00000090: e98e 13bc bb6d 903c ab2b 4fba 0bf7 a2bc
000000a0: 06e9 ebbc 41c5 1cbd d995 27ba b20e 6abc
000000b0: 5c86 d4bc c0b5 8bbb bc68 a3bc 66ab 10bd
000000c0: 77c6 f7bc b1fc 03bd 14de 6cbc 4642 2abd
000000d0: 9238 b23c 4213 a83c c776 c03b 4c12 87b9
000000e0: 22d5 01bb 5b6a 00bd ed55 b63b b156 38bc
000000f0: 2ba9 333c 2676 9fbc 8b6c 8abd 3893 91bc
00000100: c299 073d a9f5 0cbd ec90 0bbd 7f33 afbc
00000110: d8a1 23bc 52de 883c c6e4 3a3c 96a2 f5bc
00000120: 52d6 a53b 5dcf 28bd 8f6d 833b 0be1 33bd
00000130: 1c5b d4bc 5928 6f3c 0a63 2abd 0a20 16bd
00000140: 27e3 6ebc 8227 323c 8271 023b 2a45 d3bb
00000150: 099c 28bd 0df9 21bd 5d0d b83c d209 d6bc
00000160: 7f83 003c 0ccf 403c 7a6a 2dbc 6c1c 073d
00000170: 817b 04bd 7586 0cbd baaf 553c 5ec7 7a3c
00000180: 9c08 63bc 7e18 303a 2e26 d83c b8ec aebb
00000190: 1ebd 1e3b 995b 1dbd 4b2f 823c 922d c6bc
000001a0: 2082 1a3a f44f 04bd f467 15bc 0603 613c
000001b0: 9620 30bc ae0d bcbc 18ea 10bd 51bd c4bb
000001c0: 86f0 86bc 796a eebc b576 adbc 18e3 2fbb
000001d0: 2e1b f03a 19c7 93bb 25e0 7ebc 8e84 d9bc
000001e0: d546 dfbc 0754 2bbc 513f 58bc 5e60 61bc
000001f0: 0896 e8bc 28fe 133c 2776 2dbd 5b94 a4bc

combined.0.weight f4 [64, 128]
-0.056928396 0.024094459 0.014119195 -0.0779527 0.05071274 0.039304655 0.062247682 0.106414266
0.04607716 0.04821707 -0.10293314 0.007848557 -0.08687064 0.057317115 0.10447461 -0.029416626
-0.024588276 -0.04380726 0.083679534 0.024724156 -0.0062783165 -0.018995708 0.015975911 0.019984912
-0.16630457 0.032396507 0.06117026 -0.04142081 -0.031034078 -0.07782869 -0.009961021 -0.0603972
0.101088636 0.11056166 -0.035421595 0.061221693 0.052676905 -0.10806118 0.0061871954 0.047129996
-0.0011055112 0.12010988 -0.0479849 -0.0805353 -0.043008327 -0.08715599 0.08519824 -0.045595087
0.054758992 -0.06612373 -0.0023157932 -0.04691959 -0.070793465 -0.014016147 0.08019151 0.00013409047
-0.09354801 0.046273578 0.00077430037 0.04619204 0.035010517 0.08073722 0.08647596 0.09351959
-0.025094407 -0.049696803 0.1437499 -0.006419037 0.028177815 0.016432922 0.009806283 0.04046739
-0.13461204 -0.039945073 -0.005211194 -0.0023963407 0.03521433 0.0029402187 0.060362715 0.08373246
0.034645747 0.12742738 -0.06874728 0.05451124 0.13387766 0.091117635 -0.09819755 -0.034304217
0.020065699 -0.05773597 0.09604148 0.022371462 0.10213079 0.1602668 0.051481828 -0.08398148
0.07670139 -0.04287258 0.09856858 0.05110879 -0.07972893 -0.098958336 -0.0050923754 0.10179306
-0.030116314 0.026752533 0.04673015 -0.070127495 -0.123106666 0.08430342 -0.021851575 0.07085217
0.052885234 0.12262455 0.06483746 0.010555816 -0.0035910427 0.05149501 -0.033401497 0.029863473
0.07740811 -0.011996112 0.058617797 -0.08533469 0.019674031 0.10240717 0.07319034 -0.14119694
0.026880704 0.078613676 0.019678233 -0.11099729 0.09169396 0.009195979 0.009913797 0.013461767
-0.06453265 -0.21953414 -0.042384554 -0.080466606 -0.12795678 0.019442774 0.09326615 0.062265437
0.025015958 -0.04843818 0.083991826 0.008052356 -0.05902262 0.012525508 0.14439021 0.07747826
-0.19054115 0.119703874 -0.019869093 0.009921154 -0.07879425 -0.00065381447 0.10167355 -0.08193624
0.058658242 0.036201682 -0.070828535 0.1654876 0.06077717 -0.10266234 -0.027704477 0.07166829
0.028165223 -0.009917187 0.050240263 -0.10005069 0.02131172 -0.06987425 0.13902082 -0.1227331
0.05914682 0.13741 -0.15120025 -0.032708608 -0.12223533 0.014373358 0.0752443 -0.009282452
-0.07724857 -0.0109395785 0.04533213 -0.019639187 -0.13608018 0.04676732 0.028952857 -0.007909271
0.11246572 0.04765699 0.008465262 -0.06433184 0.11832798 -0.06551185 -0.016125105 -0.09521056
0.0050195414 0.07903941 0.08671856 0.03356797 -0.08588185 -0.23129518 -0.040575933 -0.002736388
0.06487036 0.018226083 -0.059081618 0.082529604 0.024218058 0.08199224 -0.09472865 0.047163647
-0.009577334 -0.25848904 0.048545673 -0.08128391 -0.06504611 0.07556333 -0.04305068 -0.09795313
0.017744089 -0.023340976 0.13602608 0.020626722 -0.0073191626 -0.022314403 0.0019230561 -0.08094848
-0.004121549 -0.033969536 -0.115672 -0.017103974 -0.0687233 0.068369366 0.07943204 0.015556515
-0.009914268 -0.08661874 0.12154526 0.048098862 0.06332291 -0.069879375 -0.062472567 0.10374435
-0.038710423 -0.016113413 0.067624554 -0.076293595 0.0320442 0.05514776 0.11081666 0.03359926
00000000: c02d 69bd be61 c53c 3254 673c aaa5 9fbd
00000010: 29b8 4f3d ebfd 203d 6df7 7e3d b9ef d93d
00000020: 67bb 3c3d 437f 453d 9cce d2bd 3c97 003c
00000030: 3ce9 b1bd 5ac5 6a3d c9f6 d53d 23fb f0bc
00000040: 5a6d c9bc 3e6f 33bd 2d60 ab3d 508a ca3c
00000050: 56ba cdbb e39c 9bbc eadf 823c 66b7 a33c
00000060: bf4b 2abe 33b2 043d ab8d 7a3d dea8 29bd
00000070: 2e3b febc a664 9fbd 8d33 23bc 0e63 77bd
00000080: 8f07 cf3d 276e e23d 3c16 11bd 99c3 7a3d
00000090: bdc3 573d 2e4f ddbd f5bd ca3b 620b 413d
000000a0: cde6 90ba 2bfc f53d d18b 44bd b1ef a4bd
000000b0: 8029 30bd d77e b2bd 6a7c ae3d eac1 3abd
000000c0: f74a 603d e16b 87bd 90c4 17bb c22e 40bd
000000d0: 2afc 90bd fba3 65bc 723b a43d a39a 0c39
000000e0: 1996 bfbd 5d89 3d3d 6bfa 4a3a dd33 3d3d
000000f0: 3067 0f3d 8e59 a53d 4f1a b13d 3387 bf3d
00000100: c992 cdbc e08e 4bbd 2c33 133e c956 d2bb
00000110: 29d5 e63c 569e 863c 88aa 203c 22c1 253d
00000120: bdd7 09be 729d 23bd aac2 aabb ed0b 1dbb
00000130: e73c 103d afb0 403b e53e 773d ed7b ab3d
00000140: b3e8 0d3d 537c 023e 60cb 8cbd 2e47 5f3d
00000150: 3a17 093e e29b ba3d cc1b c9bd 9482 0cbd
00000160: d260 a43c 8d7c 6cbd 65b1 c43d 5b44 b73c
00000170: f329 d13d fb1c 243e 9cde 523d 7bfe abbd
00000180: 9e15 9d3d 299b 2fbd 53de c93d 7357 513d
00000190: ec48 a3bd abaa cabd f1dd a6bb e178 d03d
000001a0: 7db6 f6bc 2128 db3c 1d68 3f3d 019f 8fbd
000001b0: 591f fcbd 45a7 ac3d 1302 b3bc f11a 913d
000001c0: 309e 583d 9422 fb3d 81c9 843d 4df2 2c3c
000001d0: b357 6bbb 6eec 523d 02d0 08bd 3ea4 f43c
000001e0: 2588 9e3d 578b 44bc 3719 703d f4c3 aebd
000001f0: 6f2b a13c daba d13d d1e4 953d ee95 10be
00000200: ec34 dc3c 3500 a13d 3f34 a13c 8c52 e3bd
00000210: 0bca bb3d bbaa 163c 7a6d 223c be8e 5c3c
00000220: b229 84bd 8fcd 60be 6d9b 2dbd adcb a4bd
00000230: 1a07 03be 7446 9f3c 5302 bf3d 0b0a 7f3d
00000240: 44ee cc3c 1d67 46bd e803 ac3d 07ee 033c
00000250: b4c1 71bd ca37 4d3c 07db 133e ecac 9e3d
00000260: 381d 43be 4e27 f53d 82c4 a2bc 568c 223c
00000270: e15e a1bd bf64 2bba 393a d03d 30ce a7bd
00000280: a043 703d 3748 143d 8d0e 91bd 9575 293e
00000290: 7bf1 783d a240 d2bd 80f4 e2bc d3c6 923d
000002a0: c1ba e63c b27b 22bc bcc8 4d3d 60e7 ccbd
000002b0: eb95 ae3c 3b1a 8fbd 795b 0e3e 7e5b fbbd
000002c0: f043 723d 35b5 0c3e 3dd4 1abe 76f9 05bd
000002d0: 8456 fabd 3c7e 6b3c af19 9a3d 6d15 18bc
000002e0: 8034 9ebd eb3b 33bc 2fae 393d 5ce2 a0bc
000002f0: 9a58 0bbe 178f 3f3d 8b2e ed3c e395 01bc
00000300: 6d54 e63d fa33 433d e2b1 0a3c 69c0 83bd
00000310: f155 f23d 142b 86bd cc18 84bc c1fd c2bd
00000320: f77a a43b 6adf a13d 8099 b13d 917e 093d
00000330: d3e2 afbd a5d8 6cbe f332 26bd f954 33bb
00000340: c0da 843d de4e 953c 91ff 71bd 4805 a93d
00000350: f364 c63c 8ceb a73d 1801 c2bd ab2e 413d
00000360: 40ea 1cbc ad58 84be d4d7 463d 2e78 a6bd
00000370: e536 85bd f2c0 9a3d e955 30bd a79b c8bd
00000380: 0d5c 913c 9335 bfbc 6c4a 0b3e 5ff9 a83c
00000390: 96d5 efbb b2cc b6bc 0e0f fc3a 51c8 a5bd
000003a0: 0f0e 87bb a423 0bbd 71e5 ecbd a21d 8cbc
000003b0: cdbe 8cbd 3d05 8c3d 44ad a23d c1e0 7e3c
000003c0: 746f 22bc 2a65 b1bd b9ec f83d 5003 453d
000003d0: 71af 813d eb1c 8fbd 3ce3 7fbd eb77 d43d
000003e0: d28e 1ebd 4700 84bc be7e 8a3d d13f 9cbd
000003f0: c740 033d 9ee2 613d d8f3 e23d 619f 093d

combined.0.bias f4 [64]
0.024533024 -0.004235155 -0.0072249696 0.0065262485 0.05152961 0.08856302 -0.03393895 0.0049680523
-0.003424966 0.025242887 0.011900959 0.029085655 0.009744184 -0.0030527327 0.02421138 0.028363163
-0.0059486767 -0.026391655 0.085277736 0.11102575 0.03717407 0.007864078 0.06817702 0.026731363
0.083102785 0.052665826 0.0080488 0.009522334 0.0073329187 -0.0010070115 0.04079602 0.022881573
0.0035247854 0.015697574 0.013818101 0.07278788 0.013344599 -0.0012912988 0.0046920087 -2.4646918e-06
0.019090118 0.0112293335 -0.0030088148 0.028985273 0.10604871 0.0095473435 -0.018777063 0.07157677
0.03959726 0.049091637 -0.036098607 0.10314361 0.024712661 0.03428782 0.0912344 0.05519166
0.009344916 0.095532015 0.024758944 0.087070286 0.015724547 0.006020266 0.09629895 0.017754734
00000000: 7bf9 c83c 0ec7 8abb 70bf ecbb 24da d53b
00000010: b610 533d 8760 b53d 9203 0bbd 0bcb a23b
00000020: 6575 60bb 2cca ce3c 3dfc 423c 0a45 ee3c
00000030: 12a6 1f3c 5b10 48bb f256 c63c dd59 e83c
00000040: 1eed c2bb 5033 d8bc 18a6 ae3d 7861 e33d
00000050: d643 183d 55d8 003c 65a0 8b3d bbfb da3c
00000060: cb31 aa3d 1fb8 573d 1ddf 033c 9003 1c3c
00000070: fb48 f03b b3fd 83ba ba19 273d 2372 bb3c
00000080: 1600 673b 3398 803c 5165 623c d011 953d
00000090: 4ea3 5a3c cc40 a9ba 6cbf 993b 1567 25b6
000000a0: e162 9c3c 3dfb 373c 892f 45bb 8672 ed3c
000000b0: 1130 d93d 766c 1c3c 5bd2 99bc d796 923d
000000c0: bd30 223d 5014 493d 22dc 13bd f53c d33d
000000d0: 3572 ca3c 6371 0c3d 1ad9 ba3d a610 623d
000000e0: 6b1b 193c 4aa6 c33d 45d3 ca3c e851 b23d
000000f0: c4d0 803c a745 c53b 6238 c53d 6072 913c

combined.3.weight f4 [64, 64]
-0.07837405 -0.043125194 -0.054708816 0.040408745 -0.11236018 -0.00034787884 0.13773692 -0.08052974
-0.03476514 -0.05459506 -0.07302273 -0.030869015 -0.15982486 -0.16433124 -0.14245132 -0.10162214
-0.1041363 -0.017291317 0.052571543 0.07382404 -0.22684205 -0.19727717 -0.06204519 -0.16406715
-0.123000436 -0.10109899 -0.07647984 -0.23611653 -0.2670122 -0.10623837 -0.13263535 -0.025929157
-0.039789405 0.097335584 -0.1995434 0.07514092 -0.09599247 0.04726667 -0.18495944 -0.02137325
-0.08830856 -0.14425938 -0.13817868 -0.04751327 0.098651834 -0.25169474 0.101918355 -0.009057116
-0.12154517 -0.09314738 0.039065935 0.08627184 -0.12282311 -0.11124379 0.15032747 -0.15278597
0.06707965 0.11010463 -0.13917322 -0.068225235 -0.11167822 0.14116511 -0.05928606 -0.23415376
-0.07570701 -0.051478878 0.11892851 0.09709309 -0.13013156 -0.026672035 0.010520337 0.051530126
-0.14283831 -0.056110736 -0.022779075 -0.089513935 -0.07880283 -0.08024484 -0.233684 -0.12816562
-0.20501669 -0.065613754 -0.01307393 0.032642905 -0.04497329 -0.13977292 -0.06355157 -0.13608469
0.02004905 -0.04893601 -0.007947593 -0.19991882 -0.16584107 0.061501198 -0.04427235 0.08267265
-0.07552313 0.11401144 -0.11675122 -0.062594 -0.20143278 0.06569322 -0.13442585 0.13408124
-0.021898702 -0.16440062 -0.042865362 -0.13555895 -0.09239374 -0.22775505 -0.09086422 -0.021339705
-0.18947284 0.07451849 -0.018089976 0.0323012 -0.079146944 -0.06771183 -0.048002467 -0.027267514
0.091636136 0.007374651 -0.22932462 0.0060749445 -0.20674096 0.016883798 0.050360575 0.0054026977
-0.19428135 -0.07050605 -0.060672097 0.10608658 -0.21719252 -0.021079607 -0.039566446 0.018847616
-0.031961787 -0.15321545 -0.19780977 -0.2512569 -0.12194095 -0.17351308 -0.30147135 -0.3644573
-0.17707773 -0.05567861 -0.0019503215 -0.024548028 -0.088612996 -0.2875652 -0.0049354522 -0.1811474
-0.024661979 -0.18325649 0.08983964 -0.2809409 -0.26261622 0.09384607 -0.24932177 0.06101621
-0.20733914 0.08360495 -0.30576116 -0.015439619 -0.16300504 0.119678564 -0.085940905 -0.031864587
-0.4052795 -0.3240785 -0.13623741 -0.18485497 0.0029108135 -0.32924023 -0.05196036 -0.012105803
-0.29628822 0.030730804 0.13788189 0.0027029405 -0.18935476 -0.21408331 -0.055441037 -0.2906101
0.07190358 -0.013277474 -0.17213574 -0.028808292 -0.28423604 -0.08079179 0.004438863 -0.15781513
0.057577364 -0.03373648 -0.18921831 -0.36037725 0.087998055 -0.18533628 0.005330164 -0.12440305
0.002717807 0.031994615 0.049119223 -0.044732753 -0.07627588 -0.03559349 0.050703153 0.107710846
0.10213772 0.13944371 -0.23831698 -0.16607602 0.119244106 -0.05210858 -0.23110192 0.057961714
-0.17488095 0.097330555 -0.30272427 0.09567931 0.022005571 -0.30417827 -0.0075577954 -0.25285113
0.0069248904 -0.13240579 0.036649138 -0.32114872 -0.017950945 -0.05652535 -0.03301512 -0.15406014
0.013098886 0.029723214 0.15177588 0.06881207 -0.14150025 -0.010951993 0.17709112 -0.15250967
0.045206957 -0.28337494 0.0131444745 -0.11111651 0.0856403 -0.05477572 -0.25031346 0.025677914
-0.09689533 -0.14031897 0.03888788 -0.15980399 0.074024715 -0.21547976 -0.27745414 0.07540245
00000000: 9382 a0bd 0ba4 30bd 5a16 60bd a483 253d
00000010: 181d e6bd 8263 b6b9 e80a 0d3e c7ec a4bd
00000020: e465 0ebd 129f 5fbd f18c 95bd 04e1 fcbc
00000030: 21a9 23be 7346 28be c2de 11be 451f d0bd
00000040: 6a45 d5bd 85a6 8dbc 4255 573d 0f31 973d
00000050: 4849 68be 0703 4abe 1923 7ebd 3801 28be
00000060: a7e7 fbbd fd0c cfbd 76a1 9cbd 88c8 71be
00000070: d3b5 88be 8193 d9bd 90d1 07be 6269 d4bc
00000080: 37fa 22bd e157 c73d 1b55 4cbe 7ce3 993d
00000090: b397 c4bd b29a 413d 0266 3dbe f416 afbc
000000a0: 1edb b4bd bbb8 13be b67e 0dbe 469d 42bd
000000b0: f909 ca3d 22de 80be 92ba d03d 4c64 14bc
000000c0: adec f8bd 0ec4 bebd 9a03 203d 4aaf b03d
000000d0: af8a fbbd c9d3 e3bd 72ef 193e ed73 1cbe
000000e0: 0e61 893d 897e e13d 6d83 0ebe acb9 8bbd
000000f0: 8db7 e4bd 968d 103e f1d5 72bd 01c6 6fbe
00000100: 470c 9bbd 84db 52bd ca90 f33d bed8 c63d
00000110: 3541 05be 507f dabc 7e5d 2c3c 4111 533d
00000120: 3544 12be 5fd4 65bd 2f9b babc 1553 b7bd
00000130: 6163 a1bd 6857 a4bd dc4a 6fbe d93d 03be
00000140: e5ef 51be 8160 86bd 0934 56bc 91b4 053d
00000150: ea35 38bd a220 0fbe 5327 82bd c959 0bbe
00000160: e83d a43c 2071 48bd 9f36 02bc 85b7 4cbe
00000170: 3ed2 29be aee8 7b3d ec56 35bd 4750 a93d
00000180: dfab 9abd d47e e93d 431b efbd 4831 80bd
00000190: 6544 4ebe 2b8a 863d eea6 09be 984c 093e
000001a0: e864 b3bc a358 28be 9793 2fbd f7cf 0abe
000001b0: ee38 bdbd 9f38 69be 0517 babd 9bd0 aebc
000001c0: 2b05 42be 269d 983d 6e31 94bc 434e 043d
000001d0: cb17 a2bd 80ac 8abd 3c9e 44bd 1f60 dfbc
000001e0: baab bb3d 0ea7 f13b 13d4 6abe 5410 c73b
000001f0: e7b3 53be e44f 8a3c e446 4e3d 1d09 b13b
00000200: b1f1 46be 7a65 90bd 4e83 78bd ec43 d93d
00000210: b767 5ebe 24af acbc 6d10 22bd 5166 9a3c
00000220: 5dea 02bd 83e4 1cbe a58e 4abe bfa4 80be
00000230: 2dbc f9bd 6aad 31be 745a 9abe 269a babe
00000240: dd53 35be 410f 64bd eea1 ffba f218 c9bc
00000250: bb7a b5bd bf3b 93be 93b9 a1bb b47e 39be
00000260: eb07 cabc 97a7 3bbe d8fd b73d 7cd7 8fbe
00000270: a275 86be 5e32 c03d 354e 7fbe 22ec 793d
00000280: b650 54be 1239 ab3d ba8c 9cbe 75f6 7cbc
00000290: cbea 26be 091a f53d c901 b0bd 7184 02bd
000002a0: cb80 cfbe 9eed a5be d281 0bbe 9f4a 3dbe
000002b0: 59c3 3e3b 2d92 a8be 63d4 54bd 6b57 46bc
000002c0: 17b3 97be 2bbf fb3c e930 0d3e d123 313b
000002d0: 37e6 41be a838 5bbe 2416 63bd d9ca 94be
000002e0: 2f42 933d c389 59bc 5a44 30be 5eff ebbc
000002f0: 6387 91be 2a76 a5bd e273 913b 4a9a 21be
00000300: 3ed6 6b3d 432f 0abd 72c2 41be 5e83 b8be
00000310: 5338 b43d cbc8 3dbe a8a8 ae3b 07c7 febd
00000320: 3c1d 323b c90c 033d 3d31 493d b139 37bd
00000330: 8736 9cbd 7bca 11bd 1cae 4f3d 8197 dc3d
00000340: 952d d13d 55ca 0e3e 5e09 74be d50f 2abe
00000350: 4136 f43d ce6f 55bd fba5 6cbe 4369 6d3d
00000360: fe13 33be 3e55 c73d adfe 9abe 84f3 c33d
00000370: 0745 b43c 41bd 9bbe 62a7 f7bb b475 81be
00000380: 31ea e23b 6295 07be 681d 163d 9b6d a4be
00000390: dc0d 93bc 2087 67bd dd3a 07bd f1c1 1dbe
000003a0: b69c 563c 197e f33c 236b 1b3e 58ed 8c3d
000003b0: 71e5 10be fd6f 33bc 6057 353e 7f2b 1cbe
000003c0: ee2a 393d 8516 91be ec5b 573c 0e91 e3bd
000003d0: 2e64 af3d 815c 60bd 1629 80be 7d5a d23c
000003e0: 0f71 c6bd c7af 0fbe e648 1f3d a8a3 23be
000003f0: 459a 973d baa6 5cbe 780e 8ebe 9a6c 9a3d

combined.3.bias f4 [64]
0.07857701 0.15295535 0.11675721 0.12678854 0.16896202 0.09064425 0.10125534 0.10123534
0.13982847 0.12314213 0.14619768 0.17183559 0.096097425 0.09530233 0.18341835 0.09811598
0.104262955 0.15012221 0.11775894 0.10104127 0.088008046 0.123863995 0.13942844 0.11135191
0.13087817 0.10762778 0.09166371 0.1629695 0.10069442 0.13048013 0.17409618 0.101159826
0.072195195 0.081657894 0.11761279 0.13320811 0.15262723 0.15850365 0.079396315 0.17771582
0.13333623 0.08762473 0.14125468 0.12904184 0.13661227 0.12196379 0.080285735 0.11563306
0.11131622 0.103224345 0.14383765 0.1476043 0.12854533 0.10198163 0.14777803 0.1075324
0.14453386 0.1275378 0.14384584 0.13837798 0.107603826 0.14772247 0.1243851 0.11167084
00000000: fcec a03d 54a0 1c3e 671e ef3d dbd4 013e
00000010: 6104 2d3e b1a3 b93d f65e cf3d 7954 cf3d
00000020: 322f 0f3e f131 fc3d d8b4 153e abf5 2f3e
00000030: bace c43d de2d c33d 05d2 3b3e 08f1 c83d
00000040: d187 d53d a3b9 193e 992b f13d baee ce3d
00000050: 903d b43d 68ac fd3d 54c6 0e3e 780c e43d
00000060: ed04 063e f46b dc3d 2fba bb3d 7ae1 263e
00000070: e038 ce3d 959c 053e 4546 323e e22c cf3d
00000080: 13db 933d 413c a73d f9de f03d b567 083e
00000090: 504a 1c3e c84e 223e 899a a23d 23fb 353e
000000a0: 4b89 083e 9874 b33d 11a5 103e 8b23 043e
000000b0: 16e4 0b3e 27c8 f93d d96c a43d 07d1 ec3d
000000c0: c2f9 e33d 4967 d33d 2d4a 133e 9525 173e
000000d0: 63a1 033e bfdb d03d 2053 173e f239 dc3d
000000e0: af00 143e 4599 023e 534c 133e f5b2 0d3e
000000f0: 655f dc3d 8f44 173e 9ebd fe3d aeb3 e43d

combined.6.weight f4 [1, 64]
-0.0900657 -0.08803657 -0.139607 0.030729843 -0.06860214 -0.071212 0.02397664 -0.1272348
0.052012715 0.032941796 -0.0657277 -0.050171684 0.022990745 0.03174763 -0.069115505 0.0299297
0.03674929 -0.04835658 0.05411088 -0.058047745 0.032139167 0.058545332 -0.07383967 0.032871492
-0.09817573 0.06138162 -0.12045572 -0.058810927 0.039410584 0.038396966 -0.05665501 0.02733424
-0.07205179 -0.087443195 0.040472284 -0.044742852 -0.06363662 -0.06708426 0.020979268 -0.060715314
0.028778933 0.026656361 0.03595065 0.04261583 -0.06644517 0.045817908 -0.09554177 -0.12575299
-0.054918 0.03937503 0.025040671 0.051968757 0.026110804 -0.092917405 -0.047464497 0.048643492
-0.085022405 -0.110441126 -0.073018104 -0.07561402 0.05933147 -0.078392714 0.04073631 -0.07885459
00000000: 5e74 b8bd 844c b4bd 23f5 0ebe 27bd fb3c
00000010: 477f 8cbd 99d7 91bd a96a c43c d749 02be
00000020: 490b 553d faed 063d 3f9c 86bd d380 4dbd
00000030: 1657 bc3c ce09 023d 6e8c 8dbd 212f f53c
00000040: 6c86 163d 8d11 46bd 5fa3 5d3d 79c3 6dbd
00000050: 5ca4 033d 3bcd 6f3d 4139 97bd 42a4 063d
00000060: 5b10 c9bd 4b6b 7b3d 7db1 f6bd bae3 70bd
00000070: fe6c 213d 2346 1d3d 150f 68bd 0eec df3c
00000080: e48f 93bd 6b15 b3bd 44c6 253d 4844 37bd
00000090: eb53 82bd 7963 89bd b7dc ab3c 9fb0 78bd
000000a0: ccc1 eb3c 715e da3c fd40 133d f08d 2e3d
000000b0: 6814 88bd 8fab 3b3d 67ab c3bd 64c5 00be
000000c0: b2f1 60bd b647 213d 1822 cd3c 31dd 543d
000000d0: 53e6 d53c 7b4b bebd 226a 42bd 663e 473d
000000e0: 3a20 aebd f52e e2bd 848a 95bd 86db 9abd
000000f0: 8e05 733d 5c8c a0bd 1edb 263d 847e a1bd
