data/models/nov12_24_undersample/fold0_epoch_models/epoch_9_model.pt (torch, 775567 bytes, 9 tensors)

layers1d.0.weight f4 [128, 1280]
000000 0d 93 d8 bd 49 26 65 bd 17 8e 9e 3d 41 c3 67 3c
       -0.10574923 -0.055944715 0.07741945 0.014145673
000010 fb c1 29 3c 2c 70 5e bd 8c 86 2c 3c cb 73 9c 3b
       0.01036119 -0.054306194 0.010530125 0.004774546
000020 0c 5c 83 3b 1a c3 aa 3c f5 b7 23 3b 7c 0b 27 bd
       0.0040087756 0.020844985 0.0024981473 -0.040782437
000030 90 7c 9c bd 91 c5 06 bd e0 b1 3f bd 62 85 66 3c
       -0.07640946 -0.032903258 -0.046800494 0.014069887
000040 c6 ec d3 3c f0 c0 6d 3d 2a d6 80 3c 87 b8 37 bc
       0.025869738 0.058045328 0.015727121 -0.011213428
000050 00 cd 44 3d a4 e0 4e 3d 5b a5 f2 bc ff e0 08 bd
       0.048047066 0.050507203 -0.029619863 -0.033417698
000060 f4 98 3e bc e2 90 a5 bc 12 6d 52 3d 9c 33 3d bc
       -0.011633147 -0.020210687 0.05137355 -0.011547949
000070 4a 00 8f bd 72 64 a9 3c 58 73 7d 3d c2 62 17 3c
       -0.06982477 0.020677779 0.06187758 0.009239854
000080 0d 19 59 bc 4c 37 53 bc 88 af 99 bc 6b 05 85 3d
       -0.0132506015 -0.012891602 -0.018760458 0.06495174
000090 44 c5 b3 bd 3b 05 bc 3c 37 1e 31 3d 64 4c 14 3e
       -0.0877786 0.022951713 0.043241706 0.14482266
0000a0 f3 23 15 bd 15 9d 04 3c 4b ba 9d 3d ad c6 b8 3d
       -0.036411237 0.008094092 0.07701548 0.090222694
0000b0 29 57 f5 3c c5 9c 70 bc 30 5d b2 38 4b b2 34 3c
       0.029948788 -0.014685814 8.505059e-05 0.0110288365
0000c0 4f 43 92 3b 94 ad 25 bd 90 62 de bd bf ce 89 3b
       0.00446359 -0.04044874 -0.10858643 0.0042055543
0000d0 73 c0 20 bc 12 63 bd bc e2 14 7e bd 69 6b 4c bc
       -0.0098115085 -0.02311853 -0.062031634 -0.01247678
0000e0 6d b5 8a bd c7 d8 84 3d 21 30 49 bd e1 00 c2 3d
       -0.067728855 0.064866595 -0.049118165 0.09472824
0000f0 9f d2 d9 3a 30 6d 90 bd c9 cb f6 bd dd d4 0b bb
       0.0016618556 -0.07052076 -0.12050588 -0.0021336593
000100 87 3f 09 bd e2 2e a7 3d 94 94 0a 3c 59 47 c6 bd
       -0.03350785 0.08163239 0.008458275 -0.09681577
000110 80 12 93 b9 b2 90 c9 3c 67 e1 8e bd b6 7c 6b bb
       -0.00028051808 0.024605129 -0.06976586 -0.0035932488
000120 96 15 53 3d ea 06 f2 3d d7 20 97 bc 08 88 98 3d
       0.051534258 0.11817725 -0.018448276 0.07447821
000130 9c 3d 8f 3c 28 ca b3 bc 5f 70 1b bd 40 95 af bc
       0.017485432 -0.021946982 -0.037948962 -0.021433473
000140 d3 fd 47 bd 72 a0 72 3d 4e e5 d3 3c 73 b0 85 bd
       -0.04882605 0.059235044 0.025866177 -0.06527796
000150 f0 64 05 3d 72 45 9b bc 01 51 b0 3d 4a ac 53 bd
       0.032566965 -0.018954013 0.086092 -0.05167798
000160 98 d3 2e bd 13 8c 8d bc 13 34 bd 3c 91 c1 35 bd
       -0.04268226 -0.017278707 0.02309612 -0.044374052
000170 a0 70 e3 3c ea a4 5c bc 2c b8 cf 3b 53 97 69 3c
       0.027763665 -0.013467053 0.0063390937 0.01425727
000180 85 52 c8 3b b4 5d 61 bd f5 71 2b bd 85 aa ca bc
       0.0061133527 -0.055021003 -0.041856725 -0.024739513
000190 69 b5 90 3d 6d a8 89 bd c8 e8 48 bd c0 85 0f 3c
       0.07065851 -0.06721578 -0.049050122 0.008759916
0001a0 cf 5c 0d 3d 6e f9 70 3c b0 f3 bd bd 06 eb fa 3a
       0.034512337 0.014707906 -0.09274995 0.0019143529
0001b0 fc e8 9c bd 71 c2 1b 3d 63 42 e9 bd 4c f1 99 bc
       -0.07661626 0.03802723 -0.113896154 -0.018791817
0001c0 ab 5a 50 3c 94 7e 8c 3d 6d a1 37 bd df 1a 7d bd
       0.012716929 0.0686008 -0.044831682 -0.061793204
0001d0 bd 7e ee bc 02 a8 7f bd 68 dc 85 bc 71 bb ec bc
       -0.029113168 -0.062416084 -0.01634045 -0.028897973
0001e0 02 f8 27 bd b9 f0 26 3d dc 7f b7 3a de 0c ac 3d
       -0.041008003 0.040756915 0.0013999897 0.08400892
0001f0 82 dd af bc 26 54 b2 bc 9c 3f c9 3c 52 e9 21 bd
       -0.021467928 -0.02176864 0.024566464 -0.039529152
000200 b3 7b 95 3d 2f d7 0c 3d 19 1f 88 3d 92 2e 68 bc
       0.072989844 0.034384903 0.066465564 -0.0141712595
000210 35 7a 5f bd eb d2 57 bd cf c5 94 bc 70 1e 82 3d
       -0.054559905 -0.05269138 -0.018160729 0.06353462
000220 63 b7 8b 3d ab 7e d3 3c 4a a0 61 3d 2d 26 99 3b
       0.068220876 0.025817236 0.055084504 0.0046737404
000230 be f0 90 3c bd a4 cc bd a6 f7 03 3d d3 69 62 bd
       0.01769292 -0.09992359 0.032218598 -0.055276703
000240 24 d3 51 bb e1 de f3 3c e1 fe 29 bd 07 ad 70 3d
       -0.0032016719 0.029769363 -0.041502837 0.05875876
000250 f0 17 9c 3d da b6 85 3c c6 97 b8 bd fd f6 b9 3d
       0.07621753 0.016322542 -0.090133235 0.090803124
000260 7e 1e 97 3c 0f 43 12 bd c0 34 d1 3a ca 03 e7 3b
       0.018447157 -0.035708483 0.0015961155 0.0070500122
000270 3a e6 92 3d e6 4f 85 3c 9c 6b b6 bc f4 18 e6 3c
       0.071728185 0.01627345 -0.022268109 0.02808807
000280 9a 84 0a bc 76 30 df bc 11 7a f1 bc b6 fa 48 bd
       -0.008454466 -0.027244788 -0.029477151 -0.04906722
000290 a6 a4 f8 bd 57 09 2e bc e2 18 11 be 61 f8 9f bd
       -0.12140779 -0.010622344 -0.14169648 -0.078110464
0002a0 4a e8 0b bd 84 bb 10 3d 1b 4f 05 3e 8f 0b c1 3c
       -0.034157075 0.03533508 0.13018458 0.023565082
0002b0 d4 48 8a bd bd 1d 65 bd ee 81 de bb fd 20 ae bc
       -0.06752172 -0.055936564 -0.006790391 -0.021255964
0002c0 12 71 c3 bc cb 03 29 3c 63 b2 f1 ba f0 16 e7 3c
       -0.023857627 0.010315846 -0.0018440004 0.02820918
0002d0 05 59 e4 3b ba 04 88 3d b9 ce 57 bd cf 0d 0d 3c
       0.00696862 0.066415265 -0.05268738 0.008609249
0002e0 75 55 70 3c 3e 05 0a bd e3 92 a7 3b 5c b2 0f 3d
       0.014668812 -0.033696406 0.005113946 0.035082206
0002f0 9e 4b 58 bc ad 5a ce 3b ca b6 04 bd 50 bb 05 3d
       -0.013201622 0.0062974305 -0.032400884 0.03264934
000300 af 53 6a 3d 2c ac be 39 df a4 22 3c ec c0 e4 3c
       0.057208713 0.00036367902 0.009927004 0.027924024
000310 90 4b 29 bd 7b a6 13 bd 63 4f 26 3d 10 00 41 3d
       -0.041331828 -0.03604744 0.040603053 0.0471192
000320 78 9d d8 bb 87 77 20 3d 3b a6 d9 bd e5 f6 8f bc
       -0.0066105686 0.03917649 -0.10627409 -0.017573783
000330 6b 0a 0b 3d 1b ed 75 bc 4b 2b e1 3c 4e 0f 97 3a
       0.033945482 -0.015010144 0.027486464 0.0011524947
000340 70 1a 14 3d c8 c4 ab 3c b0 b4 f8 bc c7 c6 ce bc
       0.036158025 0.020967856 -0.030359596 -0.025241269
000350 1a 6a 22 bc 6b be 10 bc d5 55 b1 3c 91 e9 b2 bc
       -0.009912992 -0.008834462 0.021647373 -0.021839889
000360 6b d8 ba 3d 20 28 d1 3c bf 67 ba 3c 40 46 ae bd
       0.0912331 0.025531828 0.022754548 -0.08509493
000370 d1 25 29 bd 0f fd 8b 3d 1e b7 3e 3c d5 8c 3b 3d
       -0.04129583 0.068353765 0.011640338 0.045788605
000380 98 70 c4 3d a8 83 48 3d 9e b1 cb bc c1 04 86 3c
       0.09591788 0.048953682 -0.024864968 0.016359689
000390 48 54 98 3c 02 ee 42 bd dc 25 7d 3b 23 2c 5d 3d
       0.018594876 -0.047590263 0.0038627302 0.05399717
0003a0 86 c6 90 3d c5 88 8e 3c a5 6d 91 3c 75 d3 60 bd
       0.07069115 0.017399201 0.017752478 -0.05488916
0003b0 ff c8 8e 3b 40 1c 04 3d 02 d5 10 3e 70 a8 91 bd
       0.0043574567 0.032253504 0.14143756 -0.07112205
0003c0 2b fa 19 3d 47 d3 6b 3b 90 71 bc 3c 6e e8 fb bc
       0.037592094 0.0035984085 0.02300337 -0.03075048
0003d0 42 32 46 3a fc a2 c4 3c 07 e2 e7 bc e6 e3 de bc
       0.00075605896 0.024003498 -0.02830602 -0.02720828
0003e0 54 9f b9 3d 2f 7a 19 bd 8b b4 34 3d 7b 3b 17 3d
       0.090635926 -0.03747004 0.04411749 0.03692196
0003f0 dc 6c 62 39 d5 e7 26 3d 98 9e a9 3d c9 e8 4b 3d
       0.00021593593 0.040748436 0.082822025 0.049782548

layers1d.0.bias f4 [128]
000000 a8 32 57 bd 72 97 d4 bc 79 ef 08 bd 61 25 0a bd
       -0.052538544 -0.025951121 -0.033431504 -0.033727054
000010 81 4f 8a bc a6 fc 01 bc f0 37 1c bd f0 14 66 bc
       -0.016883614 -0.007933771 -0.038139284 -0.014043078
000020 f3 55 48 bd 96 aa 64 bd 94 ee f0 bc d4 4b 8b bc
       -0.048910093 -0.055826746 -0.029410638 -0.017003931
000030 07 30 29 bd 22 d9 07 bd 01 69 44 bd ad 93 1b bd
       -0.041305568 -0.03316606 -0.047951702 -0.03798263
000040 f0 b7 8d bc ff 1b 33 bc 85 56 d5 bc 92 13 12 bd
       -0.017299622 -0.010931968 -0.026042232 -0.035663195
000050 5f 7a 66 bd d5 39 0f bd 17 14 e2 bc 8c b9 03 bd
       -0.056269046 -0.034967262 -0.02759747 -0.032159373
000060 db e4 89 bc 20 ce 9b bc 2c 4b 37 bd 4d ac 0e bd
       -0.01683276 -0.019019186 -0.044749424 -0.034832288
000070 d4 c4 12 3c 22 07 bc bc 00 62 a2 bc e2 23 40 bd
       0.00895806 -0.02295262 -0.01982212 -0.04690922
000080 bd 39 2d bd 13 24 83 bc 62 dc 92 bc 32 38 fc bc
       -0.04229139 -0.016008412 -0.017927352 -0.030788515
000090 c5 72 da 3b ef 28 ff ba 08 ca 6d bd 52 3c cf 39
       0.0066665136 -0.0019467155 -0.058054 0.0003952706
0000a0 d1 39 05 bd 7b b7 a4 bc eb 8a 89 bc 5f 2b 0d bd
       -0.03252584 -0.020107022 -0.016789874 -0.03446519
0000b0 44 86 fb bc 06 a5 27 bd 09 ed d9 bc a5 6e 66 bc
       -0.030703671 -0.040928863 -0.026602285 -0.014064466
0000c0 04 34 96 3b d8 32 86 bd 5a 21 09 bd 3a 9e 8c bc
       0.0045838375 -0.065526664 -0.033479072 -0.017165292
0000d0 9a d9 53 bd 46 68 19 bd 92 4c df bc 5b ab 24 bd
       -0.051721193 -0.03745296 -0.027258191 -0.04020248
0000e0 26 79 23 bd 41 c3 61 bd 45 b4 ef bc 2a 8a 0c bc
       -0.039910458 -0.05511785 -0.029260764 -0.008577863
0000f0 94 a5 73 bd f7 45 bf bc 52 c8 a9 bc fb 0d 31 bd
       -0.05948408 -0.023348792 -0.020725403 -0.043226223
000100 e2 75 30 bd 95 9d 34 bd 77 9f 0a bd 08 74 26 bd
       -0.04308117 -0.044095594 -0.033843484 -0.040638
000110 a3 77 30 bd 0a e8 15 bd 67 c7 1a bd 9e d3 48 bd
       -0.043082844 -0.036598243 -0.03778782 -0.04902994
000120 84 82 67 3b 6c c6 39 bd 72 df 0d bd 44 f8 b9 bb
       0.0035325596 -0.045355245 -0.034636922 -0.0056753475
000130 2b 3d 62 bd 4e f6 f3 bb 4d 29 68 bc a0 98 43 bc
       -0.055234116 -0.0074451333 -0.014170003 -0.011938244
000140 6a 57 84 bd 6c 4c 17 bb 13 a6 94 bd a6 cb f2 ba
       -0.064619854 -0.0023086322 -0.07258239 -0.0018523827
000150 62 ba 3d bd 6c 92 fc bc 98 0c 30 bc fb 3f 7c bd
       -0.046320327 -0.030831538 -0.01074519 -0.061584454
000160 f7 72 2a bd 06 90 1d bd 6d 03 7d bb 68 cf 11 bc
       -0.041613545 -0.03846743 -0.0038606778 -0.008899547
000170 ce 46 20 bd 88 e0 52 bd dc 96 9c 3b 16 c1 f7 bc
       -0.039130025 -0.05148366 0.004778726 -0.030243438
000180 57 91 dd bc ef bf 30 bd 8f 68 70 bd 6a 88 9d bc
       -0.027046843 -0.043151792 -0.058693465 -0.019230086
000190 c2 9b 1a bd d6 29 df bc 01 97 de bc 60 0f 05 bd
       -0.0377462 -0.027241629 -0.027171614 -0.032485366
0001a0 3e e1 75 bd 47 1c 23 bd f4 3e 27 bd db 7a de bc
       -0.06002926 -0.03982189 -0.04083152 -0.027158191
0001b0 c8 5c a1 bc 03 4b e8 bb 84 ce f0 bc 1a d6 27 bd
       -0.019697562 -0.00708902 -0.02939535 -0.040975668
0001c0 2b 13 8a bd 33 68 48 bd 39 14 dc bc 96 35 29 bd
       -0.06741937 -0.048927497 -0.026865112 -0.04131087
0001d0 51 3a e8 bc 67 5c a4 bc 1e ee d9 bc 1e 10 41 bd
       -0.02834812 -0.020063592 -0.026602801 -0.04713451
0001e0 ec e8 74 bd c2 a2 1a bd 5b 3b 72 bd 93 f8 49 bd
       -0.059792444 -0.037752874 -0.059138637 -0.049309324
0001f0 f4 27 36 bc 13 3b e4 bc a0 4b 36 bd 30 2f f7 bb
       -0.011117924 -0.0278602 -0.044505715 -0.007543467

layers1d.3.weight f4 [128, 128]
000000 ac 26 07 bd fb 91 3a 3c 86 d6 10 3d 04 9c 8b 3b
       -0.032995865 0.0113873435 0.035360835 0.004260542
000010 ba 1f 3b 3d 2e 75 d1 bd 4e db de bd 87 a6 ba 3d
       0.045684554 -0.102274284 -0.10881673 0.09113794
000020 7b 5b ca bc 10 19 17 bc af 2e 54 3d 81 da 30 3e
       -0.024701824 -0.009222284 0.051802333 0.17270853
000030 6b 30 25 bc 52 3f 9f bc e6 0a 0b 3d ff 6f 2b 3b
       -0.0100823445 -0.019439373 0.03394594 0.0026159284
000040 09 ce 6b bd f4 d6 c5 bd e6 17 f5 3d e3 89 ee bd
       -0.057569537 -0.0966014 0.11967449 -0.116473936
000050 3b 83 8b 3d 16 1a b6 3d 17 d9 b4 3d c0 22 82 bc
       0.068121396 0.08891694 0.08830469 -0.01588571
000060 ff fb 4b 3d 0c b4 30 3d 20 fb b6 3d 2c c8 0e be
       0.04980087 0.043140456 0.08934617 -0.13943547
000070 89 8a 24 bd a3 05 16 3d f6 3e 66 bc ba 1c f9 bc
       -0.04017118 0.03662647 -0.014053097 -0.030409206
000080 ad 26 8e bc 98 7c bd bc 10 ad a5 3d 3c 60 d1 3b
       -0.017352426 -0.0231307 0.0808965 0.006389646
000090 65 06 4f 3c ef 16 27 bd a7 1f 17 3c 47 d4 c0 bd
       0.012635802 -0.040793356 0.009223855 -0.09415489
0000a0 05 cf fb bc 5a 7b 23 3e c2 78 27 3e df 11 55 bd
       -0.030738363 0.15965024 0.16354659 -0.052018996
0000b0 e5 1c fe 3d e9 e2 f4 bc 3e ff d0 bd aa ce a3 bd
       0.12407855 -0.029893355 -0.102049336 -0.079984024
0000c0 be 63 37 3d 0e d1 dc 3d dd eb 11 bd 0e 4c b0 bd
       0.044772856 0.107820615 -0.035625327 -0.08608256
0000d0 e2 d3 b5 3d c1 79 2f 3e fb e3 02 be 59 96 4f bc
       0.08878304 0.17136289 -0.1278228 -0.012670123
0000e0 19 fd 11 bd c8 65 2f 3e a7 bb e7 3d 45 15 98 bd
       -0.035641763 0.1712867 0.11315089 -0.07425932
0000f0 df 5a a7 bd c3 22 a4 3c 49 a0 f2 bc 26 e9 b6 3d
       -0.08171629 0.020036107 -0.029617446 0.08931188
000100 92 64 b4 3d e5 4a 89 3d 4d 42 f0 3d b3 b6 49 bd
       0.08808245 0.06703738 0.11731396 -0.0492465
000110 34 f8 ed bd 2f 54 0c 3e ec c5 86 bd 91 b5 a2 3d
       -0.116196066 0.13703988 -0.06580719 0.07944787
000120 17 7b e9 bc 06 9a 53 3d 31 ef 39 3d 8a 5d 3d 3d
       -0.028501077 0.05166056 0.045394126 0.046231784
000130 95 3b 1c be d0 7d 00 3e 43 02 82 bb 74 fc 42 bd
       -0.15257104 0.12547994 -0.003967555 -0.04760404
000140 3b 94 a7 3d 62 ee 75 bd 2b cb 47 3d f9 e3 d9 bd
       0.081825696 -0.060041793 0.04877774 -0.106391855
000150 cd 73 26 3c 87 ef 82 bc 71 dd 38 3e 97 f8 de bc
       0.010159445 -0.015983356 0.18053223 -0.027218146
000160 03 7c cb 3b f5 4a c8 bc 25 24 4c bd a8 74 06 be
       0.0062098517 -0.024449805 -0.049839158 -0.13130438
000170 a8 1b 0c 3d 6b 5b 03 bd 37 b6 83 bd 19 6e f6 bc
       0.034206063 -0.032069605 -0.06431239 -0.030081796
000180 f3 36 9c bc ec 10 ec 3d 9b 0d 24 3e 52 cc 83 3d
       -0.01906917 0.11526665 0.16020815 0.064354554
000190 7d 97 14 be af 8b 8b 3d b3 e8 20 bd 29 46 37 bd
       -0.14510913 0.06813752 -0.03928442 -0.044744644
0001a0 d2 91 3a 3d f4 43 45 3d 58 27 30 3e c3 1d c9 bd
       0.04554922 0.04816051 0.17202508 -0.0982013
0001b0 31 c0 ba bd 5b ff e4 3d 9f fc 9c bd 4c 32 19 be
       -0.09118689 0.11181518 -0.07665371 -0.14960593
0001c0 02 47 b4 bd dd f0 10 bc e2 f3 19 3e e6 56 70 3d
       -0.08802606 -0.008846489 0.1503444 0.058676623
0001d0 9f 99 5b 3d df 86 01 3e 8c c6 04 bd 60 fa 8a 3b
       0.0536133 0.12649105 -0.03241591 0.004241273
0001e0 1d cc 05 bd 65 c1 4f 3d 8e da de bc 5c b2 46 bd
       -0.03266536 0.050721545 -0.027203824 -0.04850994
0001f0 0a 5b d2 3c 1a 81 71 bd 4d ea 1f bd 4b 30 17 be
       0.025678176 -0.05896101 -0.039041806 -0.14764516
000200 d9 8b 06 be 3a e8 13 bc 1b 22 21 3d 0d 86 45 bc
       -0.13139285 -0.009027535 0.039339166 -0.012055886
000210 9f 29 d1 bc a8 ed 03 be ac 3a a7 3d 64 72 58 3d
       -0.025532542 -0.12883627 0.08165488 0.052843466
000220 e2 76 f0 3c f9 8e 1f bd 4e 2d 27 bc 1e af d0 3d
       0.029353563 -0.03895471 -0.010203673 0.10189651
000230 16 03 73 3c 3c 4b c5 bc 26 fd 41 3c 88 40 11 bc
       0.014832279 -0.024083726 0.01184014 -0.008865483
000240 f7 f3 fb bd ae 42 30 bd b4 b6 87 3d 1a e1 94 bd
       -0.12302392 -0.04303234 0.06626645 -0.07269497
000250 b2 8e cb 3d e0 54 a8 3d af b7 7f ba d2 98 ba bd
       0.09939326 0.082193136 -0.0009754849 -0.091111794
000260 db 39 85 3d 9d b9 6a 3d ba 19 80 bd 71 f7 1d 3d
       0.06505176 0.05730592 -0.06254907 0.038566057
000270 7b 52 57 bd 72 2f 80 3d 0c c4 85 3d 93 09 05 3d
       -0.052568894 0.062590495 0.065315336 0.032479834
000280 ff 59 1a be 6a 25 90 bd d8 84 22 3d b4 ad 90 3d
       -0.15073393 -0.07038386 0.03967747 0.07064381
000290 9b 00 da bd 49 95 64 bd 67 04 a7 bd 24 62 a8 bd
       -0.10644647 -0.055806432 -0.081551366 -0.08221844
0002a0 d9 e0 bf bd 22 f0 48 ba 80 12 1b 3e ba 1c db 3b
       -0.09369058 -0.0007665177 0.15143776 0.006686774
0002b0 46 76 fb 3d 52 b5 02 be 27 c6 1c be 27 e9 a3 3c
       0.12278418 -0.1276448 -0.15309964 0.020008637
0002c0 6b 56 13 be e9 4b 0c 3e 93 1e e8 3c b9 0c a6 bb
       -0.14388435 0.13700832 0.028334891 -0.0050674346
0002d0 d0 83 95 3d 34 48 10 3d c3 64 cf bd 9a 5d 9f 3c
       0.07300532 0.03522511 -0.10126641 0.019453812
0002e0 b0 e0 34 3c 06 b1 33 3e 4f 97 25 3d b2 da 82 3d
       0.011039898 0.17547998 0.040427502 0.06389369
0002f0 a4 f3 a2 bd 17 44 93 3d c8 1f 7a 3d 6c a4 f9 3d
       -0.07956627 0.071907215 0.061065465 0.12189564
000300 87 bb 5b 3d 1d 23 a1 3d 29 77 8e bc b4 b6 77 3d
       0.053645637 0.078680255 -0.017390804 0.060476974
000310 5e 34 bd bd c6 d9 5d 3d 4d 32 07 be 8b 78 bd 3d
       -0.09238504 0.054162763 -0.13202782 0.09251507
000320 49 25 b3 bd 1a 74 b2 3d 78 a1 d1 3c c3 44 31 3e
       -0.08747346 0.08713551 0.02558969 0.17311387
000330 60 74 ac bc 09 fd ba 3d 82 ba d3 3d e5 6f 2d 3d
       -0.021051586 0.09130294 0.10338308 0.04234304
000340 38 06 d1 3d d1 a8 2f be b7 2a eb 3d fe b1 12 be
       0.10206264 -0.17154242 0.114827566 -0.14325711
000350 c7 81 a9 3d 5a 72 02 bd fc ac c4 3d 2e 0d 26 3d
       0.08276706 -0.031847335 0.09603307 0.040539913
000360 a6 be 9d bd 5f 80 8f bd 73 bd 90 3d 0a 01 39 bd
       -0.07702379 -0.07006907 0.070673846 -0.045167007
000370 3d ea 43 3d 16 3b 84 3d b1 d9 30 be c3 3f 8a bd
       0.04783081 0.06456582 -0.17270543 -0.06750443
000380 bb f2 b6 3d 51 7a 05 3e 50 3e 4d 3d 19 d2 04 be
       0.08933016 0.13034941 0.050108254 -0.12970771
000390 36 6f 9e bd d2 14 ad 3c 22 b1 96 bc d1 19 c0 bd
       -0.077360556 0.021128092 -0.01839501 -0.09379924
0003a0 8e fb e4 bc 3a 88 47 3d 2d c5 99 b9 c7 d9 88 bd
       -0.027951982 0.0487139 -0.00029329341 -0.06682163
0003b0 7a 50 be bd b3 cc 7f 3d 8f 9f ca bd 33 23 2a be
       -0.092926934 0.062451076 -0.09893715 -0.1661499
0003c0 ea c8 0b 3d 3c 7c 01 3e 31 c5 e4 3d 13 3f 22 bd
       0.034127153 0.12645048 0.11170424 -0.039610934
0003d0 8a 0a 1e 3e 7c b3 16 3d 75 0d a3 bd 74 e9 09 bc
       0.15433708 0.036792263 -0.07961551 -0.008417476
0003e0 0f 26 73 bd 63 32 35 3d 15 9c 47 bd 8c a8 cf 3d
       -0.059362467 0.044237506 -0.048732836 0.1013957
0003f0 9b 0d 38 3b bb d0 3d be a8 a1 7c bd 7d a7 93 bd
       0.0028084281 -0.18536656 -0.061677605 -0.0720968

layers1d.3.bias f4 [128]
000000 64 d2 7c ba 1f 26 b8 bb 47 0f 67 bc 20 cc f6 3c
       -0.0009644388 -0.0056197788 -0.0141027635 0.030126631
000010 c0 a1 8c bc 0c e5 f2 bc 03 7f 60 bc df 1c 6c 3b
       -0.017166972 -0.029650234 -0.013702157 0.003602795
000020 8c 3d 6e 3c 81 d0 b6 3c 4f 74 d1 bc ca 0b e8 bc
       0.014541041 0.02231622 -0.025568156 -0.028325934
000030 37 87 07 3b ca a4 63 bc 82 83 33 bd 00 29 38 bd
       0.002067996 -0.013894269 -0.043826587 -0.044960976
000040 76 4d 51 3c ba 7c b9 ba 39 cd 00 bd 80 4e 02 bd
       0.012774816 -0.0014151551 -0.031445716 -0.031813145
000050 a7 06 50 bc 57 de fc bd 10 8b 5b bd 4c f0 fc bb
       -0.012696899 -0.123470955 -0.053599417 -0.0077190753
000060 08 8f 11 bc 20 03 b5 bc 4b 1e 84 bc fd 4b 65 3c
       -0.008884199 -0.022096217 -0.016127726 0.013995168
000070 9c 2b 99 bc 2f bc 62 bb 74 5b 28 bd 73 31 ae 3b
       -0.018697552 -0.003459703 -0.04110284 0.0053159534
000080 ed 23 c6 bc 95 09 b5 bc aa 8e 76 3c 3e 93 35 bd
       -0.024187053 -0.022099296 0.015048662 -0.044329874
000090 79 d6 81 bc 47 a6 8f 3c 7e f0 33 3c b2 65 44 bd
       -0.015849339 0.017535342 0.010982631 -0.047948547
0000a0 d9 4e d8 bc 24 2b 80 bc 5a fb 98 bc 06 f5 49 bc
       -0.026404785 -0.015645571 -0.018674541 -0.012326485
0000b0 85 45 08 bd 87 d6 ad bc e9 01 f2 bc 91 e9 1d bc
       -0.033269424 -0.021220459 -0.029541926 -0.009638206
0000c0 14 48 a8 bc c2 2a 36 bc 11 53 de bb 59 60 08 bc
       -0.020542182 -0.011118593 -0.0067848046 -0.008323752
0000d0 c2 e8 35 3c d6 36 36 3c 99 48 33 3c 30 2d 02 bc
       0.011102857 0.011121472 0.010942602 -0.007945344
0000e0 04 b7 1a 3b eb be 16 bd f9 a9 d1 3b 6d 97 5f bc
       0.002360762 -0.036803167 0.006398436 -0.013646943
0000f0 2c c4 d3 39 d6 cf 64 bc 07 cd 90 bd 23 06 fa bc
       0.00040391216 -0.013965568 -0.07070356 -0.030520504
000100 7b 5a 0d 3c 36 83 04 bd 82 eb 05 bd 28 97 f9 bc
       0.008627529 -0.032351695 -0.0326953 -0.030467585
000110 0d e9 c9 bc ae 24 35 3c 35 a6 33 3c d6 88 ef bc
       -0.02464726 0.011056108 0.01096492 -0.029240053
000120 16 0c bf 3b 36 4f 1f bd ce de 6b 3b 5e d9 68 bd
       0.005830298 -0.0388939 0.0035990956 -0.056847923
000130 b3 a8 90 bc 22 9f 21 3c f0 bf 36 bd 88 f6 4a bd
       -0.017658567 0.0098646 -0.04461664 -0.049551517
000140 70 75 20 bd 34 1f f3 3b f2 01 b8 b9 88 6d a7 bc
       -0.039174497 0.007419491 -0.00035096664 -0.02043797
000150 4b ee c4 bc 73 23 7a bd 28 12 d0 3c ae e6 ae bc
       -0.024039408 -0.061068963 0.025399283 -0.021350231
000160 98 15 5e bc 3a c1 20 3c 0c a6 17 bc 0c 5a d9 3c
       -0.013554953 0.009811694 -0.009255897 0.026532196
000170 e4 f8 3b bd 2c a2 1d bd c2 23 87 3b 05 77 a1 3c
       -0.045891657 -0.038484737 0.0041241357 0.019710073
000180 0a 2e ff bc f7 22 5f 3c 1b da c6 3c fc 9a 82 b9
       -0.031149883 0.013619176 0.024273923 -0.00024911005
000190 ac ae bd bb 6d e6 b0 bc d4 f5 8b 3c 41 96 32 bd
       -0.005788645 -0.02159425 0.017084993 -0.043600325
0001a0 8e cf 64 bc 97 ea 90 bc f7 fb 10 3b c2 0d b8 3c
       -0.0139655005 -0.017689986 0.002212284 0.022467498
0001b0 b1 f9 3d 3b 66 d2 0a bd a0 2f 9a bc f1 96 ac 3b
       0.002898794 -0.033892058 -0.018821537 0.005267017
0001c0 49 b9 cc bc 65 67 2b bc f6 a5 06 bd 83 73 a0 bc
       -0.024990695 -0.010461663 -0.032873116 -0.01958633
0001d0 ab 7b 8e 3c 38 35 09 bb 03 14 03 bd 59 86 45 bd
       0.017392954 -0.0020936262 -0.032001507 -0.048223827
0001e0 8f 65 1e bd 33 d6 8e bc ee 2a 8d bb 1c 90 c9 bc
       -0.038671073 -0.017436123 -0.004308096 -0.02460485
0001f0 31 c9 c6 bc d4 f2 45 bc ce d9 84 bd 9f 02 dd bc
       -0.024265857 -0.0120818205 -0.064868554 -0.026978789

combined.0.weight f4 [64, 128]
000000 8e 04 95 bd c2 17 a6 3c a0 5e be 3c 8b 1e b0 bd
       -0.07276259 0.020275 0.02323848 -0.085995756
000010 12 43 39 3d 52 15 c8 3c 86 1a 9d 3d cd ad b0 3d
       0.04522998 0.024424229 0.076710746 0.086269
000020 4f c3 7b 3d 66 d2 83 3d c7 fd ad bd 70 69 c0 bb
       0.061465558 0.06436615 -0.0849567 -0.005871944
000030 34 22 a6 bd a0 63 eb 3c 1a c1 d9 3d 8a 20 ca bc
       -0.081119925 0.028734028 0.10632534 -0.024673719
000040 66 72 37 bd 30 07 fb ba 77 e0 c1 3d fa 93 82 3b
       -0.044786833 -0.0019151922 0.094666414 0.0039849253
000050 07 63 0f 3a cf 0f eb bc ae 6c 65 3c 7a a2 f8 3b
       0.00054697733 -0.028694062 0.014002962 0.007587728
000060 a0 fb b2 bd 8c 1c 26 3d 7e e2 2c 3d a5 76 53 bd
       -0.087394 0.04055457 0.042208187 -0.05162682
000070 98 45 05 bd 54 b0 43 bd d7 31 ae bc 2f c6 37 bd
       -0.032537073 -0.04777558 -0.021264 -0.044866737
000080 f0 89 ba 3d af 83 af 3d f2 b6 c3 bc a2 09 77 3d
       0.09108341 0.085700385 -0.023890946 0.06031192
000090 2c 77 2c 3d ed 2e dd bd 8f 11 7b bc 5e 37 be 3c
       0.04210584 -0.10799966 -0.0153240105 0.02321976
0000a0 75 f7 ae b9 67 0f d3 3d 02 ef 87 bd 3a ed a4 bd
       -0.00033372236 0.10305672 -0.06637384 -0.0805306
0000b0 ef 34 0f bd 0e 57 a9 bd 3e 05 8b 3d da 32 8e bd
       -0.03496259 -0.082685575 0.06788109 -0.06943293
0000c0 a4 b0 86 3d 92 6e 40 bd c3 be 34 bb f2 8f 49 bd
       0.0657666 -0.046980448 -0.0027579523 -0.049209543
0000d0 ad 14 87 bd dc 75 01 bd a5 68 9e 3d 8a da 16 3b
       -0.065957405 -0.03160654 0.07734803 0.0023018443
0000e0 be 46 b4 bd 30 4d a3 3c 05 af 2c bc 18 64 b3 3c
       -0.088025555 0.019934267 -0.010539775 0.021898314
0000f0 40 be 32 3d 53 ff ad 3d 2d b8 78 3d d1 11 d3 3d
       0.043638468 0.08495965 0.06072252 0.103061326
000100 c3 83 85 3b 8a 4d b1 bd 7f bc 06 3e 61 2b f6 bb
       0.004074545 -0.086573675 0.13157843 -0.0075124954
000110 ea b2 4e bc 6e 92 3e 3d 5d 54 83 bc 17 53 bc 3d
       -0.012615899 0.046526365 -0.016031438 0.09195536
000120 95 fe f3 bd b9 58 71 bd c3 72 95 bc 82 90 0a bd
       -0.11913792 -0.058922503 -0.0182432 -0.03382922
000130 a0 02 0f 3d 14 61 e7 bb 16 3a a2 3d 42 94 63 3d
       0.034914613 -0.007061133 0.07921235 0.05556131
000140 02 01 55 3a f2 df de 3d 36 57 8c bb b9 f2 58 3d
       0.00081254554 0.10882558 -0.0042828573 0.052965853
000150 8b d6 15 3e 6f 28 88 3d 77 e3 b4 bd c4 ec ec bc
       0.14632623 0.06648337 -0.08832448 -0.028921492
000160 c4 b8 71 bb c4 22 3f bd 1a c6 bc 3d 75 3b 0f 3d
       -0.003688381 -0.046664014 0.092174724 0.034968812
000170 f4 2e c4 3d 88 d3 14 3e 51 b7 6b 3d d1 05 c1 bd
       0.09579268 0.14533818 0.05754787 -0.094249375
000180 4a eb 7e 3d c6 d7 d1 bc 2f 72 d0 3d 71 b1 83 3d
       0.062236108 -0.025615584 0.10178029 0.06430329
000190 a7 73 7a bd 77 b1 c2 bd 37 29 ed bc 0c e4 aa 3d
       -0.06114545 -0.09506505 -0.028950317 0.08344278
0001a0 99 ea dc bc ab 31 1d 3d 49 e0 91 3d e3 c7 77 bd
       -0.026967334 0.038377445 0.07122857 -0.06049336
0001b0 80 f5 dc bd 75 c1 92 3d 2f 48 3a bd a2 46 a3 3d
       -0.10789013 0.07165805 -0.045478996 0.079724565
0001c0 54 1d 1c 3d d2 0f da 3d f6 e5 c1 3c 67 76 2e 3c
       0.038113907 0.10647549 0.023669224 0.0106483465
0001d0 45 98 d4 bc b5 da 7d 3d 02 99 8e bd ac dd f6 3c
       -0.025951514 0.061976153 -0.06962778 0.030134998
0001e0 bc 6e a5 3d 2a 1e 21 bd 66 22 37 3d c9 ac b4 bd
       0.080777615 -0.039335407 0.04471054 -0.08822019
0001f0 3c 76 cf 3c fc f9 dd 3d 29 0c 70 3d e5 b4 25 be
       0.025324933 0.10838696 0.058605347 -0.16182287
000200 1e fd 1f 3d 0a 76 9c 3d 24 fa 3d 3c 09 12 cc bd
       0.03905975 0.07639702 0.011595283 -0.099643774
000210 a2 4b 0b 3e 6e 3a 0c 3d 64 1d 2a 3c 93 4d 9d 3c
       0.1360307 0.03423541 0.010382984 0.01920203
000220 dc 9d 40 bd ff bf 61 be ec 02 2b bc a0 ca b5 bd
       -0.047025546 -0.22045897 -0.010437708 -0.08876538
000230 a4 0f a8 bd 37 c1 5b bc 64 b5 b1 3d 96 08 54 3d
       -0.08206108 -0.013412765 0.08677176 0.051766
000240 b4 81 96 3c bd a8 68 bd 40 97 c9 3d 56 d7 76 3c
       0.018372394 -0.056801546 0.09843302 0.0150659885
000250 64 02 60 bc 7c 1d 4b 3c 3d 5d 19 3e a5 af bd 3d
       -0.013672445 0.012397166 0.14976974 0.09262017
000260 d0 35 2f be f4 86 d4 3d 8c 18 d2 bc ea 13 01 3d
       -0.17110372 0.10377303 -0.02564647 0.031513132
000270 56 96 6f bd a0 24 e5 3c 6f e9 b9 3d 67 25 8d bd
       -0.05849298 0.027971566 0.09077727 -0.068918996
000280 c7 88 5f 3d 01 4e ec 3c 8b 41 e7 bc d7 cb 15 3e
       0.0545738 0.028845789 -0.028229496 0.1462854
000290 4f bb 81 3d cb 48 93 bd b1 7c 51 bc 1c 1a 25 3d
       0.063345544 -0.071916185 -0.012786076 0.040308103
0002a0 57 29 4e 3d 72 e1 e7 bb 71 2b 05 3d 0c c6 e2 bd
       0.050332393 -0.0070764357 0.032512132 -0.11072931
0002b0 ee 9d 3f 3c 59 12 86 bd 15 2a 03 3e e8 0d d0 bd
       0.011695368 -0.06546468 0.12809022 -0.101589024
0002c0 66 54 a3 3d b2 15 08 3e dd 70 02 be f9 f6 0e bd
       0.07975082 0.13289526 -0.12738366 -0.0349035
0002d0 5b ec e7 bd 7b eb 99 3c 9c b9 c4 3d ec 8b 3f 3c
       -0.11324378 0.018789044 0.09605715 0.011691075
0002e0 aa a4 bf bd 82 11 98 3c 08 c2 98 3d b5 d0 28 bd
       -0.09357579 0.018563036 0.074588835 -0.041214664
0002f0 d6 6f e7 bd 62 36 2d 3d 89 2e 06 3d 09 ec 5a bb
       -0.11300628 0.04228819 0.032759223 -0.0033404848
000300 4c 06 f6 3d dd 08 2d 3d 2a 50 12 3d e9 5f 15 bd
       0.1201292 0.04224478 0.03572098 -0.03646842
000310 20 43 e1 3d 92 c7 37 bd 63 2e de bc 8c 20 aa bd
       0.10999131 -0.04486806 -0.027121728 -0.08306989
000320 9c 6f 37 3d 99 40 67 3d 50 0d ad 3d 25 7c cf 3c
       0.044784173 0.05645809 0.08449805 0.025327751
000330 da f8 31 bd 3a 60 4b be 9a 46 12 bd 6d ad 47 bb
       -0.043450214 -0.19860926 -0.035711862 -0.003046836
000340 04 b1 95 3d f7 11 80 b9 11 9d 87 bd 9b 3d 85 3d
       0.07309154 -0.00024427447 -0.06621755 0.06505891
000350 ef ae dc 3c c8 69 c6 3d 0e 29 47 bd 63 09 5d 3d
       0.026938884 0.09688145 -0.048623137 0.05396403
000360 48 ea 1f bc 68 de 69 be 44 88 4c 3d 7f 21 93 bd
       -0.009760447 -0.22838748 0.04993464 -0.07184123
000370 7d 1a 95 bd a6 d9 68 3d 6a cb 1c bd b8 3b cb bd
       -0.07280443 0.05684819 -0.03827993 -0.099235
000380 a1 e9 08 3d e5 5f 6e bc b7 27 fa 3d 1b be 5b 3d
       0.03342593 -0.01454923 0.12214606 0.053648096
000390 7f b2 59 bc 14 38 da 3c 55 1c aa bc eb 73 90 bd
       -0.013287186 0.026638068 -0.020765463 -0.070533596
0003a0 1a 66 e8 bb fc b2 92 bc d9 66 00 be cb e8 a9 bc
       -0.0070922496 -0.017907612 -0.12539233 -0.020740887
0003b0 58 cc 5e bd 00 35 8d 3d 2b 0a bb 3d 19 3d 87 3c
       -0.054394096 0.068948746 0.09132799 0.016508626
0003c0 fe 6b bf bc bf 20 bc bd 05 6f dc 3d c1 f9 85 3d
       -0.023366924 -0.09185933 0.10763363 0.065417774
0003d0 a9 75 52 3d b9 91 42 bd a7 a9 92 bd c6 39 d1 3d
       0.05138174 -0.047502253 -0.07161265 0.102160975
0003e0 d0 64 95 bc 31 4e 27 3b 15 32 85 3d c6 50 3f bd
       -0.018236548 0.0025528783 0.06503693 -0.04670789
0003f0 40 76 e9 3c a7 46 5a 3d ea 6f dd 3d 82 dd f6 3c
       0.028498769 0.053290036 0.108123615 0.03013492

combined.0.bias f4 [64]
000000 4d 0b 01 3d 71 5c 17 bc 5c 8c 4a 3b b4 d1 66 3c
       0.031504918 -0.009238348 0.0030906415 0.014088083
000010 75 c9 58 3d 16 99 b3 3d a1 ac ac bc 00 60 3e 3c
       0.0529265 0.08769433 -0.02107841 0.011619568
000020 82 8d 2f bc 40 2a df 3c a6 7d 36 3c ba 24 51 3d
       -0.01071489 0.027241826 0.011138355 0.051060416
000030 2c 3d de ba 2c 52 4c bc 80 62 b2 3c b8 c4 cb 3c
       -0.0016955486 -0.012470763 0.021775484 0.024874076
000040 b1 b5 ec ba 21 1d a9 bc 38 d7 8f 3d 43 68 c8 3d
       -0.0018059519 -0.020643773 0.070234716 0.09785511
000050 38 96 af 3c ec a9 7e 3b 42 ef b0 3d 16 ef 92 3c
       0.021433935 0.0038858606 0.08639385 0.01793627
000060 99 ca a9 3d 6a 42 07 3d 96 d9 7b 3b 7b a8 d4 b9
       0.082905956 0.03302232 0.0038429252 -0.0004056132
000070 d5 67 93 3b 4d 87 1a 3b 14 c3 ad 3c 4f 23 c3 3c
       0.0044984617 0.002357918 0.021211185 0.023820547
000080 44 95 99 3b eb 78 bc 3b 7c 64 50 3c 98 95 3c 3d
       0.0046869833 0.005751719 0.01271927 0.0460411
000090 44 58 08 3d 72 b8 1d bc ce 18 02 3b 13 29 8d ba
       0.0332873 -0.009626495 0.001985121 -0.0010769687
0000a0 dc 47 af 3c 42 4f f7 3a 97 80 e1 bb 9b e9 15 3d
       0.02139657 0.0018868225 -0.006881784 0.036599737
0000b0 54 4b d1 3d 92 56 96 3c f4 eb d8 bc 90 17 be 3d
       0.10219446 0.018351827 -0.026479699 0.09281838
0000c0 f9 68 e5 3c d6 8c 12 3d 08 74 f2 bc a0 a5 c5 3d
       0.028004156 0.035778843 -0.029596344 0.09650731
0000d0 b2 73 f9 3c 06 02 04 3d f8 90 ab 3d 4b 78 4c 3d
       0.030450676 0.032228492 0.0837726 0.049919408
0000e0 7f dc 10 3b 8d 16 b5 3d 51 2b 63 3c c3 3d 82 3d
       0.0022104082 0.08842192 0.013865308 0.06359436
0000f0 42 e5 af 3c 25 e9 3f bc 81 59 c4 3d 59 c6 b4 3c
       0.021471623 -0.011713301 0.09587384 0.022067236

combined.3.weight f4 [64, 64]
000000 a0 34 87 bd ce 2a 8b bd ee 37 45 bd af cc 46 3d
       -0.06601834 -0.06795274 -0.04814904 0.048535045
000010 da 97 f1 bd 33 51 da 3c d7 a7 22 3e e5 8a 7c bd
       -0.117965415 0.026650047 0.15884338 -0.061655898
000020 e7 a0 b0 bc 02 de 5d bd fe dc 3a bd 92 42 25 bd
       -0.0215611 -0.0541668 -0.04562091 -0.04034669
000030 61 f8 23 be 1d 81 1c be 52 16 df bd 6a 96 b7 bd
       -0.16012718 -0.15283628 -0.10892929 -0.08964236
000040 a2 72 9e bd ac 5d 93 bc 9d df 79 3d cd 74 b9 3d
       -0.07736708 -0.017989002 0.06100427 0.09055481
000050 16 ba 65 be 22 e8 4d be 35 8e 67 bd 95 e5 e2 bd
       -0.22434267 -0.20108083 -0.056532104 -0.110789455
000060 4b 74 fb bd 75 1e ab bd e3 20 6a bd cf 18 20 be
       -0.122780405 -0.083554186 -0.05716027 -0.15634464
000070 00 ce 68 be 70 7a ba bd 2a e8 07 be 0c 1a fc bc
       -0.22734833 -0.09105384 -0.13272157 -0.030774139
000080 92 e5 06 3b 31 0e c7 3d 34 69 20 be a9 ca b6 3d
       0.0020583612 0.09719504 -0.15665132 0.08925373
000090 c3 8d cb bd 24 33 85 3d 7e 11 32 be db 93 57 bc
       -0.09939148 0.06503895 -0.17389485 -0.01315781
0000a0 bd 4e 98 bd 8d e9 13 be 60 fc fa bd 43 86 44 bd
       -0.07436893 -0.14444561 -0.12255168 -0.047979604
0000b0 3b 3d f3 3d e2 b0 61 be 0f e9 e4 3d fa 5c b3 3a
       0.11876913 -0.22040132 0.11177265 0.0013684325
0000c0 f6 42 ff bd 12 c9 b1 bd 08 56 83 3d 46 8f 8e 3d
       -0.12463944 -0.08680929 0.064128935 0.06960921
0000d0 4b c3 f5 bd 82 43 da bd 22 98 1b 3e 56 d0 0d be
       -0.1200014 -0.10657407 0.15194753 -0.13849005
0000e0 e1 08 93 3d 46 28 e7 3d 3d 92 ce bd f1 d1 ba bd
       0.07179428 0.112869784 -0.100864865 -0.091220744
0000f0 6b fe b2 bd 0f 8e 17 3e c7 9d 7e bd fa 4f 52 be
       -0.087399326 0.14800285 -0.062162187 -0.20538321
000100 59 12 db bd 72 fa 62 bd d3 fe 02 3e fe 16 cb 3d
       -0.10696859 -0.055414625 0.1279252 0.09916495
000110 0a 51 0a be 25 c9 60 bc a6 3b 7d 3c e9 f3 93 3d
       -0.13507476 -0.013719832 0.015456116 0.072242565
000120 1a 0d d7 bd 33 4c 81 bd 26 11 63 bd 4a 30 06 be
       -0.10500546 -0.06313362 -0.055436276 -0.13104358
000130 c8 61 a0 bd 51 a9 85 bd 2c 55 60 be b5 cf 09 be
       -0.0783115 -0.06526435 -0.2190749 -0.1345814
000140 44 1f 4f be 11 55 2c bd ce 3b ec bc 6c 03 dc 3c
       -0.2022677 -0.042073313 -0.02883711 0.0268571
000150 3b 03 42 bd b9 fc d2 bd 8e 4f 88 bd 3c e8 0d be
       -0.047366362 -0.10302109 -0.06655799 -0.13858122
000160 1a 6f 53 3c 67 18 2c bd 86 b8 3f bc b3 5f 2f be
       0.012904907 -0.04201546 -0.011701709 -0.1712635
000170 96 5c 42 be a4 69 6b 3d 07 fc ff bc 87 38 b9 3d
       -0.18980631 0.057473794 -0.031248106 0.09043985
000180 20 58 58 bd e6 59 ee 3d 92 b4 9c bd 26 7f 70 bd
       -0.052818418 0.116382405 -0.076516286 -0.05871501
000190 c3 65 68 be fb ed a8 3d 96 f6 ec bd f6 9f 07 3e
       -0.22695069 0.08248516 -0.1157047 0.13244614
0001a0 8d 16 bc bc 59 e6 17 be 38 54 13 bd 95 ef 14 be
       -0.022959972 -0.14833964 -0.03596899 -0.14544518
0001b0 20 de e4 bd b3 d3 6a be 01 55 90 bd eb 32 cf bc
       -0.111751795 -0.2293232 -0.07047463 -0.025292834
0001c0 1e 96 4e be ae 48 ab 3d de 97 92 bc d6 3f d8 3c
       -0.20174453 0.08363472 -0.017894682 0.026397627
0001d0 99 b4 ce bd ac b6 c3 bd 02 14 11 bd 84 81 04 bd
       -0.1009304 -0.09556326 -0.03541947 -0.03235008
0001e0 f9 69 d9 3d 63 dc 97 3c d6 58 66 be 6f 88 c4 3c
       0.10615916 0.018537706 -0.22494826 0.023990838
0001f0 5a d9 43 be 92 ed 3a 3d b8 66 62 3d e3 69 1b bc
       -0.19125882 0.04563672 0.05527374 -0.009485695
000200 e8 c2 e4 bd 8d 62 4a bd ba fe 51 bd 16 69 cf 3d
       -0.11169988 -0.04941039 -0.051268317 0.101274654
000210 9a 27 39 be 18 f1 aa bc c2 40 27 bd 0d 0c 6d 3c
       -0.18081513 -0.020866916 -0.040833242 0.014468205
000220 e2 14 e2 3b 0f ee f1 bd ec 09 18 be 75 c2 67 be
       0.006899462 -0.11812984 -0.14847535 -0.22632773
000230 6f 65 9c bd 41 a0 05 be 72 56 77 be 2c b0 98 be
       -0.076365344 -0.13049413 -0.2415407 -0.29821908
000240 39 67 26 be f0 13 99 bd 41 63 f2 bb e6 8b 0a bd
       -0.16250314 -0.07474506 -0.007397086 -0.033824824
000250 35 a2 2d bd e2 a7 69 be eb 86 87 3b 31 be f4 bd
       -0.04239102 -0.22817948 0.0041359565 -0.11950339
000260 c8 11 ae bc 0c a8 d3 bd 19 c2 9b 3d 6f 10 63 be
       -0.021248713 -0.10334787 0.076053806 -0.22174238
000270 18 d2 5f be eb 1d 87 3d ec e4 34 be d3 52 90 3d
       -0.21857488 0.06597503 -0.17665452 0.070470475
000280 71 ea 39 be 9e 53 ab 3d 14 ea 82 be a4 9b 88 bb
       -0.18155839 0.08365558 -0.25569212 -0.0041689444
000290 50 4f fc bd b5 d1 ee 3d 3a 5c 53 bd 6e 93 48 bd
       -0.12319815 0.11661092 -0.051601626 -0.048968725
0002a0 5d 9c 9e be da 04 90 be 08 9f e0 bd 87 4b 28 be
       -0.3097867 -0.281287 -0.10967833 -0.16435061
0002b0 4e 4f 58 3b a8 61 90 be 10 31 3c bd e6 78 e4 bb
       0.0033006254 -0.28199506 -0.045945227 -0.00697242
0002c0 81 4b 87 be c5 f9 53 3d d1 f3 06 3e 88 47 84 3b
       -0.26424792 0.05175187 0.13178946 0.0040368475
0002d0 8f 34 22 be 41 38 25 be bd 57 bb bd 5a 32 81 be
       -0.15840362 -0.1613474 -0.09147594 -0.25233728
0002e0 c7 21 b6 3d 80 b8 bf bc e0 6f ef bd 09 6e 8a bc
       0.08893161 -0.023403406 -0.1169126 -0.016898172
0002f0 bc 06 82 be 74 4e cb bd d4 e9 65 bc 75 54 c3 bd
       -0.25395763 -0.09927073 -0.0140328 -0.09537593
000300 3c 9b 89 3d a7 20 16 bd c1 c7 06 be 75 cd 9c be
       0.06719062 -0.036652233 -0.13162138 -0.306255
000310 3d 5a b9 3d 23 ab 30 be ec 3c 06 bb 06 6f e5 bd
       0.09050415 -0.17252783 -0.002048309 -0.11202817
000320 35 70 2b bc ab ee d9 3c 9a 7c 35 3d 93 f9 50 bd
       -0.010463764 0.026603064 0.044308282 -0.051019263
000330 42 f6 9f bd 54 7d e2 bc 36 37 5d 3d a4 3f d1 3d
       -0.07810642 -0.027647652 0.05400773 0.102172166
000340 39 57 d3 3d 12 bd 01 3e 8e 98 2f be ac 03 0f be
       0.10319371 0.12669781 -0.17148039 -0.13966244
000350 8a e0 04 3e 96 04 5c bd 36 1f 5f be 17 12 8d 3d
       0.1297628 -0.05371531 -0.2178925 0.06888216
000360 45 05 17 be 3b d1 cb 3d 2b 6a 87 be a3 c5 bf 3d
       -0.14748104 0.09952017 -0.26448187 0.09363868
000370 99 5d 13 3c f4 34 8f be b1 e2 4d 3a 36 a9 6a be
       0.008994483 -0.27970088 0.0007853909 -0.22916111
000380 5f 20 35 3c 10 d6 e5 bd 4c 43 87 3c e4 5d 83 be
       0.011055081 -0.1122247 0.016511582 -0.2565757
000390 00 85 10 bd c9 de 12 bd 2f 88 0b bd 73 4f f6 bd
       -0.03528309 -0.035856996 -0.03406542 -0.120268725
0003a0 fb 62 85 3c 3e 4a cd 3c 2d d5 20 3e 06 1a 92 3d
       0.01628255 0.025059815 0.1570632 0.0713387
0003b0 56 2c e2 bd 3c f7 81 bc 0e 68 29 3e e9 c2 10 be
       -0.11043613 -0.01586496 0.165436 -0.14136852
0003c0 15 1c 0b 3d 2d 89 65 be eb 7b 60 3c 49 91 a9 bd
       0.033962328 -0.2241561 0.013701419 -0.08279664
0003d0 57 92 ab 3d e8 e9 5e bd 2f 06 65 be 75 e0 23 3d
       0.083775215 -0.05442229 -0.2236564 0.04000898
0003e0 28 21 b7 bd 55 15 df bd 86 a4 01 3d 0d c6 ef bd
       -0.08941871 -0.10892741 0.031651042 -0.11707697
0003f0 48 fd b0 3d 11 55 38 be a5 c5 82 be 4c a9 97 3d
       0.086420596 -0.180012 -0.25541416 0.07405338

combined.3.bias f4 [64]
000000 21 f4 92 3d 71 22 0c 3e 8d 6d f6 3d 4b 97 ec 3d
       0.0717547 0.13685013 0.12032614 0.11552294
000010 82 99 13 3e a9 f8 6e 3d 0b 9a a5 3d c3 96 c1 3d
       0.14414027 0.05834261 0.08086022 0.09452584
000020 61 68 0b 3e 6d 2b e9 3d 09 f9 04 3e ad 21 2f 3e
       0.13614036 0.11385236 0.12985624 0.1710269
000030 d5 c6 b4 3d ff d8 90 3d 7b e3 24 3e ea a4 8c 3d
       0.08826987 0.07072639 0.16102402 0.06867392
000040 8f e2 c9 3d 00 bf 0d 3e bc 6f e6 3d 16 75 af 3d
       0.09857666 0.13842392 0.112517804 0.08567254
000050 20 5c ac 3d 3c 99 f1 3d 4b e2 f9 3d 3f c5 f3 3d
       0.08416009 0.11796805 0.12201365 0.11902856
000060 b5 f1 f8 3d 50 32 ed 3d 7e 65 9d 3d c0 46 1a 3e
       0.12155477 0.11581862 0.07685374 0.15066051
000070 ee bb cf 3d f0 ac 03 3e 19 f5 26 3e 7f 56 bb 3d
       0.101432666 0.12858939 0.16304435 0.09147357
000080 78 ef 62 3d 00 22 be 3d 94 d2 fe 3d ea 02 04 3e
       0.055404156 0.09283829 0.12442508 0.12891737
000090 da bb 0e 3e ae 6c 17 3e aa bf 91 3d 2a 49 27 3e
       0.13938847 0.14787552 0.07116635 0.16336504
0000a0 b5 d2 06 3e a1 4b 99 3d e5 0a 15 3e 6c 58 f1 3d
       0.13166316 0.07485128 0.14554937 0.11784443
0000b0 55 b7 0e 3e 5a 74 e1 3d 97 b8 88 3d eb d9 ea 3d
       0.13937123 0.110085204 0.06675833 0.11467346
0000c0 94 90 d7 3d ec 33 b5 3d 3d 41 05 3e 97 0d 02 3e
       0.10525623 0.08847794 0.13013168 0.12700497
0000d0 b9 49 07 3e 02 99 b5 3d 3d 2b e8 3d e3 1f 8e 3d
       0.13211717 0.088670745 0.11336372 0.06939676
0000e0 3e 32 03 3e cf b7 eb 3d e1 62 f0 3d 7a 4b fb 3d
       0.12812135 0.11509668 0.1173761 0.122702554
0000f0 e7 75 ae 3d b1 c6 08 3e 59 9d a4 3d 8c 2a ea 3d
       0.08518582 0.13357045 0.08037824 0.114338964

combined.6.weight f4 [1, 64]
000000 cc 8c ca bd 56 fb bb bd ee 31 07 be b1 ca cb 3c
       -0.09890136 -0.09178798 -0.1320264 0.024876924
000010 1b 85 59 bd 2e e9 8f bd d0 16 9a 3c d6 d5 dc bd
       -0.053105455 -0.07026897 0.018809706 -0.107829735
000020 ec 7f 6a 3d af 1d 1f 3d 9c 06 92 bd fd 77 4c bd
       0.057250902 0.038846668 -0.07130167 -0.049919117
000030 82 e5 b2 3c f4 29 e0 3c 84 49 59 bd f0 31 48 3d
       0.021837953 0.027363755 -0.053048626 0.04887575
000040 d2 1c 1a 3d dc 47 4f bd 7c 75 5c 3d ba 86 78 bd
       0.03762514 -0.05060564 0.05382298 -0.06067536
000050 7f 1c 46 3d fa 4a 56 3d 28 48 92 bd dc e5 2e 3d
       0.04836702 0.052317597 -0.07142669 0.04269968
000060 98 23 c4 bd fc a1 73 3d 36 0e 05 be aa 6e 5a bd
       -0.095771015 0.059480652 -0.12993702 -0.053328194
000070 61 b8 4c 3d 34 99 1f 3d ac cf 56 bd c2 13 ff 3c
       0.049980525 0.038964465 -0.052444145 0.031137351
000080 57 ef 9b bd f5 8a c5 bd 93 f3 6e 3d a0 0c 29 bd
       -0.0761401 -0.096456446 0.05833776 -0.041271806
000090 0f e1 77 bd 9a ca 91 bd 5b c5 d8 3c 12 a4 7e bd
       -0.060517367 -0.07118721 0.026461294 -0.06216819
0000a0 d2 98 11 3d c8 7f c9 3c ac 4e 29 3d 0d ea 2c 3d
       0.03554613 0.024597064 0.041334793 0.042215396
0000b0 76 8d 9a bd 77 f9 0f 3d 02 96 c5 bd 34 b6 ef bd
       -0.07546513 0.035150018 -0.09647752 -0.11704674
0000c0 e8 d8 81 bd 05 c0 2a 3d 11 ef eb 3c bd cd 8c 3d
       -0.063402 0.04168703 0.02880052 0.06875179
0000d0 d4 f4 04 3d ca 84 cc bd 6b 3d 0e bd a2 a6 3b 3d
       0.03246005 -0.09986265 -0.03472654 0.04581321
0000e0 61 d0 af bd 5a ad d2 bd 48 e2 9a bd ac 66 8f bd
       -0.08584667 -0.102869704 -0.07562691 -0.07002005
0000f0 bc 09 74 3d 96 e3 99 bd 81 63 28 3d 13 5f b7 bd
       0.059579596 -0.07514112 0.04111052 -0.08953681
