data/models/nov12_24_undersample/fold0_epoch_models/epoch_10_model.pt (torch, 775579 bytes, 9 tensors)

layers1d.0.weight f4 [128, 1280]
00000000: 6a18 dabd ff53 73bd c92d ab3d f243 843c
00000010: 0e01 5c3c ed66 87bd 60ba 693c c644 77bc
00000020: 542a abbb 29d4 333d aca4 c73a 348f 23bd
00000030: c9d7 bbbd 40cb 53bd e7ef 81bd 01f7 6f3c
00000040: cea2 7b3c cbd8 af3d 9850 563c 0c1f afb9
00000050: 3c19 523d c56d 883d 6029 fabc 01b9 96bc
00000060: dd49 77bb d066 05bd 494a 843d 9aac c7bc
00000070: 237f 7abd c1d7 cf3c 11e3 8d3d d4e7 eb3b
00000080: 1bbb 1bbc 8cd4 33bd 0765 71bc f73f 713d
00000090: 2cc9 a6bd 1d63 bb3c b392 0a3d 0184 113e
000000a0: eec1 b6bc 2b47 1fbc 44b6 753d 002f c03d
000000b0: 9376 e63c fa62 413c 968f 463c 704f 003c
000000c0: 694b 013c eabe e9bc 6632 ddbd 3a98 9d3c
000000d0: ca79 64bc 5fc4 52bd 5ae9 45bd 8550 51bc
000000e0: 732e 87bd 73a2 683d 102a 7cbd 0f25 d43d
000000f0: cee1 2a3b 70b1 91bd 9ce8 febd 824b 133c
00000100: f956 4bbd 4ad0 c73d 9d50 f23b 508b acbd
00000110: d899 113b ddb4 f33c 04c1 a1bd 7136 c33a
00000120: ca86 843d 8d84 f03d 8bc3 c2bc 9dd4 9a3d
00000130: 1601 8c3c f769 bcbc d37e 41bd 2e79 3dbd
00000140: 3738 6dbd d345 793d 5a7d 0f3d b5d1 9ebd
00000150: e0a8 b93c 48c1 f3bc a95b a83d 72ac 8ebd
00000160: aa05 39bd b96d 09bc f84c 373c 0e14 20bd
00000170: c786 a33c 7052 81bc 3308 c13b f1a4 5e3c
00000180: 0f14 963c da80 6fbd d973 d2bc 0865 96bc
00000190: 2fbb af3d 1348 8ebd 0208 43bd c3cd 8b3b
000001a0: 7b46 da3c 4079 18bb 12bd dabd 15eb 653b
000001b0: 6072 b8bd 4c9b 173d 4700 0cbe 03a4 d4bb
000001c0: 8194 76bb c218 a03d c7e2 7ebd 980c 63bd
000001d0: d647 d6bc f3fd 28bd aa95 13bc d8f4 37bd
000001e0: 03df 2bbd 4ffd 583d 9428 653b 4b87 af3d
000001f0: cef1 f3bc b354 f5bc 9447 a53c f852 7dbd
00000200: 8e65 a03d 5c6d 3d3d b56d 8a3d e38f 03bc
00000210: 1622 44bd f25c 88bd 60bd 02bd 2de0 673d
00000220: 537e a23d caa0 a03c 5ee6 4b3d 2d14 cfbb
00000230: 7d5a 1f3b 2580 e7bd 4786 2d3d a756 74bd
00000240: d548 73bc a086 a83c 5a65 13bd cb0e 813d
00000250: 8073 a63d 54b8 74b8 6cf4 c4bd 499b af3d
00000260: 7800 433b e62a c7bc 840e 8ebb 4e4b 1e3c
00000270: 046d 823d 9313 0c3d 3c79 bebc 5737 4c3c
00000280: 8e65 0c3c 3552 e0bc 59f1 20bd 2d1e 43bd
00000290: d2b0 03be 6f64 babb 92a8 0bbe 94f9 91bd
000002a0: b745 39bd ec44 573d 8681 0d3e d52e 193d
000002b0: 23b7 91bd d691 71bd 8403 343b 662d 4dbc
000002c0: 9f47 5cbc 3588 d93a 1eda 96bb f410 273d
000002d0: cb64 7b3c 976b 893d 946d 92bd 125c 5d3c
000002e0: 81ea 1d3c 940f 27bd a3c9 5c3c a40a 2e3d
000002f0: 3d96 abbc 3394 753c 1a31 42bd 542a 063d
00000300: 047e 5c3d a072 cd3b e2ae 5a3a defe cb3c
00000310: bbde 04bd df33 19bd 21af fe3c 835a 443d
00000320: e0b9 98bc a6ef 303d eab7 cfbd 2154 43bc
00000330: 30f8 153d 57e1 dabc ba15 c53c db8b 733c
00000340: 6451 493d ec28 8c3c 530d debc e134 dbbc
00000350: b42e aebc beea 13bd 4eac e23c 6a42 5ebc
00000360: e10a c13d f0f0 113d f9cb 6a3b 8913 d8bd
00000370: f1b2 84bd 2f6c 533d de0c 183d 1c9c 123d
00000380: fd27 c13d 99d1 6e3d 4072 09bd 64a4 683c
00000390: 41a9 393c 660e 08bd 1074 443b dfb5 323d
000003a0: 9eb0 853d 7915 db3c 0972 823c 6b50 8cbd
000003b0: 2699 293c 231a ed3c a2cb 0d3e 0e06 a6bd
000003c0: 05a5 cb3c 7f5d 5d3b e902 d73c 2133 cfbc
000003d0: e54a 6c3c 79d9 de3c 6bff 03bd 7518 20bd
000003e0: 5ea1 a33d 1116 efbc f971 773d 81c6 0f3d
000003f0: 46ba 66bb 1810 143d 3510 c63d 38d5 c63c
-0.10649188 -0.059406277 0.08358342 0.01614568 0.013427986 -0.066114284 0.014265627 -0.01509208
-0.0052235518 0.043903504 0.0015231571 -0.03993149 -0.09172017 -0.051707506 -0.06344586 0.014646293
0.01535864 0.08586272 0.0130807385 -0.00033401733 0.051293597 0.06661562 -0.030537307 -0.018398764
-0.0037733235 -0.032568753 0.06459481 -0.024374295 -0.061156403 0.025371434 0.06928075 0.007199267
-0.009505059 -0.043903872 -0.014733559 0.058898892 -0.08143839 0.02287441 0.03383131 0.14210512
-0.02230927 -0.009721558 0.059988275 0.093839645 0.028132712 0.011803383 0.0121191945 0.007831439
0.007891514 -0.028533418 -0.10800628 0.019237626 -0.013945052 -0.051456805 -0.048318245 -0.012775545
-0.06600656 0.05679555 -0.06156355 0.10358631 0.0026074531 -0.07113922 -0.124467105 0.00899017
-0.04964349 0.09756525 0.0073948638 -0.08425009 0.0022216942 0.029749328 -0.07898143 0.0014893544
0.064710215 0.11744032 -0.023774883 0.07560084 0.017090362 -0.022999747 -0.04724009 -0.046258144
-0.05791494 0.060857605 0.035031654 -0.07754842 0.022663534 -0.02975525 0.08220608 -0.06966485
-0.045171417 -0.008387976 0.011187784 -0.039081626 0.019961728 -0.01578638 0.00589087 0.01358913
0.018320112 -0.05847249 -0.025690006 -0.018358722 0.08580624 -0.06947341 -0.04761506 0.004266472
0.026644936 -0.002326563 -0.106805936 0.0035082747 -0.0900619 0.037013337 -0.13671981 -0.0064892783
-0.0037625136 0.07817222 -0.06222799 -0.055431932 -0.0261573 -0.04125781 -0.009007851 -0.044911236
-0.041960727 0.05297595 0.0034966813 0.08570727 -0.029778387 -0.029947614 0.020175733 -0.061846703
0.0783187 0.04624687 0.06759206 -0.008029911 -0.04788407 -0.06658353 -0.031918883 0.056610275
0.07934251 0.01960792 0.049780242 -0.006319544 0.002431541 -0.113037385 0.042364385 -0.05965295
-0.0148489075 0.020572007 -0.03598533 0.0630165 0.081274986 -5.8345802e-05 -0.09616932 0.0857454
0.0029754918 -0.024312448 -0.0043352265 0.009661509 0.06368449 0.034198355 -0.023251168 0.012464366
0.008569134 -0.02738295 -0.039292667 -0.0476362 -0.1286042 -0.005688242 -0.13638523 -0.071276814
-0.0452325 0.052555963 0.1381894 0.037398178 -0.07115009 -0.05897697 0.0027467916 -0.012523031
-0.01344481 0.0016596379 -0.0046036383 0.040787652 0.015343855 0.06709974 -0.071498066 0.013510721
0.00963843 -0.04078634 0.013475808 0.042490616 -0.020945663 0.014988947 -0.04741011 0.03275521
0.053831115 0.006269768 0.00083420996 0.024901804 -0.032438975 -0.037402984 0.031089367 0.04793788
-0.01864332 0.043197297 -0.10142501 -0.011921913 0.036613643 -0.026718779 0.024058212 0.014864887
0.049149886 0.017109357 -0.027105963 -0.026758613 -0.021262504 -0.03611254 0.027670052 -0.013565639
0.09425903 0.035630167 0.0035827144 -0.10550601 -0.06479443 0.051616844 0.037121646 0.03579341
0.09431455 0.058305357 -0.033556223 0.01419935 0.011331857 -0.033216856 0.0029976405 0.043630477
0.06527828 0.026743637 0.015923517 -0.06851276 0.010351455 0.028943127 0.13847211 -0.081066236
0.02485896 0.0033777652 0.026246505 -0.025292935 0.014422153 0.027203308 -0.032226007 -0.039085824
0.07989763 -0.029185327 0.060411427 0.035101417 -0.0035206242 0.03614816 0.0967106 0.024271592

layers1d.0.bias f4 [128]
00000000: c03c 67bd 154f febc e8d7 06bd eeb8 09bd
00000010: 814f 8abc 5ea0 40bc ce7e 30bd ef67 89bc
00000020: 8399 4fbd da6f 60bd 1f7e 05bd 0cfd 94bc
00000030: b173 32bd 1560 14bd 8833 72bd 9607 17bd
00000040: df35 9cbc 940b 5fbc f793 c0bc dfed 0fbd
00000050: 4aa8 5dbd a086 18bd dfbe f5bc bb15 0fbd
00000060: dbe4 89bc e8d3 a3bc 2c4b 37bd 586f e3bc
00000070: a7e5 903c 844e a8bc bf20 b8bc 6525 46bd
00000080: 9cc5 32bd 14fe 85bc e6ea e6bc d90a 07bd
00000090: d918 5d3b afd1 89bb 74f3 73bd 6a29 77bb
000000a0: 049f 1ebd cd39 c0bc 645c 80bc 4cc5 06bd
000000b0: ea01 0dbd c417 38bd e51f c3bc 105d 9cbc
000000c0: 9756 163b bc2a 8ebd af91 0cbd 2717 8fbc
000000d0: 9e28 53bd cd43 29bd 4e96 eabc 6023 26bd
000000e0: 7eeb 26bd 1d69 67bd 7177 0cbd 26cd 21bc
000000f0: 8713 76bd ded2 e4bc daf1 dcbc a6f3 50bd
00000100: 6057 53bd 84b7 47bd 2c33 28bd f4bc 36bd
00000110: 1c87 39bd 85fc 17bd 2499 1ebd ecb5 4dbd
00000120: 3e49 3538 c3e8 61bd ad37 1abd f4a5 eebb
00000130: 635f 66bd b20f 0fbc f90d 72bc 8d0b 8bbc
00000140: 49fb 95bd f3f5 64bb 7d89 94bd 77c3 9dbb
00000150: 7d49 3dbd 5596 0ebd 370c 74bc 3e8f 7bbd
00000160: e8f6 30bd 87ef 20bd 6d03 7dbb 9e98 63bc
00000170: 496c 2bbd 07a1 4bbd 8fdd 4a3c db79 f4bc
00000180: e3eb d2bc 9919 44bd e8d7 7dbd 2e32 abbc
00000190: fa37 19bd 2f54 0abd ffc2 fbbc fee9 dabc
000001a0: 58fb 7ebd 6be9 2abd d092 3cbd 4ecb e2bc
000001b0: 0ca1 89bc 59a9 28bc 87e8 0bbd 70e7 37bd
000001c0: 3e71 8fbd 7132 59bd 09c8 dcbc 7340 3abd
000001d0: 37b7 f8bc e370 bbbc c0e5 eabc 8043 63bd
000001e0: c099 6abd 35ad 25bd 09cc 72bd 7619 58bd
000001f0: c0d3 84bc 1e14 d5bc 4f96 3bbd 28e7 8bbc
-0.05645442 -0.031043569 -0.032920748 -0.03362363 -0.016883614 -0.0117569845 -0.04308968 -0.016773192
-0.05068351 -0.05479417 -0.03259098 -0.018187068 -0.043567363 -0.036224443 -0.059131175 -0.03687247
-0.019068656 -0.0136136 -0.023508055 -0.03513896 -0.05411557 -0.037237763 -0.029998241 -0.034932833
-0.01683276 -0.019998506 -0.044749424 -0.027763054 0.017687632 -0.020545252 -0.022476552 -0.048375506
-0.043645486 -0.016356505 -0.02818818 -0.03296933 0.0033736734 -0.0042059044 -0.059558347 -0.0037713894
-0.038725868 -0.023465062 -0.015669055 -0.032903 -0.034425654 -0.04494454 -0.02381892 -0.019087344
0.0022939795 -0.06941745 -0.034318622 -0.017467095 -0.051552407 -0.041324425 -0.028636124 -0.04056108
-0.040751927 -0.05649673 -0.034293596 -0.009875571 -0.060077216 -0.02793258 -0.026970793 -0.05101361
-0.051597 -0.048759 -0.041064426 -0.044613793 -0.045294866 -0.037106056 -0.038720265 -0.050222322
4.3221975e-05 -0.05515362 -0.037650753 -0.0072829667 -0.05624331 -0.008731769 -0.014773839 -0.016973281
-0.073233195 -0.0034936636 -0.07252786 -0.004814561 -0.046212662 -0.034811337 -0.01489549 -0.061415903
-0.04320422 -0.03929093 -0.0038606778 -0.013891367 -0.041851316 -0.049714115 0.012381925 -0.029843261
-0.025747245 -0.047875974 -0.061973482 -0.020897951 -0.0374069 -0.03377169 -0.03073263 -0.026722904
-0.06225142 -0.04172651 -0.04603845 -0.027684834 -0.016800426 -0.010294282 -0.034157302 -0.04489845
-0.07004021 -0.05302662 -0.026950853 -0.04547162 -0.030360801 -0.022880977 -0.028674006 -0.055484295
-0.057275534 -0.040448386 -0.059276614 -0.052758656 -0.016214252 -0.02601057 -0.045797642 -0.017077997

layers1d.3.weight f4 [128, 128]
00000000: 4c3a 04bd d6cd b13c 49d3 513c 0823 9ebb
00000010: ba1f 3b3d d709 fabd d4f5 cbbd 7c80 a03d
00000020: 345c 823c ba19 2bbd 33c6 413d 31dd 343e
00000030: f612 2c3c b0c0 75bc 0f02 2d3d 0984 813c
00000040: c3fa a3bd 6e28 e1bd 3087 053e 57c1 cabd
00000050: 958c a33d a64d ae3d 9ef8 bb3d c0b8 9abc
00000060: fffb 4b3d f63e 893d 20fb b63d 2daf 16be
00000070: a941 4bbd 0cd6 d53c d646 14bb 3aa4 16bd
00000080: 2606 3abc 2819 b3bc aefd 973d 2fcf 113d
00000090: 77ee b33c 50fb 0cbd 74bf ce3c 98a3 f2bd
000000a0: ef65 34bd 0769 193e 5a14 153e 57d9 01bd
000000b0: 1d62 0d3e 1e6b b8bc 7563 acbd 11b9 aebd
000000c0: 6066 523d 33bd d03d 0766 7ebc fdfe 89bd
000000d0: 555d 9b3d b5a4 3f3e 0a1b d7bd 7287 57bc
000000e0: 936d 0abd 45ae 473e 5d31 e33d 27e1 cabd
000000f0: 20e7 aabd a021 c73c bd61 99bc 3cfd f93d
00000100: d729 b23d 3ffd b93d 2122 f53d f356 75bd
00000110: dc1a 11be a88c 003e f44f 3dbd 82c8 bf3d
00000120: 8a28 e3bc 4062 2d3d 520f 133d 6b82 653d
00000130: c17c ffbd 0f93 073e 180b 8dbc ca4a 40bd
00000140: a88c 893d 725b 6fbd 38ad 7a3d db3a e3bd
00000150: 9e44 ad3c 1f14 36bc 1466 3d3e fe3f abbc
00000160: 7004 90b9 41cc 25bd 2524 4cbd 7d00 f9bd
00000170: 28b0 a83c a85f 59bd f6a5 7dbd 4eee 52bc
00000180: 4440 afbc 4b25 fb3d 6a7b 383e b859 883d
00000190: ebdf 17be e2c7 8c3d b76d 67bd c106 64bd
000001a0: 0b05 163d a7de 6b3d 7d3e 243e 56ec aebd
000001b0: 75ff bdbd 43a7 de3d cd24 89bd 29f0 2bbe
000001c0: 11d6 7dbd e9f6 c6bb bdc0 253e e2a2 903d
000001d0: e54e 413d 9068 f93d 6195 6ebd 337c 4d3c
000001e0: e234 31bd 5eae 803d 39b7 05bd f62d 37bd
000001f0: a5c2 8e3c 0d8b 85bd 2d31 46bd 94bd 16be
00000200: f662 05be 404e 2a3c 9729 4c3d 69c9 8bbc
00000210: 9f29 d1bc a507 f7bd 3288 a13d 8365 083d
00000220: c16f 843c 4506 fcbc 748b ecbc b4cd c53d
00000230: 14a5 aa3c 9994 42bb e9cd 5ebc dc61 e5ba
00000240: 2ac8 01be e53e 7cbd 0774 8c3d 8696 8cbd
00000250: d177 b63d f705 c83d 7cfb 383c 94e7 d2bd
00000260: db39 853d f396 803d ba19 80bd 2591 2b3d
00000270: c241 7cbd 8e37 663d 4311 a03d 96fd 083d
00000280: cea7 2bbe feb0 9abd ade6 d63c 5ee3 b03d
00000290: 39dd f4bd e233 8fbd 14ec bbbd 6e02 95bd
000002a0: 8f43 cbbd eb8f 8dbb e5ab 243e 5728 703c
000002b0: fd22 f33d b248 f1bd 5794 16be 8717 033d
000002c0: 69f6 15be 2fe2 043e 0441 353c a7c0 013b
000002d0: 1b30 ae3d 6c1f 753d 73b5 babd acc4 d13c
000002e0: 5867 a339 e7d8 3e3e 220e 0e3d a905 493d
000002f0: ba03 8ebd 7615 a53d 98c6 893d 7d10 103e
00000300: 4fea 603d 6949 d13d 22a7 30bc 10f8 5a3d
00000310: cff8 b4bd 9ed8 a43d f368 f2bd 750e af3d
00000320: c93b b3bd e61e b13d 0499 c53c dfa9 313e
00000330: 4fb3 44bc 3e1e af3d 4c28 e73d bac3 4b3d
00000340: d805 d73d fb5b 29be 83fb f13d 9c61 28be
00000350: a551 9a3d 5e54 cebc c757 e63d 7e84 033d
00000360: 1a76 a1bd 3a16 9dbd 73bd 903d 2e4b 2fbd
00000370: d2ca 7d3d e17a 8a3d 5b8c 29be f05e 6ebd
00000380: fa69 bb3d 379d 083e b88a 983d a9de febd
00000390: ac5c 9ebd 32ce 2a3d 6006 dbbc 9e31 82bd
000003a0: 0b7a eabc 68ff 163d a901 aa3c 1e92 73bd
000003b0: 3a41 a8bd 48e0 913d 45d8 d8bd c6ed 33be
000003c0: 8692 2d3d be25 013e 64ee ef3d f414 e8bc
000003d0: 935e 2e3e 9ff7 f93c 1183 99bd 9a7d 57bb
000003e0: f3cc 96bd da31 373d 1ecc 62bd 0596 dc3d
000003f0: 2ee4 cabb 9494 46be c248 9cbd fe8c 8fbd
-0.03228216 0.021704596 0.012806722 -0.0048259534 0.045684554 -0.12208908 -0.09958997 0.078370064
0.015913107 -0.04177258 0.047308158 0.17662503 0.0105025675 -0.014999554 0.04223829 0.01581003
-0.080068134 -0.109940395 0.13039851 -0.09900158 0.07985798 0.08510904 0.09178279 -0.018886924
0.04980087 0.06701462 0.08934617 -0.14715262 -0.049623165 0.026103042 -0.002262523 -0.036777712
-0.011354005 -0.021862581 0.074214324 0.035597976 0.021964295 -0.034419358 0.025237776 -0.11847609
-0.044042524 0.14981471 0.14558545 -0.031701412 0.13806958 -0.022512015 -0.084174074 -0.08531392
0.051367164 0.10192337 -0.015527255 -0.06738088 0.07586161 0.18715174 -0.10503204 -0.013154851
-0.033795904 0.19500072 0.110934 -0.09906226 -0.08344865 0.024308026 -0.018723363 0.12206504
0.086993866 0.09081506 0.119694 -0.059897374 -0.14170402 0.12553656 -0.046218827 0.09364416
-0.027729291 0.042330027 0.035903282 0.05603258 -0.12474967 0.13239692 -0.017217204 -0.046946324
0.06716281 -0.05843682 0.06120035 -0.1109521 0.021150883 -0.011113196 0.18495971 -0.020904537
-0.00027469127 -0.040477995 -0.049839158 -0.12158296 0.02059181 -0.05306974 -0.06192585 -0.012874199
-0.021392949 0.122629724 0.18015829 0.066577375 -0.14831512 0.06874062 -0.056501117 -0.055670504
0.036625903 0.057585385 0.16039462 -0.08541171 -0.0927724 0.108717464 -0.06696472 -0.16790833
-0.061971728 -0.0060719145 0.16186805 0.070623174 0.04719438 0.12178147 -0.058247928 0.012541818
-0.043263324 0.06283258 -0.032645438 -0.044721566 0.017426798 -0.065206625 -0.04838674 -0.14720756
-0.13026032 0.010394633 0.04984435 -0.017063813 -0.025532542 -0.12062005 0.07887305 0.033299934
0.01616657 -0.030764708 -0.02887509 0.096583754 0.020830669 -0.0029690622 -0.0135988975 -0.0017500478
-0.12674013 -0.06158342 0.06858068 -0.068646476 0.08909572 0.09766763 0.011290427 -0.10298076
0.06505176 0.06278791 -0.06254907 0.041886467 -0.06158615 0.056205325 0.078157924 0.033444963
-0.16763231 -0.0755329 0.026233042 0.08637117 -0.119562574 -0.06992318 -0.09175888 -0.07275854
-0.09924995 -0.004320135 0.16081198 0.014658055 0.11871908 -0.11781444 -0.14705025 0.03200486
-0.1464478 0.12976907 0.011062864 0.0019798668 0.08505269 0.05984442 -0.0911664 0.025606476
0.0003116678 0.18637429 0.034681447 0.049077664 -0.069343045 0.08060734 0.06727332 0.1406879
0.054910954 0.1021908 -0.010782035 0.053459227 -0.08836519 0.08049129 -0.11836424 0.08547679
-0.087516375 0.086484715 0.024120815 0.17349957 -0.012005641 0.0855069 0.11286983 0.049747206
0.104991615 -0.16538994 0.1181555 -0.16443485 0.07535104 -0.025186714 0.11247211 0.032108776
-0.07883854 -0.07670255 0.070673846 -0.042796306 0.061961003 0.067617185 -0.16557448 -0.05819601
0.09151073 0.13341223 0.074483335 -0.12444813 -0.077325195 0.04170055 -0.026736438 -0.0635712
-0.028622648 0.036864668 0.020752745 -0.05946552 -0.08215566 0.071228564 -0.10588125 -0.17571172
0.042376064 0.12612054 0.11715391 -0.028330304 0.17028265 0.030513583 -0.07495702 -0.003288126
-0.0736331 0.044725277 -0.055370443 0.107708015 -0.006191752 -0.19392616 -0.07631065 -0.07009314

layers1d.3.bias f4 [128]
00000000: f25e 1b3c a9aa 583a 44c2 15bc ea01 be3c
00000010: 263a 603b 5ec5 a9bc 9bbb 0b3b 4a7b 39bc
00000020: f8c1 3d3c 94f1 933c e5fa 24bd 8647 3cbc
00000030: 5b18 2c3c c458 61bc 30ad 03bd a863 cfbc
00000040: 95b8 a63b e24a b63b c8f1 2abd bf5a 08bd
00000050: 40b6 4fbc df0b 0abe 3059 52bd 0117 983a
00000060: 5be9 4b3a c917 cfbc 10e1 7fbc 1891 983c
00000070: 9d1e 3fbc 75c6 1dbc 7c42 b0bc 49f5 8f3c
00000080: e0b3 48bc 63ce 82bc 0b66 943b 6ab0 0cbd
00000090: 6a38 77bc 20e2 593c 78db 0a3c ca2d 1fbd
000000a0: 9739 2dbd 3ca2 87bc 21cf edbb c4ee 80bc
000000b0: 179d 37bd 816d b2bb 3549 a9bc 5ecb ecbc
000000c0: 101c 75bc ef7e 01bd ed5a e7bb 549d e1bc
000000d0: fa46 333c 007b b13a 3db6 173c 7c70 83bc
000000e0: c85d 413c 899c 21bd 075e 6cbc fc70 0bbc
000000f0: b2d5 08bc 2a0f cfbc 50da 8cbd 0fd6 2cbd
00000100: c93d ab3c da5c e1bc 333b 94bc 710d 7dbc
00000110: 49f8 d2bc a8b1 073c 6179 4b3b 5153 cbbc
00000120: 152f 8337 592a 29bd ede9 dcba 2d2c 49bd
00000130: 85ba 99bc 7a55 d13b adb9 1cbd 99bc 0cbd
00000140: 66d7 03bd 6be0 613c 70fd cf3b 19a0 7fbc
00000150: 7742 ffbc 4608 25bd cf8e c03c 86d0 b4bc
00000160: d746 d9bc a508 b23b e994 dbbc 0ee2 033d
00000170: bf48 f7bc a00c 1bbd 11ca 10bb 80a5 633c
00000180: 9d87 96bc 4101 2e3a 8249 b53c 78cd b039
00000190: fef3 a83b 6e88 a1bc a8f5 693c 29ed 3cbd
000001a0: 5b06 b03b 3850 c0bc 0e84 45bc 72aa 063c
000001b0: 258d 1fbb ab9d 05bd e97b f9bc cdcf 743b
000001c0: f736 09bd 6766 a7bc 66c0 dcbc 28ee d4bc
000001d0: fbf5 65ba ea06 e33b 17c7 06bd 9f29 15bd
000001e0: 2f3e 08bd f147 aebc 838a 6bbc 0786 76bc
000001f0: d396 9abc 94ad 3cbb 2b3a 7dbd 5b50 93bc
0.009483086 0.00082651764 -0.009140555 0.023194272 0.0034214347 -0.020723995 0.0021321538 -0.011320898
0.01158189 0.01805953 -0.040278334 -0.011491662 0.010503854 -0.0137540735 -0.032147586 -0.025316074
0.005087922 0.005563126 -0.041734487 -0.033289667 -0.012677729 -0.13481091 -0.051354587 0.0011603535
0.0007778608 -0.025279896 -0.015617624 0.018623874 -0.011665014 -0.009629835 -0.021516077 0.017573016
-0.012249917 -0.015967553 0.004528766 -0.03434793 -0.015089134 0.013298541 0.008475177 -0.038862027
-0.04229125 -0.016556852 -0.0072573577 -0.015738852 -0.044827547 -0.005445183 -0.02066479 -0.028905567
-0.014960304 -0.031615194 -0.0070603997 -0.02754084 0.010942215 0.0013540685 0.009259758 -0.016044848
0.011802144 -0.039455924 -0.014426715 -0.008510824 -0.00835173 -0.025275785 -0.06877577 -0.04219633
0.020903485 -0.027510095 -0.018094635 -0.015445099 -0.025753157 0.008282103 0.003104769 -0.024820002
1.5638341e-05 -0.04130015 -0.0016854383 -0.049114395 -0.018765697 0.0063883634 -0.03826301 -0.03435955
-0.03218784 0.013786416 0.006347351 -0.015602135 -0.031159623 -0.040291093 0.023505596 -0.022072088
-0.026523037 0.0054331594 -0.026804404 0.032198004 -0.030186055 -0.037853837 -0.0022093097 0.013894439
-0.018375212 0.000663776 0.022129778 0.00033722422 0.0051560393 -0.019718375 0.01427976 -0.04612461
0.0053718514 -0.023475751 -0.01205541 0.008219348 -0.0024345603 -0.032621067 -0.030454593 0.0037355304
-0.033499684 -0.020434571 -0.026947211 -0.025992468 -0.00087723107 0.0069283145 -0.03290471 -0.036416646
-0.033262428 -0.021274539 -0.0143762855 -0.015046603 -0.018870747 -0.0028789984 -0.06182305 -0.017982652

combined.0.weight f4 [64, 128]
00000000: 84d0 81bd b7f4 8b3c 81d0 d83c bf01 a0bd
00000010: 2cad 823d 9981 543d 7e02 a63d f643 a93d
00000020: 7274 633d cb8e 893d 683c babd d01b bb3b
00000030: 1c0b a8bd 7883 4e3d 34a3 f73d 613f d8bc
00000040: 8de5 d8bc 480c f1bc 42f7 cb3d 5c25 ec3b
00000050: 8321 d2ba 0b0b e5bc 244b 023d 13f6 da3c
00000060: 7607 04be e60f 663d 6827 783d e815 40bd
00000070: 2731 25bd a13a 86bd b8a9 3dbb 50ed 76bd
00000080: 794c d73d d6ca e03d 5be9 e1bc be2b 943d
00000090: 71d6 743d 84a6 d3bd 90b5 80bc 66f5 373d
000000a0: 9f7d 1f3c fb26 c63d d24b 6fbd 90df 98bd
000000b0: 86c3 e2bc 5ede b7bd 99df a33d fc33 2abd
000000c0: 98e8 823d e201 29bd 817b 0e3b bf8f 12bd
000000d0: 7f73 a3bd a67d f0ba e137 983d bc0b 1bbb
000000e0: 1e8a e6bd a715 213d 244c d9bb a09b 013d
000000f0: 3e08 dd3c 5e2f ac3d 01d4 9b3d 66a6 b13d
00000100: 22a5 82bc 8c96 9cbd 5a80 0d3e ec6c fe3b
00000110: 8e59 763c a0de f83c 9cce dd3a 726c 823d
00000120: cb57 05be 4d8e 57bd 0901 eabb 4374 0ebc
00000130: 1f98 9d3c a804 483c 0a32 9e3d 3899 9f3d
00000140: 6b0c 033d 79a7 f13d 1037 2bbd 7980 8e3d
00000150: f214 183e bfe5 d03d 0224 b4bd 972d 03bd
00000160: 04a3 5a3c 070e 46bd 26d2 cd3d 9f06 003d
00000170: d32f bf3d 147e 1b3e b658 853d e54f b9bd
00000180: 28b3 9e3d 0188 f3bc a0cf c53d d6d8 823d
00000190: d529 91bd be9f dbbd 385d 0dbd fe0a b83d
000001a0: f6b4 7bbc ca61 2b3d 4a60 833d b0cd 67bd
000001b0: 4319 eabd 5239 cb3d a9e9 e5bc 1fdb 8a3d
000001c0: ed08 4f3d 14f3 e73d 9d66 363d cc99 0a3c
000001d0: ba03 90bc 8540 903d 2952 13bd 64e8 3c3d
000001e0: d788 d23d ec52 cbbc e2e1 9d3d 6ce5 a1bd
000001f0: 3c77 153d f0d2 063e 3366 873d 60ae 30be
00000200: 12af bd3c f900 903d 4884 e93c d257 dabd
00000210: 2b08 e03d b19b 753c 1ceb 903c f883 92ba
00000220: c86d 41bd ef9d 5fbe 12dd adbb 2d46 cbbd
00000230: 351f d5bd 3812 95b9 d79d c13d b9c3 303d
00000240: cbac ee3c 1cab 19bd dbb2 c23d 227e cd3a
00000250: a692 0cbd 84e5 183c 5874 1a3e e59a b93d
00000260: 6754 3dbe a04f 033e 0418 2fbd 7bac 723c
00000270: 8962 8ebd c3a0 1b3c 7916 d13d ee08 a4bd
00000280: e308 4f3d b772 003d 4ff8 74bd 3bf4 223e
00000290: b096 613d ded2 9fbd d235 e1bc ece0 3e3d
000002a0: a1f9 123d 245b 78bc 8558 0c3d 4244 ddbd
000002b0: b6d7 6a3c b99e 91bd c3d1 0c3e 88fc c1bd
000002c0: 41d0 8b3d b446 083e 577b fcbd 2853 12bd
000002d0: 8237 04be 3e0f 3e3c 364d a43d e37d 023c
000002e0: d597 afbd c7af 183c 603e 583d c209 54bd
000002f0: c6eb 06be 5999 b53c 121a 163d cb17 e0bc
00000300: 2d38 d33d c505 dc3c 295a b83c fbd9 38bd
00000310: 2cf4 ce3d 7c66 19bd e1fc e9bc fe3a b6bd
00000320: 0910 433d 2b7d 833d 5d82 863d 508b 923c
00000330: 55ab 80bd 5945 49be 0375 38bd d212 753b
00000340: a4bc 623d e6ac 0ebc f2ba 71bd dd18 a43d
00000350: 7d16 b73c 5f08 cb3d c410 94bd 8e51 293d
00000360: 1637 56bc b27d 6bbe bc42 273d f891 96bd
00000370: 159f a6bd f4c9 6f3d 7abe 45bd 89f0 d0bd
00000380: dfdf fa3c d68a 10bd 3c32 e23d 3264 033d
00000390: 9776 39bc 8b17 11bd f008 6bbb 9024 9fbd
000003a0: e018 a1bb 02cb 2cbd 5d79 01be f5d9 c1bc
000003b0: 6c46 6dbd 401e 8c3d 5962 843d e0d7 673c
000003c0: fb5d 65bc 08b5 b9bd 7bb1 c53d 17e9 523d
000003d0: bd55 703d c874 9dbd 5bc9 74bd e08f c53d
000003e0: 2d4c e0bc 4c5b 72bb ff53 963d 5fd5 77bd
000003f0: 9c77 e83c 35ff 753d 2445 d23d 8a1f f63c
-0.06338599 0.017084463 0.02646661 -0.07812833 0.06380686 0.051881406 0.08105944 0.08264916
0.055530973 0.06716689 -0.09093553 0.0057101026 -0.08205244 0.050418347 0.120916754 -0.026397409
-0.026476646 -0.029424801 0.0995927 0.007206602 -0.0016031716 -0.027959367 0.03180994 0.026728665
-0.12893471 0.056167506 0.060584456 -0.04689589 -0.04033008 -0.06554151 -0.0028940272 -0.060284913
0.10512633 0.10976188 -0.027577093 0.07234906 0.05977482 -0.10334495 -0.015711576 0.044911765
0.00973454 0.09675404 -0.058421917 -0.07464516 -0.027681123 -0.0897796 0.08001632 -0.041553482
0.0639202 -0.04126156 0.0021741095 -0.03578162 -0.079810135 -0.0018347993 0.07432533 -0.0023658117
-0.112568125 0.03932729 -0.006631391 0.031642556 0.02698147 0.08407472 0.07608796 0.08674316
-0.015947882 -0.07645902 0.13818493 0.0077644493 0.015036 0.030379593 0.0016922536 0.063683406
-0.13021772 -0.052625943 -0.0071412367 -0.008694711 0.019237576 0.012208141 0.07724388 0.07792896
0.031994265 0.11799521 -0.04180056 0.06958098 0.1485174 0.102000706 -0.087959304 -0.0320259
0.01334453 -0.04835322 0.10049848 0.031256314 0.093352936 0.15184814 0.06511061 -0.09048442
0.07749015 -0.029727938 0.09658742 0.063890144 -0.07088057 -0.10723828 -0.03451273 0.089864716
-0.015362969 0.041841306 0.0641485 -0.056592643 -0.114305995 0.09923042 -0.02806552 0.06780075
0.05054562 0.1132566 0.044531453 0.00845952 -0.017579902 0.07043556 -0.035967026 0.046120062
0.102800064 -0.024819814 0.07709099 -0.07905087 0.036490664 0.13166404 0.0661129 -0.17254019
0.02315477 0.070314355 0.02850546 -0.10661282 0.10939058 0.014990733 0.017690234 -0.0011178246
-0.047223836 -0.2183759 -0.0053058947 -0.09925494 -0.10406343 -0.0002843307 0.09453934 0.043155406
0.029135128 -0.0375167 0.0950677 0.0015677849 -0.034319542 0.009332065 0.15083444 0.09062747
-0.18489228 0.12823343 -0.042747512 0.01481163 -0.06952388 0.009498778 0.102093644 -0.08009516
0.050545584 0.0313594 -0.059807118 0.15913479 0.055075347 -0.078038916 -0.027491484 0.04660122
0.035882596 -0.015158448 0.034264106 -0.10804035 0.014333656 -0.07110352 0.13751893 -0.09471995
0.06826831 0.13308221 -0.12328213 -0.035723835 -0.129118 0.011600314 0.08022539 0.007964584
-0.085738815 0.009319252 0.05279386 -0.05176712 -0.13175878 0.022167848 0.036645956 -0.027355095
0.10313449 0.02685822 0.02250393 -0.045129757 0.10105166 -0.037451252 -0.028562965 -0.088979706
0.047622714 0.06420358 0.065678336 0.017888695 -0.06282679 -0.1965536 -0.045033466 0.003739525
0.055355683 -0.008708214 -0.059016176 0.08012555 0.02234959 0.09913706 -0.0722976 0.041337542
-0.013074657 -0.22997168 0.040835127 -0.0735206 -0.08135811 0.058542207 -0.048277356 -0.102021284
0.030624328 -0.035288654 0.11044738 0.032077976 -0.011319778 -0.035422843 -0.0035863481 -0.077706456
-0.0049162954 -0.04218579 -0.12643953 -0.0236635 -0.057928488 0.06841707 0.06464071 0.01415059
-0.0139994575 -0.09067732 0.09652992 0.051491823 0.058675516 -0.0768829 -0.05976234 0.096465826
-0.027380073 -0.0036980687 0.0734024 -0.06050622 0.028377347 0.060057838 0.10267094 0.030044336

combined.0.bias f4 [64]
00000000: 1404 f03c ced1 84bc d434 e73b c862 493b
00000010: f5c0 5a3d f774 c03d fbe2 e2bc b382 073c
00000020: 2721 00bc 393c 903c b2a0 923c 2746 393d
00000030: 5555 0a3c b978 833c d32c 613c 8a93 bb3c
00000040: 7eb2 83ba 16fa efbc f9ae ac3d eab2 e83d
00000050: 1dfe f63c 3521 f33b 5c6a a53d f48c a03c
00000060: c05e a63d 5180 143d 7057 053c fd25 1bbc
00000070: 8a36 b63b 8dcb 8b3c d8c7 153d 18a4 003d
00000080: f6e8 02bc 45e2 293c 5c0a 873c e9ab 8b3d
00000090: 10cb a93c 5eaa 48ba 9a8a ce39 face 853a
000000a0: 484a 883c c186 7b3c 8fb6 163c dc1d 193d
000000b0: 1677 f03d a4a1 4c3c a749 03bd 5407 ac3d
000000c0: 7e53 e53c 3eb5 4e3d d034 cebc ced6 ba3d
000000d0: 0e70 d33c 26f1 4d3d 4627 a73d 3927 1b3d
000000e0: 3f0b 6eba 8b4e 9d3d 34e5 a73c 30f8 933d
000000f0: abff 5d3c 25d1 a639 de3a bc3d 5e38 ca3c
0.02929882 -0.016213324 0.007055858 0.0030729044 0.053406674 0.09397309 -0.027696123 0.008270907
-0.007820404 0.017606841 0.017898891 0.045232918 0.008443196 0.016048776 0.013743597 0.0228975
-0.0010047702 -0.029294055 0.08431811 0.1136225 0.030150468 0.00741973 0.08076927 0.019598462
0.08123541 0.036255185 0.0081385225 -0.009469506 0.005560701 0.017064834 0.03656754 0.031406492
-0.0079901125 0.010368888 0.016484432 0.06819899 0.02072671 -0.0007654781 0.00039394648 0.0010208779
0.016636983 0.015351952 0.009198799 0.03738199 0.11741464 0.01248971 -0.032052662 0.08399835
0.027993914 0.050465815 -0.025171667 0.09123002 0.025810268 0.050278805 0.08161788 0.037879203
-0.0009080655 0.076809965 0.020495035 0.072250724 0.0135497255 0.00031817812 0.091909155 0.024685081

combined.3.weight f4 [64, 64]
00000000: 2341 7cbd 72f9 92bd f82c 7ebd 3aff 513d
00000010: 2fce f8bd 437d d93b ee5c 133e f50d a3bd
00000020: 8723 8cbc d5ab 6ebd 2179 8dbd e317 f4bc
00000030: da54 16be cd63 2fbe cc2b d2bd bb12 9dbd
00000040: 252a aabd df18 ecbc 8233 633d 7bfa a23d
00000050: 79c8 61be fd69 47be b36c 66bd afce 16be
00000060: 3def e1bd 29de acbd d089 84bd d86d 30be
00000070: 8957 6dbe 8e32 c5bd 0877 0bbe ea55 d3bc
00000080: d112 7bba 593d bd3d e3c3 2dbe 0981 ae3d
00000090: 62dd c6bd 6277 2b3d 3126 37be ecfb c7bc
000000a0: e155 89bd 6b6f 12be c6c2 ffbd 6ba7 44bd
000000b0: 42d9 b93d 8458 6cbe f23e b23d 66fc 4836
000000c0: 5758 03be 9665 b0bd c832 3c3d 0b46 883d
000000d0: 0da0 fbbd 1c12 edbd e6d9 1e3e 91de 0dbe
000000e0: 8b69 4d3d 327b dd3d 23f1 d8bd 0340 b9bd
000000f0: 88cd bfbd 9f6a 083e 3a6c 75bd d137 62be
00000100: 0807 cebd 0129 37bd 1572 f83d 3c35 d33d
00000110: 885e 0cbe 7f74 1bbc 3f8a b03c f7dd 853d
00000120: 9661 0ebe bdb9 82bd 47ab 4fbd eaab ebbd
00000130: 67a9 90bd cf77 9fbd 1b76 6dbe 64e9 08be
00000140: c7ed 5dbe 72cb 79bd a640 a8bc 85fc 2d3d
00000150: 9948 63bd 3ccf 01be 1bea 74bd 4d6f 17be
00000160: d65d 903c 1812 4abd 405d be3b a07f 3abe
00000170: 799d 33be 470f 8a3d fbf4 38bd 08a9 d13d
00000180: 6ac1 42bd 2332 053e 723b c5bd 965f 49bd
00000190: 0847 60be 415e a43d 6713 00be 62bc 0e3e
000001a0: 6470 13bd b194 2abe a1e2 38bd 88bd 1bbe
000001b0: 5267 ccbd 7dd6 6dbe 9ac4 adbd 6831 a0bb
000001c0: fe3b 4fbe 54aa 913d 9e20 babc a306 f03c
000001d0: bdab bbbd 09b2 c2bd cfde c4bc 4aab 19bd
000001e0: ca7d c73d 9fca ea3c 577e 78be 3020 033d
000001f0: 8cb8 60be 3f01 073d 1667 793d 2089 e6bb
00000200: 6347 26be 2803 83bd 413e 3dbd 29e0 e73d
00000210: 4ba6 53be 1eb5 7fbc c8fe 0abd 5937 b23c
00000220: 652f a7bc f6d5 0dbe 8c3c 44be 8e2e 84be
00000230: ae25 eebd be35 24be 04a7 8cbe 40f8 a9be
00000240: fd7d 2ebe 4b10 86bd 6420 173c fb4c 90bc
00000250: 4cf8 9dbd 4b97 80be b495 bd3b ed3d 17be
00000260: 8dfa 9ebc b73d 12be 3c65 cb3d d3c8 88be
00000270: edc6 7fbe 39dd ac3d 48c8 65be 1d43 a53d
00000280: b13c 4bbe 53de b33d 75b5 98be 0376 37bc
00000290: 36aa 1cbe b45a 003e f367 87bd 6b1e 15bd
000002a0: e01c bebe 02ec 9cbe 96dc f6bd ac5d 41be
000002b0: 94e8 dd3b f2cc 9bbe db02 4dbd e77f 5abb
000002c0: 58c4 92be b783 733d 0e19 133e 9660 09bb
000002d0: 7e52 3bbe 6aac 59be d38b 8abd ed95 8ebe
000002e0: db14 bf3d 5cd7 70bc 86d8 15be c39e c6bc
000002f0: 3e40 8dbe b287 b6bd 12fe 3c3c b242 12be
00000300: 02f8 853d 8660 40bd 7930 39be bed5 abbe
00000310: 321c a43d 698f 3bbe f0e1 02bc 1b32 ebbd
00000320: 5ad7 9dbb 0a82 c63c d34f 273d ddec 5ebd
00000330: 1489 a4bd 7498 f6bc 9cf7 7a3d 512c e63d
00000340: 71b9 bd3d 1f46 043e 7b66 5cbe 5c1f 36be
00000350: 0e97 fa3d 42f2 3bbd 9fe1 6cbe 0e57 823d
00000360: ce7a 31be 9301 ce3d 5c06 90be 5a5b b13d
00000370: 7d52 d13b 0733 9abe 8055 cfbb e94e 85be
00000380: 35b1 773c 008d 02be 4292 8c3c 4631 9bbe
00000390: fcd8 c5bc 4f1a 6cbd 4905 14bd 3bed 1fbe
000003a0: 2fdc b43b 891e d53c 4374 173e 005d 833d
000003b0: 178b 0ebe 2f08 91bc 9c7a 2d3e 4d26 26be
000003c0: 8e39 db3c 7cdf 73be aab2 2c3b 749b d3bd
000003d0: d464 ba3d 6e39 58bd d19d 6fbe f226 f03c
000003e0: 7cc9 b1bd 4478 04be ca77 073d 96cc 14be
000003f0: 4f78 953d 47c0 51be a709 87be e294 9d3d
-0.061585557 -0.07176484 -0.062054604 0.051268794 -0.121487014 0.006637247 0.14390919 -0.079616465
-0.017106785 -0.05826934 -0.06907869 -0.029796546 -0.14680806 -0.17127915 -0.1026226 -0.07669588
-0.0830882 -0.028820453 0.055469044 0.079579316 -0.2204913 -0.19474025 -0.056256007 -0.14727281
-0.11031959 -0.08440811 -0.06471598 -0.17229402 -0.23177923 -0.09628783 -0.13619626 -0.025797803
-0.0009577694 0.09240217 -0.16969256 0.08520705 -0.09710194 0.0418619 -0.17885663 -0.024412118
-0.06705833 -0.14300315 -0.12488322 -0.048011225 0.09074642 -0.23080641 0.08703412 2.9949238e-06
-0.12826668 -0.08613126 0.045946866 0.06653985 -0.12286387 -0.1157572 0.15512809 -0.13854434
0.05014948 0.10814513 -0.10592868 -0.090454124 -0.09365374 0.13321923 -0.059917666 -0.22091605
-0.10059935 -0.04471684 0.121311344 0.10312888 -0.13707936 -0.009488224 0.021550296 0.06536477
-0.13904414 -0.06383083 -0.050700452 -0.115073994 -0.07063561 -0.077865236 -0.23189585 -0.13370281
-0.21672736 -0.060985036 -0.02053864 0.04247715 -0.055489156 -0.1267671 -0.059793573 -0.14788552
0.01762287 -0.04933366 0.005809456 -0.18212748 -0.1754054 0.06741195 -0.045155507 0.10237318
-0.047547735 0.13007407 -0.09630479 -0.049163423 -0.21902096 0.0802579 -0.12507401 0.1393905
-0.035995856 -0.16658284 -0.045138005 -0.15209019 -0.09980644 -0.23226352 -0.084847644 -0.004888702
-0.20237729 0.07112566 -0.022720631 0.02930004 -0.09163616 -0.09506614 -0.024032025 -0.03751687
0.09740789 0.02866107 -0.24266945 0.03201312 -0.21945399 0.032960173 0.060889326 -0.0070353895
-0.1623817 -0.063970864 -0.046201948 0.11322052 -0.20668904 -0.015607147 -0.033934385 0.021754907
-0.020408342 -0.13851151 -0.19163722 -0.25816768 -0.116282806 -0.16036126 -0.27471173 -0.33197212
-0.17040248 -0.065460764 0.009224031 -0.017614832 -0.077133745 -0.25115427 0.0057856683 -0.14769717
-0.019406581 -0.14281355 0.09931418 -0.26715717 -0.24978228 0.084406324 -0.22439682 0.080694415
-0.1984737 0.08782639 -0.2982594 -0.01119757 -0.15299305 0.125346 -0.066116236 -0.036405962
-0.37131405 -0.3064881 -0.12053792 -0.18883389 0.0067721102 -0.30429798 -0.05005155 -0.0033340396
-0.28665423 0.059451785 0.14365026 -0.002096211 -0.18293187 -0.21257177 -0.067649506 -0.2784876
0.0933015 -0.014699783 -0.14633378 -0.024245625 -0.27588075 -0.089126006 0.011535184 -0.14283255
0.06541444 -0.046967052 -0.18084897 -0.3356151 0.0801319 -0.18316425 -0.007988438 -0.11484166
-0.0048169317 0.02423193 0.04084761 -0.05442511 -0.08033958 -0.030101992 0.061271295 0.112389214
0.09263886 0.12917374 -0.21523468 -0.177854 0.12235843 -0.045885332 -0.23132943 0.063642606
-0.17332003 0.10058894 -0.28129852 0.08660002 0.006388007 -0.30117056 -0.006327331 -0.26036766
0.015117933 -0.127491 0.017159585 -0.3031103 -0.024151318 -0.057642277 -0.036137853 -0.1561784
0.005519412 0.026015537 0.14790444 0.06414223 -0.13920246 -0.017704098 0.16941303 -0.16225548
0.026760843 -0.23815721 0.002635161 -0.10332385 0.09101263 -0.052789144 -0.23400046 0.029315446
-0.08681008 -0.12936503 0.033073224 -0.14531168 0.07298338 -0.20483504 -0.26374552 0.07694413

combined.3.bias f4 [64]
00000000: 724b 933d 9233 143e 0f3c e73d 7b06 e83d
00000010: 11a1 313e d3f7 9d3d bcc6 b93d 0e29 ca3d
00000020: d920 163e f093 f43d b781 0f3e 80e6 2e3e
00000030: 340a b63d 9340 a13d a82a 373e 0fdd b63d
00000040: 9b09 d33d 32b3 163e 4c92 f03d cf87 c63d
00000050: abe8 bf3d 0cbc 023e e75a fb3d 55b6 fe3d
00000060: 1bd6 073e d403 e83d 3e92 bc3d fa1d 1f3e
00000070: 5042 e83d 2fae 053e eb26 363e 57ed c23d
00000080: 1b1d 9b3d 8938 b83d 1390 0a3e bdda 093e
00000090: eded 1b3e 9ad7 223e cf87 9e3d cabf 273e
000000a0: deb9 0a3e 8f1b 953d 8d3b 0a3e d80a fc3d
000000b0: 2f0c 133e 5b4e d53d 2e7b 9c3d a515 e83d
000000c0: c626 de3d a96b c33d 6ff8 0d3e 44a5 143e
000000d0: c004 0e3e fa28 c83d d4dd 0c3e 8cdb d63d
000000e0: 2aba 0c3e 65a9 013e 28e1 fb3d b3d2 043e
000000f0: 93c2 ca3d ef61 0a3e f1b2 d33d 5bb4 dc3d
0.071921244 0.14472798 0.11290752 0.11329361 0.17346598 0.07713284 0.09071109 0.09871112
0.14660968 0.11942279 0.14014326 0.17080116 0.08888665 0.07873645 0.17887366 0.08928882
0.103045665 0.14716795 0.11746654 0.09693872 0.0937055 0.12767047 0.122731976 0.12437121
0.13265269 0.11328855 0.09207581 0.15538779 0.11340773 0.13054727 0.17788284 0.09517925
0.07573911 0.08995158 0.13531522 0.13462348 0.1522748 0.15902558 0.07740747 0.16381755
0.13547465 0.07280647 0.1349928 0.12306756 0.14360116 0.10415336 0.07640682 0.11332253
0.10847239 0.09542019 0.13864301 0.14516169 0.13869 0.09773441 0.13756496 0.10491094
0.13742891 0.12662275 0.122988045 0.12971 0.09900393 0.13513921 0.10336865 0.107765876

combined.6.weight f4 [1, 64]
00000000: 378c a3bd 1bde c6bd 75e4 11be 835e ca3c
00000010: 4983 94bd 4aa6 88bd 7d0b 0b3d b064 e9bd
00000020: 8f32 5d3d 7722 053d b62d 81bd 3cd1 45bd
00000030: 414c e03c e044 cc3c 2315 84bd 7324 203d
00000040: eafc 273d 99bf 59bd 4eb4 603d 0c5a 79bd
00000050: e100 153d a5de 613d 3c99 91bd 5d1d 213d
00000060: 42af cfbd de37 6e3d 44d8 03be eeb4 70bd
00000070: db36 553d 80e6 273d c9c0 74bd df89 ff3c
00000080: f9b5 b6bd dccc babd f1e0 573d b4ca 3fbd
00000090: 568c 87bd 2f66 80bd 0942 e53c 8a5a 57bd
000000a0: 5c0e 0f3d e21b ca3c 1feb 0c3d 3c06 233d
000000b0: c11c 95bd 760e ff3c dcf5 cebd 2673 eebd
000000c0: bc24 71bd 9d2d 0b3d 4b0c e13c 8c5c 7f3d
000000d0: 2fb8 ff3c 8a98 cfbd c147 41bd 1bdd 783d
000000e0: 1b7b aebd ccb4 d8bd dc30 8fbd 575a a1bd
000000f0: 48d7 603d 2553 96bd 92f2 293d f03e b7bd
-0.07985728 -0.09710332 -0.14247306 0.02470327 -0.07251603 -0.06672342 0.033946503 -0.11396158
0.054003295 0.03250357 -0.06307547 -0.048295245 0.02738011 0.024935186 -0.06449344 0.03909726
0.041012682 -0.053161237 0.054859452 -0.06087689 0.03637779 0.05514397 -0.07109305 0.039334644
-0.1014085 0.058158748 -0.12875468 -0.058766298 0.052054267 0.040991306 -0.059754167 0.031193672
-0.08921427 -0.09121105 0.052704755 -0.046824172 -0.06618564 -0.0626949 0.02798559 -0.05257658
0.034925804 0.024671499 0.034403916 0.039800867 -0.07280875 0.031134825 -0.10105488 -0.116430566
-0.058872923 0.033979047 0.027471682 0.06234412 0.031215755 -0.101365164 -0.04718757 0.060757738
-0.08519574 -0.10581359 -0.06991741 -0.07878559 0.05489281 -0.07340077 0.0414911 -0.08947551
