data/models/nov12_24_undersample/fold0_epoch_models/epoch_4_model.pt (torch, 775567 bytes, 9 tensors)

layers1d.0.weight f4 [128, 1280]
00000000: e279 b0bd 93a5 83bd 2cff 743d cc2b 8b3c
00000010: 5e68 b23c b1c1 60bd e989 1dbc 33b9 b2bc
00000020: 6361 f9bc d936 9b3c ea64 f13c bb6c 2cbc
00000030: ef19 bebd 9e9d 6fbd d09e a7bc ba92 15bd
00000040: 1b80 de3c d1c8 adba df1d a9bc 292f 9939
00000050: 11b7 303d eb78 743d 1339 8abc 6680 90bd
00000060: fd91 dcbb fe46 903c 12b1 113d ecb3 a9bc
00000070: 4267 63bc 270b 863c e985 343d 13d7 c43c
00000080: 8876 5aba c7d8 74bb 0904 fcbb 4812 0f3d
00000090: 6e0d 8dbd 1bc7 033c b1a1 523d 0d90 b83d
000000a0: e287 f3bc c70c 97bc fcc4 083d acf6 523d
000000b0: d304 473c b50c 95bd e732 4f3b 887d 8fbc
000000c0: a2f9 75bc 4e2f 03bd c528 cebd d6ff 25bc
000000d0: ea7b 35bd 2c51 053d 811e 0bbd db1b 56bc
000000e0: 6067 dcbc b2b9 fa3c 243e 38bc 8699 6d3d
000000f0: 9c75 063b 3369 8fbd 49b5 a6bd 6bda 3abd
00000100: e87c cebb ff31 2b3d c502 8c3c 6b65 36bc
00000110: 98be e5bc 51a6 fd3c a9f1 5bbd 5428 73bb
00000120: 28cb 293d 3346 ab3d 910c 8b3b 43e9 2f3d
00000130: 3f85 983c 6276 85bc 56e4 36bd bdd4 443c
00000140: fc31 12bd d8a4 8e3c 1423 153d ec6c b4bc
00000150: 7d9f f83c 6644 81bc 2f73 493c aeef 5dbc
00000160: 27ba 9fbc 49b2 e13c 256e 1fbd bf30 c5bd
00000170: 72f7 25bb 667a 4dbd 9138 1d3d 2b82 2c3d
00000180: 0df4 1d3c 6801 58ba 047b 2abd 9c15 033c
00000190: 09bb 2e3b c163 04bd a971 dabc 09b1 7e3c
000001a0: af52 483d 0b51 433c c785 71bd bb51 d6bc
000001b0: 6bbc 3cbd 2a0a 873d 1845 4abd 2c70 80bd
000001c0: 769e 1a3d 31a2 423d a2a7 5ebc f6bb 22bd
000001d0: 01b5 e13c 1064 18bd a432 a5bc 22de 75bc
000001e0: 49e7 67bc ca1d 0bbb 1b5c 00bd 603f 043d
000001f0: a765 2cbc 6e1a 203d e7cd cf3c f353 bbbc
00000200: b91a 513d 6f5a 4a3d 1660 163d f508 7e3c
00000210: 3b5f 5abd b46f 9abc be59 ccbc 7e43 2c3d
00000220: d9d4 573c 70f7 663c a70c c03c 890a 1e3c
00000230: cd7b 143d 76be 32bd 9960 5a3d 45c2 87bd
00000240: b96e ef39 323b 063d c5d6 e8bc 3996 063d
00000250: 0143 a83d b7d4 cebb 98d1 a5bd b3cf d03d
00000260: 2823 3e3a 2246 52bc f414 3b3c 6620 8e3c
00000270: fcd0 363d 333a a33c 8be5 7abc c89f a23a
00000280: 7cf6 8ebc 9b2e 9dbc b03a 40bd 09af ecbc
00000290: 1481 40bd 5107 f23c 26b2 9ebd 7b43 87bd
000002a0: a4a7 0abd 37c3 473b 05b9 b43d 1736 8a3b
000002b0: 4a31 28bd be22 0bbd b8d5 fabc e562 023c
000002c0: 8a87 85bc 78d7 993b f288 dcbb f246 243d
000002d0: 82d4 0ebc bf17 2b3d d1d8 ebbc 119b 213c
000002e0: 44c7 3b3d d079 4c3c a9fd c73c b52f d63c
000002f0: 8936 edbc ce16 06bc e189 e9bb a2b9 6d3b
00000300: 5b38 0f3d 943e 7bbc 47fe bebc 0d67 dd3c
00000310: 64a1 6abc 4ded ebbc 3a54 fb3c 179d 353d
00000320: 0cde d03c fa71 d43b d6e4 1abd ec57 20bc
00000330: 6053 0dbc d2b5 22bd 9af6 c63a 6599 7c3a
00000340: 6a57 503d 93e6 e43c 7d4f fcbc 59e8 83bb
00000350: e663 fdbb 9dd3 a23c 6283 ea3c 8708 fdbc
00000360: 2b57 7d3c 4f36 823d 1d4e 4ebb 17ad 9cbd
00000370: d417 43bd 8f04 c23d a576 d53a 53b8 01bb
00000380: 0b5d b73d da70 5d3d cb69 f6b8 8dbc 193d
00000390: d302 45bb 4ffb 44bc 90e3 d43c fa18 6ebb
000003a0: 6140 cb3c 66ba 843c 5222 193c ecb8 1fbd
000003b0: 1d8c 09bc 0b06 833d 23fd ae3d 2157 28bd
000003c0: 3910 373d c228 26bd 31e5 bf3c cff5 fcbc
000003d0: 6279 63ba 2782 863c 00a0 50bd f717 80bc
000003e0: 1bbf 113d ae17 413a ada4 cb3c c686 143d
000003f0: 0cbf 023d da06 7f3c e1a5 3e3c 2d16 f33c
-0.08616997 -0.06428065 0.059813663 0.016988657 0.021778282 -0.05487222 -0.0096154 -0.021816825
-0.030441945 0.018947052 0.029467065 -0.01052397 -0.0928229 -0.058499925 -0.02046147 -0.036516882
0.027160695 -0.00132587 -0.020644126 0.0002921757 0.043143336 0.05968563 -0.016872918 -0.0705574
-0.0067312703 0.017611977 0.035569258 -0.020715676 -0.013879599 0.01636274 0.04407302 0.024028337
-0.00083337026 -0.0037360655 -0.0076909107 0.034929544 -0.06887327 0.008043076 0.051423732 0.090118505
-0.02972788 -0.01843871 0.033390984 0.051504776 0.012147146 -0.07277814 0.0031616034 -0.017515913
-0.01501313 -0.032027535 -0.1006637 -0.010131797 -0.044307627 0.032548115 -0.033964638 -0.013068165
-0.026904762 0.030606125 -0.011245284 0.05800774 0.0020516878 -0.07002487 -0.08140046 -0.045618456
-0.006301511 0.041795727 0.017091164 -0.011132578 -0.028044984 0.030963095 -0.053697262 -0.0037102895
0.04145351 0.08362999 0.0042434414 0.042947065 0.018618224 -0.0162918 -0.044651352 0.012013611
-0.0356922 0.017412588 0.036410406 -0.022024594 0.030349487 -0.015779685 0.012295528 -0.013545914
-0.019497944 0.027550833 -0.0389234 -0.09628438 -0.002532449 -0.050165556 0.038384024 0.042116325
0.009640706 -0.00082399556 -0.041621223 0.008000758 0.0026661775 -0.032321695 -0.026665526 0.015545138
0.04890698 0.011921178 -0.05896547 -0.026162019 -0.046078127 0.065937355 -0.0493823 -0.06271395
0.037748776 0.04751796 -0.013589771 -0.039730035 0.02755213 -0.037204802 -0.020165749 -0.015006574
-0.014154264 -0.0021227472 -0.03133784 0.032287 -0.010522283 0.039087705 0.025366737 -0.022867179
0.051050875 0.04940265 0.03671273 0.015505065 -0.053313475 -0.018852092 -0.024945136 0.042056553
0.013173305 0.01409708 0.023443533 0.009646066 0.036250878 -0.04363867 0.05331478 -0.06628851
0.00045668127 0.032771297 -0.028422723 0.032858107 0.08215905 -0.0063119787 -0.080966175 0.101958655
0.00072531635 -0.012834104 0.01141857 0.017349433 0.044632897 0.019925212 -0.015313516 0.0012407238
-0.017451517 -0.019187262 -0.04693097 -0.028892057 -0.0469981 0.029544504 -0.07748823 -0.06604668
-0.03385128 0.0030481347 0.08824352 0.004217874 -0.04106263 -0.03396868 -0.030619487 0.007958149
-0.016299982 0.0046948753 -0.0067301923 0.04010672 -0.008717658 0.041770693 -0.02878991 0.009863631
0.04584433 0.012480214 0.024412947 0.026145795 -0.028956668 -0.008184148 -0.007127032 0.0036273976
0.034965854 -0.015334744 -0.023314608 0.027026678 -0.014320705 -0.028799677 0.03067981 0.044339266
0.025496505 0.0064833136 -0.03781589 -0.009786587 -0.008625835 -0.03972418 0.0015179694 0.00096358947
0.050864615 0.027941978 -0.030799622 -0.0040255007 -0.007732856 0.019876296 0.028627101 -0.030887855
0.015462677 0.06358015 -0.0031479665 -0.07650202 -0.047630146 0.09473526 0.0016285969 -0.0019793704
0.089532934 0.0540627 -0.000117498996 0.03753333 -0.0030061498 -0.012022807 0.025987417 -0.0036330805
0.024810972 0.016202163 0.0093465615 -0.038994715 -0.008395222 0.06397637 0.08544376 -0.041098718
0.044693206 -0.040566213 0.023424717 -0.03087893 -0.000867745 0.016419483 -0.050933838 -0.015636427
0.035582643 0.0007365894 0.024858797 0.036261342 0.031920478 0.015565598 0.011636228 0.02967366

layers1d.0.bias f4 [128]
00000000: e755 36bd a2de 07bc 35a4 8abc 4869 c6bc
00000010: 814f 8abc 86ab 0cbb 134d c4bc c6cd e9b9
00000020: dcd6 1abd ebbb 41bd 964f d3bc f253 e1bb
00000030: 0c7a a4bc b133 babc 1b9a 34bd 7197 c7bc
00000040: 5248 acbb fd69 b0bb 847c acbb 1cc5 cebc
00000050: 8dd2 18bd 9e62 45bc 9a69 98bc 4acb c7bc
00000060: dbe4 89bc 53d0 53bb 2c4b 37bd a57f cdbc
00000070: bd43 793c e1f0 18bc bc92 99bb 26b9 1cbd
00000080: 2e8b 0dbd 65dd 01bc b4ae 18ba dfd0 63bc
00000090: 6e5c 3b3c 26cd cd3b f6ab 28bd 8bf2 683b
000000a0: e078 cfbc 10ad 54bc 43a6 37ba a125 d8bc
000000b0: d9ba 9ebc c567 fdbc 1f53 0ebc d126 2fba
000000c0: 3a41 fdb9 c787 2abd 6601 bcbc df6b 86bc
000000d0: 4ee6 22bd 1a3a d1bc 8b3b 97bc 57ad dabc
000000e0: 7262 acbc 4d91 f6bc df57 82bc fc15 833b
000000f0: 12cd 3fbd dc20 f0bb 57cd 52bb 2c4a e5bc
00000100: 5aa7 d1bc 165e bdbc a490 8bbc 10aa e9bc
00000110: 1ef3 07bd 408b a7bc 3dc3 dfbc 4770 28bd
00000120: dd07 353c 4723 01bd 329c 9abc 5d4a cc3a
00000130: dce4 3dbd f1d0 0d3b 68a4 493a e787 f63a
00000140: a3d7 4abd 0966 c33a 2946 6bbd 3cec 6fbb
00000150: 5b2f 0dbd cb0d 8bbc e891 ba3a b3a2 4dbd
00000160: 1b12 f4bc 4fe1 debc 6d03 7dbb 5b32 fcba
00000170: 6692 cdbc f63e 2cbd a50f 153c fc75 c7bc
00000180: 0c7a 46bc b198 f3bc 31bc 25bd 2b65 f8bb
00000190: 8b43 c0bc 0369 5abc 74ec b4bc bc4e c0bc
000001a0: 752d 30bd 3f80 b5bc 05a6 06bd d2f6 64bc
000001b0: 7aa4 bbbc 3bc9 233c 511d bbbc afc4 08bd
000001c0: e138 53bd 7430 ccbc edfa 11bc da22 b9bc
000001d0: 91ae 22bc 7d75 d7ba f1cc 8abc ab56 dbbc
000001e0: 91c6 21bd 4775 afbc daa2 45bd 1cdc 13bd
000001f0: 10d0 05bb a29c a0bc f03d 23bd 0178 e33a
-0.044515517 -0.008292826 -0.016924003 -0.024220124 -0.016883614 -0.002146454 -0.023962533 -0.00044594536
-0.037802562 -0.047298353 -0.025794785 -0.006876462 -0.020077728 -0.022729727 -0.04409228 -0.024364205
-0.0052576447 -0.0053837285 -0.005263867 -0.025240473 -0.037310172 -0.012047438 -0.018605042 -0.024388928
-0.01683276 -0.0032320216 -0.044749424 -0.02508528 0.015213904 -0.009334774 -0.0046866816 -0.03826251
-0.03455656 -0.00792632 -0.00058243726 -0.013904779 0.011435611 0.006280559 -0.04117962 0.0035544957
-0.025326192 -0.012980714 -0.0007005671 -0.02638513 -0.019376205 -0.03093327 -0.00868681 -0.00066815043
-0.00048304518 -0.041633394 -0.022949886 -0.016408859 -0.039770417 -0.0255404 -0.01846101 -0.026693983
-0.021043036 -0.030098582 -0.01591104 0.0040004235 -0.04682643 -0.007328136 -0.003216585 -0.02798947
-0.025592495 -0.023116153 -0.017036743 -0.028523475 -0.03319084 -0.020452142 -0.027314777 -0.0411227
0.011049238 -0.031527784 -0.018873308 0.0015586127 -0.046360835 0.0021639431 0.000769204 0.0018808813
-0.049522053 0.0014907728 -0.057439957 -0.0036609313 -0.03446899 -0.01697435 0.0014234157 -0.05020399
-0.02979379 -0.027207045 -0.0038606778 -0.0019241081 -0.025094222 -0.04205223 0.009097968 -0.024348252
-0.012114059 -0.029735895 -0.040462676 -0.0075804195 -0.023469707 -0.013330701 -0.022085406 -0.023475043
-0.0430121 -0.022155879 -0.032873172 -0.013974862 -0.022905577 0.009996708 -0.022841128 -0.033390697
-0.051567916 -0.024925448 -0.008909923 -0.022599626 -0.009929315 -0.0016438212 -0.016943427 -0.026774725
-0.03949601 -0.021418227 -0.04825101 -0.036098585 -0.0020418204 -0.019605938 -0.03985399 0.001735449

layers1d.3.weight f4 [128, 128]
00000000: f3fb 94bb eb03 553d da29 6a3d d277 fc3c
00000010: ba1f 3b3d b747 d0bd a1a4 debd dcdf 8a3d
00000020: 65f1 75bd 9db0 18bb bba7 a93d 1792 293e
00000030: 9e18 a43a a93d 35bd 2660 ecbb f9be 093c
00000040: 1e69 99bd 3bd6 54bd 0dda 8a3d 0ef0 4ebd
00000050: 26d4 0e3d 8580 ad3d 3152 9e3d ca68 19bd
00000060: fffb 4b3d 66a1 c93c 20fb b63d 689a dabd
00000070: 49d5 2dbd 2b1e 15bd 5193 a939 4f0f 1cbd
00000080: 40e7 52bd f496 eabc b4d1 be3d ecd3 43bc
00000090: 470e 893d 7c2f 1fbd ced6 4d3d f32b b0bd
000000a0: 52dc 173c 54c2 043e 180b d13d c1fc b0bd
000000b0: fe63 d43d 7300 7abc 304b a8bd fc8d bdbd
000000c0: 0ccb 373d 0c17 a43d af44 c1bc 9286 dfbd
000000d0: ca5f 3e3d 5011 083e a36f 0abe 7530 043d
000000e0: 0152 62bc 4911 cb3d 1d81 b63d b9f4 b4bd
000000f0: 5166 93bd 34b5 413d 9a95 063b 293b 2c3d
00000100: a585 473d f107 233d e5de 9b3d c0cf 76bc
00000110: 930c 93bd ed55 813d 354b bebb 3077 ca3d
00000120: 6b10 edbc a24e 423d e1ff ab3c 1dfc df3c
00000130: 4508 eebd 1d8f d93d 4eb8 483c ed23 27bd
00000140: d64c 333d 0299 b6bd c1cd dc3c ebca d1bd
00000150: 0643 313c d2f6 a43d 73d3 203e f6b4 723b
00000160: ad2d 8a3b ec1b cabb 2524 4cbd a3c1 06be
00000170: 799f 1e3c eaf5 32bc 1c13 b23b 98f9 62bd
00000180: 8dd9 0fbd de03 d43d 4b46 4d3d a1b7 2e3d
00000190: 36e2 b4bd 4555 b53d 0871 e83c 9a2e 90bd
000001a0: 8c23 973d 7b44 913c 61f8 fc3d 90e0 a4bd
000001b0: 0615 3dbd 4542 933d 24b3 3fbd e9aa 6bbd
000001c0: 1fb9 b6bd c5f1 01bc 342f ac3d b323 693c
000001d0: c763 893c f729 cf3d 9bd7 a23c 31ef 10bd
000001e0: 2821 33bd 7015 dc3c 11c9 e7bc 2b9d 65bc
000001f0: 70dd 083d 7bd0 98bd 1ecf 34bd abb9 f7bd
00000200: ba0a 71bd 6191 e23c 2428 003c 78bf b6bc
00000210: 9f29 d1bc 427f abbd b41a 823d 0239 973c
00000220: bcf9 3ebb 96ff acbc f9bd 483c 742b b73d
00000230: f878 8cba 3f39 4ebd f93e 233d ab5a a13b
00000240: 83a3 b3bd 7a0e 85bb 5de7 6f3d 1a16 44bd
00000250: cd72 af3d 89c3 843d 2e55 efbc 010f 87bd
00000260: db39 853d f501 653d ba19 80bd e02c 0f3d
00000270: b92c 21bd afd5 ae3d 0911 823d b7fc 8c39
00000280: c75e 93bd 0a89 f93c 836e ac3b b05a 843d
00000290: 4a02 8abd 35c3 45bd 6a2b 50bd f6f1 5abd
000002a0: fdb0 16bd 385f a73c 9c23 b23d 9b39 d23b
000002b0: b3cf b83d 2b30 a0bd a892 a7bd 3a70 a738
000002c0: 8510 f5bd 7238 a13d d404 0c3d 29de cc3c
000002d0: 5f25 c23d 8d07 a53c f17e 13bd b4cb 693a
000002e0: 93f6 87bc 0234 183e d610 ce3b 5add 5c3d
000002f0: d618 d3bc a92b ce3d b174 0d3d 4811 e43d
00000300: f506 3c3d e71b 853d 919f 783b 61e8 b33d
00000310: 3b6a 6fbd e118 633d 33ca 15be d73f 923d
00000320: 37e4 5fbd c09d 803d b4d1 203c cb08 0b3e
00000330: 1162 59bd 6641 b53d 2e86 903d a84b d6b9
00000340: c970 ca3d 1696 0dbe fe16 053e 978b 8ebd
00000350: 7808 b03d 037e 08b9 077a debb 267c b83d
00000360: 3c25 47bd 596b b5bd 73bd 903d cb0e 0e3d
00000370: ee4a 2d3d 1468 983d 0c90 16be 64da 24bb
00000380: 08b6 de3d b751 d13d 94b5 2a3d d924 05bd
00000390: 993d b4bd 1296 84bc 2476 4b3c d1a2 dbbc
000003a0: 6a86 cebc ecee a13d 6f64 63bb a557 0bbd
000003b0: 7785 17bd 837b e63b e08c b3bd 3f6e 12be
000003c0: 0b29 fe3c 162e 053e c87d 7d3d 83c4 c8bb
000003d0: 83e3 113e 8c56 0b3d 2ba4 afbd ada8 2c3b
000003e0: e9a6 25bd 1ecb 173d 8586 94bc 63c4 d53d
000003f0: cb15 e53a ff2e c4bd cfd0 92bc f759 74bd
-0.0045466362 0.05200569 0.05716882 0.030818854 0.045684554 -0.101699285 -0.10871244 0.06780979
-0.060044665 -0.002329863 0.08283945 0.16559635 0.0012519544 -0.044248257 -0.00721361 0.008407348
-0.07490753 -0.05196212 0.06779871 -0.050521903 0.03487029 0.08471779 0.077305205 -0.03745345
0.04980087 0.024613094 0.08934617 -0.10673982 -0.042439733 -0.036405724 0.0003234395 -0.038100537
-0.05149007 -0.028636433 0.093173414 -0.011952382 0.06692176 -0.038863644 0.05025368 -0.08602133
0.009268837 0.12964755 0.10207194 -0.08641959 0.103706345 -0.015258896 -0.08217466 -0.09255597
0.044871375 0.08012208 -0.023592321 -0.10914339 0.04647807 0.13287854 -0.13519149 0.032272775
-0.013813497 0.09915406 0.08911345 -0.0883574 -0.0719725 0.04729195 0.0020535947 0.042048607
0.048711438 0.039802495 0.07610873 -0.01506418 -0.07180133 0.06315217 -0.005807305 0.098860145
-0.028938493 0.04743827 0.020996036 0.027341897 -0.11622671 0.10623 0.012250973 -0.040805746
0.04377445 -0.08915903 0.02695358 -0.10243782 0.010819202 0.0805489 0.15705661 0.003703413
0.0042168708 -0.0061678793 -0.049839158 -0.13159804 0.009681576 -0.010922888 0.005434407 -0.055413812
-0.035119582 0.103523 0.050115865 0.04265559 -0.08832209 0.088541545 0.02837421 -0.070401385
0.07379827 0.01773285 0.12352062 -0.080506444 -0.046162628 0.07190374 -0.0468017 -0.05753604
-0.08922028 -0.0079311775 0.08407441 0.014229703 0.01677121 0.10115426 0.0198782 -0.03538436
-0.043732792 0.026865691 -0.028294118 -0.014014523 0.033414304 -0.074616395 -0.044142835 -0.1209596
-0.05884812 0.027657213 0.00782207 -0.022308096 -0.025532542 -0.08373882 0.063527495 0.0184598
-0.0029140553 -0.021117967 0.012252324 0.08943835 -0.0010717204 -0.050347563 0.039854977 0.0049241385
-0.08771422 -0.0040605636 0.058570255 -0.04787264 0.085668184 0.06482608 -0.029215422 -0.06594659
0.06505176 0.05591007 -0.06254907 0.034954906 -0.03934929 0.08536851 0.063509054 0.00026891168
-0.07195812 0.030460853 0.0052621975 0.0646261 -0.06738718 -0.048281867 -0.050822653 -0.05345341
-0.036789883 0.020431146 0.08698198 0.0064155585 0.090239905 -0.07821687 -0.08182269 7.9840844e-05
-0.119660415 0.07872094 0.034184292 0.025008278 0.09479784 0.020145202 -0.036009733 0.0008918599
-0.016597068 0.1486359 0.006288628 0.053922035 -0.025768679 0.10066921 0.034535114 0.11136109
0.045905072 0.064994626 0.0037936906 0.08784557 -0.05845092 0.05544365 -0.14627914 0.07141083
-0.054661002 0.062800884 0.009815622 0.13577573 -0.05307204 0.088503644 0.07056843 -0.0004087363
0.09884793 -0.13826784 0.12997052 -0.069602184 0.08595365 -0.00013016914 -0.006789449 0.090080544
-0.048619494 -0.088583656 0.070673846 0.034682076 0.042307787 0.07441726 -0.14703387 -0.0025154585
0.108745635 0.10220664 0.041677073 -0.032505844 -0.08800811 -0.01618484 0.012418304 -0.026811035
-0.025210578 0.07906899 -0.0034697314 -0.03401913 -0.036992516 0.0070337667 -0.08767104 -0.14299868
0.03102543 0.13005862 0.061887532 -0.0061269416 0.14246945 0.034018084 -0.085762344 0.0026345656
-0.04044238 0.037058942 -0.01813055 0.104378484 0.0017477808 -0.09579276 -0.017921833 -0.05965611

layers1d.3.bias f4 [128]
00000000: 07a4 e03c 7def 043c 86bf cfbc 4f8c 5c3d
00000010: 2c5f 6c3a 49ee 8d3b 83e9 caba 221c 07bc
00000020: bc32 eb3c 069f cd3c 6a19 99bc 3c2b 2bbc
00000030: 7d97 1b3d 890f bb3c dbe2 4cbd 3278 60bd
00000040: b6a3 193d b655 a63c bd60 47bd d6e7 cfbb
00000050: f1dc 2ebc 9a40 febd af3b afbd 2477 2b3c
00000060: fc18 c23c 5723 fcbc 58df a5bc 6f29 103d
00000070: 4a14 483c b7cc a03c 65c1 e7bc 7502 a13c
00000080: 5600 13bd b3c2 00bc 6233 9e3b 9503 a2bd
00000090: 0ba4 e5bb d439 0f3d 202f 4f3d eb27 bcbc
000000a0: 1360 1dbd 19b0 82bb 9f1e b3bc 93a6 48bc
000000b0: f5b2 c7bc 12a8 4cbd 3db0 9ebc d11d 2bbc
000000c0: 0076 91bc f41d 2fbd 1b06 02bd 131a efbc
000000d0: 7367 963c 10c5 823c 8119 5e3b 63ce 5f3c
000000e0: fef5 c63c 69e0 5abd 62c4 f2bb ea1a 22bd
000000f0: 796e 193d 1793 3bbb e70d 6ebd 3f44 57bd
00000100: 0906 a4bb e721 1bbd 484f ccbc 7498 8bbc
00000110: ad7b fdbc a8b5 a13c 171a 383c 12bc f1bc
00000120: 1c6e b53c 732e 1cbd d98d d73c 30df 7ebd
00000130: b0ff 15bc 188f 313c 15b5 b1bc 99bb 79bd
00000140: 5599 1abd 271a bc3b 8956 9c3c dce9 34bd
00000150: de33 38bd 9e14 90bd 5019 f93c aa6b d1bb
00000160: e38d bebc 5c69 903b 67fe e8bc 0d6e 153d
00000170: 0a62 68bd c420 09bd 5107 febc 3726 95bb
00000180: 115d 3fbd e01b bc3b bd6a 8d3c 2966 e03c
00000190: 0e97 303d 1422 8b3b 39f0 383d 5bf1 52bd
000001a0: 854a f6bc 617d 60bd 0303 b63c 520d d73c
000001b0: 43ea f33c b638 34bd 1996 40bc c37f 10bc
000001c0: df41 f0bc 604e fa3b 334f 49bd c1eb 1bbd
000001d0: 5f74 c53b caa2 0ebc bf41 debc 9aec 13bd
000001e0: ca4d 63bd 533e b8bc 2f5c fdbc d778 1c3b
000001f0: 8a4f d4bc ee1a c6bc ac2e 88bd 1b23 14bc
0.027421964 0.008113739 -0.02535988 0.053844746 0.0009016867 0.0043313843 -0.0015480969 -0.0082464535
0.028710715 0.025100242 -0.018688876 -0.01044732 0.037986267 0.022834556 -0.050021034 -0.054802127
0.037509643 0.020304542 -0.04867624 -0.0063447757 -0.010672794 -0.124146655 -0.085563056 0.010465417
0.023693554 -0.03077857 -0.0202481 0.035195764 0.012211869 0.019628866 -0.02829046 0.019654492
-0.035888992 -0.00785892 0.0048279027 -0.079108395 -0.007008081 0.03496726 0.05058205 -0.022968253
-0.0384217 -0.0039882776 -0.021865187 -0.012246746 -0.024377326 -0.04996497 -0.019371146 -0.0104441205
-0.017756462 -0.042753175 -0.031744104 -0.029187238 0.018359875 0.015963107 0.0033889713 0.013660046
0.02428722 -0.05343667 -0.0074086646 -0.03957645 0.03745887 -0.0028621608 -0.058118727 -0.05255532
-0.0050056023 -0.03787413 -0.024940148 -0.017040469 -0.030942762 0.01973994 0.011236689 -0.029508624
0.02214723 -0.038130235 0.026312755 -0.062224567 -0.009155199 0.010837339 -0.021692792 -0.060969923
-0.037743885 0.0057404223 0.019084232 -0.04416834 -0.04497134 -0.070351824 0.030407578 -0.0063910084
-0.023261016 0.004407091 -0.028441621 0.036481906 -0.056734122 -0.033478513 -0.031009348 -0.0045516747
-0.046719614 0.0057406276 0.01726281 0.027392464 0.043112807 0.004246006 0.04515097 -0.051499706
-0.03006483 -0.05480707 0.022218233 0.026251469 0.02977479 -0.043999396 -0.011754536 -0.008819523
-0.029328285 0.0076387376 -0.049147796 -0.03806663 0.0060258354 -0.008705804 -0.02713096 -0.036114313
-0.055494107 -0.022490656 -0.030927746 0.0023875737 -0.025916833 -0.024182763 -0.06649527 -0.009041573

combined.0.weight f4 [64, 128]
00000000: c520 8bbd 4d4f ca3c f9a5 2dbd bec9 81bd
00000010: a12a 1d3d 422b 7bbc dedf a03d 3390 d43d
00000020: af13 4c3d 3dcf 9b3c 8fda 9cbd c97b a13b
00000030: cff0 dbbd da4f 8c3d b313 e13d 3400 debc
00000040: 1c7d 90bd 8386 2b3c 78a3 983d 111b 943c
00000050: 54f6 393b af65 0fbd e3ce b13c 4d53 02bd
00000060: 424b f7bd f896 9f3c 97ae 973d be8d c3bd
00000070: 1c60 42bc d63b abbd d6e5 1dbd 3224 3bbd
00000080: 4709 da3d 6d0c b43d f0f6 44bd 22c7 8f3d
00000090: 7b1c db3b 49c6 b1bd 3801 dabc fa86 943c
000000a0: 60f6 b13b c9b4 113e eac1 3cbd 2908 e4bd
000000b0: f472 45bc d518 a9bd bc1a ba3d 796c babd
000000c0: 27c0 8d3d 2b1d c9bc 2435 c0bc b027 7cbd
000000d0: 9de0 dfbd 5709 14bd 9c7f 953d 62f5 4b3a
000000e0: f67d 9ebd 18e5 eeba 8358 dcbc 369d 0abc
000000f0: d2f2 a03b 2c18 9e3d 5747 b63d 93ad d63d
00000100: 5e96 a73c fa51 75bd 4acd 173e f0dd 8abc
00000110: e420 82bc 08f9 603d e4a2 c8bc 9f7f 693d
00000120: 4a1e d3bd 76d2 79bd 06e0 32bd 0ab9 593c
00000130: a868 6f3d 7017 2f3c b0bd a53d 4b5e 213d
00000140: e17b 263d efbf ec3d 729f e6bc 7240 763d
00000150: 7194 093e f074 993d a23e b7bd 1aca 4ebb
00000160: c444 b63c 1227 5abd 7872 b73d d1b7 d5bb
00000170: 5608 6a3d 130f 183e 7e68 9e3d 872e 09be
00000180: fb32 5b3d 2f59 06bd 8006 9f3d 1c29 e63c
00000190: 35a5 a9bd d654 cabd 5bc0 e4bc 9e58 b03d
000001a0: 9b8f c9bc c5f2 523d 6c8f 8f3c b4a3 8fbd
000001b0: 187f 12be b6d2 a33d 454f 89bd 21df 973d
000001c0: 43ad 533d ba2e e83d 39bc 053d ed05 a43c
000001d0: 089d 24bd a994 513d 5bb5 3ebd edc3 b53c
000001e0: 3d54 b53d 6c5d 51bd 3430 983c 85b8 a4bd
000001f0: 1cef b13c 7551 f63d bcc1 f03c 902e 07be
00000200: bd15 35bc 5e01 453d 214e c237 6fd4 0dbd
00000210: b963 103e 77dd 883d 0b2d f9b9 114d d03c
00000220: eaa6 31bd f463 0dbe 946b 0c3c 2cd5 b6bd
00000230: e733 95bd 5168 2c3c ccf6 963d 31e7 803d
00000240: 80ff 2e3d 4822 22bd 2911 a13d 0b7f 183c
00000250: 2ed4 373d b636 9ebc 9c76 cc3d f840 993d
00000260: e671 eebd 65d5 da3d dd54 bdbc b1cc a53d
00000270: e642 82bc 5668 633d a0f1 be3d b825 87bd
00000280: f15c 003d de8b b03c a328 59bd 29b5 083e
00000290: 87b4 853d 55a6 bc3c 9c0e 26bd 4c04 27bd
000002a0: 7e6f 073d 3a62 f8bc d1a1 103d af84 18bd
000002b0: 349e 0abd 8a40 58bd 4679 f13d aa5b 28bd
000002c0: c372 af3d 1afa c13d 2b70 d5bd cd21 f9bc
000002d0: 65d5 97bd 3968 033d 1489 c63d 515d 463c
000002e0: d94f 87bd d10b c9ba 0a8f 493d a60e 66bd
000002f0: 45f2 65bd ec97 953c d5aa 3ebc 3eef c1bc
00000300: c4d9 ff3d 2154 e43c 988c cc3b f37b 5dbd
00000310: 3bee e53d 959e 21bd c567 9dbc 4514 92bc
00000320: 6a1b 5d3d 965f c83c 7d4e b53d 2dd8 de3c
00000330: db96 33bd 1ae2 e7bd 9f58 7ebd ee26 c53b
00000340: 7f26 813d 82a3 09bc a4f4 babd 78f6 9e3d
00000350: 8d7d 063b 6aa2 8f3d e16d 16bc 0c90 413d
00000360: 38cb 8ebd a1f4 1abe 6104 303d 4a49 cb3a
00000370: 5e87 a6bd 9fba b13b a7e1 42bd 572f 32bd
00000380: 91d2 1f3d 1277 353c 7cf6 e03d 07f2 7d3d
00000390: 24b4 2e3c ea8b a13c 113e 413b c465 a3bd
000003a0: 31c5 4bbd bf12 a8bc 4d3c 7fbd ec4a fcbc
000003b0: 70ed 4dbd ee60 353d 846a b43c db09 3fbc
000003c0: ac0f 6abd 9323 bdbd edfd db3d adeb acbc
000003d0: 1e24 6a3d 6c19 47bd 3e85 e5bc f20a 6e3d
000003e0: 454c d3bc 2da6 20bd 71a3 9e3d 4ff4 fbbc
000003f0: 4db9 40b9 831c 603d 277f c93d 71bb 043d
-0.0679336 0.024696017 -0.042394612 -0.063373074 0.038370732 -0.015330138 0.07855199 0.10379066
0.04982346 0.019019717 -0.07658874 0.0049280864 -0.1073929 0.06851168 0.109900855 -0.027099706
-0.07055113 0.010469082 0.07453054 0.018079313 0.0028375583 -0.035009082 0.021705097 -0.031817723
-0.12074901 0.019481167 0.07406347 -0.095485196 -0.011863735 -0.08361022 -0.038549267 -0.045688815
0.10646301 0.087914325 -0.04808706 0.070204034 0.0066867447 -0.08680398 -0.02661191 0.018130768
0.0054309815 0.1422912 -0.04608337 -0.11134369 -0.012051333 -0.082566895 0.090871304 -0.09102721
0.06921416 -0.024550041 -0.02346284 -0.061561286 -0.109315135 -0.03614172 0.0729973 0.00077804003
-0.07738869 -0.0018226234 -0.026897674 -0.008460334 0.004911759 0.07719454 0.08900326 0.104823254
0.020457443 -0.059892632 0.14824405 -0.016951531 -0.015884824 0.054924995 -0.024491735 0.057006475
-0.103085116 -0.060991727 -0.043670677 0.013288746 0.058449417 0.01068674 0.08092821 0.039396565
0.040645484 0.11560046 -0.028152201 0.060120054 0.13435532 0.07493007 -0.08947493 -0.0031553567
0.022249587 -0.053259917 0.0895738 -0.0065221568 0.057136856 0.148495 0.07734774 -0.13396655
0.053515416 -0.032799896 0.07764912 0.028095774 -0.08283464 -0.098794624 -0.027923753 0.086106524
-0.02460461 0.051501054 0.017524444 -0.07013646 -0.14306295 0.07999174 -0.067045726 0.07415605
0.051678907 0.113370374 0.032650206 0.020022357 -0.04018882 0.051167164 -0.046559673 0.022188151
0.08853958 -0.051114485 0.018577673 -0.08043007 0.021720462 0.120272554 0.029389255 -0.13201356
-0.011052546 0.048097007 2.3162984e-05 -0.03462642 0.14100541 0.06682866 -0.0004752654 0.025427373
-0.043372072 -0.1380766 0.0085705705 -0.08927378 -0.0728529 0.010522918 0.073712915 0.06294096
0.042724133 -0.039583474 0.07864601 0.009307633 0.044880085 -0.019313198 0.099835604 0.07483095
-0.11642818 0.10685233 -0.023111755 0.080956824 -0.01590104 0.055519424 0.0932343 -0.06598991
0.031338636 0.021551069 -0.05301727 0.13350357 0.065285735 0.023028532 -0.040541276 -0.040775582
0.03306531 -0.030320276 0.03531057 -0.037235912 -0.03384228 -0.052795924 0.11790709 -0.041103043
0.08566811 0.09471531 -0.10421785 -0.030411625 -0.07413749 0.032081816 0.09694114 0.012107209
-0.066070266 -0.0015338605 0.04920868 -0.056166314 -0.05613925 0.018260919 -0.011637409 -0.02367365
0.12492707 0.027872147 0.006242346 -0.054073285 0.112270795 -0.039457876 -0.01921452 -0.01783193
0.053981222 0.024459641 0.08852861 0.02720269 -0.04384504 -0.11322422 -0.062096234 0.0060166037
0.06306171 -0.0084008 -0.09128693 0.07761854 0.0020521611 0.070134 -0.009181471 0.047256514
-0.06972355 -0.15132381 0.042972926 0.0015509513 -0.08131288 0.0054238583 -0.04757848 -0.043502178
0.03901917 0.011075752 0.10984513 0.061998393 0.010663066 0.019720037 0.0029486457 -0.07978395
-0.049748603 -0.020516751 -0.062313367 -0.030797444 -0.050275266 0.044281892 0.022023447 -0.011660065
-0.057143852 -0.09235301 0.10741792 -0.021108473 0.05716335 -0.04860823 -0.028017636 0.058115907
-0.025793204 -0.039220978 0.07746018 -0.030756144 -0.00018379577 0.05471469 0.098387055 0.03240532

combined.0.bias f4 [64]
00000000: 9f5d a33c 6c5f 13bd 1c5b 7b3c 2941 8f3c
00000010: 2bca 6e3d 824c 933d 8861 abbc 0f25 f23b
00000020: fab2 10bd 0601 7e3c ad48 8fbc 38d2 833d
00000030: de1c e23c 0ea4 2dba 46b5 fcbb 33e8 263d
00000040: 6d53 52bd 48b1 91bc 6083 833d f3cc b43d
00000050: 18b0 0d3d f830 cebb 671e bd3d 4cdf 0c3d
00000060: 3c51 703d 11e2 933c ed02 fc3c 4199 29bd
00000070: 862f 213c 1c0c 723c 3421 553c dd4c c73c
00000080: 6efd c7b9 58ea 6b3c 708e 1c3d 6ece 333d
00000090: b0e7 c43b 2c11 0abc 34cb 3abc b503 65bb
000000a0: 2229 80bc a70d 6c3c a557 5dbc e7e4 2c3d
000000b0: 0878 b63d d7d9 06bc af6f 50bc 9dc8 a83d
000000c0: e63d e53b 2d9d 44bc 8ec0 88bc 84fe ad3d
000000d0: 4027 a8bc b4f2 6b3d 6160 8c3d 9074 333d
000000e0: 5eae bf3b a87b 2e3d c2e1 a8bc df8a 7b3d
000000f0: a02f 193c 4ce5 92bb 66f8 493d 223b b63a
0.019942103 -0.035979673 0.015341546 0.017487125 0.05829827 0.07192327 -0.02092053 0.0073896716
-0.035326935 0.015503174 -0.01749071 0.064365804 0.027601656 -0.00066238723 -0.007712039 0.040748786
-0.051349092 -0.01778473 0.06421542 0.088281535 0.034591764 -0.0062924586 0.092343144 0.03439264
0.05867122 0.018052133 0.030763114 -0.04140592 0.009837991 0.014773395 0.0130084045 0.024328643
-0.00038145058 0.014399134 0.038221776 0.04389804 0.0060090646 -0.008426946 -0.011400986 -0.0034944837
-0.015644614 0.014407552 -0.013509666 0.042210486 0.08909613 -0.008230648 -0.01272194 0.08241389
0.0069959043 -0.012000364 -0.01669338 0.08495811 -0.020526528 0.057604507 0.0685432 0.043812335
0.0058496436 0.042598397 -0.020615462 0.061411735 0.009349734 -0.0044829007 0.049309157 0.0013903121

combined.3.weight f4 [64, 64]
00000000: a23e 00bc c51c 37bc 443f 86bd d54e a13c
00000010: ea7f b4bd b873 a3ba d68a 243e eeb4 b0bd
00000020: 969b f53b 94d8 80bc 6179 853c 177d 043c
00000030: 3185 dfbd e7f8 f4bd 72bc 5abd 6ac8 38bd
00000040: cfe7 9abd 34c5 9dbc 9eea 263d c3da a13d
00000050: 6996 29be ef55 14be d4b2 a0bd 4203 a7bd
00000060: 8a09 13be 4a46 69bd cde2 55bd 76f4 11be
00000070: db52 3dbe 3ae5 c2bd a3aa c6bd 0b16 e6bc
00000080: 2250 273d 1f11 b23d e29c bfbd 634f b73d
00000090: 0dda cabd 80cf 843d 8942 a4bd 459b a4bc
000000a0: e8ab 84bd da7a fdbd 9898 c9bd 8217 0bbc
000000b0: f77c 043e 1a00 1dbe 2194 b63d 03be 27bc
000000c0: 2d75 edbd 757b c9bd abb9 10bc 0007 e23d
000000d0: 5950 91bd 67b6 efbd e5b9 143e 14d5 d1bd
000000e0: 0280 7a3d 7ede 8f3d 4fb9 83bd a8a1 16be
000000f0: 5fc1 d5bc 8ff8 fe3d cfba 5dbd f033 12be
00000100: ed15 b7bd 4c29 67bd d180 e03d 5389 bc3d
00000110: d387 1ebe 74b9 16bd 250d d63a 0f41 683d
00000120: 288c 65bd f5ae b8bc e367 a6bc 4330 f1bd
00000130: c6df 21bd ba47 58bd 3729 1abe 5055 09be
00000140: 13b5 26be b4ca aabd ed95 5cbd 5263 2c3d
00000150: 4e8b b7bd c78b 04bd af40 e7bd 2a18 23be
00000160: 8f72 013d 0d99 81bc a206 1abc 327e 07be
00000170: a089 16be e1dc 003d 3e80 fe3c b3fb a33d
00000180: 8816 f8bc bc9d 003e cd50 b4bd 4c61 a4bd
00000190: 9025 2dbe d341 8a3d 6a42 18bd 0059 0f3e
000001a0: c4f9 3fbc e228 e8bd 9633 053c a9c3 c3bd
000001b0: ad7e 03be b2ac 35be 8c29 c0bd c3dd b0bc
000001c0: c870 32be b23a b83d 2d52 05be 3bb4 6a3d
000001d0: 6b8c 98bd da7b ccbd 9036 6b3b 7b94 523c
000001e0: f041 b53d cbdc 233d a18d 2bbe d4bb f93b
000001f0: e889 0fbe 807a 553c 79e2 2c3d d06c 913b
00000200: e6ba 8dbd e098 f9bc 594e 68bd e680 a53d
00000210: 797b 1bbe 28fb e5bb 3f73 7dbd 32e8 623d
00000220: a550 173d e13e 81bd 8773 cfbd a05a 23be
00000230: 6a15 ddbb 2c87 bdbd 2b30 38be 6073 61be
00000240: 624f d2bd ea2a bebd acdd 85bc 155e e4bc
00000250: 27b3 58bb 3a2b 65be 0ca2 da3b d0df 81bd
00000260: 9d31 ccbb 8f9b 9dbd 8921 f43d 58c3 36be
00000270: 5bbc 2cbe 2e7e 943d 4873 19be a4a5 fa3d
00000280: bafa 27be bc73 db3d 301e 48be 3d69 d43b
00000290: 85fa 80bd f7f0 ed3d 25e0 03bc 24a5 93bd
000002a0: 872b 5dbe 2e11 65be 78d6 bebd dc8b ddbd
000002b0: 40a8 963c e2c0 80be 1a32 96bd cdd5 bdbb
000002c0: 2104 5bbe 8275 cd3d dbb6 633d 268b 333a
000002d0: 178d b9bd 1b3e 0ebe 4925 9abd 5e1d 3cbe
000002e0: 6770 e53d 78c8 1ebb 210e a4bd 8859 c1bc
000002f0: 4107 31be 30b7 d5bd bbef ef3c 2bb8 00bd
00000300: 7b72 833d 6be8 91bd 5aa5 9ebd 5440 59be
00000310: 270f cb3d acaf 12be 17ee b1bc 12f9 68bd
00000320: 218b d7bc 7ebf 423d 63da 3c3d b035 82bd
00000330: 5388 a9bd 11f7 06bd 9b46 693d b3e9 ff3d
00000340: 7e10 d03d 9ce2 0a3e 5d5d debd e90e 1bbd
00000350: 73d1 f73d 05dc a5bd 045a 28be 561d 973d
00000360: 627f b7bd 9627 d03d ff8d 3ebe e7ed 063e
00000370: dcda 173d 219b 52be 766f 833b cc01 02be
00000380: c907 e1bb a124 d2bc 2e0e ccbc 4f62 2fbe
00000390: f2c4 afbc 5148 e63c 48d2 23bd 7a0f 50bd
000003a0: 4c9f 74bc 41d2 513c 5267 2f3e cc8d 993d
000003b0: aeeb 19bd 766e 3bbd caef 403e 0caf b2bd
000003c0: cfa5 b43c 3a44 20be f461 18bd 2d47 86bd
000003d0: 74f9 da3d 65f3 57bd 4362 24be 7db0 fd3c
000003e0: c39b 46bc f39f 54bd 3459 af3c 3a2d 85bd
000003f0: 1c4b a03d 5801 00be df9e 5cbe 3003 9f3d
-0.007827433 -0.011176293 -0.06555036 0.01969091 -0.0881346 -0.00124704 0.16068587 -0.086282596
0.007495354 -0.015728272 0.01629323 0.008086464 -0.10914076 -0.11961537 -0.05340237 -0.045113005
-0.07563745 -0.019259073 0.040751092 0.079030536 -0.16561283 -0.14485906 -0.07846609 -0.08154918
-0.14359108 -0.0569518 -0.052218247 -0.1425341 -0.18488638 -0.09516378 -0.09700515 -0.028086683
0.040847905 0.08694672 -0.09356095 0.08950689 -0.09904871 0.0648489 -0.08020503 -0.02009357
-0.06478101 -0.12376948 -0.09843558 -0.008489491 0.12938295 -0.1533207 0.08914972 -0.010238173
-0.11594615 -0.09838001 -0.008833329 0.110364914 -0.07095403 -0.11704712 0.14524038 -0.102457196
0.061157234 0.07024859 -0.06431829 -0.14710104 -0.026093183 0.124497525 -0.054133233 -0.14277625
-0.08939729 -0.05643587 0.1096207 0.0920588 -0.154815 -0.036797956 0.0016330822 0.05670267
-0.056041867 -0.022544364 -0.020313209 -0.11776783 -0.039520048 -0.05280278 -0.15054785 -0.1341145
-0.16280012 -0.08339444 -0.053853918 0.042086907 -0.08962117 -0.032359865 -0.11291634 -0.15927187
0.031603392 -0.01582005 -0.009400995 -0.13231733 -0.14700937 0.031460647 0.03106701 0.08006992
-0.030284181 0.12560171 -0.08804474 -0.080263704 -0.1690886 0.06750836 -0.037172712 0.13998795
-0.011717264 -0.11335923 0.008129975 -0.095588036 -0.12841292 -0.1774166 -0.093829244 -0.02159012
-0.17425835 0.0899557 -0.13019629 0.057300787 -0.074486576 -0.0998456 0.0035890676 0.012852783
0.08850467 0.040005486 -0.16753246 0.007621268 -0.14017451 0.013029695 0.04220817 0.0044380203
-0.06920414 -0.030468404 -0.056715343 0.08081226 -0.1518382 -0.0070184655 -0.061877485 0.05539722
0.036942143 -0.06310821 -0.10129457 -0.1595254 -0.0067469375 -0.092542976 -0.17987125 -0.22016668
-0.10269047 -0.09285529 -0.016341053 -0.027876893 -0.0033065767 -0.22379771 0.0066721495 -0.06341517
-0.0062315003 -0.07695686 0.11920459 -0.17847955 -0.16868727 0.07250629 -0.14985383 0.12238625
-0.16404238 0.10715434 -0.19542766 0.006482272 -0.06297783 0.11618226 -0.008049046 -0.072092324
-0.21598636 -0.22369835 -0.093182504 -0.10817692 0.018390775 -0.25147158 -0.07333775 -0.0057933093
-0.21388294 0.100321785 0.055594306 0.0006849043 -0.09060114 -0.13890879 -0.07526643 -0.18370578
0.1120308 -0.0024228375 -0.080105074 -0.023602262 -0.17287923 -0.10435331 0.029289117 -0.031425636
0.0641832 -0.07124408 -0.07746382 -0.21215945 0.099149995 -0.14324826 -0.021719975 -0.056878157
-0.026311459 0.047545902 0.046106707 -0.06357896 -0.08277955 -0.032950465 0.0569521 0.124957465
0.10159396 0.13563007 -0.108576514 -0.037856016 0.12100496 -0.08098606 -0.16440588 0.07378642
-0.08959843 0.101638004 -0.18608855 0.1317669 0.037073955 -0.2056699 0.00401109 -0.12695998
-0.006867383 -0.025652232 -0.024909105 -0.17127346 -0.021456216 0.028110655 -0.03999546 -0.05079601
-0.014930557 0.012806476 0.17129257 0.07497749 -0.037578277 -0.04575964 0.18841472 -0.08724794
0.02205172 -0.15651026 -0.03720279 -0.065565445 0.10692111 -0.052722353 -0.16053109 0.030967945
-0.012122097 -0.051910352 0.02140484 -0.06502767 0.07826826 -0.12500513 -0.2154498 0.0776428

combined.3.bias f4 [64]
00000000: 0f7c 17bc 927f d03d 9198 bb3d 4902 af3d
00000010: c4b1 e63d 82ac 2bbb e668 903c a252 213d
00000020: 22fd b73d 7ca5 5a3d b5c3 a93d 5d90 0a3e
00000030: 3bfd 663c bec5 643d 2ef3 d53d 092c a63b
00000040: 8722 b23d cd95 643d ed86 943d c7ae 273d
00000050: 2d96 2c3d ebcd 8f3d 4efa ac3d ac4a a63d
00000060: f192 d93d 826a a13d 95c9 073d 2b9d e93d
00000070: d853 153d 1be0 dc3d 7fa9 0c3e 3a2c 803d
00000080: ba80 a4bc 2fff e63c 4b10 cc3d 6402 303d
00000090: d691 ef3d 375f e33d c615 7c3d f23d df3d
000000a0: 4dca a83d 2c55 803c 8dc1 ec3d b064 e03d
000000b0: 8dfb d33d 4e44 b43d b183 cb3c d386 a23d
000000c0: c833 ce3c 3be8 353d 3dcc eb3d 2e5f ba3d
000000d0: c794 e33d 4dbb e03c aaa4 4f3d 5040 b13c
000000e0: 31e6 8b3d cfaa a63d d08b 7c3d 7e47 d23d
000000f0: 6d8b d23c a471 c23d 6cb2 243d d9bd 693d
-0.0092458865 0.10180582 0.09159959 0.08545358 0.11264375 -0.0026195352 0.017628144 0.039385445
0.08983828 0.053380474 0.08289281 0.13531633 0.014098461 0.055852644 0.104467735 0.0050711674
0.08697992 0.055806924 0.072522976 0.040938165 0.042135406 0.070216976 0.08446179 0.08119711
0.1062373 0.07881643 0.033151228 0.114069305 0.036456913 0.10784932 0.13736533 0.062584355
-0.020080913 0.028197853 0.09964045 0.04297103 0.11697738 0.11102145 0.061544202 0.10900487
0.08241711 0.015665613 0.115603544 0.109567046 0.10350714 0.088020906 0.024843069 0.07935872
0.025171176 0.044410925 0.11513565 0.09100185 0.111123614 0.027433062 0.050694145 0.021637112
0.06831015 0.08138048 0.061656773 0.10267542 0.025701249 0.094943315 0.04020922 0.05706582

combined.6.weight f4 [1, 64]
00000000: 4943 c6bd f8d6 c0bd 6d97 f1bd ef6d e93c
00000010: 6498 87bd 7adb 7fbd f3cf 033d 497f bbbd
00000020: 0ce7 803d 4796 683d aa1b 94bd cece 40bd
00000030: 707d f93c e413 063d 909b 4fbd 01a7 8b3d
00000040: 6d8a 113d ab18 27bd a2fa 9a3d 3d18 9ebd
00000050: 85f7 7d3d 91c7 783d 76d8 83bd 9e41 343d
00000060: 9009 b9bd 94ec 5e3d 01cc 19be 0028 7ebd
00000070: 1b7d 663d 5511 3e3d 339a 47bd afd3 2c3d
00000080: 404c a0bd a546 c6bd 88fb 963d 8db8 22bd
00000090: 7176 6cbd 692d 76bd c24e 063d 8224 4cbd
000000a0: 0ebc 1c3d 6ba7 ad3c e22c 2f3d 20fc 523d
000000b0: fa4e 5ebd ca69 363d bede e2bd 14c8 c1bd
000000c0: b9f0 a1bd 45fc 673d f563 f83c f560 883d
000000d0: a680 fc3c 551a d5bd 1096 54bd 1054 803d
000000e0: ae62 99bd 96c0 cdbd 897f 8abd ee47 b6bd
000000f0: 5e18 953d 2963 9cbd 65d8 673d 9227 b7bd
-0.096808024 -0.09416002 -0.1179646 0.028494803 -0.06620863 -0.06246517 0.032180738 -0.09155137
0.06294069 0.05678394 -0.07231839 -0.047072224 0.030455321 0.032733813 -0.050685465 0.06818963
0.035532404 -0.04079501 0.07567336 -0.07719467 0.06200363 0.060737196 -0.06437771 0.04400789
-0.09035027 0.054424837 -0.15019228 -0.062049866 0.056271654 0.046403248 -0.04873104 0.042194065
-0.078270435 -0.09681443 0.073721945 -0.039726783 -0.057730142 -0.0601019 0.032789953 -0.049839504
0.03826528 0.021197995 0.042767413 0.051509976 -0.054274537 0.044534482 -0.11077641 -0.0946199
-0.07907242 0.056637067 0.0303211 0.06659118 0.030823063 -0.10405413 -0.051900923 0.06266034
-0.07489525 -0.100464985 -0.06762607 -0.08900438 0.07280038 -0.07636101 0.056602854 -0.08943094
