data/models/nov12_24_undersample/fold3_best_model.pt (torch, 775603 bytes, 9 tensors)

layers1d.0.weight f4 [128, 1280]
-0.018287275 0.06593243 0.050646912 0.007050819 -0.046214346 -0.027431477 -0.031162877 0.12176095
0.014164557 0.044783387 0.018812738 0.10115634 -0.010338424 0.011375044 0.03585552 0.029525362
0.06777472 -0.04088853 -0.0022463046 -0.006859431 0.03997078 0.05597547 -0.03125115 0.002595368
0.062417734 -0.05213622 0.011321319 -0.00757564 0.020705946 0.06457347 0.046805277 0.026405375
-0.01698339 -0.058348738 0.0062615806 0.08809867 0.0697605 -0.027894074 0.053205833 0.028452277
-0.031649213 0.046596583 -0.009618354 0.031017553 -0.028256785 -0.06147216 -0.01751422 0.070933804
-0.043039717 -0.010812863 0.018314175 -0.0014183035 0.077697895 0.014397152 0.04061579 0.022042202
-0.014910806 0.05709131 0.004224778 -0.013681459 0.046617787 -0.020309065 -0.06464376 -0.026070386
-0.038744528 -0.026165921 -0.006945307 -0.012868595 0.0032107169 -0.007028932 -0.034070477 -0.063974105
0.03521857 -0.014765088 -0.06634109 0.01542599 0.00094452215 -0.004380723 0.0037970822 -0.009614425
0.0028889175 0.051988795 -0.020559475 0.050771188 -0.04735565 0.02072904 -0.0043959464 -0.020483999
0.008474335 -0.05710856 -0.00690221 0.0044467784 -0.058297437 0.022643859 -0.016308552 0.014978438
0.046575 0.06452053 -0.015429025 -0.07396714 -0.030041698 -5.612428e-05 -0.013437183 0.08732214
-0.011689065 0.03481401 0.008509383 0.0146037275 -0.013248728 0.016423149 -0.0018453131 0.012013463
0.020402234 -0.00090026355 -0.014619468 0.0065336586 0.03401485 -0.025169335 -0.011831804 -0.027398592
0.038150113 0.022817826 0.017530097 0.01615644 0.026556017 -0.0328874 0.0319572 0.049243826
-0.028302366 -0.0886088 -0.03825541 -0.019502865 0.038719866 0.07061635 0.010445429 0.025384076
0.0024175965 -0.0031433818 0.010603696 0.013037212 0.018967362 0.015090951 0.05453386 -0.0034978315
-0.016047895 0.012252735 -0.063925095 -0.034228694 -0.026241977 -0.03377616 0.032613043 -0.03541644
-0.0037367907 0.039488036 -0.061829537 -0.018324882 0.020182516 -0.02844443 0.010414862 -0.052383166
0.012134141 -0.06483308 0.0044168066 0.084321104 0.07592679 0.07235144 -0.05290339 0.04791505
0.019804915 -0.040755942 0.001140625 -0.022152368 -0.0077549494 -0.027645286 -0.04181864 0.035499435
0.0051914747 -0.030549694 -0.015850807 -0.0015787835 0.02414915 -0.05776696 -0.038674895 -0.1485725
-0.07210309 0.007915952 0.024206296 -0.05129403 -0.118015446 0.017437829 -0.036923572 -0.046284415
0.028293977 -0.010495443 0.028889287 -0.018672591 -0.04299089 -0.05364259 0.06731802 0.0055142133
-0.027446045 -0.012622439 0.005293481 0.05264703 -0.055701155 -0.004673998 0.0133538395 -0.036279064
-0.034212865 0.017099205 0.0055678235 -0.05800959 -0.110225506 0.059985552 0.004053678 0.04994388
0.054554846 0.08032119 -0.005851986 -0.008185917 -0.07583188 0.025299763 0.02145305 -0.006929774
0.0028432866 -0.062153343 0.015946573 -0.052833058 0.0036328111 0.008045099 0.009277898 -0.0078662755
-0.019669399 0.045598313 0.04693537 0.028114613 0.011294813 -0.05577167 0.025779324 0.04822513
0.022802634 0.010405031 0.049447782 -0.0007120958 0.08428244 -0.0040297126 -0.07006585 0.023117587
-0.036707073 -0.07256008 0.03649797 0.040599898 -0.0009891845 -0.04829333 0.0029259555 -0.0018701531
00000000: 32cf 95bc 9507 873d 2373 4f3d 8f0a e73b
00000010: 414b 3dbd fab7 e0bc 4a49 ffbc ce5d f93d
00000020: 7512 683c c96e 373d 2c1d 9a3c 0e2b cf3d
00000030: 7e62 29bc 645e 3a3c 3ddd 123d 2cdf f13c
00000040: 79cd 8a3d bb7a 27bd bd36 13bb 14c5 e0bb
00000050: 67b8 233d 8946 653d 3501 00bd 0d17 2a3b
00000060: bda9 7f3d ca8c 55bd 0e7d 393c 133d f8bb
00000070: 849f a93c 183f 843d e4b6 3f3d 1650 d83c
00000080: c020 8bbc 16ff 6ebd f22d cd3b 136d b43d
00000090: 98de 8e3d 1d82 e4bc 5cee 593d c014 e93c
000000a0: 9ba2 01bd 0fdc 3e3d 4d96 1dbc 8618 fe3c
000000b0: c67a e7bc 3bca 7bbd fb79 8fbc be45 913d
000000c0: 6a4a 30bd 6f28 31bc 9c07 963c 5ee6 b9ba
000000d0: 1320 9f3d 08e2 6b3c be5c 263d d991 b43c
000000e0: 744c 74bc 94d8 693d 0270 8a3b 3328 60bc
000000f0: 4bf2 3e3d 325f a6bc f363 84bd 9091 d5bc
00000100: 95b2 1ebd ea59 d6bc 7595 e3bb cdd6 52bc
00000110: e46a 523b f552 e6bb 7c8d 0bbd db04 83bd
00000120: 5941 103d 45e9 71bc d6dd 87bd 4bbd 7c3c
00000130: cf99 773a 2b8c 8fbb 78d8 783b d285 1dbc
00000140: fe53 3d3b 34f2 543d 586c a8bc 73f5 4f3d
00000150: 00f8 41bd f3cf a93c df0b 90bb 0fce a7bc
00000160: f0d7 0a3c aaea 69bd ef2b e2bb 48b6 913b
00000170: 4bc9 6ebd 9d7f b93c 8399 85bc 1f68 753c
00000180: 6dc5 3e3d 5723 843d 05ca 7cbc 157c 97bd
00000190: 021a f6bc fd66 6bb8 a127 5cbc f3d5 b23d
000001a0: 7e83 3fbc 2399 0e3d f06a 0b3c 7944 6f3c
000001b0: 3111 59bc d789 863c 6fde f1ba 1ed4 443c
000001c0: 9622 a73c aaff 6bba 7e86 6fbc 4d18 d63b
000001d0: 2853 0b3d ec2f cebc 2fda 41bc 0373 e0bc
000001e0: 4b43 1c3d 73ec ba3c 479b 8f3c 835a 843c
000001f0: 018c d93c f0b4 06bd 8ee5 023d e5b3 493d
00000200: 5dda e7bc 8878 b5bd b4b1 1cbd 79c4 9fbc
00000210: b998 1e3d 4e9f 903d 4e23 2b3c 44f2 cf3c
00000220: 8a70 1e3b 3201 4ebb 20bb 2d3c 089a 553c
00000230: 7161 9b3c 0940 773c e65e 5f3d e03b 65bb
00000240: e076 83bc b2bf 483c 29eb 82bd 6333 0cbd
00000250: 6af9 d6bc df58 0abd 4195 053d d410 11bd
00000260: f2e4 74bb 35be 213d f840 7dbd 101e 96bc
00000270: ce55 a53c 4b04 e9bc 19a3 2a3c bb8f 56bd
00000280: 47ce 463c 35c7 84bd dcba 903b 8bb0 ac3d
00000290: 817f 9b3d fe2c 943d 3ab1 58bd 9242 443d
000002a0: eb3d a23c b4ef 26bd 0681 953a e278 b5bc
000002b0: 3b1d febb 5e78 e2bc 064a 2bbd db67 113d
000002c0: 3f1d aa3b 5a43 fabc 8dd9 81bc 2fef ceba
000002d0: 70d4 c53c 0c9d 6cbd 9169 1ebd 6423 18be
000002e0: c9aa 93bd e9b1 013c 484c c63c b019 52bd
000002f0: 15b2 f1bd c7d9 8e3c 2c3d 17bd ba94 3dbd
00000300: c5c8 e73c 14f5 2bbc 3aa9 ec3c 43f7 98bc
00000310: 3717 30bd 55b8 5bbd 08de 893d 93b0 b43b
00000320: 87d6 e0bc 59ce 4ebc f074 ad3b 6aa4 573d
00000330: e526 64bd 5628 99bb 10ca 5a3c 5b99 14bd
00000340: ca22 0cbd a213 8c3c 4a72 b63b 779b 6dbd
00000350: e9bd e1bd 69b3 753d b7d4 843b f491 4c3d
00000360: e774 5f3d 707f a43d 04c2 bfbb 391e 06bc
00000370: bf4d 9bbd 7341 cf3c 4fbe af3c 2813 e3bb
00000380: 6f56 3a3b 8194 7ebd 63a2 823c 7a67 58bd
00000390: 7514 6e3b 97cf 033c 5302 183c 8de1 00bc
000003a0: b821 a1bc 4cc5 3a3d 4d3f 403d 9e50 e63c
000003b0: e10d 393c d670 64bd 292f d33c b787 453d
000003c0: 97cc ba3c dd79 2a3c c289 4a3d f1ab 3aba
000003d0: 469c ac3d ae0b 84bb af7e 8fbd 1861 bd3c
000003e0: 285a 16bd 619a 94bd e57e 153d 144c 263d
000003f0: 86a7 81ba 3acf 45bd 63c1 3f3b ed1f f5ba

layers1d.0.bias f4 [128]
-0.03817595 -0.002777164 -0.053430986 -0.037321564 -0.019594163 -0.043079928 -0.012137368 -0.050465398
-0.035949513 -0.007538123 -0.017981462 -0.04959428 -0.025438964 0.0077068335 -0.0040983846 -0.022376446
-0.048405275 -0.041599557 -0.00947741 -0.00055441586 -0.0009840168 -0.047553033 -0.007853843 -0.043219626
-0.046290994 -0.0012604712 -0.041952685 -0.036744885 -0.037805203 -0.055449344 -0.03012286 -0.038671322
-0.028551504 -0.0073315133 -0.061939895 -0.05521533 -0.033914976 -0.039575867 -0.037107863 -0.05444711
-0.009394646 -0.023466514 -0.029002124 -0.00496034 -0.042013656 -0.038045283 -0.0059957304 -0.02428919
-0.0046931286 -0.051949814 -0.047464855 -0.026599724 -0.059194542 -0.013542197 -0.05745204 -0.05158237
-0.029844549 -0.014974729 0.0019965614 0.006089439 -0.017050756 0.0031782102 -0.032622404 -0.04336978
-0.03452752 -0.0016345994 -0.03222554 -0.020533385 -0.038521096 -0.02303195 -0.033633787 -0.02925261
-0.0004370673 -0.018929554 -0.033669587 -0.05940695 -0.019897632 -0.046638016 -0.035613492 0.0037464183
-0.0422576 -0.0020712675 -0.002319362 -0.037045155 -0.04875986 -0.044001598 -0.014262542 -0.00016523828
-0.046622556 -0.031966303 -0.050402705 -0.05617896 -0.022941016 -0.014557498 -0.046237446 -0.04313836
-0.049465965 -0.03718183 -0.053318642 -0.038407814 -0.032439906 -0.047979124 -0.014310314 -0.044897214
-0.010552888 -0.028723648 -0.04203122 -0.04045586 -0.02984055 -0.042174935 -0.051048186 -0.029820552
-0.024800092 -0.04353602 -0.047744054 -0.04567673 -0.02135955 -0.03642444 -0.03471884 -0.0062541123
-0.0038859337 -0.005962897 -0.052457068 -0.0040499973 -0.04514812 -0.0022457356 -0.0061267354 -0.055186745
00000000: 635e 1cbd 1501 36bb 73da 5abd 7fde 18bd
00000010: f083 a0bc 9474 30bd d0db 46bc ceb4 4ebd
00000020: cc3f 13bd 5c02 f7bb dc4d 93bc 5f23 4bbd
00000030: 6065 d0bc 9b89 fc3b be4b 86bb cf4e b7bc
00000040: 9c44 46bd 4c64 2abd 2447 1bbc 3856 11ba
00000050: 20fa 80ba f8c6 42bd 68ad 00bc 1007 31bd
00000060: a09b 3dbd 6536 a5ba 94d6 2bbd ce81 16bd
00000070: a1d9 1abd da1e 63bd 37c4 f6bc d265 1ebd
00000080: d8e4 e9bc 313d f0bb b0b4 7dbd 7829 62bd
00000090: 6eea 0abd 4e1a 22bd 6afe 17bd ef03 5fbd
000000a0: 00ec 19bc d93c c0bc dd95 edbc 598a a2bb
000000b0: 8316 2cbd 5fd5 1bbd d577 c4bb 20fa c6bc
000000c0: d1c8 99bb 54c9 54bd 826a 42bd aae7 d9bc
000000d0: fa75 72bd 17e0 5dbc d552 6bbd 0948 53bd
000000e0: 8e7c f4bc 9158 75bc bed8 023b eb89 c73b
000000f0: 07ae 8bbc 8549 503b 129f 05bd 83a4 31bd
00000100: bb6c 0dbd 0e40 d6ba eefe 03bd a135 a8bc
00000110: 4cc8 1dbd 80ad bcbc 95c3 09bd 2ba3 efbc
00000120: 2e26 e5b9 2712 9bbc 1fe9 09bd b454 73bd
00000130: 5c00 a3bc 8107 3fbd 74df 11bd 7886 753b
00000140: 4e16 2dbd 1abe 07bb 7000 18bb a9bc 17bd
00000150: 6bb8 47bd 053b 34bd 70ad 69bc d043 2db9
00000160: 4bf7 3ebd 19ef 02bd 1173 4ebd e91b 66bd
00000170: ccee bbbc 9282 6ebc 7a63 3dbd d9b1 30bd
00000180: d39c 4abd f94b 18bd a664 5abd 8351 1dbd
00000190: b5df 04bd c285 44bd cf75 6abc 24e6 37bd
000001a0: 05e6 2cbc db4d ebbc ee28 2cbd 0bb5 25bd
000001b0: 2b74 f4bc a0bf 2cbd e717 51bd 3b4a f4bc
000001c0: 9029 cbbc d352 32bd 458f 43bd 8617 3bbd
000001d0: 39fa aebc cb31 15bd 5835 0ebd 4cef ccbb
000001e0: 26ab 7ebb 6864 c3bb 39dd 56bd d7b5 84bb
000001f0: 3ced 38bd 312d 13bb c8c2 c8bb 7f0b 62bd

layers1d.3.weight f4 [128, 128]
-0.100217715 -0.064328074 0.050575774 0.11536005 -0.10891795 -0.0102195265 -0.013446053 0.064877234
-0.02183851 -0.1866267 0.005786562 -0.008891506 0.090032965 -0.03560702 -0.05801504 -0.0865439
-0.03135039 0.059807077 -0.03609355 -0.07419176 0.03920106 0.12791277 -0.03501221 -0.025089717
-0.06800699 -0.019324033 0.05175199 0.0061113616 -0.088143 0.021323618 0.14841369 -0.05176671
-0.13168217 -0.029080901 0.11863556 -0.04212776 0.024976278 -0.12544605 -0.14864348 -0.060962815
-0.102572665 -0.032078076 0.014553755 -0.061287597 0.06910212 -0.011684266 -0.030113073 -0.010146312
0.098492324 -0.044266354 0.028345745 0.043935414 0.002577127 -0.051758062 0.005222372 -0.12627915
0.06255213 -0.035377923 0.060352333 -0.11682184 0.02450643 -0.09533469 -0.052429385 -0.06004674
-0.057567187 -1.0011959e-06 -0.061105322 -0.011755446 -0.08726976 0.052574135 -0.022267265 -0.029781256
-0.10122748 0.076846875 -0.040243004 -0.1014072 -0.031619508 -0.13003658 -0.02781547 -0.011560405
0.03403614 0.0017278992 0.033788677 -0.12199423 -0.022147615 0.0040745703 0.09258228 -0.007783807
-0.10426125 0.015206324 0.130537 0.00791328 -0.014210291 0.055853322 -0.13177364 -0.12506187
-0.09956534 -0.0071951556 0.11632443 -0.12121903 -0.03505327 -0.15213768 -0.04893307 0.0073920037
0.035492327 -0.017906852 0.1247701 0.10980237 0.14318328 -0.008395384 0.1762426 -0.036271892
0.17394544 -0.08503608 -0.13886556 -0.04349206 0.017147752 -0.08385327 -0.052763496 0.025752055
-0.052323986 -0.1303916 0.11187689 -0.041282956 -0.10904474 -0.031994816 -0.06860138 -0.03205533
0.085602574 -0.13072091 0.10131171 0.18332948 0.0062198443 -0.11848381 -0.044878405 0.031517908
0.006311749 -0.021637982 0.030213568 -0.0315039 -0.0033721244 -0.06997286 0.021106558 -0.11995197
0.040994465 0.049172692 -0.074201345 -0.11283938 0.023304315 0.086443424 0.10802646 -0.08855941
-0.019812506 -0.09047814 0.0060131755 -0.1643247 -0.10395211 0.03693858 0.08239614 -0.08352819
-0.06852534 -0.047856934 -0.004289628 -0.0334721 -0.020301986 0.00274321 -0.05529481 -0.04584194
-0.05867783 -0.095107734 0.025411451 -0.09228429 0.057657044 -0.12926257 -0.084532596 -0.09619822
0.056958042 -0.08215005 0.12156579 0.068150744 0.11537922 0.0692673 0.105789 -0.1385965
0.09088851 0.023141561 0.012791178 -0.06114627 0.030332625 0.05516869 -0.04096309 0.11110143
-0.11641966 -0.099675156 -0.024045661 -0.019119274 -0.14739735 0.04731329 0.04651668 0.06477848
-0.029570324 -0.00040687778 -0.0816528 0.05818013 0.07520453 -0.036339507 -0.017080842 0.10070665
-0.021546692 -0.03930867 0.06473972 0.009575385 -0.11038812 -0.006750687 0.11399748 0.09034051
-0.07194911 0.071484946 0.033404656 0.0026776486 -0.10052582 0.11209305 -0.05461238 -0.06740641
-0.13829975 -0.05344967 0.012997443 -0.11293923 -0.027454417 -0.021548606 -0.1069763 0.05104348
-0.012408455 -0.0936653 0.11599613 0.11035846 -0.035975073 0.0050619747 0.122590445 -0.043781124
0.019047888 -0.024846692 -0.13236697 -0.1391406 -0.083915845 -0.052644186 0.10719481 -0.10224441
-0.052270547 -0.04160164 0.19008149 -0.07472934 -0.15848672 -0.1804567 -0.17495672 -0.124843284
00000000: f23e cdbd 70be 83bd 8b28 4f3d e441 ec3d
00000010: 6010 dfbd cd6f 27bc d54c 5cbc 5bde 843d
00000020: ade6 b2bc 121b 3fbe 339d bd3b aead 11bc
00000030: 3463 b83d abd8 11bd 2ea1 6dbd ee3d b1bd
00000040: 4469 00bd 44f8 743d d5d6 13bd d9f1 97bd
00000050: 4a91 203d 91fb 023e f768 0fbd f388 cdbc
00000060: 4047 8bbd 6f4d 9ebc e5f9 533d d141 c83b
00000070: 5184 b4bd deae ae3c c2f9 173e 5409 54bd
00000080: b1d7 06be 123b eebc 33f7 f23d 288e 2cbd
00000090: 0d9b cc3c ee74 00be ff35 18be 25b4 79bd
000000a0: 9e11 d2bd 4d64 03bd df72 6e3c b408 7bbd
000000b0: 6a85 8d3d 5d6f 3fbc b1af f6bc b83c 26bc
000000c0: 58b6 c93d a350 35bd 5635 e83c 9ff5 333d
000000d0: 04e5 283b 4300 54bd 6e20 ab3b 524f 01be
000000e0: 551b 803d 71e8 10bd 0234 773d 4a40 efbd
000000f0: b5c1 c83c d53e c3bd 32c0 56bd 92f3 75bd
00000100: 92cb 6bbd d460 86b5 9349 7abd ea99 40bc
00000110: 7dba b2bd fa57 573d d769 b6bc d2f7 f3bc
00000120: 5a50 cfbd e561 9d3d d9d5 24bd 94ae cfbd
00000130: 7583 01bd 4f28 05be 45dd e3bc da67 3dbc
00000140: 7b69 0b3d ad7a e23a ff65 0a3d 1cd8 f9bd
00000150: ea6e b5bc f983 853b c79b bd3d 4e0f ffbb
00000160: ec86 d5bd f223 793c 7eab 053e b4a6 013c
00000170: 48d2 68bc 74c6 643d abef 06be 3810 00be
00000180: eae8 cbbd 57c5 ebbb 813b ee3d af41 f8bd
00000190: 0594 0fbd fbc9 1bbe 0b6e 48bd 9f38 f23b
000001a0: 6760 113d 64b1 92bc 7787 ff3d 11e0 e03d
000001b0: a39e 123e cb8c 09bc f178 343e d691 14bd
000001c0: c11e 323e 6527 aebd c632 0ebe bb24 32bd
000001d0: 7179 8c3c 43bb abbd 891e 58bd f9f5 d23c
000001e0: ad51 56bd 6085 05be b61f e53d 5118 29bd
000001f0: d952 dfbd ff0c 03bd e17e 8cbd 734c 03bd
00000200: 6750 af3d b4db 05be 847c cf3d b9ba 3b3e
00000210: d6cf cb3b a4a7 f2bd 6bd2 37bd ec18 013d
00000220: cad2 ce3b 2342 b1bc 7282 f73c 3c0a 01bd
00000230: dcfe 5cbb ee4d 8fbd a9e7 ac3c 61a9 f5bd
00000240: d0e9 273d 4e69 493d e0f6 97bd 5518 e7bd
00000250: b1e8 be3c 4009 b13d fa3c dd3d a35e b5bd
00000260: d64d a2bc 9a4c b9bd 2c0a c53b bc44 28be
00000270: d8e4 d4bd e94c 173d 4fbf a83d d410 abbd
00000280: 0357 8cbd a205 44bd 0290 8cbb 0a1a 09bd
00000290: 5a50 a6bc 6dc7 333b d07c 62bd c2c4 3bbd
000002a0: 2a58 70bd d8c7 c2bd ad2b d03c 8cff bcbd
000002b0: cb29 6c3d 685d 04be 6d1f adbd 9303 c5bd
000002c0: d64c 693d 493e a8bd 7cf7 f83d 9e92 8b3d
000002d0: f14b ec3d 04dc 8d3d e7a7 d83d 3eec 0dbe
000002e0: c123 ba3d 5f93 bd3c 1792 513c 8374 7abd
000002f0: 207c f83c 90f8 613d eac8 27bd 2689 e33d
00000300: 6e6d eebd 7d22 ccbd 68fb c4bc 06a0 9cbc
00000310: 55ef 16be 95cb 413d 4688 3e3d 94aa 843d
00000320: 773d f2bc 3652 d5b9 9539 a7bd 4a4e 6e3d
00000330: d504 9a3d bcd8 14bd 1fed 8bbc 4a3f ce3d
00000340: b082 b0bc 2102 21bd 4296 843d 13e2 1c3c
00000350: 2b13 e2bd de34 ddbb 8377 e93d 7204 b93d
00000360: 0e5a 93bd b366 923d 52d3 083d 7d7b 2f3b
00000370: 7be0 cdbd 0a91 e53d 3bb1 5fbd 5f0c 8abd
00000380: 739e 0dbe 0bee 5abd 3af3 543c af4c e7bd
00000390: 16e8 e0bc b486 b0bc 6416 dbbd f812 513d
000003a0: d54c 4bbc 98d3 bfbd 618f ed3d 9e03 e23d
000003b0: 995a 13bd ecde a53b b310 fb3d d653 33bd
000003c0: 510a 9c3c 4a8b cbbc 358b 07be e07a 0ebe
000003d0: 12dc abbd 6ea1 57bd f488 db3d 8465 d1bd
000003e0: a419 56bd 7b66 2abd b9a4 423e b20b 99bd
000003f0: 584a 22be a4c9 38be db27 33be d6ad ffbd

layers1d.3.bias f4 [128]
-0.009607839 0.009040275 -0.011505121 0.0064583747 -0.032878075 -0.034077838 0.004478727 0.015029739
0.028303994 -0.025509244 0.02422288 -0.0037977912 0.01806612 0.0038125957 -0.020975247 -0.023047406
0.0003206182 -0.02612412 -0.003636113 0.011608518 -0.0037300088 -0.0012214863 -0.033741612 0.022411158
0.02888886 -0.006648746 0.009047478 -0.016497998 0.009683976 -0.04224677 0.0042431806 0.017701158
-0.06540645 -0.017139647 -0.009558753 0.0009920038 0.009123261 0.014129307 0.0052937167 0.015633754
0.008766013 -0.0046424926 -0.04114258 -0.032184295 0.0043794527 -0.009513427 -0.014840498 -0.011600593
-0.05492077 0.029162267 0.012116855 0.009503903 -0.007849022 0.022837173 -0.00749466 0.016852079
0.0006962707 -0.022577407 -0.055490475 0.021769729 -0.024280416 -0.044476144 -0.03367741 -0.029671198
-0.0049341284 -0.0048180744 0.016975394 0.0054675834 -0.017821662 0.0027529618 -0.050595075 -0.046601262
-0.0033633695 -0.005702389 -0.044699356 -0.0027280813 -0.045998793 -0.03270021 0.020875664 -0.024657289
-0.035700526 -0.011627032 -0.023939256 0.001955618 -0.018491503 -0.0075561125 -0.0051135975 -0.020399453
-0.0040162927 -0.03168742 0.0056330045 -0.0244027 -0.00617258 -0.04996707 -0.0031866026 -0.011943666
-0.00061206374 -0.011689667 -0.028032942 0.017023794 -0.04464824 0.0071221963 -0.023098227 -0.039808467
-0.020613402 -0.027894137 0.01658084 0.003843328 -0.0197093 0.0040520816 0.00080986664 0.020567486
0.006654732 0.027117219 0.0078982655 -0.048892163 0.017759938 0.0018186325 -0.036459982 0.0065705227
-0.0024134738 -0.0102920495 0.005759358 -0.0054481714 -0.0059798276 0.0017389413 0.0043746983 0.03166618
00000000: 336a 1dbc a91d 143c fa7f 3cbc c6a0 d33b
00000010: 29ab 06bd 3495 0bbd 49c2 923b 4b3f 763c
00000020: c7dd e73c c3f8 d0bc 106f c63c 5de4 78bb
00000030: 66ff 933c bedc 793b 48d4 abbc eacd bcbc
00000040: a518 a839 4002 d6bc da4b 6ebb a731 3e3c
00000050: 2a73 74bb 471a a0ba a534 0abd 9b97 b73c
00000060: 55a8 ec3c b9dd d9bb e03b 143c cf26 87bc
00000070: 8aa9 1e3c f30a 2dbd 610a 8b3b 0502 913c
00000080: d1f3 85bd 7268 8cbc 519c 1cbc 2006 823a
00000090: bb79 153c 9c7e 673c ea76 ad3b 5c12 803c
000000a0: 539f 0f3c 0d20 98bb 1f85 28bd aed3 03bd
000000b0: 8381 8f3b 34de 1bbc 8f25 73bc 6a10 3ebc
000000c0: 9af4 60bd b5e5 ee3c c685 463c 42b6 1b3c
000000d0: 2f99 00bc 0615 bb3c c495 f5bb 5f0d 8a3c
000000e0: f085 363a 41f4 b8bc fb49 63bd 6e56 b23c
000000f0: b9e7 c6bc 9e2c 36bd 53f1 09bd 0311 f3bc
00000100: 78ae a1bb f0e0 9dbb fb0f 8b3c 6a29 b33b
00000110: bcfe 91bc 096b 343b c83c 4fbd f7e0 3ebd
00000120: fa6b 5cbb 1bdb babb ac16 37bd 9cc9 32bb
00000130: 3b69 3cbd a8f0 05bd 7103 ab3c 15fe c9bc
00000140: b73a 12bd 4f7f 3ebc 421c c4bc d329 003b
00000150: 7e7b 97bc 4499 f7bb f78f a7bb c11c a7bc
00000160: 1b9b 83bb abca 01bd 1195 b83b 2ce8 c7bc
00000170: 5b43 cabb 45aa 4cbd 52d6 50bb 5eaf 43bc
00000180: e772 20ba 0486 3fbc 57a5 e5bc 7c75 8b3c
00000190: 13e1 36bd 5061 e93b 7e38 bdbc 340e 23bd
000001a0: 70dd a8bc 3f82 e4bc 8bd4 873c 58e0 7b3b
000001b0: 6675 a1bc 53c7 843b 3b4d 543a 257d a83c
000001c0: f00f da3b ee24 de3c ba67 013c 2643 48bd
000001d0: 4a7d 913c 2e5f ee3a 1057 15bd 8a4d d73b
000001e0: 5f2b 1ebb fc9f 28bc ffb8 bc3b 9386 b2bb
000001f0: 6ef2 c3bb 30ed e33a a159 8f3b 65b4 013d

combined.0.weight f4 [64, 128]
0.08904292 -0.0052630627 -0.14642847 0.03683264 0.03364101 -0.021032993 -0.0059206397 0.12791097
-0.057238925 0.032055564 -0.037481803 -0.121411406 -0.07386417 -0.046344567 -0.016898451 -0.087370165
0.083350584 -0.031235468 -0.057711404 0.01856644 -0.10852073 -0.029452678 -0.014059458 0.09033217
-0.031017361 0.105346926 0.034383718 -0.025230901 0.026589122 -0.052597743 -0.02914033 0.037154254
0.106768474 0.092579655 -0.04108945 -0.047403388 0.114325054 0.012483707 -0.030889038 -0.10533634
-0.007518924 -0.07304381 -0.015999297 0.0910641 -0.03852515 0.08719561 0.021477785 -0.13082066
0.053607468 -0.08756749 -0.011272202 0.010145841 -0.10753023 0.032859635 0.04515784 -0.0015626376
-0.12836985 -0.097922504 0.10506315 -0.07549091 -0.098712035 0.06215548 0.061705176 0.091471925
-0.08063984 0.024686277 -0.056182023 -0.109363355 -0.029743852 -0.114057295 -0.03700625 -0.004999133
0.0016047317 -0.027397808 -0.045368645 0.1270383 0.11450171 0.08455516 -0.046268236 -0.0044865236
-0.024240788 0.13471892 0.095662124 -0.0181151 -0.08072047 0.008942524 0.00927943 0.0019043784
0.0066048647 -0.0023842975 0.04460239 -0.035338808 -0.10818977 -0.033306994 -0.024974428 0.0007984461
-0.108665906 0.104853146 0.008839386 -0.054888412 -0.023718603 0.09933073 0.048985127 0.021211615
0.08565584 0.03959051 0.06793648 0.056196306 -0.12078599 -0.052363448 0.017499555 0.035179827
-0.012026658 0.030734517 -0.065693125 0.10170946 0.007539175 0.003439487 0.06511598 0.047793865
-0.023338377 -0.12379944 -0.036888212 0.018959453 -0.02752581 0.0012559401 0.0074394722 0.087182686
0.007485153 -0.032032087 0.11817375 -0.004628386 -0.09338273 -0.07977323 -0.07424202 -0.06001991
0.043009404 0.12380077 0.07070455 -0.033599418 0.036437567 0.012897577 0.05986323 0.04694796
-0.115518555 0.01901725 -0.069063455 0.10962203 -0.030558927 0.0387532 -0.08414867 -0.06434935
0.00093604135 -0.018906023 0.03260097 0.042383477 -0.013465044 -0.046494674 -0.11820128 -0.064487286
-0.023658803 -0.12035448 -0.01398436 0.08921992 -0.0056913947 -0.030598667 0.09903363 0.063071035
0.032498997 0.03360959 -0.055033214 -0.087781884 -0.025356352 -0.053660814 0.05792667 0.038629815
0.029900957 0.05013312 0.0072912024 -0.0063319607 -0.036059763 -0.024637096 -0.06052938 -0.0911849
0.062319223 0.099122085 -0.043543465 0.02103745 0.04523667 -0.049283765 0.073059864 -0.07985466
0.0759048 0.0024062407 0.113903634 -0.05272104 -0.07409513 0.012839967 0.0037433142 -0.031075446
0.04422411 -0.085058734 0.010156041 0.034325007 0.062499583 -0.035544425 0.024411136 -0.09100879
0.0010548305 -0.089600794 -0.08711693 -0.04010077 -0.057229113 -0.036677353 -0.11777589 0.1598959
0.047896184 0.04620061 0.09626093 -0.07733468 0.012997882 0.004912218 0.10663181 0.08542378
0.018842028 0.0033128813 0.013014637 -0.08293341 -0.036866814 -0.04082454 0.03570676 -0.086541034
-0.068942815 0.08717253 -0.022046829 0.007365138 0.049500626 0.0067626787 0.009325418 -0.028366182
-0.02564124 -0.09933039 0.015696552 0.024850992 -0.021682957 0.073235326 -0.029313639 -0.052272044
0.044524495 -0.029302552 0.034430817 0.0017083917 0.02362034 -0.08094122 0.1006926 0.055717014
00000000: 225c b63d c575 acbb 58f1 15be d3dd 163d
00000010: 28cb 093d 624d acbc ed01 c2bb 18fb 023e
00000020: 5d73 6abd b24c 033d 8586 19bd 8ba6 f8bd
00000030: 1946 97bd cdd3 3dbd 9f6e 8abc 21ef b2bd
00000040: b6b3 aa3d 86e1 ffbc cb62 6cbd a618 983c
00000050: 1e40 debd be46 f1bc a459 66bc 1300 b93d
00000060: 1f18 febc 21c0 d73d f1d5 0c3d 09b1 cebc
00000070: 6ed1 d93c bb70 57bd b4b7 eebc 0f2f 183d
00000080: 6ea9 da3d 679a bd3d 694d 28bd 0e2a 42bd
00000090: 4123 ea3d 7688 4c3c 020b fdbc 94ba d7bd
000000a0: 4e61 f6bb fe97 95bd f510 83bc d17f ba3d
000000b0: 8ccc 1dbd 9d93 b23d 2ef2 af3c daf5 05be
000000c0: 8193 5b3d 9656 b3bd 0baf 38bc be3a 263c
000000d0: cf38 dcbd d397 063d 6df7 383d 6bd1 ccba
000000e0: 6373 03be 988b c8bd 592b d73d fa9a 9abd
000000f0: 8929 cabd bf96 7e3d 91be 7c3d a255 bb3d
00000100: 8026 a5bd e03a ca3c 1f1f 66bd e5f9 dfbd
00000110: 61a9 f3bc df96 e9bd de93 17bd c4cf a3bb
00000120: dc55 d23a 5e71 e0bc 79d4 39bd 5416 023e
00000130: df7f ea3d 412b ad3d c383 3dbd b003 93bb
00000140: 9e94 c6bc c2f3 093e 81ea c33d 1e66 94bc
00000150: c650 a5bd aa83 123c c008 183c 569c f93a
00000160: 9f6d d83b e041 1cbb ffb0 363d 6dbf 10bd
00000170: 9992 ddbd ea6c 08bd 2c97 ccbc d04e 513a
00000180: 3b8c debd 3fbd d63d 12d3 103c acd2 60bd
00000190: 844d c2bc e96d cb3d a1a4 483d fbc3 ad3c
000001a0: 546c af3d a929 223d 4822 8b3d 192e 663d
000001b0: a55e f7bd 0e7b 56bd 3a5b 8f3c b918 103d
000001c0: 760b 45bc f4c6 fb3c 1e8a 86bd 0d4d d03d
000001d0: 2f0b f73b 0469 613b 875b 853d 80c3 433d
000001e0: 2030 bfbc 908a fdbd 1818 17bd db50 9b3c
000001f0: cf7d e1bc 5b9e a43a d1c6 f33b d68c b23d
00000200: 0446 f53b 1434 03bd 1405 f23d b7a9 97bb
00000210: 723f bfbd 2660 a3bd 330c 98bd 70d7 75bd
00000220: a12a 303d 428b fd3d 8ccd 903d 8b9f 09bd
00000230: 8f3f 153d 5c50 533c 2533 753d 814c 403d
00000240: fe94 ecbd 10ca 9b3c 2471 8dbd 8481 e03d
00000250: b756 fabc adbb 1e3d 2356 acbd 98c9 83bd
00000260: ac60 753a cee0 9abc 9888 053d 4c9a 2d3d
00000270: 7d9c 5cbc 3371 3ebd 8313 f2bd e911 84bd
00000280: 1bd0 c1bc 697c f6bd a81e 65bc efb8 b63d
00000290: e17e babb 0eaa fabc 25d2 ca3d 632b 813d
000002a0: ab1d 053d 36aa 093d 826a 61bd fdc6 b3bd
000002b0: 20b8 cfbc 71cb 5bbd 8444 6d3d 4c3a 1e3d
000002c0: daf2 f43c 6358 4d3d 0aeb ee3b 567c cfbb
000002d0: 67b3 13bd bcd3 c9bc a8ed 77bd 26bf babd
000002e0: 7142 7f3d 8500 cb3d a25a 32bd bb56 ac3c
000002f0: 164a 393d c6dd 49bd 69a0 953d d78a a3bd
00000300: fa73 9b3d 05b2 1d3b 4f46 e93d 04f2 57bd
00000310: 30bf 97bd ba5e 523c 6452 753b ef91 febc
00000320: 5724 353d 4633 aebd 8665 263c 6198 0c3d
00000330: 90ff 7f3d 0897 11bd ddf9 c73c d162 babd
00000340: 3d42 8a3a 9f80 b7bd 5c6a b2bd b440 24bd
00000350: 1369 6abd fe3a 16bd 7c34 f1bd c0bb 233e
00000360: ca2e 443d da3c 3d3d 7324 c53d a561 9ebd
00000370: 12f5 543c acf6 a03b c761 da3d aaf2 ae3d
00000380: 995a 9a3c ed1c 593b 583b 553c fed8 a9bd
00000390: a801 17bd a237 27bd 4041 123d 6d3c b1bd
000003a0: e431 8dbd 8387 b23d 8d9b b4bc 4157 f13b
000003b0: 2bc1 4a3d 7699 dd3b a3c9 183c 3260 e8bc
000003c0: 940d d2bc bb6d cbbd 0e96 803c 4f94 cb3c
000003d0: 75a0 b1bc 67fc 953d 2823 f0bc 361b 56bd
000003e0: 515f 363d e80b f0bc 5407 0d3d 1dec df3a
000003f0: 717f c13c 83c4 a5bd ec37 ce3d 8637 643d

combined.0.bias f4 [64]
0.02416418 0.08220673 0.0006370001 -0.0022309728 0.06042832 0.019736497 0.027447006 0.05454702
0.01825796 -0.022035902 0.04005519 0.046353053 0.024385355 0.037074 0.018909577 0.072441004
0.00932528 0.000120342615 0.0060543837 0.034376405 0.015850423 -0.023383006 0.057648547 -0.016857097
0.054799426 0.028079577 0.031774886 0.011750705 0.028119275 0.081618614 0.06284021 0.05241299
0.036989074 0.010859198 0.050807323 0.0030913071 0.056319322 0.0039994847 0.08797906 0.05723127
-0.0020823707 0.032659467 0.04327506 0.021211362 0.022491159 -0.022438966 0.025431449 0.08013153
-0.019901156 -0.0048505394 0.047791023 0.0086371135 0.028107742 0.06550313 0.040761694 0.067428425
0.05324143 -0.0058030076 -0.0247596 0.002750028 0.041203007 0.03524572 0.011454792 0.059142888
00000000: f5f3 c53c 015c a83d 5afc 263a 8335 12bb
00000010: b083 773d 6fae a13c 8bd8 e03c b26c 5f3d
00000020: b891 953c a384 b4bc e910 243d b3dc 3d3d
00000030: ccc3 c73c e8da 173d 42e8 9a3c f35b 943d
00000040: 0fc9 183c 7360 fc38 da63 c63b 46ce 0c3d
00000050: bfd8 813c b88d bfbc e220 6c3d e517 8abc
00000060: 5d75 603d 2407 e63c 6226 023d 0786 403c
00000070: 655a e63c a927 a73d 5eb2 803d 01af 563d
00000080: db81 173d c7ea 313c 571b 503d 8797 4a3b
00000090: 17af 663d 1c0e 833b 5e2e b43d 566b 6a3d
000000a0: 6278 08bb efc5 053d 3041 313d 73c3 ad3c
000000b0: 613f b83c ecd1 b7bc 9d55 d03c 001c a43d
000000c0: c007 a3bc 46f1 9ebb 85c0 433d ae82 0d3c
000000d0: 3542 e63c 8126 863d bcf5 263d ea17 8a3d
000000e0: b013 5a3d 2827 bebb a5d4 cabc d039 343b
000000f0: 7cc4 283d d15d 103d e1ac 3b3c d03f 723d

combined.3.weight f4 [64, 64]
-0.047622327 0.14296761 -0.022316735 -0.0725501 0.081605926 -0.18517502 0.06104502 0.023016758
-0.066701695 -0.077495776 0.11670297 -0.25530073 0.00014076586 0.013896155 -0.19606641 0.04336747
-0.05575378 0.07111333 -0.21889786 -0.019136911 -0.0017652888 0.13599363 -0.22622669 -0.05042504
0.020656854 -0.08494889 -0.14234734 -0.063022055 -0.1838782 -0.1656033 -0.13694279 -0.10713585
0.06796176 0.019879287 -0.04994611 0.0114215445 -0.12791876 -0.12625216 -0.18989791 -0.06421218
0.035836387 -0.23267613 -0.031800583 -0.026126277 -0.11311993 0.043430846 -0.04835288 0.053844623
-0.10285623 -0.070314355 -0.2393325 -0.046556473 0.067559846 0.06576987 -0.19262849 -0.20794803
0.105103046 0.012468896 -0.057784315 -0.15416694 -0.21897191 -0.037957974 -0.12994246 -0.2445927
-0.16195862 -0.020256694 0.04313631 -0.19818579 0.0010114171 -0.11256699 0.04682712 0.03663838
0.01796363 0.054057326 0.037008528 -0.18890211 0.10139083 0.073186144 -0.13053003 -0.02489235
-0.2583858 0.18621016 -0.15790498 -0.005719129 0.020441687 -0.0638263 -0.04006176 -0.100651264
0.04510858 -0.059018295 -0.17036909 -0.10667421 -0.20886967 -0.105794996 -0.21381056 -0.03316817
0.113064915 -0.015337824 -0.04369962 -0.14438401 -0.11436546 -0.18576102 -0.0668696 -0.02071418
0.009174129 -0.10817452 0.13440654 0.17223391 -0.1451931 0.078847006 0.06581961 -0.05878674
-0.09168942 -0.016200474 -0.06589006 -0.05041814 0.106906 0.11300125 -0.04162574 0.007862148
-0.08016527 -0.19188085 0.04592608 -0.123363 -0.03798025 -0.037128743 -0.25677145 -0.17922331
-0.0701305 0.0053382674 -0.12264063 0.071045384 0.06034446 0.04906523 -0.15861842 -0.102169774
-0.1256094 -0.06075831 -0.0055204774 0.014886322 -0.0923921 -0.02643549 0.016131265 0.016389152
0.0006791191 -0.06546671 -0.029700797 -0.15341327 -0.05967579 0.04977672 -0.011071976 0.0072363396
-0.12151529 0.026254946 0.12298023 0.10245102 0.063787565 -0.019336179 0.032064423 0.013706573
-0.059410427 -0.18054874 -0.06581672 0.067648925 -0.03890167 0.033258528 0.05516119 0.06891188
-0.07227827 0.056551445 -0.086530246 -0.17884499 -0.045930676 -0.060313333 -0.19224322 0.0030380269
0.034760498 -0.0831438 -0.0013028529 -0.16629945 -0.17934945 -0.0213525 -0.06927555 -0.045889795
-0.141874 0.057027403 -0.025247443 0.09000213 -0.054156594 -0.16578029 0.023856958 0.053711668
-0.015686657 -0.20485035 -0.16560458 0.09351116 -0.16493613 0.044497684 -0.1972373 -0.09678941
-0.20009017 0.058458634 -0.22425194 -0.0929925 -0.17727526 -0.19415115 -0.03305162 -0.23444732
0.0945889 -0.06261384 0.09395924 -0.24414685 -0.09765497 0.15704985 0.051612437 0.054175414
-0.25251755 -0.053751193 0.08083445 -0.070702486 -0.012498781 0.073800504 0.06386595 -0.19264595
-0.14193235 -0.057484917 -0.26684 0.08655452 0.051546972 0.05177096 0.03093846 -0.0042485115
-0.050370153 -0.08715624 -0.24925962 -0.16547914 0.037973754 -0.15164897 -0.08691205 -0.21457297
-0.11469028 -0.049445633 0.04298276 -0.18903 -0.058202524 -0.1416723 -0.050697647 0.117421724
-0.18554847 0.09575327 -0.016285146 0.05345658 0.062220667 -0.21233046 -0.056898534 -0.116556935
00000000: a10f 43bd 1a66 123e 96d1 b6bc 2695 94bd
00000010: 0221 a73d 859e 3dbe 580a 7a3d a48d bc3c
00000020: e69a 88bd 1bb6 9ebd f701 ef3d c7b6 82be
00000030: 8c9a 1339 b3ac 633c a2c5 48be 17a2 313d
00000040: 135e 64bd dea3 913d c326 60be 03c5 9cbc
00000050: 4361 e7ba ea41 0b3e f8a7 67be 7d8a 4ebd
00000060: 9038 a93c aff9 adbd 80c3 11be b511 81bd
00000070: 914a 3cbe e993 29be bb3a 0cbe 0a6a dbbd
00000080: 892f 8b3d e3d9 a23c 4b94 4cbd 6e21 3b3c
00000090: 23fd 02be 3f48 01be 9974 42be ad81 83bd
000000a0: 2dc9 123d a742 6ebe 5441 02bd c606 d6bc
000000b0: 6cab e7bd 8be4 313d ab0d 46bd 2e8c 5c3d
000000c0: 4aa6 d2bd f900 90bd 9413 75be 00b2 3ebd
000000d0: d15c 8a3d 5bb2 863d 6740 45be 54f0 54be
000000e0: 4440 d73d 574a 4c3c 3faf 6cbd f0dd 1dbe
000000f0: 2c3a 60be d279 1bbd a30f 05be 8276 7abe
00000100: 7bd8 25be 5ef1 a5bc b3af 303d 37f1 4abe
00000110: 8791 843a 8689 e6bd cbcd 3f3d 2012 163d
00000120: 7628 933c 376b 5d3d 4196 173d 8e6f 41be
00000130: ffa5 cf3d 9ee2 953d aaa9 05be 0beb cbbc
00000140: 254b 84be e0ad 3e3e d8b1 21be 8867 bbbb
00000150: 5375 a73c 5db7 82bd cd17 24bd 4022 cebd
00000160: c6c3 383d 2bbd 71bd 3c75 2ebe 0278 dabd
00000170: eee1 55be 0cab d8bd 28f1 5abe 59db 07bd
00000180: 948e e73d 7f4b 7bbc 5ffe 32bd 67d9 13be
00000190: 7038 eabd 2338 3ebe eef2 88bd c9b0 a9bc
000001a0: 164f 163c 9a8a ddbd dea1 093e 165e 303e
000001b0: 80ad 14be 8a7a a13d 6fcc 863d 5dca 70bd
000001c0: aac7 bbbd dbb6 84bc 5ef1 86bd 4083 4ebd
000001d0: 88f1 da3d 336d e73d c07f 2abd 3dd0 003c
000001e0: b02d a4bd 6a7c 44be fc1c 3c3d bea5 fcbd
000001f0: 2e91 1bbd 4f14 18bd 8c77 83be 5186 37be
00000200: 94a0 8fbd a2ec ae3b 032b fbbd 3e80 913d
00000210: c12b 773d 9ff8 483d de6c 22be 633e d1bd
00000220: c09f 00be b5dd 78bd 1fe5 b4bb c3e5 733c
00000230: 1238 bdbd 3e8f d8bc b725 843c 8b42 863c
00000240: e906 323a 6913 86bd 164f f3bc 5e18 1dbe
00000250: 9a6e 74bd ade2 4b3d 3c67 35bc d11e ed3b
00000260: 02dd f8bd 9d14 d73c 0fdd fb3d d7d1 d13d
00000270: 0ea3 823d e866 9ebc fc55 033d 8991 603c
00000280: 5958 73bd c5e1 38be ebca 86bd 858b 8a3d
00000290: 5c57 1fbd 183a 083d b3f0 613d ac21 8d3d
000002a0: a106 94bd 7da2 673d c536 b1bd 2423 37be
000002b0: ce21 3cbd 1d0b 77bd 68db 44be a219 473b
000002c0: 0661 0e3d 4c47 aabd 7dc4 aaba 674a 2abe
000002d0: 62a7 37be 70eb aebc 57e0 8dbd f0f6 3bbd
000002e0: 6b47 11be 9195 693d bad3 cebc 0953 b83d
000002f0: 4ed3 5dbd 4fc2 29be ab6f c33c c400 5c3d
00000300: 4e81 80bc 4ac4 51be 3f94 29be c782 bf3d
00000310: 04e5 28be 3443 363d 93f8 49be 8739 c6bd
00000320: 70e4 4cbe 5272 6f3d 4da2 65be da72 bebd
00000330: a587 35be 8fcf 46be 2361 07bd f512 70be
00000340: d3b7 c13d af3b 80bd b46d c03d a201 7abe
00000350: 54ff c7bd add1 203e 9067 533d 0ae7 5d3d
00000360: fb49 81be 362a 5cbd 888c a53d 77cc 90bd
00000370: b0c7 4cbc b824 973d 27cc 823d fb44 45be
00000380: b756 11be 4e75 6bbd 419f 88be 7f43 b13d
00000390: eb22 533d c90d 543d a772 fd3c 1937 8bbb
000003a0: ef50 4ebd f97e b2bd ea3d 7fbe 5d73 29be
000003b0: 5e8a 1b3d de49 1bbe f2fe b1bd 04b9 5bbe
000003c0: bde2 eabd 8187 4abd b10e 303d 1591 41be
000003d0: c565 6ebd 8b12 11be 56a8 4fbd cd7a f03d
000003e0: 6b00 3ebe 4a1a c43d 6d68 85bc 49f5 5a3d
000003f0: 19db 7e3d 286d 59be 700e 69bd 67b5 eebd

combined.3.bias f4 [64]
0.047945622 0.1596688 0.13200872 0.08667504 0.15841103 0.14888608 0.053740267 0.07318644
0.05561392 0.10385633 0.10127807 0.14988858 0.041755233 0.11229728 0.0849569 0.11411527
0.10366381 0.10513257 0.09393601 0.11130173 0.06778943 0.1039993 0.054299437 0.174315
0.132659 0.10556166 0.10158185 0.11127937 0.08060175 0.10385748 0.13465434 0.12137285
0.0758632 0.10448102 0.077672996 0.079207584 0.1252274 0.081623726 0.07983952 0.13021588
0.10953526 0.13336098 0.09249583 0.12101584 0.09921893 0.10806797 0.106688194 0.12653387
0.10764958 0.10476163 0.07714206 0.088772245 0.098030694 0.08759593 0.08912468 0.039063852
0.09914363 0.0870217 0.03208999 0.1089613 0.11946875 0.08088871 0.06787102 0.14562221
00000000: a162 443d 3880 233e 4b2d 073e af82 b13d
00000010: 8036 223e 9875 183e c11e 5c3d c6e2 953d
00000020: 6ccb 633d a1b2 d43d e06a cf3d 647c 193e
00000030: 8907 2b3d 1efc e53d e2fd ad3d 44b5 e93d
00000040: b14d d43d bf4f d73d 8661 c03d 29f2 e33d
00000050: 2fd5 8a3d 96fd d43d 1669 5e3d a27f 323e
00000060: c3d7 073e b630 d83d 250a d03d 70e6 e33d
00000070: 8812 a53d 3bb3 d43d d4e2 093e 5492 f83d
00000080: 2a5e 9b3d 25fa d53d 0513 9f3d 9637 a23d
00000090: 9d3b 003e 572a a73d e782 a33d 5057 053e
000000a0: 0654 e03d c88f 083e 746e bd3d 27d7 f73d
000000b0: 4b33 cb3d bd52 dd3d 577f da3d 1892 013e
000000c0: 6277 dc3d 448d d63d a8fc 9d3d 39ce b53d
000000d0: 51c4 c83d 7f65 b33d 0087 b63d 6b01 203d
000000e0: d10b cb3d 6f38 b23d cb70 033d 1a27 df3d
000000f0: 08ac f43d fba8 a53d f6ff 8a3d fd1d 153e

combined.6.weight f4 [1, 64]
0.06639787 0.04979961 -0.05067637 -0.094623536 -0.034790322 -0.042763673 0.032369673 0.06855677
0.029237662 -0.04863916 -0.07972743 -0.05009926 0.039229523 0.044359986 0.04217105 0.040015552
0.041340597 0.03960471 0.10590542 -0.09797024 -0.044193972 0.044814497 0.068635166 -0.03994208
-0.06795306 0.066837944 0.032021224 -0.06972446 0.046339855 0.054151613 -0.0792926 -0.038220823
-0.07976055 0.048962846 0.07892569 -0.06848696 -0.047807965 0.037727475 -0.07014092 0.039645087
-0.04695762 -0.03067129 -0.04987273 -0.05353039 0.04398145 -0.036981374 0.09773251 0.058036417
-0.058547676 0.044616915 -0.07230001 -0.043410346 0.048293225 -0.060168717 -0.031741202 0.06442867
-0.068756945 0.045290403 0.080663405 -0.09348742 0.04934843 -0.10484125 0.1127269 -0.050065804
00000000: 9bfb 873d adfa 4b3d 0692 4fbd fcc9 c1bd
00000010: 4c80 0ebd f628 2fbd 1096 043d 7e67 8c3d
00000020: d283 ef3c db39 47bd 2348 a3bd e234 4dbd
00000030: 23af 203d d1b2 353d 8dbb 2c3d 59e7 233d
00000040: c254 293d 8c38 223d f1e4 d83d 9fa4 c8bd
00000050: bd04 35bd 688f 373d 9890 8c3d 4e9a 23bd
00000060: f92a 8bbd 55e2 883d b028 033d b3cb 8ebd
00000070: dcce 3d3d 15ce 5d3d 2964 a2bd 708d 1cbd
00000080: 8059 a3bd 448d 483d cba3 a13d e442 8cbd
00000090: 49d2 43bd 2088 1a3d 0ba6 8fbd e362 223d
000000a0: a256 40bd 5b42 fbbc 5947 4cbd af42 5bbd
000000b0: e525 343d c879 17bd fb27 c83d 98b7 6d3d
000000c0: b0cf 6fbd 3ac0 363d 0712 94bd 0ccf 31bd
000000d0: 1ecf 453d 7973 76bd 1003 02bd 2ef3 833d
000000e0: 71d0 8cbd 6e82 393d db32 a53d 5576 bfbd
000000f0: 9421 4a3d 02b7 d6bd 5cdd e63d cd11 4dbd
